models/drone/policy_ego_rotor_best_iter89.pth (torch, 80830 bytes, 20 tensors)

lstm.weight_ih_l0 f4 [128, 12]
-0.06506584 -0.5105917 0.13289903 0.03598294 -0.33164063 0.033082463 -0.041999277 0.13003437
0.070786536 -0.2740971 -0.17474818 -0.029164208 -0.00874758 0.11391761 0.30401623 -0.06712163
-0.13398094 0.01959269 0.22518514 0.12963696 0.037382115 -0.13565601 -0.08717131 -0.01942479
0.18445191 -0.055515986 -0.114108905 0.23990637 -0.22538097 0.034356922 0.046869796 0.21121272
0.16685165 -0.058347393 -0.18870199 -0.047516923 -0.12297137 0.25160354 0.31351742 -0.25107476
0.15110181 -0.12218358 0.12541765 0.20742008 0.18188378 0.17432164 0.04728688 0.15983625
-0.08990871 0.11085302 -0.39115077 0.0489359 0.19399051 -0.2053111 0.3061087 0.25987044
-0.102150045 -0.10166967 0.066978954 0.021812972 -0.26949528 0.2581942 -0.23461843 0.15205994
0.0751037 -0.17203122 -0.018747512 -0.00039952493 -0.2582707 -0.13439476 0.17117305 -0.06873114
0.31233162 0.16632381 -0.43830216 0.25790858 0.1839394 -0.26794335 -0.44004297 -0.1300324
-0.43776086 -0.14885522 -0.043967538 -0.36681905 -0.19304293 -0.08992378 -0.47336075 -0.0061347005
-0.02108456 0.07186234 -0.07170943 -0.18792266 0.05090809 0.06557506 -0.030286398 -0.06516242
-0.21376377 0.21723284 -0.13369736 -0.18694212 0.081322014 -0.11814699 0.05269189 -0.04650188
-0.14891475 -0.1398215 0.11307838 0.06519308 0.20051281 -0.070239656 -0.19144201 0.22519358
0.1686391 -0.24929507 -0.086162426 -0.032616362 -0.0059278924 0.032571197 -0.17430648 -0.20281985
-0.42561367 0.16693787 0.05641488 -0.30377313 0.21847877 -0.19655512 -0.1701722 -0.003064023
0.106376514 0.1364371 -0.0988732 0.023024347 0.3645863 -0.0024945599 -0.3387705 0.47858077
0.13432324 -0.09733763 -0.12637168 -0.0693412 -0.17881957 -0.031246006 -0.06644978 -0.0414023
0.10094918 -0.24415118 -0.39802265 0.057538897 0.06652665 0.09849299 -0.20621276 0.13829243
-0.09279203 0.0073448215 -0.11503742 -0.10149241 0.17918907 -0.27282223 0.086334355 -0.013529253
-0.28984305 0.13144161 -0.14483535 -0.07213307 -0.17495693 -0.040268354 -0.13808526 -0.048320808
-0.11788993 -0.16145639 -0.5970468 0.28149384 0.032675665 -0.25237367 -0.015196433 0.10435034
-0.124522686 -0.075244516 -0.07054784 -0.12714754 0.14512308 0.042659406 -0.48815852 0.025552621
0.00805443 -0.006919384 -0.13186887 -0.2286098 -0.08228971 -0.047778156 0.21195658 -0.2221842
0.022721644 0.05090331 -0.18306106 0.009148833 0.08799875 0.10802323 0.083952725 -0.34898117
-0.25460553 -0.19470803 0.0389177 -0.12755288 0.46021783 0.62548864 -0.097071536 0.015239229
0.17552769 0.123410575 -0.01757296 -0.17001696 -0.34576988 0.1294005 0.08621683 0.14343002
0.48246917 -0.38518688 -0.34550038 0.35753596 -0.16858906 0.06568413 -0.18616758 -0.13330401
-0.09370086 -0.1031373 -0.06044387 -0.0006942253 0.20352122 0.075547814 -0.33659762 -0.011687675
0.31727308 -0.17688361 -0.36410555 -0.014828993 -0.36818895 -0.026198616 0.08789823 -0.29830155
-0.07519248 0.12142381 0.102785885 0.030934677 -0.20463587 -0.050913163 -0.08234518 0.02475636
-0.13838635 0.3777439 0.3064016 -0.09270139 -0.07063786 0.14211938 -0.26222512 0.01632771
00000000: 3d41 85bd 23b6 02bf af16 083e d962 133d
00000010: cdcc a9be 7a81 073d 6f07 2cbd bb27 053e
00000020: 88f8 903d 7556 8cbe 30f1 32be c7e9 eebc
00000030: 0352 0fbc a34d e93d 04a8 9b3e 1177 89bd
00000040: 4d32 09be d980 a03c ef96 663e 8dbf 043e
00000050: fd1d 193d 69e9 0abe df86 b2bd bd20 9fbc
00000060: f6e0 3c3e bb64 63bd eeb1 e9bd 04aa 753e
00000070: 45ca 66be d8b9 0c3d 8bfa 3f3d 2648 583e
00000080: 29db 2a3e adfd 6ebd 183b 41be 1ba1 42bd
00000090: 6ad8 fbbd 2ed2 803e 5b85 a03e df8c 80be
000000a0: 6fba 1a3e 633b fabd 7c6d 003e ee65 543e
000000b0: be3f 3a3e 5f81 323e e3af 413d 1dac 233e
000000c0: 0f22 b8bd e806 e33d ea44 c8be 0371 483d
000000d0: 73a5 463e 133d 52be 48ba 9c3e bd0d 853e
000000e0: 0b34 d1bd 3038 d0bd 432c 893d 1eb1 b23c
000000f0: 49fb 89be 0832 843e d03f 70be 9ab5 1b3e
00000100: f8cf 993d f428 30be 6294 99bc 5477 d1b9
00000110: 0f3c 84be c89e 09be fd47 2f3e e9c2 8cbd
00000120: eee9 9f3e ca50 2a3e 2469 e0be 980c 843e
00000130: 9c5a 3c3e df2f 89be 504d e1be 3727 05be
00000140: 3122 e0be 816d 18be 4e17 34bd b5cf bbbe
00000150: 0cad 45be f529 b8bd 575c f2be 9905 c9bb
00000160: 87b9 acbc 902c 933d 65dc 92bd cc6e 40be
00000170: 0085 503d 384c 863d 2e1b f8bc e073 85bd
00000180: e4e4 5abe 4972 5e3e f6e7 08be c16d 3fbe
00000190: 288c a63d 0df7 f1bd 74d3 573d c178 3ebd
000001a0: 1c7d 18be 5e2d 0fbe a395 e73d f383 853d
000001b0: 3b53 4d3e cfd9 8fbd 6009 44be 2599 663e
000001c0: baaf 2c3e 3547 7fbe ed75 b0bd bc98 05bd
000001d0: c43e c2bb 6069 053d 667d 32be 02b0 4fbe
000001e0: 09ea d9be c3f1 2a3e 4a13 673d 2788 9bbe
000001f0: e6b8 5f3e bf45 49be 9f41 2ebe c7cd 48bb
00000200: eedb d93d 2bb6 0b3e 087e cabd 8e9d bc3c
00000210: 0eab ba3e c57b 23bb 5473 adbe 8a08 f53e
00000220: 088c 093e f458 c7bd 9467 01be c202 8ebd
00000230: 7a1c 37be a0f7 ffbc d216 88bd 7595 29bd
00000240: 72be ce3d c402 7abe a0c9 cbbe e8ad 6b3d
00000250: 203f 883d b1b6 c93d 7029 53be 889c 0d3e
00000260: bf09 bebd d4ac f03b bd98 ebbd 41db cfbd
00000270: 577d 373e 5baf 8bbe 11d0 b03d cda9 5dbc
00000280: 4f66 94be a198 063e b84f 14be 81ba 93bd
00000290: e927 33be 6ef0 24bd 3966 0dbe 0aec 45bd
000002a0: 4770 f1bd d354 25be 0fd8 18bf f61f 903e
000002b0: ebd6 053d 1f37 81be 76fa 78bc a2b5 d53d
000002c0: c005 ffbd cc19 9abd 637b 90bd f732 02be
000002d0: 259b 143e a1bb 2e3d eaef f9be bb53 d13c
000002e0: baf6 033c 00bc e2bb a208 07be b018 6abe
000002f0: 8287 a8bd 07b3 43bd 250b 593e 4184 63be
00000300: be22 ba3c fd7f 503d 5c74 3bbe fde4 153c
00000310: b038 b43d 493b dd3d 68ef ab3d a9ad b2be
00000320: a85b 82be 8b61 47be 2b68 1f3d 399d 02be
00000330: aca1 eb3e 0620 203f 71cd c6bd f6ad 793c
00000340: 88bd 333e afbe fc3d 2bf5 8fbc ed18 2ebe
00000350: c008 b1be 9181 043e 7392 b03d 52df 123e
00000360: 3306 f73e 3737 c5be 6de5 b0be f40e b73e
00000370: 9ca2 2cbe 6785 863d b7a2 3ebe d980 08be
00000380: 3de6 bfbd a639 d3bd fe93 77bd acfc 35ba
00000390: de67 503e d0b8 9a3d 8656 acbe a97d 3fbc
000003a0: 9e71 a23e fa20 35be 0b6c babe 4ef5 72bc
000003b0: 4383 bcbe 7b9e d6bc fd03 b43d fbba 98be
000003c0: 84fe 99bd 0cad f83d 6881 d23d b86a fd3c
000003d0: 118c 51be 528a 50bd 97a4 a8bd dacd ca3c
000003e0: 27b5 0dbe a667 c13e ace0 9c3e 3ada bdbd
000003f0: 95aa 90bd be87 113e 5f42 86be b1c1 853c

lstm.weight_hh_l0 f4 [128, 32]
-0.10369276 0.30134538 0.2407415 0.39235896 0.25261813 -0.18608718 -0.3489427 -0.21131858
-0.54107255 -0.37152892 -0.023653867 0.018878648 0.47718456 0.10546846 -0.15145712 -0.10765213
-0.109351136 0.16820724 -0.29116023 -0.07653328 -0.28653055 0.19853832 0.3367681 0.03157391
-0.27527007 0.07857209 0.11380369 0.45622575 0.04463817 0.057357673 0.11679842 -0.27787745
0.16751416 -0.28558078 0.034713935 -0.0014324 0.035986435 -0.25797766 -0.04269591 0.13825403
0.037729602 0.19929755 0.2557338 0.033783898 0.4162933 0.08226838 0.2954193 -0.2486167
0.10215751 0.20563748 -0.055211812 -0.23697779 0.042876698 0.051085327 0.06499068 -0.07915624
-0.12878665 -0.0159201 0.18224193 -0.17536363 0.22037172 0.16094816 0.24023806 -0.17188491
-0.037253123 -0.103020914 -0.18860078 0.3450519 -0.072575234 0.016498907 0.27155584 0.29974702
-0.28712922 0.09500539 0.1208441 -0.084757484 -0.030182756 -0.13946772 -0.046979625 0.13227163
-0.05648142 0.094144695 0.011421429 -0.095827304 0.098551154 -0.046363074 0.26445514 0.16594848
0.031113053 -0.15701997 0.009183488 -0.018096076 -0.10967589 0.08077287 0.10290249 -0.04741505
0.39654443 0.253922 -0.11776603 0.011684278 0.19959219 -0.08737928 -0.13841872 0.20192844
-0.12094702 -0.17438354 0.21579643 0.015272452 -0.27196696 -0.2553727 -0.13211423 0.06577229
-0.2005074 0.07543449 -0.008477834 -0.16447493 0.05305181 -0.25780943 -0.02695716 0.33616206
0.040950146 -0.22898237 -0.12404739 0.18637867 -0.06456218 0.076635435 0.24516599 -0.1485698
-0.042782784 0.13164309 -0.19813637 0.14126284 -0.056156818 0.24334514 -0.14734286 0.0895337
-0.48400474 -0.4759028 -0.060117386 0.15324454 0.015197327 0.12835161 -0.19174108 0.073024794
-0.20498054 -0.0017595204 0.16566187 0.082700424 -0.25573373 0.20872587 -0.0033422613 -0.085401036
0.23162338 -0.046118286 -0.061062157 0.15093648 -0.14377376 -0.21783163 0.028788025 -0.03149614
0.0146814305 0.059275985 -0.41086328 0.37223244 -0.29214835 0.17348212 0.090208836 0.03974802
-0.16536109 0.13621199 -0.023109602 0.057346445 -0.26452217 0.0123389345 -0.04290325 -0.048811514
0.16635953 0.03414856 -0.01856385 -0.15425427 0.20197378 0.0600603 -0.022953087 0.20622757
0.33902425 0.017834814 0.7379486 -0.16870713 -0.1637358 -0.12469727 0.1238402 0.054640166
-0.26942092 -0.014482578 -0.3758844 0.48080036 -0.40126806 -0.014131842 0.10539601 0.04345353
-0.108433045 -0.045161195 -0.20512418 0.18120399 -0.119770974 -0.33821967 -0.07242831 -0.032455225
-0.14323682 -0.11090727 0.25404203 0.29921556 0.13599564 -0.027206441 0.1737069 -0.23747003
0.509898 -0.1532811 0.61595666 -0.4183066 -0.47997504 -0.3183195 0.19375688 0.48224822
0.08004744 -0.036225628 -0.17633359 0.1779557 -0.20471865 -0.105695054 -0.2574563 0.062294208
0.037615694 0.006982383 0.1175088 0.17343101 -0.07297526 0.25174385 0.07225556 0.08840332
0.21089344 -0.018813659 0.0972787 0.106568865 0.05022915 -0.09486495 -0.14301062 0.07208775
0.19651921 -0.23559122 0.43843904 0.019539015 0.009456057 0.02616637 0.00073033525 0.16303128
00000000: df5c d4bd f149 9a3e f184 763e 46e3 c83e
00000010: 2a57 813e a38d 3ebe 9ea8 b2be e663 58be
00000020: bb83 0abf 0a39 bebe c1c5 c1bc 65a7 9a3c
00000030: 8951 f43e d9ff d73d 9317 1bbe b878 dcbd
00000040: 7df3 dfbd 853e 2c3e f412 95be 7bbd 9cbd
00000050: 22b4 92be a14d 4b3e de6c ac3e a553 013d
00000060: 33f0 8cbe 67ea a03d e911 e93d 6c96 e93e
00000070: 84d6 363d e1ef 6a3d 0334 ef3d f445 8ebe
00000080: d588 2b3e a537 92be 3330 0e3d 5ebf bbba
00000090: 8366 133d a615 84be e8e1 2ebd 7792 0d3e
000000a0: 5b8a 1a3d a814 4c3e 8aef 823e fc60 0a3d
000000b0: 6524 d53e 537c a83d 3341 973e 6095 7ebe
000000c0: f537 d13d a292 523e c825 62bd 4eaa 72be
000000d0: 7a9f 2f3d d93e 513d d519 853d ab1c a2bd
000000e0: a6e0 03be df6a 82bc a19d 3a3e 8692 33be
000000f0: 20a9 613e 98cf 243e f700 763e 9902 30be
00000100: bb96 18bd a1fc d2bd 9020 41be a5aa b03e
00000110: 53a2 94bd b728 873c 5e09 8b3e 7178 993e
00000120: 9a02 93be 3092 c23d 1d7d f73d 5595 adbd
00000130: d441 f7bc a0d0 0ebe b56d 40bd 3772 073e
00000140: 1059 67bd efce c03d f220 3b3c 1b41 c4bd
00000150: 30d5 c93d 35e7 3dbd aa66 873e 66ee 293e
00000160: cde0 fe3c d8c9 20be 5776 163c 393e 94bc
00000170: c19d e0bd 3f6c a53d 8abe d23d 4936 42bd
00000180: df07 cb3e 1002 823e 512f f1bd 6a6f 3f3c
00000190: e561 4c3e e8f3 b2bd a3bd 0dbe 54c6 4e3e
000001a0: 12b3 f7bd 9991 32be bdf9 5c3e 4e39 7a3c
000001b0: 413f 8bbe 36c0 82be f448 07be 9fb3 863d
000001c0: d051 4dbe 667d 9a3d 9de6 0abc 1e6c 28be
000001d0: db4c 593d 99ff 83be 43d5 dcbc 6f1d ac3e
000001e0: 57bb 273d 5b7a 6abe 8f0c febd 0dda 3e3e
000001f0: 2d39 84bd 0af3 9c3d cb0c 7b3e af22 18be
00000200: 003d 2fbd 72cd 063e 43e4 4abe 35a7 103e
00000210: b104 66bd 782f 793e 0ce1 16be 725d b73d
00000220: 78cf f7be 88a9 f3be a63d 76bd 23ec 1c3e
00000230: 36fe 783c 9b6e 033e c657 44be 068e 953d
00000240: 6be6 51be b59f e6ba 44a3 293e d75e a93d
00000250: 88ef 82be 3cbc 553e d709 5bbb bde6 aebd
00000260: ae2e 6d3e 87e6 3cbd 501c 7abd 188f 1a3e
00000270: 6e39 13be 410f 5fbe ddd4 eb3c 1902 01bd
00000280: 628a 703c 60cb 723d ac5c d2be 4095 be3e
00000290: 7894 95be 4ca5 313e 69bf b83d d2ce 223d
000002a0: 6b54 29be 287b 0b3e 5950 bdbc 1be4 6a3d
000002b0: 736f 87be 3e29 4a3c 51bb 2fbd 95ee 47bd
000002c0: 275a 2a3e 5cdf 0b3d 3713 98bc d5f4 1dbe
000002d0: 37d2 4e3e ca01 763d 1d08 bcbc 522d 533e
000002e0: 9694 ad3e 511a 923c 33ea 3c3f 90c1 2cbe
000002f0: 5caa 27be 4861 ffbd ee9f fd3d 5ece 5f3d
00000300: 8af1 89be 5648 6dbc ec73 c0be 772b f63e
00000310: 0273 cdbe 3e89 67bc ddd9 d73d 54fc 313d
00000320: 2512 debd f2fa 38bd 130c 52be 8a8d 393e
00000330: 7c4a f5bd 212b adbe 4b55 94bd c5ef 04bd
00000340: acac 12be 5a23 e3bd cc11 823e c832 993e
00000350: 7142 0b3e 0be0 debc 39e0 313e 582b 73be
00000360: ad88 023f b8f5 1cbe 56af 1d3f 482c d6be
00000370: 4abf f5be c6fa a2be 3468 463e 3de9 f63e
00000380: eaef a33d 5361 14bd cb90 34be 053a 363e
00000390: c4a1 51be a676 d8bd 50d1 83be 3628 7f3d
000003a0: ea12 1a3d 79cc e43b 74a8 f03d e697 313e
000003b0: 0e74 95bd 92e4 803e b9fa 933d cd0c b53d
000003c0: 73f4 573e 1a1f 9abc 0e3a c73d c740 da3d
000003d0: 15bd 4d3d 8e48 c2bd 6071 12be bea2 933d
000003e0: 553c 493e d33e 71be 157b e03e 4910 a03c
000003f0: 94ed 1a3c db5a d63c f873 3f3a acf1 263e

lstm.bias_ih_l0 f4 [128]
0.19021495 -0.039200827 0.0041599018 -0.018272202 -0.17931393 -0.0037802435 -0.58930886 0.032819267
-0.3048179 -0.120690845 0.08623093 -0.2702791 -0.19366582 -0.24273768 -0.24487516 -0.46984893
-0.005507384 0.09146803 -0.16195083 -0.21352717 -0.15944524 -0.12841083 -0.115236126 -0.13827825
0.06930579 -0.15624002 -0.044159666 -0.05899841 0.085298926 0.20644073 -0.11805239 0.22343671
0.12287361 -0.07949824 -0.012050507 0.084159285 -0.08269207 -0.2525956 -0.43346033 -0.1941013
-0.013982012 -0.24256334 0.15085056 -0.4440358 -0.13422854 0.014493985 -0.5219481 -0.0592349
-0.3280021 0.15971339 -0.24570468 -0.36151803 0.04695015 -0.14498442 -0.38617635 -0.047180697
0.05745997 0.029870447 -0.38345662 -0.08420093 0.12699145 -0.18445255 -0.040713113 0.15956582
0.07375169 -0.19702668 0.15388766 -0.13742425 0.1465109 -0.053355157 0.061291188 0.0704052
0.016576122 0.14716375 0.06216952 -0.04521841 0.12772422 -0.021487784 -0.09039508 -0.08821575
0.020918228 0.04402213 -0.19592874 -0.035284203 -0.03632784 -0.05730784 -0.092171766 0.04654661
0.002441105 0.050839316 -0.10341272 0.07112847 0.09633161 -0.051040977 -0.10986508 -0.22637571
0.16529953 0.1543544 -0.05034287 -0.10621919 0.04663544 -0.13331833 -0.62749743 0.12019015
0.013808155 -0.04285163 -0.19176474 -0.17586422 -0.03268694 -0.16465738 -0.29888514 -0.33050147
-0.089859955 -0.21145497 -0.13131571 -0.13847551 0.08998674 -0.049488056 -0.27266172 -0.35457918
0.14300568 -0.019154046 -0.061942093 -0.12344429 -0.22770374 -0.18389617 0.008501311 -0.042841587
00000000: b5c7 423e 0c91 20bd c94f 883b 96af 95bc
00000010: 129e 37be f6bd 77bb f2dc 16bf 7f6d 063d
00000020: 1711 9cbe c32c f7bd d899 b03d 0662 8abe
00000030: 5550 46be 3a90 78be 8ec0 7abe 0a90 f0be
00000040: 4977 b4bb 9753 bb3d 70d6 25be dea6 5abe
00000050: 9d45 23be 217e 03be eb00 ecbd d098 0dbe
00000060: 32f0 8d3d 62fd 1fbe c4e0 34bd 51a8 71bd
00000070: 34b1 ae3d 3365 533e 74c5 f1bd 98cc 643e
00000080: 29a5 fb3d f9cf a2bd 7d6f 45bc b45b ac3d
00000090: 765a a9bd 3654 81be 83ee ddbe 7ec2 46be
000000a0: cf14 65bc 8662 78be 9278 1a3e a958 e3be
000000b0: 3573 09be 2e78 6d3c 649e 05bf 4ba0 72bd
000000c0: e4ef a7be e88b 233e 029a 7bbe e418 b9be
000000d0: cd4e 403d cc76 14be e8b8 c5be 8c40 41bd
000000e0: 255b 6b3d deb2 f43c 6d54 c4be 8a71 acbd
000000f0: 0c0a 023e 21e1 3cbe cbc2 26bd 3965 233e
00000100: 200b 973d 5dc1 49be ba94 1d3e f1b8 0cbe
00000110: f406 163e f08a 5abd 780c 7b3d 9a30 903d
00000120: a6ca 873c 18b2 163e 77a5 7e3d f136 39bd
00000130: 23ca 023e 2607 b0bc 0e21 b9bd 76aa b4bd
00000140: b45c ab3c 8d50 343d 8ba1 48be 2b86 10bd
00000150: 80cc 14bd a0bb 6abd 8dc4 bcbd a8a7 3e3d
00000160: f2fa 1f3b e33c 503d 0cca d3bd ceab 913d
00000170: 8249 c53d 5810 51bd f100 e1bd 09cf 67be
00000180: 4844 293e 140f 1e3e 5334 4ebd 7289 d9bd
00000190: ce04 3f3d 9a84 08be aca3 20bf 4126 f63d
000001a0: 9a3b 623c 3185 2fbd fa5d 44be c015 34be
000001b0: bee2 05bd f29b 28be 7907 99be 7d37 a9be
000001c0: 7f08 b8bd a787 58be a077 06be 86cc 0dbe
000001d0: f84a b83d fdb3 4abd 519a 8bbe 678b b5be
000001e0: 1570 123e f2e8 9cbc feb6 7dbd 5cd0 fcbd
000001f0: 2b2b 69be 474f 3cbe 1549 0b3c a97a 2fbd

lstm.bias_hh_l0 f4 [128]
0.05364441 0.08453287 -0.01820323 0.07834659 0.049913816 -0.271892 -0.48887166 0.14020552
-0.1515025 -0.20978545 0.07818836 -0.086487226 -0.09060441 0.022169681 -0.22662735 -0.4803025
-0.008106864 -0.11000923 -0.109937064 -0.2887467 0.098045535 -0.33768588 -0.020454857 -0.14718357
-0.23693341 -0.04716822 0.07497894 0.07529137 0.13013332 0.19023587 0.060795408 0.2394909
0.1714871 -0.08127806 -0.14681564 -0.19236317 -0.1339455 -0.053646844 -0.39014217 -0.02283404
0.084524885 0.031929813 0.103030555 -0.3035093 -0.06009718 -0.21859759 -0.3046902 -0.30844384
-0.35981143 0.20417207 0.0352188 -0.37465835 0.09115445 -0.090811655 -0.48383385 -0.22748294
0.041158337 0.19481643 -0.34316507 -0.2928447 0.12445629 0.048364904 -0.1250158 0.18221061
-0.04489024 -0.20641635 0.1560677 0.100260235 0.002459329 -0.13416608 0.15859081 -0.020422878
0.11314968 -0.13077 -0.008731799 0.1816491 -0.013796151 -0.014774303 -0.11260611 -0.027408423
0.020812638 -0.099570885 -0.015614094 0.07594528 -0.07341621 0.04989954 0.13776328 -0.017081704
-0.13099019 0.14823745 -0.29443726 -0.027815968 0.10751253 -0.14327532 0.013818968 -0.009677951
0.1137346 0.119411096 -0.17258444 0.003099798 0.0459593 -0.19203348 -0.5719578 -0.11723075
-0.07492287 -0.21631259 -0.06908401 -0.059775874 -0.21278565 -0.13320969 -0.46154824 -0.28832784
-0.09466352 -0.064542405 -0.09541922 -0.23815551 0.005179945 -0.04898974 -0.24311243 -0.09723905
-0.07047025 0.046761952 0.11955441 0.047553927 -0.26685867 -0.05727457 -0.23136842 -0.18423228
00000000: 3eba 5b3d 921f ad3d f11e 95bc 2d74 a03d
00000010: 6e72 4c3d 6e35 8bbe 634d fabe 0992 0f3e
00000020: 7923 1bbe ffd1 56be 3821 a03d 3720 b1bd
00000030: ce8e b9bd 319d b53c 0011 68be 36ea f5be
00000040: a7d2 04bc 854c e1bd af26 e1bd 9cd6 93be
00000050: 19cc c83d 2ae5 acbe f290 a7bc 4ab7 16be
00000060: ac9e 72be 7733 41bd 8f8e 993d 5d32 9a3d
00000070: ab41 053e 31cd 423e 9b04 793d 1a3d 753e
00000080: 509a 2f3e 1d75 a6bd d756 16be dafa 44be
00000090: 0229 09be cbbc 5bbd b7c0 c7be 740e bbbc
000000a0: 621b ad3d d6c8 023d af01 d33d 9265 9bbe
000000b0: 7628 76bd 0cd8 5fbe 5b00 9cbe 5aec 9dbe
000000c0: 3439 b8be 7c12 513e 9741 103d 38d3 bfbe
000000d0: 2faf ba3d 76fb b9bd 12b9 f7be 4af1 68be
000000e0: a595 283d f57d 473e 55b3 afbe beef 95be
000000f0: f0e2 fe3d 471a 463d 2404 00be 6b95 3a3e
00000100: d4de 37bd cf5e 53be 36d0 1f3e 3d55 cd3d
00000110: b22c 213b d562 09be a165 223e e14d a7bc
00000120: 05bb e73d 92e8 05be d20f 0fbc 3902 3a3e
00000130: 4009 62bc eb0f 72bc 089e e6bd a187 e0bc
00000140: 447f aa3c d2eb cbbd 42d2 7fbc 3389 9b3d
00000150: 3d5b 96bd 7663 4c3d d111 0d3e eeee 8bbc
00000160: 4b22 06be 8fcb 173e 7bc0 96be 50de e3bc
00000170: 882f dc3d c4b6 12be f468 623c 4590 1ebc
00000180: b0ed e83d ce8d f43d fab9 30be fb25 4b3b
00000190: d23f 3c3d 6da4 44be d46b 12bf ad16 f0bd
000001a0: 2971 99bd 0c81 5dbe eb7b 8dbd 8cd7 74bd
000001b0: 7be4 59be 1f68 08be 0d50 ecbe b59f 93be
000001c0: f3de c1bd cf2e 84bd 276b c3bd 0adf 73be
000001d0: 87bc a93b 77a9 48bd 77f2 78be 4425 c7bd
000001e0: b552 90bd 7689 3f3d f1d8 f43d e8c7 423d
000001f0: b3a1 88be bd98 6abd d8eb 6cbe 63a7 3cbe

hidden2out.weight f4 [3, 32]
-0.03420803 0.18646422 -0.108321354 -0.09326742 0.026868977 -0.054239824 -0.074898474 -0.14920859
0.04164156 0.19342083 0.17906596 -0.17301649 0.057334375 -0.099955566 0.1147081 -0.12073545
0.007661001 -0.07472782 0.13985482 0.024700224 0.1960947 0.13036393 -0.22365403 -0.02070531
0.15136471 -0.13614188 0.0027982146 0.12434753 -0.05951519 0.17324963 -0.13568775 -0.050529636
-0.1705538 0.0949869 -0.084484205 -0.10529357 0.13236494 -0.04468781 -0.03219403 -0.05310725
0.04768765 -0.09069292 0.15865079 -0.029537408 -0.13456655 -0.13251746 0.028689792 0.2712725
-0.1020161 0.09206882 0.16963212 0.026971653 -0.07927261 -0.016554927 0.20095699 0.026733346
-0.09798813 0.020701295 -0.20847054 0.20941408 0.08422537 0.04291536 -0.118405886 -0.09393879
0.07488539 0.05386512 0.09494901 0.011001318 0.14423518 -0.04456953 -0.057055913 -0.13364495
0.0061315447 -0.14511225 0.061008006 0.2993095 0.0932059 -0.032679666 0.02901295 0.17271475
0.06930566 -0.05983578 -0.11158083 0.059144344 -0.09385971 -0.024205875 0.5189832 -0.058091637
-0.067562655 0.003191213 0.12277629 -0.064617686 0.112047136 -0.07564298 0.0983024 -0.1822289
00000000: b81d 0cbd 7af0 3e3e 96d7 ddbd fd02 bfbd
00000010: 541c dc3c 942a 5ebd 5f64 99bd 23ca 18be
00000020: 5790 2a3d 1c10 463e 115d 373e 3c2b 31be
00000030: 73d7 6a3d 81b5 ccbd 15ec ea3d 2644 f7bd
00000040: 2209 fb3b e60a 99bd 1a36 0f3e 2058 ca3c
00000050: 0dcd 483e 1f7e 053e 9005 65be 2f9e a9bc
00000060: 5aff 1a3e c768 0bbe 4062 373b eba9 fe3d
00000070: 33c6 73bd 5a68 313e bbf1 0abe 2af8 4ebd
00000080: a8a5 2ebe 7e88 c23d 0e06 adbd 28a4 d7bd
00000090: ad8a 073e 910a 37bd e3dd 03bd fd86 59bd
000000a0: 2054 433d 36bd b9bd 5a75 223e 6ff8 f1bc
000000b0: d0cb 09be a8b2 07be db06 eb3c 3be4 8a3e
000000c0: d1ed d0bd 948e bc3d 0bb4 2d3e a8f3 dc3c
000000d0: ae59 a2bd 339e 87bc abc7 4d3e e4ff da3c
000000e0: 00ae c8bd c395 a93c 4d79 55be a570 563e
000000f0: 5a7e ac3d 04c8 2f3d c97e f2bd fb62 c0bd
00000100: 835d 993d aca1 5c3d a074 c23d df3e 343c
00000110: 63b2 133e 8a8e 36bd 76b3 69bd 39da 08be
00000120: 20eb c83b 4e98 14be 88e3 793d 183f 993e
00000130: bce2 be3d 1ddb 05bd 91ac ed3c 23dc 303e
00000140: 20f0 8d3d 5d16 75bd 7d84 e4bd 5741 723d
00000150: 8539 c0bd 664b c6bc 15dc 043f 7ff1 6dbd
00000160: 4a5e 8abd ab23 513b 2372 fb3d 4756 84bd
00000170: f878 e53d b5ea 9abd c552 c93d 369a 3abe

hidden2out.bias f4 [3]
0.040490992 -0.10093344 -0.10910631
00000000: e2d9 253d 31b6 cebd 2173 dfbd

std_layer.weight f4 [3, 32]
0.17387198 0.07349564 -0.14848764 -0.15516998 -0.009436935 0.11370708 0.09830521 0.007781759
0.022933766 -0.13077794 0.10779159 -0.01897645 -0.14235492 -0.1300804 -0.036416262 -0.11134753
-0.056980558 0.17248882 0.0075998604 -0.095945254 0.13781951 0.16408749 0.017177522 -0.004432142
0.020953417 -0.0356299 0.032818735 0.055087686 0.13342945 0.08319761 0.03473398 -0.01331158
0.13499956 0.07171735 0.056027234 0.121075705 0.03649877 -0.04939808 0.045146182 -0.08785413
0.108362004 -0.056376316 0.04030709 0.04954806 -0.13235721 -0.1475942 0.12149863 -0.17450906
-0.061876208 0.10094471 0.043937624 0.16937293 -0.17342499 0.061425865 -0.06710143 0.07378046
0.12943836 0.11972691 -0.17524697 -0.0625655 0.123756275 0.06616141 -0.14370161 0.10870297
0.12289606 -0.08580643 -0.052749857 -0.1273561 -0.1338282 -0.08168221 -0.041349098 0.004256457
0.10744433 0.15847073 0.019344836 0.10483454 0.10537769 0.03459668 -0.0837092 0.07101299
0.027571693 -0.14028755 -0.055617295 -0.06929907 0.061925083 -0.0818061 0.074159935 -0.009806648
-0.030196369 0.068219125 0.10799231 0.054381892 0.030201316 -0.010848492 -0.031568542 0.08636512
00000000: 7f0b 323e e284 963d 250d 18be e1e4 1ebe
00000010: 609d 1abc 42df e83d 3e54 c93d 20fe fe3b
00000020: 98df bb3c a7ea 05be d6c1 dc3d 8074 9bbc
00000030: 7dc5 11be cc33 05be 3829 15bd 2c0a e4bd
00000040: 7264 69bd e9a0 303e 4008 f93b f27e c4bd
00000050: 8f20 0d3e 8d06 283e e0b7 8c3c 803b 91bb
00000060: 80a6 ab3c a8f0 11bd f06c 063d a0a3 613d
00000070: bba1 083e 8263 aa3d 3845 0e3d d018 5abc
00000080: 533d 0a3e 8ce0 923d d07c 653d 8af6 f73d
00000090: bc7f 153d a455 4abd 34eb 383d deec b3bd
000000a0: e6ec dd3d daea 66bd 0c19 253d e8f2 4a3d
000000b0: a688 07be ef22 17be 46d4 f83d 81b2 32be
000000c0: e871 7dbd 1abc ce3d f0f7 333d 1970 2d3e
000000d0: 5296 31be b099 7b3d 796c 89bd 361a 973d
000000e0: 7d8b 043e 6233 f53d f173 33be 5722 80bd
000000f0: ee73 fd3d a27f 873d 8426 13be aa9f de3d
00000100: eeb0 fb3d 48bb afbd 3c10 58bd a369 02be
00000110: 420a 09be 0149 a7bd ac5d 29bd c079 8b3b
00000120: c60b dc3d 2746 223e 1079 9e3c 7eb3 d63d
00000130: 42d0 d73d 40b5 0d3d bb6f abbd 426f 913d
00000140: 08de e13c 8aa7 0fbe f6ce 63bd acec 8dbd
00000150: 28a5 7d3d f589 a7bd 2ae1 973d 10ac 20bc
00000160: 605e f7bc 78b6 8b3d 122b dd3d 8cbf 5e3d
00000170: c068 f73c e0bd 31bc 044e 01bd 32e0 b03d

std_layer.bias f4 [3]
-0.03609778 0.13399519 0.11164011
00000000: 44db 13bd 0936 093e 92a3 e43d

exp_avg f4 [128, 12]
-0.00027322458 0.00079025293 0.0028606625 -0.0066873725 -0.005574795 0.01694352 0.0028979033 0.004644867
0.0023431305 0.007295589 0.01614538 0.013142722 -0.00039040283 -0.00032068937 0.0016665213 -0.0017538661
-0.0011475483 0.0053689317 0.0014616101 0.0015111988 0.0017478794 0.0029546912 0.0053773075 0.0047249566
0.00014791825 -0.00016271662 -0.0008525973 0.0017544593 0.0017875916 -0.0048898845 -0.0001457273 -0.0013358023
-0.0007257343 -0.0016407892 -0.0039257715 -0.0049097 -1.632843e-05 -5.8442998e-05 -0.00057573826 0.0014730612
0.0015973974 -0.0032146256 -0.00029949172 -0.00084591116 -0.00038016014 -0.00087001675 -0.0025989257 -0.0028614209
0.00018507935 0.0005356975 -0.000640938 0.00033910506 0.0004068508 9.0135014e-05 -6.028716e-06 -0.00027455948
-0.0006165025 -1.5660271e-05 0.00063607626 -0.00096549984 2.3461482e-05 7.609677e-05 -1.260703e-05 -7.962475e-05
-6.556062e-05 0.00035964706 3.8871376e-06 4.8152713e-05 -2.8537259e-05 8.008869e-05 0.00028654363 0.00020396919
-5.585263e-07 -5.6630716e-07 8.0694235e-07 -5.618366e-08 -4.8148884e-08 1.0798992e-07 3.7496818e-08 3.1790128e-07
7.397345e-07 1.8794026e-08 3.5244206e-08 7.54866e-08 0.00042802494 0.0002587433 -0.0007359828 0.0008725877
0.0001905784 -0.00091480586 -0.0004631545 -0.00021985374 -0.0008163665 -0.0012613921 -0.00023223496 -0.0012421805
2.4486953e-05 6.6489134e-05 -3.6756206e-05 0.00010166129 0.00018609273 5.6255893e-05 -1.8307024e-05 -5.784109e-05
-5.9059166e-05 0.00022226783 0.0002177265 -0.0001489834 0.00013243961 0.0003395635 0.00015778381 -0.0006031039
9.629339e-05 0.0019082113 -5.7272664e-06 -0.00025223222 -0.00018839944 -0.0005812371 -0.00076818286 0.0004986218
0.00023546514 0.0009804795 -0.0006811168 -0.0005676312 -0.0011017268 0.0030623325 -0.0008123854 0.0005127187
-0.0010989002 -0.00068186194 0.00252726 0.0013743856 -0.00033896064 -0.000348121 -0.00028815793 0.00019736952
-0.0003100935 -0.0025843128 0.00013087147 -0.00029386693 -0.0007860925 -0.0024063864 -0.0017836693 -0.0046837954
-5.7358393e-05 -0.00026399666 -0.00031235314 0.0007903698 0.00026675017 -0.002461797 -0.00038468215 -0.00030783104
-0.00036004186 -0.0011027762 -0.0014186526 -0.0018856523 0.00056433975 -0.00052269315 -0.001776037 0.0041473415
0.004280637 -0.010960787 -0.00059434515 -0.0031290096 -0.00065801915 -0.0024471057 -0.009816689 -0.0064815683
-2.694782e-06 -2.8081506e-06 3.6580534e-06 3.920246e-07 1.8624222e-07 -1.0934181e-06 -2.4368006e-07 1.3318182e-06
3.4281866e-06 -1.0203346e-07 -4.1226508e-07 -5.9368085e-07 0.00015853497 0.00010638509 2.7457925e-05 0.00011826051
0.00026868746 0.00058078894 7.208797e-05 -5.089164e-05 0.000113761744 0.0009908229 0.000865501 0.00047614877
-2.8068536e-05 -2.8938757e-05 8.933718e-06 9.46093e-06 -4.880816e-05 -8.329355e-05 -4.9195346e-06 2.1527449e-05
3.0002806e-05 5.0978644e-05 7.388451e-05 2.738322e-05 0.00034134695 0.00040128655 -0.0006674094 0.0006383338
0.0005805765 -0.0007393023 -6.3653926e-05 -0.00048378712 -0.0005805733 -1.101756e-05 -0.00027180384 -0.00073813496
-0.00013195102 -0.0005923111 -0.00025030453 0.0010472076 0.0006374318 -0.0042659985 -0.00025770225 -0.0006554466
-9.1597554e-05 -0.0014747932 -0.003309063 -0.0029980177 -9.823161e-07 -1.5187034e-06 9.0356934e-07 1.8486256e-06
1.0630123e-06 -4.5970382e-06 -8.739358e-07 -1.13500725e-07 9.83146e-07 -1.7392208e-06 -2.974272e-06 -2.7119197e-06
-0.000101937716 2.932721e-05 0.0002037745 -0.00026041735 7.239106e-06 0.0006116355 3.6043137e-05 -1.3936995e-05
0.000108036766 -0.0003735269 -0.00040232763 0.0001282403 -0.0001538586 -8.270397e-05 0.00028259997 -0.00029938167
00000000: 953f 8fb9 fa28 4f3a f479 3b3b bf21 dbbb
00000010: c5ac b6bb 23cd 8a3c c0ea 3d3b f833 983b
00000020: 358f 193b d60f ef3b 5143 843c 9254 573c
00000030: fbae ccb9 3322 a8b9 2d6f da3a fbe1 e5ba
00000040: 5569 96ba dded af3b 7f93 bf3a 6b13 c63a
00000050: 1a19 e53a 7ea3 413b 2034 b03b cfd3 9a3b
00000060: 811a 1b39 e99e 2ab9 d680 5fba e3f5 e53a
00000070: 9f4d ea3a 533b a0bb 60ce 18b9 1616 afba
00000080: 343f 3eba c00f d7ba c2a3 80bb 8ce1 a0bb
00000090: 09f9 88b7 b120 75b8 24ed 16ba bb13 c13a
000000a0: c35f d13a 78ac 52bb 1905 9db9 23c0 5dba
000000b0: 3b50 c7b9 d611 64ba bd52 2abb ad86 3bbb
000000c0: dc11 4239 0d6e 0c3a 9f04 28ba e9c9 b139
000000d0: 974e d539 de06 bd38 474a cab6 c0f2 8fb9
000000e0: c89c 21ba 2d5e 83b7 5bbe 263a 9919 7dba
000000f0: 26cf c437 2496 9f38 c882 53b7 36fc a6b8
00000100: 977d 89b8 038f bc39 426e 8236 95f7 4938
00000110: 4c63 efb7 4af5 a738 3c3b 9639 90e0 5539
00000120: a3ed 15b5 5504 18b5 a89c 5835 964e 71b3
00000130: 42cc 4eb3 16e8 e733 300c 2133 05ac aa34
00000140: 2b92 4635 8070 a132 6a5f 1733 321b a233
00000150: 8968 e039 f0a7 8739 f8ee 40ba 5fbe 643a
00000160: 00d6 4739 95cf 6fba 8bd3 f2b9 8a88 66b9
00000170: 6e01 56ba 4c55 a5ba 1984 73b9 a9d0 a2ba
00000180: 5569 cd37 1570 8b38 ad2a 1ab8 fd32 d538
00000190: e321 4339 4ef4 6b38 0992 99b7 669a 72b8
000001a0: 4cb6 77b8 9110 6939 834d 6439 6d38 1cb9
000001b0: 7ddf 0a39 7107 b239 c572 2539 9e19 1eba
000001c0: 1ff1 c938 f21c fa3a d82c c0b6 093e 84b9
000001d0: 178d 45b9 295e 18ba e15f 49ba f1b5 023a
000001e0: 31e7 7639 6f83 803a fa8c 32ba 16cd 14ba
000001f0: d167 90ba 6ab1 483b 43f6 54ba f867 063a
00000200: f908 90ba fbbe 32ba 63a0 253b ba24 b43a
00000210: 87b6 b1b9 0284 b6b9 e713 97b9 faf4 4e39
00000220: 0c94 a2b9 935d 29bb 8b3a 0939 2712 9ab9
00000230: c611 4eba 77b4 1dbb 03ca e9ba 867a 99bb
00000240: 1b94 70b8 0869 8ab9 54c3 a3b9 d230 4f3a
00000250: 9ada 8b39 1a56 21bb 2aaf c9b9 6264 a1b9
00000260: 00c4 bcb9 078b 90ba 15f2 b9ba fe27 f7ba
00000270: 33f0 133a 5805 09ba eac9 e8ba 6ce6 873b
00000280: 9644 8c3b df94 33bc d4cd 1bba 1210 4dbb
00000290: eb7e 2cba 9f5f 20bb 2ed6 20bc 5663 d4bb
000002a0: 01d8 34b6 a973 3cb6 e17c 7536 7377 d234
000002b0: dff9 4734 8fc1 92b5 22d3 82b4 edc0 b235
000002c0: cc0f 6636 7d1d dbb3 4855 ddb4 705d 1fb5
000002d0: 683c 2639 0f1b df38 7255 e637 a102 f838
000002e0: 9fde 8c39 1640 183a ef2d 9738 7b74 55b8
000002f0: 5f93 ee38 80de 813a cae2 623a 9ba3 f939
00000300: b974 ebb7 82c1 f2b7 07e2 1537 63ba 1e37
00000310: 5db7 4cb8 e2ad aeb8 7b12 a5b6 d895 b437
00000320: 89ae fb37 e7d1 5538 72f2 9a38 04b5 e537
00000330: d0f6 b239 c563 d239 16f5 2eba db55 273a
00000340: d431 183a bdcd 41ba f17d 85b8 cfa4 fdb9
00000350: 9d31 18ba 0fd8 38b7 e580 8eb9 667f 41ba
00000360: 555c 0ab9 5345 1bba 4e3b 83b9 7542 893a
00000370: 5319 273a cac9 8bbb 361c 87b9 47d2 2bba
00000380: 1018 c0b8 d94d c1ba dddc 58bb 647a 44bb
00000390: 20d8 83b5 40d6 cbb5 d08c 7235 4b1e f835
000003a0: d3ac 8e35 4240 9ab6 6998 6ab5 afbd f3b3
000003b0: a4f4 8335 2c6f e9b5 9b99 47b6 6dfe 35b6
000003c0: 65c7 d5b8 b403 f637 4dac 5539 a088 88b9
000003d0: 72e7 f236 2a56 203a 062d 1738 f0d2 69b7
000003e0: cc91 e238 efd5 c3b9 80ef d2b9 3e78 0639
000003f0: 1a55 21b9 5b71 adb8 ed29 9439 54f6 9cb9

exp_avg_sq f4 [128, 12]
3.1953377e-07 9.834265e-07 1.3805291e-05 6.4356405e-05 4.943337e-05 0.00044627496 1.7444629e-05 3.2041247e-05
5.9922713e-06 9.159911e-05 0.0004172865 0.00020011436 3.11404e-07 9.19567e-07 1.8005469e-06 7.705191e-06
3.1298634e-06 6.738792e-05 4.0088557e-06 3.565937e-06 1.9698903e-06 2.7421067e-05 7.637919e-05 3.6853588e-05
2.5875042e-06 3.3186477e-06 1.3450423e-06 3.4313139e-06 6.7817537e-06 5.3739543e-05 4.1020652e-05 3.819437e-06
2.0166744e-06 0.0007204623 6.9504764e-05 7.3514566e-05 4.261956e-08 1.3886748e-07 4.6985582e-07 3.142422e-06
2.354497e-06 2.0959662e-05 6.4444174e-07 1.4234672e-06 1.5753518e-07 4.1544276e-06 1.9911307e-05 8.896845e-06
1.7085837e-06 2.4568988e-06 1.7378864e-06 3.288208e-06 4.0216723e-06 2.6984726e-05 1.8599711e-06 1.462936e-06
6.587798e-07 1.7084736e-05 3.7406513e-05 1.2776091e-05 1.3530675e-08 1.0381932e-08 1.5352784e-08 7.1687595e-08
8.557237e-08 4.0708056e-07 2.215167e-08 3.5377994e-08 6.7032513e-09 2.0624411e-07 3.9927008e-07 2.730713e-07
1.147917e-13 1.146444e-13 2.2832658e-13 2.994528e-15 3.4109805e-15 1.4722827e-14 2.3181418e-15 3.1503107e-14
1.955242e-13 2.980742e-15 6.4592437e-15 6.6374874e-15 3.0062264e-07 2.000025e-06 2.8734385e-06 1.1617569e-05
5.4077655e-06 0.0001082843 5.8993887e-06 5.049881e-06 2.656302e-06 4.6743557e-05 0.00012153259 6.913257e-05
5.7244755e-08 6.291164e-08 4.9274593e-08 5.830196e-07 3.1810464e-07 2.9452037e-06 3.9169754e-07 2.5444402e-07
6.403951e-08 1.8164098e-06 3.4999464e-06 2.1504363e-06 7.6809755e-08 2.3115221e-07 3.5712684e-08 4.233066e-07
1.0760381e-07 5.781843e-06 7.351505e-08 2.8688206e-07 4.835387e-08 1.6223686e-06 1.5016526e-06 1.0067372e-06
4.661314e-06 3.1516804e-06 2.5719514e-06 1.24868875e-05 1.647345e-05 8.671018e-05 6.6119255e-06 5.6919034e-06
2.2561533e-06 8.251936e-05 0.000108717584 5.5457775e-05 3.2683542e-06 3.864815e-06 1.4082927e-07 8.0972876e-07
1.0236417e-05 8.234401e-05 1.8157173e-06 6.502961e-07 3.5429905e-06 9.547683e-05 8.2490435e-05 0.00016049585
2.44692e-07 6.1426067e-07 2.2384665e-07 1.8056661e-06 3.8603469e-07 2.6059955e-05 1.5731315e-06 4.6465541e-07
8.2107505e-07 1.7492115e-05 2.9897192e-05 2.3941473e-05 1.8849963e-05 9.89438e-06 5.791458e-06 4.552261e-05
4.4565957e-05 0.00046319817 3.6108406e-05 2.0396556e-05 9.397753e-06 0.0003980952 0.00060257106 0.00029556706
5.3271628e-12 5.394522e-12 1.0861473e-11 2.8642204e-13 2.0972583e-13 1.819135e-12 1.3765725e-13 1.5123582e-12
9.252087e-12 3.194117e-13 7.656652e-13 6.9733016e-13 2.2359069e-07 3.1233537e-07 2.4429543e-08 1.18769e-07
6.876293e-07 8.159839e-06 2.841042e-07 4.938754e-08 1.5379928e-07 1.0620164e-05 1.2740437e-05 4.7562644e-06
5.068316e-10 8.1848833e-10 2.0606938e-09 1.2142214e-08 1.4399489e-08 8.264449e-08 2.2557822e-09 5.6192784e-09
7.9154455e-10 1.6163701e-08 6.57834e-08 3.1950478e-08 3.3455464e-08 4.896729e-08 2.3446903e-07 6.796872e-07
6.6850146e-07 3.6341605e-06 2.073084e-07 3.8132487e-07 1.3579997e-07 6.2165e-07 2.566793e-06 1.7624159e-06
9.292891e-07 6.670373e-07 2.4295834e-06 5.669757e-06 5.4547595e-06 4.987624e-05 2.2523316e-06 2.9947616e-06
1.6096128e-06 2.84973e-05 5.0202816e-05 3.1679465e-05 2.3351012e-11 2.1608763e-11 5.1894232e-11 3.606056e-12
1.2469744e-12 3.0828937e-11 9.456595e-13 8.760637e-12 4.3229732e-11 4.708325e-12 1.37804846e-11 1.1109709e-11
7.47251e-07 8.033257e-07 2.8665531e-06 2.784182e-06 2.808738e-06 7.830459e-06 3.428922e-07 1.6833382e-06
1.7136887e-06 6.2861847e-07 2.7944054e-06 5.456539e-06 1.27471065e-08 7.7293016e-08 4.094531e-08 2.8144348e-07
00000000: 638c ab34 47fe 8335 469d 6737 15f7 8638
00000010: ad56 4f38 03fa e939 0e56 9237 0764 0638
00000020: 3811 c936 e618 c038 3fc7 da39 cad5 5139
00000030: 0a2f a734 2ad8 7635 52aa f135 8b45 0137
00000040: a50a 5236 9d52 8d38 cf83 8636 554e 6f36
00000050: 7532 0436 4b06 e637 c42d a038 3d93 1a38
00000060: fca4 2d36 efb5 5e36 4d87 b435 8645 6636
00000070: d28e e336 6566 6138 970d 2c38 b728 8036
00000080: 3456 0736 68dd 3c3a 16c3 9138 d52b 9a38
00000090: b40c 3733 9a1b 1534 7e40 fc34 66e2 5236
000000a0: f301 1e36 88d2 af37 b3fd 2c35 f60d bf35
000000b0: f126 2934 4366 8b36 3507 a737 a943 1537
000000c0: 7d52 e535 33e1 2436 5241 e935 fcaa 5c36
000000d0: e7f1 8636 425d e237 1fa4 f935 195a c435
000000e0: 01d7 3035 3151 8f37 f0e4 1c38 e558 5637
000000f0: 8a74 6832 385c 3232 21e1 8332 acf2 9933
00000100: e8c3 b733 ba8c da34 0a48 be32 84f2 1733
00000110: 6c52 e631 f373 5d34 435b d634 a29a 9234
00000120: 743e 012a 0014 012a 5489 802a 4bc7 5727
00000130: 7cc9 7527 879c 8428 2b0a 2727 9ce0 0d29
00000140: 0424 5c2a fcc8 5627 02b8 e827 0424 ef27
00000150: 4365 a134 2b38 0636 4cd5 4036 14e9 4237
00000160: 5a74 b536 b116 e338 5df3 c536 2672 a936
00000170: ec42 3236 830e 4438 50df fe38 44fb 9038
00000180: 46dd 7533 0a1a 8733 fda1 5333 cd80 1c35
00000190: f8c7 aa34 37a6 4536 804a d234 859a 8834
000001a0: 1886 8933 5ecb f335 9fe0 6a36 3750 1036
000001b0: 9cf2 a433 a332 7834 8362 1933 d142 e334
000001c0: d213 e733 a701 c236 53df 9d33 c504 9a34
000001d0: a4ad 4f33 29c0 d935 648c c935 3a1f 8735
000001e0: 6268 9c36 7581 5336 ca99 2c36 c67e 5137
000001f0: 7730 8a37 2cd8 b538 02dc dd36 14fd be36
00000200: 6b68 1736 3e0e ad38 4fff e338 559b 6838
00000210: e655 5b36 82ae 8136 db36 1734 235c 5935
00000220: 14bd 2b37 1bb0 ac38 92b3 f335 0290 2e35
00000230: 1dc4 6d36 bc3a c838 b7fe ac38 c74a 2839
00000240: 365e 8334 ace3 2435 805a 7034 375a f235
00000250: 3440 cf34 549b da37 6324 d335 c175 f934
00000260: d967 5c35 08bc 9237 bbcb fa37 ecd5 c837
00000270: fd1f 9e37 0a00 2637 3f54 c236 88ef 3e38
00000280: 55ec 3a38 68d9 f239 1b73 1738 4519 ab37
00000290: 0bab 1d37 6fb7 d039 dcf5 1d3a 57f6 9a39
000002a0: d16e bb2c 89cd bd2c ba13 3f2d c43d a12a
000002b0: 5b21 6c2a 9f02 002c 00fd 1a2a 72d8 d42b
000002c0: b2c3 222d 14d0 b32a fe83 572b ef47 442b
000002d0: 2414 7034 0caf a734 22d9 d132 f30d ff33
000002e0: 8795 3835 3ee6 0837 fc86 9834 2d1e 5433
000002f0: 0624 2534 422d 3237 c3bf 5537 0098 9f36
00000300: 1a51 0b30 fffb 6030 1c9c 0d31 069a 5032
00000310: 9f61 7732 4a7a b133 2404 1b31 b213 c131
00000320: ff93 5930 5bd8 8a32 ce44 8d33 ec39 0933
00000330: acb0 0f33 1b50 5233 5bc2 7b34 c073 3635
00000340: 1273 3335 67e2 7336 8098 5e34 e4b8 cc34
00000350: 69d0 1134 76df 2635 2b41 2c36 268c ec35
00000360: 4374 7935 740e 3335 ed0b 2336 d73e be36
00000370: 0708 b736 3432 5138 c326 1736 9df9 4836
00000380: e009 d835 7c0d ef37 dd90 5238 91df 0438
00000390: ce65 cd2d 9c12 be2d b63b 642e eec0 7d2c
000003a0: fd7e af2b 4c96 072e f916 852b 671e 1a2d
000003b0: 5a20 3e2e d2a8 a52c c96d 722d ae71 432d
000003c0: b396 4835 1fa4 5735 025f 4036 e2d7 3a36
000003d0: c07d 3c36 915f 0337 bf16 b834 0fef e135
000003e0: e501 e635 55be 2835 8587 3b36 5017 b736
000003f0: 5efe 5a32 49fc a533 d8db 2f33 4c19 9734

exp_avg f4 [128, 32]
-0.00020688464 0.00018432205 0.0002750295 0.00045000348 7.061597e-05 -2.6554266e-05 -4.209713e-08 -0.00038961618
-2.1805941e-05 -5.666207e-06 0.00032221197 1.4489619e-05 2.3223243e-05 0.00041755714 1.8456782e-07 -3.491997e-06
-4.98989e-06 0.00070110906 -8.857497e-05 3.9822143e-07 -0.00045751207 -5.2444244e-05 9.745939e-06 3.6448135e-05
-0.00019710248 8.426058e-06 4.0687915e-05 0.00029200752 0.00018583646 0.0003044359 0.0001997593 -0.00020787449
5.0422663e-05 -8.532678e-05 0.00011412179 3.5558307e-05 5.6972265e-05 3.6402062e-06 2.810893e-07 -6.700898e-05
-8.793131e-06 -7.584215e-07 0.00014979711 2.3632474e-06 8.971875e-08 0.00011841551 -1.8169478e-06 -1.4379639e-06
-1.951708e-06 0.00017901878 -3.4839904e-05 -2.960645e-06 -8.7218206e-05 -6.045637e-05 -5.861816e-06 2.7538632e-05
-0.00013712281 5.6252655e-05 -0.00012394105 0.00016953042 5.4928045e-05 9.883086e-05 -0.00012264596 -0.000115876755
0.00024800378 -5.1701703e-05 -9.2333496e-05 -0.00023149185 -1.4639804e-05 3.41433e-06 1.4413736e-09 9.9503675e-05
1.412158e-05 3.1270165e-06 -7.0258284e-05 -7.832898e-06 -1.0472461e-05 -0.00016338882 -2.8857055e-08 -1.4713322e-06
3.0339343e-06 -0.00026784147 2.166842e-05 -1.2865674e-07 0.00010419883 1.3879552e-05 -1.10671235e-05 -4.2515494e-06
5.2695697e-05 -1.1905935e-05 8.490561e-06 -0.0001626409 -4.227857e-05 -7.347593e-05 -8.8689994e-05 5.8704227e-05
7.9652156e-05 -0.00010536253 -6.020575e-05 -0.00014644775 -5.537726e-06 7.44737e-06 3.7814385e-08 8.3655745e-05
1.0662336e-05 -6.429391e-06 -5.5778095e-05 -2.839275e-06 -1.447199e-06 -9.182808e-05 -1.7866537e-07 7.0190504e-07
2.7984208e-06 -0.00019876104 1.7372406e-05 -3.026746e-07 0.00012589114 3.3013878e-06 -3.2927135e-06 -1.1782125e-05
4.9338556e-05 3.4888176e-06 -3.6380792e-05 -0.00013061095 -4.739813e-05 -6.6354594e-05 -0.0001422419 3.0628602e-05
-0.0002928504 2.9692228e-05 -3.6624206e-05 0.00018188785 -2.6973761e-05 9.889561e-07 -6.348795e-08 -4.908637e-06
-1.788964e-05 -1.5882465e-06 -0.0001046431 -2.3506102e-06 3.9345036e-06 3.9067996e-05 4.1914447e-07 2.3427642e-06
3.9365045e-06 8.880857e-06 2.532045e-05 7.2201135e-07 6.800231e-05 2.4233352e-05 -5.7905774e-09 6.372498e-06
7.951196e-05 -7.738573e-05 1.8164701e-05 -0.00010912354 -3.524093e-05 -5.8782316e-05 4.9029633e-05 6.778393e-05
-4.4486034e-05 9.611299e-06 2.414096e-06 3.65907e-05 -2.2895183e-06 -2.2020007e-08 -1.12954285e-10 -7.028127e-06
-3.092113e-06 -8.8563394e-07 -7.4271147e-06 1.9829676e-07 1.560852e-06 1.7646666e-05 -9.2902847e-10 2.964759e-07
3.9160366e-07 2.1688276e-05 6.635533e-07 8.433743e-09 -8.8823164e-08 3.8776093e-06 6.483397e-07 4.6206706e-06
6.6781286e-06 -7.533286e-06 -4.0101092e-08 -6.477456e-07 8.355322e-08 -4.4380553e-07 1.2553192e-05 4.112342e-06
2.519203e-08 -1.2828752e-08 7.89279e-09 -1.1364043e-08 5.095156e-09 1.6652211e-09 9.391348e-11 2.7154825e-09
1.1846637e-09 -9.625603e-10 1.1874676e-08 -9.280222e-10 -1.3829785e-09 2.8869511e-09 -6.415043e-10 8.810344e-11
-9.727874e-10 1.1664392e-10 -3.1052165e-09 -1.0144572e-09 7.1975606e-11 -3.6581984e-09 -1.5336937e-09 4.214371e-09
-1.2798442e-08 1.1958238e-08 -2.4954838e-08 1.8455744e-08 3.792831e-09 8.315274e-09 -8.466957e-09 -8.468835e-09
-0.00053638563 0.00019296269 -4.1778192e-05 0.00041823837 -4.9565882e-05 8.0170885e-06 1.8109976e-08 4.0341256e-05
-5.5758403e-05 1.0406748e-06 -0.00021690255 -4.8729603e-06 -1.22931515e-05 4.3609933e-05 -1.8627988e-07 2.0566754e-06
-1.2085218e-06 9.681935e-05 3.6019974e-05 -2.7941286e-07 8.9356436e-05 3.7621798e-05 2.3895302e-07 -2.0815443e-05
0.000121906036 -0.000110780355 7.714474e-06 -6.141215e-06 -5.0617666e-05 -0.00013389271 0.00014817058 0.00013332738
00000000: 2cef 58b9 9346 4139 d631 9039 72ee eb39
00000010: a917 9438 dac0 deb7 49ce 34b3 6645 ccb9
00000020: e7eb b6b7 5920 beb6 8fee a839 7118 7337
00000030: 89cf c237 92eb da39 9e2d 4634 0d58 6ab6
00000040: d46e a7b6 a2ca 373a 53c1 b9b8 23cb d534
00000050: 3bde efb9 94f7 5bb8 7d82 2337 e3df 1838
00000060: 4bad 4eb9 a55d 0d37 51a8 2a38 9618 9939
00000070: 18dd 4239 b29c 9f39 7b76 5139 e2f8 59b9
00000080: ec7c 5338 77f1 b2b8 ab54 ef38 7124 1538
00000090: 81f5 6e38 444a 7436 9fe8 9634 2c87 8cb8
000000a0: 3686 13b7 5496 4bb5 db12 1d39 4898 1e36
000000b0: 68ab c033 d855 f838 dadd f3b5 1000 c1b5
000000c0: 17fa 02b6 fdb6 3b39 1021 12b8 7eaf 46b6
000000d0: ebe8 b6b8 8892 7db8 9eb0 c4b6 c302 e737
000000e0: a0c8 0fb9 d4f0 6b38 2cf6 01b9 fac3 3139
000000f0: 8a62 6638 6a43 cf38 869a 00b9 dc02 f3b8
00000100: 8106 8239 48da 58b8 2ba3 c1b8 9fbc 72b9
00000110: 7b9d 75b7 be21 6536 d319 c630 a1ac d038
00000120: b9eb 6c37 bcd9 5136 a157 93b8 0a6a 03b7
00000130: e1b2 2fb7 5a53 2bb9 56e1 f7b2 977a c5b5
00000140: 989a 4b36 136d 8cb9 94c4 b537 e524 0ab4
00000150: 5285 da38 39dc 6837 efac 39b7 88a8 8eb6
00000160: 9305 5d38 9abf 47b7 af72 0e37 968a 2ab9
00000170: 4554 31b8 1717 9ab8 14ff b9b8 2f39 7638
00000180: ed0a a738 14f6 dcb8 6f85 7cb8 c58f 19b9
00000190: b4d0 b9b6 6ce4 f936 5b69 2233 5670 af38
000001a0: 62e2 3237 0cbc d7b6 46f3 69b8 608a 3eb6
000001b0: 613d c2b5 d393 c0b8 2ad7 3fb4 8c6a 3c35
000001c0: 81cc 3b36 836a 50b9 f5ba 9137 487f a2b4
000001d0: a501 0439 698d 5d36 63f8 5cb6 d7ab 45b7
000001e0: dff0 4e38 6e21 6a36 9497 18b8 9cf4 08b9
000001f0: 5bcd 46b8 da27 8bb8 c526 15b9 3677 0038
00000200: b789 99b9 9313 f937 f19c 19b8 26b9 3e39
00000210: b645 e2b7 46bc 8435 df56 88b3 dfb4 a4b6
00000220: b611 96b7 bc2b d5b5 d673 dbb8 2dbf 1db6
00000230: 2105 8436 f1dc 2338 c706 e134 6238 1d36
00000240: 5116 8436 fefe 1437 4167 d437 3ed0 4135
00000250: 769c 8e38 ba48 cb37 75f6 c6b1 57d3 d536
00000260: a9bf a638 264a a2b8 6660 9837 41d9 e4b8
00000270: a9cf 13b8 088d 76b8 2ba5 4d38 3827 8e38
00000280: 8496 3ab8 3740 2137 da01 2236 f778 1938
00000290: a0a5 19b6 8226 bdb2 9c63 f8ae 27d3 ebb6
000002a0: 1982 4fb6 4dbc 6db5 6e36 f9b6 66eb 5434
000002b0: 777e d135 ed07 9437 915e 7fb0 562b 9f34
000002c0: 993d d234 38ef b537 091f 3235 fee3 1032
000002d0: 0dbf beb3 691c 8236 9109 2e35 420b 9b36
000002e0: b014 e036 6fc6 fcb6 9e3b 2cb3 bde0 2db5
000002f0: de6d b333 2b44 eeb4 8d9b 5237 c0fc 8936
00000300: dc65 d832 7365 5cb2 dc98 0732 973b 43b2
00000310: 7711 af31 c2dd e430 9784 ce2e 469b 3a31
00000320: a6d1 a230 144b 84b0 6101 4c32 c217 7fb0
00000330: 3b13 beb0 c863 4631 da55 30b0 d4bd c12e
00000340: eab2 85b0 5840 002f 8c63 55b1 0a6d 8bb0
00000350: aa46 9e2e b563 7bb1 0dca d2b0 00ce 9031
00000360: 25e0 5bb2 e370 4d32 455c d6b2 9c88 9e32
00000370: 1852 8231 f6da 0e32 1276 11b2 557e 11b2
00000380: 3b9c 0cba 0756 4a39 fe3a 2fb8 0147 db39
00000390: f6e4 4fb8 2281 0637 4290 9b32 1834 2938
000003a0: 21de 69b8 50ad 8b35 5670 63b9 6982 a3b6
000003b0: af3e 4eb7 cfe9 3638 3904 48b4 6a05 0a36
000003c0: 7e34 a2b5 7e0b cb38 2714 1738 3602 96b4
000003d0: df64 bb38 19cc 1d38 7449 8034 d39c aeb7
000003e0: cea7 ff38 c052 e8b8 6a6d 0137 a310 ceb6
000003f0: 4e4e 54b8 8d65 0cb9 3d5e 1b39 cccd 0b39
