models/drone/policy_opp_rotor_best_iter65.pth (torch, 80830 bytes, 20 tensors)

lstm.weight_ih_l0 f4 [128, 12]
00000000: c4c8 443e 8685 e43e 2453 8abe f40a 3b3e
00000010: e577 903e 5c78 7cbc ad82 18bd 81ef 01be
00000020: 3d82 adbd a14f ec3d a1bb 473d 4548 b83c
00000030: 8664 a7be a0cf 5a3d f298 683e 9526 ef3c
00000040: 3ca3 553d 3d3b 18be 6e3a 243d 549b f73e
00000050: b988 fb3d 229f 30bd 4f86 073e f4ec 24be
00000060: 32b0 18be b91c a4bc 336c 733b e837 07be
00000070: bb5b 973d aa73 03bd 90bc 29bd 5c8f d5bc
00000080: 3d70 5c3e ca70 d2bd 2b73 b2bd 25c2 b73d
00000090: 9775 33be 9a8e 41bf cb34 183b 542f 7cbe
000000a0: 910e 3c3c 8864 a6bd 5607 04bc 0080 eebd
000000b0: dd69 2a3d 9804 6abd 14da 0c3e fa15 1abe
000000c0: a51d a9be 52f8 f0be 57bc 9d3e 8f11 e0be
000000d0: d9d1 3bbf 741a c5bd 42c7 b13e 5adb ce3d
000000e0: 3c88 243e 19d0 18bd 06f5 653d 0f00 3c3d
000000f0: f23c 823e 0ea5 783d 68dd 9abe 565a d43d
00000100: 93a8 283d 3b13 ab3d 338c dc3d 6fd7 2c3d
00000110: d23a 89bd c1cb 4cbe 0dad e8bd 2a10 53be
00000120: 1ced c83d d4ee 163f 954b 86be cde6 19be
00000130: ceab 67bc 5e62 9dbd a093 60bd 5902 00be
00000140: c877 8fbd 7bcb 2c3e 241a 1a3d b1d1 0d3e
00000150: 7126 99be ac9a d43d ba72 763e 2da5 fd3d
00000160: 2fec 3c3d 0b46 dfbd a35e b03d fed5 57be
00000170: 5202 74bd 76b3 a1bd 6486 a9be de93 23bd
00000180: c02e dabc 86b3 bd3d 813b 7cbe 2531 dbbd
00000190: 023b 833c f7ed 92bc b212 b3be a402 9dbe
000001a0: c77c e93d 557c 06be 6173 ccbc 82dc c13d
000001b0: 9381 07be 8de4 9f3e 7a55 653d 56b9 bbbd
000001c0: 449c 893e 26d7 c03d 5f23 523e d5e8 c43e
000001d0: 9d7a 483e ee00 6c3d 5e1e 613e cf50 123e
000001e0: 430c adbe 838f 38bf 3ec5 9d3e 4190 eabc
000001f0: 7f38 bdbd e1e1 2e3b 11b4 b0be 5afa cc3e
00000200: c575 793e fbc6 f0bd 4c74 46be f395 ea3c
00000210: a642 00be a1fd aa3e 2f2e 0d3d 542c 79be
00000220: ca6d f43d 474b 473e 99a0 3dbb 1e4a bbbd
00000230: c1c0 183e f080 f6bc ea95 89bd 84e8 9bbc
00000240: 1a57 8bbe 7cfd 16bf 8c4d 083d 87c0 fabb
00000250: 117b 83be 5559 023c 7832 b6be 4c29 183f
00000260: 244e 3dbe 0bac 923a 51a9 6f3e eb61 f4bb
00000270: 58fc b1be 7443 20be d00f b73e 6e35 4b3e
00000280: 1ffd 57be 08dc 1e3e 5c7a 293d e01a 993e
00000290: fdff e13d 01c6 233c 5984 b3bd e775 12be
000002a0: bdde 4abd 9488 c4bc f182 49be 5c30 45be
000002b0: bbda fc3d f4de a2be c0da e4be 3818 53bd
000002c0: 9728 a03e cf24 563c 3d92 48bc f14e 8b3d
000002d0: b18c adbd e024 d33d 1f23 423d 5372 2ebe
000002e0: 6adf 7f3e e0b1 063e aa48 783e 1ebb ec3e
000002f0: 4655 91bd 3a13 893c a707 893e 4d5c 18bd
00000300: 996a 5ebe 59a7 2e3f a822 27be c306 843d
00000310: 3308 4a3e 110c d43d e0d4 5c3e 7634 24be
00000320: efe3 9bbd e101 063e 3a0d 503d 02d9 e73d
00000330: 988f 29bd fdbc eebd c459 ee3d 31b0 cc3d
00000340: 4942 d53d 1831 f2bc 5d50 2e3d 0391 0a3d
00000350: 2a28 a73e 1dbc 4d3d 1a86 1d3c bac2 763e
00000360: 0572 313e 3753 b93d 4177 9cbe c756 b5bc
00000370: 5498 44be 0658 193e d8a9 be3d 8945 873d
00000380: 6baa 98bd 6d28 e7bc 588f 0cbe 1703 16be
00000390: e357 5bbe 9bcd 3a3d b401 da3d 5a1c 7abe
000003a0: 9ffa 9cbc 60cd a6bd ed3c 0c3d 0451 6abd
000003b0: c4cf f53d 1852 bb3d c02f 533e be0e 6ebd
000003c0: f47d d8bd 74e2 66be b873 f23d c31c e33d
000003d0: e554 eebc f8fd af3d 4ccc 433e 38f4 673e
000003e0: 44d0 2ebc 74c7 66bb 4ebe 8ebc d6b9 d6bd
000003f0: 6617 293e e337 60be 5a68 653c 2c19 f5bd
0.19217211 0.4463312 -0.27016556 0.18265897 0.28216472 -0.015409555 -0.037233997 -0.1268902
-0.084721066 0.115386255 0.04876292 0.022495398 -0.3269388 0.053420663 0.22714594 0.029193202
0.052157626 -0.14866348 0.040094785 0.48360693 0.12281937 -0.04312051 0.13234828 -0.16106015
-0.14910963 -0.020033227 0.003714335 -0.1320492 0.07390543 -0.032092728 -0.041439593 -0.026069336
0.2152719 -0.10275419 -0.08713373 0.08972577 -0.17525326 -0.7560822 0.0023224826 -0.24627429
0.011478082 -0.081246436 -0.00805839 -0.11645508 0.041604865 -0.057133287 0.13755065 -0.15047446
-0.3303043 -0.47064453 0.30807754 -0.43763396 -0.7336708 -0.09624186 0.34722334 0.10100432
0.16067594 -0.037307832 0.056141876 0.045898493 0.25437123 0.060704283 -0.30247045 0.10368793
0.04117639 0.08353277 0.107689284 0.04219764 -0.06700672 -0.19999601 -0.11361132 -0.20611635
0.0981085 0.5895817 -0.2622954 -0.1502945 -0.0141400825 -0.07684778 -0.054828286 -0.12500896
-0.07005268 0.16874497 0.037622586 0.13849522 -0.2991214 0.10381064 0.24067202 0.123850204
0.04612368 -0.109020315 0.086118005 -0.21077725 -0.059572525 -0.078955576 -0.33110344 -0.03993594
-0.02663362 0.09262757 -0.24632074 -0.10702733 0.016019348 -0.017935736 -0.349752 -0.30666077
0.114007525 -0.13133366 -0.02495736 0.09465887 -0.13233022 0.31229058 0.05598972 -0.091662094
0.26877034 0.09416036 0.20521306 0.38458887 0.19578023 0.057618074 0.2198424 0.14288639
-0.33798417 -0.7209398 0.30814546 -0.028633239 -0.092392914 0.0026684927 -0.3451238 0.40034753
0.24361332 -0.117567025 -0.19380301 0.028635954 -0.12525424 0.33396628 0.034467872 -0.24333316
0.11935003 0.1946231 -0.0028934835 -0.09144996 0.1491728 -0.030090779 -0.06718047 -0.01903177
-0.2721489 -0.58980536 0.03327708 -0.0076523456 -0.2567983 0.007955869 -0.3558538 0.59438014
-0.1848684 0.0011190189 0.23404433 -0.007457962 -0.34762836 -0.15650731 0.3575425 0.198446
-0.21092652 0.15513623 0.041376457 0.29903316 0.11035154 0.009995938 -0.08765478 -0.14302789
-0.049528826 -0.023990907 -0.19678856 -0.19256729 0.12346407 -0.31810725 -0.44698143 -0.05153677
0.31280968 0.013070299 -0.012241897 0.06802166 -0.084741004 0.10309768 0.047396775 -0.17035799
0.2498757 0.13153791 0.24246469 0.4623651 -0.07096343 0.0167328 0.2676365 -0.0371974
-0.21720351 0.682241 -0.16321814 0.06446602 0.1972969 0.10353864 0.2156558 -0.16035637
-0.07611834 0.13086654 0.050793864 0.11320688 -0.041396707 -0.116571404 0.11638215 0.09994543
0.104130335 -0.029564425 0.04255711 0.0338297 0.3264783 0.050228227 0.009614492 0.2409772
0.17328651 0.09049075 -0.30559734 -0.022136105 -0.19198734 0.14974985 0.09309739 0.0660506
-0.0745438 -0.028217519 -0.13726556 -0.14649616 -0.21420245 0.045606237 0.10644856 -0.24424878
-0.019162474 -0.08144641 0.03423779 -0.05720617 0.12002519 0.091465175 0.20623684 -0.058119528
-0.10570899 -0.22547323 0.11838478 0.1108947 -0.029093215 0.085933626 0.19120902 0.22651756
-0.010669772 -0.0035214098 -0.017424729 -0.10484664 0.16512832 -0.21896319 0.01400193 -0.11967692

lstm.weight_hh_l0 f4 [128, 32]
00000000: 91ed fdbb 64bd 06be 7da7 6fbe 513d 023e
00000010: d449 fc3d a5dd 483c 340c 4abd f0bc 8c3e
00000020: b532 12be 52c3 383e 8a28 18be 175f f33d
00000030: 5dc5 83be 7e03 fe3c 4b7e a83c d245 93bc
00000040: 736b 3d3d dab4 bc3c 3bd2 293e ae3f 903e
00000050: 9766 a5bd 3ae9 0abe 7384 043e b6e5 04bd
00000060: 2ab1 1c3e d0ef 0f3e 77a5 a53d 337f 3c3e
00000070: e2e0 1c3d c510 0b3e 2cf3 b1bd c316 36bc
00000080: fa58 3bbd 5111 eabd 8310 ba3d 1505 e0bc
00000090: 85f1 bc3d 5a32 f8bc d93c cabc f5af 08bb
000000a0: f6dd b73c 58e9 61bd abea c4bd a8da a43d
000000b0: 79f1 b1bd b4c0 13be 44bd c63d 5379 c83a
000000c0: 419e e8bd 99f2 41bd 3d6c 34bd 586e da39
000000d0: 3828 d2bd 07a0 9bbd 477e d8bd f7b1 2f3e
000000e0: dfec 7f3e 5740 8fbd 8175 843e 0c8f 8e3e
000000f0: e9a3 893d cbbd 41bd 958d 853d ad21 56bc
00000100: a655 aebd ca38 0dbc 9bc3 7d3e e701 d53b
00000110: 952f 89bd cc48 363d ceea c3bd c096 2fbd
00000120: dfba 4dbe df73 30be de49 6a3e 4d2c 1f3e
00000130: 781f f9bd d375 15be e539 01bd 776f 21be
00000140: 2311 563d 2b3c d8bc 0f1a 02bd e0d4 11bc
00000150: b87e 33be 25c6 fd3d cf4f 99be 8e82 92bd
00000160: 90e8 9dbe 95f1 f5bd 4156 163d b1ea 04be
00000170: 3337 83bd ea55 b4bd 0e29 7d3e 8bf7 453d
00000180: 9954 4c3e 289f 36be e98a 603e dd5a 87bd
00000190: 5af9 21be 3eaa 35be a47f a0bd 5f10 253e
000001a0: b7c7 4cbd 6792 0eba b7f8 bb3e b4cd 83be
000001b0: 7fc9 b53e 3474 e1bd 6f13 bdbd 9f40 34be
000001c0: 96af 91be 7ef3 e93d ffcb 723d 7a50 083e
000001d0: 021a 0e3e 90ab 833e 537f 073e a2ee 6ebd
000001e0: 719a 90bd fb6a 413d 7ec1 743d 61a3 31be
000001f0: 8254 86be ffc2 bd3d 740d 97bd b289 a03e
00000200: 48d8 60bf 9746 843d faea d0be 147c 2b3c
00000210: c59a 05bf a4d1 babd f74f 3cbe 07da aa3a
00000220: b54c 88bd 7bb3 3f3e 4f28 b93e 5c70 f23e
00000230: 2dfb 13be 9399 46be ad15 703e c345 153d
00000240: 0bf8 89bd 97db e2bd 1feb 9c3e 98b3 033d
00000250: a870 cdbd 06a1 f6bd 8244 ef3d 9f01 963d
00000260: 55bd 9abd 5f72 563e ce89 31bf 989e d5be
00000270: 2d6d cf3d 1afd d03b e440 873d ac9b b7be
00000280: 67d0 403e ba7b 973c 3a86 43be 1425 b33d
00000290: f427 0d3d 544c db3d 7d14 df3d 76e2 55bd
000002a0: a9ce d93e 4d45 66bd 08a8 a0be 238e 9fbd
000002b0: d3ce 94bc 03ca 99bd 960d f2bd 85e7 b6bc
000002c0: 43db 863d 3eac e2bd 822f ec3d f41a 573d
000002d0: 44be 593d 786a 88be c12d fabd c008 b43b
000002e0: 6e05 6a3e d3b3 813e 67ab f1bd 7f26 363e
000002f0: 2234 2abc e5d3 133d cf7e 55be dd59 d1bc
00000300: 85de aabd 9272 70bd 7e6f 0a3c 7b7c 3bbe
00000310: d3f3 12be 9c42 783e 130f 7abc f30f 12be
00000320: aace 793d b248 23bd 1f94 82be 418d c9bb
00000330: 4e8e 95be 0471 a83d f251 293e fabe 41be
00000340: 5b75 033e cafb a6bd 22b6 cfbc c87d 19bd
00000350: d609 1d3e c08a a8bb fe19 063e ea26 003c
00000360: 4af7 863d cac4 f5bc 412d 633e 31ac 503e
00000370: 28ab 4c3e 6ad1 a13d bbcb 43be e4de 543e
00000380: 9038 aebe ad71 2a3d d053 03be d2b2 84bd
00000390: 866a 8ebd 1957 66be 81c0 4dbd bd27 6a3e
000003a0: c7fe cd3c a19a fd3c aba8 a6bd 87b9 873e
000003b0: 6a94 06bb 15a0 e23e 799b 403e 615b 98bd
000003c0: 8457 03bf 71a0 d73d a888 55be 320b 06be
000003d0: d0ce 2bbb 38ab 193d ef27 f63d b363 94bc
000003e0: 0732 263e 6a69 433e 8577 11be 65f5 343e
000003f0: bc91 77be 7924 b13e 53cf 523e c09b 24bb
-0.0077492674 -0.13158184 -0.23403735 0.12718703 0.12318769 0.012259875 -0.049328044 0.27487898
-0.14277156 0.18043259 -0.14859214 0.11883371 -0.25736514 0.031007525 0.020568034 -0.017977629
0.04624505 0.023035455 0.16584103 0.28173584 -0.08076208 -0.13565531 0.1294115 -0.032445632
0.15301958 0.14056325 0.080882005 0.18407898 0.038300402 0.13580616 -0.086889595 -0.011113825
-0.04573915 -0.11429084 0.090851806 -0.027346173 0.09225754 -0.030297447 -0.024687218 -0.0020856832
0.022444706 -0.055154175 -0.09615072 0.08049518 -0.086886354 -0.14428979 0.09704068 0.0015294946
-0.113583095 -0.0473505 -0.044048537 0.00041662413 -0.10261577 -0.07598882 -0.105709605 0.17157732
0.24992703 -0.06994694 0.25870898 0.2784351 0.067207165 -0.04730014 0.06521145 -0.013069552
-0.0851243 -0.008619497 0.24781649 0.006500471 -0.06698529 0.04450302 -0.0956627 -0.042868376
-0.20090817 -0.17231701 0.2287974 0.15544243 -0.12164205 -0.14595728 -0.031549353 -0.15765177
0.052262437 -0.026395878 -0.031763133 -0.008900851 -0.17528808 0.12391309 -0.29943702 -0.071538076
-0.30841494 -0.12008969 0.036703352 -0.12980153 -0.06407013 -0.08805449 0.24722692 0.04833178
0.19954146 -0.17834151 0.2192799 -0.06609128 -0.15817776 -0.17740723 -0.078368455 0.16119526
-0.04999515 -0.0005438686 0.36713192 -0.25742877 0.35505292 -0.11008492 -0.09232222 -0.17602776
-0.28454274 0.114233956 0.059276577 0.1331195 0.13877109 0.2571683 0.13232164 -0.058333047
-0.07060707 0.047221165 0.05975484 -0.1734748 -0.2623635 0.09265708 -0.07375613 0.31355053
-0.8783002 0.064587764 -0.40804273 0.010466594 -0.52189285 -0.09122017 -0.18389879 0.0013034948
-0.06655256 0.1872081 0.36163566 0.47351348 -0.14451285 -0.19394521 0.23445769 0.036443483
-0.067367636 -0.1107704 0.30648133 0.032153696 -0.10031253 -0.120424315 0.11682989 0.07324528
-0.075556435 0.20942067 -0.693509 -0.4172256 0.101282455 0.0063778283 0.06604174 -0.35860956
0.18829499 0.018491615 -0.19094172 0.087473065 0.03446193 0.10707918 0.1089258 -0.052217923
0.42540482 -0.056218434 -0.31378198 -0.07790782 -0.018165028 -0.07509234 -0.118189976 -0.022327194
0.065847896 -0.11068009 0.11532499 0.05251594 0.053159967 -0.2664373 -0.12215758 0.005494207
0.22853634 0.25332507 -0.118002705 0.17788123 -0.010388406 0.03609075 -0.20849155 -0.025555545
-0.083432235 -0.058703013 0.008449433 -0.18309204 -0.14350824 0.2424416 -0.015262383 -0.14263897
0.060988106 -0.03986425 -0.25503632 -0.006150872 -0.29210132 0.08224681 0.16535166 -0.18920508
0.12837736 -0.08153494 -0.025355402 -0.03747347 0.15335783 -0.0051434934 0.13095853 0.007821778
0.065901354 -0.030001063 0.22185232 0.20378186 0.19987166 0.07901271 -0.19120686 0.20788151
-0.3402753 0.041612316 -0.1282494 -0.0647942 -0.069539115 -0.22494163 -0.050232414 0.22866721
0.025145901 0.030957522 -0.081376396 0.26508734 -0.002053524 0.44262758 0.18809308 -0.07439304
-0.51305413 0.10528649 -0.20852911 -0.13090208 -0.00262158 0.037516803 0.120193355 -0.018113947
0.16230021 0.19083181 -0.1420575 0.17671736 -0.24176687 0.3459814 0.205869 -0.0025117248

lstm.bias_ih_l0 f4 [128]
00000000: e82e c7bc d15a 20be cb7c 43bd 61af 59bd
00000010: 86aa 5e3e d197 cf3d 7aa0 b6bd d411 fc3c
00000020: 8187 cfbd ab17 293c bfa4 a13e 7aa2 e73d
00000030: b996 2bbe fcc3 25bc 2747 18be 160c 403d
00000040: 08ef dd3a 0264 42bd fe24 34bd 4e41 dd3d
00000050: 8337 983d b4a2 cf3d 6c4e 393e bda4 9d3e
00000060: 2a14 00be 991d f73d 884b 003e 298d 433d
00000070: bddf 5abe 389c fa3e e1b3 d93d dbb9 7dbd
00000080: 7282 9ebc 54de cc3d c361 86be e8e6 0bbe
00000090: 918a 4fbd 6965 4d3e 447b 31bc 3f81 eb3d
000000a0: 2474 173d 4e1b 2bbe a165 84be b584 c03c
000000b0: 7a11 7dbe 471d b4bd d723 713c 7665 1bbb
000000c0: 6a66 143e f289 f33d 0257 ea3d 9e90 533e
000000d0: 89b9 56bc 9196 9a3c c345 223c 61cc 96bd
000000e0: f53b 06be b9ef a33d 8109 d2bd a8c7 aabe
000000f0: 6a08 00be d514 81bc 833c 2dbe 9c98 c6bd
00000100: cf1c 493c a8dd f33d 3a3d 973d e491 6c3c
00000110: 3df2 17be 201b 4ebd a0b1 3e3d 1663 aabd
00000120: 3fa8 333e 897d 15bd 0f82 5abd 3e34 023e
00000130: 1328 e9bd 0f46 643e 73d2 3d3e 45e8 cd3d
00000140: a477 1dbc e034 bd3d 531b bebd bb64 503d
00000150: 74f9 3e3e 26d6 193d bef4 123d 3ce7 58be
00000160: 071f 12bd 6a3f 293e 681a b4bc 0f80 123e
00000170: 906b 613d 5183 593e 989d e03d c9df 1cbe
00000180: dbca 263e 0c3d 9c3d bc28 85be d12a 0a3d
00000190: 53ad 713e a4c1 ea3c 743d 24bd ee30 873d
000001a0: 4f3b a6bd 095a 9d3c 12cb 37bd 4553 0c3e
000001b0: 5cc0 523e b4a7 033b 5da1 e0bb 677c 8a3c
000001c0: f384 42be 4bef c03d c99f 83bc c70f b0bd
000001d0: 22db 7a3e 67d9 0bbd 0bcc 4a3e d0a7 593d
000001e0: 691f 41be 0ab5 f13d 16c4 6e3e 9eca 593e
000001f0: aaba 123e da49 ac3e c21f ecbd 1977 2d3d
-0.024314359 -0.15659644 -0.047726434 -0.05314577 0.21744737 0.101363786 -0.08917327 0.03077022
-0.10133267 0.010320584 0.31571004 0.11310287 -0.16756715 -0.010117527 -0.14870892 0.046886526
0.0016932199 -0.047458656 -0.04398059 0.108034715 0.07432463 0.10138455 0.18096322 0.30789748
-0.12507692 0.12066192 0.12528813 0.047742043 -0.21374412 0.4894731 0.10630012 -0.061944824
-0.01934931 0.10003343 -0.2624646 -0.13662302 -0.050669257 0.20058216 -0.0108326115 0.11499261
0.036975995 -0.16709635 -0.25858787 0.02350078 -0.24713698 -0.08794647 0.014718018 -0.0023711598
0.14492193 0.11891545 0.11442377 0.20660636 -0.0131057585 0.018870624 0.009904328 -0.07363201
-0.1310881 0.08004708 -0.10255719 -0.3335545 -0.1250321 -0.015757004 -0.16917615 -0.09697077
0.012274935 0.11907512 0.07384725 0.01443908 -0.148385 -0.050318837 0.046556115 -0.083196804
0.1754465 -0.036496673 -0.05334669 0.12715241 -0.11384597 0.2229235 0.18537311 0.100540675
-0.009611044 0.09238601 -0.092825554 0.050877314 0.18649846 0.037557743 0.035877936 -0.21181959
-0.03567412 0.16528097 -0.021985248 0.14306663 0.05503422 0.212415 0.109675586 -0.15319742
0.1628832 0.07628831 -0.2600764 0.03373224 0.23601274 0.028656788 -0.04009767 0.066011295
-0.08116781 0.019207971 -0.044871397 0.1370364 0.20581192 0.0020088973 -0.0068551735 0.016905023
-0.18996029 0.094206415 -0.016067402 -0.08596759 0.24497655 -0.034142878 0.19804399 0.053138554
-0.18859638 0.118021086 0.23316988 0.21268699 0.14329019 0.33650094 -0.11529495 0.04234991

lstm.bias_hh_l0 f4 [128]
00000000: df94 2a3c d874 e83a 49c0 0c3e c709 41be
00000010: 30cc 783e 1c18 ed3c 6d0d 19be b756 f5bd
00000020: dd78 a43d eff5 eebb 7886 363b 6f84 f93c
00000030: 69d8 8abd b78b 46bd 1792 60bd bebc 073d
00000040: 30fe 0cbd e976 953d 0889 35bd 10a5 fa3d
00000050: 9fa0 d4bd a627 f83c b442 593e 1daf 5a3d
00000060: f637 9c3b 65d2 843d 1f19 6d3e cacb 203e
00000070: d3f6 fdbd a2a9 d73e 6c7d 033e 1cf9 f8bd
00000080: 3cbb 023e 0378 4fbd 5b55 96bd 8d0f eb3d
00000090: 6417 e73d 153c 1a3e c071 dbbd f1b5 0abe
000000a0: 6742 07be 130e 7a3d 1a5e 12bd f2b2 6bbe
000000b0: 761d c3bd 372c 1a3d 260e a33d db05 47bd
000000c0: e47e 0fbe 7cdf 41be ff96 46bd 3fe6 c33d
000000d0: a6b1 44be 9570 0b3d 9237 adb9 7dc6 e93d
000000e0: 10f5 61be 5827 76bd dafe 3bbe 2caa 29be
000000f0: b890 9b3d 7e92 4ebc 857f 67be e002 3abe
00000100: 7f9a 013e a684 d33d df45 523e e11b 303d
00000110: 47ec 1bbe 17af 863e 2713 843d 2d4a 1fbd
00000120: 4cc9 613d 0b09 b5bd 87a3 b3be b508 8abd
00000130: 6ff5 75be 514f 493e 7a16 a73e a98c d33d
00000140: fb74 dfbd 1cbb e83d e6d4 0dbe 1960 533e
00000150: bf7f e03b 5dee 08bd f31b 0a3c 7c41 93bb
00000160: 9b78 063e 68e8 6b3e 9694 a8bd a319 7b3e
00000170: ae45 593e 4528 463e 62a6 cc3d fd46 a2be
00000180: 49df d43b d84b 9cbd 620d 6bbc 093d 88be
00000190: a051 413d f657 2c3e bc2a d03d d91c 35bd
000001a0: d792 17be 543d c2bb 4cb1 303d fd8f 213e
000001b0: c7e6 833e d12f 253e 0c32 1e3e b544 e13d
000001c0: a90e 2bbe 816d 083d 5d9d cbbc 3e86 6b3d
000001d0: 3eaf 0d3e 6459 163c e585 823e b8af 193d
000001e0: 5d17 0cbe 3407 993c 7585 9bbd 77c6 ba3e
000001f0: 1d90 cabd 5325 e53e 057a 0bbe 932d ee3c
0.01041147 0.0017735017 0.13745226 -0.18851386 0.24296641 0.02894216 -0.14946528 -0.1197943
0.08030865 -0.007292501 0.0027851146 0.030458657 -0.06779558 -0.048473086 -0.054826822 0.033138983
-0.0344221 0.07298071 -0.044320136 0.122385144 -0.103821985 0.030292343 0.21216851 0.053389657
0.0047674133 0.06485442 0.23154114 0.1570274 -0.124005936 0.42121607 0.12840813 -0.12156889
0.12766737 -0.05065156 -0.07340499 0.114775755 0.11283758 0.15061982 -0.107150555 -0.13545968
-0.13208924 0.06104858 -0.035734273 -0.23017481 -0.095271036 0.037639823 0.07961683 -0.04858957
-0.14013249 -0.18932909 -0.048483845 0.095654 -0.19208393 0.034042913 -0.00033038534 0.11414812
-0.2206614 -0.060096115 -0.18358937 -0.16568822 0.07595962 -0.012608169 -0.22607239 -0.18165159
0.12656592 0.10328035 0.20534466 0.042995337 -0.15226851 0.26305458 0.064489655 -0.0388891
0.055123612 -0.088396154 -0.350857 -0.06739942 -0.24019407 0.19659163 0.32634336 0.10329563
-0.10910984 0.11363813 -0.13850746 0.20642127 0.006851166 -0.033430446 0.008429515 -0.0044938903
0.13131945 0.23037875 -0.082314655 0.24521498 0.21217987 0.19351299 0.099926725 -0.31694785
0.006496344 -0.076316535 -0.014346452 -0.26609066 0.047196984 0.1683043 0.10164401 -0.044216964
-0.14802109 -0.005927721 0.043137833 0.15777583 0.25762007 0.16131522 0.15448779 0.10999433
-0.16704811 0.033307556 -0.02485531 0.05750107 0.13836381 0.009176586 0.25492778 0.037521094
-0.13680787 0.018680193 -0.07593814 0.36479542 -0.09890769 0.4475504 -0.13620766 0.029074466

hidden2out.weight f4 [3, 32]
00000000: db61 cdbe 62dc 873b a096 ed3d 0b8b 53be
00000010: 49d8 58be e7d1 553e f2fd bb3d c8ad a5bc
00000020: 9d5f 8e3e ab9c 733d e238 80be 0feb e7bd
00000030: 435a 6cbe 662f 8c3e 69bb 2a3e 54be d33c
00000040: 9d7e c8bd 115f 2e3d 4954 c53d 5eff 46bc
00000050: 8d64 373e d8d1 73bc c0b5 40bd 8611 1dbe
00000060: e6d7 bc3e 140a a83e 3a8c 0fbe 75a3 eebb
00000070: 4f97 163e d95f cc3e 9e0e 473e fea0 1cbe
00000080: 57a5 70be 4ef4 803e 4b08 513d e219 4dbe
00000090: 6b6d 233e 52f0 9a3d 4906 40be f56f ffbc
000000a0: 0fa3 1dbe 490c a4bc da3c 473e 9f1d c33d
000000b0: f728 80be ae6a 0fbe 2c25 89bd 696d 763e
000000c0: ff0a 93bd 1e2c 5fbe 6852 ef3d 8d20 0abe
000000d0: bc1f 06be b383 af3d 5b9d 3f3e dc7e 61ba
000000e0: b279 ce3c 9d99 9c3d c501 363e b3c0 cc3d
000000f0: d44b db3c 3228 123d bba8 afbd e5f4 f83d
00000100: 1fbc 21be 8240 e9bd 6ca3 743e 3e72 113e
00000110: 87b8 6e3d af90 603e 9480 633e 13e9 4dbe
00000120: 88dc 373d 7cb6 08be ecb2 0f3d c6fd bf3d
00000130: 8221 2b3c 8606 46be 89f5 4fbe 27ea c0bc
00000140: dbd4 733d 26b9 16be 40fe 3bbd bda6 c8bd
00000150: df5c 6bbd ea28 d3be 897e 51bd 98f8 40be
00000160: 658e 203e e6dd 853c 3e34 bd3d 4731 493d
00000170: 1cb9 d63d 4266 c1be 24b9 c0bc 233c 833e
-0.4011372 0.0041461447 0.11600995 -0.2065851 -0.21176256 0.20880853 0.091792956 -0.020224467
0.27807322 0.059475582 -0.25043398 -0.11324131 -0.23081307 0.27379912 0.16673054 0.025847591
-0.097897746 0.04257113 0.09635217 -0.012145845 0.17909451 -0.014881574 -0.04704833 -0.15338716
0.36883467 0.3282019 -0.14018336 -0.007282669 0.14706157 0.39916876 0.1943917 -0.15295789
-0.23500572 0.2518639 0.0510333 -0.20029405 0.15959708 0.07565369 -0.18752398 -0.031181315
-0.15394233 -0.02002539 0.19456807 0.09527134 -0.25031254 -0.14005539 -0.06696543 0.24065174
-0.07179832 -0.21794173 0.116856396 -0.1348898 -0.13098043 0.085700415 0.1871237 -0.00086019724
0.025204513 0.07646487 0.17774113 0.09997692 0.026769556 0.035682864 -0.08577105 0.12156085
-0.15794419 -0.11389257 0.23890465 0.14203736 0.058281448 0.21930192 0.22217017 -0.20108442
0.04488805 -0.13350862 0.035082743 0.09374575 0.010445001 -0.19338426 -0.20308508 -0.023549153
0.059529167 -0.14719066 -0.04589677 -0.09797428 -0.057461616 -0.41242152 -0.051146064 -0.18844831
0.15679319 0.016341161 0.0923848 0.04911926 0.104845256 -0.3777333 -0.023525782 0.25631818

hidden2out.bias f4 [3]
00000000: ca03 bc3d 107f b3bc 0ac8 cf3d
0.0918041 -0.021911174 0.10145576

std_layer.weight f4 [3, 32]
00000000: 0760 103e c048 ea3c 50c2 dabc 7ed4 a63d
00000010: 3067 60bd d27d b03d 4a5f d63d 6015 b2bc
00000020: 6055 32bd 260a b4bd 39be 0dbe 5ad5 883d
00000030: ee18 b13d cc54 1bbd 30b3 34bc b8fd d9bc
00000040: 505c 2ebc 44ee 04bd 6ff5 26be ecd0 213d
00000050: 86c9 e53d 0cd7 50bd 7211 f13d 2630 f2bd
00000060: 9b02 08be 7e5f 913d e475 31be 184e 07bd
00000070: 007d 113a 4272 f3bd afcf acbd 2245 f83d
00000080: 208b a8bd 4842 36bd 6156 01be f23d a5bd
00000090: e0cf 2abe 15bf 05be 0c9e 893d 000f 063b
000000a0: da63 a23d 0b29 06be c600 ef3d 7ed5 c13d
000000b0: b0fa 3abd 9629 68bd 59f6 113e e49a 3f3d
000000c0: 80f3 f33c 203a 90bb 1086 6dbc b080 44bd
000000d0: c88d 933c 85ca 343e 76b1 e13d d158 303e
000000e0: 45b3 e0bd d8e3 f4bd d9c0 073e 54f1 15bd
000000f0: 14cc 45bd 5c29 68bd b097 bbbd 1074 13bd
00000100: 40cf 803c 0834 b33c 5440 51bd d29a f03d
00000110: 92c9 dd3d 58f7 2ebd a837 d63c 900c 7f3d
00000120: 8016 cf3a d000 debd b00f 71bc 0cd4 6a3d
00000130: c227 7bbd 09e7 adbd 6b4d c8bd c9ef 0dbe
00000140: dba9 a5bd afd1 dabd 04ab 52bd b03f 2b3d
00000150: e0d3 ce3c 00a7 743b e544 113e 7a8c 21be
00000160: dc52 79bd d946 133e d86e 073d 8d43 0a3e
00000170: 0089 beba eb31 203e b808 82bc 541e 823d
0.14099132 0.028599143 -0.026703984 0.081459984 -0.054785907 0.08617748 0.10467394 -0.021738708
-0.04353845 -0.08790998 -0.13842095 0.066813186 0.08647333 -0.037922665 -0.01102905 -0.02661024
-0.010642126 -0.03245379 -0.16304563 0.039505884 0.11220078 -0.050986335 0.117709056 -0.1182559
-0.13282244 0.07098292 -0.17330128 -0.03303346 0.00055499375 -0.11887027 -0.0843805 0.12122561
-0.08229661 -0.044496804 -0.12630607 -0.08068456 -0.1668086 -0.13061173 0.06719598 0.0020455718
0.079292014 -0.13101594 0.116700694 0.094645485 -0.04564923 -0.056680284 0.1425413 0.046778575
0.029779196 -0.0044014603 -0.014497295 -0.04797429 0.018011943 0.1765538 0.11020176 0.17221381
-0.10971693 -0.1195752 0.1325716 -0.0366071 -0.048290327 -0.05668007 -0.091597915 -0.035999358
0.015723825 0.021875396 -0.05108674 0.1174828 0.10829462 -0.042716354 0.026149586 0.06226784
0.0015799552 -0.10839999 -0.014713213 0.05733113 -0.061317213 -0.08491332 -0.09780391 -0.13861002
-0.08089038 -0.10684525 -0.051432624 0.041808784 0.025247514 0.0037330985 0.14186437 -0.15776244
-0.060870036 0.14382495 0.033064693 0.13502331 -0.0014536679 0.15644042 -0.015873298 0.06353441

std_layer.bias f4 [3]
00000000: dca2 6fbd 0bc0 09be e20e 09be
-0.058504924 -0.13452165 -0.13384584

exp_avg f4 [128, 12]
00000000: 59ab 633a 9303 a03a f91d 4439 72d0 acba
00000010: c022 a03a 7ba5 d33b bde1 1a3b aaba 8339
00000020: 73e3 903a a0f8 db3b 12c1 033c 2915 a53b
00000030: aa95 bfba ddb6 113a 45dc abb8 4e79 4139
00000040: 9dfa 7339 0df7 26bb 3214 ddba 22d0 ed3a
00000050: 573c 8dba f908 9bbb 2973 0cbb 4cf9 24bb
00000060: fa48 ceb8 2233 c9b7 9a6a 0e39 44df 03b9
00000070: a1a1 87b9 ed2e 5b39 3b2b 5eb8 f05e 4c39
00000080: e705 2ab7 4b74 65b9 0f9f 1c38 1e3f 2f38
00000090: 5f1d d137 7a66 5c36 bccf 86b8 4a7f 0139
000000a0: 5ca5 0039 9310 84b9 bb3c 3ab8 f276 8bb8
000000b0: 64da 2eb8 b872 8fb8 b52c 1cb9 bbfc 39b9
000000c0: 1678 2cb9 f0ba 61b9 e8c1 17b9 c3d2 bd39
000000d0: cec6 37b9 255e ceba c516 cfb9 0e22 e7b8
000000e0: ef34 a9b9 7022 c1ba d8a5 e9ba a359 adba
000000f0: 7d91 a038 625f b1b8 20bc a4ba e5fa f13a
00000100: 616a 083b 7a13 b2bb be9b 3bba d96f c6ba
00000110: e57d 3bba 6721 17bb 04cf a0bb d4b6 7ebb
00000120: a4d6 cd36 b836 69b8 a528 64b8 1e0a 1639
00000130: 63f0 da38 d860 d3b9 2d7d 9cb8 3c62 e1b8
00000140: e900 36b8 b49f 47b9 651d d6b9 7664 8cb9
00000150: 2dfa 7938 a95a 8338 e274 c7b8 cb55 3338
00000160: a8e3 3a38 9fd0 46b8 3252 dab7 4424 1fb8
00000170: 2878 aab8 b8ea cbb6 6c9f 6bb7 8e75 32b8
00000180: 398e 1839 3a30 6db9 af0d 4538 1fa9 4239
00000190: 784d 1639 fc91 cdb9 066f 3439 906c 2bb9
000001a0: c9ef 3a39 1033 2c39 ce34 1cba 2cfa 2ab8
000001b0: 7974 56b7 3ace bab7 d89b 6938 beae 9bb8
000001c0: ecfa c2b8 911b 1b39 bc68 d937 6990 6d38
000001d0: 7398 d637 c397 f537 e09e ba38 6352 d538
000001e0: 423a 0b38 561e cbb8 44c7 96b9 a483 fa39
000001f0: 8045 3f39 4ecb 96ba 779a b9b9 e5dc d1b9
00000200: d743 a4b9 387d 30ba fa5d 90ba e4ca 74ba
00000210: 55a9 83b8 9575 79b7 07e0 1938 3ac4 c8b7
00000220: 7cec d837 cd7f 5eb7 1a4e e7b6 b0c9 d237
00000230: 5435 d237 d8d6 d1b7 0864 9437 4f55 2bb8
00000240: 9462 23bb dad3 eeba 8355 20ba 14e0 d93a
00000250: 93e4 0fbb fe8b 4cbc 6330 66bb 9058 143a
00000260: aba0 1bbb 5cb2 5fbc 9300 6bbc 9a4e 34bc
00000270: f1d0 86ba 971a 38ba 2b74 94ba 98d1 1f3b
00000280: 6009 383a 527c 16bc b043 5bbb 0c51 7cba
00000290: e052 fdba c1d0 05bc ab78 1cbc a322 fabb
000002a0: d462 9fb9 3ce2 04ba 2b1e e139 8149 89ba
000002b0: c2bf 02bb 52d7 d339 fa66 9539 0270 9e39
000002c0: a379 d0b7 aae0 5fba a72c b8b9 037f 42ba
000002d0: 30ac 63b6 bba6 7337 48ed 23b8 4be6 8038
000002e0: 2872 8e38 5bfa e6b8 5f64 89b8 0233 38b8
000002f0: 0208 bfb7 ae16 edb7 173a 7fb8 67f6 b8b8
00000300: 2133 77b8 165f 00b8 6bb5 9538 4bc4 8a37
00000310: e83b 9737 702a f9b7 434e b037 0bf5 eb37
00000320: 60e8 b238 473f ddb6 3b78 2db8 219a 1eb7
00000330: bbf5 4739 8955 4f39 7a55 f939 dcb8 74ba
00000340: 5f6d cdb9 2541 403b ce18 5b3a 0a9b e239
00000350: d602 153a ff74 0f3b 4fe5 3f3b 8e74 173b
00000360: d09c 15ba 457e c239 1f81 0439 5083 26ba
00000370: f1d5 37b9 a293 da39 4e11 6939 b142 523a
00000380: c740 a6b8 daf6 13ba a3cc 543a 5307 34b9
00000390: 7e9b a8b6 a18c 0bb7 671c f837 0d4f c9b8
000003a0: 1828 deb8 33da 0539 0be4 f137 d675 3638
000003b0: 1bbf ff36 83a9 9737 9568 9538 3cba 9538
000003c0: 9617 33ba f106 3f39 69cb 1aba 1edc c53a
000003d0: d95c 8e3a 45e4 82bb 1803 0bbb bf53 4939
000003e0: c29b 7dba 2adb 7ebb 20bf 78bb 847a 38bb
000003f0: be18 27b8 846e 35b8 a143 0438 11ac 9038
0.00086848956 0.0012208096 0.00018703182 -0.001318468 0.0012217388 0.006458936 0.0023633086 0.00025125343
0.0011054113 0.006712988 0.008041637 0.005037923 -0.0014616747 0.000555856 -8.194944e-05 0.00018451104
0.00023267647 -0.0025476844 -0.0016866981 0.0018143693 -0.0010775429 -0.0047312942 -0.0021430945 -0.0025173007
-9.8364384e-05 -2.3984878e-05 0.00013581887 -0.00012576306 -0.0002586963 0.00020902949 -5.2969186e-05 0.00019490323
-1.0134164e-05 -0.00021882464 3.7341433e-05 4.1782034e-05 2.4928418e-05 3.2842204e-06 -6.4283115e-05 0.00012349818
0.00012268632 -0.0002518935 -4.4402415e-05 -6.650192e-05 -4.1688225e-05 -6.8401394e-05 -0.00014893974 -0.00017737124
-0.00016447934 -0.00021527312 -0.00014472718 0.0003620592 -0.000175263 -0.001574461 -0.0003949908 -0.000110212815
-0.0003227363 -0.0014734995 -0.0017825915 -0.0013225566 7.656494e-05 -8.457784e-05 -0.0012568273 0.0018461613
0.002081536 -0.0054344507 -0.0007156691 -0.0015139534 -0.00071522436 -0.002306068 -0.0049074907 -0.0038866298
6.1344635e-06 -5.560249e-05 -5.439729e-05 0.00014308884 0.000104398256 -0.0004031721 -7.4619755e-05 -0.00010747134
-4.339303e-05 -0.00019037613 -0.0004083916 -0.0002677773 5.959922e-05 6.2634535e-05 -9.5108306e-05 4.2756827e-05
4.4557877e-05 -4.7401172e-05 -2.60259e-05 -3.794233e-05 -8.1286125e-05 -6.0771963e-06 -1.404421e-05 -4.254799e-05
0.00014548832 -0.00022620047 4.6981204e-05 0.00018564284 0.00014333974 -0.00039209414 0.00017207497 -0.00016348273
0.00017827669 0.0001642222 -0.0005958796 -4.076415e-05 -1.2782512e-05 -2.226896e-05 5.569667e-05 -7.423524e-05
-9.297379e-05 0.00014792221 2.5917187e-05 5.6639696e-05 2.5581778e-05 2.9276945e-05 8.898764e-05 0.00010171977
3.319444e-05 -9.685445e-05 -0.00028758694 0.00047781796 0.0001824107 -0.0011504681 -0.00035401035 -0.00040028166
-0.00031331062 -0.0006732526 -0.0011014335 -0.00093380944 -6.278107e-05 -1.4868933e-05 3.6686684e-05 -2.3933233e-05
2.5859328e-05 -1.3261987e-05 -6.8934287e-06 2.5127869e-05 2.5058784e-05 -2.5014786e-05 1.7689556e-05 -4.0849027e-05
-0.0024930583 -0.0018221096 -0.0006116258 0.0016622567 -0.002195631 -0.012484549 -0.0035124056 0.0005658949
-0.0023746889 -0.013653364 -0.014343399 -0.011005068 -0.0010285658 -0.0007023005 -0.0011326125 0.0024386402
0.000702044 -0.009184914 -0.0033457093 -0.0009625114 -0.0019327067 -0.008167447 -0.009550254 -0.0076335235
-0.00030400476 -0.0005069112 0.0004293782 -0.0010474176 -0.0019950722 0.00040405482 0.00028496218 0.0003021956
-2.4852174e-05 -0.00085402525 -0.00035128483 -0.0007419439 -3.3925862e-06 1.4522749e-05 -3.9083214e-05 6.146411e-05
6.792351e-05 -0.00011013887 -6.551365e-05 -4.3916523e-05 -2.2772703e-05 -2.8263163e-05 -6.0850838e-05 -8.8197e-05
-5.8937007e-05 -3.0606134e-05 7.1386654e-05 1.6542288e-05 1.8028499e-05 -2.9702875e-05 2.1017278e-05 2.812829e-05
8.5309846e-05 -6.5936797e-06 -4.1358388e-05 -9.45342e-06 0.0001906966 0.00019772923 0.00047556666 -0.00093354075
-0.00039182135 0.0029335704 0.0008357883 0.00043221592 0.00056843215 0.0021889803 0.0029280966 0.0023110243
-0.0005707266 0.00037096642 0.00012636602 -0.00063519645 -0.0001753194 0.00041690195 0.00022227058 0.0008020802
-7.9275625e-05 -0.0005644389 0.00081176515 -0.00017168866 -5.024892e-06 -8.317788e-06 2.957713e-05 -9.599151e-05
-0.00010593253 0.00012765154 2.883563e-05 4.3501925e-05 7.62184e-06 1.8079538e-05 7.1243536e-05 7.1395625e-05
-0.00068318227 0.00018217765 -0.0005904944 0.0015095507 0.0010861411 -0.003994497 -0.002121156 0.00019200052
-0.0009674394 -0.0038887956 -0.0037955716 -0.0028149197 -3.9838946e-05 -4.325669e-05 3.1534237e-05 6.898505e-05

exp_avg_sq f4 [128, 12]
00000000: 91ca 2d36 1353 b436 8103 7635 b0cf 2f37
00000010: 1a4a c236 dfd4 2139 5a02 6e37 42bb 4036
00000020: 82e6 5e36 af17 0139 add7 6f39 4c23 b938
00000030: 4be5 f137 0cba 7b37 bfad 6f37 82d5 7638
00000040: 0ac3 f338 8123 393a ca37 e037 78b0 f537
00000050: 0ceb b337 9d4a 2f3a e733 593a 3b90 0c3a
00000060: 3e79 7834 023a 2935 f8c2 8633 9bd2 2336
00000070: 74b7 e036 7bbc dd36 a983 0335 ee28 6934
00000080: decb 6834 1757 f036 a0db 2037 080d 0337
00000090: cff9 df33 e375 e233 ef16 5435 7dfc bf35
000000a0: e00c ba35 62af bf36 1a7a e733 d8d4 4735
000000b0: 16a3 8e34 538c 2235 a815 5436 c8ce 4836
000000c0: 0e0e ad33 920c 2934 66ff de32 e3e9 8234
000000d0: bf20 d233 11d7 8936 7d92 bb34 4288 c332
000000e0: 3189 1734 9298 7f36 140e bd36 1f76 3c36
000000f0: 6826 0a36 7028 4c37 6bca f836 4985 4238
00000100: 1ac8 8137 97f6 ed39 cb35 ee37 5d31 a937
00000110: a9e1 f736 3d5e 6239 e0db 133a 0fc2 6839
00000120: d804 ca33 4d2a a833 3b2e 6535 a534 0b36
00000130: 1dff 0036 065e 1e37 ecb9 8134 b5d4 8d35
00000140: e24a 9334 34fa 9635 eddd cd36 9ace 9636
00000150: ece5 d433 48a0 2734 d4fc 8734 3039 8834
00000160: 4d64 a933 176d 0735 983f 2234 6711 6633
00000170: 8dbd 9134 d99d 5934 bb66 bc33 a021 0135
00000180: 8e1f 0635 d03a b635 0968 9b36 b277 9037
00000190: bbfb 6437 28f5 db38 1754 4a36 3459 0737
000001a0: ff81 ce35 28ed a537 c9e0 be38 ca65 3d38
000001b0: 9d0f 9630 20c8 bc30 a50a 6a32 0431 4833
000001c0: 7253 3a33 b8dc 4334 1097 2431 e934 a332
000001d0: 3ea4 3a31 d2e5 ac32 5ccd e933 d96a be33
000001e0: e3c2 8e33 e8c5 3f34 7d3c 3135 d550 3f36
000001f0: 802e 1836 0878 8837 3601 0735 9819 b435
00000200: ec1b 6e34 7438 4936 ebdd 6d37 8c72 ee36
00000210: a8ba bd32 c264 0333 e7c9 9333 27eb dd33
00000220: 4fca 1a34 7362 0e35 1616 b832 58d9 7233
00000230: 10e2 0e33 ebda 3334 87bb eb34 211c b134
00000240: b4de 3137 182c 5537 8126 1036 23e2 eb37
00000250: cc3b 2837 6403 093a ea42 4638 8279 9436
00000260: bfac 7f37 bce5 f839 6749 3c3a 02f1 b239
00000270: 2164 0037 e79b 1737 f090 c336 d379 0938
00000280: 2919 ca37 6c2f eb39 c7a1 9a37 9ffa 5937
00000290: 0b6b 2a37 325d a539 b5c9 0f3a ea47 9a39
000002a0: b9c8 2e36 ccb4 1536 6b7a 6235 e9f2 5337
000002b0: ca7d c037 9f9a 8538 f0e5 b835 ec15 0136
000002c0: abe8 f635 e871 8238 a2f7 a938 373b 8338
000002d0: 665e 2e33 7a26 0233 7178 0f34 d3c7 fe33
000002e0: 9cca 0534 1a1e b434 6b4d b132 095e 8d33
000002f0: 8e4c bf33 595b 2033 ca64 f433 cc4d 8134
00000300: 59bf 6333 4711 0e33 87dc 0834 d390 8c34
00000310: f232 8b34 9c48 9235 9d75 3e32 5cbf 0234
00000320: 9759 a533 2925 da33 83e1 2d35 6954 0a35
00000330: c315 ce34 078e e834 687c 0835 cc30 1336
00000340: 624b 1e36 9e91 b037 b2e3 2135 47b4 5035
00000350: fee4 0935 3e10 5737 d602 b937 334c 5737
00000360: 65b7 9c35 75bc 9935 bf19 0e35 7e36 7c36
00000370: dc30 2536 afd3 2b38 31b0 9636 d4f1 f535
00000380: 18ea 8135 1e52 1138 3b66 8038 69cc cc37
00000390: f9de b632 666b 9732 658f ee32 684f e933
000003a0: 1880 5e34 9a93 0434 6c87 a331 0c7f 7032
000003b0: 54af e632 4a5f b033 7d78 c533 fffb 4734
000003c0: af4e 1c37 c6ff 0637 4970 ca36 c5da e537
000003d0: 5658 2b38 0b9e cc39 6ab9 2c37 fefd 5237
000003e0: 9ecc 2837 3f2c a139 51d9 ea39 795e 9a39
000003f0: 97e6 d632 ad38 7d33 8ee7 4233 d846 2134
2.5896918e-06 5.374089e-06 9.164724e-07 1.0479169e-05 5.790277e-06 0.00015433457 1.4186453e-05 2.8719228e-06
3.321475e-06 0.00012311222 0.00022873162 8.828062e-05 2.8836212e-05 1.5004083e-05 1.42859635e-05 5.8849815e-05
0.00011623472 0.00070624804 2.672886e-05 2.928845e-05 2.1447915e-05 0.00066868385 0.0008285627 0.0005362068
2.3140908e-07 6.304182e-07 6.275326e-08 2.4411481e-06 6.697077e-06 6.6082553e-06 4.8992894e-07 2.1714706e-07
2.168085e-07 7.162696e-06 9.587879e-06 7.8112425e-06 1.04296866e-07 1.05453886e-07 7.9009527e-07 1.4304093e-06
1.3861827e-06 5.712661e-06 1.0778986e-07 7.4443005e-07 2.6568222e-07 6.05539e-07 3.1603067e-06 2.9922685e-06
8.058497e-08 1.5743925e-07 2.5960343e-08 2.4384562e-07 9.7848435e-08 4.107955e-06 3.4938049e-07 2.276295e-08
1.4112881e-07 3.8086769e-06 5.634278e-06 2.8082939e-06 2.0585958e-06 1.2168763e-05 7.4145405e-06 4.6377336e-05
1.5471178e-05 0.00045387886 2.839686e-05 2.0169357e-05 7.387444e-06 0.00021588146 0.0005640369 0.00022197537
9.407239e-08 7.830804e-08 8.537642e-07 2.0743257e-06 1.9221982e-06 9.439425e-06 2.4163398e-07 1.0567225e-06
2.7435368e-07 1.124869e-06 6.1353117e-06 4.4944e-06 9.913842e-08 1.5611397e-07 2.5329666e-07 2.5373583e-07
7.8879204e-08 5.0450166e-07 1.5110561e-07 5.3566875e-08 2.714627e-07 2.0267125e-07 8.773119e-08 4.8105176e-07
4.996481e-07 1.3577173e-06 4.6314713e-06 1.7221875e-05 1.364847e-05 0.00010488398 3.0149292e-06 8.067396e-06
1.538603e-06 1.9779967e-05 9.1017755e-05 4.515591e-05 1.0918374e-09 1.3735679e-09 1.3623013e-08 4.6610708e-08
4.3382393e-08 1.8241087e-07 2.395101e-09 1.8999758e-08 2.7159923e-09 2.0127946e-08 1.0887263e-07 8.867e-08
6.64784e-08 1.7860259e-07 6.602566e-07 2.8508268e-06 2.2676832e-06 1.6268357e-05 5.029318e-07 1.3418494e-06
2.2175635e-07 2.9984194e-06 1.417797e-05 7.1062877e-06 2.2087377e-08 3.0592453e-08 6.881947e-08 1.03338884e-07
1.4415967e-07 5.3042385e-07 2.1430463e-08 5.654269e-08 3.3267554e-08 1.6750316e-07 4.3908605e-07 3.2989286e-07
1.0601874e-05 1.2706056e-05 2.1480084e-06 2.8119486e-05 1.0027503e-05 0.00052266405 4.7269197e-05 4.424889e-06
1.5239405e-05 0.00047473412 0.00071825687 0.0003413037 7.652708e-06 9.0366e-06 5.828326e-06 3.2776803e-05
2.4091993e-05 0.00044858025 1.8433564e-05 1.299256e-05 1.01577125e-05 0.00031540688 0.0005485074 0.0002942675
2.6044856e-06 2.2307968e-06 8.43697e-07 1.2633137e-05 2.2946759e-05 6.3707346e-05 1.3775989e-06 1.9235258e-06
1.8396144e-06 6.2201e-05 8.104673e-05 6.2575964e-05 4.0598387e-08 3.0302978e-08 1.3361729e-07 1.18641445e-07
1.2460299e-07 3.3549514e-07 2.0640718e-08 6.582929e-08 8.908056e-08 3.7335983e-08 1.1380469e-07 2.4084727e-07
5.3026586e-08 3.3077665e-08 1.2746214e-07 2.6182406e-07 2.5927835e-07 1.089898e-06 1.1086198e-08 1.217681e-07
7.6997075e-08 1.01581755e-07 6.4775685e-07 5.153184e-07 3.8386324e-07 4.3316706e-07 5.0844983e-07 2.193311e-06
2.3587713e-06 2.1048643e-05 6.0308514e-07 7.7748376e-07 5.1369705e-07 1.281878e-05 2.205504e-05 1.283274e-05
1.167628e-06 1.1454237e-06 5.293659e-07 3.7582645e-06 2.4615356e-06 4.0966723e-05 4.4908597e-06 1.8324304e-06
9.679379e-07 3.464717e-05 6.1225575e-05 2.4413881e-05 2.1288985e-08 1.7627553e-08 2.7772055e-08 1.0864352e-07
2.0721961e-07 1.2347155e-07 4.75932e-09 1.3998726e-08 2.6855254e-08 8.2129716e-08 9.195444e-08 1.8624995e-07
9.3166445e-06 8.046574e-06 6.033141e-06 2.74008e-05 4.0851846e-05 0.00039027663 1.0295169e-05 1.2576113e-05
1.00612215e-05 0.0003074128 0.0004479387 0.00029443557 2.5017739e-08 5.89577e-08 4.5379743e-08 1.5020066e-07

exp_avg f4 [128, 32]
00000000: 6c93 87b9 de3d 8739 7867 e7b7 d418 7db7
00000010: 2160 33b7 749a df37 f91a d733 ddef e4b7
00000020: 006d 85b8 1a1f c5b7 a813 d1b7 dd55 e938
00000030: f49e 61b9 0ef7 6cb9 d142 20b7 78f1 1739
00000040: 0e50 1339 9065 80b8 ea8f ea38 7349 8f39
00000050: 3634 8bb9 e91e 58b8 981a 37ba 3747 20b8
00000060: 722a b538 7cd3 51b7 c780 89b9 96ff 4139
00000070: e825 3835 65a6 a7b9 d341 30b9 bb9a 82b5
00000080: 5faa 003a 82be eb38 3f0f 6938 526f c038
00000090: d114 04ba 0fdc b8b7 6e15 61b7 dbb0 24b8
000000a0: 1138 95b8 6719 5539 3419 c9b9 b392 10b9
000000b0: 66fd 8d39 3477 a7b7 1860 9637 a0c2 d238
000000c0: 65ed 27b9 7e30 afb9 8b14 eb37 c1b7 35b9
000000d0: a534 bb38 28cb ee38 85cf 153a 4bec 8338
000000e0: 2dd6 4ab8 a6fa 2ab8 0b2d 7cba d713 81ba
000000f0: 1f7a 08b9 5eb3 4c3a 3dd5 e3b7 30b9 7337
00000100: a815 7d37 d2d6 2638 983f 32b7 a645 2bb7
00000110: 0f83 45b8 ecab 2438 3ccd 9737 1191 8a35
00000120: 642f cf37 a19f 7537 41da c537 28e2 a035
00000130: a05c 7637 229b aeb8 a526 8f37 84ac 8c38
00000140: 11b4 1937 adeb 5537 8dfb 1d37 14b8 3738
00000150: 36c8 91b8 ebc9 3eb7 8165 b2b8 746e 0eb8
00000160: 99fc b9b8 d374 d836 2d05 41b7 28f9 59b8
00000170: 1a8d d037 8817 7138 153f 32b8 8221 b334
00000180: 6e85 9736 6608 e6b7 7b4b 3737 33cf 2137
00000190: 5f76 ec37 9ab4 26b7 83cf d9b6 7816 28b7
000001a0: 421e 9bb7 fe96 15b7 592e 2ab8 f86b ac33
000001b0: bb2f bdb4 a448 2038 c056 70b7 4e7c d2b7
000001c0: 7a2b 1136 5cce b9b7 7956 00b7 df9a 1fb8
000001d0: d763 1638 99b0 dab5 23bd 3c38 63e3 8237
000001e0: 2c0b 5538 7116 e0b6 7ab5 1f38 8904 fb36
000001f0: e81b 4db7 a22a 91b7 fbe8 b637 b704 4236
00000200: 43be 8c37 3774 9ab8 15e4 5737 96ef efb4
00000210: 00cf 1c37 b692 d7b7 2ef8 59b7 259a e735
00000220: 1248 c9b6 a07a 8836 d1d4 1f36 5e9b 89b7
00000230: 01cf 3b38 bc5b 8e38 1cd3 65b7 2a44 8eb8
00000240: a93b 6db8 aaf7 28b8 24df 04b8 c1a4 d5b8
00000250: 3abf b938 2e41 2037 7dc8 5439 7b43 0038
00000260: 816c 9337 e734 a832 6734 29b8 0179 9fb8
00000270: 7c2f c4b7 ab09 2d38 7464 6338 c275 3db4
00000280: 209e 3838 5883 d3b9 5dcb 9738 9e5c 5b37
00000290: 0365 9239 a304 8bb9 73c9 24b9 7be2 e3b7
000002a0: 6ddd 4fb9 cbdb f5b8 9d70 1cb9 df78 d8b8
000002b0: e282 b538 8516 343a 0df8 fcb8 b338 26ba
000002c0: ee6e 94b9 cc4a 93b9 8d07 61b9 03ae 1aba
000002d0: 6d46 393a d405 ac38 8cc7 913a d995 9d39
000002e0: 0fc0 333a 047d 2bb8 288c 5c39 a7cf 88b8
000002f0: a264 7eb9 b534 90b9 c6e1 c939 e10e 8f36
00000300: 774f 1537 ab06 edb7 bd49 dab5 c54e b1b7
00000310: 0aa9 b637 fb66 84b7 493c 23b7 22d8 60b6
00000320: b3b0 bdb6 211e fdb6 55ca fb37 072f a4b7
00000330: 597b 0837 b474 f537 8dfb feb5 8d9c 3cb8
00000340: d329 06b8 7ca3 35b6 4507 a3b7 9237 16b8
00000350: 0bfd 3c38 484c 9336 8736 7a38 4e04 9b37
00000360: b3a3 d837 2d3e d135 2177 1138 baa6 4fb7
00000370: 73a5 80b7 4179 8bb6 a842 0138 e508 1bb5
00000380: cf85 1f36 f756 aab7 4474 ef36 0580 5b37
00000390: d088 ce37 75ab 1135 f5d1 96b5 83b1 e6b6
000003a0: 4a41 29b7 ad55 92b6 60d2 1ab8 78fe 07b5
000003b0: 8ccc 4fb6 1904 2e37 f8d2 89b7 4bd9 26b7
000003c0: 4585 2b37 4bd6 b9b7 db8a b8b5 d844 b8b7
000003d0: 4596 6837 8edd 2cb7 8807 9136 d219 1c37
000003e0: 6a2a 1038 b75e 09b7 43ad e637 4203 1437
000003f0: 0b9e 8eb6 5e5d 54b7 e7dc ed35 acd7 a336
-0.00025859044 0.000257953 -2.7585527e-05 -1.5085756e-05 -1.0691613e-05 2.6655594e-05 1.0016624e-07 -2.7291413e-05
-6.362237e-05 -2.3498713e-05 -2.4923895e-05 0.00011126299 -0.00021516887 -0.00022598749 -9.5523e-06 0.00014490436
0.00014048835 -6.122433e-05 0.000111847956 0.0002732981 -0.00026551046 -5.15272e-05 -0.0006984859 -3.8213297e-05
8.6386586e-05 -1.2506611e-05 -0.00026226623 0.00018501127 6.86005e-07 -0.00031976696 -0.0001680919 -9.730787e-07
0.00049082 0.00011241158 5.5565728e-05 9.1760085e-05 -0.0005038502 -2.2036982e-05 -1.3416035e-05 -3.9265356e-05
-7.115317e-05 0.00020322726 -0.00038356485 -0.0001378756 0.00027082412 -1.996346e-05 1.792614e-05 0.00010049832
-0.00016014797 -0.0003341473 2.802375e-05 -0.00017329959 8.926661e-05 0.00011386565 0.0005714822 6.29058e-05
-4.836002e-05 -4.0764593e-05 -0.0009619749 -0.0009847832 -0.00013015464 0.000780871 -2.7159806e-05 1.4527046e-05
1.5085017e-05 3.977755e-05 -1.0624433e-05 -1.0208611e-05 -4.7090518e-05 3.926076e-05 1.8096172e-05 1.0324021e-06
2.4698391e-05 1.46403045e-05 2.3585862e-05 1.1986749e-06 1.4684309e-05 -8.325862e-05 1.7064924e-05 6.707854e-05
9.161436e-06 1.2750662e-05 9.416498e-06 4.3802036e-05 -6.951431e-05 -1.1371895e-05 -8.506608e-05 -3.3958306e-05
-8.8685374e-05 6.4509018e-06 -1.15049015e-05 -5.1968877e-05 2.4861238e-05 5.7480793e-05 -4.2497257e-05 3.3365728e-07
4.515684e-06 -2.7422047e-05 1.0925224e-05 9.64459e-06 2.8188513e-05 -9.936421e-06 -6.4912615e-06 -1.0018812e-05
-1.849153e-05 -8.916248e-06 -4.0574323e-05 8.0290135e-08 -3.5238722e-07 3.8214625e-05 -1.4325313e-05 -2.5091835e-05
2.163199e-06 -2.2149812e-05 -7.649528e-06 -3.805279e-05 3.585577e-05 -1.6293662e-06 4.499884e-05 1.5603093e-05
5.0793562e-05 -6.6783327e-06 3.8077567e-05 7.480911e-06 -1.222545e-05 -1.73052e-05 2.180458e-05 2.8910997e-06
1.6777898e-05 -7.364939e-05 1.2868103e-05 -4.469154e-07 9.3465205e-06 -2.5698315e-05 -1.2991992e-05 1.7255703e-06
-5.998657e-06 4.0673913e-06 2.3816722e-06 -1.6404021e-05 4.477706e-05 6.7881745e-05 -1.3698616e-05 -6.783784e-05
-5.6560766e-05 -4.0284976e-05 -3.167907e-05 -0.00010187319 8.857106e-05 9.551919e-06 0.00020292583 3.0580424e-05
1.7574292e-05 1.9581831e-08 -4.0341543e-05 -7.6042495e-05 -2.3387132e-05 4.125542e-05 5.421457e-05 -1.7644837e-07
4.4016284e-05 -0.00040342915 7.2381205e-05 1.3074981e-05 0.0002792255 -0.000265156 -0.00015715304 -2.7165972e-05
-0.00019823546 -0.0001172345 -0.00014919271 -0.000103221966 8.6551314e-05 0.0006869811 -0.000120624994 -0.00063408463
-0.0002831141 -0.00028093753 -0.00021460485 -0.00059005636 0.0007067684 8.202685e-05 0.0011122092 0.0003005702
0.0006856927 -4.0886007e-05 0.00021033047 -6.5236636e-05 -0.00024260816 -0.0002750509 0.00038505922 4.2634642e-06
8.899594e-06 -2.8255707e-05 -1.6263726e-06 -2.1136724e-05 2.1774806e-05 -1.578358e-05 -9.729593e-06 -3.3504407e-06
-5.6532094e-06 -7.543495e-06 3.001575e-05 -1.9572222e-05 8.134951e-06 2.926062e-05 -1.8997686e-06 -4.4968492e-05
-3.198704e-05 -2.7066262e-06 -1.94345e-05 -3.581454e-05 4.5058358e-05 4.3898217e-06 5.9655427e-05 1.8479444e-05
2.5825435e-05 1.5589809e-06 3.468164e-05 -1.23769805e-05 -1.5335832e-05 -4.1566386e-06 3.0818075e-05 -5.7754943e-07
2.3770733e-06 -2.0306075e-05 7.13629e-06 1.3083224e-05 2.4620822e-05 5.426621e-07 -1.1236976e-06 -6.8751992e-06
-1.0088386e-05 -4.361113e-06 -3.6912388e-05 -5.066172e-07 -3.0964466e-06 1.0372162e-05 -1.6429913e-05 -9.9449635e-06
1.02234235e-05 -2.2153507e-05 -1.374948e-06 -2.1966567e-05 1.3863265e-05 -1.0303584e-05 4.3222135e-06 9.304336e-06
3.4371777e-05 -8.187889e-06 2.7498818e-05 8.822246e-06 -4.2503284e-06 -1.2657923e-05 1.7722167e-06 4.882886e-06
