models/drone/policy_opp_rotor_best_iter78.pth (torch, 80830 bytes, 20 tensors)

lstm.weight_ih_l0 f4 [128, 12]
0.26854652 0.44186127 -0.3108119 0.20778172 0.27488422 -0.015142864 -0.04625423 -0.12249984
-0.1285621 0.111729436 0.045982055 0.01639542 -0.33746076 0.043771185 0.23425199 0.032298498
0.07538375 -0.15020281 0.040496174 0.52334505 0.13600136 -0.04479989 0.1310399 -0.14938426
-0.13683005 -0.006022144 -0.021636575 -0.0949171 0.106646 -0.02423478 -0.050771687 -0.08640243
0.26299804 -0.08079726 -0.07701607 0.10511381 -0.1922444 -0.77762 0.012900689 -0.25586277
-0.004419442 -0.07863966 -0.0019572794 -0.10353611 0.041022547 -0.08307894 0.13256548 -0.1526896
-0.3270208 -0.51785225 0.28835273 -0.47331583 -0.76805353 -0.10051598 0.37765577 0.28747687
0.1515758 -0.047158994 0.053499445 0.040981557 0.2945318 0.073983416 -0.31282255 0.09915617
0.05358008 0.08794249 0.10627739 0.04193872 -0.094249085 -0.20268884 -0.11563985 -0.2036364
0.097499564 0.59913856 -0.26989526 -0.15479292 -0.027186293 -0.07588866 -0.07083737 -0.15476896
-0.09192228 0.15709835 0.02612917 0.13376509 -0.32176265 0.12069034 0.24933521 0.12865694
0.06278056 -0.11127871 0.10838402 -0.18700247 -0.066239305 -0.058608703 -0.32292998 -0.045208983
-0.04180988 0.089307345 -0.25594115 -0.10452416 0.022731824 -0.014520618 -0.37131062 -0.33115616
0.07996906 -0.14877017 -0.027168715 0.08811633 -0.14328653 0.43512043 0.0297187 -0.09172214
0.3045843 0.08210636 0.19079019 0.34393743 0.21267842 0.08409056 0.21325791 0.1405978
-0.20725259 -0.7959901 0.3179774 -0.023646506 -0.074375436 -0.002542133 -0.33809102 0.43706095
0.21375203 -0.13806406 -0.19962136 0.015339217 -0.15972306 0.28598124 0.056475256 -0.29154962
0.042606425 0.20227817 0.007923529 -0.05163405 0.18778461 -0.025763098 -0.0758589 0.01244256
-0.2775238 -0.62614495 0.034581635 -0.015643694 -0.24765651 0.0049066483 -0.35647044 0.62994385
-0.20248413 -0.00132719 0.23474285 -0.020124475 -0.3817753 -0.17109081 0.37636983 0.23631224
-0.18025687 0.15031224 0.031170225 0.33108166 0.1177858 0.017037563 -0.08535583 -0.13662747
-0.043587632 0.0019004786 -0.2180057 -0.1597554 0.12976576 -0.3363966 -0.49252206 -0.06661502
0.30240548 -0.0041934922 -0.025199696 0.049653582 -0.13117413 0.0397765 0.08130929 -0.18598641
0.2419141 0.13808487 0.28710786 0.50383717 -0.04052894 0.010629815 0.28193927 -0.02953865
-0.17441253 0.71278924 -0.22711016 0.057903614 0.20840791 0.090773 0.16676222 -0.1752283
-0.15038241 0.14874373 0.052824076 0.105289385 -0.028491568 -0.060668822 0.14601897 0.089011684
0.10081624 0.014631259 0.07973162 0.029148048 0.35999832 0.104278766 0.056370057 0.28308892
0.22995538 0.086312726 -0.35225612 -0.020540265 -0.24201722 0.1605833 0.123329185 0.1194981
-0.065069504 -0.024934541 -0.13705084 -0.11573701 -0.2514685 0.01870219 0.12219818 -0.2721087
-0.0425705 -0.07287037 0.022760144 -0.07190684 0.14075641 0.109337986 0.19968604 -0.04933065
-0.13885051 -0.2391664 0.14494702 0.12136404 -0.0075406344 0.08200219 0.20191666 0.26263738
-0.0037993842 -0.0011345473 -0.018358424 -0.10236802 0.2529985 -0.19816782 -0.040557917 -0.11545323
00000000: ee7e 893e a43b e23e bd22 9fbe bbc4 543e
00000010: a0bd 8c3e c619 78bc 1375 3dbd 32e1 fabd
00000020: c8a5 03be 67d2 e43d ae57 3c3d b04f 863c
00000030: a8c7 acbe 6a49 333d c1df 6f3e 6e4b 043d
00000040: cc62 9a3d c4ce 19be 51df 253d f1f9 053f
00000050: f143 0b3e 1780 37bd 532f 063e 30f8 18be
00000060: 2d1d 0cbe 6855 c5bb 303f b1bc e663 c2bd
00000070: 3869 da3d 0488 c6bc f9f5 4fbd c2f3 b0bd
00000080: aea7 863e 0979 a5bd 9aba 9dbd e945 d73d
00000090: b7db 44be 1b12 47bf 695d 533c 7200 83be
000000a0: f7d0 90bb d40d a1bd b345 00bb bd0a d4bd
000000b0: 4207 283d 4b25 aabd 3fbf 073e aa5a 1cbe
000000c0: 456f a7be f791 04bf f8a2 933e 7456 f2be
000000d0: 289f 44bf 52db cdbd 195c c13e 2b30 933e
000000e0: b036 1b3e ca29 41bd 3c22 5b3d 47dc 273d
000000f0: dfcc 963e 9e84 973d 472a a0be 6412 cb3d
00000100: c976 5b3d 311b b43d f6a7 d93d efc7 2b3d
00000110: aa05 c1bd aa8d 4fbe 96d4 ecbd 0f86 50be
00000120: daad c73d 2561 193f b62f 8abe 0982 1ebe
00000130: cab5 debc 846b 9bbd 2f13 91bd c17b 1ebe
00000140: c041 bcbd 64de 203e d70c d63c b7f9 083e
00000150: 13be a4be 7f2c f73d bb51 7f3e a5be 033e
00000160: 1893 803d 18e6 e3bd 71f8 dd3d 937d 3fbe
00000170: 79a8 87bd ae0f 70bd 1457 a5be 0e2d 39bd
00000180: d640 2bbd c5e6 b63d b80a 83be c310 d6bd
00000190: 1738 ba3c e3e7 6dbc 6d1c bebe 4d8d a9be
000001a0: d2c6 a33d 3557 18be ed90 debc 5676 b43d
000001b0: b4b9 12be 1bc8 de3e a274 f33c d1d8 bbbd
000001c0: 79f2 9b3e 6127 a83d 815e 433e 9118 b03e
000001d0: 5fc8 593e ac37 ac3d 4860 5a3e dff8 0f3e
000001e0: 063a 54be 02c6 4bbf efcd a23e 51b6 c1bc
000001f0: 2652 98bd ea99 26bb 441a adbe 74c6 df3e
00000200: d0e1 5a3e aa60 0dbe 8b69 4cbe 5751 7b3c
00000210: 718e 23be 226c 923e 9952 673d fe45 95be
00000220: 1384 2e3d 0222 4f3e b0d1 013c 3a7e 53bd
00000230: 9c4a 403e 220d d3bc e95b 9bbd e1db 4b3c
00000240: 9917 8ebe 094b 20bf 79a5 0d3d 3427 80bc
00000250: ab99 7dbe f3c7 a03b 4b83 b6be 0044 213f
00000260: 0058 4fbe 1bf5 adba 6e60 703e 15dc a4bc
00000270: 0d78 c3be 6e32 2fbe 8cb3 c03e d6fb 713e
00000280: 4295 38be 74eb 193e b358 ff3c 8983 a93e
00000290: ae39 f13d 5c92 8b3c 0acf aebd 12e8 0bbe
000002a0: f288 32bd 7b19 f93a e33c 5fbe eb96 23be
000002b0: 51e1 043e 2d3c acbe da2b fcbe 756d 88bd
000002c0: e4d4 9a3e 9069 89bb 986f cebc 8e61 4b3d
000002d0: 8352 06be afec 223d 7c85 a63d 3973 3ebe
000002e0: 54b8 773e 1f66 0d3e cdff 923e 79fb 003f
000002f0: ac01 26bd ad28 2e3c 585a 903e 0afb f1bc
00000300: 3399 32be 5b79 363f 918f 68be 572c 6d3d
00000310: e268 553e 32e7 b93d b7c3 2a3e 0c6f 33be
00000320: d9fd 19be 4750 183e 0f5e 583d f6a1 d73d
00000330: 2667 e9bc df7f 78bd ff85 153e c24b b63d
00000340: bf78 ce3d f3b7 6f3c 554a a33d e3c7 ee3c
00000350: b351 b83e 1b90 d53d 4ae4 663d 08f1 903e
00000360: 6c79 6b3e bac4 b03d ea5a b4be 0f44 a8bc
00000370: 5dd3 77be f36f 243e 0394 fc3d 6bbb f43d
00000380: 2943 85bd 8643 ccbc 0e57 0cbe 8707 edbd
00000390: 7bc0 80be 5635 993c 0a43 fa3d d551 8bbe
000003a0: 685e 2ebd 0f3d 95bd 7b73 ba3c e543 93bd
000003b0: 7322 103e 98ec df3d 7f7a 4c3e f00e 4abd
000003c0: d42e 0ebe 09e8 74be fe6c 143e b68d f83d
000003d0: 6d17 f7bb c4f0 a73d 3ec3 4e3e 6878 863e
000003e0: 17ff 78bb 17b5 94ba 6864 96bc 53a6 d1bd
000003f0: 0589 813e 81ec 4abe 0f20 26bd be72 ecbd

lstm.weight_hh_l0 f4 [128, 32]
-0.0025538057 -0.15344225 -0.20753579 0.118158154 0.124619134 -0.009822897 -0.08822709 0.32576272
-0.14575353 0.16476592 -0.14983188 0.10666495 -0.22745262 0.032854922 -0.027170198 -0.026084635
0.016186541 0.029316088 0.16283588 0.27546692 -0.057700306 -0.10187781 0.13089691 -0.054024283
0.18110403 0.14968918 0.08591342 0.176387 0.00048599057 0.17342173 -0.07089554 -0.050707553
-0.052741215 -0.10357135 0.07912228 -0.0284153 0.1025905 -0.02500764 -0.028525857 0.03854001
0.012064173 -0.069920994 -0.118891574 0.06017275 -0.102637924 -0.13269895 0.11793465 -0.0012506244
-0.12299462 -0.02501847 -0.042451203 0.019225847 -0.09235115 -0.07756572 -0.10810422 0.18266834
0.28161135 -0.07406417 0.27962002 0.31234184 0.057673313 -0.030873666 0.062114514 -0.021519547
-0.0038603663 -0.030949948 0.2801695 0.040454566 -0.04406435 0.053585373 -0.11235969 -0.013996997
-0.25770438 -0.26843697 0.19969505 0.19875859 -0.13995048 -0.13267797 -0.04740601 -0.20289771
0.09927636 0.03104288 -0.065318845 -0.009019113 -0.17068201 0.10235922 -0.3060984 -0.04709416
-0.2877278 -0.16483532 0.11020881 -0.094668604 -0.04717433 -0.09985219 0.29841045 -0.0050800084
0.21399929 -0.17992403 0.21921664 -0.057802897 -0.1580257 -0.17710851 -0.08341739 0.1677369
-0.035429943 0.033235107 0.37996534 -0.25780466 0.4243725 -0.109765254 -0.08912961 -0.15807548
-0.3536349 0.10815445 0.05735204 0.13401563 0.15087526 0.27158123 0.13007429 -0.060656942
-0.072954535 0.053053908 0.05689168 -0.15899831 -0.25591338 0.09380592 -0.09299114 0.34684467
-1.0599219 0.081149444 -0.40366107 0.014799854 -0.651305 -0.12273265 -0.20738213 -0.17007047
-0.08464845 0.120146155 0.401932 0.4384437 -0.1826473 -0.23009114 0.28820053 0.044101246
-0.09631486 -0.14874072 0.31842303 0.020119121 -0.11748335 -0.12198564 0.11255112 0.10609989
-0.18532287 0.16880165 -0.8453344 -0.47025773 0.08717998 -0.006774129 0.08278251 -0.3593172
0.19562617 0.022018727 -0.23082425 0.046656486 0.03790626 0.13232595 0.13233678 -0.03872898
0.4446241 -0.06824189 -0.30669743 -0.088646255 0.0009391176 -0.08141969 -0.11946342 -0.015942993
0.05979781 -0.09869036 0.119111165 0.07112506 0.05851353 -0.2855403 -0.13009559 -0.01672523
0.24593846 0.2860618 -0.11721369 0.22218518 0.007224613 0.029167123 -0.22431113 -0.030335682
-0.11722179 -0.07066889 0.012379748 -0.17966072 -0.14863552 0.24426857 -0.017347313 -0.15069713
0.0839203 -0.07034718 -0.25938368 -0.030629149 -0.33058456 0.06778396 0.14671625 -0.19880074
0.09074778 -0.072199516 -0.057235852 -0.030374523 0.15865482 -0.062097978 0.12429311 -0.00197454
0.06410525 -0.01831296 0.21979417 0.22918102 0.20742166 0.0821617 -0.18583016 0.20359416
-0.30817932 0.06436679 -0.16532314 -0.08518529 -0.09511776 -0.21851371 -0.019731829 0.2679566
0.030491445 0.087264575 -0.046192795 0.2154829 0.08242866 0.45490345 0.20827726 -0.044801682
-0.53519124 0.12828815 -0.21251102 -0.12234707 -0.028439816 0.12328849 0.12304702 -0.038762216
0.129366 0.21216746 -0.15734254 0.11120778 -0.23542649 0.39991957 0.16500679 -0.048525482
00000000: c05d 27bb f71f 1dbe 4384 54be e7fc f13d
00000010: 5138 ff3d 37f0 20bc 68b0 b4bd 5fca a63e
00000020: 6a40 15be 66b8 283e 876d 19be 2773 da3d
00000030: 57e9 68be e292 063d 0994 debc 72af d5bc
00000040: a399 843c 4b28 f03c 73be 263e 000a 8d3e
00000050: 2857 6cbd 50a5 d0bd d709 063e 9148 5dbd
00000060: 5673 393e 1f48 193e 60f3 af3d cb9e 343e
00000070: 8dcc fe39 7795 313e ae31 91bd b9b2 4fbd
00000080: 2c07 58bd 371d d4bd dd0a a23d 34c7 e8bc
00000090: f81a d23d d2dc ccbc 0faf e9bc 21dc 1d3d
000000a0: cfa8 453c bd32 8fbd 6d7d f3bd b477 763d
000000b0: d533 d2bd 3ce2 07be b987 f13d feeb a3ba
000000c0: 9ae4 fbbd 89f3 ccbc 50e1 2dbd 867f 9d3c
000000d0: 9a22 bdbd c7da 9ebd bf65 ddbd 690d 3b3e
000000e0: 5d2f 903e f5ae 97bd 5b2a 8f3e 45eb 9f3e
000000f0: da3a 6c3d c5ea fcbc ca6b 7e3d c349 b0bc
00000100: 33fe 7cbb bf8a fdbc 6072 8f3e b0b3 253d
00000110: d27c 34bd 567c 5b3d d61c e6bd a953 65bc
00000120: d4f1 83be 9270 89be dc7c 4c3e 5f87 4b3e
00000130: 2e4f 0fbe bcdc 07be ce2c 42bd 6bc4 4fbe
00000140: 6751 cb3d a34d fe3c e3c5 85bd e7c4 13bc
00000150: 44c7 2ebe b6a1 d13d eeb8 9cbe cee5 40bd
00000160: 0f51 93be 97ca 28be 28b5 e13d 9de1 c1bd
00000170: df39 41bd 4e7f ccbd 41c9 983e 3376 a6bb
00000180: a122 5b3e 013e 38be 547a 603e bbc2 6cbd
00000190: 7dd1 21be ef5b 35be bdd6 aabd 39c3 2b3e
000001a0: fd1e 11bd 8921 083d d18a c23e f9fe 83be
000001b0: 5a47 d93e 9bcc e0bd 9689 b6bd 8ade 21be
000001c0: a20f b5be 1580 dd3d f9e9 6a3d 653b 093e
000001d0: 0b7f 1a3e b20c 8b3e 3232 053e 6a73 78bd
000001e0: 3069 95bd 0e4f 593d 4007 693d 74d0 22be
000001f0: 1407 83be 511d c03d 2472 bebd a095 b13e
00000200: 85ab 87bf ae31 a63d aaac cebe 167b 723c
00000210: edbb 26bf 415b fbbd fb5b 54be f426 2ebe
00000220: 2b5c adbd 300f f63d 08ca cd3e b17b e03e
00000230: e507 3bbe 039d 6bbe 058f 933e 82a3 343d
00000240: ba40 c5bd 7d4f 18be 5808 a33e dbd0 a43c
00000250: 1c9b f0bd 9bd3 f9bd 3481 e63d e64a d93d
00000260: 47c5 3dbe 57da 2c3e d667 58bf 9fc5 f0be
00000270: 6b8b b23d 83f9 ddbb e089 a93d 6df8 b7be
00000280: 3a52 483e 9e60 b43c 315d 6cbe df1a 3f3d
00000290: 9843 1b3d 7480 073e 4b83 073e 47a2 1ebd
000002a0: c5a5 e33e 67c2 8bbd 7207 9dbe 2b8c b5bd
000002b0: 1e2f 763a 5ebf a6bd 3da9 f4bd e19a 82bc
000002c0: 8cee 743d 2c1e cabd 8ef0 f33d 04aa 913d
000002d0: e2ab 6f3d 5732 92be c737 05be 5903 89bc
000002e0: 4bd7 7b3e b176 923e bb0d f0bd 8384 633e
000002f0: 72bc ec3b e4ef ee3c d1b1 65be 8982 f8bc
00000300: fa11 f0bd daba 90bd 6dd4 4a3c fbf8 37be
00000310: e933 18be 8a21 7a3e f41b 8ebc 5950 1abe
00000320: 68de ab3d 2f12 90bd f0cd 84be fbe9 fabc
00000330: 6142 a9be 51d2 8a3d c93c 163e 6c92 4bbe
00000340: f9d9 b93d 57dd 93bd 2470 6abd fed3 f8bc
00000350: 6976 223e 735a 7ebd 638d fe3d 4967 01bb
00000360: 9d49 833d 1005 96bc b911 613e 6eae 6a3e
00000370: 5866 543e 6544 a83d 434a 3ebe fd7a 503e
00000380: aec9 9dbe bcd2 833d 784a 29be a075 aebd
00000390: 1acd c2bd 0fc2 5fbe a5a4 a1bc 9c31 893e
000003a0: 32c9 f93c c5b7 b23d a834 3dbd 8da7 5c3e
000003b0: 5bd0 a83d 1be9 e83e a246 553e f881 37bd
000003c0: 4b02 09bf f85d 033e 7d9c 59be 1a91 fabd
000003d0: 9efa e8bc ad7e fc3d 1300 fc3d 21c5 1ebd
000003e0: 8578 043e 6d42 593e 671e 21be e8c0 e33d
000003f0: a413 71be 42c2 cc3e 8af7 283e a8c2 46bd

lstm.bias_ih_l0 f4 [128]
-0.030916229 -0.145337 -0.059798926 -0.054574616 0.2060932 0.118938155 -0.084349915 0.026003588
-0.09522122 -0.0048644375 0.31597692 0.13513885 -0.16579245 -0.012661206 -0.1782292 0.07474778
-0.037656676 -0.008332067 -0.044494655 0.123212084 0.076517574 0.03711738 0.17076148 0.32649466
-0.14587331 0.12376019 0.12941855 0.052271917 -0.2162385 0.47083223 0.09126354 -0.069923006
-0.019032042 0.10380803 -0.29532424 -0.143897 -0.04229486 0.22001706 -0.011935993 0.13819455
0.031599075 -0.15397003 -0.2667672 -0.0057871086 -0.29402557 -0.09738296 -0.010970364 -0.005616676
0.1280829 0.1200864 0.12667656 0.21480015 -0.02019012 0.038002577 0.011227893 -0.08721185
-0.15274519 0.088583104 -0.079309866 -0.36450362 -0.13613468 -0.013524741 -0.21721792 -0.10898768
-0.00092044217 0.1257627 0.10088197 0.0111887185 -0.16923943 -0.034282733 0.05065902 -0.05294408
0.19620377 -0.05737312 -0.07686444 0.13007604 -0.13935545 0.23018491 0.19980739 0.120270446
0.00012713038 0.096708216 -0.07954117 0.08504788 0.19881682 0.028577931 0.041280102 -0.22770591
-0.019795017 0.15490839 -0.028486017 0.13404158 0.05996639 0.22552793 0.1106223 -0.15685283
0.1627569 0.062308777 -0.28917837 0.027000507 0.25113764 0.049054604 -0.038154084 0.07186596
-0.0805351 0.053174507 -0.042225033 0.14521411 0.2246016 -0.0019633097 -0.029869463 0.02540551
-0.21554658 0.092680246 -0.034496997 -0.09842322 0.23740858 -0.018660309 0.22982849 0.07025977
-0.21468994 0.12798795 0.2494253 0.21514761 0.15288013 0.35512912 -0.13178505 0.03443829
00000000: 0844 fdbc 39d3 14be b8ef 74bd a289 5fbd
00000010: 190a 533e d995 f33d a6bf acbd 7a05 d53c
00000020: 5803 c3bd dc65 9fbb bac7 a13e d761 0a3e
00000030: 7fc5 29be f270 4fbc b781 36be 5d15 993d
00000040: e33d 1abd 3983 08bc 0740 36bd 9e56 fc3d
00000050: 3fb5 9c3d 6508 183d 19dc 2e3e 4f2a a73e
00000060: d05f 15be fc75 fd3d 4c86 043e 141b 563d
00000070: a06d 5dbe ec10 f13e 61e8 ba3d cb33 8fbd
00000080: 16e9 9bbc 4e99 d43d bd34 97be bc59 13be
00000090: 603d 2dbd 274c 613e 2f8f 43bc df82 0d3e
000000a0: 086e 013d 52aa 1dbe b695 88be c9a1 bdbb
000000b0: 858a 96be b870 c7bd 0bbd 33bc 180c b8bb
000000c0: 2a28 033e dcef f53d 80b7 013e 92f4 5b3e
000000d0: c065 a5bc 97a8 1b3d 32f5 373c 209c b2bd
000000e0: 3c69 1cbe 0f6b b53d 366d a2bd 38a0 babe
000000f0: e466 0bbe e096 5dbc 606e 5ebe ef34 dfbd
00000100: d449 71ba f0c7 003e 359b ce3d e350 373c
00000110: 1a4d 2dbe 0d6c 0cbd d57f 4f3d e4db 58bd
00000120: a4e9 483e 1400 6bbd 1b6b 9dbd a732 053e
00000130: 32b3 0ebe 98b5 6b3e 4f9a 4c3e 5a50 f63d
00000140: 4d4e 0539 f50e c63d 7be6 a2bd 952d ae3d
00000150: a396 4b3e 441c ea3c 5315 293d bd2b 69be
00000160: 2929 a2bc 4ea0 1e3e 825b e9bc 3242 093e
00000170: 519f 753d cbf0 663e f28d e23d 079e 20be
00000180: bfa9 263e 7d37 7f3d 300f 94be 2b30 dd3c
00000190: 1d95 803e 7bed 483d 7547 1cbd 762e 933d
000001a0: 96ef a4bd 83cd 593d 28f4 2cbd 02b3 143e
000001b0: f6fd 653e dfaa 00bb ceb0 f4bc 371f d03c
000001c0: 3eb8 5cbe 24cf bd3d b94c 0dbd 1d92 c9bd
000001d0: 3c1b 733e 81dd 98bc 2958 6b3e 5be4 8f3d
000001e0: aed7 5bbe 460f 033e 5969 7f3e a84f 5c3e
000001f0: 9c8c 1c3e 7cd3 b53e a9f2 06be 2a0f 0d3d

lstm.bias_hh_l0 f4 [128]
0.0038096032 0.013032974 0.12537982 -0.18994279 0.23161225 0.04651636 -0.14464134 -0.12456098
0.086420104 -0.022477577 0.003052229 0.052494567 -0.06602135 -0.05101675 -0.08434691 0.06100022
-0.07377199 0.112107195 -0.0448342 0.13756247 -0.10162904 -0.03397484 0.20196678 0.071986675
-0.016029228 0.06795254 0.23567162 0.16155751 -0.12650006 0.4025752 0.11337165 -0.12954724
0.12798442 -0.04687718 -0.1062651 0.107501686 0.12121227 0.17005472 -0.10825409 -0.11225762
-0.1374661 0.07417473 -0.04391278 -0.25946268 -0.14215939 0.028203212 0.053928364 -0.051835082
-0.15697148 -0.18815772 -0.036230918 0.10384794 -0.19916844 0.053174857 0.000993208 0.10056831
-0.24231851 -0.05156011 -0.16034226 -0.19663732 0.06485676 -0.010375919 -0.27411428 -0.19366851
0.113370575 0.109968044 0.23237969 0.03974511 -0.17312294 0.27909058 0.068592444 -0.008636257
0.075880535 -0.10927286 -0.37437424 -0.064475946 -0.26570293 0.20385304 0.34077758 0.1230254
-0.09937159 0.11796034 -0.12522326 0.24059182 0.019169684 -0.042410236 0.013831679 -0.020380154
0.14719796 0.22000617 -0.088815406 0.23618993 0.21711193 0.20662592 0.10087344 -0.32060283
0.0063699437 -0.09029611 -0.04344805 -0.27282304 0.062321894 0.18870208 0.103587754 -0.038362574
-0.14738835 0.028038891 0.045784198 0.16595355 0.27640954 0.15734284 0.13147362 0.11849485
-0.1926344 0.0317814 -0.043284927 0.045045715 0.13079584 0.024659155 0.28671238 0.054642297
-0.16290143 0.028647088 -0.059683014 0.36725605 -0.08931798 0.46617857 -0.15269779 0.021162903
00000000: 89aa 793b 4188 553c 9163 003e 5d80 42be
00000010: c32b 6d3e f087 3e3d dc1c 14be d419 ffbd
00000020: 06fd b03d e522 b8bc e807 483b 8b04 573d
00000030: 3436 87bd f1f6 50bd 13be acbd 5edb 793d
00000040: c515 97bd 7598 e53d 11a4 37bd 2ddd 0c3e
00000050: e322 d0bd 3429 0bbd 61d0 4e3e c06d 933d
00000060: ba4f 83bc b42a 8b3d e753 713e 556f 253e
00000070: 3b89 01be 561e ce3e 652f e83d 08a8 04be
00000080: 590e 033e 4902 40bd 84a1 d9bd d829 dc3d
00000090: 233e f83d d322 2e3e 52b4 ddbd 53e7 e5bd
000000a0: eac3 0cbe ece8 973d e3dd 33bd 4bd8 84be
000000b0: 3b92 11be 6c0a e73c fde3 5c3d 0651 54bd
000000c0: 22bd 20be 6bac 40be df66 14bd 3bae d43d
000000d0: d0f2 4bbe e1cd 593d 882e 823a c2f6 cd3d
000000e0: 5822 78be b230 53bd c330 24be 4b5b 49be
000000f0: 9fd3 843d c2ff 29bc b558 8cbe 0a51 46be
00000100: d52e e83d ed36 e13d f1f4 6d3e c5cb 223d
00000110: 2447 31be f6e4 8e3e 327a 8c3d 167f 0dbc
00000120: 4167 9b3d 73ca dfbd fbad bfbe f70b 84bd
00000130: 370a 88be dabe 503e 667a ae3e bef4 fb3d
00000140: 5583 cbbd 3195 f13d 873a 00be b45d 763e
00000150: be09 9d3c 5bb6 2dbd 449e 623c 48f4 a6bc
00000160: 10bb 163e 4c49 613e dae4 b5bd c6db 713e
00000170: 9752 5e3e bf95 533e bc96 ce3d 0e26 a4be
00000180: f6ba d03b 2bed b8bd 95f6 31bd 76af 8bbe
00000190: 3e45 7f3d 1e3b 413e d125 d43d 1322 1dbd
000001a0: f9ec 16be d1b1 e53c 3688 3b3d baef 293e
000001b0: 8d85 8d3e 7b1e 213e 05a1 063e 6ead f23d
000001c0: f441 45be 372d 023d 894b 31bd db81 383d
000001d0: 58ef 053e ff01 ca3c f7cb 923e 9ad0 5f3d
000001e0: a2cf 26be 4cad ea3c 2d76 74bd fc08 bc3e
000001f0: 58ec b6bd f5ae ee3e cf5c 1cbe d35d ad3c

hidden2out.weight f4 [3, 32]
-0.39521053 -0.0034903544 0.10090513 -0.19806793 -0.24065623 0.25130403 0.12688231 -0.045489028
0.3029697 0.072529964 -0.26996726 -0.14125408 -0.22880973 0.29749805 0.16580932 0.03534345
-0.10771191 0.019895008 0.11013468 -0.013315785 0.19953685 -0.0010095489 -0.04795818 -0.19890709
0.41706455 0.33358315 -0.1571334 -0.021643493 0.15381129 0.42901546 0.19043845 -0.14244919
-0.2955957 0.2752132 0.054524213 -0.20600267 0.17127898 0.08730683 -0.19324778 -0.019271469
-0.1733184 -0.040701132 0.19772102 0.06986219 -0.2677871 -0.1396165 -0.04268473 0.24854131
-0.09516948 -0.2247312 0.12895586 -0.13469383 -0.13740382 0.093903 0.18547103 0.00941368
0.050196327 0.06658496 0.19923334 0.1163259 0.014891109 0.01492033 -0.1004849 0.12800235
-0.21754749 -0.104164556 0.21711388 0.10042716 0.089173704 0.22255455 0.21847597 -0.16804226
0.05101034 -0.1524289 0.07541706 0.063507475 -0.013529185 -0.18573026 -0.20216921 -0.030771215
0.046367623 -0.15676385 -0.055754628 -0.093662746 -0.050099425 -0.42100176 -0.056578096 -0.20505455
0.18749706 0.034395568 0.093124636 0.034390207 0.108789004 -0.39407033 -0.026546258 0.23229563
00000000: 0959 cabe 6ebe 64bb 59a7 ce3d 52d2 4abe
00000010: 966e 76be ecaa 803e 70ed 013e b452 3abd
00000020: d81e 9b3e 978a 943d 2639 8abe e9a4 10be
00000030: 194d 6abe aa51 983e ebc9 293e 4bc4 103d
00000040: 1098 dcbd dbfa a23c 4b8e e13d 732a 5abc
00000050: 6353 4c3e d752 84ba cc6f 44bd 4dae 4bbe
00000060: 7c89 d53e 69cb aa3e 94e7 20be b24d b1bc
00000070: b580 1d3e eaa7 db3e 4c02 433e 33de 11be
00000080: 5258 97be bfe8 8c3e c854 5f3d 5df2 52be
00000090: c263 2f3e eccd b23d bfe2 45be 33df 9dbc
000000a0: 617a 31be 3bb6 26bd 6177 4a3e e813 8f3d
000000b0: 641b 89be a1f7 0ebe 2fd6 2ebd 9d81 7e3e
000000c0: 37e8 c2bd f01f 66be 010d 043e 2eed 09be
000000d0: 96b3 0cbe 3750 c03d 1eec 3d3e d63b 1a3c
000000e0: aa9a 4d3d b25d 883d d303 4c3e 463c ee3d
000000f0: d7f9 733c 6674 743c 07cb cdbd 0c13 033e
00000100: c5c4 5ebe 3a54 d5bd 1a53 5e3e c1ac cd3d
00000110: b4a0 b63d 57e5 633e 2ab8 5f3e 4513 2cbe
00000120: 38f0 503d 5216 1cbe 4274 9a3d 3510 823d
00000130: 84a9 5dbc 1330 3ebe 7205 4fbe ea13 fcbc
00000140: faeb 3d3d b486 20be f75e 64bd 41d2 bfbd
00000150: 0e35 4dbd 8b8d d7be 6fbe 67bd d2f9 51be
00000160: 3bff 3f3e 5ee2 0c3d 21b8 be3d bfdc 0c3d
00000170: c5cc de3d 96c3 c9be 8a77 d9bc e8de 6d3e

hidden2out.bias f4 [3]
0.09738884 -0.012674405 0.112786576
00000000: cd73 c73d 4fa8 4fbc a6fc e63d

std_layer.weight f4 [3, 32]
0.14099132 0.028599143 -0.026703984 0.081459984 -0.054785907 0.08617748 0.10467394 -0.021738708
-0.04353845 -0.08790998 -0.13842095 0.066813186 0.08647333 -0.037922665 -0.01102905 -0.02661024
-0.010642126 -0.03245379 -0.16304563 0.039505884 0.11220078 -0.050986335 0.117709056 -0.1182559
-0.13282244 0.07098292 -0.17330128 -0.03303346 0.00055499375 -0.11887027 -0.0843805 0.12122561
-0.08229661 -0.044496804 -0.12630607 -0.08068456 -0.1668086 -0.13061173 0.06719598 0.0020455718
0.079292014 -0.13101594 0.116700694 0.094645485 -0.04564923 -0.056680284 0.1425413 0.046778575
0.029779196 -0.0044014603 -0.014497295 -0.04797429 0.018011943 0.1765538 0.11020176 0.17221381
-0.10971693 -0.1195752 0.1325716 -0.0366071 -0.048290327 -0.05668007 -0.091597915 -0.035999358
0.015723825 0.021875396 -0.05108674 0.1174828 0.10829462 -0.042716354 0.026149586 0.06226784
0.0015799552 -0.10839999 -0.014713213 0.05733113 -0.061317213 -0.08491332 -0.09780391 -0.13861002
-0.08089038 -0.10684525 -0.051432624 0.041808784 0.025247514 0.0037330985 0.14186437 -0.15776244
-0.060870036 0.14382495 0.033064693 0.13502331 -0.0014536679 0.15644042 -0.015873298 0.06353441
00000000: 0760 103e c048 ea3c 50c2 dabc 7ed4 a63d
00000010: 3067 60bd d27d b03d 4a5f d63d 6015 b2bc
00000020: 6055 32bd 260a b4bd 39be 0dbe 5ad5 883d
00000030: ee18 b13d cc54 1bbd 30b3 34bc b8fd d9bc
00000040: 505c 2ebc 44ee 04bd 6ff5 26be ecd0 213d
00000050: 86c9 e53d 0cd7 50bd 7211 f13d 2630 f2bd
00000060: 9b02 08be 7e5f 913d e475 31be 184e 07bd
00000070: 007d 113a 4272 f3bd afcf acbd 2245 f83d
00000080: 208b a8bd 4842 36bd 6156 01be f23d a5bd
00000090: e0cf 2abe 15bf 05be 0c9e 893d 000f 063b
000000a0: da63 a23d 0b29 06be c600 ef3d 7ed5 c13d
000000b0: b0fa 3abd 9629 68bd 59f6 113e e49a 3f3d
000000c0: 80f3 f33c 203a 90bb 1086 6dbc b080 44bd
000000d0: c88d 933c 85ca 343e 76b1 e13d d158 303e
000000e0: 45b3 e0bd d8e3 f4bd d9c0 073e 54f1 15bd
000000f0: 14cc 45bd 5c29 68bd b097 bbbd 1074 13bd
00000100: 40cf 803c 0834 b33c 5440 51bd d29a f03d
00000110: 92c9 dd3d 58f7 2ebd a837 d63c 900c 7f3d
00000120: 8016 cf3a d000 debd b00f 71bc 0cd4 6a3d
00000130: c227 7bbd 09e7 adbd 6b4d c8bd c9ef 0dbe
00000140: dba9 a5bd afd1 dabd 04ab 52bd b03f 2b3d
00000150: e0d3 ce3c 00a7 743b e544 113e 7a8c 21be
00000160: dc52 79bd d946 133e d86e 073d 8d43 0a3e
00000170: 0089 beba eb31 203e b808 82bc 541e 823d

std_layer.bias f4 [3]
-0.058504924 -0.13452165 -0.13384584
00000000: dca2 6fbd 0bc0 09be e20e 09be

exp_avg f4 [128, 12]
-0.00013609442 0.00075645215 0.0002794371 -0.001327994 0.0006203104 0.0031462405 0.0005685156 0.00046581685
0.0008326509 0.002835418 0.0035670707 0.0036101963 0.0014845044 0.00036301868 -0.0016200743 0.007563797
0.005832018 -0.0069571077 -0.0022804877 -0.0029017911 -0.001076306 -0.0016143001 -0.0067017567 -0.004730426
7.513186e-05 0.00024395791 7.268616e-05 -0.00022919862 0.0005573907 0.0005314986 5.2587613e-05 6.031052e-05
0.0003263167 0.0007095367 0.0004187683 0.0011765976 9.095214e-05 7.242307e-05 -0.00022027713 0.00030513474
0.00030291523 -0.0005781148 -0.000108885775 -0.0002389331 -0.00016143118 -0.00020218513 -0.00044802183 -0.00045471897
-8.2166865e-05 8.4530395e-05 1.4010542e-05 -0.00011919892 6.284259e-05 3.4797984e-05 2.8443179e-05 8.885608e-05
8.87103e-05 4.951169e-05 -1.8091107e-05 0.00021155577 -0.00070931326 -0.0006879512 0.00030849746 -0.0008113266
-0.0024707627 0.00071547093 0.000467246 0.00055144867 -0.0005591511 -0.00093649223 0.0008438758 -0.0020545963
0.00032166752 0.0002227994 0.00020902893 0.0010660898 0.0013683516 4.640179e-05 0.00010146846 0.00015765957
0.0001435327 0.0003730282 0.00022805658 0.00016918362 0.00014553535 8.3586616e-05 -0.00019715587 0.0001164116
0.00019873958 -0.00017760207 -9.6429176e-05 -0.00014060018 -0.00015606484 -2.997812e-05 -0.00011332914 -0.000105362196
-0.00017796854 -3.4951932e-05 0.00048432924 -0.0006257885 -0.00043911638 0.0015517448 0.00054260733 0.0006768578
0.00039690806 0.0010351801 0.0017630885 0.0012112636 -4.9215516e-05 8.321365e-06 6.770383e-05 -0.0002639399
-0.00022228481 0.00023513474 6.414144e-05 0.00011119714 6.570825e-05 0.00011410139 0.00023446266 0.00020628
-1.5294503e-05 0.0002282024 0.00018248676 -0.00051623496 -0.00025722646 0.0015570594 0.0003054046 0.00030644343
0.00017280765 0.00088018994 0.0015577117 0.0011192327 2.4183713e-05 -1.9289462e-05 -2.8023322e-05 0.00010877245
7.7182085e-05 -0.00020333851 -6.751614e-05 -6.0944e-05 -4.522413e-05 -0.00013493895 -0.0002348575 -0.00018999846
-5.183314e-05 7.912518e-07 -5.5459794e-05 0.00019937202 -0.000490817 -1.1453207e-05 2.6870173e-05 -0.00022811188
-0.0003512292 -0.00038881882 -1.7519662e-05 -0.0012167121 0.0006716847 8.57063e-05 -0.0008983333 0.0022912251
0.0019072287 -0.003917936 -0.0012622506 -0.0013482422 -0.00061583804 -0.0016471449 -0.0043524615 -0.002476026
-7.05439e-05 0.00029398475 0.00023401878 -0.0009389797 0.00012860286 0.0013480752 0.00031651146 0.00020781477
0.00062535977 0.0012301086 0.0011210092 0.0017635106 4.2243837e-06 -2.7898657e-05 -8.8124034e-05 -4.5071392e-05
-7.706572e-05 -3.351042e-05 -3.4155884e-05 -6.3187355e-05 -7.6939024e-05 -4.9654704e-05 -5.3921543e-05 -4.9719605e-05
0.00064987934 0.00014450465 -1.9559182e-06 0.0025912037 0.0021343993 -0.0005420614 -6.703551e-05 -0.00018802866
-0.00012567855 -2.0057358e-05 -0.00059677806 -0.0005116789 -0.0008350149 0.00053970056 -6.62501e-05 -0.004799909
-0.0032463039 0.0010395672 0.00028550328 0.0005445242 0.0002629793 0.0005462121 0.0017356137 0.0011629041
0.00012554404 -0.0003511378 -0.0005799212 0.0018300654 0.001124334 -0.0036080135 -0.0009258408 -0.0011067288
-0.00059408846 -0.0023089505 -0.004054379 -0.002939124 5.596894e-06 1.2296853e-05 6.6297907e-06 -1.3759056e-05
-8.234251e-07 2.568532e-05 1.5690674e-05 1.6305788e-05 5.621206e-06 1.726918e-05 1.607138e-05 2.8597151e-05
0.0002397776 -0.00011333396 -0.000950631 0.00045839805 -0.000301653 -0.0025818376 -0.0012432975 -0.0011193617
-0.0007699688 -0.0010533932 -0.00248768 -0.0016443331 8.816059e-06 -1.2622895e-05 1.0505142e-06 -9.827817e-06
00000000: 91b4 0eb9 a54c 463a 6a81 9239 1610 aeba
00000010: 549c 223a 2831 4e3b 7008 153a e138 f439
00000020: 4246 5a3a 6cd2 393b 84c5 693b 0b99 6c3b
00000030: b493 c23a 8b53 be39 ac58 d4ba bad9 f73b
00000040: 831a bf3b 73f8 e3bb 3c74 15bb fa2b 3ebb
00000050: d612 8dba ec96 d3ba 699a dbbb b001 9bbb
00000060: 1c90 9d38 f4ce 7f39 166f 9838 0955 70b9
00000070: db1d 123a 4454 0b3a 8591 5c38 eef5 7c38
00000080: 7c15 ab39 3400 3a3a 218e db39 1038 9a3a
00000090: 8fbd be38 d7e1 9738 31fa 66b9 7efa 9f39
000000a0: 98d0 9e39 a18c 17ba 9b59 e4b8 1e8a 7ab9
000000b0: da45 29b9 a801 54b9 79e4 eab9 5967 eeb9
000000c0: 0051 acb8 e945 b138 d20e 6b37 6ffa f9b8
000000d0: 5cca 8338 0df4 1138 4399 ee37 3f58 ba38
000000e0: fb09 ba38 c6aa 4f38 5bc2 97b7 12d5 5d39
000000f0: 35f1 39ba a057 34ba d4bd a139 35af 54ba
00000100: 85ec 21bb 718e 3b3a b2f8 f439 188f 103a
00000110: ff93 12ba ee7e 75ba 8c37 5d3a 68a6 06bb
00000120: 7ca5 a839 429f 6939 c72e 5b39 0abc 8b3a
00000130: 435a b33a 8b9f 4238 77cb d438 6b51 2539
00000140: 4481 1639 ff92 c339 7922 6f39 e266 3139
00000150: d99a 1839 394b af38 a0bb 4eb9 0022 f438
00000160: c064 5039 b13a 3ab9 053a cab8 136e 13b9
00000170: 56a5 23b9 8679 fbb7 1eab edb8 e6f5 dcb8
00000180: 119d 3ab9 5a99 12b8 92ed fd39 f50b 24ba
00000190: 3439 e6b9 ea63 cb3a c33d 0e3a 286f 313a
000001a0: 1918 d039 e1ae 873a 6f17 e73a 43c3 9e3a
000001b0: c26c 4eb8 fe9b 0b37 38fc 8d38 6a61 8ab9
000001c0: 2015 69b9 808e 7639 ac83 8638 8332 e938
000001d0: d9cc 8938 b849 ef38 17da 7539 de4c 5839
000001e0: b24c 80b7 9e49 6f39 eb59 3f39 f153 07ba
000001f0: 5adc 86b9 3e16 cc3a b61e a039 24aa a039
00000200: b333 3539 8cbc 663a 222c cc3a 38b3 923a
00000210: 21de ca37 cecf a1b7 a013 ebb7 c41c e438
00000220: d1dc a138 4437 55b9 7497 8db8 1f9e 7fb8
00000230: 0aaf 3db8 667e 0db9 1544 76b9 533a 47b9
00000240: 6967 59b8 6966 5435 809d 68b8 850e 5139
00000250: 2caa 00ba 2627 40b7 4267 e137 5131 6fb9
00000260: 2f25 b8b9 61da cbb9 30f7 92b7 157a 9fba
00000270: ff13 303a 38bd b338 217e 6bba 6128 163b
00000280: fafb f93a 0762 80bb 1a72 a5ba 80b7 b0ba
00000290: 3170 21ba 03e5 d7ba 189f 8ebb d344 22bb
000002a0: f8f0 93b8 f721 9a39 f062 7539 dc25 76ba
000002b0: 91d9 0639 e6b1 b03a 73f1 a539 dae8 5939
000002c0: 2fef 233a 983b a13a d4ee 923a 9925 e73a
000002d0: 2ebf 8d36 e907 eab7 3bcf b8b8 0a0b 3db8
000002e0: 589e a1b8 8a8d 0cb8 9a42 0fb8 7483 84b8
000002f0: 535a a1b8 5544 50b8 d129 62b8 058a 50b8
00000300: aa5c 2a3a 2c86 1739 6b42 03b6 2fd1 293b
00000310: 47e1 0b3b 2019 0eba 6a95 8cb8 8f29 45b9
00000320: 94c8 03b9 d940 a8b7 1971 1cba 3122 06ba
00000330: e7e4 5aba b17a 0d3a c0ef 8ab8 8e48 9dbb
00000340: f1bf 54bb 1642 883a 9aaf 9539 67be 0e3a
00000350: 7ce0 8939 ac2f 0f3a 887d e33a 966c 983a
00000360: 79a4 0339 eb18 b8b9 da05 18ba cede ef3a
00000370: 645e 933a 6c74 6cbb 20b4 72ba a80f 91ba
00000380: 9abc 1bba c351 17bb 99da 84bb 519e 40bb
00000390: f4cc bb36 954e 4e37 7875 de36 b2d6 66b7
000003a0: 5809 5db5 ce76 d737 779f 8337 6ac8 8837
000003b0: cb9d bc36 48dd 9037 07d1 8637 eae3 ef37
000003c0: cf6c 7b39 b5ad edb8 c433 79ba 2555 f039
000003d0: 2e27 9eb9 0c34 29bb 24f6 a2ba 8cb7 92ba
000003e0: bbd7 49ba 0312 8aba 5808 23bb aa86 d7ba
000003f0: afe8 1337 ecc6 53b7 65ff 8c35 27e2 24b7

exp_avg_sq f4 [128, 12]
3.4931861e-06 8.277651e-06 1.5181373e-06 2.0512942e-05 7.872618e-06 0.00025266607 2.1108324e-05 5.744275e-06
6.7774595e-06 0.00019499341 0.00034911433 0.0001793848 4.091432e-05 2.6850174e-05 1.026626e-05 4.7875074e-05
0.000129867 0.0009483711 2.17047e-05 2.1540684e-05 2.9711538e-05 0.0010614325 0.0011561022 0.0009734315
6.8591106e-08 1.8335992e-07 2.736431e-08 1.983656e-07 2.5774256e-07 3.6207578e-06 1.4383774e-07 5.7382668e-08
1.5360276e-07 3.3219353e-06 4.9020755e-06 3.8159146e-06 7.547063e-08 7.8069455e-08 5.286261e-07 9.583518e-07
9.531321e-07 3.6816277e-06 9.897694e-08 4.9226657e-07 2.4303685e-07 4.0470331e-07 1.9997988e-06 2.1472795e-06
5.4931206e-07 5.897798e-07 7.128432e-08 7.369117e-07 4.5131867e-07 2.0607984e-05 9.409954e-07 2.2899265e-08
7.662163e-07 2.2995877e-05 2.7751763e-05 1.8162942e-05 8.351526e-07 6.2777094e-06 6.611215e-06 3.9277194e-05
2.0538404e-05 0.0003428471 1.8279165e-05 1.6915756e-05 7.0273527e-06 0.00013428634 0.0003817957 0.00020596065
8.0496385e-08 8.296705e-08 7.1285376e-07 2.3542336e-06 2.2993795e-06 1.0963962e-05 2.9476905e-07 1.0334979e-06
3.0243186e-07 1.6290527e-06 8.0132595e-06 5.72441e-06 3.3111473e-08 3.0142694e-08 8.1171706e-08 8.0385746e-08
5.5802637e-08 1.7554164e-07 2.2159698e-08 3.73065e-08 6.120718e-08 3.8955204e-08 7.3211794e-08 1.4254096e-07
3.7395557e-07 9.1627624e-07 3.902211e-06 1.28718975e-05 1.1832835e-05 7.039369e-05 1.8922589e-06 5.806235e-06
1.530432e-06 1.2260723e-05 5.5198376e-05 3.6468435e-05 3.6705903e-09 6.0012333e-09 3.723667e-08 9.553607e-08
9.307379e-08 4.0745817e-07 8.436048e-09 4.3035595e-08 1.4365718e-08 4.883179e-08 2.610569e-07 2.1549116e-07
5.381378e-08 1.306302e-07 6.8579203e-07 2.5646295e-06 2.1045091e-06 1.5004693e-05 4.6761267e-07 1.1870115e-06
3.1068868e-07 3.0415886e-06 1.2700175e-05 7.714073e-06 1.9785004e-08 2.1985832e-08 4.2796877e-08 5.568708e-08
8.272288e-08 5.465952e-07 1.6404163e-08 3.4383774e-08 3.4608156e-08 3.3537964e-07 5.670029e-07 4.6322316e-07
6.521975e-06 6.6704897e-06 1.0133292e-06 1.2856611e-05 4.6565956e-06 0.00026266213 1.9996058e-05 1.3685406e-06
9.063054e-06 0.00026417017 0.00034979897 0.00021695462 1.8507484e-05 1.8895742e-05 4.663073e-06 3.2902113e-05
3.8343194e-05 0.00070469367 2.4748775e-05 9.086211e-06 1.9660525e-05 0.00066783716 0.0008960781 0.000631581
3.7908376e-07 5.2988884e-07 1.2161834e-07 8.523471e-07 2.472804e-06 8.172466e-06 1.7113464e-07 1.8012145e-07
3.8733734e-07 8.886361e-06 1.0899257e-05 1.013156e-05 1.5047206e-08 1.4037812e-08 4.4404338e-08 5.384945e-08
5.7813327e-08 1.445701e-07 6.176919e-09 2.3744782e-08 2.616989e-08 1.1699635e-08 5.2699853e-08 9.808424e-08
6.796001e-08 8.4797565e-09 6.112212e-08 1.342099e-06 1.0053488e-06 1.340046e-06 2.069448e-08 1.250264e-07
2.3210792e-08 1.6383895e-07 8.874795e-07 7.221255e-07 1.13373304e-07 8.90507e-08 8.963178e-08 3.6346698e-06
1.734629e-06 1.5119435e-06 4.4413877e-08 1.3206824e-07 4.1014e-08 3.9792053e-07 1.4642405e-06 9.34721e-07
4.6032284e-07 8.12713e-07 4.6154324e-07 3.2745224e-06 1.7455278e-06 2.4645082e-05 3.2485368e-06 1.126166e-06
7.2776135e-07 1.7428476e-05 3.3732034e-05 1.6380141e-05 4.480107e-09 4.283285e-09 7.539147e-09 9.805901e-09
9.923028e-09 3.3105344e-08 8.0350904e-10 2.8351206e-09 6.4562458e-09 3.2796348e-09 1.644196e-08 1.9696383e-08
2.1677797e-05 1.7791936e-05 4.4535486e-06 2.4687886e-05 6.397263e-05 0.0006101539 1.2989491e-05 8.775359e-06
1.842579e-05 0.0006498432 0.00075601344 0.0006274168 6.2436065e-09 2.3863669e-09 1.1905267e-08 1.8845135e-08
00000000: 7b6c 6a36 3ee0 0a37 cdc2 cb35 3513 ac37
00000010: a314 0437 4478 8439 c811 b137 f2be c036
00000020: ef69 e336 2577 4c39 5509 b739 3e19 3c39
00000030: 6b9b 2b38 4f3c e137 403d 2c37 78cd 4838
00000040: e82c 0839 1b9c 783a 7d12 b637 44b2 b437
00000050: 0b3d f937 c41f 8b3a 5a88 973a e22d 7f3a
00000060: 5c4c 9333 97e1 4434 c10e eb32 52fe 5434
00000070: de5f 8a34 25fc 7236 d171 1a34 e974 7633
00000080: 01ee 2434 6aee 5e36 827c a436 750a 8036
00000090: 6b12 a233 23a7 a733 e9e6 0d35 b8a0 8035
000000a0: bdda 7f35 e211 7736 268d d433 4d24 0435
000000b0: bb7a 8234 0046 d934 4834 0636 fb19 1036
000000c0: 7074 1335 5c51 1e35 f814 9933 30d0 4535
000000d0: c44c f234 4fdf ac37 b698 7c35 04b4 c432
000000e0: fcad 4d35 45e7 c037 75cc e837 9f5c 9837
000000f0: 402f 6035 1da5 d236 e8d5 dd36 91bd 2438
00000100: e349 ac37 29c0 b339 3556 9937 4fe6 8d37
00000110: 80cc eb36 37cf 0c39 c02b c839 24f7 5739
00000120: 5bdd ac33 9e2b b233 f05a 3f35 6dfd 1d36
00000130: 0a4f 1a36 dcf1 3737 c040 9e34 b8b6 8a35
00000140: eb5d a234 d3a5 da35 b070 0637 4f14 c036
00000150: 7336 0e33 3e76 0133 9e50 ae33 88a0 ac33
00000160: a6ab 6f33 857c 3c34 b159 be32 ee3a 2033
00000170: 0171 8333 b34f 2733 9c38 9d33 5c0d 1934
00000180: 10c4 c834 06f6 7535 bdef 8236 61f4 5737
00000190: a485 4637 53a0 9338 85f9 fd35 2ed3 c236
000001a0: 3e69 cd35 68b3 4d37 ce84 6738 aff5 1838
000001b0: b53d 7c31 6833 ce31 27ee 1f33 8329 cd33
000001c0: dbdf c733 a0c0 da34 22ee 1032 23d6 3833
000001d0: 19cd 7632 1fbb 5133 6327 8c34 c261 6734
000001e0: e020 6733 5b43 0c34 4517 3835 001c 2c36
000001f0: 313b 0d36 aabc 7b37 320c fb34 6851 9f35
00000200: bacc a634 181e 4c36 d612 5537 b16b 0137
00000210: aff3 a932 5bdb bc32 aacf 3733 982c 6f33
00000220: 62a5 b133 bcb9 1235 23e9 8c32 5cad 1333
00000230: 12a4 1433 3a0e b434 2534 1835 e8b0 f834
00000240: 57d7 da36 12d3 df36 ba01 8835 b9b2 5737
00000250: da3f 9c36 eab5 8939 35bd a737 b2ae b735
00000260: 850d 1837 5280 8a39 3965 b739 507e 6339
00000270: 8540 9b37 4c82 9e37 7e77 9c36 6000 0a38
00000280: b1d2 2038 31bb 383a 979b cf37 fb70 1837
00000290: a8ec a437 cb11 2f3a c9e6 6a3a af90 253a
000002a0: e084 cb34 af3d 0e35 3296 0234 d9cc 6435
000002b0: 73f2 2536 791c 0937 22c1 3734 6867 4134
000002c0: 3df3 cf34 a116 1537 f4db 3637 b8fa 2937
000002d0: 2841 8132 f32a 7132 16b7 3e33 1948 6733
000002e0: 6d4e 7833 203b 1b34 c13c d431 54f7 cb32
000002f0: 32cc e032 8aff 4832 1a58 6233 62a2 d233
00000300: 69f1 9133 5dae 1132 3e42 8333 2c22 b435
00000310: 86ef 8635 a1db b335 a5c3 b132 ff3e 0634
00000320: 1261 c732 b5eb 2f34 203b 6e35 16d8 4135
00000330: a277 f333 243c bf33 987b c033 27eb 7336
00000340: 66d1 e835 fced ca35 93c1 3e33 a4ce 0d34
00000350: 5f27 3033 c8a1 d534 ec86 c435 8ae9 7a35
00000360: 4a22 f734 3629 5a35 05ca f734 debf 5b36
00000370: e147 ea35 e9bc ce37 7001 5a36 c526 9735
00000380: 615b 4335 5e33 9237 7f7b 0d38 1668 8937
00000390: 70ef 9931 2c2c 9331 8585 0132 cf76 2832
000003a0: f079 2a32 b62f 0e33 ecdd 5c30 f8d3 4231
000003b0: bdd5 dd31 f25f 6131 413c 8d32 ce30 a932
000003c0: b7d8 b537 e43f 9537 b16f 9536 d518 cf37
000003d0: 0b29 8638 bcf2 1f3a 70ed 5937 e139 1337
000003e0: 1591 9a37 3d5a 2a3a 342f 463a 3b79 243a
000003f0: 5887 d631 69fd 2331 eb87 4c32 e4e0 a132

exp_avg f4 [128, 32]
6.213535e-05 0.00024059051 -0.00011148211 2.9488922e-06 -5.377135e-05 6.856566e-05 2.9358525e-05 -2.4931403e-05
1.1700634e-05 -6.095071e-06 -7.1319606e-05 -7.792054e-05 -2.8657221e-05 -0.000117424024 7.6669334e-05 0.00017489148
0.000105169005 0.00019119601 6.8874026e-05 0.00028700058 -0.00018377506 1.06359885e-05 -0.00033291028 -5.7335958e-05
-4.3323642e-05 -2.1781996e-06 2.8674145e-05 0.00017705567 3.841865e-05 -5.3590564e-05 -0.00012211452 1.4282311e-06
0.00031328973 -0.000636833 0.0001341322 0.00023152636 0.00078091014 -0.00028504926 -6.7933724e-05 -9.220357e-05
-0.00026282985 -0.00014056086 -0.0002454227 -4.2129792e-05 0.000121966485 0.0012293161 -0.00017067292 -0.00070021034
-5.4794215e-05 -0.00018349233 -0.00022519093 -0.0007180004 0.0008277045 0.00013031559 0.0012171837 0.00026615043
0.0011766626 -0.00019215136 0.0011669421 0.00075564365 -0.00012562059 -0.00017294493 0.00053948304 2.6770995e-05
8.577233e-05 7.798129e-05 -6.598081e-05 -6.189249e-06 7.1335653e-06 5.305879e-05 1.7068467e-05 1.4443821e-05
2.1783431e-05 -3.0670366e-05 1.266826e-05 -9.186694e-05 -6.3952266e-06 2.047314e-05 5.9126e-05 3.686224e-05
4.080536e-05 0.000104261635 -1.7738144e-05 0.00010130583 -2.4420586e-05 6.453326e-06 -3.2460346e-06 -3.1118558e-05
2.401864e-06 7.0007573e-06 8.6814915e-05 0.00012688816 1.374063e-05 -1.2844529e-05 -3.9713857e-05 -2.8379923e-06
8.615478e-06 -7.344816e-05 2.001635e-05 4.4840417e-05 9.243169e-05 -2.5529598e-05 -1.1391391e-05 -2.3471861e-05
-3.0672443e-05 -2.5821657e-05 -0.00010123097 -5.6918593e-06 5.233302e-06 0.00010082083 -2.6200516e-05 -7.2020805e-05
-1.8080694e-07 -6.3982276e-05 -1.6842869e-05 -8.595655e-05 9.332703e-05 7.313753e-06 0.00013302157 4.0975225e-05
0.00014144629 -1.754186e-05 0.00010008588 4.5170353e-05 -2.3563938e-05 -5.0146886e-05 4.7399815e-05 4.825342e-06
-9.3972385e-06 3.511195e-05 -1.9265493e-05 -6.116842e-07 -1.1868562e-05 1.7771154e-05 7.021958e-06 5.196584e-08
1.1506769e-05 1.0835837e-05 5.8501564e-07 -4.923039e-05 -1.1170468e-06 7.8355055e-07 2.1197633e-05 2.6138276e-05
8.351775e-06 1.7099153e-05 2.073495e-06 2.8586366e-05 -1.0701568e-05 5.655519e-06 -5.111075e-06 -8.621906e-06
-9.357311e-06 2.3623602e-06 -1.2867347e-05 1.6563275e-05 5.6998474e-06 -7.86551e-06 -2.2334198e-05 1.10103464e-07
-0.0002474241 -1.6010954e-05 0.00016530468 -0.00011881118 -0.00020973085 -4.4240627e-05 3.7491893e-06 1.5419255e-05
2.603752e-05 0.00017374867 4.1164472e-05 0.00032862736 9.192545e-05 -0.00030617832 -0.00011946484 0.00011556769
-0.00012009179 -0.0003103763 7.0435584e-05 -5.6011002e-05 -0.00011502343 -6.216918e-06 -0.00025317655 2.6896703e-06
-0.00029516066 5.330128e-05 -0.0005960177 -0.0004410765 -1.4192877e-07 1.4189143e-06 -7.2006565e-05 -1.8221867e-06
-1.0782051e-05 7.718112e-05 -1.7961464e-05 4.8850874e-05 -9.036795e-05 3.2866214e-05 3.5684345e-05 1.8659295e-05
-6.754941e-05 3.5449364e-05 2.3395583e-05 1.6649063e-05 -1.46662705e-05 -2.287819e-06 2.9265793e-05 8.309528e-05
2.6998066e-05 1.7335477e-05 -3.725759e-05 3.2831036e-07 -0.00017497323 8.67648e-06 -5.9397327e-05 -4.523414e-05
-4.131537e-05 -6.431202e-05 -0.00011179335 -3.1399137e-05 2.353413e-05 4.2656106e-05 -8.495299e-06 -2.4629505e-06
1.6599357e-05 -5.138782e-05 3.6896106e-06 2.9354846e-05 5.6793233e-05 -5.2008663e-06 -1.045112e-05 -2.9607858e-05
-2.0134134e-05 -2.0105388e-05 -4.5678607e-05 -2.492844e-05 -1.6846358e-05 2.8571756e-05 -2.1115167e-05 -4.480201e-05
6.551012e-06 -2.6415584e-05 -2.2262397e-05 -4.95828e-05 4.843829e-05 -1.3146205e-05 3.862479e-05 2.0352349e-05
7.8552715e-05 -1.5512333e-05 9.173624e-05 1.6866965e-05 -1.6736205e-05 1.1874864e-06 3.293063e-05 5.6732306e-06
00000000: a94e 8238 0647 7c39 81cb e9b8 95e5 4536
00000010: 8c88 61b8 e9ca 8f38 f446 f637 c823 d1b7
00000020: d74d 4437 4384 ccb6 6c91 95b8 4569 a3b8
00000030: ea64 f0b7 8b41 f6b8 89c9 a038 1363 3739
00000040: 2e8e dc38 ca7b 4839 7670 9038 9178 9639
00000050: beb3 40b9 3971 3237 768a aeb9 047c 70b8
00000060: 68b6 35b8 2f2d 12b6 4289 f037 05a8 3939
00000070: b623 2138 6ec6 60b8 de0b 00b9 a6b1 bf35
00000080: 0941 a439 24f1 26ba d7a5 0c39 e2c5 7239
00000090: feb5 4c3a aa72 95b9 a477 8eb8 6a5d c1b8
000000a0: 6dcc 89b9 8563 13b9 14ac 80b9 85b4 30b8
000000b0: 42c8 ff38 0121 a13a aaf6 32b9 528e 37ba
000000c0: d7d2 65b8 d967 40b9 3b21 6cb9 3138 3cba
000000d0: 4ffa 583a 53a5 0839 e889 9f3a 1b8a 8b39
000000e0: 3f3a 9a3a 3d7c 49b9 14f4 983a 6316 463a
000000f0: 05b9 03b9 8d58 35b9 186c 0d3a 4692 e037
00000100: abe0 b338 e389 a338 2d5f 8ab8 3ead cfb6
00000110: dc5c ef36 718b 5e38 412e 8f37 bd53 7237
00000120: 90bb b637 0ea4 00b8 c389 5437 b0a8 c0b8
00000130: 9496 d6b6 bcbd ab37 0ffe 7738 879c 1a38
00000140: 6c26 2b38 0aa7 da38 60cc 94b7 2774 d438
00000150: cfda ccb7 a689 d836 73d6 59b6 4c85 02b8
00000160: b62f 2136 0ce8 ea36 6710 b638 480d 0539
00000170: 8e87 6637 d57e 57b7 6e92 26b8 5674 3eb6
00000180: 328b 1037 2e08 9ab8 c9e8 a737 0813 3c38
00000190: e3d7 c138 6528 d6b7 a71d 3fb7 70e5 c4b7
000001a0: 49a6 00b8 969b d8b7 f74b d4b8 b3fc beb6
000001b0: b999 af36 c56f d338 2ec9 dbb7 e009 97b8
000001c0: d523 42b4 392e 86b8 c949 8db7 9243 b4b8
000001d0: 91b8 c338 a968 f536 b57b 0b39 d0dc 2b38
000001e0: 3351 1439 dc26 93b7 33e5 d138 4c75 3d38
000001f0: 2cab c5b7 cf54 52b8 2acf 4638 5fe9 a136
00000200: d5a8 1db7 2b45 1338 559c a1b7 9e32 24b5
00000210: 161f 47b7 4313 9537 299e eb36 0c31 5f33
00000220: 320d 4137 91cb 3537 f809 1d35 bb7c 4eb8
00000230: 70ed 95b5 2f55 5235 92d1 b137 8543 db37
00000240: 9a1e 0c37 2770 8f37 5f26 0b36 c1cc ef37
00000250: e28a 33b7 8ac4 bd36 cd7f abb6 cea6 10b7
00000260: 58fd 1cb7 0a89 1e36 d6e0 57b7 5df1 8a37
00000270: 5141 bf36 1cf6 03b7 535a bbb7 0572 ec33
00000280: b3b8 81b9 434f 86b7 a355 2d39 442a f9b8
00000290: 32eb 5bb9 038f 39b8 959a 7b36 9958 8137
000002a0: 266b da37 4e30 3639 04a8 2c38 9e4b ac39
000002b0: 1ac8 c038 8f86 a0b9 3389 fab8 ee5c f238
000002c0: cad9 fbb8 00ba a2b9 d1b6 9338 5bed 6ab8
000002d0: bc38 f1b8 eb9a d0b6 c8bc 84b9 2f80 3436
000002e0: cbbf 9ab9 d08f 5f38 123e 1cba 4940 e7b9
000002f0: 1565 18b4 8671 be35 3b02 97b8 dc91 f4b5
00000300: 8ee4 34b7 4cdc a138 f3ab 96b7 3ae5 4c38
00000310: ec83 bdb8 d4d9 0938 c6ab 1538 8886 9c37
00000320: 50a9 8db8 77af 1438 a241 c437 97a9 8b37
00000330: 270f 76b7 6e88 19b6 d07f f537 7043 ae38
00000340: e879 e237 a76b 9137 0845 1cb8 a242 b034
00000350: 0579 37b9 3391 1137 6521 79b8 cab9 3db8
00000360: 0a4a 2db8 41df 86b8 9972 eab8 91b2 03b8
00000370: 296b c537 a5e9 3238 0887 0eb7 2b49 25b6
00000380: d93e 8b37 4089 57b8 079b 7736 0d3f f637
00000390: 4535 6e38 1a83 aeb6 3857 2fb7 645e f8b7
000003a0: b9e5 a8b7 fea7 a8b7 0897 3fb8 6b1d d1b7
000003b0: 4751 8db7 61ad ef37 7a20 b1b7 cbe9 3bb8
000003c0: c4d0 db36 0997 ddb7 22c0 bab7 20f7 4fb8
000003d0: 382a 4b38 858e 5cb7 0d01 2238 56ba aa37
000003e0: abbc a438 7b20 82b7 8562 c038 887d 8d37
000003f0: ba64 8cb7 b961 9f35 ff1e 0a38 ae5c be36
