models/drone/policy_opp_rotor_best_iter88.pth (torch, 80830 bytes, 20 tensors)

lstm.weight_ih_l0 f4 [128, 12]
00000000: b3ca 9e3e 0767 de3e 5f36 aabe fac2 6a3e
00000010: c52c 873e b0e9 cabc ebe9 65bd 9903 dabd
00000020: 9ea2 21be 8e4a ce3d 0aa9 273d 0621 e13b
00000030: ffed adbe 8e3b c93c 6276 7b3e ebac 3c3d
00000040: d869 9f3d aa51 20be 0a14 0f3d 156e 093f
00000050: b109 0d3e 18b6 3cbd 9a31 fe3d 1602 19be
00000060: 84b5 09be 92a1 563b 86e7 1cbd 0f1c c7bd
00000070: aef3 d43d 3a76 22bc 5023 5fbd f62e 07be
00000080: b745 973e f3f0 81bd dcc9 8bbd e989 f53d
00000090: fadf 4fbe e15f 4ebf 2a1f 8c3c 919a 82be
000000a0: a951 7dbc 8f3f a9bd d300 61bc c0de d2bd
000000b0: bc88 213d 27f1 debd 6c34 fb3d 0042 23be
000000c0: 6632 a9be a6d7 0cbf 968e 9b3e 1f8a f8be
000000d0: 412b 47bf 4200 c2bd 9b4c cb3e 946b c03e
000000e0: bd75 203e 2998 33bd 957e 633d 6ca3 2d3d
000000f0: 94a6 b13e 801a b13d c167 a7be 6148 c33d
00000100: e69a 6c3d 1e9c bd3d e5d5 e63d 2126 063d
00000110: 8f6c e2bd ddd1 48be 42bc e3bd 4975 4ebe
00000120: ebb1 cd3d 0404 1d3f 10b0 8dbe 093c 1fbe
00000130: 1108 00bd eb71 a2bd 5fb5 adbd 672a 32be
00000140: a20f dfbd 329a 193e f21a a33c 412d 013e
00000150: 41c5 a1be 350c 123e f099 703e e169 013e
00000160: 1aac 2d3d 6e61 e4bd b0fc d63d aa5e 34be
00000170: 5ae3 b4bd e7a1 6dbd 6f81 a2be da4b 6abd
00000180: 91b4 17bd f9db a53d 1ed0 82be 8e19 d3bd
00000190: 2b5f b83c 09ae 75bc 73b6 c3be 0db3 b0be
000001a0: fdd5 883d 8345 24be d2d0 f0bc 1dca a53d
000001b0: c1db 0fbe fc5b 033f c874 b13c 77e2 b0bd
000001c0: 7b13 aa3e e20e a93d 2297 313e 27b9 a93e
000001d0: a2d6 5b3e 73fe d93d 7cc2 603e 601a 123e
000001e0: 7c07 04be ddf2 52bf 791c ab3e 74a7 8cbc
000001f0: 5889 70bd 7f91 3fbb 72cc a5be 8bf5 ec3e
00000200: 7ff2 673e be75 12be 7586 4bbe 08ea 743c
00000210: 912c 72be ba5b 5e3e f6b2 c03d 7ce8 a6be
00000220: 7eb0 fcbc ce16 393e 9a59 94bc 6261 0dbd
00000230: d2d9 553e 85b5 4fbd f611 d6bd 53a7 f73b
00000240: 94fd 8cbe add0 25bf 6a7a e03c e28e 56bb
00000250: 8e36 8bbe 4eb3 6a3a e83e bfbe 0229 273f
00000260: f67a 62be f4b7 c4bb a0d5 693e c27f 00bd
00000270: ad03 c9be 9096 3cbe 716a cd3e 1642 863e
00000280: e033 30be 97f4 1a3e 9245 543c 2f47 b53e
00000290: 5864 fb3d 11ec b73c f9e5 aabd 1e49 04be
000002a0: ff80 24bd 6563 a73c 3b2a 86be aea5 17be
000002b0: ec3d 023e c265 b4be 2c52 08bf f1cb b4bd
000002c0: 5cff 823e 8d5e c7bc c67f 0dbd 1540 343d
000002d0: 769f 18be 7f7e c63c b638 a33d b92e 29be
000002e0: 2305 8a3e 7a51 e93d db77 8c3e 4700 ff3e
000002f0: 1e75 08bd ede4 7abc 13ed 873e fc32 60bd
00000300: 9fd3 24be d0e5 3c3f 4d53 8abe 13e5 1f3d
00000310: d77f 533e 514e b43d d44d 0e3e a0d3 2cbe
00000320: 6c21 4dbe e8fa 253e d8ae 843d 059a d93d
00000330: f06a 23bc 64d4 16bd feb2 243e 001b ad3d
00000340: 12e4 d43d 4715 073d 12ae ad3d fb7c dc3c
00000350: 264e b73e 9ec0 ff3d d8a5 8d3d c37e 973e
00000360: d8fe 833e 6adc a43d 9cae c0be 0041 31bb
00000370: 19f9 89be 2a9f 263e 1a0d 123e cac1 143e
00000380: 1cf3 85bd cdfb 89bc c6ed 0cbe d351 d6bd
00000390: 00c2 84be 6898 023c 9575 fa3d 6d3a 8ebe
000003a0: bc38 2cbd 983f 83bd 5435 be3c ed47 aabd
000003b0: 59bf 103e a81d 093e f69e 503e 0501 10bd
000003c0: 775d 22be 2ebc 86be fd52 313e 1cc1 0b3e
000003d0: ab35 3bbc 7748 9b3d 875a 4f3e 2a7f 903e
000003e0: d0d3 cfbb 9156 3cbb 8668 bebc e318 dbbd
000003f0: 1606 b53e 9ab2 09be 030c 02be afb7 00be
0.31014022 0.4343798 -0.33244607 0.2292594 0.26401344 -0.024769634 -0.056131285 -0.106452174
-0.1578469 0.10072814 0.040932693 0.006870392 -0.3397064 0.02456453 0.24556878 0.046063345
0.0778386 -0.15656152 0.03493122 0.53683597 0.13773228 -0.046072096 0.124118045 -0.14942202
-0.13448149 0.0032750112 -0.038306735 -0.097221486 0.10398041 -0.009915883 -0.054477036 -0.13201508
0.29545376 -0.063447855 -0.06825611 0.11989195 -0.20300284 -0.8061505 0.017104704 -0.2550855
-0.015461364 -0.08264076 -0.013733107 -0.102963924 0.03943704 -0.1088584 0.12265858 -0.15943146
-0.33046263 -0.55016553 0.30382222 -0.48542878 -0.77800375 -0.094727054 0.39706883 0.37582076
0.15669914 -0.043846283 0.05554064 0.04239218 0.34697402 0.086476326 -0.32696345 0.095352896
0.05776491 0.092582926 0.11271266 0.032751206 -0.11055862 -0.19611306 -0.11119892 -0.20161928
0.10043701 0.6133425 -0.27673388 -0.15550245 -0.031257693 -0.079318844 -0.084818594 -0.17398988
-0.108916536 0.15000227 0.01991031 0.12614919 -0.31595805 0.14262469 0.23496222 0.12638046
0.042400457 -0.11151396 0.10497415 -0.17614236 -0.08832426 -0.05801573 -0.31739375 -0.057201244
-0.037037436 0.08098597 -0.25549406 -0.103076085 0.022506317 -0.0149951065 -0.38225135 -0.34511605
0.0668144 -0.16042142 -0.029396448 0.08095191 -0.14048673 0.5131223 0.021662131 -0.08636945
0.33217987 0.08254792 0.17342809 0.33149073 0.21468595 0.106442355 0.2194919 0.14267874
-0.1289348 -0.8240183 0.3342016 -0.017169692 -0.05872473 -0.002923101 -0.32382542 0.46281084
0.22651099 -0.14302728 -0.1987551 0.0149483755 -0.23649813 0.21714678 0.09409134 -0.32599247
-0.030845877 0.18075106 -0.018109132 -0.0345167 0.20883873 -0.05071022 -0.104526445 0.0075577884
-0.27537215 -0.6477154 0.027402122 -0.0032738973 -0.2719006 0.000895311 -0.3735268 0.6529695
-0.22117218 -0.0060033742 0.22835398 -0.03137184 -0.39260617 -0.1841681 0.4012027 0.26222295
-0.17207289 0.15132366 0.01295604 0.3540587 0.122749984 0.022451432 -0.08344645 -0.12918517
-0.040162083 0.020433137 -0.26204094 -0.14809296 0.12718934 -0.35233885 -0.53250384 -0.08827961
0.2558545 -0.024337078 -0.034545682 0.044006426 -0.1490458 0.02423024 0.07969801 -0.1652173
0.26957044 0.113924935 0.27435192 0.498049 -0.033314817 -0.015313369 0.2654806 -0.054736122
-0.16096352 0.73788166 -0.27016678 0.03903682 0.20654236 0.08804 0.13896877 -0.16877604
-0.2003228 0.16208994 0.06478661 0.1062508 -0.009974226 -0.036823645 0.16083905 0.084524155
0.103950635 0.032979276 0.08480467 0.026915064 0.3580181 0.12487911 0.06916398 0.295889
0.25780368 0.08049853 -0.37633216 -0.00270468 -0.2694786 0.16271654 0.1426281 0.1452705
-0.0654051 -0.0168437 -0.13762578 -0.104648255 -0.2592926 0.007970907 0.12229458 -0.2777895
-0.042046294 -0.06408614 0.023218788 -0.083145 0.14135493 0.13390219 0.20373139 -0.035157222
-0.15855967 -0.26315445 0.17316814 0.13647884 -0.01142637 0.07582181 0.20249377 0.28222018
-0.0063423887 -0.002873812 -0.0232432 -0.10698106 0.35356206 -0.13447037 -0.12699895 -0.1257007

lstm.weight_hh_l0 f4 [128, 32]
00000000: bfc8 91bb c0ab 26be 4e6b 32be 61d1 dc3d
00000010: be48 fa3d a283 e0bc a2ae e0bd 117a a03e
00000020: 0084 1bbe e824 293e f9d6 20be 0da5 b63d
00000030: 8788 5abe d168 023d aea2 88bd 52fe e2bc
00000040: 30e1 aebc 0df2 8b3b 91f3 273e 8cb1 843e
00000050: 0ee3 35bd d83f b8bd eb4c 093e 4011 82bd
00000060: 3fd2 313e 0706 1c3e ca72 b13d ff9d 233e
00000070: dd22 09bd 14ae 413e b3a9 7fbd 644b 4abd
00000080: b952 21bd 83de cfbd 4b5f b73d 547e debc
00000090: b248 e03d ce57 fabb f4cb adbc 6cad a53d
000000a0: 2f47 df3b 48a3 abbd 19e3 0cbe 0fc1 2b3d
000000b0: 2789 d0bd e4c9 00be 7e0a ef3d 48c1 e63a
000000c0: 1e93 fdbd a575 63bc 6922 07bd 5f1b a43c
000000d0: d0ae bbbd d10e abbd 7889 dfbd 88cf 3a3e
000000e0: a7f6 9b3e 02cb a5bd f1b1 973e 8a12 ae3e
000000f0: 4da6 713d 1c90 46bd 4efc 723d 39e7 1fbd
00000100: 2b9d 0b3a f4d4 64bd b775 923e 0055 643d
00000110: 1c5c dbbc 020d 763d 6911 efbd df01 05bc
00000120: 9245 93be e86c 8ebe 01cc 3f3e c442 573e
00000130: 3032 18be f491 fcbd 0e45 1ebd 9199 56be
00000140: 2bb7 f13d 8553 af3d 9b04 50bd c43b 00bb
00000150: 2836 2fbe d387 bc3d 300d abbe f577 05bd
00000160: 3344 8abe 135f 42be 0e2a 2c3e b645 82bd
00000170: e22b 08bd c400 ebbd 7f3b ac3e b84d a9bc
00000180: bb5d 733e d408 3ebe 0fff 623e da54 67bd
00000190: 8f7b 1fbe b00f 41be df6e c7bd 19ae 2d3e
000001a0: 2753 ecbc ed77 2d3d dee0 c83e 278c 80be
000001b0: 95c8 d73e 09fb debd a8f6 b5bd c5b4 20be
000001c0: e9a8 d1be fdca e13d d4d2 083d 782f 073e
000001d0: 1142 263e af75 8b3e 7b3f 093e 750e 6cbd
000001e0: c049 9cbd 7673 513d 90a1 6e3d d18f 24be
000001f0: f3ff 82be 60c2 cd3d 0e3a bdbd 379c ab3e
00000200: 93ec 93bf c4b7 c43d d560 dbbe 4254 0e3c
00000210: f645 3cbf 60db fbbd 2123 38be 6c54 66be
00000220: 1ad8 36bd c376 d53d a797 e03e 4d89 ca3e
00000230: d99f 66be adf7 85be c5fe c33e ee6b 6b3d
00000240: 44dd d4bd 99d4 1bbe 4ceb a13e bca7 843c
00000250: a4e2 10be c4b0 fdbd 873d d83d 4425 083e
00000260: 8371 7dbe f183 503e 7227 6ebf 371e fbbe
00000270: 872f c33d dd9a 4bbc b881 a23d 096c c4be
00000280: 299f 443e 55b1 aa3c 4102 82be a993 fc3c
00000290: 6f2e 323d 7e76 0b3e 31c5 133e c094 a6bc
000002a0: 0b9c e43e ed4f b8bd 4b22 a2be 267a 8abd
000002b0: 93b4 893c 214d 9fbd 3a79 17be e795 92bc
000002c0: 8fe5 6f3d 97d3 e0bd ebe3 073e 877e 9e3d
000002d0: 4b47 8c3d 6ad4 91be 23e2 00be 6556 98bc
000002e0: 9bec 833e 9602 943e a15e e2bd 5979 8d3e
000002f0: 8382 8c3c 8c57 8d3c 1c77 6cbe c601 2ebd
00000300: 8cc5 10be 2af6 a1bd 7df1 273c 2a0f 37be
00000310: c4f2 1abe 1f0f 783e d3cf b3bc c02e 35be
00000320: b37c c13d d883 bfbd 149c 87be 980e 48bd
00000330: 4001 b0be 40b9 803d 4ad8 033e 722b 59be
00000340: 3c9e 963d adc5 90bd 461b 89bd 0692 e3bc
00000350: 7a08 2e3e 9601 a9bd 6eb0 fc3d 0bbe d6bb
00000360: f7cf 823d a61f 85bc c37a 603e 66be 783e
00000370: 2db3 543e 254e a63d 759b 35be b09f 513e
00000380: be96 8cbe c11b 733d 4864 3bbe 84ff adbd
00000390: 7a52 bbbd 48eb 53be f1cf c23c dde1 893e
000003a0: f008 653c 1124 1c3e c284 12bd 1c79 553e
000003b0: 1297 f03d ed93 e23e 670f 4e3e d16d 9ebc
000003c0: 6079 02bf 7555 f53d 6244 4dbe d7ed 06be
000003d0: 153f 2dbd e5da 243e 4920 b43d f0d3 3cbd
000003e0: 767c f73d 543a 523e 4162 20be 500b 8f3d
000003f0: e7d8 69be 7143 e43e 77e8 153e c1fd 85bd
-0.0044489796 -0.16276455 -0.17423746 0.10782123 0.12220906 -0.027406517 -0.109708086 0.3134313
-0.15187073 0.16517985 -0.15707006 0.089182 -0.21341144 0.031838242 -0.06671654 -0.02770916
-0.021347612 0.004270798 0.16401507 0.25916708 -0.04440599 -0.08996552 0.13408248 -0.063509464
0.17365359 0.15236674 0.086644724 0.1597824 -0.033480514 0.18914062 -0.062417697 -0.049388304
-0.03938553 -0.101498626 0.089537226 -0.027159847 0.109513655 -0.0076398617 -0.021215416 0.08089718
0.0068139057 -0.08380753 -0.13758506 0.041932162 -0.1018241 -0.12577015 0.11671923 0.001760521
-0.12381576 -0.013883029 -0.0329918 0.020032583 -0.09164202 -0.083524354 -0.10914892 0.1824323
0.30461618 -0.08095361 0.29627946 0.3399852 0.058996487 -0.048477277 0.059322648 -0.03903887
0.0005325849 -0.05586715 0.28605434 0.055745125 -0.02677732 0.060071 -0.116732426 -0.008118122
-0.28764015 -0.27817464 0.18730165 0.21021563 -0.14862895 -0.12332526 -0.038640074 -0.20957018
0.11802515 0.08560852 -0.050785642 -0.0019566873 -0.17110503 0.09205594 -0.334085 -0.032585103
-0.27005157 -0.1898158 0.16812918 -0.063609526 -0.033244975 -0.114747554 0.33639142 -0.020666942
0.23766224 -0.18558055 0.2216761 -0.056477405 -0.15574478 -0.1885364 -0.09737944 0.16960944
-0.028848244 0.0423507 0.3923406 -0.25106928 0.4214522 -0.10887725 -0.088849366 -0.15693958
-0.4094918 0.11025045 0.033404186 0.13201702 0.1623614 0.27238223 0.13403122 -0.057630975
-0.07631254 0.051135503 0.058259547 -0.16070487 -0.255859 0.1004684 -0.09239589 0.3351762
-1.1556572 0.09605363 -0.42847314 0.008687081 -0.7354425 -0.12297702 -0.1798215 -0.22493142
-0.044639684 0.104230426 0.43865702 0.39557877 -0.22521915 -0.26165524 0.3828031 0.057475977
-0.103937656 -0.15217818 0.3162483 0.016193263 -0.14148957 -0.12387231 0.105586104 0.13295466
-0.24750333 0.20362832 -0.9302894 -0.4904649 0.095305495 -0.012427059 0.07934898 -0.38363674
0.1920134 0.020836512 -0.25392345 0.030832129 0.043501314 0.1361942 0.14430691 -0.020334601
0.446503 -0.0899962 -0.31666788 -0.06761579 0.016809737 -0.07778383 -0.14792338 -0.017893745
0.058568534 -0.109778576 0.13270538 0.07738977 0.068495356 -0.28482372 -0.12586264 -0.018595884
0.25766453 0.28908223 -0.11053205 0.27631643 0.017152077 0.01725366 -0.23092312 -0.04248216
-0.14137858 -0.0790828 0.010250446 -0.17876878 -0.1513167 0.24224518 -0.021949684 -0.17693615
0.094476126 -0.09351319 -0.26486266 -0.048842043 -0.34375954 0.06285334 0.12875476 -0.2120798
0.073543996 -0.07068954 -0.06694655 -0.02777959 0.16995421 -0.082522556 0.12338339 -0.0065534166
0.063873224 -0.016250443 0.2192183 0.24291381 0.20771475 0.08120374 -0.17735083 0.20471072
-0.27458757 0.05935264 -0.18299973 -0.08496001 -0.091465905 -0.20695221 0.023780795 0.26930133
0.013979182 0.15248133 -0.03577114 0.20846981 0.117475644 0.44253483 0.20123063 -0.019339474
-0.50966454 0.1197919 -0.20045617 -0.13176666 -0.042296488 0.16099127 0.087952204 -0.046100557
0.12084286 0.20530063 -0.15662481 0.069845796 -0.22836648 0.44582704 0.1463946 -0.0654254

lstm.bias_ih_l0 f4 [128]
00000000: 6f5c 25bd 26e6 0ebe d8fe 89bd 4a9c 78bd
00000010: fe3c 533e 1f94 fd3d ebb8 aabd 341d 173b
00000020: 5643 b0bd f849 03bc 84c4 a73e 0cdc 133e
00000030: 1505 2ebe 9878 bdbb c287 75be b0bc 8c3d
00000040: 7dda 6abd 03d0 143c 7f4e 5abd c6f8 053e
00000050: 4be3 9c3d 47f4 5cbd 827c 213e fc0f c83e
00000060: 7e43 26be 1e22 1c3e 24c1 053e f2f9 503d
00000070: 4331 63be 9bfe e93e 6345 b73d cf5e e6bd
00000080: 26c1 82bc 3196 d93d c9af 8fbe 4afd 1cbe
00000090: 3e82 27bd 803f 683e 4898 45bc b7b6 033e
000000a0: b78c f33c 9c97 1cbe 5b7c 8cbe 3202 89bd
000000b0: 79c5 b2be ff12 d2bd bf0f 1fbd cbf2 c3b9
000000c0: e14d 023e 4d36 da3d 9d9b 193e 223b 613e
000000d0: ab99 a8bc 8aa4 f03c ba9d d73b 8d7b c0bd
000000e0: a78d 28be 7b2e be3d 8ef8 7bbd 61f6 b7be
000000f0: 40d8 09be d819 3cbc dfa7 74be 1fe8 ebbd
00000100: 61f9 07bc 117a e73d a3f4 0f3e 72c3 ac3c
00000110: 23a6 39be 1b56 63bc e29f 7b3d 4b47 9bbd
00000120: c54c 6a3e e098 a7bd 07d5 bebd 3f17 0a3e
00000130: fccd 1ebe 934b 703e e836 233e 9d51 093e
00000140: 4186 973b 34cd d33d 6d85 9bbd f6b6 f03d
00000150: 2d7e 553e 274a ca3c 9391 443d eb0d 8bbe
00000160: 9418 cc39 5475 2b3e 17db 21bd c1f4 023e
00000170: a295 af3d 9e76 653e 0520 023e 1076 0dbe
00000180: e563 263e b865 573d d276 9ebe b52c 873c
00000190: 9983 863e 8c61 833d a96f 21bd febb 853d
000001a0: b8d0 99bd 0968 933d bf8f e4bc b646 073e
000001b0: c4e8 743e be36 6f39 af92 afbd f7e6 2e3d
000001c0: e291 5abe 3ac1 a53d 9f25 22bd 10e5 e7bd
000001d0: 0403 763e a50b debc a1eb 763e e564 a33d
000001e0: fb1c 6ebe a705 0a3e 38c2 853e eb7a 693e
000001f0: 748e 203e 8905 bf3e a0c4 09be ab7b 3fbc
-0.040371355 -0.13954982 -0.06738061 -0.060695924 0.20628735 0.123817675 -0.083360516 0.0023058178
-0.08606593 -0.008013241 0.32767117 0.1443941 -0.16994126 -0.005782198 -0.23977569 0.06871927
-0.057337273 0.009082797 -0.053297516 0.13083181 0.0766054 -0.0539439 0.15770152 0.39074695
-0.16236684 0.1524739 0.13061959 0.051019616 -0.2218676 0.4570206 0.08948781 -0.11248552
-0.015961241 0.1062435 -0.280638 -0.15330997 -0.040895693 0.22680473 -0.012060232 0.12862669
0.029730184 -0.1529221 -0.27438626 -0.06689872 -0.34916285 -0.102575295 -0.038833376 -0.00037374193
0.12725021 0.10654888 0.15000768 0.21995214 -0.020581087 0.029375333 0.006580082 -0.093985654
-0.16460286 0.09286209 -0.061516337 -0.3593016 -0.13461399 -0.011480771 -0.23892163 -0.11518883
-0.008299203 0.11302579 0.14058165 0.02108929 -0.18129782 -0.01387551 0.061431773 -0.075819574
0.22880848 -0.081834555 -0.093179755 0.1348543 -0.15508264 0.2346633 0.15938914 0.13410039
0.0046241586 0.10341874 -0.07593808 0.11753647 0.20848913 0.024693562 0.047990393 -0.27159056
0.00038928224 0.16743976 -0.03951558 0.12788679 0.08573462 0.2240853 0.12707527 -0.13814569
0.16249044 0.05258724 -0.30950028 0.01650081 0.26272276 0.0641509 -0.039413128 0.06529997
-0.07510513 0.071975775 -0.027900575 0.13210568 0.23916918 0.00022813209 -0.085728996 0.042700734
-0.21344712 0.08093496 -0.03958666 -0.11322987 0.24024588 -0.027105162 0.24113323 0.079782285
-0.23253243 0.13478719 0.2612474 0.22800796 0.15679342 0.3730891 -0.13453913 -0.0116872

lstm.bias_hh_l0 f4 [128]
00000000: 42fe b8bb f32c 9a3c 0b40 f13d 1fc5 48be
00000010: a85e 6d3e 8884 523d 7919 13be 2ed1 17be
00000020: 08bd c33d 53ee d1bc 239b 713c 21ed 7c3d
00000030: 75b5 8fbd d4c9 34bd 0d65 15be f229 613d
00000040: e963 bfbd 78a1 043e 89b2 5bbd a7aa 143e
00000050: d7f4 cfbd 7009 00be ca70 413e 4882 0b3e
00000060: 8a36 05bd 1ff9 c53d c48e 723e 1a27 243e
00000070: e14c 07be 050c c73e 678c e43d 733d 30be
00000080: 4633 063e 9208 36bd 008e bbbd c9e2 c83d
00000090: ad1b fb3d 2c16 353e 66f5 ddbd b77f f9bd
000000a0: d3ad 0ebe 270e 9a3d 8113 53bd 6722 a4be
000000b0: 2208 4abe 1d81 bc3c ec86 d53c 5ed7 3ebd
000000c0: 6b97 21be 2789 4ebe d65b 53bc 683b df3d
000000d0: 5859 4cbe 8d77 363d d681 6fbb 5517 c03d
000000e0: 5f23 82be e7a9 41bd 3ef8 11be 8d07 44be
000000f0: def0 873d b282 08bc 8275 97be a8aa 4cbe
00000100: 4212 d93d 1721 c73d f14d 8b3e 3d59 4b3d
00000110: 2da0 3dbe d557 993e 3d8a a23d 7812 01bd
00000120: 952d de3d aff1 08be 9008 c8be 0c85 74bd
00000130: aa17 90be d554 553e a0c8 993e c723 0c3e
00000140: 8c4d c2bd 7653 ff3d 2c14 f9bd 3dd1 8b3e
00000150: 3c46 ec3c 5d9f 3dbd 7f47 a83c 459d 83bd
00000160: 3b66 2b3e 521e 6e3e 6a7b ccbd 538e 6b3e
00000170: 8fb5 783e 921b 523e e048 f03d 3d92 9abe
00000180: 79fd c73b 2bd6 ccbd d299 82bd 9e0f 91be
00000190: f15c 973d 7cb0 503e b691 d13d 3307 38bd
000001a0: 745d 11be 88db 3f3d 7934 763d 6e83 1c3e
000001b0: e6fa 943e fa5c 233e 79db 9a3d 820c 0b3e
000001c0: 981b 43be 5922 a43c 6f24 46bd bab7 f73c
000001d0: 20d7 083e d9d3 843c a195 983e d668 833d
000001e0: ef14 39be 5b30 113d e109 44bd a79e c23e
000001f0: bee8 aebd 01e1 f73e c62e 1fbe 537e ccbc
-0.0056455443 0.018820262 0.11779793 -0.19606446 0.2318064 0.051395923 -0.14365186 -0.1482589
0.09557539 -0.025626337 0.01474646 0.06174958 -0.07017032 -0.04413779 -0.14589329 0.054971643
-0.09345228 0.1295222 -0.05363706 0.14518224 -0.10154121 -0.125036 0.18890682 0.13623917
-0.032522716 0.09666657 0.23687273 0.16030541 -0.1321292 0.38876358 0.11159592 -0.17210941
0.13105497 -0.044441767 -0.09157944 0.09808881 0.12261138 0.17684239 -0.10837822 -0.12182563
-0.13933496 0.075222306 -0.051532272 -0.32057497 -0.19729665 0.023010785 0.026065312 -0.04659211
-0.15780418 -0.20169507 -0.012900313 0.10900003 -0.19955957 0.044547606 -0.0036545894 0.0937945
-0.2541761 -0.047281172 -0.14254853 -0.19143505 0.06637739 -0.008331941 -0.2958184 -0.19986975
0.105991855 0.09723108 0.27207902 0.04964565 -0.18518133 0.29949823 0.07936523 -0.031511754
0.10848538 -0.13373445 -0.39069033 -0.059697196 -0.28143054 0.20833142 0.30035877 0.13685523
-0.09487447 0.12467091 -0.121620506 0.27308074 0.028842084 -0.04629456 0.020541904 -0.06426481
0.16738217 0.23253754 -0.09984477 0.23003511 0.24288009 0.2051833 0.1173265 -0.30189696
0.0061032143 -0.10001787 -0.06376995 -0.28332227 0.07390774 0.20379823 0.1023287 -0.04492874
-0.14195806 0.04684022 0.060108636 0.15284511 0.2909767 0.15953436 0.07561392 0.1357899
-0.19053495 0.02003591 -0.04837459 0.030238975 0.13363314 0.016214298 0.29801658 0.0641648
-0.18074392 0.035446506 -0.047860984 0.38011667 -0.08540486 0.48413852 -0.15545186 -0.02496258

hidden2out.weight f4 [3, 32]
00000000: 8260 c5be 221c 9ebc ab74 9e3d 5551 57be
00000010: a891 81be 0ba9 833e 18ac 1a3e 300a 26bd
00000020: 3b59 a23e 575b 903d 4648 8cbe 57c5 1cbe
00000030: 829a 7ebe 1a7c a23e 43dd 243e 1b9a 1f3d
00000040: 8bda f4bd 4b63 8d3c 7e1f 003e f440 4abc
00000050: 118e 633e ac0e 23bb 2ea8 3dbd a813 60be
00000060: 37e7 dc3e 71eb ac3e 73e1 29be a241 7cbc
00000070: f764 293e 02f8 e83e 8161 4d3e f8bb 0ebe
00000080: 6155 9fbe 4158 963e 625e 8d3d f5f0 5abe
00000090: c03d 3f3e a971 dd3d 8b5d 3abe fa60 823b
000000a0: a2b2 41be 85a9 83bd 37e9 473e 741c 893d
000000b0: cd5a 92be d5cf 13be b5f0 48bd dd48 833e
000000c0: c3af efbd a87c 65be 876b 0b3e d1a5 06be
000000d0: 2b05 1cbe eaa2 c53d 2492 373e 1a01 573c
000000e0: 90c7 8a3d be36 6d3d 39a8 583e d3c7 0e3e
000000f0: 6936 833c a3e4 76bb f082 e6bd 12ce f83d
00000100: 2f1f 77be bb05 b1bd 60a6 5a3e a320 833d
00000110: b5c2 ce3d 359b 763e 56f3 5a3e 1fe3 10be
00000120: 92a5 663d 545f 30be 73e3 ca3d 91df 913d
00000130: 805d 23bd d20a 33be dbda 2dbe edcb 14bd
00000140: 2913 213d 934b 21be 2bf5 71bd b0ae b7bd
00000150: 73df 42bd 6843 d8be d44e 68bd ee6d 67be
00000160: a1a1 4b3e 48e9 793d 0c92 ba3d c3fe e53c
00000170: 265c de3d ebcf cabe 6a5f a8bc f416 323e
-0.38550192 -0.019300524 0.077370964 -0.2102712 -0.2530644 0.25714907 0.15104711 -0.04053706
0.31708702 0.07048672 -0.2739889 -0.15309654 -0.24863628 0.31735307 0.1610003 0.038965326
-0.11955746 0.01725926 0.12512013 -0.012344588 0.22222163 -0.0024880571 -0.046302967 -0.21882498
0.43145153 0.33773378 -0.16589908 -0.015396507 0.16542421 0.45501715 0.20056726 -0.13938892
-0.31119826 0.29364207 0.06902768 -0.2138098 0.186759 0.108126946 -0.18199746 0.0039788457
-0.189158 -0.06428818 0.19522558 0.0669488 -0.285849 -0.1443475 -0.04905768 0.25641528
-0.11703446 -0.22410834 0.13615237 -0.13149191 -0.15236346 0.09650214 0.17926842 0.013122821
0.06776345 0.057913534 0.21157922 0.13943414 0.016017156 -0.00376729 -0.11255443 0.1214868
-0.2413299 -0.08643671 0.2135253 0.06402709 0.10095731 0.24082644 0.21381888 -0.1414914
0.056310244 -0.17223865 0.09906664 0.0712272 -0.03988409 -0.17484596 -0.16978018 -0.03632729
0.039324913 -0.15751486 -0.0590717 -0.08968866 -0.04757638 -0.42238927 -0.0567158 -0.22600529
0.19885875 0.06101349 0.091098875 0.028075581 0.1085742 -0.39611754 -0.02055331 0.17391568

hidden2out.bias f4 [3]
00000000: 5b39 c83d da4a e4ba 64e6 003e
0.09776565 -0.0017417327 0.12587887

std_layer.weight f4 [3, 32]
00000000: 0760 103e c048 ea3c 50c2 dabc 7ed4 a63d
00000010: 3067 60bd d27d b03d 4a5f d63d 6015 b2bc
00000020: 6055 32bd 260a b4bd 39be 0dbe 5ad5 883d
00000030: ee18 b13d cc54 1bbd 30b3 34bc b8fd d9bc
00000040: 505c 2ebc 44ee 04bd 6ff5 26be ecd0 213d
00000050: 86c9 e53d 0cd7 50bd 7211 f13d 2630 f2bd
00000060: 9b02 08be 7e5f 913d e475 31be 184e 07bd
00000070: 007d 113a 4272 f3bd afcf acbd 2245 f83d
00000080: 208b a8bd 4842 36bd 6156 01be f23d a5bd
00000090: e0cf 2abe 15bf 05be 0c9e 893d 000f 063b
000000a0: da63 a23d 0b29 06be c600 ef3d 7ed5 c13d
000000b0: b0fa 3abd 9629 68bd 59f6 113e e49a 3f3d
000000c0: 80f3 f33c 203a 90bb 1086 6dbc b080 44bd
000000d0: c88d 933c 85ca 343e 76b1 e13d d158 303e
000000e0: 45b3 e0bd d8e3 f4bd d9c0 073e 54f1 15bd
000000f0: 14cc 45bd 5c29 68bd b097 bbbd 1074 13bd
00000100: 40cf 803c 0834 b33c 5440 51bd d29a f03d
00000110: 92c9 dd3d 58f7 2ebd a837 d63c 900c 7f3d
00000120: 8016 cf3a d000 debd b00f 71bc 0cd4 6a3d
00000130: c227 7bbd 09e7 adbd 6b4d c8bd c9ef 0dbe
00000140: dba9 a5bd afd1 dabd 04ab 52bd b03f 2b3d
00000150: e0d3 ce3c 00a7 743b e544 113e 7a8c 21be
00000160: dc52 79bd d946 133e d86e 073d 8d43 0a3e
00000170: 0089 beba eb31 203e b808 82bc 541e 823d
0.14099132 0.028599143 -0.026703984 0.081459984 -0.054785907 0.08617748 0.10467394 -0.021738708
-0.04353845 -0.08790998 -0.13842095 0.066813186 0.08647333 -0.037922665 -0.01102905 -0.02661024
-0.010642126 -0.03245379 -0.16304563 0.039505884 0.11220078 -0.050986335 0.117709056 -0.1182559
-0.13282244 0.07098292 -0.17330128 -0.03303346 0.00055499375 -0.11887027 -0.0843805 0.12122561
-0.08229661 -0.044496804 -0.12630607 -0.08068456 -0.1668086 -0.13061173 0.06719598 0.0020455718
0.079292014 -0.13101594 0.116700694 0.094645485 -0.04564923 -0.056680284 0.1425413 0.046778575
0.029779196 -0.0044014603 -0.014497295 -0.04797429 0.018011943 0.1765538 0.11020176 0.17221381
-0.10971693 -0.1195752 0.1325716 -0.0366071 -0.048290327 -0.05668007 -0.091597915 -0.035999358
0.015723825 0.021875396 -0.05108674 0.1174828 0.10829462 -0.042716354 0.026149586 0.06226784
0.0015799552 -0.10839999 -0.014713213 0.05733113 -0.061317213 -0.08491332 -0.09780391 -0.13861002
-0.08089038 -0.10684525 -0.051432624 0.041808784 0.025247514 0.0037330985 0.14186437 -0.15776244
-0.060870036 0.14382495 0.033064693 0.13502331 -0.0014536679 0.15644042 -0.015873298 0.06353441

std_layer.bias f4 [3]
00000000: dca2 6fbd 0bc0 09be e20e 09be
-0.058504924 -0.13452165 -0.13384584

exp_avg f4 [128, 12]
00000000: f33d 19ba 249e d8b8 d5f5 ffb8 28df 3f39
00000010: 4d1a 45ba dbd9 beba 75ee 20ba b9da c238
00000020: e2a2 07ba cd67 08bb 183b 08bb 8b5a eeba
00000030: 5263 5839 aede e438 1685 103a 2b8a 9cb7
00000040: 925d d5b9 a6ca 523b 935f 003a af29 10ba
00000050: 44a6 223a d3ca 523b a368 623b d20f 553b
00000060: 16e8 9f37 d470 4e38 5bfd 6db8 2e18 2238
00000070: 43b2 1c39 b3dd 6eb9 25d4 0137 a3f8 1db8
00000080: 01d6 09b8 d5b8 d3b8 24c8 65b9 44a5 2ab9
00000090: 6633 3eb7 0fd0 f8b7 c335 7c38 3178 8fb8
000000a0: a10c 9ab8 eea1 3239 2f3d f637 ba97 3c38
000000b0: de52 b437 9eac 8238 dd11 0939 1605 0939
000000c0: 29d6 1f39 3f8a 1d39 cd3a f238 45ec 9fb9
000000d0: 8910 db38 15bc a73a ef0b 9c39 1fa1 d9b7
000000e0: b222 8c39 dd50 a73a 7a80 cc3a 896f 953a
000000f0: 54ac 7c39 037c c739 b7e5 a239 6196 a5ba
00000100: d3ad 80ba 004b 823b b69f 733a 1971 033a
00000110: 4c9d 093a 2ed1 303b a801 8a3b ac0b 4d3b
00000120: 2ee9 bb38 2fab 1939 6686 2eb9 dbac b838
00000130: cb62 1039 e029 16b9 b63f 2838 545d a3b8
00000140: 903a 87b8 2601 d137 7a51 73b7 65c7 a9b8
00000150: fc34 bd37 c903 0fb8 9cf2 d1b7 a24c b9b8
00000160: 4b68 8cb9 a7fe 0139 ae1b 4db8 178e 5e36
00000170: 07c3 b3b8 1a67 01b8 4e5f 9b38 35ff 7638
00000180: 4774 c239 9531 e639 b806 47ba 3de4 1e3a
00000190: 82f4 3b3a ccb5 aaba 2a4a 19b7 8947 fdb9
000001a0: c886 deb9 de3e 96b9 3755 54ba 5237 75ba
000001b0: 01a7 7938 2f7c 3c38 86cc 0db9 a90b 0739
000001c0: d54d 0439 cbfd a0b9 cd78 2ab8 2f76 d8b8
000001d0: ce85 beb8 cc18 e2b8 eab1 81b9 81ad 6fb9
000001e0: 729d a7b6 dff4 09b9 47d0 8139 0c13 88b9
000001f0: 21f5 85b9 43f5 283a 01a1 2538 62ec 4239
00000200: b778 2039 2949 4039 d311 c739 d055 133a
00000210: 37ab 1738 5968 2d38 849e 4bb8 4444 5db8
00000220: 19b8 a137 6757 4935 6900 74b6 599b c1b7
00000230: b1c5 77b8 8004 86b8 d79a 57b8 ced4 70b8
00000240: d2e8 ce39 1c5b f239 ad62 8939 5113 0cba
00000250: ae2c 6039 494c 413b 6415 4c3a a641 66b9
00000260: 3bed 2e3a 474a 463b 9cb7 523b 2943 353b
00000270: abc8 8239 2c2d 9b39 6c42 333a 4441 71ba
00000280: aba8 0dba ccff 853b c5dd 523a 0c7e a739
00000290: 6c66 423a 2535 343b e417 753b 6e8c 703b
000002a0: ccf6 0f39 51c2 1f39 cd3e 2bb7 74c6 23b9
000002b0: 3b8f 433a 28db 1e39 c35c ba37 fffa eb37
000002c0: e4b6 9538 5871 3a39 2065 eab8 c11b 8b39
000002d0: 7cde 3338 b023 3e37 ac9a 3d37 040e 0ab9
000002e0: 82d2 0cb9 b8e8 8339 fca2 d337 728d 7e38
000002f0: 08d0 7bb7 87e3 9838 af0b 2239 3ad9 5a39
00000300: d34d 8637 24a6 2238 9e42 8437 2e1b 03b9
00000310: c80e 01b9 048a 5b39 3fa1 3f38 1c71 1f38
00000320: 31a3 b837 504a 4a38 0921 fa38 8bbb 3939
00000330: 09f3 d9b6 386e 38b7 4e73 9bb8 a839 2239
00000340: bb9e e538 34c1 d2b9 c7d2 5db8 1ac1 b9b8
00000350: 814a 36b8 9a97 3db9 442f acb9 99ce aab9
00000360: 46fa a738 bd21 f037 7792 7db8 e6f0 9539
00000370: 564d 7f39 8993 dfb9 2890 91b9 a480 f4b9
00000380: f2d0 adb8 5b4c 07b8 13d8 21ba 2466 adb9
00000390: c789 c437 cea1 d437 88c6 3cb8 b776 0c38
000003a0: 87fa 2238 8d76 8eb8 640b d0b6 e084 ecb7
000003b0: 4c6d 07b8 b03f 98b7 9922 43b8 40f4 62b8
000003c0: d152 6d39 6b10 9d39 4dd8 503a 8da4 aeb9
000003d0: 784d 4038 f96f 8d3b c635 2f3a f190 3139
000003e0: ffc1 6f3a 536e 693b c74e 8f3b 8b70 8c3b
000003f0: b783 98b7 18d4 d6b8 b160 3938 b139 0338
-0.0005845718 -0.000103291386 -0.00012205137 0.00018298312 -0.0007518873 -0.0014560776 -0.00061390485 9.291381e-05
-0.0005174113 -0.0020813823 -0.0020787176 -0.0018184943 0.00020636365 0.000109133645 0.00055129954 -1.8660989e-05
-0.0004069624 0.0032164245 0.0004897054 -0.00054993754 0.0006204585 0.003216435 0.0034547232 0.003251065
1.906235e-05 4.9219307e-05 -5.674116e-05 3.864633e-05 0.00014943727 -0.00022780038 7.738393e-06 -3.7663278e-05
-3.2862652e-05 -0.00010095692 -0.000219137 -0.0001627403 -1.133685e-05 -2.9660789e-05 6.013155e-05 -6.841159e-05
-7.3456446e-05 0.00017035726 2.9353976e-05 4.4964e-05 2.149626e-05 6.2310355e-05 0.00013071993 0.00013067233
0.00015243203 0.00015024187 0.00011550412 -0.00030502878 0.00010445814 0.0012797142 0.0002976353 -2.5943444e-05
0.0002672873 0.0012765188 0.0015602254 0.0011401038 0.0002409679 0.00038048634 0.000310702 -0.0012633317
-0.0009817429 0.003976226 0.0009293513 0.0005014106 0.00052495743 0.002698015 0.004211623 0.0031287475
8.960288e-05 0.00014654988 -0.00016644 8.8060006e-05 0.00013769713 -0.00014320714 4.0113657e-05 -7.7898294e-05
-6.44821e-05 2.4915276e-05 -1.4502899e-05 -8.095688e-05 2.2555228e-05 -3.4097382e-05 -2.5027715e-05 -8.8357614e-05
-0.00026780585 0.00012397264 -4.8901587e-05 3.3163285e-06 -8.571712e-05 -3.0852018e-05 7.408728e-05 5.888865e-05
0.00037089197 0.0004390596 -0.0007592249 0.0006061232 0.00071699184 -0.001302415 -9.136778e-06 -0.00048309218
-0.0004244356 -0.0002865707 -0.0008099856 -0.00093542517 5.952176e-05 4.4938348e-05 -0.00013522999 0.00012878947
0.00012617496 -0.0003070667 -4.0643663e-05 -0.00010321696 -9.084829e-05 -0.000107811386 -0.00024737354 -0.00022857451
-4.995317e-06 -0.0001315656 0.00024759976 -0.00025954132 -0.00025550372 0.0006445238 3.9489012e-05 0.00018589341
0.00015303759 0.00018337801 0.00037969518 0.0005620392 3.616066e-05 4.1343596e-05 -4.85466e-05 -5.2754083e-05
1.9278423e-05 7.500552e-07 -3.6359072e-06 -2.3079732e-05 -5.9073504e-05 -6.390456e-05 -5.14042e-05 -5.741865e-05
0.00039464846 0.0004622572 0.00026204195 -0.00053434545 0.00021378949 0.0029494932 0.000778517 -0.00021958965
0.00066729233 0.0030256675 0.0032152897 0.0027658439 0.00024945042 0.0002959756 0.0006838206 -0.0009203146
-0.00054038566 0.0040893313 0.00080439105 0.00031946634 0.0007415775 0.0027497497 0.0037398273 0.0036704796
0.00013729482 0.0001523581 -1.0207016e-05 -0.00015618821 0.00074600027 0.00015149696 2.2216123e-05 2.8131062e-05
7.13894e-05 0.00017780566 -0.000111768255 0.00026532824 4.288413e-05 1.1333192e-05 1.130129e-05 -0.00013165927
-0.0001342986 0.00025159656 2.5229056e-05 6.069005e-05 -1.5009202e-05 7.290305e-05 0.00015453876 0.00020871023
1.6010285e-05 3.877854e-05 1.5766647e-05 -0.00012503259 -0.00012307905 0.00020936882 4.568812e-05 3.8013895e-05
2.2010501e-05 4.8229762e-05 0.00011927082 0.0001771284 -6.495397e-06 -1.0992917e-05 -7.412453e-05 0.00015471003
0.00010949137 -0.0004019827 -5.2886808e-05 -8.8574554e-05 -4.346157e-05 -0.0001808092 -0.00032841612 -0.00032578854
8.0097976e-05 2.862594e-05 -6.0456307e-05 0.00028598978 0.00024347505 -0.00042643797 -0.0002776396 -0.0004663515
-8.288202e-05 -3.225762e-05 -0.000617386 -0.00033073232 2.3429178e-05 2.5347716e-05 -4.500759e-05 3.3489163e-05
3.885713e-05 -6.7931695e-05 -6.200209e-06 -2.8195267e-05 -3.22883e-05 -1.8149469e-05 -4.6523845e-05 -5.4110074e-05
0.00022632933 0.00029957606 0.00079668016 -0.00033310466 4.5848516e-05 0.0043163267 0.0006683733 0.0001693403
0.0009146034 0.0035618737 0.0043734047 0.004285877 -1.8181147e-05 -0.00010243821 4.4197488e-05 3.1286563e-05

exp_avg_sq f4 [128, 12]
00000000: 9e2c 8b36 9f58 4f37 ac68 2936 da1e 1438
00000010: c7f8 b936 acac d839 0e29 0e38 0322 1937
00000020: 7264 2337 adaa 9b39 399e 0f3a 1fab 9f39
00000030: 7b1c 4d38 bdfa fe37 4476 8137 bbf1 9438
00000040: 8efc 4639 ed6d 923a 9f00 bb37 821a 1938
00000050: d9bd 0038 6b42 943a 6ab1 a93a d99e 9c3a
00000060: 523c 0a34 c6ad 5234 11de a432 7617 b533
00000070: 7276 c534 b764 8436 9a1a cf33 d6a4 0333
00000080: 0d4e e433 ac55 8c36 e046 b036 b747 8d36
00000090: a31a bc33 dd77 bb33 144d 2435 3163 9935
000000a0: e938 9a35 1085 9436 002c 0434 57bc 1c35
000000b0: 7198 af34 eedc f934 c90d 2236 7098 4036
000000c0: 6010 c834 5c78 dd34 10c0 7c33 50bc 4835
000000d0: 6109 8634 d96c 7837 dc9e 4035 ee12 e132
000000e0: 5261 1135 7a7c 8137 b0d0 9e37 44f3 5b37
000000f0: 65a2 8e35 a9f1 0c37 8f6e d936 9f6d 4238
00000100: 5fac 6837 d08f e339 ff43 d937 11e6 8a37
00000110: 1796 0737 d33a 4c39 87a7 013a b9c7 9439
00000120: 92bf 5433 b275 9133 74d4 5135 4356 2336
00000130: 20d9 1936 78af 5a37 7258 c734 0355 9f35
00000140: 7447 d334 555c 0a36 20e3 2037 94df 0137
00000150: 2bf9 0a34 ee0d 0a34 feac a434 f2e3 0034
00000160: 2506 c933 8ffc 8934 69f2 1933 dfbb d233
00000170: d98c 8d34 5ec9 5d33 ec63 bc33 2bb5 7d34
00000180: 0795 da34 268a 8c35 bb75 8736 98d1 5e37
00000190: b877 4b37 71da 9938 5f63 1636 04da c536
000001a0: b525 0636 0366 6737 1062 7338 7188 3738
000001b0: d175 0032 6a99 1a32 4d75 5633 3906 0234
000001c0: d675 0434 bc1f 1d35 f150 6332 764d 8133
000001d0: c982 e532 678b a333 8b30 ce34 0bcb b934
000001e0: 0405 6933 eea0 3134 c7f0 2c35 50f9 3136
000001f0: 774c 0e36 5d30 8b37 4f51 2835 7fe2 a335
00000200: 587c b434 d63c 7e36 bbd0 7537 3a9a 2037
00000210: 50a8 9933 4511 6533 2793 0033 3059 6834
00000220: 7093 2035 f2f4 f934 07b4 e332 76ae 1b33
00000230: a891 0933 0be0 1435 eff8 1a35 b49d 8235
00000240: 5b02 ce36 4920 f136 02a7 a135 6758 8337
00000250: 1e39 8836 31a4 9939 90a7 c337 addb ce35
00000260: 9c0d 2037 cc85 9039 7f27 c439 e179 8439
00000270: 11af bb37 0bc2 c137 e92d 6336 dd0a 0a38
00000280: 4b50 7538 d7f8 423a 68fd b737 48bf 1537
00000290: 8a25 a037 b12c 3e3a 30f5 733a 3d82 453a
000002a0: 9a82 bc34 1e2b 8f34 558b a833 83ca 3535
000002b0: 91b0 3436 13fb 8f35 e628 5733 b4d4 9333
000002c0: 9b34 7a33 c376 1536 f302 e535 195f 4f36
000002d0: 5ffa ce32 9257 9732 974f a733 758c 9f33
000002e0: 11d3 9c33 5f76 6334 02e0 2632 d643 2f33
000002f0: 9d01 5a33 b82c 8432 abc0 a933 7da4 2834
00000300: 825e 3632 33bc 5932 4a2c fb33 a9f0 1635
00000310: c272 1935 c7f8 3436 8f63 5133 ddc9 8534
00000320: 044f 5433 d0ef bd34 e771 e935 c42b da35
00000330: 8fa6 0c33 ded2 0833 6c0f 8533 a753 f033
00000340: 90ce ff33 2489 0b35 41ad 5e32 a295 3a33
00000350: 4ef7 3233 7f8d da33 963e c134 8858 a734
00000360: 6a6c 9535 4c2a 7935 20b5 6635 54f6 8c36
00000370: 63f6 9636 95b0 e237 1944 6b36 2493 0f36
00000380: 814b 5235 b5ae a937 6a7c 1538 2097 a137
00000390: 48b4 0e32 5ce2 0632 98d0 6432 071a c731
000003a0: 3467 1432 c49d ac32 d826 2b30 fdad 3b31
000003b0: 05f5 5132 4087 8631 0d5d 3d32 54c6 8c32
000003c0: 2342 ea37 2479 c237 32d2 b136 3338 1238
000003d0: 10ba cc38 3c35 483a f48a 8b37 61d1 6637
000003e0: c047 a937 d215 4c3a 4690 703a eca6 5b3a
000003f0: 1646 ed32 9db7 6c32 f277 4533 4597 a732
4.147717e-06 1.2358795e-05 2.524389e-06 3.5314682e-05 5.542391e-06 0.0004132738 3.3893673e-05 9.12743e-06
9.738944e-06 0.00029691067 0.0005478594 0.00030454338 4.8902333e-05 3.0395919e-05 1.543307e-05 7.102216e-05
0.00018976835 0.0011171676 2.2292426e-05 3.650273e-05 3.0694388e-05 0.0011311298 0.001294655 0.0011949196
1.2874196e-07 1.9620992e-07 1.9193097e-08 8.432737e-08 3.678029e-07 3.9456313e-06 9.6440274e-08 3.065073e-08
1.0631275e-07 4.1822987e-06 5.2534597e-06 4.210476e-06 8.7592774e-08 8.729669e-08 6.1206924e-07 1.1428257e-06
1.1490457e-06 4.426234e-06 1.2309465e-07 5.83886e-07 3.2707206e-07 4.6540612e-07 2.4147905e-06 2.869896e-06
3.7264817e-07 4.125203e-07 5.8848002e-08 7.4779837e-07 2.496627e-07 1.4807295e-05 7.1756745e-07 2.6202056e-08
5.415833e-07 1.5435962e-05 1.8932245e-05 1.3110057e-05 1.0627087e-06 8.400916e-06 6.4799747e-06 4.6355297e-05
1.3868411e-05 0.00043403963 2.5900079e-05 1.6558015e-05 8.081573e-06 0.0001947687 0.0004945923 0.00028377565
4.953433e-08 6.773497e-08 7.816773e-07 2.4339104e-06 2.292516e-06 1.3034667e-05 3.713099e-07 1.1871165e-06
3.9353802e-07 2.0617347e-06 9.589625e-06 7.741055e-06 1.2942898e-07 1.2857319e-07 3.067325e-07 1.2003855e-07
9.3609096e-08 2.5702e-07 3.584356e-08 9.8130606e-08 2.6365777e-07 5.1638715e-08 8.772608e-08 2.362837e-07
4.0714096e-07 1.0471019e-06 4.037019e-06 1.3281031e-05 1.2127617e-05 7.3362964e-05 2.2409583e-06 5.896438e-06
1.9989504e-06 1.3792424e-05 5.8027043e-05 4.375767e-05 7.477369e-09 8.998862e-09 4.9932442e-08 1.2109457e-07
1.2336326e-07 5.853324e-07 1.3231543e-08 6.021121e-08 2.6718583e-08 7.615636e-08 3.840581e-07 3.4606668e-07
5.42541e-08 1.6542955e-07 6.442537e-07 2.6520174e-06 2.1204157e-06 1.6592612e-05 6.2703197e-07 1.2210365e-06
3.3618085e-07 3.788436e-06 1.4651737e-05 9.572652e-06 7.1552336e-08 5.3333924e-08 2.9936157e-08 2.163913e-07
5.9819195e-07 4.6558085e-07 2.6508145e-08 3.624742e-08 3.203027e-08 5.546032e-07 5.7731717e-07 9.731652e-07
6.1395526e-06 7.186118e-06 1.204404e-06 1.5657582e-05 4.059765e-06 0.00029304766 2.3323839e-05 1.541213e-06
9.539912e-06 0.00027565507 0.0003741346 0.0002526781 2.2373659e-05 2.3097751e-05 3.385236e-06 3.291188e-05
5.848733e-05 0.0007437593 2.1933301e-05 8.925628e-06 1.9090967e-05 0.00072545843 0.000930625 0.00075343606
3.5112754e-07 2.6667198e-07 7.848454e-08 6.772245e-07 2.6924865e-06 1.0727402e-06 5.0095785e-08 6.8839114e-08
5.8255505e-08 2.2271859e-06 1.7062688e-06 3.0900758e-06 2.4095412e-08 1.7618536e-08 7.791021e-08 7.4295635e-08
7.302709e-08 2.1184086e-07 9.713405e-09 4.080706e-08 5.0758548e-08 1.5387158e-08 7.904722e-08 1.570606e-07
1.0615283e-08 1.2673854e-08 1.16961544e-07 5.622956e-07 5.7163936e-07 2.6966898e-06 4.8752153e-08 2.4920055e-07
4.943196e-08 3.537848e-07 1.7393003e-06 1.6255003e-06 3.2747774e-08 3.185675e-08 6.1961e-08 1.1191087e-07
1.1911936e-07 5.19811e-07 1.2961494e-08 4.344259e-08 4.1668777e-08 1.0177154e-07 3.599459e-07 3.117059e-07
1.1132918e-06 9.282128e-07 8.594525e-07 4.2010015e-06 4.4990315e-06 2.7023527e-05 3.5057367e-06 2.1394308e-06
7.834097e-07 2.0227724e-05 3.5640238e-05 1.9263069e-05 8.306479e-09 7.851295e-09 1.3318775e-08 5.7946212e-09
8.6381995e-09 2.0095179e-08 6.226464e-10 2.7310982e-09 1.2221112e-08 3.9152894e-09 1.1022405e-08 1.6388334e-08
2.7925771e-05 2.3183013e-05 5.299481e-06 3.4861452e-05 9.762135e-05 0.0007637327 1.6634796e-05 1.3757818e-05
2.0179781e-05 0.0007785234 0.0009176772 0.00083790603 2.7622303e-08 1.3778757e-08 4.5976726e-08 1.9510148e-08

exp_avg f4 [128, 32]
00000000: 8c48 4838 b542 fab7 6e1a 5a37 5111 b237
00000010: 1613 2eb9 df5b c9b7 be08 f435 41b1 2038
00000020: 5ca6 5735 c4d3 3938 319c cab6 8399 dd36
00000030: 4f2e 1137 586b 3bb8 58cf 8135 024d d3b7
00000040: b8fe 49b7 d0f1 92b8 346f f8b7 6ea1 51b8
00000050: b68e 77b7 c326 0037 e9a5 4b39 813d 4838
00000060: 3868 7bb8 e11d f6b6 3577 efb8 b2cf b1b9
00000070: 523c e6b6 ed6e 6239 c0f8 3ab6 0086 25b6
00000080: e551 49b9 0aa9 a838 fed8 3438 661a 39b9
00000090: 0315 9138 02f6 12b8 0d86 c7b5 247f b6b8
000000a0: dac7 8c38 9b2a a5b7 e8ff d439 b420 7e38
000000b0: b57b cab8 e51c aeb9 fb20 0cb8 5ab0 6a39
000000c0: 76c1 1038 bf93 a639 4c81 4939 2bbb 3e39
000000d0: 721b 95b9 2d85 9db8 69ed 52ba d373 10b9
000000e0: 66e1 89b9 2239 5338 4097 0a39 a268 8e39
000000f0: 2f36 b938 5de1 9bb9 d67e 07b8 70d1 3538
00000100: 557b ebb5 d104 60b6 27a5 1e36 268a 3a37
00000110: 7fb6 d037 cc08 ce36 a215 1435 6137 3337
00000120: 5421 84b6 be66 a635 eaf4 c9b7 0a65 2ab6
00000130: 2d53 d836 5321 3438 9d18 4c36 b68f 81b7
00000140: 6083 29b6 cd79 e7b7 0772 7db7 f8cc 6bb7
00000150: f7f0 c737 1609 e636 eaa4 9938 a80d 1d37
00000160: f588 1838 cc36 0bb6 499e 0d36 ecfd b237
00000170: 16ad f1b6 6d08 aeb7 ae68 49b5 3dbe 08b6
00000180: 020e 88b6 dff9 0538 4530 30b7 017c 0eb8
00000190: 06b9 46b8 bcc9 d036 ff92 2b36 e4a3 9337
000001a0: fa92 3f37 76ad b8b5 4518 7338 58fd b136
000001b0: 5f22 5cb7 59ac 4fb8 eddd 0f37 aae1 a837
000001c0: ed02 3fb6 fc8a 1738 1147 ba35 8f7c 0f38
000001d0: 2df3 37b8 c3c8 6bb6 02e8 1db8 4b5f 9cb7
000001e0: 490d 8db8 111f 3537 c46f 61b8 5401 f1b7
000001f0: f3f6 bb36 250d 0738 a63e 0fb7 9831 1db6
00000200: 038a 1837 f0ff 0838 680e ddb6 3171 7935
00000210: 01db 2638 2a99 8037 4d29 77b5 d14a 07b7
00000220: 05ab 8db6 58cb 66b7 e26c 89b5 ea83 d737
00000230: a305 86b7 464a 3cb8 22e7 6cb6 c013 3438
00000240: 1ec5 2f38 d4ce 9138 74a0 de37 9f4a 8538
00000250: 054d 61b8 1b8b c1b6 47af 34b9 ac47 1cb8
00000260: 4c7c 68b6 c213 3cb6 498a c938 9e3a b038
00000270: 637c 1237 2fce 9db8 b907 cbb7 debf 8735
00000280: 92c4 c5b8 b1ec d338 8421 d1b6 0c76 b138
00000290: 0de4 e9b8 6f79 0438 6465 8037 c58a a2b7
000002a0: e76f cbb6 1ac6 d437 07a5 bcb8 7411 0039
000002b0: 7bb6 ffb8 ec71 93b9 9cd0 a5b7 8b60 8e39
000002c0: 6952 1739 e381 d838 9df5 4039 0ec3 7039
000002d0: 2e7f 82b9 d42b 2bb8 c6e0 13ba 26e2 81b8
000002e0: 7706 feb8 c40e dcb7 f8b4 b6b8 0ee5 1837
000002f0: 4bd6 2c38 9a25 b138 143f deb8 d9cf 1737
00000300: 70f6 a136 3782 f3b7 3198 8437 34b4 8e38
00000310: 7d7b 9638 fd92 68b7 9f1d 83b6 79b3 e936
00000320: 988c e0b7 c6c8 1fb5 8d49 fdb8 344c a937
00000330: 9f01 8936 d285 b438 2aa5 31b7 9df9 1fb8
00000340: f131 d137 0f8b 78b8 f414 8e37 9986 26b8
00000350: 19f7 1c38 9002 8837 ea8c c038 f8bd 0938
00000360: e803 e738 9c0a b8b7 0ee7 9c38 de11 3238
00000370: 478e 7ab7 a9e0 23b8 e440 6037 e60c 7333
00000380: c4ac 0cb7 d8b2 0fb8 4fc0 d9b5 9377 0bb8
00000390: 05b6 adb6 9830 0eb6 f40d c636 6817 1db8
000003a0: 09cd 5f37 938b bd37 18ea 7138 3305 2bb8
000003b0: ffaf 92b7 9439 a2b8 14f5 89b7 b3a8 6236
000003c0: e9a0 d5b6 8450 4637 961e a7b5 0883 27b6
000003d0: 91df 0937 f9bf fdb7 365a e2b8 5774 ed35
000003e0: 4327 f6b7 3b51 b736 b7a2 7c37 9067 ccb6
000003f0: 9dfc f736 506f 0138 ac54 3fb7 7096 2537
4.775128e-05 -2.9833385e-05 1.2999966e-05 2.1227317e-05 -0.00016601043 -2.4003848e-05 1.8181961e-06 3.8312053e-05
8.0335826e-07 4.430466e-05 -6.038252e-06 6.6041844e-06 8.653456e-06 -4.4684246e-05 9.671594e-07 -2.518902e-05
-1.203984e-05 -7.0068636e-05 -2.9615687e-05 -4.9979826e-05 -1.4755575e-05 7.638419e-06 0.00019421395 4.7740996e-05
-5.9940125e-05 -7.3348497e-06 -0.00011418612 -0.00033914816 -6.8615564e-06 0.00021594363 -2.7860951e-06 -2.4664914e-06
-0.00019199362 8.04235e-05 4.3117434e-05 -0.00017652809 6.9180525e-05 -3.5038225e-05 -1.4865669e-06 -8.702118e-05
6.7129455e-05 -1.9689372e-05 0.00040626456 6.0588776e-05 -9.655153e-05 -0.00033209394 -3.3409317e-05 0.00022381675
3.451245e-05 0.00031772067 0.0001921702 0.00018189538 -0.00028439943 -7.511149e-05 -0.0008046241 -0.00013776058
-0.0002629861 5.035953e-05 0.0001321705 0.00027162308 8.83158e-05 -0.00029731813 -3.2304633e-05 4.3348817e-05
-1.7544759e-06 -3.3381405e-06 2.3639966e-06 1.1118629e-05 2.4880514e-05 6.1403025e-06 5.5165776e-07 1.0682125e-05
-3.9377865e-06 1.2397866e-06 -2.4075114e-05 -2.5390787e-06 6.4469846e-06 4.294638e-05 3.0412696e-06 -1.5444919e-05
-2.5259433e-06 -2.7594064e-05 -1.5106524e-05 -1.40548145e-05 2.3834857e-05 6.855592e-06 7.326326e-05 9.361109e-06
3.6367175e-05 -2.074451e-06 2.1102771e-06 2.1337495e-05 -7.2025096e-06 -2.074634e-05 -7.5030664e-07 -2.0376312e-06
-4.0547466e-06 3.194238e-05 -1.0501656e-05 -3.3970926e-05 -4.7379195e-05 6.222368e-06 2.5566549e-06 1.7600083e-05
1.1418708e-05 -1.3759552e-06 5.7958317e-05 5.304504e-06 -1.31210245e-05 -4.9513157e-05 8.575135e-06 2.0132244e-05
-2.846292e-06 3.6130645e-05 1.3878763e-06 3.420986e-05 -4.3857075e-05 -3.5134588e-06 -3.764779e-05 -1.8641023e-05
-6.7258785e-05 1.0795674e-05 -5.374827e-05 -2.8730057e-05 5.601783e-06 3.219875e-05 -8.538051e-06 -2.342369e-06
9.092039e-06 3.2663287e-05 -6.5879904e-06 9.2924444e-07 3.9781447e-05 1.5330112e-05 -9.207477e-07 -8.064047e-06
-4.2220368e-06 -1.3756413e-05 -1.0238984e-06 2.5691425e-05 -1.597667e-05 -4.4891865e-05 -3.5301277e-06 4.2933738e-05
4.190683e-05 6.9526635e-05 2.6539179e-05 6.3558335e-05 -5.371591e-05 -5.7680422e-06 -0.00017231434 -3.7260048e-05
-3.4643044e-06 -2.8025684e-06 9.6101845e-05 8.403252e-05 8.731239e-06 -7.524748e-05 -2.4203082e-05 1.0114125e-06
-9.430306e-05 0.00010105351 -6.232587e-06 8.462006e-05 -0.000111527836 3.1584346e-05 1.5306003e-05 -1.9376525e-05
-6.0628986e-06 2.5364618e-05 -8.995277e-05 0.00012213533 -0.00012193337 -0.00028122903 -1.9766674e-05 0.0002715628
0.00014431182 0.00010323876 0.00018402045 0.00022960847 -0.00024890288 -4.0810395e-05 -0.0005641099 -6.193323e-05
-0.00012112868 -2.623292e-05 -8.712144e-05 9.113237e-06 4.120757e-05 8.4470215e-05 -0.00010597534 9.048695e-06
4.826863e-06 -2.9028493e-05 1.5806496e-05 6.804653e-05 7.175559e-05 -1.3862501e-05 -3.9075526e-06 6.9648345e-06
-2.676835e-05 -5.952428e-07 -0.0001207768 2.0181855e-05 4.083107e-06 8.607995e-05 -1.0588477e-05 -3.8141025e-05
2.4937997e-05 -5.9257316e-05 1.6937476e-05 -3.9702838e-05 3.7423426e-05 1.6213657e-05 9.181521e-05 3.2840268e-05
0.00011015666 -2.193945e-05 7.481697e-05 4.2455147e-05 -1.4934288e-05 -3.907146e-05 1.3366549e-05 5.6589577e-08
-8.384875e-06 -3.4260418e-05 -1.6223729e-06 -3.3251545e-05 -5.1769916e-06 -2.1187934e-06 5.902484e-06 -3.7453516e-05
1.3339574e-05 2.259555e-05 5.7676894e-05 -4.077442e-05 -1.748651e-05 -7.735487e-05 -1.6445796e-05 3.377482e-06
-6.366627e-06 1.1820466e-05 -1.2451371e-06 -2.496121e-06 8.217889e-06 -3.0249344e-05 -0.00010793323 1.7691735e-06
-2.9343768e-05 5.4632815e-06 1.50582555e-05 -6.09173e-06 7.3905817e-06 3.0859665e-05 -1.1404201e-05 9.869793e-06
