models/drone/policy_ego_rotor_best_iter45.pth (torch, 80830 bytes, 20 tensors)

lstm.weight_ih_l0 f4 [128, 12]
0.015702905 -0.3174525 0.035897475 0.06315819 -0.2430523 0.029291382 -0.09123559 0.1113938
0.051330157 -0.22831011 -0.14498039 -0.056758378 -0.007282422 0.100436196 0.17358157 -0.0331268
-0.06520272 0.014854454 0.20925742 0.07890823 -0.020525562 -0.09567557 -0.04151111 -0.041076582
0.0925781 -0.021967156 -0.059019417 0.14485462 -0.21115555 0.086297244 0.07010804 0.2287727
0.15558068 -0.10586421 -0.15444985 -0.040264986 -0.051108554 0.115075305 0.22413123 -0.15888715
0.25651836 -0.16132492 0.0448334 0.078800954 0.069939256 0.075862356 -0.046591483 0.06112356
-0.0916365 0.046167787 -0.37621078 0.010834769 0.16030836 -0.15148857 0.25254932 0.31591642
-0.04506531 -0.085417 0.09531048 0.017204486 -0.28503308 0.16474685 -0.09166787 0.12222857
-0.054757252 -0.10966051 -0.048247185 0.05215764 -0.18822701 -0.12406122 0.17254443 -0.08656861
0.07364747 -0.041083075 -0.05730892 0.05281751 0.038159456 -0.043218773 -0.3010873 0.016627798
-0.20721288 -0.23043635 -0.037820812 -0.13215625 -0.07479602 -0.12025819 -0.3831391 0.029478299
-0.040422603 0.06401262 -0.068969734 -0.15229312 0.048374485 0.047649417 -0.027082881 -0.072877645
-0.076247215 0.11251885 -0.104199074 -0.18168524 0.15506876 -0.11032177 0.14347573 0.009996974
-0.14165367 -0.181016 0.10557394 -0.030869957 0.20595996 -0.009690529 -0.037511304 0.1934559
0.15660727 -0.18146923 -0.066961475 -0.0011807677 0.05437196 0.023826044 -0.16380589 -0.13472319
-0.28623533 0.13173722 0.112116404 -0.24035339 0.16689122 -0.16998634 -0.16988069 -0.029235791
0.13990204 0.15574935 -0.1088468 0.023110481 0.30683553 -0.005993637 -0.17252319 0.30609334
0.08054921 -0.05006868 -0.086424 -0.21182588 -0.16102414 -0.02349677 -0.07154261 -0.01066133
0.073076345 -0.19416198 -0.22341055 0.036305837 0.055835363 0.0830835 -0.14181243 0.15479584
-0.06554343 0.017618224 -0.10783621 -0.1128615 0.12750417 -0.1833401 0.11416409 -0.0012825554
-0.20505378 0.08526286 -0.07912495 -0.054510284 -0.14145488 -0.01920883 -0.13469468 -0.031239793
-0.18060082 -0.1910934 -0.36960375 0.0945257 0.010073407 -0.050521046 0.03927596 0.15795042
0.023131758 -0.059286002 -0.13123025 0.074804865 0.08460605 0.0021483211 -0.23350006 0.2581825
-0.0040451004 0.043388605 -0.14765438 -0.1487698 -0.04627863 -0.07922413 0.19150905 -0.2052728
0.039407153 0.0011530108 -0.08220939 -0.009505022 0.037776034 0.07232355 0.12187462 -0.21710531
-0.09562781 -0.14134355 0.112232275 -0.11377278 0.31567222 0.3955767 -0.047817666 0.007319617
0.13177042 0.12696993 0.021054553 -0.09161274 -0.24890295 0.15825659 0.11964254 0.15775779
0.38603464 -0.31487715 -0.2711402 0.314661 -0.16450973 0.10241232 -0.115745895 -0.13763471
-0.0007523697 -0.08262254 -0.026384428 0.0640907 0.1277228 0.02855784 -0.21176903 -0.10797328
0.24803844 -0.10634631 -0.19629562 0.021552132 -0.2507835 0.038377024 0.0875027 -0.22017455
-0.10275707 0.091055654 0.10105549 0.04289416 -0.17057243 -0.048977174 -0.06457899 0.013950207
-0.11814671 0.31907386 0.25804102 -0.089469776 -0.1135844 -0.019643972 -0.18690652 0.0042520254
00000000: 61a3 803c 2289 a2be 3b09 133d 1559 813d
00000010: b4e2 78be 7bf4 ef3c bad9 babd 6f22 e43d
00000020: 923f 523d 20ca 69be bd75 14be 797b 68bd
00000030: 62a1 eebb 7eb1 cd3d 5ebf 313e f8af 07bd
00000040: 0189 85bd 1960 733c 9447 563e a39a a13d
00000050: 3925 a8bc 8ef1 c3bd 8e07 2abd eb3f 28bd
00000060: 9699 bd3d 77f4 b3bc 58be 71bd c554 143e
00000070: 2939 58be 9cbc b03d ce94 8f3d 6443 6a3e
00000080: 8b50 1f3e 56cf d8bd 1a28 1ebe e6ec 24bd
00000090: 3457 51bd 9aac eb3d a882 653e 50b3 22be
000000a0: 6056 833e 5c32 25be 3aa3 373d 6562 a13d
000000b0: 503c 8f3d b95d 9b3d b6d6 3ebd b35c 7a3d
000000c0: ebab bbbd 6f1a 3d3d b39e c0be 5184 313c
000000d0: e027 243e d21f 1bbe 254e 813e ccbf a13e
000000e0: 6796 38bd 1cef aebd 2432 c33d 6cf0 8c3c
000000f0: dbef 91be 66b3 283e 5dbc bbbd f952 fa3d
00000100: 2449 60bd b195 e0bd d79e 45bd 40a3 553d
00000110: 95be 40be cf13 febd 7daf 303e e24a b1bd
00000120: 7cd4 963d ba46 28bd c2bc 6abd 2c57 583d
00000130: 174d 1c3d 2b06 31bd 1d28 9abe 0537 883c
00000140: 9d2f 54be 82f7 6bbe ffe9 1abd f853 07be
00000150: a82e 99bd ed49 f6bd cf2a c4be 797c f13c
00000160: 2c92 25bd 0c19 833d 0140 8dbd baf2 1bbe
00000170: 5324 463d 092c 433d ebdc ddbc e040 95bd
00000180: 8027 9cbd 4870 e63d 5366 d5bd b20b 3abe
00000190: 58ca 1e3e 61f0 e1bd 4deb 123e 59ca 233c
000001a0: a90d 11be 425c 39be 2637 d83d fee2 fcbc
000001b0: 2be7 523e 06c5 1ebc 74a5 19bd 4e19 463e
000001c0: a85d 203e 12d3 39be 1923 89bd fdc3 9aba
000001d0: 22b5 5e3d d62e c33c bbbc 27be e0f4 09be
000001e0: 708d 92be 1fe6 063e 499d e53d 331f 76be
000001f0: 88e5 2a3e e610 2ebe 34f5 2dbe e67f efbc
00000200: 7b42 0f3e c27c 1f3e 12eb debd 3152 bd3c
00000210: 8c19 9d3e 4566 c4bb eba9 30be 44b8 9c3e
00000220: fcf6 a43d d114 4dbd 11ff b0bd e2e8 58be
00000230: 83e3 24be 4c7c c0bc ef84 92bd dcac 2ebc
00000240: 0da9 953d 66d2 46be bcc5 64be 6eb5 143d
00000250: 9fb3 643d af27 aa3d 4737 11be cd82 1e3e
00000260: a23b 86bd 1854 903c 3bd9 dcbd ee23 e7bd
00000270: 7490 023e 82bd 3bbe ddce e93d 6b1b a8ba
00000280: 9ef9 51be 4b9e ae3d 430c a2bd 2d46 5fbd
00000290: 8cd9 10be d65b 9dbc 67ed 09be 98ea ffbc
000002a0: 6cef 38be fdad 43be b43c bdbe b196 c13d
000002b0: ee0a 253c 28ef 4ebd d4df 203d c1bd 213e
000002c0: d07e bd3c e1d5 72bd 3961 06be 4b33 993d
000002d0: f045 ad3d d9ca 0c3b a41a 6fbe 7f30 843e
000002e0: c38c 84bb 40b8 313d b632 17be 1c57 18be
000002f0: a98e 3dbd 4340 a2bd f31a 443e 0833 52be
00000300: 6569 213d 9f20 973a 665d a8bd f4ba 1bbc
00000310: 0bbb 1a3d 5f1e 943d 6799 f93d db50 5ebe
00000320: 83d8 c3bd 5dbc 10be 09da e53d b401 e9bd
00000330: ca9f a13e 0789 ca3e 75dc 43bd 66d9 ef3b
00000340: d3ee 063e 6804 023e 997a ac3c 769f bbbd
00000350: 6ae0 7ebe 040e 223e 2607 f53d 428b 213e
00000360: 55a6 c53e 9437 a1be e3d2 8abe 3f1b a13e
00000370: 3d75 28be 8dbd d13d 2f0c edbd 1df0 0cbe
00000380: ad3a 45ba 0236 a9bd 2824 d8bc fc41 833d
00000390: c4c9 023e 22f2 e93c fbd9 58be 1821 ddbd
000003a0: cafd 7d3e 18cc d9bd b801 49be 198e b03c
000003b0: b266 80be 3a31 1d3d 9e34 b33d 7075 61be
000003c0: 4c72 d2bd 637b ba3d 2ef6 ce3d c9b1 2f3d
000003d0: 8aaa 2ebe 4a9c 48bd fd41 84bd 698f 643c
000003e0: e7f6 f1bd a65d a33e f41d 843e ee3b b7bd
000003f0: f09e e8bd 65ec a0bc 6c64 3fbe 9354 8b3b

lstm.weight_hh_l0 f4 [128, 32]
0.09889289 0.20655656 0.16321735 0.16200097 0.16427045 -0.08292354 -0.27420452 -0.1561016
-0.21684472 -0.01688929 -0.11296766 -0.16137072 0.26076618 0.041319523 -0.09425574 0.015203334
-0.11430493 0.08266637 -0.16618179 -0.0977827 -0.16570993 0.1277916 0.18362732 -0.07204119
-0.20179333 -0.09591373 0.010981139 0.29694748 -0.07739618 0.009731674 0.057086278 -0.16671644
0.11605677 -0.18882734 -0.042798642 -0.055215 -0.024982318 -0.19907236 0.11744527 0.14522034
-0.028961753 0.1527329 0.2208669 0.02016276 0.21630925 0.06186637 0.088375516 -0.1996274
0.01437544 0.2068163 0.01048064 -0.14205743 0.07988411 0.12466136 0.08408566 -0.0043246993
-0.052354712 -0.015138262 0.05603774 -0.19008975 0.15570776 0.057951327 0.24623731 -0.11905492
-0.0409684 -0.094189785 -0.16541338 0.21850628 0.0036025925 -0.08275792 0.24261335 0.21170625
-0.22460864 0.08196838 0.18357204 -0.10897696 -0.08905805 -0.085233815 0.018034015 -0.07924603
-0.040244006 0.126221 -0.061002836 -0.10542693 0.08917432 -0.036246564 0.12753542 0.095415704
-0.017238187 -0.08154472 -0.0012032564 0.03443623 -0.037250217 0.08406907 0.0889625 -0.087517746
0.17455311 0.055221267 -0.18185082 0.06088565 0.11106053 -0.010278451 -0.24976267 0.24449065
-0.07070151 -0.13124473 0.1393411 0.047865026 -0.15231761 -0.21698646 -0.097823665 0.16085622
-0.025458056 0.031813815 0.014144644 0.010760392 0.116922155 -0.16892181 0.026711093 0.06425927
0.075346075 -0.16751075 -0.10105979 0.12184431 -0.13229126 0.05824719 0.221416 -0.10369784
-0.014570653 0.055166557 -0.13396263 0.011180044 -0.00955266 0.21931934 -0.12104307 0.090693824
-0.31540287 -0.3017625 -0.046447817 0.0547784 0.068123795 0.08020325 -0.18205203 0.07199719
-0.19873136 -0.0289516 0.11761542 0.10866261 -0.2440283 0.04517037 -0.1302079 -0.11201948
0.21832182 -0.01143004 -0.10143549 0.1373309 -0.12759559 -0.1907822 -0.03387634 -0.06882997
-0.02327187 -0.061152034 -0.2896712 0.17472038 -0.25897893 0.05410009 0.15894476 -0.012621823
-0.03595405 0.080341145 0.057756416 0.1182816 -0.117404655 0.06873666 -0.022790404 -0.012260249
0.087992 0.062023 -0.087590426 -0.042980988 0.13726333 0.08025883 0.023968574 0.10577836
0.20347309 0.0780473 0.33257103 -0.11405979 -0.095396146 -0.0057102074 0.07067549 -0.031640146
-0.07767309 -0.13832638 -0.13557166 0.21916908 -0.20140113 0.007023512 0.09132727 0.03467121
0.032254573 -0.22862144 -0.008584402 0.044454265 -0.07247259 -0.19491681 -0.16030644 0.0028670945
-0.22309552 -0.02362106 0.029990412 0.19659002 0.08129255 -0.0018480157 -0.004987138 -0.12947926
0.24114312 0.04238535 0.2823875 -0.12796097 -0.22856393 -0.052054167 0.035550967 0.2359651
0.08048272 0.015644375 -0.16747396 0.18698014 -0.17563455 -0.13367619 -0.05783974 0.0631473
0.06981209 0.100513086 0.117855124 0.1571672 -0.027040182 0.19122128 -0.12490219 0.024328705
0.09301678 -0.039350312 0.08545654 0.07512035 0.05467939 -0.071492694 -0.13100362 0.12420671
0.19045483 -0.18430065 0.124067746 0.07638797 0.023736423 -0.020617506 -0.045411073 0.14985794
00000000: 5b88 ca3d 9083 533e 7322 273e 95e3 253e
00000010: 8336 283e d1d3 a9bd 8964 8cbe 19d9 1fbe
00000020: 8b0c 5ebe 695b 8abc 975b e7bd 5e3e 25be
00000030: 2583 853e a93e 293d 2709 c1bd 6817 793c
00000040: b418 eabd fc4c a93d 8f2b 2abe 4c42 c8bd
00000050: ddaf 29be cddb 023e cd08 3c3e 558a 93bd
00000060: e9a2 4ebe 6b6e c4bd 3cea 333c 8009 983e
00000070: e381 9ebd 9971 1f3c 4dd3 693d b7b7 2abe
00000080: 2caf ed3d f45b 41be a14d 2fbd 2029 62bd
00000090: b8a7 ccbc a0d9 4bbe 2587 f03d a4b4 143e
000000a0: 3341 edbc 0366 1c3e ef2a 623e 5f2c a53c
000000b0: 2c80 5d3e 9767 7d3d 39fe b43d 206b 4cbe
000000c0: f786 6b3c a7c7 533e feb6 2b3c 8177 11be
000000d0: 489a a33d 754e ff3d 1a35 ac3d 35b6 8dbb
000000e0: e571 56bd 7906 78bc d487 653d e3a6 42be
000000f0: db71 1f3e 5f5e 6d3d a225 7c3e 11d3 f3bd
00000100: 7bce 27bd 93e6 c0bd 2062 29be 1cc0 5f3e
00000110: 7919 6c3b fc7c a9bd a26f 783e 86c9 583e
00000120: cfff 65be 0adf a73d 4ffa 3b3e 502f dfbd
00000130: 1164 b6bd 118f aebd 12bc 933c be4b a2bd
00000140: e6d6 24bd 1440 013e 1cde 79bd 13ea d7bd
00000150: 07a1 b63d 4777 14bd a598 023e 4f69 c33d
00000160: 1937 8dbc eb00 a7bd 96b6 9dba 010d 0d3d
00000170: af93 18bd 682c ac3d f931 b63d 813c b3bd
00000180: 0dbe 323e b22f 623d 1a37 3abe 3b63 793d
00000190: b473 e33d f366 28bc c9c1 7fbe c25b 7a3e
000001a0: f4cb 90bd 0565 06be 6faf 0e3e 1e0e 443d
000001b0: 26f9 1bbe b331 5ebe c657 c8bd 7eb7 243e
000001c0: 6a8d d0bc 344f 023d f0be 673c 5b4c 303c
000001d0: e274 ef3d d7f9 2cbe 39d1 da3c 5d9a 833d
000001e0: 0b4f 9a3d f087 2bbe 6ff8 cebd 8289 f93d
000001f0: 5c77 07be 9b94 6e3d e0ba 623e 885f d4bd
00000200: c0b9 6ebc 54f6 613d 802d 09be 812c 373c
00000210: c382 1cbc 4095 603e 6ee5 f7bd afbd b93d
00000220: 7c7c a1be 9d80 9abe 1140 3ebd 515f 603d
00000230: 7d84 8b3d 9a41 a43d d96b 3abe 4373 933d
00000240: 3c80 4bbe e82b edbc 5ae0 f03d 818a de3d
00000250: 8ee2 79be 9104 393d 3855 05be 786a e5bd
00000260: c18f 5f3e 1045 3bbc 69bd cfbd 79a0 0c3e
00000270: 6ba8 02be 695c 43be ebc1 0abd baf6 8cbd
00000280: a6a4 bebc 8e7a 7abd c94f 94be e6e9 323e
00000290: e398 84be 0e98 5d3d 6ac2 223e c3cb 4ebc
000002a0: 8e44 13bd e689 a43d fe91 6c3d a03d f23d
000002b0: da71 f0bd cec5 8c3d f1b2 babc 36df 48bc
000002c0: 2635 b43d d40b 7e3d 9c62 b3bd d50c 30bd
000002d0: c28e 0c3e be5e a43d be59 c43c 53a2 d83d
000002e0: 405b 503e 43d7 9f3d c046 aa3e 2e98 e9bd
000002f0: 0e5f c3bd b11c bbbb 50be 903d 1999 01bd
00000300: 1213 9fbd 6ea5 0dbe 4cd3 0abe dc6d 603e
00000310: 193c 4ebe 7d25 e63b cb09 bb3d 6603 0e3d
00000320: 5f1d 043d bd1b 6abe 97a5 0cbc ad15 363d
00000330: 826c 94bd 4698 47be 5f27 24be dde5 3b3b
00000340: 2773 64be f480 c1bc 74ae f53c e54e 493e
00000350: b57c a63d 1e39 f2ba 256b a3bb 3696 04be
00000360: 39ee 763e 439c 2d3d 1895 903e 3308 03be
00000370: aa0c 6abe c036 55bd e49d 113d d6a0 713e
00000380: 20d4 a43d a228 803c 4b7e 2bbe b977 3f3e
00000390: 8bd9 33be 69e2 08be 5de9 6cbd 5f53 813d
000003a0: a4f9 8e3d ced9 cd3d 075e f13d 70f0 203e
000003b0: 5f83 ddbc 83cf 433e b8cc ffbd fe4c c73c
000003c0: 957f be3d cb2d 21bd d703 af3d b3d8 993d
000003d0: 7ff7 5f3d c36a 92bd d025 06be 1660 fe3d
000003e0: 9706 433e 4fb9 3cbe 3b17 fe3d 4c71 9c3d
000003f0: e372 c23c 0be6 a8bc f600 3abd 5c74 193e

lstm.bias_ih_l0 f4 [128]
0.1336594 -0.07347414 0.03521163 -0.08324846 -0.14396106 0.08051471 -0.22639914 0.026323272
-0.2778808 0.026613008 0.10444519 -0.23962927 -0.18872587 -0.22695482 -0.058643866 -0.34464005
-0.007372876 0.12677434 -0.10971231 -0.0816063 -0.16803946 -0.09744536 -0.107520476 -0.09506718
0.15745887 -0.14136027 -0.125001 -0.10076811 0.117534064 0.19037712 -0.044318635 0.23581782
0.112414084 -0.10284372 0.005550422 0.10650772 -0.056453083 -0.18159725 -0.023744237 -0.20631653
-0.09187593 -0.15250866 0.15559904 -0.2761158 -0.14738984 0.034549132 -0.25332454 -0.012725449
-0.12532291 0.16247737 -0.16943152 -0.16428354 0.055591967 -0.068425834 -0.21076764 -0.18098907
0.06562276 -0.036557104 -0.35998794 0.016925018 0.15913282 -0.116278104 -0.046347804 0.17080249
0.080351405 -0.10068958 0.13836998 -0.122660376 0.10896755 -0.046760518 0.054256942 0.08624389
0.006846952 0.10979062 0.021604383 -0.06636009 0.11278531 -0.035169195 -0.105904676 -0.056428887
0.016338404 0.0012012338 -0.18402997 -0.007453405 -0.045143865 -0.011595135 -0.122456856 0.10110618
-0.01086272 0.047654055 0.011119976 0.03993252 0.098683104 -0.055241402 -0.13513023 -0.21932168
0.103311315 0.13130377 -0.0029789207 -0.18703012 0.09542056 -0.052145608 -0.2724351 0.117374055
0.04066389 0.052108426 -0.17200586 -0.11987949 -0.04282297 -0.13253741 -0.1103115 -0.21776438
-0.0961311 -0.17849891 -0.098340444 -0.016016463 0.09708707 -0.011650807 -0.21603175 -0.30486697
0.14380156 0.016616175 -0.13878684 -0.153893 -0.13436833 -0.19249253 0.028505035 -0.017848482
00000000: 02de 083e 9c79 96bd 123a 103d 2b7e aabd
00000010: 876a 13be e5e4 a43d 2dd5 67be e7a3 d73c
00000020: 6446 8ebe 8603 da3c 5ce7 d53d 6061 75be
00000030: 5b41 41be d866 68be 8d34 70bd a974 b0be
00000040: 2b98 f1bb 22d1 013e d9b0 e0bd 3421 a7bd
00000050: 8912 2cbe 6f91 c7bd b233 dcbd 95b2 c2bd
00000060: e63c 213e bfc0 10be 4300 00be 835f cebd
00000070: b3b5 f03d 38f2 423e 7587 35bd 3a7a 713e
00000080: 5b39 e63d ba9f d2bd 50e0 b53b b820 da3d
00000090: 593b 67bd a1f4 39be 4683 c2bc a444 53be
000000a0: 7329 bcbd 3b2b 1cbe 5b55 1f3e 0d5f 8dbe
000000b0: 5ded 16be 6483 0d3d c1b3 81be 677e 50bc
000000c0: a654 00be 7860 263e 757f 2dbe f239 28be
000000d0: 67b4 633d d822 8cbd 79d3 57be 3355 39be
000000e0: 3a65 863d e7bc 15bd 5750 b8be 56a6 8a3c
000000f0: b7f3 223e 3723 eebd 32d7 3dbd d9e6 2e3e
00000100: 478f a43d 5736 cebd dcb0 0d3e 5d35 fbbd
00000110: 612a df3d f587 3fbd 873c 5e3d a3a0 b03d
00000120: 655c e03b e8d9 e03d adfb b03c cde7 87bd
00000130: fcfb e63d 930d 10bd 8de4 d8bd fa21 67bd
00000140: 1ed8 853c b872 9d3a 5a72 3cbe b13b f4bb
00000150: c6e8 38bd 85f9 3dbc a9ca fabd c210 cf3d
00000160: 8df9 31bc e630 433d 8f30 363c 4890 233d
00000170: 5e1a ca3d cf44 62bd 945f 0abe dd95 60be
00000180: e294 d33d 7f74 063e ff39 43bb d384 3fbe
00000190: db6b c33d a296 55bd 9d7c 8bbe cf61 f03d
000001a0: 2e8f 263d a56f 553d 4e22 30be 6183 f5bd
000001b0: 2367 2fbd e3b7 07be ffea e1bd a0fd 5ebe
000001c0: 62e0 c4bd 6bc8 36be b766 c9bd f534 83bc
000001d0: 96d5 c63d 07e3 3ebc 6d37 5dbe 8617 9cbe
000001e0: b740 133e a51e 883c 231e 0ebe 2096 1dbe
000001f0: da97 09be c31c 45be 6483 e93c fb36 92bc

lstm.bias_hh_l0 f4 [128]
-0.0029109418 0.050259314 0.012848436 0.0133706145 0.085266866 -0.18759735 -0.12596345 0.13370939
-0.1245647 -0.062481727 0.096402615 -0.055837374 -0.08566487 0.037952892 -0.040395986 -0.35509363
-0.0099723665 -0.074702926 -0.05769837 -0.15682723 0.08945086 -0.30671972 -0.012739623 -0.10397265
-0.14878026 -0.032288387 -0.0058621345 0.03352223 0.1623692 0.17417225 0.13452923 0.25187233
0.16102804 -0.104623556 -0.12921487 -0.17001438 -0.10770643 0.01735156 0.019573923 -0.03504902
0.006631044 0.12198412 0.10777926 -0.1355904 -0.073258005 -0.19854297 -0.036066003 -0.26193467
-0.15713274 0.20693606 0.11149318 -0.17742349 0.09979617 -0.014253419 -0.3084255 -0.36129165
0.04932121 0.12838809 -0.3196964 -0.19171934 0.1565976 0.11653922 -0.13065058 0.19344728
-0.038290575 -0.11007928 0.14055002 0.11502469 -0.03508362 -0.12757169 0.15155627 -0.0045840424
0.103420354 -0.16814248 -0.049296986 0.16050734 -0.028735148 -0.028455697 -0.1281157 0.0043781875
0.016232815 -0.14239222 -0.003714936 0.10377605 -0.082232215 0.09561274 0.10747791 0.037477918
-0.14429364 0.14505246 -0.17990395 -0.05901169 0.10986403 -0.14747566 -0.011445968 -0.002623758
0.051747236 0.09636089 -0.12521987 -0.07771115 0.09474441 -0.1108609 -0.21689503 -0.12004684
-0.048067242 -0.12135252 -0.049325008 -0.0037920065 -0.22292215 -0.10109027 -0.27297524 -0.17559043
-0.10093467 -0.031586565 -0.06244404 -0.115696825 0.0122803105 -0.0111525 -0.18648253 -0.047524717
-0.06967421 0.08253221 0.042709224 0.0171049 -0.17352256 -0.06587042 -0.21136405 -0.15923934
00000000: 80c5 3ebb b6dc 4d3d 3f82 523c 6c10 5b3c
00000010: 65a0 ae3d 8519 40be 90fc 00be 1deb 083e
00000020: c71b ffbd d7ec 7fbd bc6e c53d bbb5 64bd
00000030: 1071 afbd 7e74 1b3d 4376 25bd d5ce b5be
00000040: 2363 23bc d9fd 98bd 2055 6cbd 5197 20be
00000050: 0332 b73d 5e0a 9dbe dab9 50bc 9def d4bd
00000060: da59 18be d440 04bd 2617 c0bb 9b4e 093d
00000070: 1d44 263e 365a 323e 08c2 093e 69f5 803e
00000080: 89e4 243e e044 d6bd e750 04be 4018 2ebe
00000090: 3095 dcbd dc24 8e3c 7e59 a03c 908f 0fbd
000000a0: 3b49 d93b cfd2 f93d 5fbb dc3d 36d8 0abe
000000b0: 4b08 96bd d94e 4bbe f2b9 13bd 4d1c 86be
000000c0: 68e7 20be 0ce7 533e 8956 e43d 81ae 35be
000000d0: ef61 cc3d 2c87 69bc f2e9 9dbe 38fb b8be
000000e0: 0905 4a3d 2b78 033e 3faf a3be 1352 44be
000000f0: 1f5b 203e 1dac ee3d 44c9 05be 0b17 463e
00000100: 94d6 1cbd 3f71 e1bd 58ec 0f3e 1192 eb3d
00000110: d8b3 0fbd 27a2 02be 9131 1b3e bc35 96bb
00000120: 0dce d33d 8b2d 2cbe a3eb 49bd 095c 243e
00000130: f965 ebbc ec1b e9bc c330 03be e676 8f3b
00000140: aefa 843c 44cf 11be 4976 73bb 8a88 d43d
00000150: 5d69 a8bd 9dd0 c33d 611d dc3d 7282 193d
00000160: b6c1 13be a288 143e be38 38be 3eb6 71bd
00000170: 6400 e13d dc03 17be df87 3bbc 5bf3 2bbb
00000180: e9f4 533d dc58 c53d a339 00be 0627 9fbd
00000190: 5b09 c23d 0a0b e3bd bb19 5ebe 1edb f5bd
000001a0: 28e2 44bd ac87 f8bd 0509 4abd 5083 78bb
000001b0: b445 64be 6a08 cfbd 69c3 8bbe facd 33be
000001c0: d6b6 cebd ea60 01bd 52c5 7fbd 75f2 ecbd
000001d0: 5b33 493c fab8 36bc 47f5 3ebe 47a9 42bd
000001e0: 5ab1 8ebd a606 a93d deef 2e3d 931f 8c3c
000001f0: e6af 31be 12e7 86bd d16f 58be a30f 23be

hidden2out.weight f4 [3, 32]
-0.0318005 0.18193476 -0.08214993 -0.055311795 -0.008787867 -0.058305275 -0.043175187 -0.16947268
0.051624935 0.12383958 0.16186938 -0.15292007 0.07957403 -0.09441566 0.06503462 -0.042433262
-0.00655817 -0.08437608 0.1238902 -0.03361497 0.12109841 0.1445322 -0.100664966 0.03243918
0.14175743 -0.16034038 -0.030505124 0.09889151 -0.0840372 0.18331991 -0.1304075 -0.025338415
-0.11566749 0.029101757 -0.071886644 -0.11143598 0.13640878 -0.025805986 0.0114245685 -0.028202398
0.061864424 0.038803853 0.12667288 -0.08316437 -0.101136126 -0.14015567 -0.017678013 0.046224196
-0.04704421 0.08400115 0.12472982 0.028807264 -0.026912779 -0.013684339 0.012233131 0.014617575
-0.11264924 0.010592057 -0.15189683 0.17050238 0.12677889 0.024374656 -0.11710663 -0.10781655
0.06600197 0.071085855 0.09924327 0.0010853255 0.13525723 -0.06397409 -0.031776395 -0.109447
-0.010650404 -0.09831918 0.058885403 0.17909434 0.117551826 -0.059608374 0.014580019 0.037659086
0.054864284 -0.10589109 -0.11666068 0.04567798 -0.06987748 -0.031179724 0.25660473 -0.09383779
-0.07276023 -0.018002575 0.09428423 -0.09010577 0.12726183 -0.12589249 0.113383666 -0.1769327
00000000: 3e41 02bd 1b4d 3a3e 393e a8bd 9f8e 62bd
00000010: fcfa 0fbc 83d1 6ebd 77d8 30bd 3f8a 2dbe
00000020: ab74 533d 9b9f fd3d 16c1 253e 1497 1cbe
00000030: b6f7 a23d ff5c c1bd df30 853d 80ce 2dbd
00000040: ebe5 d6bb 5ecd acbd 25ba fd3d daaf 09bd
00000050: 7102 f83d 4000 143e 6f29 cebd f2de 043d
00000060: dc28 113e 4530 24be e2e5 f9bc a287 ca3d
00000070: b21b acbd 37b8 3b3e 8b89 05be 8292 cfbc
00000080: 14e3 ecbd cf66 ee3c 4e39 93bd 8c38 e4bd
00000090: beae 0b3e 1367 d3bc 1d2e 3b3c b708 e7bc
000000a0: 8d65 7d3d caf0 1e3d 89b6 013e 1552 aabd
000000b0: 7520 cfbd f884 0fbe 7bd1 90bc 9555 3d3d
000000c0: 6eb1 40bd cc08 ac3d 5972 ff3d 36fd eb3c
000000d0: 3078 dcbc 4734 60bc 786d 483c 8e7e 6f3c
000000e0: a5b4 e6bd 4f8a 2d3c d88a 1bbe 2d98 2e3e
000000f0: 53d2 013e 5cad c73c 9ad5 efbd ecce dcbd
00000100: 0a2c 873d 7695 913d 0e40 cb3d 7b41 8e3a
00000110: df80 0a3e d904 83bd f727 02bd c025 e0bd
00000120: 087f 2ebc 915b c9bd d231 713d 8264 373e
00000130: 03bf f03d e927 74bd 08e1 6e3c 6a40 1a3d
00000140: 5fb9 603d 6edd d8bd cbeb eebd d518 3b3d
00000150: ed1b 8fbd 9f6c ffbc b261 833e 072e c0bd
00000160: 5103 95bd 237a 93bc 1718 c13d 6089 b8bd
00000170: ed50 023e f6e9 00be b235 e83d d92d 35be

hidden2out.bias f4 [3]
0.03295015 -0.10244823 -0.12327069
00000000: bdf6 063d 61d0 d1bd 5875 fcbd

std_layer.weight f4 [3, 32]
0.17387198 0.07349564 -0.14848764 -0.15516998 -0.009436935 0.11370708 0.09830521 0.007781759
0.022933766 -0.13077794 0.10779159 -0.01897645 -0.14235492 -0.1300804 -0.036416262 -0.11134753
-0.056980558 0.17248882 0.0075998604 -0.095945254 0.13781951 0.16408749 0.017177522 -0.004432142
0.020953417 -0.0356299 0.032818735 0.055087686 0.13342945 0.08319761 0.03473398 -0.01331158
0.13499956 0.07171735 0.056027234 0.121075705 0.03649877 -0.04939808 0.045146182 -0.08785413
0.108362004 -0.056376316 0.04030709 0.04954806 -0.13235721 -0.1475942 0.12149863 -0.17450906
-0.061876208 0.10094471 0.043937624 0.16937293 -0.17342499 0.061425865 -0.06710143 0.07378046
0.12943836 0.11972691 -0.17524697 -0.0625655 0.123756275 0.06616141 -0.14370161 0.10870297
0.12289606 -0.08580643 -0.052749857 -0.1273561 -0.1338282 -0.08168221 -0.041349098 0.004256457
0.10744433 0.15847073 0.019344836 0.10483454 0.10537769 0.03459668 -0.0837092 0.07101299
0.027571693 -0.14028755 -0.055617295 -0.06929907 0.061925083 -0.0818061 0.074159935 -0.009806648
-0.030196369 0.068219125 0.10799231 0.054381892 0.030201316 -0.010848492 -0.031568542 0.08636512
00000000: 7f0b 323e e284 963d 250d 18be e1e4 1ebe
00000010: 609d 1abc 42df e83d 3e54 c93d 20fe fe3b
00000020: 98df bb3c a7ea 05be d6c1 dc3d 8074 9bbc
00000030: 7dc5 11be cc33 05be 3829 15bd 2c0a e4bd
00000040: 7264 69bd e9a0 303e 4008 f93b f27e c4bd
00000050: 8f20 0d3e 8d06 283e e0b7 8c3c 803b 91bb
00000060: 80a6 ab3c a8f0 11bd f06c 063d a0a3 613d
00000070: bba1 083e 8263 aa3d 3845 0e3d d018 5abc
00000080: 533d 0a3e 8ce0 923d d07c 653d 8af6 f73d
00000090: bc7f 153d a455 4abd 34eb 383d deec b3bd
000000a0: e6ec dd3d daea 66bd 0c19 253d e8f2 4a3d
000000b0: a688 07be ef22 17be 46d4 f83d 81b2 32be
000000c0: e871 7dbd 1abc ce3d f0f7 333d 1970 2d3e
000000d0: 5296 31be b099 7b3d 796c 89bd 361a 973d
000000e0: 7d8b 043e 6233 f53d f173 33be 5722 80bd
000000f0: ee73 fd3d a27f 873d 8426 13be aa9f de3d
00000100: eeb0 fb3d 48bb afbd 3c10 58bd a369 02be
00000110: 420a 09be 0149 a7bd ac5d 29bd c079 8b3b
00000120: c60b dc3d 2746 223e 1079 9e3c 7eb3 d63d
00000130: 42d0 d73d 40b5 0d3d bb6f abbd 426f 913d
00000140: 08de e13c 8aa7 0fbe f6ce 63bd acec 8dbd
00000150: 28a5 7d3d f589 a7bd 2ae1 973d 10ac 20bc
00000160: 605e f7bc 78b6 8b3d 122b dd3d 8cbf 5e3d
00000170: c068 f73c e0bd 31bc 044e 01bd 32e0 b03d

std_layer.bias f4 [3]
-0.03609778 0.13399519 0.11164011
00000000: 44db 13bd 0936 093e 92a3 e43d

exp_avg f4 [128, 12]
-0.00012739867 -0.000105949664 0.00025967395 -0.0003295567 -0.00033992695 0.00045432625 -0.00019543605 -0.00044496616
1.1238382e-05 -0.00013135062 -0.00094095874 0.00028211094 -0.00050853624 -0.00047054538 0.00030271948 -0.000116032796
-0.0008423468 -0.00066611223 -0.00028081436 0.0007608789 -0.000294601 -0.0011490776 0.00041753307 -0.0019711456
-0.00059449713 -0.0003209862 0.00084828516 -0.0006359444 -0.0010140706 0.0016523084 -0.00082428864 0.0013490311
-0.00015077011 -0.001957899 -0.0011733967 -0.0007973449 -0.00061271177 -0.0013896733 -0.0004526565 0.0006654235
-0.0011361474 -0.006641343 -0.0012811824 -0.001257738 -0.00042530888 -0.004626791 -0.0061851456 -0.0045725796
-0.0010229552 -0.0012926662 0.0004064004 -1.1493996e-05 -0.0016444607 -0.003688065 -0.00079103187 0.000114769944
-0.00073310506 -0.0048780874 -0.0051992717 -0.0055229473 -0.000103666935 -8.4464766e-05 0.00018560041 -0.00030698162
-0.00033855025 0.00032787045 0.00017515561 0.00022311232 8.751858e-05 -5.5187735e-05 0.00045610443 0.00023757594
6.117448e-06 1.03938575e-07 -1.4872404e-05 1.27942285e-05 1.0571583e-05 -5.604099e-05 -1.7145476e-05 -2.9770466e-05
-1.58622e-05 -3.5823254e-05 -0.00010205522 -3.2154792e-05 0.00028871864 8.74343e-05 9.550239e-05 -0.00028758994
0.00033223946 0.00063575193 0.0002437074 -0.0007242896 4.730111e-05 0.0008012108 -0.0006905502 0.00020950095
-5.1495463e-05 -0.00017424977 -0.000115421426 0.000120649864 -0.00017754073 -0.0010356787 2.2601685e-06 -0.00022703089
4.170851e-05 -0.00029842442 -0.00019868201 -0.00023700073 -5.536924e-05 -0.00016112563 -9.9910445e-05 0.00033127124
2.1690254e-05 -0.00095443 1.0232886e-05 0.00011841728 5.368643e-05 -7.8110636e-05 0.00039426822 -0.0003648925
-0.0006684351 -0.0012228295 0.00023994397 -0.00021828306 -0.0014009033 -0.003868319 2.6720247e-05 -0.00067326723
0.00013745681 -0.0019319889 -0.0016658601 -0.0023074283 -0.00012477358 -0.00018505589 -0.00011729607 0.00059490366
0.00038153518 -0.001230666 -0.0006701474 -0.00017495068 -0.0006962999 -0.0018174896 -0.005260489 -0.0012151145
0.00013892908 0.0007918398 0.0011142152 -0.0023649642 -0.00076655485 0.006414976 0.00022902482 -0.00075271656
0.00031156695 0.0025587787 8.8459274e-05 0.0035089285 0.0015294113 0.0017942113 0.00052248646 0.00042894323
0.003181418 0.008899216 0.0007518236 0.00071712094 0.00051400723 0.0055729444 0.0021362505 0.0061684065
-0.000105704166 -5.2577998e-05 4.6016627e-05 -0.00030162162 -0.00039942624 -0.00010256222 -3.7902937e-05 -0.00013135369
3.1496238e-05 -0.00015975416 9.056497e-05 0.00021770854 0.00025519062 0.00028028 4.249219e-05 6.779966e-05
0.0005997141 0.001295235 3.253362e-05 2.1217917e-05 -0.000160934 0.00014166649 -0.00096788886 2.7596989e-05
5.8420093e-05 0.00010739018 9.0485e-06 -6.285292e-05 0.00012806666 0.0004068598 0.0001665711 8.81507e-05
6.33887e-05 0.00044943497 0.00068914006 0.00025280353 -1.6597505e-05 -3.348728e-05 -7.219137e-05 0.00032462116
0.00032511327 -0.0005838722 0.00025273333 0.00029871127 -0.00042409296 -0.00020282414 0.00041493104 -0.00096252223
0.00019678242 0.0006609139 0.00097110454 -2.3367704e-05 0.0010123848 0.005386794 -0.0012398445 0.001438589
-5.4759665e-05 -0.00039291248 -0.0033750457 0.0030785743 -2.6750863e-06 -9.99146e-06 -1.3702316e-05 2.67248e-05
1.3424657e-05 -9.275114e-05 -8.9419345e-06 -2.4196976e-05 4.409666e-07 -2.797588e-05 -7.493534e-05 -4.1957945e-05
0.0007640058 0.00078158616 9.015032e-05 -0.00045837977 0.0013516148 0.003402033 0.00053563574 0.00045215135
-0.0005341004 0.00019179829 -0.0013216716 0.0001553915 0.00015273097 0.0006865727 0.00072276476 -0.0017439337
00000000: 5296 05b9 4b31 deb8 d924 8839 5ac8 acb9
00000010: 3938 b2b9 a332 ee39 f7ed 4cb9 594a e9b9
00000020: 7c8c 3c37 2abb 09b9 acaa 76ba 4ae8 9339
00000030: 4a4f 05ba 88b3 f6b9 52b6 9e39 a256 f3b8
00000040: f0d0 5cba 099e 2eba 443a 93b9 b875 473a
00000050: ad74 9ab9 a59c 96ba 57e8 da39 562e 01bb
00000060: 07d8 1bba 0a4a a8b9 745f 5e3a 82b5 26ba
00000070: 90ea 84ba 4592 d83a 1315 58ba f9d1 b03a
00000080: 0b18 1eb9 1850 00bb a9cc 99ba e904 51ba
00000090: 649e 20ba b325 b6ba 8752 edb9 d16f 2e3a
000000a0: c8ea 94ba 9f9f d9bb 59ed a7ba afda a4ba
000000b0: fefb deb9 569c 97bb c3ac cabb 94d5 95bb
000000c0: ae14 86ba ae6e a9ba 2312 d539 56d6 40b7
000000d0: f28a d7ba 77b3 71bb 405d 4fba a5b0 f038
000000e0: d92d 40ba 5dd8 9fbb a75e aabb d7f9 b4bb
000000f0: c367 d9b8 ad22 b1b8 bb9d 4239 60f2 a0b9
00000100: 727f b1b9 07e6 ab39 faa9 3739 42f3 6939
00000110: 2e8a b738 6179 67b8 4d21 ef39 ce1d 7939
00000120: 7a44 cd36 d634 df33 7d84 79b7 cba6 5637
00000130: 9a5c 3137 8e0d 6bb8 a1d3 8fb7 97bb f9b7
00000140: d10f 85b7 ed40 16b8 7b06 d6b8 f2dd 06b8
00000150: 295f 9739 ef5c b738 7548 c838 abc7 96b9
00000160: 6d30 ae39 97a8 263a b58b 7f39 41de 3dba
00000170: 2e65 4638 5908 523a 0a06 35ba 7cad 5b39
00000180: d5fc 57b8 d1b6 36b9 680e f2b8 6705 fd38
00000190: 3a2a 3ab9 9cbf 87ba 66ad 1736 240f 6eb9
000001a0: 2cf0 2e38 d975 9cb9 4c55 50b9 6683 78b9
000001b0: 453c 68b8 d5f3 28b9 0387 d1b8 79ae ad39
000001c0: 77f3 b537 b732 7aba e9ad 2b37 cb56 f838
000001d0: 5e2d 6138 54cf a3b8 c9b5 ce39 0b4f bfb9
000001e0: ec39 2fba 5947 a0ba 7899 7b39 eae2 64b9
000001f0: 849e b7ba a083 7dbb 4b25 e037 337e 30ba
00000200: 4822 1039 ca3a fdba fd58 daba 3938 17bb
00000210: a7d5 02b9 900b 42b9 d9fc f5b8 4ff3 1b3a
00000220: c908 c839 4c4e a1ba d5ac 2fba f772 37b9
00000230: e587 36ba d538 eeba 2e60 acbb 7a44 9fba
00000240: 7ead 1139 7893 4f3a dc0a 923a 84fd 1abb
00000250: a0f2 48ba b834 d23b 6226 7039 f451 45ba
00000260: cf59 a339 2fb1 273b 3683 b938 0df6 653b
00000270: 8776 c83a be2b eb3a 79f7 083a c9e3 e039
00000280: 567f 503b 04ce 113c 0716 453a 2cfd 3b3a
00000290: 71be 063a 3f9d b63b 5600 0c3b 5820 ca3b
000002a0: 7ead ddb8 3287 5cb8 fa01 4138 f822 9eb9
000002b0: 156a d1b9 ac16 d7b8 f8f9 1eb8 fdbb 09b9
000002c0: d41a 0438 ae83 27b9 b3ed bd38 b148 6439
000002d0: 1bcb 8539 8bf2 9239 a439 3238 aa2f 8e38
000002e0: 2236 1d3a e0c4 a93a b574 0838 21fd b137
000002f0: 64c0 28b9 4f8c 1439 ecb9 7dba 1580 e737
00000300: 1908 7538 aa36 e138 03cf 1737 e8cf 83b8
00000310: a249 0639 cc4f d539 97a9 2e39 8cdd b838
00000320: 8def 8438 24a2 eb39 68a7 343a b78a 8439
00000330: df3a 8bb7 b174 0cb8 7265 97b8 ea31 aa39
00000340: f773 aa39 000f 19ba 4b81 8439 599c 9c39
00000350: cb58 deb9 31ad 54b9 1a8b d939 c651 7cba
00000360: 6157 4e39 2e41 2d3a b991 7e3a c305 c4b7
00000370: ffb1 843a b483 b03b 4782 a2ba 098f bc3a
00000380: bead 65b8 d2ff cdb9 df2f 5dbb e8c1 493b
00000390: a285 33b6 fea0 27b7 00e3 65b7 122f e037
000003a0: 763a 6137 6483 c2b8 5105 16b7 9cfa cab7
000003b0: fdbd ec34 bfad eab7 9b26 9db8 00fc 2fb8
000003c0: 9047 483a 5ce3 4c3a 160f bd38 b152 f0b9
000003d0: ab28 b13a a4f4 5e3b e869 0c3a ba0e ed39
000003e0: df02 0cba 761d 4939 f13b adba 97f0 2239
000003f0: 6826 2039 1dfb 333a ec77 3d3a b494 e4ba

exp_avg_sq f4 [128, 12]
2.51838e-07 7.094524e-07 1.458615e-06 2.7069243e-06 2.7011072e-06 1.3731928e-05 4.4114213e-07 1.4936033e-06
1.3919531e-06 2.029959e-06 1.270147e-05 8.9507175e-06 2.0069274e-06 2.915926e-06 2.3101306e-06 1.458132e-05
1.0747218e-05 0.0001207365 8.40225e-06 6.9303983e-06 2.5185018e-06 5.3223157e-05 0.00015312595 7.453829e-05
1.1839556e-05 8.011822e-06 5.6884132e-06 2.4358891e-05 3.958679e-05 0.00013549301 1.3758108e-05 1.1840731e-05
3.5213393e-06 0.00010674878 0.00016739458 0.00013693579 7.539211e-06 3.589573e-06 2.624675e-06 2.1310741e-05
2.4455165e-05 0.00014376792 1.0486831e-05 1.0469568e-05 3.514009e-06 0.0001067135 0.00017707377 8.141375e-05
2.910815e-06 4.6704226e-06 3.045598e-06 8.378579e-06 1.4279573e-05 4.9053142e-05 2.7781318e-06 3.7046648e-06
1.9216725e-06 3.673547e-05 6.407044e-05 6.557071e-05 1.13095545e-07 2.651914e-07 6.893488e-07 1.4409671e-06
1.2291915e-06 8.343201e-06 3.024082e-07 7.363776e-07 7.076931e-07 2.74879e-06 6.532264e-06 1.3358727e-05
9.736403e-10 1.0631483e-09 4.0947055e-09 7.3361446e-09 8.514312e-09 4.1159474e-08 2.2413666e-09 4.2632804e-09
2.0835804e-09 6.5164936e-09 4.173592e-08 1.939017e-08 2.8830625e-06 6.0508605e-06 2.8049049e-06 2.0339656e-05
8.746503e-06 0.00023105722 1.2217654e-05 6.6719936e-06 7.945975e-06 0.00010540891 0.00025392268 0.00032520312
1.295866e-07 1.3759912e-07 7.7476834e-08 8.3033297e-07 4.819033e-07 3.8026808e-06 2.3004276e-07 4.2146704e-07
5.2237212e-08 1.5575428e-06 4.2603824e-06 1.8379772e-06 2.2054941e-08 4.9757745e-08 1.4221269e-08 1.2979085e-07
7.317191e-08 1.4535858e-06 2.021897e-07 2.0013221e-08 2.1922975e-08 4.0694053e-06 7.599384e-07 3.5465212e-07
5.908539e-06 7.760775e-06 5.5896517e-06 1.2657429e-05 1.9862991e-05 0.00014176012 1.5608319e-05 5.0880535e-06
8.872144e-06 0.00013207941 0.00017325574 0.00015382128 5.9281033e-06 5.4253987e-06 3.6881136e-07 3.2434234e-06
1.3626043e-05 0.00016255018 2.336587e-05 1.0926835e-06 5.87165e-06 0.00047279106 0.00021401238 0.00026233256
1.6736088e-06 4.679151e-06 1.9522492e-06 1.50676515e-05 3.6688236e-06 0.00018691043 5.500112e-06 2.9219045e-06
9.77193e-06 0.000107217726 0.00012177482 0.00031203657 4.330949e-06 3.7247046e-06 1.8133316e-06 8.911854e-06
1.0585536e-05 0.0001339157 1.0105855e-05 2.857806e-06 3.3469848e-06 9.947559e-05 0.00015309876 9.8868e-05
1.9443291e-08 2.320095e-08 2.3903214e-08 2.5393689e-08 5.8756232e-08 2.732406e-07 2.4976927e-09 1.1747878e-08
2.4035218e-08 2.9391057e-08 7.8670595e-08 1.2767563e-07 2.3728968e-07 2.3073106e-07 2.2788626e-08 2.4530655e-08
7.2819614e-07 6.2065546e-06 1.704843e-07 1.1164232e-08 1.3548922e-07 8.350133e-06 8.9338855e-06 2.9880061e-06
4.8191456e-08 1.1815352e-07 6.6889555e-08 5.16797e-07 1.5542315e-07 5.3855942e-06 3.8439254e-07 2.502833e-07
3.744171e-08 2.445845e-06 7.452005e-06 1.5855036e-06 3.0047854e-06 3.0605438e-06 1.6167322e-05 1.8263243e-05
1.890844e-05 6.003111e-05 1.0301608e-06 1.3920231e-05 1.3425768e-05 3.7433192e-06 3.1772877e-05 5.1758972e-05
5.16562e-05 2.6366677e-05 1.0758775e-05 4.346431e-05 0.00013159744 0.00068491534 8.485179e-05 1.5872321e-05
1.8958464e-05 0.00087829377 0.0010155786 0.00063252536 7.149293e-10 1.1106658e-09 6.8924217e-09 1.9524354e-08
1.08696545e-08 1.347477e-07 4.444326e-09 1.1253671e-08 2.1524258e-09 2.1063729e-08 1.3997986e-07 4.2128196e-08
7.0252554e-07 9.426662e-07 2.543861e-06 3.4229731e-06 4.1324315e-06 1.4567952e-05 3.683335e-07 2.34505e-06
2.4050887e-06 1.0087214e-06 6.8077684e-06 8.1184935e-06 1.3507965e-07 3.6253707e-07 2.2759026e-07 1.4977784e-06
00000000: 5a34 8734 3371 3e35 a1c5 c335 9ba8 3536
00000010: ab44 3536 2f62 6637 1dd6 ec34 d277 c835
00000020: 25d3 ba35 6e3a 0836 6618 5537 0a2b 1637
00000030: c0ae 0636 3aaf 4336 be07 1b36 4ba2 7437
00000040: f34e 3437 ea33 fd38 64f7 0c37 ab8b e836
00000050: 8803 2936 ee3b 5f38 6f90 2039 7151 9c38
00000060: 81a2 4637 836a 0637 19df be36 5256 cc37
00000070: fe09 2638 2113 0e39 a0d2 6637 8da7 4637
00000080: 2650 6c36 51de df38 a486 2f39 6c96 0f39
00000090: 54f9 fc36 65e4 7036 9323 3036 78c4 b237
000000a0: 1125 cd37 68c0 1639 99f0 2f37 74a6 2f37
000000b0: 37d2 6b36 60cb df38 e1ac 3939 adbc aa38
000000c0: 6c57 4336 a0b6 9c36 fa62 4c36 b991 0c37
000000d0: 4d92 6f37 69be 4d38 f16f 3a36 a89d 7836
000000e0: 15f6 0036 6914 1a38 8e5d 8638 0283 8938
000000f0: efde f233 a15f 8e34 b00b 3935 4167 c135
00000100: b3fa a435 c7f9 0b37 ab5a a234 7cab 4535
00000110: 4df8 3d35 da77 3836 b82f db36 4c1f 6037
00000120: ecd0 8530 351e 9230 69b1 8c31 6911 fc31
00000130: 5746 1232 52c7 3033 8a06 1a31 367c 9231
00000140: bc2e 0f31 afe7 df31 2141 3333 6f8f a632
00000150: a37a 4136 7f08 cb36 e63b 3c36 149f aa37
00000160: f2bd 1237 f347 7239 6dfa 4c37 fddf df36
00000170: b44f 0537 fa0e dd38 ed20 8539 0680 aa39
00000180: 7e24 0b34 f5be 1334 5761 a633 0ce4 5e35
00000190: 255c 0135 8f31 7f36 ac01 7734 fd45 e234
000001a0: 6c5b 6033 c30c d135 68f4 8e36 6ab0 f635
000001b0: 5473 bd32 38b5 5533 cd51 7432 a35c 0b34
000001c0: af22 9d33 d418 c335 7b19 5934 8ae9 ab32
000001d0: 2251 bc32 ed8b 8836 92fe 4b35 0467 be34
000001e0: f741 c636 4634 0237 be8e bb36 3e5b 5437
000001f0: 739f a637 71a5 1439 9cee 8237 0cba aa36
00000200: 91d9 1437 cc7e 0a39 fcab 3539 164b 2139
00000210: 05ea c636 d20b b636 0c01 c634 97a9 5936
00000220: 699b 6437 3b72 2a39 d301 c437 52a8 9235
00000230: 1705 c536 f1e0 f739 8368 6039 ae89 8939
00000240: c3a0 e035 9a01 9d36 6303 0336 12cb 7c37
00000250: e935 7636 63fd 4339 9a8d b836 f015 4436
00000260: 1ff2 2337 14da e038 5c61 ff38 d798 a339
00000270: 9252 9136 f0f5 7936 9961 f335 1f84 1537
00000280: 8898 3137 b96b 0c39 518c 2937 bcc8 3f36
00000290: c39c 6036 8d9d d038 2389 2039 5a57 cf38
000002a0: 4004 a732 6e4b c732 b953 cd32 5021 da32
000002b0: 295b 7c33 e7b1 9234 e0a3 2b31 b7d3 4932
000002c0: 0176 ce32 9e77 fc32 9ef1 a833 3617 0934
000002d0: b1c9 7e34 dfbe 7734 b8c0 c332 7bb7 d232
000002e0: 4279 4335 e641 d036 5e0e 3734 d0cc 3f32
000002f0: fe7a 1134 8c17 0c37 bfe2 1537 8e85 4836
00000300: 11fb 4e33 96bb fd33 eca4 8f33 05ba 0a35
00000310: 64e2 2634 e7b5 b436 825e ce34 ad5e 8634
00000320: 98cf 2033 4c23 2436 3c0c fa36 7dcd d435
00000330: d2a5 4936 be63 4d36 0f9f 8737 0434 9937
00000340: 919d 9e37 eac9 7b38 0e44 8a35 f08a 6937
00000350: 3c3f 6137 bc35 7b36 de43 0538 c617 5938
00000360: 6ca9 5838 022e dd37 9680 3437 734d 3638
00000370: 6bfd 0939 e48b 333a 75f2 b138 8d25 8537
00000380: fe08 9f37 4c3d 663a 2a1d 853a 0fd0 253a
00000390: ad84 4430 14a6 9830 62d2 ec31 82b6 a732
000003a0: 3fbd 3a32 2aaf 1034 b4b4 9831 2b56 4132
000003b0: e0e9 1331 a1ef b432 5f4d 1634 71f0 3433
000003c0: 3095 3c35 870b 7d35 33b7 2a36 3bb6 6536
000003d0: 51a9 8a36 e168 7437 5fbf c534 a75f 1d36
000003e0: 1c67 2136 6763 8735 496e e436 aa34 0837
000003f0: 690a 1134 b7a2 c234 895f 7434 4607 c935

exp_avg f4 [128, 32]
4.615737e-05 2.7844224e-05 2.1979562e-05 -6.677746e-06 -1.4303224e-06 -4.0970904e-06 8.6113374e-07 -6.765383e-07
3.9477673e-06 -1.6202249e-06 4.550828e-05 -6.774799e-07 2.0729933e-05 4.7588834e-05 2.1711764e-06 -1.2809714e-06
-4.0453224e-06 2.250401e-05 -1.45481545e-05 1.924522e-06 -2.5612833e-05 3.24418e-05 9.444056e-07 2.6530253e-07
-5.609426e-05 3.0022242e-05 -3.7932716e-06 4.2554842e-05 3.5285044e-05 4.2303895e-05 2.1826421e-05 -2.832987e-05
3.9417495e-07 1.2383329e-06 5.106674e-05 1.5268082e-05 1.3044958e-05 -9.749674e-06 -1.9125662e-07 -2.2934304e-05
2.111048e-06 -9.862737e-06 -1.252834e-06 -9.6718e-06 -3.3701184e-05 -3.1997857e-05 -6.9726702e-06 1.5625209e-06
1.1537611e-05 2.1330543e-06 -1.7086687e-06 -1.5070242e-06 -3.7508253e-05 -6.4432123e-07 3.9880497e-08 6.627496e-07
-4.027909e-05 1.12593825e-05 -6.668241e-07 6.166212e-06 4.344654e-05 7.846643e-06 0.00015809743 -2.8239565e-05
-2.554895e-05 2.7711276e-05 0.00019014694 -9.781526e-06 4.1071675e-05 -1.2199649e-05 -5.7893556e-07 -3.6310335e-05
-7.8664283e-07 -6.132528e-05 5.1777806e-05 8.33184e-06 4.419086e-05 9.654128e-05 1.0946343e-06 8.141516e-06
1.3350859e-05 0.00023279875 -8.219507e-05 -3.4481773e-06 -0.00011129058 2.759394e-05 5.847296e-06 1.7809015e-06
-8.808809e-05 1.1915177e-05 -6.6504726e-06 6.864712e-05 0.0001616531 0.00012823415 0.00020734861 -0.00013189181
2.718714e-05 4.568221e-05 -0.00016682962 0.00014484921 -6.243578e-05 3.0835945e-05 7.236105e-07 0.000117731106
-3.790386e-05 0.0001087261 -9.1352915e-05 -5.2502983e-05 -2.0419551e-05 -0.0001183553 -3.0022875e-06 -1.5824526e-05
-2.8373022e-05 -0.00036654054 0.00017488874 1.838561e-06 0.000104674 5.9828024e-05 -1.8085324e-05 -1.5138169e-06
-1.5355125e-05 1.4194871e-05 -7.962572e-07 0.0001670759 -0.00013224862 -0.00015253472 0.00021038522 0.00017291986
5.1596035e-05 3.651205e-05 2.9414821e-05 8.9743095e-05 -5.5955065e-06 -1.3436551e-05 1.5955317e-07 4.5648823e-05
-2.9357647e-05 -2.5529303e-05 -1.8057663e-05 -4.0457482e-05 -9.616565e-06 -3.2283315e-06 -7.3677124e-06 1.8388209e-06
-1.0670051e-05 -0.00016681357 9.0059206e-05 -1.8788037e-06 -3.308577e-05 2.3833418e-05 -3.960632e-06 -6.445542e-09
-5.4756416e-05 3.1254243e-05 -7.331326e-06 0.0001438684 6.336305e-05 -3.0187548e-05 0.00018352372 1.1227095e-05
1.616334e-05 -3.4478453e-06 3.3267002e-05 4.2028723e-06 9.123348e-06 -1.5222781e-05 -6.709716e-07 -1.070277e-05
-1.4413396e-06 3.922553e-06 1.9256098e-05 -3.756891e-06 1.6255534e-06 -8.106914e-06 -1.4610048e-06 -2.7845872e-06
7.972759e-07 7.607439e-06 -1.4254442e-05 -1.0773516e-06 -1.845453e-05 2.372105e-06 -1.3600792e-06 -9.32806e-07
-2.6982661e-05 -9.3503246e-07 8.831159e-07 1.2613219e-05 1.9668076e-05 3.7120095e-05 -4.6464916e-07 -2.5314623e-05
1.5391067e-06 3.4900074e-07 -2.8592772e-06 2.5836152e-07 -6.034584e-07 1.1524329e-07 -9.568338e-08 1.3016598e-06
-2.395138e-07 5.171754e-07 -3.7569848e-07 -2.4735454e-09 7.150515e-07 5.036756e-08 3.5031073e-07 -2.2639517e-07
-4.982843e-07 -3.909475e-06 1.6025703e-06 -5.709981e-09 6.0449014e-07 1.344511e-06 6.086424e-08 -1.4346834e-07
4.405321e-07 3.6160603e-07 4.091368e-07 1.8271702e-06 -9.3087925e-07 -1.7704714e-06 -5.075816e-07 1.2696692e-06
6.918949e-05 2.0016561e-05 -2.8024888e-05 -4.9258804e-05 -5.662327e-07 -1.6163205e-05 -2.0893938e-06 8.7626853e-07
5.7693924e-06 8.16876e-06 5.694819e-05 -1.4725284e-06 3.5037287e-05 3.65275e-05 8.194474e-06 -5.807632e-06
-1.0016283e-05 -3.91762e-05 -3.4272698e-06 2.4471552e-08 -1.8504432e-05 4.7286103e-05 1.8531774e-06 -2.1228723e-06
-3.6222827e-05 1.2839991e-05 4.8629586e-06 3.8999744e-05 2.4646679e-05 3.9086688e-05 -0.00020167654 -2.139228e-05
00000000: 1999 4138 0493 e937 c060 b837 6711 e0b6
00000010: 81f9 bfb5 bd79 89b6 a928 6735 5c9b 35b5
00000020: 1077 8436 8176 d9b5 25e0 3e38 10dc 35b5
00000030: 31e5 ad37 1f9a 4738 87b4 1136 d8ed abb5
00000040: 0ebd 87b6 fec6 bc37 d913 74b7 0927 0136
00000050: 24db d6b7 1e12 0838 0f83 7d35 e76e 8e34
00000060: c146 6bb8 46d8 fb37 e98f 7eb6 ea7c 3238
00000070: 07ff 1338 766f 3138 e217 b737 efa5 edb7
00000080: fe9e d334 cb34 a635 7f30 5638 f513 8037
00000090: abdb 5a37 8892 23b7 385c 4db4 0b63 c0b7
000000a0: 87ab 0d36 2278 25b7 0c27 a8b5 1144 22b7
000000b0: 5f5a 0db8 7035 06b8 c8f6 e9b6 cfb7 d135
000000c0: a991 4137 9825 0f36 6955 e5b5 f544 cab5
000000d0: 2e52 1db8 6bf5 2cb5 1249 2b33 cee7 3135
000000e0: 58f1 28b8 aee6 3c37 ceff 32b5 5ce7 ce36
000000f0: 5e3a 3638 13a5 0337 f5c6 2539 01e4 ecb7
00000100: f451 d6b7 8375 e837 2e62 4739 561b 24b7
00000110: 6044 2c38 18ad 4cb7 2668 1bb5 ed4b 18b8
00000120: af29 53b5 c29b 80b8 ff2b 5938 fbc8 0b37
00000130: 9359 3938 3476 ca38 59eb 9235 8c97 0837
00000140: 81fd 5f37 701b 7439 2460 acb8 3c67 67b6
00000150: ad64 e9b8 8979 e737 e433 c436 4f07 ef35
00000160: efbb b8b8 4ce7 4737 2027 dfb6 a4f6 8f38
00000170: 6c81 2939 9876 0639 b86b 5939 704c 0ab9
00000180: f00f e437 e69a 3f38 fcee 2eb9 aae2 1739
00000190: f4ef 82b8 d855 0138 233e 4235 68e6 f638
000001a0: f6fa 1eb8 e103 e438 b994 bfb8 a636 5cb8
000001b0: a74a abb7 8535 f8b8 e87a 49b6 e9be 84b7
000001c0: 9a02 eeb7 3d2c c0b9 5762 3739 7ac4 f635
000001d0: 6d84 db38 daef 7a38 f0b5 97b7 5a2e cbb5
000001e0: e1ce 80b7 8226 6e37 61be 55b5 1831 2f39
000001f0: 38ac 0ab9 baf1 1fb9 da9a 5c39 d251 3539
00000200: d268 5838 8424 1938 d9bf f637 7534 bc38
00000210: 09c1 bbb6 8c6d 61b7 a451 2b34 0d77 3f38
00000220: 1145 f6b7 c327 d6b7 897a 97b7 e4b0 29b8
00000230: d556 21b7 50a6 58b6 2b38 f7b6 68cd f635
00000240: 8503 33b7 adea 2eb9 2bde bc38 342b fcb5
00000250: 93c5 0ab8 e0ed c737 92e5 84b6 9677 ddb1
00000260: 41aa 65b8 fd16 0338 9cff f5b6 61db 1639
00000270: c7e1 8438 443b fdb7 4670 4039 015c 3c37
00000280: 8296 8737 8861 67b6 2c88 0b38 6606 8d36
00000290: 7b10 1937 5965 7fb7 d11c 34b5 0c90 33b7
000002a0: 0d74 c1b5 799e 8336 2888 a137 e51e 7cb6
000002b0: 972d da35 ee02 08b7 be17 c4b5 d8de 3ab6
000002c0: 6204 5635 6743 ff36 5d26 6fb7 8599 90b5
000002d0: cdce 9ab7 7430 1f36 f78b b6b5 f165 7ab5
000002e0: d358 e2b7 f1fe 7ab5 430f 6d35 5d9d 5337
000002f0: dffc a437 66b1 1b38 e574 f9b4 bd5a d4b7
00000300: 4e93 ce35 4c5e bb34 02e2 3fb6 f0b4 8a34
00000310: 58fd 21b5 ab7b f733 7f7a cdb3 b1b4 ae35
00000320: 8796 80b4 06d4 0a35 9bb3 c9b4 12fb 29b1
00000330: f7f1 3f35 b853 5833 5712 bc34 0817 73b4
00000340: d6c1 05b5 222e 83b6 e517 d735 8631 c4b1
00000350: 3f44 2235 0c75 b435 78b4 8233 470c 1ab4
00000360: 4582 ec34 c122 c234 55a7 db34 173d f535
00000370: 89e1 79b5 efa0 edb5 be40 08b5 8069 aa35
00000380: d319 9138 3de9 a737 fd16 ebb7 3d9b 4eb8
00000390: 37ff 17b5 3896 87b7 8337 0cb6 b738 6b35
000003a0: b496 c136 8f0c 0937 a7db 6e38 b1a3 c5b5
000003b0: 00f5 1238 1b35 1938 ff7a 0937 2edf c2b6
000003c0: 9c0b 28b7 2051 24b8 0c00 66b6 8335 d232
000003d0: f739 9bb7 1155 4638 b1ba f835 ab76 0eb6
000003e0: f7ed 17b8 576b 5737 7f2c a336 a893 2338
000003f0: 57c0 ce37 03f1 2338 2279 53b9 9273 b3b7
