models/drone/policy_ego_rotor_best_iter8.pth (torch, 80800 bytes, 20 tensors)

lstm.weight_ih_l0 f4 [128, 12]
00000000: c350 e03d 9d3d 4fbc 28f8 9bbd 957e 953d
00000010: fc7a 0fbe 1040 b93d 7f48 fdbd 295e 6a3d
00000020: 8492 2fbd d5b3 b4bd 0d1b adba 2a02 abbc
00000030: fa1a b33d 740e 78bd 75c2 063d 41e1 d0bc
00000040: 8ae6 8f3c a84f 263c 1663 1e3e e4e2 283d
00000050: 2c89 75bd be9c 0abe 4e37 2ebd 1873 83bd
00000060: 3ec4 65bd e79f a4bd e640 c53c f470 f03d
00000070: b93e 48be 4adc 8b3d aa27 b13c 3ec0 2a3e
00000080: d0fd cf3d bede 3dbe 41e3 2ebe ae10 cfbd
00000090: 5ce9 f33d 4f1e b23c ef8d 903d e628 bcbd
000000a0: 2785 2c3e 7204 dbbd 3287 bb3d 3863 4f3c
000000b0: 9870 cdbd 4e50 c13d 7914 9cbd 9db0 de3b
000000c0: a1fc 89bd 0cb7 e5bc 91b9 90be fc74 0cbd
000000d0: 5a09 8c3d c31d 9fbd 0afc 533e abcc 813e
000000e0: b22b 98bd f3cd dfbd abc6 163e e5bf 1e3c
000000f0: d71f 36be b6c6 e43d 0d47 ff3c 4783 013e
00000100: e901 0bbe 7a52 6ebd d955 863c 5319 c53d
00000110: b4b4 02be d247 debd 8486 2e3e 1ca1 8fbd
00000120: e0be 693c bb08 1e3b f5e6 393d d299 ed3c
00000130: 9fb3 893c 996b 873d 2b91 29be 3dc9 b13d
00000140: 9f80 0ebe 6830 f6bd 76a8 283d f8b7 56bd
00000150: 203a 483d 768a d3bd cf91 66be 517a 0c3e
00000160: b13d 4ebd e4b4 9e3d 2566 f83b 1fd7 dbbd
00000170: eac3 dd3c 767b 413d bcef 40bd 64a7 d7bd
00000180: 5b40 8a3d 5e4e 7f3d 47a0 15bd f8b5 2cbd
00000190: 223b 203e 4fbf 59bd 682a b43d 7401 be3d
000001a0: a9b3 0abe 7867 39be 52ac 0e3e 18f9 f8bc
000001b0: c024 023e 3ad6 cc3c 6dda 4a3d 29da 463e
000001c0: b47d 0d3e 1d6a 18be 8278 37bd da05 cb3d
000001d0: 9ec0 d93d 44e3 fe3c 1fbb 28be 07a2 12be
000001e0: 9433 16be 854d ae3d b1d9 343e 2088 02be
000001f0: 0c15 d43d 8d2e d5bd d657 e0bd b718 da3c
00000200: 018a fc3d 0af7 553e 838d a1bd f4d8 993c
00000210: 6a6d 483e 5fda 273d 2617 2c3d bd07 503e
00000220: 4215 aa3d 61b9 d2bb 7828 1bbe 76b8 41be
00000230: e52d 07be d5da 58bd 8f44 e5bd 1529 293d
00000240: 0ab2 db3c c3db dbbd a6ec 8bba 463d 103d
00000250: 1dd7 6c3d f41a c53d d74d 96bd a8b6 283e
00000260: f8ec 36bd 27c7 e1ba 1d2b 05be 43b1 f7bd
00000270: 3d90 31bd bfcd 05be c0e0 043e 81fc 56bc
00000280: 627f 35be 1c73 183d 5986 a2bc 6c23 773d
00000290: 1036 0ebe 0319 9ebc 5d8a c7bd c5b6 72bd
000002a0: b28d 4fbe 07de 12be c0dc 08be d98c 0a3d
000002b0: ee01 ddbb 497c 963b 1d42 103e 8589 413e
000002c0: e334 da3d e3e6 d5bc 22bc d6bd cb95 ce3d
000002d0: 4768 48bc 9fac 40bd 1508 18be 6687 013d
000002e0: c126 28be ff2d ea3d a61f f6bd 5cca ebbd
000002f0: d904 04bd c501 13be 4a87 e93d c97a 03be
00000300: c699 d3bc c589 f93a 4f3f be3d b805 4ebd
00000310: 538f ab3d 5dd3 ad3d 092e 0d3e 7663 05be
00000320: f287 5a3c d820 23be 20b7 df3d a6e1 c8bd
00000330: 9322 243e 2ae5 fa3d cc24 b03b 00bd d0b7
00000340: f045 973d c46a ca3d 54cf 0f3d 3de6 cabb
00000350: 98cb 13be e70c 1d3e ab8d d53d bb7e 233e
00000360: a8e3 5e3e 9e83 6bbe c5f3 fbbd 3d27 613e
00000370: 60db 0abe 648b 023e e547 08be d39f 24be
00000380: 6749 703d cebc dcbd 40c9 01bc 213d 063e
00000390: 9fd8 fa3d 0d23 e83d cc45 8bbd 7fde 1cbe
000003a0: db23 4d3e c055 18bd 272f e9bd d329 f43c
000003b0: 1873 1fbe 4ff6 e13d c83a d43d 20de 04be
000003c0: b48c f1bd dea5 67bc 6282 b93d 616d 143c
000003d0: ca88 07be c8e9 63bc d93a e3bd 4736 83bd
000003e0: 9132 d9bd bf34 103e b05c 393e e48c b4bd
000003f0: 5a9b 92bc 8244 eeba 6f88 b6bc 0ad2 86bd
0.10952904 -0.012648967 -0.076156914 0.07299534 -0.14011759 0.09045422 -0.12367343 0.057218704
-0.042864338 -0.08823363 -0.0013206914 -0.020875055 0.0874538 -0.06056066 0.032900292 -0.025498034
0.017565984 0.0101508275 0.15467486 0.041232005 -0.05994527 -0.13536355 -0.04253321 -0.06418437
-0.056095354 -0.080383115 0.024078798 0.11740294 -0.19555177 0.06829126 0.021625359 0.16674897
0.10155833 -0.18542 -0.17078878 -0.10110603 0.11909744 0.021742968 0.07058322 -0.09187488
0.16847669 -0.10694207 0.09156646 0.012657933 -0.10031241 0.09439145 -0.07621092 0.0067959563
-0.06737638 -0.028041385 -0.28266576 -0.034291252 0.06837721 -0.077693485 0.20701614 0.25351462
-0.07430209 -0.109279536 0.14724223 0.009689306 -0.17785583 0.111707136 0.03116181 0.12647735
-0.13574947 -0.058184125 0.016398357 0.09623971 -0.12764245 -0.108535424 0.17043501 -0.07013151
0.0142667 0.002411409 0.045386273 0.029004011 0.016809283 0.066123195 -0.16559283 0.08680961
-0.13916253 -0.120209515 0.041176282 -0.05242154 0.048883557 -0.10329144 -0.22516559 0.13718535
-0.050351802 0.07749346 0.007580536 -0.107343905 0.027070958 0.047236882 -0.04710363 -0.10529974
0.06750556 0.062330596 -0.036529806 -0.042165726 0.15647557 -0.05316096 0.08797151 0.09277621
-0.13545097 -0.18105876 0.13932922 -0.030392215 0.12709332 0.025004495 0.049524713 0.19419159
0.13817483 -0.14884229 -0.04479266 0.099132255 0.10632442 0.031114228 -0.16477631 -0.14319621
-0.14668113 0.085108794 0.17661168 -0.1274724 0.10355577 -0.104092695 -0.109542534 0.026623113
0.1233101 0.20895019 -0.07888319 0.01878021 0.19572988 0.04097974 0.042014264 0.20315452
0.08304836 -0.0064307903 -0.15152156 -0.18918023 -0.13201101 -0.05294307 -0.11194717 0.041298945
0.026818294 -0.107352756 -0.0010675385 0.035214685 0.057822336 0.096242815 -0.073390655 0.16475928
-0.044659585 -0.001722549 -0.13004728 -0.12094357 -0.043350447 -0.13066767 0.1297636 -0.013121725
-0.17724374 0.03721915 -0.019839453 0.060336515 -0.1388781 -0.019299036 -0.097431876 -0.059256334
-0.20268896 -0.14342509 -0.1336546 0.03382573 -0.006744615 0.0045924527 0.1408772 0.18900116
0.106546186 -0.026111072 -0.10485102 0.100871645 -0.012231893 -0.047039624 -0.14846833 0.031623267
-0.16421033 0.11434554 -0.12017755 -0.11513206 -0.032231186 -0.14356144 0.114027575 -0.12839808
-0.02583016 0.0019038251 0.09289419 -0.050298423 0.08376946 0.0848758 0.13787092 -0.13026223
0.013338076 -0.15930498 0.109236 -0.09808664 0.16028814 0.12250741 0.0053754803 -2.4883542e-05
0.073863864 0.09883645 0.035109833 -0.0061919973 -0.14433134 0.15336953 0.10427412 0.15966313
0.21766531 -0.22999427 -0.12302355 0.21987624 -0.13560247 0.12748486 -0.13308676 -0.16076593
0.058663752 -0.10778199 -0.007921517 0.13109256 0.122483484 0.113348104 -0.06800422 -0.1531925
0.20033209 -0.037191153 -0.11385947 0.0298051 -0.15571249 0.11033308 0.10362774 -0.12975359
-0.11794415 -0.014138667 0.09058072 0.009059281 -0.13235775 -0.013910718 -0.11095209 -0.06406837
-0.10605348 0.14082621 0.18101764 -0.08815935 -0.017896343 -0.0018178376 -0.022281853 -0.065830305

lstm.weight_hh_l0 f4 [128, 32]
00000000: 5079 843c 8e09 303c 1b12 983d 6a64 933d
00000010: c4ad cb3d f91f 453d a38d b6bd 99cc b1bd
00000020: 1990 05be cc8d 523d 5598 47be e905 c1bd
00000030: 7b94 073e aa47 4b3d 6b3f 28be 92a3 b73d
00000040: f89a 81bd e7cd f13c 5595 bebd 8505 a7bc
00000050: a792 5c3d 28a8 2c3e bef1 993d 00e0 94bd
00000060: 4ebd 60bd 1e2f 88bd 64a3 cd3d 8860 bd3d
00000070: 2b88 32be 2a27 eebc 74fb 383c 7a68 8bbd
00000080: eb8c 053e 3e9a 8cbd 85b1 15be 9da7 cebd
00000090: 943a 91bb f56e 15be 08bb 4b3c 80c6 273e
000000a0: 2eee b9bc 414f 74bc 8525 313e 3fdc fb3d
000000b0: f38b 163e 1093 cebc 5355 2e3d 133c 1bbe
000000c0: dc47 fe3b 1b55 333e d6f3 b53c 5528 28be
000000d0: 1445 c73d 0e7b 2d3e 55fc 223e 1713 e13c
000000e0: ad9b 873c 8842 b7bb 2dd8 51bd 6e8c 33bd
000000f0: 24f4 113e 8d17 1a3d 0d1f 343e f5c2 f8bd
00000100: eaca 63bd 17c8 2e3d abf2 26be f239 2c3e
00000110: 270f c83d b04e 4ebd 88af 3a3e b658 413e
00000120: b0b8 c7bd c974 f53b 7592 213e 7b0c f2bd
00000130: 8a50 91bd d894 33be cf45 b43d 0432 51bc
00000140: 2c9d 803d 122c c33d 4a46 d1bb 400f 08be
00000150: 1eeb 783d eba7 08bd cd8d a23d 7e4d 163d
00000160: 8c99 7fbd 52b8 9ebd 9136 3b3d 865a bd3d
00000170: a45f 003d 08d1 923d 6bfb 5b3d e866 dabd
00000180: 16a4 c33c 3a62 713c 8fec 2dbe 3092 893d
00000190: ef67 7fbb 97fe 083e 6c62 29be 0a9e 4a3e
000001a0: d22e cabd b784 be3d ab3c ec3d 722e 64bd
000001b0: c93a d0bd 3fa4 66bd db20 11be 5c09 f53c
000001c0: 4893 ba3c 76a5 863c a19d 9cbd 8bbb ca3d
000001d0: 8937 033e b7bc 6fbd ec0b 373d 4d62 ccbb
000001e0: b2d5 bb3d 8138 d1bd 6d70 f7bd b76d 92bb
000001f0: a470 2dbe e0a9 683c a5b7 6b3e d54d 12bc
00000200: ad25 fc3b 619a 7e3c 17a9 00be b677 9c3a
00000210: 8806 cd3c 19b3 2a3e 365f dcbd 0a6f 6c3c
00000220: b911 2bbe 77f5 18bd a761 5cbd 52ad d0bd
00000230: 7acf a63d 5c3f b13d 388c 14be 8371 35bd
00000240: 2a36 9fbd 6aab 35bc df34 d63d 6051 2c3e
00000250: c270 24be ef24 cc3c a744 19be e0a6 28be
00000260: f210 5b3e b271 4cbd a6ab edbd 85c6 933d
00000270: 6a15 bfbd 825a 45be b777 90bd 87c6 91bd
00000280: a020 38bb a1e9 dfbd 0b06 50be 81af 083e
00000290: 7a51 54be ae18 c2bc 95be 293e 8ae2 33bd
000002a0: 2d01 15be 3a9e b73d fa95 fb3d 310e 3fbd
000002b0: 76a4 65bd ff70 a23d b3da 43bc 9435 153d
000002c0: e6b7 9f3d 75bf 843d c03e febd c0ce 49bd
000002d0: 543f f23d 3982 22bb 1b60 f43c d156 023e
000002e0: 3b42 f93d e05c 9e3d ecfc 193e 2d84 24be
000002f0: bfc3 aabc d976 a63c 5d1f af3c 842f 99bd
00000300: 8fad 6c3d 4841 03be 72ec babd 51ff 243e
00000310: ec15 a4bd 4729 52bd 6311 d03d 0383 afbc
00000320: 91a4 ce3c 9ea4 3bbe e6d4 c83d b76c 11be
00000330: 0fbd babc 17ee 24be cff1 3fbe 1cc6 153e
00000340: 6f91 d1bd 9de6 3abc 0880 50bc d01c 3a3e
00000350: 1cd2 1e3d e8c2 973d ddd5 8abd 3963 b8bd
00000360: 14e3 0c3e c8f2 df3d 1be5 6d3d 5b21 09be
00000370: cdda 28be 7ef2 a23b e031 8abd 8a0b 0a3e
00000380: 4f29 f03d a32d 35bd aab2 0cbe 6e8a 3b3e
00000390: dba2 f1bd 9c0f 19be 5860 c2bd 1d35 3d3d
000003a0: 2f56 423d 81a8 ef3d 012a fe3d 51c0 9b3d
000003b0: 9349 32bc 7ec7 233e 41d1 fcbd c271 03bd
000003c0: 22ca 0d3e 2035 87bd 7a8b aa3d 0930 453d
000003d0: 61d0 503d 5993 88bd abe8 27be 3fcb cb3d
000003e0: 3550 273e 41cb 17be d26e 69bd 5457 db3b
000003f0: a272 873d 0687 68bd bddb 54bd 40f8 173e
0.016171128 0.0107444655 0.07425328 0.07196887 0.099452525 0.048126195 -0.08913734 -0.08681602
-0.1304325 0.05140476 -0.19491704 -0.094249554 0.13240235 0.04962889 -0.16430442 0.089667454
-0.06328386 0.029517127 -0.093058266 -0.020388374 0.053850796 0.16861022 0.07516812 -0.07269287
-0.054868035 -0.06649612 0.1004093 0.092469275 -0.17434756 -0.02907141 0.01129042 -0.06807037
0.13042037 -0.06865357 -0.146185 -0.100905634 -0.004432032 -0.14593108 0.012434728 0.16384315
-0.02269658 -0.014911474 0.17299469 0.12297868 0.14701824 -0.02521661 0.04256184 -0.15159635
0.007760031 0.17512934 0.022210997 -0.16421635 0.097299725 0.16941473 0.1591657 0.027474923
0.016553724 -0.005592648 -0.051231552 -0.043835096 0.14253289 0.037620116 0.1758997 -0.1214656
-0.055613436 0.04267129 -0.16303508 0.1681898 0.09768515 -0.05036801 0.18231022 0.18881497
-0.09752023 0.0074907285 0.15778525 -0.11818787 -0.0709544 -0.17537248 0.088023774 -0.012768272
0.06279978 0.0952989 -0.006386553 -0.13287067 0.0607711 -0.033363264 0.079372026 0.036694996
-0.062402293 -0.0775 0.045706335 0.092457816 0.03134121 0.07168776 0.053706568 -0.10664159
0.023881953 0.014732892 -0.16984771 0.06717336 -0.0038971861 0.13378368 -0.16541451 0.1978685
-0.098722115 0.09302657 0.11535009 -0.055708356 -0.101674624 -0.05630898 -0.1417269 0.02991169
0.022775307 0.01643632 -0.07647253 0.09899052 0.12814154 -0.058529582 0.044689104 -0.0062373043
0.091716185 -0.102158554 -0.120819904 -0.0044686454 -0.169375 0.014200658 0.23019274 -0.008929689
0.007694921 0.0155397365 -0.12564503 0.0011937532 0.025027528 0.16669883 -0.107603475 0.014430771
-0.1670598 -0.03734347 -0.053804066 -0.10189308 0.08145042 0.08654663 -0.14506614 -0.044297706
-0.07774003 -0.011088232 0.10459303 0.16827917 -0.16058639 0.024919955 -0.14967595 -0.16469908
0.21393183 -0.049913116 -0.11605005 0.07215599 -0.09330256 -0.19272807 -0.07054084 -0.07117944
-0.0028095618 -0.10933233 -0.20314805 0.133482 -0.20734206 -0.023693409 0.16576608 -0.043917216
-0.1455123 0.08965726 0.12284465 -0.046644393 -0.056065045 0.079317085 -0.011953997 0.03642805
0.07798748 0.0648183 -0.12414312 -0.049269438 0.11828485 -0.0024796857 0.029830983 0.1272843
0.121708356 0.07732558 0.15037888 -0.16066046 -0.020845292 0.020320343 0.02137726 -0.07479766
0.057782706 -0.12817872 -0.091271296 0.1611302 -0.08011994 -0.051308896 0.10159566 -0.021424776
0.025224956 -0.18324515 0.09806232 -0.14201628 -0.022795228 -0.16106449 -0.18744586 0.14626354
-0.102328174 -0.011407522 -0.0127258375 0.18175054 0.038774595 0.07410222 -0.067790724 -0.090033
0.13758498 0.10934979 0.05807982 -0.1339163 -0.16489716 0.004972755 -0.06747794 0.13480964
0.11726629 -0.044232976 -0.1374003 0.18314525 -0.1179864 -0.14947361 -0.09491032 0.04619323
0.047445472 0.117020614 0.12410355 0.07605041 -0.010881799 0.15994069 -0.123445995 -0.03209091
0.13846639 -0.0660193 0.08327384 0.048141513 0.050979976 -0.06668729 -0.1639735 0.099508755
0.1633919 -0.14823629 -0.056990452 0.00669376 0.06613661 -0.056769393 -0.05196737 0.14840794

lstm.bias_ih_l0 f4 [128]
00000000: 6d29 883d 7f89 8abd 07ab 9b3c 746a 9ebd
00000010: 7fa3 01be 408f 143e de37 01be f218 b73c
00000020: b298 3ebe 19c2 963d 8618 073e 286f 57be
00000030: 92f1 16be e95b 5abe 7d76 7a3c 6e84 48be
00000040: 7e93 813d ae28 3a3e c7f1 64bd 3042 843d
00000050: a1c9 14be 7b5b b33c 2501 80bd a1b3 4a3d
00000060: 307f 2f3e 9fc0 09be 5c90 74bd b4a0 d3bd
00000070: 0dd4 bd3d f0a1 2f3e 5d52 3cbd cbdf 6b3e
00000080: 511f 6d3d 01b2 0fbd 1432 683d bfa6 e93d
00000090: cd93 dcbc ca7a 1fbe 2d39 213d 7e42 2dbe
000000a0: 4d26 1ebd d90c 17be b242 2b3e 05da f9bd
000000b0: 2599 e8bd 4c5b 303d e421 15be d962 0c3e
000000c0: 9459 943c 6b5e e23d d8a7 0abe 0c9c d9bc
000000d0: 64b0 8d3d 6339 4f3d 2e69 19bd 2b0f df3d
000000e0: e1f8 983d a6d1 16bd 93b6 55be f9f3 0f3e
000000f0: cda8 123e 73aa c6bd 80a0 76bc e05d 403e
00000100: c4f3 cf3d eff7 35bd 32a4 b23d c99e e3bd
00000110: 9f6e 343d 0ecd 2dbd 640e bf3c 6b10 843d
00000120: 1402 38bc f772 263e 09cd abbc 7383 f0bd
00000130: bcab 1d3e 0d25 49bd 0d3a 0cbd 33b5 b83c
00000140: de48 3b3d 45d7 99bb 9d27 e0bd 8356 8dbd
00000150: e167 0abd 8e86 ca3b 7387 1abe 128b 0b3e
00000160: 90cb 0ebb d0db 233c 8acc f93c 6e3c e93c
00000170: 02dd 8a3d dc00 9ebc 8fc9 d6bd edf2 45be
00000180: 8bf0 253d 1f40 1f3e 281d bd3d bef3 31be
00000190: 7dc4 e73d 7fef 293d 0e0e 34be 2091 0b3e
000001a0: 26ba 083e 581b 083e 443b 1cbe 6d2a b3bd
000001b0: 6915 eabb 06e1 fabd 664c 33bd 73b1 85bd
000001c0: 4e68 753c edf6 0fbe 5b06 49bd c070 043e
000001d0: 38d2 d03d a205 a83c 678a 08be 8193 15be
000001e0: c3a4 153e 91d4 a53c 89f1 60bd ac7a 0cbe
000001f0: ff81 8fbd c012 35be 924b d53c 470c 0a3a
0.06648526 -0.067645065 0.01900245 -0.07735148 -0.12660025 0.1450777 -0.12618968 0.022350762
-0.18612936 0.0736124 0.13192949 -0.21038496 -0.1474059 -0.21324123 0.015287039 -0.19581768
0.0632696 0.1817958 -0.05589464 0.06457937 -0.1453004 0.021894207 -0.06250218 0.049487714
0.17138362 -0.13452385 -0.059707984 -0.10333386 0.09268961 0.17151618 -0.045976985 0.23034589
0.057891194 -0.035081867 0.056688383 0.114087574 -0.026925946 -0.15574184 0.039361168 -0.16919896
-0.038610745 -0.14750995 0.16724661 -0.12199787 -0.11357335 0.043055817 -0.1456371 0.13709582
0.01810912 0.11053165 -0.1354059 -0.026563667 0.069184095 0.050591838 -0.037453823 0.10891565
0.07469345 -0.03682103 -0.20870428 0.14057912 0.14322205 -0.09700479 -0.015052915 0.1878581
0.101539165 -0.0444259 0.08722724 -0.1111427 0.04405081 -0.042431884 0.023322292 0.06448444
-0.011230964 0.16254793 -0.020971792 -0.11743822 0.15397543 -0.0491076 -0.03423505 0.02254734
0.04572379 -0.0046948516 -0.10945056 -0.069012664 -0.033790473 0.006180591 -0.15090732 0.1362727
-0.0021788813 0.010001138 0.03049304 0.028471198 0.06780435 -0.01928752 -0.10487663 -0.1933095
0.040512603 0.15551804 0.09234077 -0.17378137 0.11316774 0.041488167 -0.17583486 0.1362958
0.1335226 0.13291681 -0.15256983 -0.087483265 -0.0071436656 -0.12249951 -0.04377403 -0.065279864
0.014978481 -0.14059038 -0.049078327 0.12933636 0.10196346 0.020510498 -0.13334046 -0.1460705
0.14613633 0.020242961 -0.054917846 -0.1371867 -0.07007217 -0.17682934 0.026037011 0.00052661117

lstm.bias_hh_l0 f4 [128]
00000000: d588 8fbd fbbc 653d 4541 5cbb 0dd6 9d3c
00000010: 732e d23d b4f9 fbbd 18fa d2bc d9d9 043e
00000020: d766 06bd 1aaa 7dbc 6cb8 fd3d 13da d9bc
00000030: 5ca3 35bd 98a1 533d f05b 093d e038 53be
00000040: 3081 783d 073a a1bc 7050 7ebb 805a 2ebc
00000050: 9bc3 e53d b7e0 3fbe 9c36 043d ae39 263d
00000060: 9017 0abe 787f d0bc ea6d 733d 9198 fd3c
00000070: 2cd3 0c3e ee09 1f3e 800f 083e 8b50 7c3e
00000080: 641f da3d 4bfc 16bd bee6 9fbd 2555 26be
00000090: 3f1c a0bd 89f9 303d bb53 a93d 4392 073b
000000a0: cf55 753d c807 023e 2d96 f43d 3cc7 973c
000000b0: 5c8d 21bd bf98 42be 24ae 923d d79b e5bd
000000c0: 347a 60bc b0b5 1e3e 0003 153e 20a0 22bd
000000d0: 1a38 e83d aa8e d63d db5a 0abe a633 92bd
000000e0: 312c 6f3d 0533 033e 8174 2cbe dd65 8bbd
000000f0: 3510 103e 4e12 0b3e 227b cbbd 128e 573e
00000100: 431b 8cbc d66d 5cbd 061b b73d 1f94 013e
00000110: 08cd ccbd c166 fcbd 5f08 f73d cfce d7bc
00000120: 25c8 ae3d 034f ecbd 0828 bcbd 831c e03d
00000130: 6a0e 4c3c 7fa5 2dbd b333 67bd a0b5 aa3d
00000140: 26da 3a3d efd8 17be 5b21 913d b1eb 2c3d
00000150: cf28 91bd 4e38 e83d 19d9 a13d 61c6 943d
00000160: 4ddd 0abe 54f4 db3d 2362 24be 3354 90bd
00000170: 07c3 a13d 6f65 e4bd bb11 9a3c 8c9a bf3c
00000180: c110 35bc 91f0 f63d d4f0 f4bc bb04 84bd
00000190: fd61 e63d 3d20 8dbc 0d5d f6bd c41a cfbd
000001a0: 1277 373d a911 26bd 7fd9 f4bc 0754 ea3c
000001b0: a1bc 3fbe d179 babd 3464 53be 5f48 bdbc
000001c0: dab4 263c 262d cf3b 33f8 57bc 0bf1 f23c
000001d0: 268c 8c3c a81a ac3c 7b90 d4bd ace2 e33d
000001e0: b9e9 89bd 4874 b03d c39d 013e 317d 0a3d
000001f0: bdb1 dfbd b2a6 4dbd fff6 5abe b93e 10be
-0.070085205 0.05608843 -0.003360824 0.019267106 0.10262766 -0.123034865 -0.02575402 0.12973727
-0.03281292 -0.01548245 0.12388691 -0.026593244 -0.044345245 0.05166778 0.033534944 -0.20627165
0.060670078 -0.01968099 -0.0038805269 -0.010641694 0.112189494 -0.18738066 0.032278642 0.04058235
-0.13485551 -0.025451407 0.059430994 0.030956538 0.1375243 0.15531132 0.13287163 0.246401
0.106505185 -0.0368617 -0.078076825 -0.16243418 -0.078178875 0.043206725 0.082679234 0.0020686544
0.059896287 0.12698281 0.11942706 0.01852762 -0.03944145 -0.1900358 0.07162121 -0.11211365
-0.0137010105 0.15498996 0.14551926 -0.03970349 0.113388255 0.1047643 -0.13511221 -0.071387574
0.058391754 0.12812431 -0.16841318 -0.06806538 0.14068682 0.13581201 -0.09935595 0.2105029
-0.017102843 -0.053815685 0.08940701 0.1265416 -0.10000044 -0.12324286 0.120621435 -0.026343731
0.08534268 -0.11538508 -0.09187323 0.10942938 0.012454608 -0.042394157 -0.05644579 0.083354235
0.0456182 -0.14828847 0.0708644 0.04221696 -0.07087862 0.11338864 0.07902736 0.072644
-0.13560982 0.10739961 -0.16053061 -0.0704731 0.07898527 -0.111521594 0.018807283 0.023389123
-0.011051358 0.12057603 -0.029899992 -0.06446215 0.112491585 -0.017227286 -0.12029467 -0.10112527
0.04479129 -0.040544186 -0.029888866 0.02860452 -0.187243 -0.09105266 -0.20643693 -0.023105798
0.010174954 0.006322521 -0.013181734 0.029655954 0.017156672 0.021008804 -0.1037912 0.111272186
-0.06734032 0.08615929 0.12657838 0.033810798 -0.10922573 -0.0502078 -0.21383284 -0.14086427

hidden2out.weight f4 [3, 32]
00000000: 1823 b2bc e776 273e b2bd 39bd b031 01bd
00000010: cc3c 2a3c 0e32 abbd 40ae 8ebd 71f9 08be
00000020: 7b6f f63c dc0f a53d 4330 0b3e b64f 17be
00000030: e09c ad3d 435c e2bd dabe 4b3d 7fd4 d2bd
00000040: 1f69 a0bd e80f f7bd 97cd 0a3e be23 0cbe
00000050: fdde ec3d db90 1c3e 5dac a6bd 306e c63d
00000060: d084 183e cc6f 1dbe ff55 ecbd 3d29 033e
00000070: ad04 c3bd a41d 0a3e 9c17 d1bd 210d a3bc
00000080: 6a5a a1bd 2f89 b93c b4cf 97bd e99c c6bd
00000090: e1e2 5d3d bf59 cdbc 04f1 0abc 215b 78bd
000000a0: 61c4 c13d 029f d33d ea14 f33d 00ab 06be
000000b0: cac8 02be c769 c0bd 6385 c0bb 6e9c 873b
000000c0: 1f38 73bb 6cda 893d dbb4 d03d 0c2f 8d3d
000000d0: 6d6c 4fbb c6d3 17bd d8f3 86bc 02f1 82bc
000000e0: e628 f6bd 3582 353d 1d04 10be e31c 0d3e
000000f0: 84b1 083e 8d3e 23bc 5dc3 ddbd ebb9 84bd
00000100: e93d b43b 08e9 143e a847 f93d f8c8 f13c
00000110: 44a6 ea3d 09bf 29bd 3186 b3bd 8a1c babd
00000120: 91d5 01bd a596 7fbd 255c 243d 2419 273e
00000130: eb1c 193e 0dca 0abe c704 7b3d 191d 6abd
00000140: 18a8 ce3d 8eaf 1bbe 74f1 9fbd 28cd c33d
00000150: f837 03bd dfca 8bbd 4578 2c3e 2c49 d3bd
00000160: 4240 b9bd dbdb 513d b4fa 9e3d af18 13be
00000170: 9cb5 1d3e 864e 1bbe b9ce ad3d 93fe 1dbe
-0.02174525 0.16353951 -0.045346923 -0.031541526 0.010390472 -0.083591565 -0.06966829 -0.13376404
0.030082455 0.080596656 0.13592629 -0.14776501 0.08477187 -0.11052754 0.049742557 -0.10294437
-0.0783255 -0.12063581 0.13554989 -0.1368551 0.11565969 0.15289633 -0.081383444 0.09688985
0.14894414 -0.15374678 -0.1153984 0.128087 -0.09522376 0.1348787 -0.10209581 -0.019903721
-0.07878573 0.022648422 -0.07412663 -0.09697897 0.054171447 -0.025067208 -0.008480314 -0.060633782
0.094612844 0.10333063 0.118692234 -0.13151169 -0.12771907 -0.093951754 -0.005875276 0.004138521
-0.0037112308 0.06731114 0.101907454 0.06893739 -0.003165032 -0.037067197 -0.016473696 -0.015984062
-0.120195195 0.04431363 -0.14064069 0.1378055 0.13348967 -0.009963644 -0.10828278 -0.064807735
0.0055005443 0.1454202 0.121718705 0.029514775 0.11457494 -0.04144195 -0.08765829 -0.09087475
-0.031697813 -0.062399525 0.04012694 0.16318184 0.14952438 -0.13553639 0.061283853 -0.057156656
0.10090655 -0.15203688 -0.078097254 0.09560615 -0.032035798 -0.06825804 0.16842754 -0.10316691
-0.09045459 0.05123506 0.077626616 -0.14364885 0.1540131 -0.15166673 0.08486695 -0.15429144

hidden2out.bias f4 [3]
00000000: e187 8c3c e2af e3bd 9287 0bbe
0.017154636 -0.11117531 -0.13625935

std_layer.weight f4 [3, 32]
00000000: 7f0b 323e e284 963d 250d 18be e1e4 1ebe
00000010: 609d 1abc 42df e83d 3e54 c93d 20fe fe3b
00000020: 98df bb3c a7ea 05be d6c1 dc3d 8074 9bbc
00000030: 7dc5 11be cc33 05be 3829 15bd 2c0a e4bd
00000040: 7264 69bd e9a0 303e 4008 f93b f27e c4bd
00000050: 8f20 0d3e 8d06 283e e0b7 8c3c 803b 91bb
00000060: 80a6 ab3c a8f0 11bd f06c 063d a0a3 613d
00000070: bba1 083e 8263 aa3d 3845 0e3d d018 5abc
00000080: 533d 0a3e 8ce0 923d d07c 653d 8af6 f73d
00000090: bc7f 153d a455 4abd 34eb 383d deec b3bd
000000a0: e6ec dd3d daea 66bd 0c19 253d e8f2 4a3d
000000b0: a688 07be ef22 17be 46d4 f83d 81b2 32be
000000c0: e871 7dbd 1abc ce3d f0f7 333d 1970 2d3e
000000d0: 5296 31be b099 7b3d 796c 89bd 361a 973d
000000e0: 7d8b 043e 6233 f53d f173 33be 5722 80bd
000000f0: ee73 fd3d a27f 873d 8426 13be aa9f de3d
00000100: eeb0 fb3d 48bb afbd 3c10 58bd a369 02be
00000110: 420a 09be 0149 a7bd ac5d 29bd c079 8b3b
00000120: c60b dc3d 2746 223e 1079 9e3c 7eb3 d63d
00000130: 42d0 d73d 40b5 0d3d bb6f abbd 426f 913d
00000140: 08de e13c 8aa7 0fbe f6ce 63bd acec 8dbd
00000150: 28a5 7d3d f589 a7bd 2ae1 973d 10ac 20bc
00000160: 605e f7bc 78b6 8b3d 122b dd3d 8cbf 5e3d
00000170: c068 f73c e0bd 31bc 044e 01bd 32e0 b03d
0.17387198 0.07349564 -0.14848764 -0.15516998 -0.009436935 0.11370708 0.09830521 0.007781759
0.022933766 -0.13077794 0.10779159 -0.01897645 -0.14235492 -0.1300804 -0.036416262 -0.11134753
-0.056980558 0.17248882 0.0075998604 -0.095945254 0.13781951 0.16408749 0.017177522 -0.004432142
0.020953417 -0.0356299 0.032818735 0.055087686 0.13342945 0.08319761 0.03473398 -0.01331158
0.13499956 0.07171735 0.056027234 0.121075705 0.03649877 -0.04939808 0.045146182 -0.08785413
0.108362004 -0.056376316 0.04030709 0.04954806 -0.13235721 -0.1475942 0.12149863 -0.17450906
-0.061876208 0.10094471 0.043937624 0.16937293 -0.17342499 0.061425865 -0.06710143 0.07378046
0.12943836 0.11972691 -0.17524697 -0.0625655 0.123756275 0.06616141 -0.14370161 0.10870297
0.12289606 -0.08580643 -0.052749857 -0.1273561 -0.1338282 -0.08168221 -0.041349098 0.004256457
0.10744433 0.15847073 0.019344836 0.10483454 0.10537769 0.03459668 -0.0837092 0.07101299
0.027571693 -0.14028755 -0.055617295 -0.06929907 0.061925083 -0.0818061 0.074159935 -0.009806648
-0.030196369 0.068219125 0.10799231 0.054381892 0.030201316 -0.010848492 -0.031568542 0.08636512

std_layer.bias f4 [3]
00000000: 44db 13bd 0936 093e 92a3 e43d
-0.03609778 0.13399519 0.11164011

exp_avg f4 [128, 12]
00000000: b57a 61b8 f8c8 7338 ab46 a739 fe3b 88b9
00000010: 4e16 5939 5948 2c3a 187b 4b3a f8fe 1d39
00000020: b564 a139 bf57 323a 9c04 d439 b1cb 3a39
00000030: 5a00 173a e853 253b 5ee3 b83a 2ecc a5bb
00000040: 4cb6 f23a d634 4d3c 7cad 053b 42bc 0bba
00000050: c8d8 d0b8 0f09 913b de1a 81bb 9018 b73b
00000060: db9b ad3a eee6 a23a 32a3 8b3a de32 84b9
00000070: c4cc 953b a407 dd3b 2aa7 083b 586c 9839
00000080: d4af ac39 6219 f2ba 1511 7bbb 8f9b 353b
00000090: 43d6 b4ba 4295 63ba 59ef 7b3a 9b56 19bb
000000a0: 774f 67bb 347f ee39 48cf 8bb9 3232 16ba
000000b0: 687d 9339 90c0 c3ba a884 ff3a e44c 1d3b
000000c0: 1183 9dba ec19 aaba a1f3 8b39 9b10 c339
000000d0: 0e16 3dbb 00b5 85bb 56d0 9fba 1587 3aba
000000e0: 0dfb 803a 49ce a4ba ea8c c83a 52bd c33a
000000f0: 2cc8 9eb9 3cfb 81b8 f915 c4b9 8f54 60ba
00000100: c416 34ba cd8a 96ba 77cd 2dbb 18e7 f6ba
00000110: a71d 7139 b381 7bba f49b dbba b469 e13a
00000120: 8bc8 1f3a b0ec f7b8 70d7 caba 93e3 aa3a
00000130: 5ec6 7b3a f93a 56bb 04a1 99bb a92a b4ba
00000140: fe00 b8ba bbed b4bb 1c31 4fbb b832 32bb
00000150: e218 63b8 89c3 d8b9 f841 5fba 59cd ac39
00000160: 6a07 cfb9 b75c 53bb 2a1e 82bb 64bc efba
00000170: a586 8839 7ba5 2cbb 0b26 abba 249e 7c3a
00000180: 0d0c 81ba 42de 3dba 5825 113a daa4 b5ba
00000190: 51f1 c1ba 9866 6a3a c18e 8abb b20c 07bb
000001a0: 52b6 75ba 2384 cbbb d6be 33bb a560 48ba
000001b0: b0af 853a 0d01 0d3b ec8d 9739 a2bc 40bb
000001c0: 4959 1e3b 23ef 0e3c c9af c9b9 5f89 cc39
000001d0: dd30 b3b9 a440 273b 7d1f 9dbb 82f2 133b
000001e0: 56be 55ba 5e20 79ba 1cec 0dba a41e 7239
000001f0: dcbc 39bb 6a71 8cbb 2e0b 3ebb b725 65ba
00000200: 3b99 b138 d36d 36bb 3dac 3a3a c436 1d3a
00000210: 570c d83a 3c35 293b bb90 cc39 5794 67bb
00000220: 5e96 a53b a9f6 443c e418 fdba cb23 99ba
00000230: dafb 77b9 d2f3 913a 1201 f0bb dd22 c93b
00000240: ec83 9f3a 97f5 eeba 6282 70bb c525 1f3c
00000250: ba49 a63b 673d 9abc eab8 b1bb 8e06 74bb
00000260: 6de2 1f3a 2739 8fbb b4d2 f7bb 41ba 01bc
00000270: 33e6 a13b b8ee b53b 9ff3 ffb9 1403 19bb
00000280: 2be9 663c 2cbd a23c 7f1f 1f3b 249e 123b
00000290: e0a1 16bb e92f aa3b 1c21 17bc 3785 3fba
000002a0: fc94 7fba 701d adba 1528 36b8 e239 db3a
000002b0: e4bb 1bbb 7e80 c5bb 4351 39ba 048c 2bba
000002c0: ccfa b83a 1b74 fe37 6b77 0a3b b70c 6a3a
000002d0: 224b e33a befa 393b 0415 b23a 0fa5 90bb
000002e0: f4ae bb3b 547f 813c 35b2 9a3a 1f50 013a
000002f0: 73d2 9aba 4053 633a 20aa bebb b8c2 4b3b
00000300: 15d7 6c39 d9a5 4839 d90e 0639 3d8d db39
00000310: 7cc9 f538 061d a838 e547 0f3b 64f8 983a
00000320: a3bd b439 83c3 d83a feba f93a 93d1 f339
00000330: 94c9 9fba b502 ee38 56f5 0a3b eafb 7bbb
00000340: d31b fcba bdef e53b 6e3c ccb9 d54e 55ba
00000350: a6de 443a 2fa4 053b 5a26 3539 a1a9 933b
00000360: cd1a 773a 839b 803a 5530 d53a f7cb 983a
00000370: 204e 8e3b e5f7 ce3b 524f be3b 4561 0a3b
00000380: e7b9 a53a 3972 cc3b e825 84ba bda7 343b
00000390: d277 4c39 50d1 42ba e947 d9ba b7bf 683b
000003a0: 7917 17b8 32ed 05bc 4690 e7ba fe01 bcba
000003b0: 0c53 18ba ffff a9b9 a0fc f5ba 3c63 b5bb
000003c0: c395 913a 9ae5 123b c840 d83a 298a 9ebb
000003d0: 56c7 863b 161c 663c c84e 2a3a d28e f6b9
000003e0: d762 17ba 1973 7cba 1f3d 9ebb f378 933b
000003f0: 9f16 61b9 bfdd 58ba cbef 1eba 9085 303b
-5.375846e-05 5.812288e-05 0.00031905374 -0.0002598464 0.00020703042 0.000657206 0.0007762178 0.0001506767
0.00030783346 0.00068032363 0.00040439225 0.00017814223 0.0005760245 0.0025227014 0.0014105847 -0.0050597405
0.0018517463 0.012524804 0.0020397594 -0.0005330482 -9.9585915e-05 0.0044261287 -0.0039399704 0.005587645
0.0013245301 0.0012428442 0.0010653494 -0.000252149 0.004571529 0.0067452956 0.002085159 0.00029072422
0.000329374 -0.00184707 -0.0038309742 0.0027711128 -0.0013796765 -0.0008681604 0.0009610556 -0.0023397568
-0.0035295167 0.0004548967 -0.00026666583 -0.00057295256 0.0002813146 -0.0014934707 0.0019494491 0.002400213
-0.001201721 -0.0012977696 0.00026693664 0.0003720567 -0.0028852257 -0.004080415 -0.0012192826 -0.00071154657
0.0009840444 -0.0012573685 0.0015300785 0.0014933741 -0.00030285248 -6.1979954e-05 -0.00037400404 -0.0008557522
-0.00068698474 -0.0011485458 -0.0026520172 -0.0018837182 0.00022994597 -0.0009594217 -0.0016754852 0.001719764
0.0006095252 -0.00011821964 -0.0015475582 0.0013037793 0.0009604449 -0.003268896 -0.004688384 -0.0013745624
-0.0014038382 -0.0055215037 -0.0031614965 -0.0027190875 -5.414419e-05 -0.00041344416 -0.0008516605 0.00032959392
-0.0003948764 -0.0032251307 -0.003970881 -0.0018290398 0.0002604026 -0.0026343751 -0.0013057602 0.0009636602
-0.000984551 -0.0007242897 0.00055368757 -0.0013858334 -0.0014796649 0.0008941679 -0.0042284434 -0.0020606932
-0.0009373176 -0.0062108203 -0.002742698 -0.00076437957 0.0010199454 0.002151552 0.00028906704 -0.002940931
0.0024162105 0.008724007 -0.00038468678 0.00039012262 -0.00034177947 0.0025520707 -0.0047950135 0.0022574966
-0.00081536674 -0.0009503419 -0.0005413906 0.00023090333 -0.0028341329 -0.004285981 -0.0028998363 -0.00087412767
8.468559e-05 -0.0027836456 0.00071210024 0.00059972354 0.001648317 0.0025819084 0.00039017745 -0.003533622
0.0050533256 0.012021699 -0.0019309786 -0.0011683641 -0.00023649578 0.0011135286 -0.0073243463 0.006138189
0.0012170053 -0.001823115 -0.0036698808 0.009713595 0.005074707 -0.018828107 -0.005423655 -0.0037235352
0.0006099109 -0.0043708268 -0.0075629596 -0.007917942 0.004940772 0.005552139 -0.00048818902 -0.0023347782
0.0140936775 0.019865595 0.0024280248 0.0022372091 -0.0022984669 0.0051936996 -0.0092242025 -0.00073059223
-0.00097496784 -0.0013207626 -4.342951e-05 0.0016725624 -0.0023763115 -0.0060272804 -0.0007069299 -0.0006543996
0.0014112829 3.0333225e-05 0.0021128308 0.0008928286 0.0017341117 0.0028378214 0.0013586585 -0.004414208
0.005727643 0.015807785 0.0011802377 0.00049328984 -0.0011811986 0.0008671768 -0.0058186203 0.0031091403
0.00022586838 0.0001913527 0.00012784767 0.00041876166 0.0001172004 8.01627e-05 0.002186292 0.0011670706
0.00034473566 0.0016537759 0.001905292 0.00046504717 -0.0012190812 0.000113492286 0.002120336 -0.0038449713
-0.0019234366 0.0070171044 -0.00038954936 -0.0008137052 0.0007509984 0.002039205 0.00017275792 0.0045063053
0.0009426296 0.0009811971 0.0016265014 0.0011657466 0.0043428093 0.0063161724 0.0058077956 0.0021115106
0.0012643904 0.0062392023 -0.0010082098 0.00275658 0.00019499593 -0.00074317027 -0.0016577217 0.0035514662
-3.6023066e-05 -0.008174228 -0.0017666898 -0.0014343855 -0.0005810715 -0.00032424924 -0.0018767305 -0.0055355113
0.0011107255 0.0022414685 0.0016498799 -0.0048382473 0.004113118 0.014044782 0.00064967247 -0.00047027186
-0.0005774921 -0.0009630188 -0.0048290635 0.0045005023 -0.00021466099 -0.0008272789 -0.00060629536 0.0026935078

exp_avg_sq f4 [128, 12]
00000000: be18 ae35 e044 b435 e2bb c735 fb22 af36
00000010: a56c 5537 7b6e 1638 e971 4936 8020 2b35
00000020: f659 9835 4313 a337 2489 b736 9cd3 8537
00000030: c5bf 9936 0e3c 6637 28cb ae36 b607 0b38
00000040: 6415 6538 bebe 8739 8bf2 0038 c9fc 5137
00000050: 9416 0137 f115 ab38 660f 4b38 4043 b738
00000060: 54bd 1e38 aa4f 0539 41c3 aa38 4c2b f439
00000070: 1914 063a 0006 593b 2daf b738 0382 8738
00000080: 46e2 4338 5888 c83a 86ce ca39 4879 b63a
00000090: 4b5d bb37 1105 0838 72ba e837 f064 2439
000000a0: 637e 6239 98d2 763a 2b1a 9037 520e 5a38
000000b0: 5890 6a37 0970 9039 76f0 5f39 d6a7 e539
000000c0: 24f8 3d37 72a7 9337 39af 6336 2af4 c837
000000d0: 26d7 0f39 575e c439 a28d 0536 ef4b 7036
000000e0: 10e3 3e36 dae4 0e38 e348 8438 2399 9138
000000f0: cdd0 0437 2a21 8937 6ef4 9b37 d50c de38
00000100: c2e9 2938 ea87 f639 2166 8637 58bb 1537
00000110: dff0 ea36 1400 8939 c1a9 f637 495b 4b39
00000120: a699 5a36 f03d e136 f3a8 6b37 6e6d 9137
00000130: d569 0137 4115 a138 2ade 1e38 dd7a 1137
00000140: ffe6 6637 d774 a338 7806 7237 b498 4938
00000150: cd8f 4937 2afe 7738 6c76 2e38 06a8 9c39
00000160: 0590 0339 0e81 ba3a 51f4 9c38 f686 5038
00000170: 5a95 c737 4432 1c3a 6a97 0c39 8951 2b3a
00000180: 9a49 5736 e2e9 cf36 54ac ed36 43bb 0838
00000190: 918b 9d37 9499 3139 758a 1d38 7383 0d37
000001a0: 210c d436 6df9 ed38 56e1 1d38 57c0 9e38
000001b0: b1d1 cf37 0e20 0438 693e bf37 4387 3438
000001c0: b239 5639 0004 043a 9e7e 0b38 1a9e 8b37
000001d0: 84b0 c837 d751 5239 07c6 0039 e425 1939
000001e0: 94d3 0b37 e9ac 1937 5baa 0d37 68ec 1338
000001f0: eacc 8d38 eea7 4539 6f0b bc37 ef28 4337
00000200: 27ff d236 7aca 9d38 fb44 5c38 48d6 be38
00000210: 71b1 6d38 41a9 6038 9ace 4c38 6b3b 9138
00000220: 574c e939 053f 4f3a bde3 5438 dcfa 4d37
00000230: 4856 2738 ac4d 2d3a e987 5e39 ef6b fc39
00000240: 9983 a738 c7cc cd39 c599 1a3a f1b5 563b
00000250: 8aec ee39 0f12 743c f985 c439 0858 7739
00000260: fce6 6439 8bdf 083c a408 633a aa84 e83b
00000270: f051 f938 160e 8c39 25f6 8f38 7380 383a
00000280: d62d c03a 3c9c c93b ac68 4b38 40f9 d138
00000290: 2181 3e38 486b 1f3b 3271 943a 7309 023b
000002a0: 3ae9 be36 a348 f437 d3b2 6637 22b1 c838
000002b0: ff68 e238 7b82 4f3a 1bd6 a436 e1a7 a337
000002c0: c144 8736 e926 a438 edd7 f038 eb4f 5a39
000002d0: 08ab c337 2d5a 4938 a67f fd37 19d8 3439
000002e0: b5d8 8e39 fcc6 b23a 8cab 6c37 9089 8137
000002f0: e1ff 2d37 e9ca 5939 6478 4039 5f7e 9139
00000300: 7884 2436 0c33 8236 fa11 6836 2df2 7637
00000310: 588a 9037 6aa7 a838 fd52 3337 2285 5b36
00000320: f2d4 2336 a854 5a38 8e22 6937 d0e7 2338
00000330: 4820 8736 2ae2 be35 41d1 ae37 eb62 3c38
00000340: ae44 1737 55ac 4839 33ae 1937 0dfe 3336
00000350: 1364 e836 96e6 0438 fb6d 7136 1e70 c338
00000360: d4f3 9938 6df3 4d38 6a6b 4438 f9ea 9539
00000370: 9b82 b239 836a 763a 9a04 ae39 380c 5f38
00000380: 158c 5738 7a7f 143b e799 c839 4672 343a
00000390: 44a7 9437 a883 4e37 38ef ec37 5895 cd38
000003a0: d946 c038 b46f c739 8d78 3c38 7406 cf37
000003b0: 92c4 7737 28a1 4639 67b5 a838 16d5 4c39
000003c0: 923c 9736 b79d 0c37 c32b 0737 9f11 2338
000003d0: 2baf 3138 0b8a 7939 e7ed dc36 0581 9a36
000003e0: 0d3d 4d36 c229 2238 24e1 ec37 6218 8a38
000003f0: 73d3 f336 79d5 4737 801c 1b37 e708 9c38
1.2971211e-06 1.343109e-06 1.4881336e-06 5.2194787e-06 1.2721085e-05 3.586568e-05 3.0017638e-06 6.374976e-07
1.1351065e-06 1.9440084e-05 5.4697903e-06 1.5953374e-05 4.5820802e-06 1.3723051e-05 5.2092546e-06 3.3147364e-05
5.4617776e-05 0.0002589132 3.0743464e-05 1.2516227e-05 7.694256e-06 8.158002e-05 4.8413312e-05 8.738646e-05
3.784646e-05 0.00012713546 8.1426006e-05 0.00046571565 0.0005114689 0.0033115149 8.758749e-05 6.461518e-05
4.6702356e-05 0.0015299423 0.00038682314 0.0013921643 2.233558e-05 3.2429645e-05 2.7743376e-05 0.00015677861
0.00021600122 0.0009415536 1.7178323e-05 5.1988587e-05 1.39810945e-05 0.00027549293 0.00021356516 0.0004380333
1.1323053e-05 1.7601738e-05 3.392763e-06 2.3955556e-05 0.00013717692 0.00037454322 1.9900986e-06 3.5806986e-06
2.8444374e-06 3.4068573e-05 6.307827e-05 6.942663e-05 7.916428e-06 1.6347116e-05 1.8591261e-05 0.00010588175
4.0510444e-05 0.0004702204 1.6021602e-05 8.924711e-06 7.0017845e-06 0.00026130734 2.9404533e-05 0.00019393595
3.2573967e-06 6.712733e-06 1.4046428e-05 1.7336304e-05 7.71364e-06 7.681037e-05 3.7877042e-05 8.67128e-06
1.3762851e-05 7.794209e-05 1.442583e-05 4.806435e-05 1.2014015e-05 5.9126098e-05 4.159512e-05 0.00029879826
0.00012546785 0.0014229135 7.484167e-05 4.9716757e-05 2.3792196e-05 0.0005958418 0.00013407847 0.0006535282
3.2080338e-06 6.1963083e-06 7.083212e-06 3.2599328e-05 1.878085e-05 0.00016937248 3.7560665e-05 8.43486e-06
6.3195043e-06 0.000113475 3.7641577e-05 7.569853e-05 2.4773968e-05 3.1501106e-05 2.2798036e-05 4.3041317e-05
0.00020430124 0.00050359964 3.3258104e-05 1.6643713e-05 2.3924054e-05 0.00020057648 0.00012280802 0.00014605332
8.3343075e-06 9.159769e-06 8.443919e-06 3.52677e-05 6.761572e-05 0.00018849943 2.241667e-05 1.1632436e-05
6.2881913e-06 7.5240576e-05 5.251633e-05 9.099819e-05 5.667046e-05 5.356339e-05 4.8829803e-05 6.925206e-05
0.000444981 0.0007905814 5.0756837e-05 1.227736e-05 3.989626e-05 0.0006611 0.000212222 0.00048145602
7.9876925e-05 0.00039253218 0.0005897547 0.0032762254 0.00045571133 0.014896884 0.0003748385 0.0002358855
0.00021829823 0.008354078 0.00086606503 0.007095893 0.00011888507 0.00026713376 6.864619e-05 0.00070381834
0.0014662098 0.006152658 4.8496455e-05 0.00010012323 4.541979e-05 0.002432542 0.0011325239 0.0019842058
5.6895924e-06 2.912089e-05 1.3750704e-05 9.569737e-05 0.00010796077 0.00079158664 4.912506e-06 1.9509289e-05
4.0313175e-06 7.827377e-05 0.00011484311 0.00020819872 2.3325454e-05 4.8006117e-05 3.0219391e-05 0.0001724664
0.0002724581 0.0013639624 1.41066375e-05 1.5442056e-05 1.037118e-05 0.00020770323 0.00018355396 0.0002775071
2.4515011e-06 3.8802445e-06 3.4581158e-06 1.4719129e-05 1.7230559e-05 8.0420476e-05 1.0688554e-05 3.2711037e-06
2.4412843e-06 5.2054093e-05 1.3895928e-05 3.907812e-05 4.0270716e-06 1.4221926e-06 2.0839858e-05 4.4914817e-05
9.016292e-06 0.00019137685 9.16007e-06 2.6820956e-06 6.925789e-06 3.1686002e-05 3.5975816e-06 9.319208e-05
7.341025e-05 4.9102517e-05 4.683008e-05 0.00028594563 0.00034048114 0.0009400027 0.00033191295 5.3178723e-05
5.1390456e-05 0.002265899 0.0003826164 0.0006883483 1.7720864e-05 1.230921e-05 2.8244787e-05 9.802979e-05
9.16847e-05 0.00038039463 4.4934965e-05 2.4679328e-05 1.4768115e-05 0.00018942787 8.044653e-05 0.00019534337
4.507202e-06 8.381371e-06 8.056816e-06 3.887864e-05 4.2363226e-05 0.00023797915 6.5842064e-06 4.6045775e-06
3.0582917e-06 3.86627e-05 2.8238232e-05 6.5848944e-05 7.2665803e-06 1.1911027e-05 9.245356e-06 7.440318e-05

exp_avg f4 [128, 32]
00000000: 88b2 6a37 363d 78b8 3cb9 b738 39c5 4cb6
00000010: e50b 12b7 47ee 3ab7 588a 41b8 33ac 48b8
00000020: e3f6 8bb7 2ca7 0337 84a6 1538 4908 96b7
00000030: 8c57 ff37 6596 c2b7 74be a837 ebd2 a837
00000040: a64f a538 9136 9038 bce7 feb7 9555 0db8
00000050: 13a8 aab7 5f37 e7b7 6fbc 1cb8 b1fe 9f38
00000060: 6406 31b8 900c ecb6 dbee 6eb7 c7e1 aab7
00000070: 57ea 2338 957a 0d38 a91e efb8 6007 c3b8
00000080: 82f8 4239 ac98 c0b8 fe84 9139 4d23 91b9
00000090: c34e 21b7 8729 7fb9 eeb7 0eb9 9505 bdb9
000000a0: cff9 3238 22c9 0ab8 8e43 fb39 61c7 bb37
000000b0: 18d5 4a3a c44b a839 c123 9939 4515 7a39
000000c0: b371 8439 40d5 8f3a a9b0 b3b9 e209 9db9
000000d0: f2d6 90b9 9082 053a aedf 06b8 2ad4 9539
000000e0: f4c9 8fb9 9d00 b9b8 2c35 a136 288a 49b8
000000f0: f91a 4a3a fa59 273a 0066 ddb9 1c5a 24ba
00000100: 509e ff38 abf7 93b9 5dbe 023a 5719 32b9
00000110: 7763 4b37 d3f2 65b8 6c9a 4bb9 8a95 4fb9
00000120: 46d4 92b8 48f9 5cb8 3b7d a437 db99 ac38
00000130: 7858 cf39 2036 0ab8 b375 6a39 c3ff cf38
00000140: 618f ad39 2e0c 123a 1015 79b9 0a0e 0fb9
00000150: 173a 51b9 6f46 0eb9 8ba3 6eb9 fae4 8e39
00000160: dee1 e5b8 c113 feb8 07f3 0cb8 22e7 1ab9
00000170: 18aa c639 0f95 8139 dea2 8fba b0d4 20ba
00000180: 5841 04b8 b000 ee38 21ad 3839 7a46 0d39
00000190: b484 45b8 5d9d c5b8 0b67 aeb8 d663 d9b8
000001a0: 3410 3237 d6be 2339 d183 f037 1aff bab8
000001b0: c088 8f38 87cd 6db8 8d15 d238 6469 0d38
000001c0: d24b 5d38 1bd3 7039 ba49 adb8 713a 92b8
000001d0: bf7a b2b8 1cf7 2a39 8797 4fb6 71ee c038
000001e0: 0eef bbb9 0aa4 c1b7 fd00 8bb7 e419 af38
000001f0: df85 dc38 2b40 1839 82c3 0d3a 0379 89b8
00000200: cb20 07b9 60c0 1a39 5132 e738 af1c 3539
00000210: 98bd afb8 2337 6e37 c0af a8b4 7c22 d438
00000220: facd 03b8 b9b3 2939 1026 beb8 b7fe b1b7
00000230: 4826 1ab9 42cd 0ab9 d376 e0b7 0955 d9b8
00000240: 876e 0db9 be55 58b9 9086 8138 c824 b638
00000250: 3443 76b7 16de e5b8 438e 9937 d9e1 52b8
00000260: f08d 88b9 781c de37 11b2 0db7 3a05 f338
00000270: 0929 96b9 2612 eab8 dbc4 e939 3a61 3839
00000280: 0a3f 01b9 5183 5b39 c970 3eb9 c765 cb36
00000290: 8afd ad37 d8a2 ea38 2a44 4139 42c5 2d39
000002a0: bd4b 4138 a290 2438 c5bc c6b7 fcf2 1638
000002b0: 8da8 7f38 57f9 df38 bbd0 f8b7 6fdd c6b8
000002c0: f935 7bb9 be4f 14b9 8a8c fb38 d028 c738
000002d0: a9f6 0e39 c6da 1e39 fa9e 3e39 fd19 9ab8
000002e0: 87b7 99b8 1481 0838 4471 cb37 4f36 ed38
000002f0: a5a5 cab8 7efc b5b6 3ebb a039 b8ff a539
00000300: 73d2 c0b8 4ac6 1d39 bb0c d7b9 a678 30b8
00000310: 9845 1039 3d33 3b39 2011 9639 6c66 9839
00000320: 8d76 e638 5371 e6b8 79d9 7eb9 4b05 b038
00000330: 5333 1eb9 be62 cb38 ec90 d9b8 6497 dcb8
00000340: 1da0 a5b9 4c0c ffb9 a226 8339 1dc2 3539
00000350: ef15 5e39 0840 d938 9cf0 7639 5a85 6eb9
00000360: 9aa1 ba39 d6dd 0538 bf0f 5038 29a7 aa38
00000370: ffd5 ceb8 fa7f 8bb9 e142 df38 8f53 003a
00000380: faf1 6fb9 4fce a739 0b7a 9cb9 67fa da37
00000390: 901f 3c38 d5b6 3039 2caa 8e39 5552 9139
000003a0: 1b6f 8238 32df 1eb8 53e7 08b9 9c75 5238
000003b0: 8670 7ab8 0041 c138 dc04 a6b8 7874 34b9
000003c0: f18b b8b9 0b1d adb9 247c 7539 d26e 3239
000003d0: 187b 8e39 f002 e237 1d19 4a39 f315 39b9
000003e0: 6d9c d638 6bf0 3537 46ce 5a38 228e dd38
000003f0: c1c7 61b9 ef9f 12b9 191c e139 3cde 043a
1.3989054e-05 -5.9184815e-05 8.7606226e-05 -3.0513168e-06 -8.705048e-06 -1.1141942e-05 -4.614363e-05 -4.784409e-05
-1.6685057e-05 7.847131e-06 3.5679448e-05 -1.7885252e-05 3.0439136e-05 -2.3196635e-05 2.0115847e-05 2.0125377e-05
7.882649e-05 6.876619e-05 -3.038707e-05 -3.3696724e-05 -2.0343845e-05 -2.756313e-05 -3.736879e-05 7.629151e-05
-4.220604e-05 -7.0348106e-06 -1.4241518e-05 -2.0370715e-05 3.9080474e-05 3.3731183e-05 -0.00011402119 -9.299698e-05
0.00018593858 -9.183711e-05 0.00027755642 -0.00027682856 -9.614686e-06 -0.00024334165 -0.00013610694 -0.00036053048
4.267116e-05 -3.3089083e-05 0.00047924783 2.238498e-05 0.0007737442 0.00032099907 0.00029209073 0.00023849781
0.00025261714 0.0010973588 -0.00034273163 -0.00029952737 -0.00027625967 0.00050930027 -3.2156408e-05 0.0002857757
-0.00027425552 -8.821602e-05 4.804364e-06 -4.8050802e-05 0.0007709708 0.0006383952 -0.000422284 -0.0006269531
0.000121888355 -0.00028222552 0.0004987473 -0.00016984843 1.2122901e-05 -5.4824002e-05 -0.00019417115 -0.00019796766
-7.0013615e-05 -5.268425e-05 1.9608638e-05 8.230257e-05 0.0003954803 -3.295217e-05 0.00022359825 9.9181685e-05
0.00033103957 0.0005571273 -0.00023754337 -0.00013642773 -0.00019953433 -0.00013568414 -0.00022758373 0.0002725495
-0.00010961642 -0.00012115343 -3.3604938e-05 -0.00014772688 0.00037892233 0.00024715855 -0.0010958572 -0.00061352085
-3.153211e-05 0.000113488524 0.00017612103 0.00013473062 -4.709205e-05 -9.423003e-05 -8.31616e-05 -0.00010365962
1.0613399e-05 0.00015615983 2.8671611e-05 -8.9166875e-05 6.844243e-05 -5.6696616e-05 0.000100175945 3.3715172e-05
5.276112e-05 0.00022966827 -8.2630155e-05 -6.972708e-05 -8.510565e-05 0.00016304519 -3.0933604e-06 9.1996866e-05
-0.0003584553 -2.308378e-05 -1.6570551e-05 8.349473e-05 0.00010515353 0.00014519754 0.0005407856 -6.555209e-05
-0.0001288682 0.0001475825 0.000110243105 0.0001727219 -8.379965e-05 1.4198743e-05 -3.1420313e-07 0.00010115371
-3.1424664e-05 0.00016184048 -9.066996e-05 -2.1218655e-05 -0.00014700845 -0.0001323717 -2.6758213e-05 -0.000103632054
-0.00013487983 -0.00020631307 6.1762636e-05 8.685287e-05 -1.467839e-05 -0.00010960938 1.8305267e-05 -5.027824e-05
-0.00026045693 2.6477719e-05 -8.445714e-06 0.000115881165 -0.00028640803 -0.0001116137 0.00044587892 0.00017583827
-0.00012325883 0.00020934387 -0.00018161828 6.06172e-06 2.074127e-05 0.000111883215 0.00018431307 0.0001657205
4.6085323e-05 3.9235347e-05 -2.3691342e-05 3.5989084e-05 6.0953713e-05 0.00010679912 -2.9661102e-05 -9.482621e-05
-0.00023957332 -0.00014144086 0.0001199479 9.4966614e-05 0.00013634063 0.00015149554 0.00018179035 -7.348133e-05
-7.329793e-05 3.254514e-05 2.425223e-05 0.000113111564 -9.662964e-05 -5.4236143e-06 0.00030657084 0.00031661778
-9.194473e-05 0.00015046555 -0.0004101748 -4.2074033e-05 0.00013758836 0.00017852797 0.0002862299 0.0002906801
0.000109893364 -0.00010988363 -0.00024304343 8.39332e-05 -0.00015087174 9.6981865e-05 -0.0001037436 -0.00010518616
-0.00031590546 -0.00048646552 0.0002501505 0.00017333818 0.0002117974 0.00010359293 0.00023550022 -0.00022747126
0.00035597087 3.1916272e-05 4.960573e-05 8.137368e-05 -9.862705e-05 -0.00026607496 0.00010645926 0.00048952637
-0.0002288296 0.00032006434 -0.00029845568 2.6104228e-05 4.4852088e-05 0.00016852778 0.00027211139 0.00027717897
6.219578e-05 -3.7878002e-05 -0.00013056146 5.0177434e-05 -5.970944e-05 9.215064e-05 -7.916402e-05 -0.00017209526
-0.0003519948 -0.0003301877 0.00023411267 0.00017016687 0.00027176063 2.6942667e-05 0.00019273577 -0.00017651152
0.00010233452 1.0844417e-05 5.2167357e-05 0.000105645755 -0.00021532086 -0.00013983225 0.0004293628 0.0005068516
