models/drone/policy_opp_rotor_best_iter8.pth (torch, 80800 bytes, 20 tensors)

lstm.weight_ih_l0 f4 [128, 12]
00000000: b580 0cbe 04e3 fc3d 3dc7 72bc df37 ba3d
00000010: bc0a 343e a654 1f3c 2ca6 6ebd 933d b7bd
00000020: e2ba 35bd fd49 ee3d 9fa7 b93c b356 853c
00000030: a9ff 6abe 5398 2b3b 5143 553e cf54 ddbc
00000040: 592c 123d 70b5 21be 18b0 c2bb 6cc2 873e
00000050: 9b16 c73c 925d 1fbd 3eb1 033e b905 40be
00000060: 05c8 65bc b3b6 7abd a695 1e3e 8321 e9bd
00000070: 0441 df3d 08a6 4abd 0465 2ebd 462b 36bd
00000080: 11aa c33d ee8f 0abe 2a1f 26be 61aa cdbc
00000090: 0537 e9bc 2b11 ce3d fee0 5dbd d257 78be
000000a0: c337 003e 3131 31bd ecef 313e 6737 2abe
000000b0: 813b f23c d888 493d a826 333e 8fe2 b5bd
000000c0: dba7 05be 6a4f 11be b860 463e 0962 20bc
000000d0: 26c2 28be 0140 5bbd bdb6 cd3d 090b 0ebe
000000e0: 2e27 ee3d 1486 1d3e 9a37 d53d 587c 3a3e
000000f0: a81c b2bc 2154 cb3d 25dc 15be a352 c33d
00000100: 972f a93d c3cb 083e 848e 0e3e 316e 183e
00000110: 802e ee3d 233a d7bd 70c3 b83b 77f5 00be
00000120: 7796 e13d 8ee9 5cbd 7c26 d5bd ac79 de3c
00000130: a429 f33c be74 f6bd 1eda 38be e4f4 9e3d
00000140: a09e ac3c d53e 203e 30f3 763d 320a d63d
00000150: 7f14 3cbe b883 e6bc 17b6 0b3e 941d ba3c
00000160: 7c14 05be 5515 a6bc 0eec 62be 630a 2bbe
00000170: 9aa6 11be b191 e6bc fba1 4cbe ea21 3b3d
00000180: 90c0 e6bd a197 3fbe 8967 b6bd d7d4 9e3c
00000190: fe40 993d bed7 6cbd d047 1fbe 80f7 b6bd
000001a0: ab80 4b3e 087f dbbd d706 17bd e504 203d
000001b0: 9fe1 02be d1bb b4bd c12f bd3d b1c9 aabd
000001c0: c134 9b3d e9f0 1d3e 2301 b13d 2889 9a3e
000001d0: e86c 1b3e 8e99 d6bd 1489 1a3e 6802 0e3e
000001e0: 9f75 dabd 6ab9 0b3d 84c8 c3bd 29ad a3bd
000001f0: 6346 06be e0c0 95bc 44cd 9dbe 3a8c d43d
00000200: 1134 61bc a644 a8bd ccf7 33be 68c2 553d
00000210: 7975 88bd 264a 4a3e 205c d4bb 9950 b5bd
00000220: e287 233e d71b 223e 66a3 26be dd87 d8bd
00000230: 2d8c 8ebd 3a4a f0bd 4a12 48bd 6c74 d7bd
00000240: 8e5c 62bb 5a09 52be 2995 dabd 5268 7bbd
00000250: 102d 32bd 0c54 683d 7acf 65be daaa 773e
00000260: aa92 01be 8e12 e33d 898b 683e 773c 363d
00000270: ab8b b7bd 07b6 13be a6de 043e d344 e33d
00000280: 8edf 46be b968 063e befc 07bd 123a eb3d
00000290: 451f 093e 8577 53bc 8667 bcbd 2e10 02be
000002a0: 9202 73bd 5b1b 25be eff7 b9bd ce3e 15be
000002b0: a1de 143e 392d 65be c0dc 5ebe 627b cc3d
000002c0: 9d74 583e 5c74 ea3d 7f86 033d 8fe4 db3d
000002d0: 73a5 e5bd 1489 693d f989 5a3d f6c7 1cbe
000002e0: 8a54 2c3e f258 aa3d 8157 093e 7b9d 5c3e
000002f0: ae91 103d e518 a2bd 78d9 193e 5cd8 c2bc
00000300: 9808 75bd aaeb 673e 8d9d c6bd 38a2 fe3c
00000310: c64a 443e ad72 dc3d a8a8 d2bd cf75 0fbe
00000320: 412a 9bbd 1dc3 8c3d 1d2d 443d 2c52 a33d
00000330: 01f3 a8bd ac09 febd 9d91 a43c 9e5d ac3d
00000340: e78f ff3d 3fef b8bd 1a63 c23d ad39 d63d
00000350: 053c 333e ea17 053b 014b 85bd 2da8 233e
00000360: b197 ec3d 945c 033c 6564 4abc 946b 04be
00000370: d1ca 31bd 50c2 153e 63aa 5a3d 73b5 18be
00000380: 2866 31bd 97e4 49bc b529 03be 23e2 efbd
00000390: c102 9c3c fda1 ff3d 04fa 50bd 2750 2abe
000003a0: 9750 c53d b44c 2cbe 640f 043c 010a b4bd
000003b0: 41a2 b1bd 5e37 673d 6a82 3a3e b745 1fbe
000003c0: 1fed b83d 16c9 1dbe 7f95 1fbe b416 623d
000003d0: e2e0 85bd 912c 523d 896c c73d 4d83 80bc
000003e0: 1756 1bbc 377d 6f3c 1c2e 8bbb 8df7 abbd
000003f0: e269 843d 51c3 1abe 5617 aabc ee92 f6bc
-0.13720973 0.12347987 -0.01481801 0.09092688 0.1758222 0.009724772 -0.058263943 -0.08947291
-0.04436768 0.11635206 0.022662936 0.016276693 -0.22949089 0.0026183322 0.2082646 -0.027017979
0.035686824 -0.15791869 -0.005941402 0.2651552 0.024302771 -0.038907595 0.12860581 -0.18752183
-0.014024739 -0.06120939 0.15486774 -0.11383345 0.109010726 -0.049474746 -0.042576805 -0.044474863
0.09553922 -0.13531467 -0.16222826 -0.025105657 -0.028468618 0.10061868 -0.054169647 -0.24252251
0.12521271 -0.043259803 0.17376679 -0.16622697 0.02956939 0.04920277 0.17495215 -0.08881103
-0.13052313 -0.1419045 0.19372833 -0.009788998 -0.16480312 -0.053527836 0.1004462 -0.13871397
0.11628567 0.15383178 0.10410996 0.18211496 -0.02174218 0.09928156 -0.1463476 0.09537246
0.0826103 0.13358979 0.13921553 0.14885785 0.11629963 -0.105091356 0.0056385323 -0.12593637
0.11015027 -0.053933673 -0.10407731 0.027157627 0.029682942 -0.120339856 -0.18051955 0.07761553
0.021071732 0.15648969 0.060290515 0.10451163 -0.18367194 -0.02813898 0.1364368 0.022719182
-0.12996095 -0.020273844 -0.2216036 -0.16703181 -0.1422371 -0.028145643 -0.19983666 0.04568664
-0.11267197 -0.18710186 -0.089064665 0.0193886 0.074830994 -0.057822935 -0.15554738 -0.08933926
0.19873302 -0.10717589 -0.036871757 0.039067168 -0.1278138 -0.08824886 0.09237624 -0.08339251
0.075784214 0.15423931 0.08642795 0.30182767 0.15178263 -0.10478507 0.15091354 0.13868105
-0.10666966 0.03411237 -0.0955973 -0.07992012 -0.13112788 -0.018280447 -0.30820668 0.103783086
-0.013745324 -0.08216219 -0.17574996 0.052187353 -0.06663031 0.19754848 -0.0064807087 -0.088532634
0.15969804 0.15830933 -0.16273269 -0.10572789 -0.0696033 -0.117329076 -0.048845567 -0.105202526
-0.003454003 -0.2051138 -0.10672981 -0.061378784 -0.043500006 0.05672078 -0.22442427 0.24186268
-0.12653604 0.110875234 0.22709478 0.044491258 -0.089621864 -0.14424907 0.12975559 0.110971116
-0.19421217 0.13125886 -0.033200018 0.114856854 0.13390835 -0.012906914 -0.09199433 -0.12701485
-0.059328623 -0.16123717 -0.09080493 -0.1457474 0.14538051 -0.22380532 -0.21763897 0.09984471
0.21138234 0.11447975 0.032110687 0.107369535 -0.112131976 0.057015494 0.053354237 -0.15310654
0.16829124 0.08317746 0.13412286 0.21544449 0.03529518 -0.079149045 0.15024364 -0.023784809
-0.05982265 0.22648492 -0.09698019 0.031083211 0.19169149 0.1076406 -0.10286075 -0.14009784
-0.07576419 0.068731524 0.047894586 0.079746574 -0.08249474 -0.124041885 0.020088965 0.084162936
0.12478619 -0.090300076 0.094915584 0.104602195 0.17503364 0.0020308443 -0.065084465 0.15982123
0.1155237 0.008017678 -0.0123530375 -0.12931663 -0.04340631 0.14624906 0.05338515 -0.14912967
-0.043310314 -0.0123225665 -0.12808879 -0.11713054 0.019044282 0.12482069 -0.051019683 -0.16632138
0.09634512 -0.16826135 0.00806031 -0.087909706 -0.086735256 0.056449287 0.18213812 -0.15553938
0.09029602 -0.1540874 -0.15584372 0.055197433 -0.065370336 0.051312033 0.09737498 -0.01568761
-0.009480975 0.014617256 -0.00424744 -0.08396826 0.06465508 -0.1511357 -0.02076308 -0.030099358

lstm.weight_hh_l0 f4 [128, 32]
00000000: 0486 6fbc dc05 0ebe e578 a2bc 0218 edbc
00000010: ccfd e83c 8d4c af3c 86f2 1e3d 5e5a 64bd
00000020: 50df 4fbe fff8 0e3d 56b2 d1ba 006b f4bd
00000030: 60c6 4bbe fa1d c63c 79d4 fcbd 4eb9 9fbd
00000040: 8111 b13d 6a08 9e3a 2f42 8c3c 37c5 3c3e
00000050: c586 76bd a8fd 2abe b7d3 dfbd 7ac3 233c
00000060: b154 86bc 9c40 273e a342 b4bc ff47 a93b
00000070: dd58 c13d 889f 2c3d bdca e1bc 1640 b53d
00000080: cf6d f7bd 1eee 0dbe 54cc 503e 48a4 e8bc
00000090: 6dbe 14bc c1df acbd 446f 64bd 2fa1 cebd
000000a0: e180 db3c 3e8a 253d 0cd4 0ebe 562d 2f3e
000000b0: 1ca5 45bd fb20 0dbe d14d 893c 3fad c9bc
000000c0: 2657 f7bd c09a fbbd 7b2d 73bd e9a0 19bd
000000d0: 012a f4bd a127 613d 8b38 2bbe 19e7 0a3e
000000e0: 79d2 333e c373 bebc 78f2 123e 814f 173e
000000f0: 356f 053e e5dc eebd 8c45 893d fe5e 113d
00000100: 3c32 07be f6c7 043d afb2 b13d b23f f33d
00000110: ed10 67bd 64e6 283e 98ac d2bc ca61 b23d
00000120: 4a6c e6bd 9070 9abd a1cd f53d f09b 1b3e
00000130: 2525 f2bd 4bf6 febd a5eb 83bd d626 ebbd
00000140: 889f 9a3d a89e ccbc d51e 163c 002f 6e3c
00000150: 6d9b 23be 3eb3 ad3d d57f 79be 6c87 efbd
00000160: 1f6c 2cbd 75d1 33be 2b4a ac3c febf b5bc
00000170: aa39 17bc 4601 c6bd 58ff 283e 8116 bf3d
00000180: d444 cc3c c9ba 0abe 6788 023e d7d1 7d3c
00000190: eb50 0ebe c56b 5dbd 2709 b43c 965d 353e
000001a0: 9259 b0bd b1a7 a33b 1e3c 803d 2569 14be
000001b0: 1c4f be3d a2ad f53b 8169 0a3c f70a 17be
000001c0: 0497 b3bc 866f 0b3e e030 2b3e e6c9 683e
000001d0: 8718 f73d d23b db3d de0b 1c3e 48ab 24be
000001e0: 47b8 a53d ec16 983d beaa 7b3d ac9f 88bd
000001f0: 44d8 32be cfe2 d73d 6cfc 0dbe ea32 473e
00000200: 487b aa3d 42a0 a4bc e296 1abe 2146 e8bd
00000210: 5495 41bd e03a ec3d 2c06 85bd 3bc1 bd3d
00000220: 6d8b 25be 0ac3 42be 9940 5a3e d53a ce3d
00000230: 0d23 40be 0204 1dbe a63c 333e e461 afbd
00000240: 154f 953c d2ad 173d 3e73 d5bd 4602 c4bc
00000250: 6189 29bd e453 99bd a0a7 e53d c5d3 9b3c
00000260: a1b4 c63d e41c 173e 4d92 b53d c644 163d
00000270: 6f3f a13d f99c 493b 1e29 0f3e 6fb8 09be
00000280: 1bdd 3e3e f13a d03c 7b68 4cbe 999b 4e3d
00000290: 68cb 863d 2f4b d9bc 3002 d8bc c270 6cbe
000002a0: 9b8a 223e 6db6 a2bd 1d8d 2ebe 0a53 c2bd
000002b0: c7d9 e1bc 0704 63bd aaa8 1fbe 0afb 7dbd
000002c0: 364f 103c dac8 f3bd 407f 3e3d 5d3a 29bc
000002d0: aa52 b83b 45c9 8ebd 57d8 21be 66ba 753d
000002e0: 3342 183e 02a3 083e b8da f7bc 6508 89bb
000002f0: 895a 88bd d559 2abd 11bc 0bbe 3302 8b3b
00000300: b207 01bc b7d7 eabc 275a 8fbd 83e5 2bbe
00000310: b6ba 02be 69f5 f63d 19ad 3cbd 5b11 e3bd
00000320: 62ff 19be ca1f a5bc 56b6 0ebe a4d7 2c3c
00000330: 66bf 51be 645b 073d 3867 273e ee9a 32be
00000340: deb8 d03d 70b2 00be e9f3 74bd 2404 adbd
00000350: 9aaf 393d 28e8 2a3d d077 5a3e f18c ba3c
00000360: 825b 563c 8a1d 05be 8b7c 5e3e e62a 393c
00000370: 3352 ef3d 5d32 a83d fc3c 18be 46e7 1a3e
00000380: 5edc 0bbd 5e0e 22bc cb13 98bd 84d1 0f3d
00000390: 667b 09bd 1653 babd 4840 23bd 87c4 ad3d
000003a0: 25cb 1a3d 37bb 61bd 5fca b63d f437 793e
000003b0: 6259 553c 6855 e03d 92e9 4d3d 0d80 1abe
000003c0: 06b9 63be 886d 08bc e5ce 45be b415 32be
000003d0: b01e aebd c39e 21be ebe5 e9bd faac d7bc
000003e0: 293f 043d e184 6f3d 8dcb d4bc 9206 053e
000003f0: 5d1a a8bd f44c 013e b4dc 813e bd44 0f3e
-0.014619354 -0.13869423 -0.019833038 -0.028942112 0.028441332 0.021398807 0.038805507 -0.055750243
-0.2030003 0.03490543 -0.0015998583 -0.11934471 -0.19899893 0.024184216 -0.123452134 -0.07799016
0.08645917 0.0012056951 0.017121403 0.18434606 -0.06018712 -0.16698325 -0.10929053 0.009995336
-0.016397806 0.1633324 -0.022004431 0.0051660533 0.094407775 0.04214433 -0.027562493 0.08850114
-0.12081491 -0.13860366 0.20390445 -0.028398648 -0.009078604 -0.08441115 -0.055770174 -0.10089337
0.026794853 0.04041504 -0.13948077 0.17107138 -0.048253164 -0.13782112 0.016760739 -0.024618743
-0.12077169 -0.122853756 -0.059369545 -0.03750697 -0.11922074 0.054969434 -0.16720788 0.1356472
0.17560758 -0.023248559 0.14350307 0.14776422 0.13030703 -0.11663226 0.06702718 0.035490982
-0.13202757 0.03241726 0.08676659 0.11877383 -0.056412626 0.16494137 -0.025717065 0.08710058
-0.11251123 -0.07541001 0.12002111 0.15196204 -0.11823491 -0.124493204 -0.0644143 -0.11482017
0.075499594 -0.024977997 0.009162624 0.014537573 -0.15977259 0.08481453 -0.2436517 -0.116957515
-0.0420953 -0.1756037 0.02103146 -0.022186276 -0.009230057 -0.09668212 0.16503656 0.09330464
0.024935164 -0.13547815 0.12747346 0.015491924 -0.13898055 -0.054057855 0.02197702 0.17711481
-0.08610834 0.0049943556 0.062614664 -0.14493234 0.09292433 0.0074975053 0.008448006 -0.14750277
-0.021922596 0.13616762 0.16717863 0.22733268 0.12065225 0.10704769 0.15238902 -0.16080964
0.08091789 0.07426247 0.06144213 -0.0667108 -0.17465311 0.10541307 -0.13865823 0.19453016
0.08324295 -0.020095948 -0.1509662 -0.11341501 -0.04726155 0.11534667 -0.06495318 0.092653714
-0.16166468 -0.19019714 0.21313705 0.10069815 -0.18763371 -0.1533356 0.17503604 -0.08563593
0.018226186 0.037031002 -0.10422371 -0.023926865 -0.04139078 -0.07486704 0.112136126 0.019021878
0.09702421 0.14757115 0.08865795 0.03668668 0.07873427 0.003076373 0.13980529 -0.13449262
0.18639033 0.02541873 -0.19961731 0.05044136 0.065817654 -0.026525108 -0.02636823 -0.23089889
0.15873186 -0.07944951 -0.17046018 -0.09488495 -0.027569665 -0.055423763 -0.15591684 -0.062006988
0.008807948 -0.11903544 0.046508074 -0.010328856 0.0056250887 -0.06971983 -0.15805183 0.059992217
0.14869003 0.13343433 -0.03025566 -0.004181909 -0.06657893 -0.041589577 -0.1364596 0.0042422055
-0.00787537 -0.028667314 -0.06999617 -0.1678677 -0.12766537 0.12058527 -0.046063516 -0.11087295
-0.15038827 -0.02015676 -0.13936743 0.01054946 -0.20483169 0.03304614 0.16347969 -0.17441913
0.101915106 -0.12568069 -0.059802923 -0.084480554 0.045333482 0.041725308 0.21334767 0.022772284
0.013083341 -0.1299955 0.21727197 0.011301732 0.116856 0.08212731 -0.14867014 0.15127286
-0.034145705 -0.009891121 -0.0742565 0.03511192 -0.033564948 -0.09097879 -0.039856225 0.0848475
0.03779139 -0.055110183 0.08925318 0.2433775 0.013021799 0.1095379 0.050271578 -0.1508791
-0.2223855 -0.008326896 -0.19317205 -0.17391092 -0.08501947 -0.15783219 -0.114208065 -0.026327599
0.032286797 0.058476333 -0.025975967 0.12990788 -0.082081534 0.12627012 0.25363696 0.13991065

lstm.bias_ih_l0 f4 [128]
00000000: 7a71 cfbd 749c 1dbe 50fc b9bc b52e 10bb
00000010: 9117 1a3e c224 493d 4d8a ffbd 837b e0bc
00000020: 2ad9 dfbd b985 3f3c 0f69 123e 2a4d dabc
00000030: 4d6b 14be 992e efba 9ae9 9ebd 53a6 003e
00000040: f198 ba3b f50d f0bd 8907 b13b 94ff 7dbd
00000050: eb83 9e3d 6143 513d a096 f93d 7784 973d
00000060: b5b8 2cbd 75df 523c 9bef febc 47de 9bbd
00000070: e915 3ebe 83b2 cf3d 9ea2 0d3e ef0c 42bd
00000080: 4c98 fdbb 7416 213e 859c fcbd b3c1 06be
00000090: dc55 c1bd d47f 2c3e 7e3b 2dbd 94be aa3d
000000a0: 866f 603c 4ecd eabd 115a 7fbe 6cea ca3d
000000b0: 1ca1 1fbd 93b2 13bc 6ef9 9b3d 115b 77bc
000000c0: 96df a83d 6c0e 133e 01cf 883c a216 283e
000000d0: 4aa7 103d dfbf 0b3d 12a4 dcbd 36a0 63bd
000000e0: 0095 8fbc 07fa 123e 6d86 12be e575 67be
000000f0: e2fc 12be 6f8e 23bc 87dc 9fbd f027 b03c
00000100: c3dd 5c3d 50b0 d13d f171 793d 4656 713c
00000110: 6bc7 02be 7449 f3bd ca4a 1dbd 3772 09be
00000120: 8a4e b83d 06c8 9f3c 62d8 ad3d c0c7 103e
00000130: f831 7a3c ea43 373e 4bb5 9b3d e05e bf3c
00000140: da61 b93d 38af 243e 4ad8 11be 96f7 95bd
00000150: 765c 3c3e 2d61 de3d 504d 863b 608f febd
00000160: 1b50 00be 24a8 9f3d ceaf 6bbb ec80 403d
00000170: b068 2abd 2241 fa3d fbee 5a3d e008 febc
00000180: 7ddb da3d 1dfa f83d 0c2e 21be 577d d53d
00000190: b69f 133e 5701 8abd 6aa7 a0bd bc04 ac3c
000001a0: d7ed cdbd 0e77 cf3d c58e 42be 99e1 6e3d
000001b0: 5ed4 1e3e d5d4 96bd d949 45bd 2f0c cf3d
000001c0: 14b6 fcbd 9e8b cb3d d661 9b3d 9b55 8cbd
000001d0: 52a6 453e fe29 bfbd 6330 1ebc 9ab1 963c
000001e0: b43e 55be d1ea 1c3e 66e1 233e 07da 9fbc
000001f0: e47b 093e 0d97 86bd eb33 43bd 7459 6f3d
-0.10129066 -0.15391713 -0.02270332 -0.0022000496 0.15048052 0.04910732 -0.12477551 -0.027402645
-0.10930093 0.011689597 0.14297889 -0.026648123 -0.14494057 -0.001824814 -0.077594 0.12563448
0.0056945016 -0.11721412 0.0054025096 -0.062011316 0.07740005 0.05108965 0.121869326 0.073983125
-0.042168338 0.012870659 -0.031120112 -0.076107554 -0.18563046 0.1014147 0.13831565 -0.047375616
-0.0077391025 0.15731221 -0.12334541 -0.13159828 -0.094402045 0.16845638 -0.042293064 0.08337131
0.013698464 -0.1146494 -0.24936701 0.09907994 -0.038972005 -0.009014743 0.07615934 -0.0150973955
0.08245771 0.1436097 0.01670027 0.16414884 0.03531579 0.03411853 -0.107734814 -0.05557271
-0.017527103 0.1435319 -0.14309092 -0.22603567 -0.1435428 -0.009982689 -0.07805734 0.021503419
0.053922426 0.10238707 0.06089968 0.014730042 -0.12771384 -0.118792444 -0.038401403 -0.13422476
0.08999355 0.019504558 0.08488537 0.14138699 0.015270703 0.17897001 0.07602938 0.02336067
0.09051867 0.16082466 -0.14242664 -0.07322614 0.18394646 0.108583786 0.004098572 -0.1242969
-0.12530558 0.07795742 -0.0035962942 0.04699795 -0.041603744 0.12219454 0.053450566 -0.031010091
0.10686395 0.1215708 -0.15740222 0.10424297 0.14416394 -0.06738537 -0.07844432 0.020998351
-0.1005513 0.1013013 -0.18999775 0.058320615 0.15510699 -0.07364813 -0.04816613 0.10109746
-0.12339416 0.09938739 0.0758702 -0.068522654 0.19301727 -0.09334181 -0.009655091 0.018395234
-0.208247 0.1532395 0.16003951 -0.019513143 0.13426167 -0.065717794 -0.047656935 0.05843492

lstm.bias_hh_l0 f4 [128]
00000000: 1253 88bd 0ae6 913b c35f 263e c4de 0cbe
00000010: 3039 343e 55fd bebc 5882 3dbe 0d3d 36be
00000020: 6827 943d 2719 c2bb 8206 2ebe a7d4 dfbd
00000030: 9902 39bd 1094 24bd ec6e 853c f624 e53d
00000040: 8035 f9bc 9461 533b 99e7 a53b 5338 43bd
00000050: 3754 cebd 21dc a3bc 97bf 1c3e a5db 38be
00000060: 4b8f b33d a9de 2fbd fede 993d 5ce5 073d
00000070: 0d63 c4bd f0d0 073d 0946 243e b022 dbbd
00000080: df9e 0e3e 6924 d93b 9b94 863d 2e5a f53d
00000090: df86 8d3d 02ad f23d 06f0 0dbe 3e17 2bbe
000000a0: 5b18 1fbe 6e70 e83d 6333 d9bc 2b4e 1ebe
000000b0: ab34 e73d 29bd ee3d ae71 103e 3426 7bbd
000000c0: 7b75 4fbe 0896 28be 4eb7 15be eae3 593d
000000d0: 251c 13be 0de5 493d f699 f1bd 4861 073e
000000e0: 5157 dbbd 550c 5e3b 5c80 65be f541 6ebd
000000f0: a94f 6b3d e0ee dfbb 2731 0abe 0863 81bd
00000100: ee3f 2c3e e056 b13d d903 453e 224d 313d
00000110: 78c1 06be 6740 473e 79ac a7bc 5026 b8bd
00000120: a374 f8bc 8bb0 04bd 7fba 59be 89c3 59bd
00000130: 677c e3bd 2c4d 1c3e 5335 5e3e 7ef0 d53c
00000140: 5321 13bc 3e72 3a3e 629f 40be 2296 a83d
00000150: 40de 8c3b f1fd 193d f447 bfbc 3a0b aa3d
00000160: d4c0 2a3d 187d 123e 8ceb 82bd c6b9 183e
00000170: 19a1 ec3d 208b d33d 6d00 333d 246f 47be
00000180: ddd7 4abd f23a febc f5e4 b43d d145 48be
00000190: abe4 36bd 12fe 933d d6a1 813d 43be b6bd
000001a0: fb6b 2bbe befc 9b3d 4ddf d0bd 47ea a13d
000001b0: aae1 533e a56d af3d b9c9 e73d fbd8 463e
000001c0: 9ac9 cdbd 1aa6 1d3d 7c62 893d 377d 993d
000001d0: 78f4 b03d dee3 4cbd 4972 413d 610b 363b
000001e0: a636 20be 14c4 5c3d a8a5 18be 2ac7 073e
000001f0: d70d ddbd b7ac 393d a56e 8cbd 0cf9 383d
-0.066564694 0.0044524716 0.16247468 -0.13756853 0.1759994 -0.023314158 -0.18506753 -0.17796727
0.07234079 -0.0059234085 -0.1699467 -0.10929232 -0.045168493 -0.040180266 0.016288243 0.1118869
-0.030421019 0.0032254206 0.005063009 -0.047661137 -0.100746565 -0.020002427 0.1530746 -0.18052538
0.08767565 -0.042936955 0.075132355 0.03317772 -0.09589205 0.033158243 0.16042341 -0.106999755
0.13927792 0.006626655 0.06571313 0.11980091 0.0691049 0.11849405 -0.13861093 -0.16708085
-0.15536635 0.11349569 -0.02651376 -0.15459506 0.112893425 0.11657173 0.14105865 -0.06131573
-0.20259659 -0.16463482 -0.14620706 0.05319587 -0.14366205 0.049290705 -0.11796944 0.13220704
-0.10710014 0.0033881862 -0.22412246 -0.05816837 0.057449017 -0.006833896 -0.13495313 -0.06317717
0.16821262 0.08659148 0.19239749 0.04328645 -0.1315974 0.19458161 -0.020467984 -0.089916825
-0.030329054 -0.032394927 -0.21262549 -0.053164992 -0.11107712 0.15263814 0.21700029 0.026115652
-0.008980113 0.18207642 -0.188108 0.082317606 0.004298955 0.037595693 -0.02334974 0.083029225
0.0416878 0.14305532 -0.06392583 0.14914617 0.115541644 0.1032927 0.043701578 -0.1947599
-0.04952227 -0.031033967 0.088327326 -0.19557883 -0.04465167 0.072261944 0.06329696 -0.08923008
-0.1674041 0.07616566 -0.10198841 0.07906013 0.20691553 0.08565835 0.113177724 0.19418709
-0.10048218 0.038488485 0.067082375 0.07494586 0.08640379 -0.050022 0.04722813 0.0027777778
-0.15645847 0.053897932 -0.14906943 0.13259569 -0.10793655 0.04533073 -0.06857041 0.045159385

hidden2out.weight f4 [3, 32]
00000000: 58d7 fbbd bfb5 133d a7d5 c63d 12e5 07be
00000010: 5018 cdbd 0444 043e 64cb 4d3d 3abc b63d
00000020: ae2a 623d ba5f edbb ee07 87bd 0a6a 16bd
00000030: 1206 0bbe 4f06 2c3e c5d6 7f3d 4d3e aeba
00000040: 23df b0bd 32ae 103d e1e7 723a 9a5f 14bd
00000050: 8da5 893d 6a1a 17bd 1150 95bd b3f0 9bbd
00000060: 3201 e43d 66d7 273e e778 92bd dfac 203d
00000070: 154e ce3d 114c 613e c8c2 2e3e 7a1e b5bd
00000080: d11c 44be d2e3 173e 427f f93d 4ab7 1ebe
00000090: 5b7e 783d 3a0a dc3d 8a0e d4bd e95e e5bd
000000a0: 821e b2bd 6d8e a93d 4972 353b 1344 c63d
000000b0: 2b0e 4bbe 3118 0cbd 46a7 19bd 0351 433e
000000c0: db83 d0bd 6914 2cbe b53c 123e 5197 26be
000000d0: 9b96 55bd a241 eb3d cf38 273d cdcb 45bd
000000e0: 9dfe 60bc 9611 203e 39a5 723d 40ce 0cbc
000000f0: d2cf d73d 6cce 713d b8b7 4fbc f59e f13d
00000100: 3a0c 0d3d a9fd abbd ef7f 303e 8f49 cb3c
00000110: 5a64 393b 4d58 973d d98e 263e 55c3 453d
00000120: 0b1d cbbd 4560 bbbd 313b 833d 6cef 21bd
00000130: 9fbb 883d bcdb 5ebe 652d 1cbe f550 1ebd
00000140: 45e6 dcbb 82d9 d2bd 7db9 4abd d2dc d8bd
00000150: 0d3a 77bd 9ded 39be 2bdb 533c c3ca c2bd
00000160: dd94 163d 032e 2abc 494e 6e3c 8375 fdbd
00000170: 1b4c 1abc 7736 fcbd 3536 48bd c86e eb3d
-0.12296933 0.036062 0.0970872 -0.13270977 -0.10014403 0.12916571 0.050242797 0.0892262
0.055216484 -0.0072440775 -0.06593309 -0.03672222 -0.13576534 0.16799282 0.06246068 -0.0013293714
-0.0863631 0.035322376 0.000926612 -0.036223985 0.067210294 -0.036890425 -0.07290662 -0.07614269
0.111330405 0.16390762 -0.071519665 0.039227363 0.10073487 0.22001673 0.1706649 -0.088437036
-0.19151618 0.14833 0.121824756 -0.15499607 0.060667377 0.10744138 -0.103543356 -0.11199743
-0.08697225 0.08279119 0.0027686527 0.09680953 -0.19829623 -0.03420276 -0.03751304 0.19073872
-0.101813994 -0.16804661 0.1428097 -0.1626866 -0.05214558 0.11487128 0.04082566 -0.048290063
-0.01373258 0.15631709 0.0592396 -0.008594096 0.105376855 0.05903475 -0.012678079 0.11797897
0.03443549 -0.08397991 0.17236303 0.024815349 0.0028288574 0.07389889 0.1626543 0.048281986
-0.09917649 -0.09149221 0.06407774 -0.03953497 0.06676411 -0.2176351 -0.15251692 -0.038651425
-0.0067413175 -0.102953926 -0.0494933 -0.10588993 -0.060358096 -0.18157049 0.012930672 -0.0951133
0.03676306 -0.010386947 0.014545032 -0.12375929 -0.009417559 -0.12315076 -0.04887982 0.11495739

hidden2out.bias f4 [3]
00000000: 9c00 063d b439 cbbb 7ad0 613d
0.032715425 -0.006201947 0.05513046

std_layer.weight f4 [3, 32]
00000000: 0760 103e c048 ea3c 50c2 dabc 7ed4 a63d
00000010: 3067 60bd d27d b03d 4a5f d63d 6015 b2bc
00000020: 6055 32bd 260a b4bd 39be 0dbe 5ad5 883d
00000030: ee18 b13d cc54 1bbd 30b3 34bc b8fd d9bc
00000040: 505c 2ebc 44ee 04bd 6ff5 26be ecd0 213d
00000050: 86c9 e53d 0cd7 50bd 7211 f13d 2630 f2bd
00000060: 9b02 08be 7e5f 913d e475 31be 184e 07bd
00000070: 007d 113a 4272 f3bd afcf acbd 2245 f83d
00000080: 208b a8bd 4842 36bd 6156 01be f23d a5bd
00000090: e0cf 2abe 15bf 05be 0c9e 893d 000f 063b
000000a0: da63 a23d 0b29 06be c600 ef3d 7ed5 c13d
000000b0: b0fa 3abd 9629 68bd 59f6 113e e49a 3f3d
000000c0: 80f3 f33c 203a 90bb 1086 6dbc b080 44bd
000000d0: c88d 933c 85ca 343e 76b1 e13d d158 303e
000000e0: 45b3 e0bd d8e3 f4bd d9c0 073e 54f1 15bd
000000f0: 14cc 45bd 5c29 68bd b097 bbbd 1074 13bd
00000100: 40cf 803c 0834 b33c 5440 51bd d29a f03d
00000110: 92c9 dd3d 58f7 2ebd a837 d63c 900c 7f3d
00000120: 8016 cf3a d000 debd b00f 71bc 0cd4 6a3d
00000130: c227 7bbd 09e7 adbd 6b4d c8bd c9ef 0dbe
00000140: dba9 a5bd afd1 dabd 04ab 52bd b03f 2b3d
00000150: e0d3 ce3c 00a7 743b e544 113e 7a8c 21be
00000160: dc52 79bd d946 133e d86e 073d 8d43 0a3e
00000170: 0089 beba eb31 203e b808 82bc 541e 823d
0.14099132 0.028599143 -0.026703984 0.081459984 -0.054785907 0.08617748 0.10467394 -0.021738708
-0.04353845 -0.08790998 -0.13842095 0.066813186 0.08647333 -0.037922665 -0.01102905 -0.02661024
-0.010642126 -0.03245379 -0.16304563 0.039505884 0.11220078 -0.050986335 0.117709056 -0.1182559
-0.13282244 0.07098292 -0.17330128 -0.03303346 0.00055499375 -0.11887027 -0.0843805 0.12122561
-0.08229661 -0.044496804 -0.12630607 -0.08068456 -0.1668086 -0.13061173 0.06719598 0.0020455718
0.079292014 -0.13101594 0.116700694 0.094645485 -0.04564923 -0.056680284 0.1425413 0.046778575
0.029779196 -0.0044014603 -0.014497295 -0.04797429 0.018011943 0.1765538 0.11020176 0.17221381
-0.10971693 -0.1195752 0.1325716 -0.0366071 -0.048290327 -0.05668007 -0.091597915 -0.035999358
0.015723825 0.021875396 -0.05108674 0.1174828 0.10829462 -0.042716354 0.026149586 0.06226784
0.0015799552 -0.10839999 -0.014713213 0.05733113 -0.061317213 -0.08491332 -0.09780391 -0.13861002
-0.08089038 -0.10684525 -0.051432624 0.041808784 0.025247514 0.0037330985 0.14186437 -0.15776244
-0.060870036 0.14382495 0.033064693 0.13502331 -0.0014536679 0.15644042 -0.015873298 0.06353441

std_layer.bias f4 [3]
00000000: dca2 6fbd 0bc0 09be e20e 09be
-0.058504924 -0.13452165 -0.13384584

exp_avg f4 [128, 12]
00000000: 50af 5aba 0340 15b8 e510 bc3a 7d01 19bb
00000010: 969a 69ba c495 413a 29bc a23a acbc 4139
00000020: b10c 763a 5149 bdba 3cbd 113a 4ce7 fdba
00000030: 0b3c 9aba ff1d 09bb 2e49 5b3a 06c2 a939
00000040: d580 06b6 fe22 beb9 a848 34ba 1ab9 0ab7
00000050: 4350 c33a b4ad bf39 77ed 1cba 86f2 423a
00000060: ef52 a3ba c302 d9ba f467 973a 310a a5ba
00000070: 5cad a8bb 5b97 213a c813 943a 571d 70b9
00000080: 0f7b a1ba 2f14 8abb f4d4 4dba d9dd 68bb
00000090: 1cfc 6e3a b69d 433a fe4d 22ba ac40 c7b9
000000a0: 2784 97b8 bb32 9e3a 7e99 a739 cba7 8db9
000000b0: e377 adb9 d933 f33a 5934 5b39 1fec 983a
000000c0: 1236 1a3a ffcf 573a 9234 c1b9 8398 3a39
000000d0: e2a8 ac3a 63b9 043a 07bd f1b8 8ab2 5c37
000000e0: f20f 2fb9 ee88 773a dbba 9638 2e62 8e3a
000000f0: 14b5 4c3a 8eb7 66b9 f6e1 07bb 23f6 373b
00000100: ee7e 933a 08eb adbb 2516 4dbb 2917 90b9
00000110: 9908 1fbb a0b5 babb 85a8 9eba 2a81 a8bb
00000120: 5942 073a cb60 593a 4dd6 81b9 375e 6239
00000130: a739 9f3a ff8a 78b9 85e8 9db9 74b1 e137
00000140: 18a9 e7b8 913d 61b9 aac0 f7b7 e954 2eb9
00000150: f572 4038 c52e 2c39 3861 efb7 844e 86b9
00000160: 4dd3 6a38 09b8 1639 a710 0438 8b0f 99b4
00000170: 92ff dc36 2fb7 e338 b30a 7b38 4351 f938
00000180: d18b 0f3a 58d2 583a b5da d3b6 f25f 86ba
00000190: 39c2 9a39 c02f f43a 6fdd 623a dc1f 30b9
000001a0: d1d7 5d39 8cfa 063b ab97 9c39 a5ee f33a
000001b0: 5c7c 77b9 303a f5b9 54be ec39 afb0 5eb8
000001c0: c827 b938 8189 ce3a 4781 083a 5e76 ae38
000001d0: e228 3d3a be32 253b f0d4 0239 003f 453b
000001e0: c419 b036 bd13 3db9 c853 e1b7 2063 f337
000001f0: 7366 9bb9 89fc dbb7 73b9 22b6 1f4e e4b7
00000200: 6d43 f736 4fa1 0439 201e afb8 b031 1639
00000210: 8ad0 2d3a db88 3a3a fcb8 7a3a 5c61 813a
00000220: 0d56 8e3b 4999 a43b 1874 c43a 069a 763a
00000230: bc24 d73a acbb 033c cf90 673a 6c70 293c
00000240: 4f8b 233b b554 913a 9225 87b9 249e 563a
00000250: 5703 cb3b 4419 fa3b f368 a13a 8b83 6639
00000260: 740f 183b a083 643c 8837 b239 8afa 7f3c
00000270: f2c4 24bb 84de 60bb 64bb 5db9 69da b43a
00000280: 9aaf 0ebc a7b7 2bbc 5989 d4ba 3f31 beb9
00000290: 0056 1abb 26c3 7dbc 77f2 27ba f9f4 96bc
000002a0: cadb 413a d4bd b938 ae6d ff39 9cde 39ba
000002b0: 0468 e13a 71f7 983b 3060 c23a 1419 4c38
000002c0: d4fc 8f3a a110 db3b 98ca 5839 520a fd3b
000002d0: 6dff 23bb 86fe 35bb 470c 253a 78a2 acba
000002e0: 32f9 aabb 80cb 91bb 43ff a6ba 9a64 4dba
000002f0: d51b 573a fb07 d0bb 9ea6 74ba bdcc f4bb
00000300: c332 ea38 e5d3 3f39 301e 5f39 28c7 c4b9
00000310: 0d84 5ab9 4770 963a 0579 1d3a 1817 0538
00000320: d1a6 c839 f440 c13a 17fd 8b39 4910 993a
00000330: 8822 af3a e10a 443b af5d 07b9 0da7 55bb
00000340: 50ba 0f3b 2f9e ad3b a8f2 d63a 49a9 ebb9
00000350: c94f 613a c09b ca3b ec6e 4c3a 8cdc ab3b
00000360: b5aa 92bb e892 56bb 4776 2d3a 1950 e1bb
00000370: e1a7 7ebc 90a5 cebb e2be a2ba db96 18bb
00000380: 0aa8 53b9 c3b4 39bc da89 5cbb b95b 6abc
00000390: a273 0f3a 2425 fa3a cdeb d53a 2953 8bbb
000003a0: d924 283b fe18 e13b d5c0 413b 0986 9f39
000003b0: 9cb2 ac3a 0152 af3b 8729 9b3a eb75 e63b
000003c0: d43a a9bb 8169 b7bb 8d94 d2ba c7e4 20ba
000003d0: 52c3 9ebc e700 a1bc 9e81 a5bb e3ca 16bb
000003e0: e1e2 8dbb 03fe e8bc 7868 23bb cbeb 0ebd
000003f0: 3b4e 83b8 fe91 163a dba6 6f3a a3f8 21b9
-0.00083421636 -3.5583984e-05 0.0014348297 -0.0023346834 -0.000891128 0.00073846825 0.0012415695 0.000184762
0.00093860464 -0.0014441406 0.0005559509 -0.00193713 -0.0011767162 -0.002092242 0.00083650916 0.0003237875
-2.0042546e-06 -0.00036265695 -0.00068772817 -8.268538e-06 0.0014901239 0.00036559778 -0.0005986313 0.00074366515
-0.0012460629 -0.0016556609 0.0011551366 -0.0012591538 -0.005147619 0.00061642163 0.0011297399 -0.00022899114
-0.001232 -0.004213832 -0.0007851862 -0.0035532622 0.0009116547 0.00074621604 -0.00061914313 -0.00038004422
-7.2248564e-05 0.0012069562 0.00031967083 -0.0002701863 -0.00033086454 0.001855488 0.00020904969 0.0011667049
0.0005882691 0.0008232593 -0.00036850997 0.00017795157 0.001317289 0.0005063025 -0.000115269846 1.3154591e-05
-0.0001669524 0.00094427064 7.187362e-05 0.0010863 0.0007808965 -0.00022002889 -0.0020734048 0.0028070293
0.0011253038 -0.005307559 -0.0031293717 -0.00027483076 -0.00242666 -0.005697921 -0.0012104666 -0.0051423507
0.0005159728 0.00082923163 -0.00024764464 0.00021588137 0.0012147919 -0.00023702903 -0.00030118614 2.6904723e-05
-0.000110464345 -0.00021480607 -2.953441e-05 -0.00016625565 4.588343e-05 0.00016420621 -2.8536291e-05 -0.0002561697
5.5986737e-05 0.00014373673 3.148676e-05 -2.850978e-07 6.586263e-06 0.00010858324 5.9853028e-05 0.000118883814
0.00054758514 0.000827109 -6.313751e-06 -0.0010251983 0.00029517876 0.0018629953 0.0008654212 -0.00016796537
0.000211566 0.0020596115 0.0002986764 0.001861055 -0.00023602083 -0.00046773395 0.00045155233 -5.3093474e-05
8.828897e-05 0.0015757532 0.0005207252 8.319014e-05 0.000721587 0.0025207247 0.00012477092 0.0030097365
5.2482083e-06 -0.00018031798 -2.6861104e-05 2.9014016e-05 -0.00029640234 -2.622443e-05 -2.4247827e-06 -2.7216096e-05
7.369023e-06 0.00012648593 -8.3502615e-05 0.00014323625 0.0006630501 0.000711573 0.0009564308 0.0009870934
0.004343754 0.005023156 0.0014988212 0.00094071066 0.0016414146 0.00804035 0.0008833529 0.010341745
0.002495486 0.0011087867 -0.000257772 0.0008187017 0.0061954665 0.0076324064 0.0012314602 0.00021983513
0.002320257 0.0139473975 0.0003399218 0.015623698 -0.0025141803 -0.0034312317 -0.00021146011 0.0013798001
-0.008708859 -0.010480798 -0.0016215249 -0.00036276315 -0.0023549795 -0.015488422 -0.00064066745 -0.018427359
0.0007395117 8.856846e-05 0.00048719108 -0.00070903613 0.0017197137 0.004668169 0.0014829691 4.8660746e-05
0.0010985383 0.006685332 0.00020674837 0.0077221775 -0.0025024072 -0.0027770116 0.000629608 -0.0013170978
-0.0052176947 -0.004449308 -0.0012740869 -0.000783512 0.00082057464 -0.0063486076 -0.0009332689 -0.007470696
0.000111674446 0.00018294116 0.00021278183 -0.00037532416 -0.00020839293 0.0011477553 0.0006007108 3.173118e-05
0.0003827126 0.0014744089 0.00026700713 0.0011677827 0.0013361732 0.002991371 -0.00012909503 -0.003260079
0.002193112 0.005298398 0.0016399221 -0.0004494882 0.0008594958 0.0061831176 0.0007798511 0.005244797
-0.0044759163 -0.0032741372 0.0006617051 -0.0068760035 -0.015542955 -0.0063063577 -0.0012416507 -0.0023283276
-0.00020185128 -0.011334601 -0.0033651502 -0.014304095 0.0005472248 0.0019084555 0.0016320884 -0.004251857
0.0025656729 0.0068694344 0.00295644 0.00030426707 0.0013175788 0.005350352 0.0011837938 0.0070331
-0.0051644836 -0.005597294 -0.0016066 -0.0006137606 -0.019380245 -0.01965375 -0.005050852 -0.0023009114
-0.0043300246 -0.028441435 -0.0024934094 -0.03489284 -6.261138e-05 0.00057438004 0.000914199 -0.00015446781

exp_avg_sq f4 [128, 12]
00000000: 6b25 d636 eeb3 e836 3a82 9336 57c6 5a37
00000010: e9e9 0f38 43da 4038 7ed8 9d36 b2d8 7f35
00000020: 103e cc36 4626 bb38 427d db35 9403 9138
00000030: 3895 b737 7a21 6037 d923 1537 e7be 1339
00000040: 2e24 8e39 0a85 8638 7ab3 8537 46ba a936
00000050: a5cb d136 fe0b 1b39 14bb 0938 8ca9 dc38
00000060: 4c40 9238 e9d3 4939 086d 8737 7123 3739
00000070: f233 be3a f084 b73a ca7a bb38 7c18 1f37
00000080: cf03 f438 8368 653b 3a25 3038 6941 393b
00000090: 2c44 fa35 2194 e735 581c c836 b877 3a36
000000a0: d1b9 4236 bfb6 2a37 b454 ff36 f842 f734
000000b0: c469 aa36 bbb5 2037 4384 6735 d122 1937
000000c0: cb9e cb35 2d20 9a35 7340 1636 3d6c d235
000000d0: 2cb2 e136 64fd 8936 6415 0c36 dcaa 2934
000000e0: 208e f735 9b4f b436 2332 d834 b464 a336
000000f0: 8ad6 0436 eb1c 3f37 f9ec 0937 38ca e337
00000100: 035a 6336 54dc e038 8788 c337 a5c6 6335
00000110: 4521 3f37 b537 3139 3023 3f36 f317 da38
00000120: a45e 9335 f7ca f636 5efc 8d36 5595 5d37
00000130: 4b94 6536 ed8c 7e38 ab6d 8937 a6b2 3f34
00000140: 5db9 d536 8622 c338 de42 1136 bb9a 7538
00000150: 5721 9d34 c19b e534 1a39 3235 50c4 ad35
00000160: 3b4a 2635 4157 9235 8188 c034 c0c4 9a33
00000170: 644b 2535 e584 d935 3b04 c433 33cd 9f35
00000180: 2c7a c735 520c ce35 556c db35 7ba0 b035
00000190: b0f7 9c36 8825 3736 d034 8b35 7adf 8e34
000001a0: 3049 9e35 56a4 c936 22ef 3934 d770 a336
000001b0: fb3f 5836 205e 9636 b370 db36 a88b 9b36
000001c0: b9fa 4637 089c 0338 5d8a 0437 f7d4 1c35
000001d0: c557 e736 6f77 6138 b9d0 8e35 fe99 3038
000001e0: e7ec 4434 6348 9b34 9432 9d32 3e8e 0134
000001f0: c9fd 6c36 8180 8035 e8ea 2333 cff5 f232
00000200: 3fbe 7c33 8359 ea35 e96b c833 79b6 f535
00000210: cc94 3d37 a9b7 c337 6c7f a236 9f0e 2037
00000220: f466 2e39 11eb 3639 14ff 8e37 6906 f635
00000230: 26a6 8737 5265 c439 0650 9f36 0b0a b739
00000240: f6be d737 fa25 1938 7f72 5036 a408 4e38
00000250: cba4 af39 7ce2 5439 1eff 2e37 4607 b336
00000260: 21ba 9037 d6a2 df39 1193 3f37 1b17 de39
00000270: fb4e 0c37 e7a4 f437 3e9e 0337 c332 e437
00000280: 6c62 1539 063b 6839 d95e a237 6633 8135
00000290: 9d2b c937 0e40 f439 1509 1c37 8388 ec39
000002a0: ef4f bd37 9dc1 0638 7ba8 2036 38cb a038
000002b0: ea82 dd39 154a 4139 4b9c 1137 8218 5636
000002c0: 21a8 5b37 7580 e939 f0fa 8137 cdcf d739
000002d0: 15d3 9e37 575b 6737 11e8 5b36 7d7c 0439
000002e0: 30d1 b739 7d1b 8638 0f60 fa36 4d37 c736
000002f0: 4fff a336 f43a 8439 a932 0638 95d1 9339
00000300: ee01 c833 fcac a734 597d ba34 b8a5 4c35
00000310: 9d5b a234 a7ce 3f36 8ad0 9935 d1ce 9432
00000320: 9f10 c734 fe0a 8336 de03 3434 2cb6 2936
00000330: e2e0 2737 9455 4537 c44d 8637 cb01 5837
00000340: ca83 d437 181f fd37 cf49 5c37 272d e135
00000350: e0ec 5537 8ec0 1f38 26fb 1336 d70c 0038
00000360: 035d 4e37 7c3e 6f37 67da b435 78c4 4838
00000370: e2d7 9639 66a1 6338 aab4 a236 6cfe 5c36
00000380: 817f 3a36 e547 2739 810a a137 c0ca 5739
00000390: dffc ec36 985d 3238 2f14 fa36 9b12 8438
000003a0: 0602 0039 dc37 ad39 e1a5 db37 5b22 9f35
000003b0: 3f70 1038 9aee 2a3a bb67 aa36 3528 133a
000003c0: b2c2 e738 8e80 2a39 8593 8936 e926 4839
000003d0: 393d 163b 6c66 773a cfe3 2338 c7b8 bc37
000003e0: fc1e 8738 59b0 163b 876a 9e38 5d8e 263b
000003f0: c002 5536 fa66 7e36 40ce a536 e3e7 3337
6.382053e-06 6.9350854e-06 4.3961018e-06 1.3039992e-05 3.4311703e-05 4.597964e-05 4.7041676e-06 9.5310236e-07
6.086899e-06 8.923984e-05 1.6353226e-06 6.914805e-05 2.1884785e-05 1.3359235e-05 8.8894385e-06 0.00014090129
0.00027111307 6.4143984e-05 1.593841e-05 5.0582776e-06 6.2523927e-06 0.0001478642 3.2837575e-05 0.00010521998
6.973799e-05 0.00019247796 1.6144026e-05 0.00017465443 0.001451133 0.001400141 8.939726e-05 9.482839e-06
0.00011635536 0.003500492 4.199634e-05 0.0028267747 1.8646292e-06 1.7253952e-06 5.963764e-06 2.7785845e-06
2.9016412e-06 1.01753385e-05 7.609453e-06 4.605606e-07 5.0787075e-06 9.579056e-06 8.624667e-07 9.127617e-06
1.5170893e-06 1.1483259e-06 2.2389256e-06 1.5677721e-06 6.7262645e-06 4.1124167e-06 2.0874077e-06 1.580151e-07
1.8444298e-06 5.3736853e-06 4.0269614e-07 4.869502e-06 1.979441e-06 1.139122e-05 8.221011e-06 2.7154674e-05
3.387803e-06 0.00010722192 2.3309387e-05 8.4853156e-07 1.1392233e-05 0.00016900788 2.84817e-06 0.00010399511
1.0979898e-06 7.3549995e-06 4.231507e-06 1.3207396e-05 3.4209977e-06 6.0689566e-05 1.638274e-05 1.7853253e-07
6.369474e-06 9.304755e-05 2.1645606e-06 5.8556656e-05 2.9267787e-07 4.27679e-07 6.639326e-07 1.2946639e-06
6.194784e-07 1.0903242e-06 3.5862107e-07 7.2069724e-08 6.1577e-07 1.6206437e-06 9.127731e-08 1.1906144e-06
1.4862212e-06 1.5351782e-06 1.63483e-06 1.3159728e-06 4.677997e-06 2.729097e-06 1.0371677e-06 2.6612162e-07
1.1793218e-06 6.009398e-06 1.7316464e-07 4.870915e-06 3.222375e-06 4.481306e-06 6.5398285e-06 4.635618e-06
1.1860096e-05 3.137815e-05 7.900028e-06 5.8424433e-07 6.894554e-06 5.375541e-05 1.0640571e-06 4.2105086e-05
1.8340107e-07 2.8923668e-07 1.8300206e-08 1.2065809e-07 3.5314463e-06 9.574143e-07 3.816504e-08 2.8284289e-08
5.884635e-08 1.746041e-06 9.3328545e-08 1.8307029e-06 1.1299922e-05 2.3331335e-05 4.84281e-06 9.540147e-06
0.00016632286 0.00017444442 1.70465e-05 1.8330294e-06 1.6170623e-05 0.00037459523 4.747885e-06 0.00034911963
2.571892e-05 3.651341e-05 3.106106e-06 4.9122275e-05 0.0003350138 0.00020302268 1.0430607e-05 5.3354624e-06
1.725281e-05 0.00042655197 1.1418729e-05 0.00042360355 8.363039e-06 2.9163855e-05 7.845052e-06 2.7203356e-05
0.00014246412 0.00022147232 1.9356072e-05 9.626208e-07 2.3981376e-05 0.0004658703 9.300439e-06 0.00045115137
2.2567778e-05 3.2128406e-05 2.3939926e-06 7.667247e-05 0.00042249943 0.00018433512 8.679063e-06 3.190275e-06
1.3092563e-05 0.0004453693 1.549485e-05 0.0004116282 1.893336e-05 1.378994e-05 3.2768623e-06 0.00012634876
0.00035060337 6.394738e-05 7.4617633e-06 5.9371e-06 4.8875004e-06 0.00025220925 3.199527e-05 0.00028194176
9.313577e-08 3.1232037e-07 3.4736402e-07 7.6237075e-07 3.024151e-07 2.8581505e-06 1.1460081e-06 1.7323517e-08
3.7078732e-07 3.905384e-06 1.6765213e-07 2.5289e-06 1.0006335e-05 1.176204e-05 1.6010257e-05 1.2875021e-05
2.5333738e-05 3.017443e-05 1.3130207e-05 1.6776947e-06 1.2750941e-05 3.8087885e-05 2.2050895e-06 3.0529536e-05
1.2300213e-05 1.4260058e-05 1.3474609e-06 4.786669e-05 0.00028771075 5.427133e-05 4.8490083e-06 3.2930648e-06
2.7790377e-06 0.00015953144 1.9197587e-05 0.00020579528 7.062786e-06 4.2525673e-05 7.4529303e-06 6.297716e-05
0.00012207785 0.0003303875 2.6184078e-05 1.1856422e-06 3.4436813e-05 0.000652054 5.0784706e-06 0.00056135963
0.00011051203 0.00016260354 4.1000917e-06 0.00019087981 0.0022924675 0.00094375643 3.907439e-05 2.249739e-05
6.443073e-05 0.0022993295 7.553869e-05 0.0025414445 3.1741074e-06 3.790889e-06 4.941394e-06 1.0723222e-05

exp_avg f4 [128, 32]
00000000: ddcb 8db7 cd7a cc39 7148 3a39 c4af eb38
00000010: 05aa c8b9 73c0 3639 6369 7d38 fda5 10b6
00000020: b23b 5639 172b ed39 bc0c 6ab8 d8a7 cc39
00000030: 9b99 ae38 cc0d 9fb7 4c19 0739 77b9 8b39
00000040: 2e7b 7439 17d7 5e39 ba96 2ab9 592e 8e39
00000050: 172f 3a38 5dee e638 9817 76b6 bca6 89b9
00000060: 3a02 73b7 2d23 7839 3764 5ab9 55f0 f3b7
00000070: b1c5 b4b8 6ff9 4b38 ff9a bdb9 6ced cfb8
00000080: 3f9d f7b7 a0ad a4b7 8d1e f538 e0aa 94b8
00000090: a9c9 48b9 01ec 43b9 3f3d a8b8 7f7e 5ab8
000000a0: 8a18 a0b7 1867 5d37 2aed d6b7 6d7a 38b8
000000b0: 10ca b4b8 18e8 7039 b8cd 5f39 0c33 dbb8
000000c0: 6998 bab8 e66b a039 23b8 d436 b3c0 89b9
000000d0: 0783 6f39 78b1 8a39 7569 8eb8 ddab 7039
000000e0: 3256 1938 4ce8 d5b8 3e1a 2a39 6bbf c138
000000f0: d21f 4d38 2b74 ceb7 6c7f f739 3494 2439
00000100: ba5a c6b9 63c6 e5b8 13db d638 4005 5739
00000110: 689f 98b9 a463 aab9 4c3f 19b9 d479 2e37
00000120: f791 6239 af76 9739 d865 b735 7987 6839
00000130: 4e14 fa39 ac9e 87b9 40d0 abb9 f955 b438
00000140: 619f 52b9 4c2e 96b9 63ef 1639 a1ea f8b7
00000150: 41be 6939 8b10 4e38 54ea fb36 e7e3 98b8
00000160: 80bd 11b9 cc44 d738 4d18 2bba 041c 33b9
00000170: 5940 e838 0736 bf39 d00c a5b9 392c 20b9
00000180: c244 e138 1a6a fab5 6f20 18b9 bd35 3836
00000190: a76b 57b7 fd30 7c39 ba92 5339 6781 e437
000001a0: 9f8e c5b7 95a6 b1b8 7d70 e637 008b 5f38
000001b0: e549 3a38 1cda dfb9 bf3a eab8 432d 7638
000001c0: befd 4039 6bd7 1d37 793a 8a38 614a f638
000001d0: 7f05 9db9 5687 88b9 635d efb6 251d 08b9
000001e0: 8bd5 02b8 978e 1238 8de6 0c39 d074 a5b8
000001f0: efde c539 f1e5 96b9 fef7 25b9 1d3d d7b8
00000200: 8953 c938 14c1 78b7 097b ccb8 0bc6 eab7
00000210: 0b82 bb38 af55 2a39 e965 2f38 2210 0337
00000220: 98b4 38b8 7e13 76b8 d516 1f36 4d95 ccb8
00000230: 70d2 ddb8 ace2 aa37 87e9 e137 bcc9 52b7
00000240: f03b a538 e4ab 3bb8 4886 b3b7 7fde a338
00000250: c571 bfb8 58f2 7bb8 e3d7 8b37 25bc 09b8
00000260: 4047 b737 f8d5 d9b7 877e ec38 4849 6037
00000270: f6cd d237 621d 7cb8 e528 87b7 3e74 e036
00000280: d5f5 71b8 08ca 0bba a8fa 7939 5355 4db9
00000290: af7c 803a 9095 dfb9 fbb4 a8b9 83bb 8b37
000002a0: 2ed0 b3b9 5c57 37ba 93ae 2538 fa7a a0b9
000002b0: c3de 19b9 e147 393a ca45 b4b9 a214 48ba
000002c0: da36 00ba 4b55 6cba d8ca abb9 efb1 a5b9
000002d0: d857 a839 7f6c 8935 dca4 d538 495e a539
000002e0: 408f 0039 5eda f5b9 6320 6cb7 8f5c 1839
000002f0: 8a75 26ba 6cf2 223a 4519 d539 2c9b 7639
00000300: cfbd bd38 2952 6fb7 64ce d7b7 643c 1bb8
00000310: 472f 2e39 a8d1 0e39 394f 8637 e0e9 7b36
00000320: 3df2 88b8 495f 5eb8 c66b 8db6 1d7d c0b7
00000330: 2d9d 04b9 66aa 0c39 28e3 b837 a60c 9ab8
00000340: 01e1 9538 7472 00b9 e31f d6b8 b333 b338
00000350: 6881 2cb8 c746 3cb8 0249 3e38 61d0 64b8
00000360: 03df 4b38 a44b 3db8 da5b d938 cde7 2938
00000370: 7b9b a8b8 99e5 3a38 2563 b7b7 da2b b837
00000380: 488f c237 12e3 b337 bac8 46b7 81fc d836
00000390: eb79 34b6 1d35 3538 89d8 5837 f5c5 7d36
000003a0: a83e 3136 8df7 c237 0a08 a734 0c5f 8737
000003b0: ee86 dcb6 89f0 81b6 9ff9 8036 9204 5d37
000003c0: 27d7 e737 bd3a e436 6552 ebb6 9465 1238
000003d0: c091 6bb7 0ab3 0fb7 28d9 1b36 a7ff 82b7
000003e0: bd86 4b36 4fa3 0e37 67fa 4437 9da0 3a36
000003f0: 8b5c 0236 52de 8ab6 1922 1eb8 9430 59b6
-1.6903441e-05 0.00039001406 0.00017765329 0.00011238412 -0.00038273647 0.00017428565 6.041805e-05 -2.155429e-06
0.00020430869 0.00045236267 -5.5801807e-05 0.00039034965 8.325578e-05 -1.8960702e-05 0.00012884027 0.00026650328
0.00023315541 0.00021251697 -0.00016268613 0.00027118882 4.438971e-05 0.00011011653 -3.667059e-06 -0.00026254903
-1.4484447e-05 0.00023664227 -0.00020827433 -2.907977e-05 -8.619892e-05 4.8631275e-05 -0.0003616437 -9.9147524e-05
-2.9517918e-05 -1.9631174e-05 0.00011688201 -7.089018e-05 -0.0001914861 -0.00018684567 -8.022272e-05 -5.209306e-05
-1.9084913e-05 1.319663e-05 -2.5621226e-05 -4.3983036e-05 -8.620706e-05 0.00022974645 0.00021343573 -0.00010452242
-8.89756e-05 0.0003059797 6.3395287e-06 -0.00026274248 0.00022841628 0.00026453636 -6.7907305e-05 0.00022952208
3.655832e-05 -0.000101999 0.0001622224 9.2386115e-05 4.8905444e-05 -2.4611209e-05 0.00047206448 0.00015695469
-0.000378331 -0.00010956523 0.00010245121 0.00020505954 -0.00029110466 -0.00032499165 -0.00014614797 1.03995735e-05
0.00021607416 0.0002888939 1.3664203e-06 0.00022175712 0.00047698844 -0.00025867426 -0.0003277082 8.5990825e-05
-0.00020086534 -0.00028644723 0.00014394293 -2.9673161e-05 0.00022291487 4.9129634e-05 7.5076623e-06 -7.290375e-05
-0.00013898872 0.00010264813 -0.00065267534 -0.00017081207 0.00011074608 0.00036470612 -0.00031480798 -0.00015275263
0.00010741643 -1.8657331e-06 -0.00014507932 2.7449416e-06 -1.2840063e-05 0.00024050842 0.00020177188 2.7239976e-05
-2.3550643e-05 -8.471046e-05 2.7470518e-05 5.3296797e-05 4.4414675e-05 -0.0004269638 -0.00011168932 5.8693124e-05
0.00018405073 9.408085e-06 6.591244e-05 0.00011744048 -0.00029949468 -0.00026040775 -7.1336267e-06 -0.00012980828
-3.1193293e-05 3.494191e-05 0.00013437327 -7.889571e-05 0.00037740867 -0.0002878155 -0.0001582801 -0.00010263382
9.5999865e-05 -1.4826906e-05 -9.750395e-05 -2.7987195e-05 8.941077e-05 0.00016244383 4.1818163e-05 7.811965e-06
-4.403721e-05 -5.8669124e-05 2.3706136e-06 -9.7552875e-05 -0.00010577298 2.0371132e-05 2.6930835e-05 -1.2563945e-05
7.878977e-05 -4.474436e-05 -2.1400992e-05 7.813889e-05 -9.128781e-05 -6.0068764e-05 1.6670621e-05 -3.283857e-05
2.1848478e-05 -2.5968053e-05 0.000112769245 1.3368503e-05 2.5129859e-05 -6.0108847e-05 -1.6112297e-05 6.6892526e-06
-5.7687826e-05 -0.0005332534 0.00023839867 -0.00019582109 0.0009802784 -0.00042645307 -0.00032178298 1.6657408e-05
-0.00034296646 -0.00069939136 3.950165e-05 -0.00030609203 -0.00014674202 0.0007067901 -0.00034384272 -0.0007632469
-0.0004890986 -0.0009015395 -0.00032766792 -0.00031603823 0.00032108906 1.0238872e-06 0.00010187339 0.000315415
0.00012260396 -0.00046892738 -1.4074237e-05 0.0001453033 -0.0006349912 0.0006215933 0.00040645353 0.00023518194
9.047577e-05 -1.42646395e-05 -2.5726105e-05 -3.7011123e-05 0.00016611545 0.00013620278 1.6010936e-05 3.7538048e-06
-6.530106e-05 -5.3017666e-05 -4.214674e-06 -2.2946444e-05 -0.00012647054 0.00013414919 2.2040287e-05 -7.345648e-05
7.146784e-05 -0.00012249668 -0.000102102545 8.545015e-05 -4.1128515e-05 -4.488861e-05 4.5367524e-05 -5.4553504e-05
4.8606667e-05 -4.5131557e-05 0.00010364475 4.050862e-05 -8.039825e-05 4.4559685e-05 -2.1861468e-05 2.195493e-05
2.3193323e-05 2.14442e-05 -1.1848455e-05 6.466697e-06 -2.6893056e-06 4.320323e-05 1.2925019e-05 3.7815164e-06
2.6411526e-06 2.3241877e-05 3.1112023e-07 1.6137514e-05 -6.572219e-06 -3.8725016e-06 3.843757e-06 1.3173691e-05
2.7637534e-05 6.8017675e-06 -7.0131377e-06 3.4903715e-05 -1.4041027e-05 -8.56515e-06 2.3223201e-06 -1.5616255e-05
3.0327785e-06 8.501883e-06 1.1740812e-05 2.780965e-06 1.9425377e-06 -4.138602e-06 -3.770189e-05 -3.2363796e-06
