models/drone/policy_ego_rotor_best_iter75.pth (torch, 80830 bytes, 20 tensors)

lstm.weight_ih_l0 f4 [128, 12]
00000000: d9b7 f8bc 3686 e5be 2d29 e43d 40bb 0c3d
00000010: a67d a1be 6fe1 213d a76c 8abd 1f4d 053e
00000020: ea50 793d 7415 8bbe 0b56 2dbe 4634 17bd
00000030: 3c46 7bbc 22e2 013e 96f1 843e f989 50bd
00000040: 1dac f5bd 5a20 873c 8634 603e 2d3f d43d
00000050: 6da3 223c 193e 06be c46d a2bd 56e8 81bc
00000060: 01a4 1c3e 6327 16bd 1322 b7bd f9af 4e3e
00000070: beff 6abe f38d 803d 8ffa 403d c54e 5e3e
00000080: 89f0 383e d451 9fbd 215e 32be d33e 20bd
00000090: cca0 05be 7421 633e dd8e 8b3e 6a51 64be
000000a0: bee4 503e 2e99 08be 0f4e e23d e880 2a3e
000000b0: 2f89 093e 710c 133e 0f50 013d 08a3 133e
000000c0: 2c7c d4bd 69fd bb3d 0be3 bfbe 6c9f 093d
000000d0: d433 343e 46e3 46be 5a1d 963e cf70 933e
000000e0: 0f5a abbd 787e cabd 65f9 963d 45ff 6f3c
000000f0: 3fbd 94be 6e3f 743e d975 46be 2e15 153e
00000100: 4e18 313d 93a5 14be cfa3 e8bc 0571 693c
00000110: 9d66 5abe 9f0e 00be de39 373e cbbe 83bd
00000120: 8b23 9e3e b9e3 213e 2dff d7be 5791 693e
00000130: e13e 263e 22af 68be 247d c3be 9ac5 d8bd
00000140: c894 d9be 3805 1dbe d914 9cbc d749 a5be
00000150: 76b1 15be f4c1 e3bd 4911 e8be 767e 0b3c
00000160: 91e6 02bd 4880 873d 9c1d 99bd 7242 36be
00000170: 931a 583d 1155 603d 536e 04bd e360 91bd
00000180: 3be6 61be 118e 233e 2d9e d8bd b32d 50be
00000190: c6b4 9c3d e20f eabd a2c3 b53d ad7a 12bc
000001a0: 609a 15be 5376 35be 88a8 e03d f812 0c3d
000001b0: 2bff 553e ea04 30bd b438 0ebe 8e55 533e
000001c0: 4def 2e3e 74b6 6dbe bbbe bbbd 9bea 0ebd
000001d0: b633 153d e77b 4c3d eebe 15be 85d7 32be
000001e0: 740c c4be 7833 1d3e 2b43 973d 4413 92be
000001f0: 8e85 4f3e 2872 3dbe 11eb 29be 2d91 36bc
00000200: 557b e33d 7c85 133e 7da3 d5bd 1f6a b43c
00000210: b241 b23e 48e4 d5bb 849c 98be 454d e03e
00000220: f195 e63d 1623 9fbd e050 e7bd e4d3 d6bd
00000230: 9e2f 2bbe 0b74 cbbc fe71 6abd 4a0f f8bc
00000240: 8757 c43d 6b6e 65be d900 b2be 23f4 3a3d
00000250: 7500 463d f395 bc3d d993 40be 61a7 0d3e
00000260: 7e58 a5bd b902 ad3c a68a eebd 39d7 dabd
00000270: 85d5 293e 7ccd 75be eeaf b63d d75f 03bc
00000280: 5525 8dbe eefe f33d e342 04be cf52 93bd
00000290: 565c 22be 90f0 d6bc 4685 09be 10d5 46bd
000002a0: 5555 b5bd 3ef5 12be 63ed 1dbf 47d8 7f3e
000002b0: f246 073c e9ff 6abe 645f f4bc 671b ca3d
000002c0: 888e 13be ed9d 8bbd f3b1 97bd 0782 babd
000002d0: b8ee 023e 7cea 363d 3b3b d6be aa68 883d
000002e0: 3d11 813c 24ce 333c 09e3 a2bd 598d 4abe
000002f0: bc52 88bd 4331 22bd 5406 623e eb38 61be
00000300: 42d4 1b3c e841 2f3c bb90 30be 54af 8eb9
00000310: 63c3 773d d904 b83d c52a a23d 8ffb 9bbe
00000320: 921a 44be 0d3d 2dbe 0999 9c3d 6def 03be
00000330: 0df4 c33e eaae 083f bdcf a0bd b50c 923c
00000340: ca21 2c3e 4344 fa3d 99b1 6fbb ff34 1abe
00000350: ef8b a8be 6def 013e 8ebb b23d b339 0c3e
00000360: 4b67 ec3e 992a b9be 5827 a6be e28f ae3e
00000370: 7303 31be 72ff 893d cccd 30be 6009 10be
00000380: da9d 88bd 9991 b8bd b7b6 58bd ec7b c73b
00000390: 3fe1 533e b004 b53d 734f b1be 059e 71bd
000003a0: 3f8d 893e 1b68 1dbe 7642 b4be 9623 34bd
000003b0: 5e25 b5be 3c81 6f3b c2c9 d43d 8dff 7ebe
000003c0: 6473 a9bd 2462 ef3d e6a5 d43d da8c 123d
000003d0: 0dce 46be 1a70 3fbd efc0 88bd 7d02 a13c
000003e0: 8501 0abe 882c b63e 1076 943e fe1a c0bd
000003f0: 5f41 bbbd 1272 e33d b908 85be 142d a83c
-0.030361103 -0.44828957 0.11140666 0.034358263 -0.31541175 0.03952163 -0.06759005 0.130177
0.06086818 -0.27164805 -0.16927354 -0.036915086 -0.015336569 0.12683919 0.25965565 -0.05091283
-0.11995719 0.016494919 0.21895036 0.10363612 0.009926659 -0.13109626 -0.079310924 -0.015857857
0.15296938 -0.036658656 -0.08942046 0.20184316 -0.2294912 0.06277075 0.04711395 0.21709736
0.18060507 -0.07779279 -0.1741872 -0.039122414 -0.1304962 0.2218073 0.27257434 -0.22296682
0.20399758 -0.13339683 0.11050045 0.16650736 0.13431238 0.14360215 0.03157049 0.1441766
-0.103752464 0.091791935 -0.37477908 0.033599302 0.17597896 -0.19422635 0.29319268 0.28797004
-0.08366787 -0.09887403 0.07371787 0.014648263 -0.29050633 0.23852322 -0.19380893 0.1455886
0.04323607 -0.14516287 -0.028398423 0.014248137 -0.21328206 -0.12505578 0.17893168 -0.06432875
0.30886492 0.15809526 -0.4218687 0.22809349 0.16234924 -0.22723058 -0.38181412 -0.105845645
-0.42496324 -0.15334022 -0.01905291 -0.32282898 -0.14618477 -0.11120978 -0.45325688 0.008514037
-0.031958167 0.066162646 -0.07476351 -0.17798784 0.05275972 0.054768626 -0.032331776 -0.07098558
-0.22060482 0.15972163 -0.10577045 -0.20329933 0.07651667 -0.11428811 0.088752046 -0.008940381
-0.1460967 -0.17720918 0.10969645 0.034197778 0.2089812 -0.042973436 -0.13888818 0.20638105
0.17083474 -0.23214132 -0.09167238 -0.034891706 0.03642627 0.04992285 -0.14623615 -0.17465027
-0.3829075 0.15351665 0.07385858 -0.28530324 0.20265791 -0.18500578 -0.16593577 -0.011143011
0.11107508 0.14406389 -0.104315735 0.022023259 0.34815747 -0.0065274574 -0.29806912 0.43808952
0.11259068 -0.07770364 -0.112947226 -0.10489634 -0.16717383 -0.024835607 -0.057237618 -0.030280728
0.09587007 -0.22405402 -0.34766272 0.045642983 0.04834028 0.09208288 -0.188064 0.13833381
-0.08073519 0.021119462 -0.11647539 -0.10685582 0.16585357 -0.24004167 0.08920275 -0.0080184555
-0.27567545 0.11913858 -0.1291614 -0.07193529 -0.15855536 -0.026237756 -0.13429746 -0.048543036
-0.088541664 -0.14351365 -0.6169035 0.24984847 0.008256661 -0.22949184 -0.029830642 0.09868508
-0.1440984 -0.06817231 -0.07406988 -0.09106832 0.12786376 0.044657215 -0.41842064 0.06660588
0.01575529 0.010974441 -0.0795346 -0.19780482 -0.06656405 -0.03959776 0.22072726 -0.21994369
0.009511055 0.010696866 -0.1724271 -0.0002721498 0.06048907 0.089852996 0.07918314 -0.3046536
-0.19150761 -0.1691782 0.07646377 -0.12884302 0.38272133 0.533919 -0.07852123 0.017828325
0.16809765 0.12220051 -0.0036574362 -0.15059279 -0.3291926 0.1268899 0.087271795 0.13693886
0.46172556 -0.36165312 -0.32451892 0.3409415 -0.17286472 0.067381755 -0.17266005 -0.14066076
-0.06670733 -0.090121455 -0.052908625 0.0060877707 0.20691393 0.08838785 -0.34630927 -0.05898859
0.26865575 -0.15371744 -0.35206956 -0.04397925 -0.3538007 0.0036545536 0.10390045 -0.24902172
-0.08273962 0.11688641 0.10383205 0.035778858 -0.1941454 -0.046737768 -0.06677424 0.019654507
-0.13477142 0.3558085 0.28996325 -0.09380148 -0.09143328 0.111057416 -0.25983217 0.020529307

lstm.weight_hh_l0 f4 [128, 32]
00000000: bf1d 88bd e458 823e 9c7f 6c3e 6935 b53e
00000010: 7c49 613e ddea 1fbe 3c5c a4be 355f 53be
00000020: 2236 f0be dc2f 8abe 045a 25bd 4ca1 bbbc
00000030: a04a cf3e 864b ee3d 8cab 39be bbe1 a1bd
00000040: b2f2 e8bd 2eb2 203e 8c42 89be 6578 debd
00000050: c975 86be 3355 393e 95f1 913e b084 3f3b
00000060: b9c1 82be 8526 38bd 4566 613d 7aca ce3e
00000070: f257 9b3c b9dd 603d 723e e43d 43dc 80be
00000080: 2a96 323e bd76 89be 565f 0b3c 33ab 9cbc
00000090: bd85 643c fcfc 61be 539c 2ebc aa37 1b3e
000000a0: 8e9d ad3b be5e 323e 45c2 6f3e 86f1 103c
000000b0: a44f ba3e eb89 993d 18be 863e f438 54be
000000c0: 8736 1c3d 1b72 503e 6147 04bc f373 6bbe
000000d0: 245d 733d 3b57 873d bdf3 9d3d 52d2 bfbd
000000e0: 8212 cbbd c81d 83bc 34e6 253e 4400 4dbe
000000f0: 4443 453e 2f6f ed3d f257 813e 1172 18be
00000100: bd86 57bd 2c2e e7bd a1ce 23be 7bc2 a43e
00000110: 92eb 42bd bd7c f6bc 2db5 7e3e c5ee 833e
00000120: cada 83be 5838 d63d 3e50 183e a697 b4bd
00000130: 079f 55bd aff1 e0bd 9999 23bd f892 a03d
00000140: 9335 afbd 9f1d fe3d 06b1 a9bc 7cd6 90bd
00000150: b770 a33d df44 4cbd d30e 833e 2e7b 4d3e
00000160: e3ac d93b cd40 e9bd 9e9f b83b 69cb 32bc
00000170: b88b 94bd ff48 ab3d 6ea9 ba3d 7f83 8fbd
00000180: 9abf a83e 8fe1 253e 9af5 17be a1b7 c4bc
00000190: 934a 443e 3a22 c9bd 1bb6 36be 9066 523e
000001a0: f027 6ebd 041c 67be 855e 4c3e c22f f73c
000001b0: 75ca 86be d658 8abe 9b8b c1bd ef93 803d
000001c0: f99a 1dbe 20fa 7a3d 4d87 483c 8713 f4bd
000001d0: 166f a33d 601e 5ebe a06b 18bd 158a 963e
000001e0: d5ce 663d 61af 52be abdd cdbd b1b6 1a3e
000001f0: 5dc5 b7bd ae38 a93d b74f 7a3e ab34 19be
00000200: 9075 08bd 50cf ce3d 5084 2ebe 2e01 b83d
00000210: ebf7 29bd 66ef 663e b3ec 1abe 378f b03d
00000220: c2f3 dbbe f617 d2be 7d8c 47bd ac8c 073e
00000230: 4ff6 743c adc5 da3d 5edf 41be d0f4 c63c
00000240: ed16 69be 2cb2 11bc cb4c 223e 6c4d b83d
00000250: b957 86be 4d8d 263e 9675 64bd fd4e d7bd
00000260: 074b 5d3e 456e f6bc 7a21 88bd 04b1 173e
00000270: 5fbe 01be 284e 5cbe 3985 323c 9b33 4abd
00000280: 2dd0 2e3c 7cf3 94bc 7c75 bcbe abb0 8b3e
00000290: dcb5 85be eccc eb3d 21d6 f33d fef3 b53c
000002a0: 6f06 b2bd 8a94 193e e600 6f3c 50e3 c53d
000002b0: 6aa1 76be 1b4c 9e3c 0928 0fbd e813 93bd
000002c0: 4c32 193e bfe3 4b3d 0cb6 15bd 7cb8 0fbe
000002d0: 59b3 363e b91f 053c 0d52 21bc e85b 333e
000002e0: c62c 943e 2764 8f3d f705 183f c783 24be
000002f0: ee63 12be 7be8 a8bd 8db1 eb3d 9d6e 693c
00000300: 9353 57be 1591 95bd 791e acbe 16a6 d83e
00000310: 4b49 b6be 22e9 423c 49a9 e13d 401c 9d3d
00000320: c28c 8bbd ca37 5bbd 9363 2bbe 6e6d 293e
00000330: 08a3 1abe f454 a1be 8c5a babd 7deb e9bc
00000340: 73a6 2abe dde7 f6bd 319a 643e 0b9e 8e3e
00000350: 7d30 1f3e 8abc 8bbd ab9b 173e d340 60be
00000360: c20b e63e 6df9 d9bd a35a 0c3f e40a b5be
00000370: 0644 e2be 473b 89be 7951 213e b922 df3e
00000380: 4267 b63d 7672 98bc a2dd 32be d123 393e
00000390: 35c4 47be 3fce d8bd 6d72 3dbe 17bf 843d
000003a0: daca 423d b255 133d 0409 ee3d c69a 223e
000003b0: 8020 61bd 60b2 6c3e e3ad 3f3d 601f 8f3d
000003c0: dd4b 403e 27fc f5bc 064f c73d 1176 cd3d
000003d0: 394f 603d 6a0d e9bd 27b0 1dbe 0681 6e3d
000003e0: 982f 473e 638f 5fbe 73d5 9f3e 3c8e 633d
000003f0: 6d43 573c b8f2 1b3b 5a35 9ebc 92cc 253e
-0.066462986 0.25458443 0.23095554 0.3539231 0.22000688 -0.15616937 -0.3210162 -0.20641787
-0.469163 -0.2698964 -0.04036905 -0.02290406 0.40486622 0.11635499 -0.18131846 -0.07904383
-0.113744155 0.1569297 -0.26808584 -0.10862807 -0.26261738 0.18098907 0.28504625 0.0029223375
-0.25538424 -0.04495861 0.055029172 0.40388852 0.018962834 0.05489895 0.11144723 -0.25168046
0.17440096 -0.26848403 0.008506617 -0.019124603 0.013947901 -0.22069162 -0.010657388 0.15157953
0.005298323 0.17418954 0.23413952 0.008846646 0.36388886 0.07497009 0.26316905 -0.20724851
0.03813794 0.20356028 -0.008073659 -0.2299345 0.059414998 0.06608435 0.07712505 -0.09366287
-0.099156395 -0.016005412 0.16201097 -0.20019633 0.19263941 0.11593472 0.2526241 -0.14887263
-0.05261873 -0.112881035 -0.15996791 0.32179627 -0.04758794 -0.030088777 0.248738 0.25768104
-0.2575286 0.104599655 0.1487436 -0.08817987 -0.052153613 -0.109835975 -0.039941404 0.07840532
-0.0855514 0.124079935 -0.020714294 -0.0707216 0.07980483 -0.049870368 0.25597247 0.2006652
0.006642924 -0.11389313 0.005634262 -0.010912755 -0.07253212 0.08363532 0.091143474 -0.07007503
0.3295868 0.16199325 -0.14839783 -0.024013342 0.19169073 -0.09820981 -0.17842905 0.20546937
-0.058143556 -0.22569281 0.19957931 0.03017414 -0.26326337 -0.270209 -0.09450456 0.06278216
-0.15391149 0.061273694 0.0122392895 -0.11917787 0.07980172 -0.21691275 -0.037212014 0.29402223
0.056349594 -0.20574714 -0.100520454 0.15108754 -0.08973191 0.08262764 0.24444471 -0.14961497
-0.03331524 0.100981355 -0.1704266 0.089846 -0.0414962 0.22552261 -0.15129356 0.08621066
-0.4295941 -0.41033906 -0.048717964 0.13237256 0.014951303 0.10682235 -0.18932864 0.024286658
-0.22762652 -0.008892577 0.15849607 0.08999142 -0.26238802 0.1626484 -0.0557762 -0.10513113
0.21610652 -0.030081877 -0.0664701 0.1481362 -0.12670277 -0.21514189 0.010896021 -0.04936562
0.01066975 -0.018182509 -0.36808383 0.27283224 -0.2611531 0.11513695 0.11906076 0.022211071
-0.08692633 0.1499807 0.014587617 0.09662497 -0.24085012 0.0193234 -0.03495029 -0.07181531
0.14960593 0.049777742 -0.036550567 -0.14035219 0.17841853 0.008125239 -0.009846223 0.17515528
0.2894041 0.070015244 0.593841 -0.16065894 -0.14295933 -0.08247467 0.115084745 0.014247564
-0.21027975 -0.07303063 -0.33617 0.42314214 -0.35602793 0.0118964035 0.11018617 0.07671404
-0.06813957 -0.05352 -0.16737203 0.1654565 -0.15101254 -0.31510127 -0.09099302 -0.028554672
-0.16665058 -0.12055943 0.22324444 0.27854952 0.1554584 -0.0682307 0.14805476 -0.21899728
0.44930845 -0.10643277 0.548258 -0.3535987 -0.44192523 -0.26803038 0.15753736 0.4358118
0.089064136 -0.018609267 -0.17467359 0.18080069 -0.19508441 -0.10586213 -0.18500681 0.0648176
0.047556736 0.035970397 0.11622813 0.15879354 -0.054962635 0.2311492 0.04679669 0.06988406
0.1877894 -0.030027462 0.097318694 0.10032285 0.054763053 -0.11379512 -0.15399228 0.058228515
0.1945175 -0.21832041 0.31217536 0.055555567 0.013138634 0.0023795795 -0.01931255 0.16191319

lstm.bias_ih_l0 f4 [128]
00000000: bd59 3c3e 3c8a 7cbd e1a4 c33c f580 35bd
00000010: 4ba6 28be e51b ea3c d016 12bf 9557 e13c
00000020: cb73 94be 8c2d a3bd 2733 bc3d 57ed 84be
00000030: 0ef8 46be 60ae 76be f3bf 84be f5d3 dcbe
00000040: 928a 8abc 0b16 d33d 834a 1abe bb46 65be
00000050: 359d 24be 5cae 07be a225 f3bd f5d3 2dbe
00000060: 22d6 d13d 0e1f 1ebe c8c4 5cbd 870f a0bd
00000070: 9ad3 c33d 55bc 4f3e 6f73 cabd 8305 643e
00000080: d58a f23d f86c c2bd 697a 98bb 5c6b df3d
00000090: 9410 a7bd 529b 72be bb9b c3be f053 50be
000000a0: 8a70 23bd 32e3 58be 11c6 203e cb62 cabe
000000b0: 1db9 0ebe 35a0 c33c 9984 f2be e23b 5abd
000000c0: d20d 59be 6e4d 213e c74b 6dbe d032 abbe
000000d0: 7284 533d 5974 febd 92fa b0be 09dc 18be
000000e0: e3f5 673d 28de 043a 1cb2 c8be 1a88 70bd
000000f0: 8d6c 103e fe15 2ebe 6df1 45bd 7154 263e
00000100: 31a4 9a3d d3f6 3cbe 55f4 153e 35f6 0cbe
00000110: a59f fd3d ea0c 6bbd 6593 183d 1368 913d
00000120: dfba c83c e9f1 fe3d 2404 453d 8266 6cbd
00000130: 1ea7 f23d 6b61 97bc ac16 8ebd 1a95 8dbd
00000140: c98a d03c 2c8d 233d 474a 42be bb38 d3bc
00000150: 773b 1bbd 389f 2bbd 2a7e dcbd 5ab8 ed3c
00000160: 587a c8ba 9bc9 6f3d 9f46 60bd 1809 7c3d
00000170: bc0b c13d 5fd2 7bbd 5a71 fcbd d8d0 62be
00000180: 7eb1 203e 6002 0b3e 564f febc d25a 13be
00000190: adb2 903d eb8c d5bd eda8 1bbf 8536 f43d
000001a0: 7dac 023d 2255 b2bc 5d95 39be 565b 27be
000001b0: 3180 1dbd a503 1ebe ec9e a1be 740c 97be
000001c0: 8264 c1bd 9a3a 4dbe e5b9 fabd 4ccd 1abe
000001d0: ed8d af3d 0c17 18bd bdbd 85be ca9f b2be
000001e0: 9d46 113e 517f 93bc 2814 92bd 4ade 0abe
000001f0: b14b 42be 8b9e 42be e331 413c 3642 10bd
0.18393607 -0.061655268 0.023882331 -0.044312436 -0.16469686 0.028577754 -0.5706606 0.027507583
-0.28994593 -0.07967672 0.09189444 -0.25962326 -0.19430563 -0.24089956 -0.25927696 -0.4313046
-0.016911779 0.10306939 -0.15067486 -0.22390263 -0.16075595 -0.13250107 -0.11872412 -0.16975386
0.10245921 -0.15441534 -0.053898603 -0.078154616 0.09561844 0.20286687 -0.098852985 0.22267728
0.11842886 -0.094934404 -0.0046532643 0.10909149 -0.08157459 -0.23692062 -0.3820475 -0.2034452
-0.039902247 -0.21180418 0.15700556 -0.39528498 -0.13937803 0.023880104 -0.4736679 -0.053279765
-0.21196678 0.15752193 -0.23173438 -0.33437204 0.05163998 -0.12424535 -0.3456617 -0.14927687
0.05663098 0.0005068504 -0.39198387 -0.058723547 0.14103909 -0.17000577 -0.048325945 0.1624315
0.07550848 -0.18453531 0.14643987 -0.13765796 0.123839654 -0.057385363 0.03724994 0.07099929
0.02450317 0.124484845 0.048099652 -0.057714947 0.11848281 -0.01847907 -0.06937918 -0.069132045
0.025456803 0.039929554 -0.18973647 -0.025783887 -0.037898507 -0.04189989 -0.107662514 0.02901857
-0.001529525 0.058541875 -0.05475485 0.06153211 0.09426066 -0.061479922 -0.123263076 -0.2214998
0.15692708 0.13575125 -0.03104369 -0.14390114 0.0706533 -0.104272686 -0.60804635 0.11924461
0.03190278 -0.02176911 -0.18123384 -0.16343436 -0.03845233 -0.15431078 -0.3156656 -0.29501688
-0.094429985 -0.20041886 -0.12242488 -0.15117377 0.08571992 -0.037131354 -0.2612132 -0.34887534
0.14187093 -0.018005045 -0.07132751 -0.13561359 -0.18974186 -0.19005792 0.011791679 -0.035219394

lstm.bias_hh_l0 f4 [128]
00000000: b802 423d d945 7e3d 131f c73a 413f 563d
00000010: cf28 843d 6848 75be 60c1 f0be a921 0a3e
00000020: d8e8 0bbe 76d2 2cbe 87ba ab3d a64d 9bbd
00000030: 5fde babd d0ab c43c 4fd0 76be 212e e2be
00000040: 08d6 9fbc 118a c9bd c20e cabd b126 99be
00000050: a81c c63d 58fd aebe f823 c4bc 75f2 36be
00000060: b2ab 50be 1dba 39bd 939c 853d 35ee 653d
00000070: fad2 0f3e 5324 3f3e 55d4 a33d 0576 743e
00000080: 270d 2b3e 1c12 c6bd adc3 0ebe ff72 2bbe
00000090: 0204 08be 2888 1bbd f06d adbe 1ecd 03bd
000000a0: 7a0b 703d 2263 803d 9d9c df3d b46f 82be
000000b0: d79f 85bd 983b 56be 0548 83be cedf 9abe
000000c0: 9da0 79be 02d4 4e3e 9a7a 493d 24ed b1be
000000d0: f449 c43d 5c82 8fbd bbfa e2be 91be a8be
000000e0: 6330 253d 696c 293e 0411 b4be 6ee4 88be
000000f0: f5d3 0d3e 72a3 803d cecf 07be a384 3d3e
00000100: beac 30bd 4594 46be d12f 183e d6da cc3d
00000110: dd92 a5bc 5c83 0dbe 5bc7 093e 9a6f a2bc
00000120: 01f7 f73d ba21 1dbe b5ca babc 6e36 2d3e
00000130: 2fb9 bcbc 35c4 40bc a693 bbbd 2865 08bc
00000140: 59ad cf3c a04d d4bd ff5d 1abc 1dfe ae3d
00000150: d492 99bd f9bf 853d e269 fa3d e5c2 0dbd
00000160: 3133 0abe beae 1f3e 72ad 7bbe 833d 19bd
00000170: c2f1 d73d 3e67 1dbe 3dd3 dc39 6e59 9dbb
00000180: 74c8 d73d 7f74 ce3d b4f6 1cbe 19a6 0dbd
00000190: 2d50 8f3d 42e6 26be 1671 0dbf 6706 f2bd
000001a0: d7c4 68bd 6aea 47be 65d5 6fbd 61ee 41bd
000001b0: c9cb 5fbe d39f fbbd 80e7 f4be ab74 81be
000001c0: f63a cbbd 7129 5bbd d735 b1bd f16f 80be
000001d0: 7459 6f3a 860c 16bd 5039 6dbe 5b76 bbbd
000001e0: e0a5 92bd 543e 443d 54a0 e13d 4def 103d
000001f0: bd63 6abe d5ea 81bd 478d 69be 52d9 34be
0.047365874 0.06207833 0.0015191756 0.052306417 0.06453096 -0.23953402 -0.47022533 0.13489403
-0.13663042 -0.1687716 0.08385187 -0.0758317 -0.09124445 0.024007708 -0.24102901 -0.4417582
-0.019511238 -0.09840787 -0.09866096 -0.29912332 0.096734345 -0.3417766 -0.023942932 -0.17865928
-0.20377997 -0.045343507 0.06524005 0.056135375 0.14045325 0.186662 0.079994835 0.23873146
0.16704236 -0.09671423 -0.13941832 -0.16743086 -0.13282779 -0.037971646 -0.33872938 -0.032178037
0.058604695 0.06268908 0.109185435 -0.25475848 -0.06524628 -0.2092117 -0.25640884 -0.30248874
-0.24377675 0.20198062 0.049189188 -0.34751236 0.09584418 -0.07007286 -0.44331917 -0.3295789
0.04032935 0.16545261 -0.35169232 -0.26736778 0.13850386 0.06281175 -0.13262865 0.18507628
-0.04313349 -0.19392498 0.1486199 0.10002677 -0.020211631 -0.13819641 0.13454954 -0.019828606
0.12107659 -0.15344897 -0.022801736 0.16915295 -0.023037521 -0.011765529 -0.09159021 -0.008324899
0.025351213 -0.10366368 -0.0094218245 0.08544562 -0.07498708 0.065307565 0.12227227 -0.034609694
-0.1349609 0.15594003 -0.24577883 -0.037412178 0.105441585 -0.15371415 0.00042119055 -0.0048019206
0.1053628 0.100808136 -0.15328485 -0.03458223 0.06997714 -0.16298774 -0.5525068 -0.118176274
-0.056828346 -0.19523016 -0.05855312 -0.047346476 -0.21855082 -0.122863434 -0.4783287 -0.25284323
-0.09923355 -0.05350632 -0.08652847 -0.25085405 0.0009130456 -0.036633037 -0.23166394 -0.09153434
-0.071605444 0.047911003 0.11016908 0.035384465 -0.2288961 -0.06343619 -0.228078 -0.17661026

hidden2out.weight f4 [3, 32]
00000000: f3fe 00bd 4008 3b3e eb25 d1bd 5ef9 a6bd
00000010: a668 9c3c 1e69 58bd 1a92 23bd abb6 1fbe
00000020: d419 1c3d 5d17 133e 3b21 363e 69c2 24be
00000030: 737d 823d a45d c0bd 227f 9f3d ccd2 dbbd
00000040: e695 ac3c 0fbb 9dbd 230b fd3d 587d 29bc
00000050: 1dfb 2b3e b4c2 fd3d ffe1 48be e5f3 433c
00000060: abd1 0a3e dc06 0fbe 9fc6 c7bc 92b7 f43d
00000070: 9182 93bd 3475 363e 79fd 07be 570c 14bd
00000080: 6772 1bbe 8b06 983d 0ea2 a0bd 714e cfbd
00000090: 7a20 183e 09a1 15bd 355d 5bbc 6252 33bd
000000a0: 7e45 2f3d 0b7f 6ebd d8e2 183e a3e0 5ebd
000000b0: 18df f0bd 41e1 09be 2392 003d ff68 623e
000000c0: 90ee a3bd a204 bd3d 21c5 1e3e 3f39 c33c
000000d0: c975 6dbd d41a 0fbc 2021 283e 3c39 033d
000000e0: 6864 d6bd 0035 87bb fd8f 52be de04 473e
000000f0: df0f ce3d 7a10 483d 0edc edbd 4376 e5bd
00000100: 888b 8a3d e919 813d 3af2 c63d 2511 74bb
00000110: da97 103e 2b4e 50bd 4a16 17ba da88 0abe
00000120: 9edd 203c 70a9 febd eee0 783d dad1 793e
00000130: 41c7 c23d a2c4 1dbd 9dc5 69bb bcdd 1d3e
00000140: 341d 2e3d 8fff 88bd fd4c e2bd 4eaa 193d
00000150: d927 babd e060 92bc 3e87 c13e 43e7 4fbd
00000160: ad8f 94bd fd94 05bb a927 ea3d 2958 90bd
00000170: e70f ed3d c3b7 c0bd 94c9 ec3d 786c 38be
-0.03149314 0.18264866 -0.102123104 -0.08153032 0.019092869 -0.052834623 -0.039934255 -0.15597026
0.03811057 0.14364381 0.17786114 -0.16089787 0.06371584 -0.093928605 0.077879205 -0.10733566
0.02106757 -0.07701694 0.1235564 -0.010344826 0.16795011 0.12390652 -0.1961746 0.011960004
0.13556544 -0.1396746 -0.024386702 0.11949076 -0.07202638 0.17818147 -0.13280286 -0.03614458
-0.1518036 0.07423123 -0.078434095 -0.101223834 0.14856139 -0.03653053 -0.0133889215 -0.04377974
0.042790882 -0.058226626 0.14930284 -0.05441345 -0.11761302 -0.13464834 0.031389367 0.22110365
-0.080044866 0.09229399 0.15504886 0.023831008 -0.057973657 -0.008734424 0.16418886 0.032037005
-0.1046837 -0.004126191 -0.2056274 0.1943545 0.10061621 0.04884384 -0.11614238 -0.11204197
0.06764895 0.0630377 0.0971417 -0.0037241664 0.14120427 -0.050855797 -0.0005763514 -0.13528767
0.009818463 -0.124346614 0.060761385 0.24396458 0.09510661 -0.0385176 -0.0035670765 0.15416616
0.04250832 -0.06689369 -0.110498406 0.03751593 -0.090896316 -0.01786846 0.37798494 -0.050757658
-0.072539665 -0.0020382993 0.11433346 -0.07048065 0.11575299 -0.0941005 0.115618855 -0.18010128

hidden2out.bias f4 [3]
00000000: b36c 203d c357 c5bd f58c eabd
0.039166164 -0.0963588 -0.11452667

std_layer.weight f4 [3, 32]
00000000: 7f0b 323e e284 963d 250d 18be e1e4 1ebe
00000010: 609d 1abc 42df e83d 3e54 c93d 20fe fe3b
00000020: 98df bb3c a7ea 05be d6c1 dc3d 8074 9bbc
00000030: 7dc5 11be cc33 05be 3829 15bd 2c0a e4bd
00000040: 7264 69bd e9a0 303e 4008 f93b f27e c4bd
00000050: 8f20 0d3e 8d06 283e e0b7 8c3c 803b 91bb
00000060: 80a6 ab3c a8f0 11bd f06c 063d a0a3 613d
00000070: bba1 083e 8263 aa3d 3845 0e3d d018 5abc
00000080: 533d 0a3e 8ce0 923d d07c 653d 8af6 f73d
00000090: bc7f 153d a455 4abd 34eb 383d deec b3bd
000000a0: e6ec dd3d daea 66bd 0c19 253d e8f2 4a3d
000000b0: a688 07be ef22 17be 46d4 f83d 81b2 32be
000000c0: e871 7dbd 1abc ce3d f0f7 333d 1970 2d3e
000000d0: 5296 31be b099 7b3d 796c 89bd 361a 973d
000000e0: 7d8b 043e 6233 f53d f173 33be 5722 80bd
000000f0: ee73 fd3d a27f 873d 8426 13be aa9f de3d
00000100: eeb0 fb3d 48bb afbd 3c10 58bd a369 02be
00000110: 420a 09be 0149 a7bd ac5d 29bd c079 8b3b
00000120: c60b dc3d 2746 223e 1079 9e3c 7eb3 d63d
00000130: 42d0 d73d 40b5 0d3d bb6f abbd 426f 913d
00000140: 08de e13c 8aa7 0fbe f6ce 63bd acec 8dbd
00000150: 28a5 7d3d f589 a7bd 2ae1 973d 10ac 20bc
00000160: 605e f7bc 78b6 8b3d 122b dd3d 8cbf 5e3d
00000170: c068 f73c e0bd 31bc 044e 01bd 32e0 b03d
0.17387198 0.07349564 -0.14848764 -0.15516998 -0.009436935 0.11370708 0.09830521 0.007781759
0.022933766 -0.13077794 0.10779159 -0.01897645 -0.14235492 -0.1300804 -0.036416262 -0.11134753
-0.056980558 0.17248882 0.0075998604 -0.095945254 0.13781951 0.16408749 0.017177522 -0.004432142
0.020953417 -0.0356299 0.032818735 0.055087686 0.13342945 0.08319761 0.03473398 -0.01331158
0.13499956 0.07171735 0.056027234 0.121075705 0.03649877 -0.04939808 0.045146182 -0.08785413
0.108362004 -0.056376316 0.04030709 0.04954806 -0.13235721 -0.1475942 0.12149863 -0.17450906
-0.061876208 0.10094471 0.043937624 0.16937293 -0.17342499 0.061425865 -0.06710143 0.07378046
0.12943836 0.11972691 -0.17524697 -0.0625655 0.123756275 0.06616141 -0.14370161 0.10870297
0.12289606 -0.08580643 -0.052749857 -0.1273561 -0.1338282 -0.08168221 -0.041349098 0.004256457
0.10744433 0.15847073 0.019344836 0.10483454 0.10537769 0.03459668 -0.0837092 0.07101299
0.027571693 -0.14028755 -0.055617295 -0.06929907 0.061925083 -0.0818061 0.074159935 -0.009806648
-0.030196369 0.068219125 0.10799231 0.054381892 0.030201316 -0.010848492 -0.031568542 0.08636512

std_layer.bias f4 [3]
00000000: 44db 13bd 0936 093e 92a3 e43d
-0.03609778 0.13399519 0.11164011

exp_avg f4 [128, 12]
00000000: 7aa5 4039 377f 84b9 6c98 80ba d31a 0f3b
00000010: 61de f23a 5db0 bcbb b524 80ba 3b28 ceba
00000020: b145 28ba edbd 18bb 6413 b4bb 97e7 6abb
00000030: 9e56 c6b8 5675 1dba c1eb a5b9 ed27 ab3a
00000040: 2929 e439 d140 78bb c300 8bba dcc4 4cba
00000050: 2574 d6b9 86df 24bb 9ab6 8fbb 7a6b 2bbb
00000060: 368a 82b9 a3db 6cba c29c 1a3a d4e7 ca39
00000070: 3c69 b6b9 53e4 84ba 175c 28ba 4973 0bb8
00000080: d00c c638 178c c6ba 74b4 03bb 039e 35ba
00000090: 749b 02b9 88bb b938 7597 c139 3b0c 6fba
000000a0: e203 3cba 2aaf 0d3b f700 dc39 60d6 1b3a
000000b0: e8ed b639 df15 893a 2f39 163b 8fea d03a
000000c0: f14f 21ba f62b 1cba a1ed 8b39 86d9 8239
000000d0: 5fd9 1bb9 d5d1 06bb d956 a1b9 cb14 76b7
000000e0: 1649 82b7 b31f fcba b3dc 03bb fa4e 03bb
000000f0: cb9f 80b6 1eae 8838 a88a e7b7 3385 e6b6
00000100: 6b9e 5438 add7 a738 c013 2638 1189 a837
00000110: 0fba 9fb7 de6c 2d38 4bd3 5439 310b 1438
00000120: d956 82b3 ba55 87b3 1d63 a333 8144 b3b2
00000130: ff22 3cb3 2550 e7b2 e551 e8b0 5fc4 0233
00000140: 55f3 a133 c5a4 9232 2ca1 2733 f247 ec32
00000150: e54e c438 752f 603a 9446 3b3a b530 04bb
00000160: a65e 77ba 26f1 c83b 49b6 b03a 3405 be3a
00000170: 01a4 8f39 b26a 483b efb9 e33b 9654 443b
00000180: 6926 9db8 b041 8638 0bbb d338 3de1 91b9
00000190: d020 0bb9 f2f1 1d3a d217 5339 a401 5139
000001a0: c623 c638 9210 8e39 36a5 423a bb74 a139
000001b0: 0c77 8eb8 3e6b a7b8 433d 8c38 d38a 12b8
000001c0: 152c 93b8 cff2 86b8 4b29 e7b7 c2cb dd37
000001d0: 522c c937 90da 89b9 7597 56b9 2ba8 57b8
000001e0: 0b19 93b9 f193 1c3a 7778 c237 747f 22ba
000001f0: c589 5e39 5e56 b23a c213 7e3a 270e 363a
00000200: ba6a 6db9 3c2f 073a f104 513b 1fab 96ba
00000210: 757b e7b9 1236 fbb9 9677 d037 71c4 71b8
00000220: afd1 23ba 892e f7ba 2c6b abb9 1c76 10b8
00000230: 7f4c aab9 ba9d 24bb 69f3 21bb ba98 edba
00000240: 2308 8239 826c 9939 b653 1539 a835 a4b9
00000250: f20f 3039 c87e e83a dd11 d639 2383 3c39
00000260: d844 8a39 6423 d03a 432a f83a f6ba c63a
00000270: 35c4 b33a 2742 263a 343f 333a bd77 59ba
00000280: da3a 293a 04a4 e43b 99b5 9e3a e713 8639
00000290: a155 c33a ece3 d53b 8772 bf3b 6602 fe3b
000002a0: 56b9 90b3 9e9a aeb3 36a6 a033 3995 0ab4
000002b0: b025 6ab4 7c10 96b3 9887 6c32 bce5 3733
000002c0: cf7d eb33 0205 0834 6bcd 2234 cfe8 6034
000002d0: 4ed3 9ab9 19ec 8cb9 e8a5 a2b8 37c1 e2b8
000002e0: 2fdc 03ba a340 b8ba b1c7 7eb9 aed1 8db6
000002f0: 65b7 6cb9 dcdf e3ba 8b61 d4ba 093e 84ba
00000300: ee98 8f37 21e8 4c37 09b4 a8b7 b2f9 4138
00000310: 3b6a 9f38 62bb 6fb8 1650 8a37 94cf fdb7
00000320: 6b65 52b6 d20d 4e38 078e 0c37 5a2b 34b8
00000330: 0379 df38 c8a7 a938 9bd8 dab9 9b6b 3d3a
00000340: 2f35 3f3a 3327 c8ba 106e 44b9 b060 f9b9
00000350: 65ee 61b9 671f 03ba fc98 96ba 974b 81ba
00000360: 66ab 1a39 ba9a ab38 cac1 a03a f010 daba
00000370: 9a71 84ba 71b0 bb3b 9ac6 803a dcbc 9c3a
00000380: 2737 813a 9fef 563b ea38 9e3b 8610 943b
00000390: 1ad6 59b5 5a6a 7cb5 da71 3b35 a7ad ab35
000003a0: 1ea1 b735 74eb 39b6 9ee5 59b4 be06 eab4
000003b0: 5d6e 9d35 c307 21b5 2509 34b6 6507 e4b5
000003c0: 1410 f0b9 e460 0cba 4d31 573a 7fd4 26ba
000003d0: 4099 48ba 4c16 5c3a 0c33 8539 191d 1f3a
000003e0: fb18 2a3a f3b5 6239 e31b 413a 0687 763a
000003f0: 2586 2eb6 91ac d635 1bd8 5ab8 0091 2038
0.00018372192 -0.00025271784 -0.000981105 0.0021836057 0.0018529409 -0.005758329 -0.0009776565 -0.0015728542
-0.0006419076 -0.0023306564 -0.0054954756 -0.0035843605 -9.4575094e-05 -0.0006006559 -0.00031646903 0.0013058163
0.00043518216 -0.003788043 -0.0010605085 -0.0007811317 -0.00040903795 -0.0025157644 -0.0043857815 -0.002615659
-0.00024898507 -0.0009035414 0.00058979925 0.00038701168 -0.0003479215 -0.0010138847 -0.0006422414 -3.324755e-05
9.443762e-05 -0.0015147951 -0.0020096572 -0.00069281476 -0.00012455677 8.856418e-05 0.00036924673 -0.0009118949
-0.00071722094 0.0021619298 0.0004196239 0.0005944725 0.00034891 0.0010458789 0.0022922268 0.0015939045
-0.0006153575 -0.00059574784 0.00026689193 0.000249576 -0.00014862929 -0.0020571847 -0.0003077302 -1.4667584e-05
-1.5531241e-05 -0.0019235521 -0.002012056 -0.0020036087 -3.8332996e-06 6.517417e-05 -2.7601913e-05 -6.8700406e-06
5.0692277e-05 8.003353e-05 3.9595878e-05 2.0090987e-05 -1.9040917e-05 4.1347805e-05 0.00020296608 3.5296373e-05
-6.069394e-08 -6.302021e-08 7.6083076e-08 -2.0869495e-08 -4.380399e-08 -2.6928385e-08 -1.6903497e-09 3.0446582e-08
7.5414086e-08 1.7071565e-08 3.9029302e-08 2.7506733e-08 9.3607036e-05 0.00085519935 0.0007144001 -0.0020170633
-0.0009436406 0.0061322628 0.001348206 0.00144974 0.00027397278 0.0030581173 0.0069496552 0.0029957644
-7.493498e-05 6.401853e-05 0.000100961035 -0.0002782437 -0.00013268297 0.00060251274 0.00020131402 0.00019932404
9.448039e-05 0.00027096696 0.0007425131 0.00030795284 -6.793262e-05 -7.983156e-05 6.687131e-05 -3.4938403e-05
-7.017717e-05 -6.4348445e-05 -2.7556574e-05 2.6440135e-05 2.3981705e-05 -0.00026293518 -0.00020465053 -5.1416613e-05
-0.00028056683 0.0005972973 2.3182698e-05 -0.00061988016 0.00021222893 0.0013606062 0.0009692275 0.0006944858
-0.0002264184 0.000515688 0.0031893814 -0.001149509 -0.00044151736 -0.00047914736 2.4851219e-05 -5.7641828e-05
-0.0006249202 -0.0018858473 -0.0003269551 -3.4442273e-05 -0.0003248192 -0.0025118426 -0.0024711734 -0.0018127181
0.00024801595 0.0002926328 0.00014240932 -0.00031320495 0.00016790608 0.0017737979 0.0004083057 0.0001797793
0.00026372704 0.0015879688 0.0018933493 0.001516192 0.001371509 0.0006342255 0.0006837726 -0.00082957355
0.0006455608 0.00697756 0.0012108564 0.000255733 0.0014902839 0.0065274145 0.00584251 0.0077517508
-6.739235e-08 -8.130631e-08 7.480814e-08 -1.2906538e-07 -2.1806659e-07 -6.987918e-08 1.3767838e-08 4.281695e-08
1.0965925e-07 1.2667809e-07 1.5162156e-07 2.0946321e-07 -0.00029530603 -0.00026878787 -7.7556644e-05 -0.00010812509
-0.00050300633 -0.0014057349 -0.00024297718 -4.2265374e-06 -0.00022575034 -0.0017385441 -0.0016203386 -0.0010089289
1.7118142e-05 1.2213394e-05 -2.0110996e-05 4.6247333e-05 7.601498e-05 -5.7156554e-05 1.6488175e-05 -3.0256611e-05
-3.1351472e-06 4.91271e-05 8.377719e-06 -4.295572e-05 0.00010656009 8.0898e-05 -0.00041741584 0.00072258123
0.0007293997 -0.0015270471 -0.00018733018 -0.0004756502 -0.00021546481 -0.0005001933 -0.0011489685 -0.0009864446
0.00014750435 8.1827355e-05 0.0012264785 -0.0016637128 -0.0010104657 0.0057278206 0.0009824813 0.001195814
0.0009858356 0.0032796634 0.004828562 0.0045185713 -8.115036e-07 -9.403208e-07 6.9828604e-07 1.2791032e-06
1.3681454e-06 -2.77042e-06 -2.0293234e-07 -4.3590802e-07 1.1729531e-06 -5.998847e-07 -2.6827413e-06 -1.6989476e-06
-0.00045788346 -0.0005355014 0.00082089455 -0.0006364062 -0.00076522306 0.00083956565 0.0002540577 0.00060697045
0.0006488708 0.00021620821 0.0007366521 0.00094042753 -2.6006103e-06 1.5994466e-06 -5.2176514e-05 3.8282014e-05

exp_avg_sq f4 [128, 12]
00000000: 7707 c933 228b 3f35 01ea 8b36 1e5a c537
00000010: accb a537 eecf 1d39 317a c736 1f8f 2e37
00000020: 3960 0536 bd89 d937 4ce4 0939 e614 9838
00000030: 3fc7 ec34 9ea0 d035 165a c335 6245 fa36
00000040: 7456 4b36 4502 9c38 d87f 9036 990c 5336
00000050: bc2f 0736 874b fe37 742e b338 7e68 5338
00000060: 13f1 5e36 dd92 7536 61e2 a636 fda6 8c37
00000070: 04da bb37 5575 1239 038d c936 47cc 4a37
00000080: ca62 6a36 0330 8e38 d4cc 1a39 c969 d538
00000090: a855 1634 268e 0e35 789b cc35 9494 1437
000000a0: 8613 f536 ea12 7f38 e8ad ec35 cc73 9136
000000b0: 6457 5c35 52c0 4a37 f265 6838 c204 f737
000000c0: 7416 6b36 7491 8936 4aba 3d36 6e71 1637
000000d0: 0622 b337 b4eb a537 1c6d d635 3bd2 5036
000000e0: 481e 0935 1ae5 1d38 a1bd 1b38 6500 c737
000000f0: 2105 6433 f07c 8833 d1d0 6233 b1f4 8c34
00000100: c383 df34 228c 7735 68e5 ad33 ab32 b533
00000110: ced3 0833 7619 5035 f289 9d35 00da 8935
00000120: fc3c 5128 4304 5c28 d566 9728 c189 9327
00000130: 2390 d828 8508 542a 4d9a 5027 b97f c827
00000140: 9ae5 7c28 7f4e 8e27 acfb 2429 f32a 0928
00000150: 712b 1e35 ce2b 6436 db35 5b36 b5ec a037
00000160: 1dfb f636 120f 5439 a72e 3637 9105 f236
00000170: 49a5 9e36 9c21 b638 bff2 7239 748d 2139
00000180: 2591 9633 d428 d333 f720 8433 f516 1735
00000190: 8f9c af34 6c84 6136 f896 8934 e278 8034
000001a0: d0a5 b433 b757 e335 ceaf 8736 4b09 1536
000001b0: 82a7 3d34 283c 9d34 0262 3533 fc9a 0035
000001c0: 91ba b934 ed13 f536 7f32 df32 4450 b634
000001d0: 29e6 ef33 fa72 6236 7a7b 6136 5ce2 8e35
000001e0: cb9b 8936 047e ac36 7087 8f36 eb03 aa37
000001f0: b811 b637 7ac9 0539 6446 8037 17e5 cb36
00000200: eda9 8236 3c3f ca38 a3ad 2c39 61af b938
00000210: 4a1d f436 2d29 0237 4b11 b234 e5f9 2836
00000220: 4038 6737 b939 3c39 23b6 1d37 9f45 5c35
00000230: 85af aa36 16c6 7239 233d 8b39 76a2 5439
00000240: 69c3 ee34 e28d 6335 8428 6d34 92bd f035
00000250: 7894 3f35 195b 0438 2c49 9c35 a2ee f534
00000260: c1a2 ac35 3f4d c037 1b4a 0338 bdfa 2638
00000270: dc45 6c37 9aa0 3937 0d19 6736 017e 0e38
00000280: 9094 6238 cb5b 9439 a204 b137 b65e 4937
00000290: 4dab ef36 a03c a239 16d1 da39 db09 7b39
000002a0: ec80 9b2a 3285 a72a 1fd3 532a c697 b429
000002b0: 2cd9 862b 0c58 a92c 3473 482a a711 fd29
000002c0: ad12 9a2a 1a11 0f2a 11fa a72b a19c 142a
000002d0: 95ff ef35 917a 0236 039e 7334 238a 9933
000002e0: d83a 8336 aa05 8438 7777 c635 19a0 b134
000002f0: 67ce e135 3dd3 b238 acb5 c538 343f 4438
00000300: dbb0 ff30 38a4 2431 6aa2 9331 ba54 9b32
00000310: d01c 7532 ed3d 3a34 7d0c f631 fdc3 1632
00000320: e1bd c230 b0c6 0d33 b4d0 0634 360e 3f33
00000330: a645 ed33 dd04 2d34 ac36 6335 7c0e 1236
00000340: 8488 2436 61ad 2337 7d88 b434 5c27 9935
00000350: f966 0b35 074a 8835 ddd3 cf36 c91e ec36
00000360: ee62 0d36 faf1 fc35 e913 2336 3d29 ee36
00000370: 8dcc 1637 c7ab cf38 1b41 8136 4d99 8136
00000380: 287c 6836 b678 a538 06da fc38 4e0b c738
00000390: 6051 642c 921c 712c 7514 0e2d 399d bf2c
000003a0: 78f3 f62c 7d19 092e 553f e92b 03f2 662c
000003b0: aa96 ff2c 282d 9e2d fc7b 012e eb25 772d
000003c0: 6b8a b434 859e ee34 2b04 d835 1c14 1936
000003d0: 3232 1c36 cbf7 1e37 ce4e 6934 693e a135
000003e0: 10f6 6635 638a 5535 caeb 6c36 43a3 ad36
000003f0: 1d67 9732 498a 6633 bd9c 8a33 c677 b934
9.36115e-08 7.135551e-07 4.1697645e-06 2.3526194e-05 1.9764375e-05 0.00015050147 5.944887e-06 1.0404531e-05
1.9874553e-06 2.5932555e-05 0.00013150385 7.2518174e-05 4.4103396e-07 1.5543953e-06 1.4554851e-06 7.458658e-06
3.029968e-06 7.4390824e-05 4.3064174e-06 3.1448783e-06 2.0144353e-06 3.031433e-05 8.544038e-05 5.0403636e-05
3.3220902e-06 3.659333e-06 4.9735395e-06 1.676706e-05 2.2393659e-05 0.00013967355 6.0066827e-06 1.20877e-05
3.492622e-06 6.7800305e-05 0.00014762889 0.000101763355 1.4001e-07 5.3105975e-07 1.5244432e-06 8.856081e-06
7.303842e-06 6.0814353e-05 1.7633984e-06 4.3348173e-06 8.2083557e-07 1.2084916e-05 5.5408054e-05 2.944691e-05
3.5030798e-06 4.099851e-06 2.827163e-06 8.967107e-06 2.1354306e-05 1.977929e-05 1.5975997e-06 3.1116786e-06
5.108054e-07 3.7645084e-05 3.7131485e-05 2.3722832e-05 5.309005e-08 6.3557195e-08 5.2809643e-08 2.6255069e-07
4.1632856e-07 9.221859e-07 8.097669e-08 8.437686e-08 3.1857603e-08 7.752309e-07 1.1737559e-06 1.0270742e-06
1.16150545e-14 1.2213377e-14 1.6808964e-14 4.095005e-15 2.4043327e-14 1.8832338e-13 2.8949445e-15 5.564963e-15
1.4038597e-14 3.9498023e-15 3.6633606e-14 7.614341e-15 5.89228e-07 3.4000145e-06 3.266489e-06 1.9183712e-05
7.3606047e-06 0.0002022351 1.0858907e-05 7.21281e-06 4.7280087e-06 8.6846965e-05 0.00023169348 0.00015406852
7.011321e-08 9.83288e-08 6.152725e-08 5.628529e-07 3.2710201e-07 3.3604692e-06 2.5628083e-07 2.3929812e-07
8.412064e-08 1.6938346e-06 4.04378e-06 2.220814e-06 1.7662936e-07 2.9287298e-07 4.2231484e-08 4.790925e-07
3.459468e-07 7.3038887e-06 2.598358e-08 3.3958543e-07 1.1171171e-07 3.374355e-06 3.3599486e-06 1.0645704e-06
4.101055e-06 5.1406696e-06 4.277499e-06 2.0267404e-05 2.1704342e-05 0.00012758924 1.5291567e-05 6.076541e-06
3.894084e-06 9.643889e-05 0.00016467883 8.854154e-05 7.2751764e-06 7.758191e-06 3.3167666e-07 2.5179409e-06
1.378177e-05 0.0001795058 9.400336e-06 8.20577e-07 5.086828e-06 0.00023152711 0.00026557696 0.00020278417
4.4473134e-07 8.4770556e-07 2.2087085e-07 1.7936566e-06 7.1369095e-07 3.1556094e-05 1.1644202e-06 4.5808434e-07
1.2862366e-06 2.2924154e-05 3.130185e-05 3.9811002e-05 1.4082962e-05 1.1064252e-05 3.4436264e-06 3.397279e-05
5.402096e-05 0.0002829715 2.1102202e-05 1.2002585e-05 7.142697e-06 0.00030944217 0.0004173598 0.00023940897
2.7622989e-13 2.9757582e-13 1.8813812e-13 8.019934e-14 9.58155e-13 4.813044e-12 1.7803538e-13 1.1238519e-13
2.7368854e-13 1.2706885e-13 1.1935471e-12 1.3199382e-13 1.7881272e-06 1.9442853e-06 2.2688623e-07 7.1497446e-08
3.9109545e-06 6.2953055e-05 1.4786918e-06 3.3085306e-07 1.6823877e-06 8.5270476e-05 9.427531e-05 4.6788904e-05
1.8603957e-09 2.3958489e-09 4.2967274e-09 1.8082904e-08 1.4267428e-08 1.7345128e-07 7.160962e-09 8.775712e-09
1.4169325e-09 3.3009826e-08 1.2555648e-07 4.4483578e-08 1.10488415e-07 1.611365e-07 8.464365e-07 2.1764126e-06
2.4517367e-06 9.755925e-06 3.362692e-07 1.1410843e-06 5.193138e-07 1.0154334e-06 6.193745e-06 7.036932e-06
2.1068222e-06 1.8845888e-06 2.4300482e-06 7.0977535e-06 8.988322e-06 9.902525e-05 3.852079e-06 3.862346e-06
3.4642962e-06 7.890297e-05 0.000120569064 9.491165e-05 3.244592e-12 3.426402e-12 8.076308e-12 5.4460017e-12
7.018771e-12 3.117283e-11 1.6573224e-12 3.281931e-12 7.264263e-12 1.7982574e-11 2.9441324e-11 1.4048744e-11
3.3628325e-07 4.4446293e-07 1.6094467e-06 2.2810482e-06 2.327503e-06 9.475228e-06 2.1728485e-07 1.2013599e-06
8.6039745e-07 7.955006e-07 3.5303988e-06 5.174808e-06 1.7625604e-08 5.3676818e-08 6.454636e-08 3.4546082e-07

exp_avg f4 [128, 32]
00000000: 8954 3539 eec0 07b8 f481 32b9 2867 29b9
00000010: cd78 bcb7 f00c 5f37 94d0 bdb2 f9dd 0039
00000020: 4de6 8db6 5a4f ca35 14b2 deb8 9fe3 7eb6
00000030: 0f43 ceb5 f7f2 40b9 ff69 bbb1 a9b3 b735
00000040: 7872 5936 94ff 91b9 1d08 0e38 84d0 fd33
00000050: b976 0139 ec84 05b8 27fe a3b3 d219 0935
00000060: 0942 c238 12d1 cdb7 8e60 9a36 b671 d8b7
00000070: 3ef6 92b8 b25b 07b9 e036 55b8 4bcb 8b38
00000080: 49ec 1438 1bf9 ac37 137c 86b8 aaef 1538
00000090: 6ad5 1ab7 7387 1b37 4cc5 5c32 3ad4 9338
000000a0: 839c bcb7 b947 42b5 c6e3 87b8 791a 26b6
000000b0: cbe5 e7b6 875d a1b8 73b4 b432 7d79 0c34
000000c0: d776 1cb4 7985 e0b8 0f99 e836 3c3f 8b33
000000d0: 6d25 4638 0029 30b4 1dfa 5d35 958f 2db5
000000e0: 1e56 e137 4454 8037 b0ed 29b6 4310 b238
000000f0: 4a22 9db7 704c a4b8 9191 d338 c8c3 ae37
00000100: 5692 5639 d5c7 a937 6422 2438 80be 8a38
00000110: 2752 d737 67d4 1ab6 7931 6db0 f4f5 d635
00000120: 4520 0bb7 56be 03b7 53fe 8538 1b5e db36
00000130: 0193 3eb7 6164 1b37 dbf4 20b3 1853 b3b5
00000140: a46a 07b5 4232 66b7 ade7 28b8 93ca cfb4
00000150: 02e9 65b8 e540 3b37 a54c 7434 dffb 4634
00000160: 3481 b8b8 5166 ca38 ed93 8db7 e692 3039
00000170: 3045 7d38 4230 8e36 cd69 b738 e12b a6b8
00000180: 8fb0 43b8 9591 62b6 7c4d 8038 f441 1338
00000190: 35d1 eb36 b289 bbb6 3cbd 4d32 31b4 3eb8
000001a0: e68f c836 1707 0b37 5da0 3d38 6d07 beb4
000001b0: 3d7e 06b6 23a8 6438 7f39 cdb1 8e5c 33b5
000001c0: c9e6 78b5 4cb4 d038 5855 fcb6 31f8 e7b3
000001d0: f180 31b8 d865 fc36 d8a0 61b5 0dfc aa36
000001e0: 53d7 1bb8 2bd9 c236 df9c aab6 1573 f936
000001f0: 47b7 ad37 5bea 6e38 2b0b 9cb6 3b89 b8b7
00000200: 27fd 0139 c9d0 b9b8 ff10 95b7 d750 88b8
00000210: 21a2 6537 2518 0b35 12f7 4f32 467d d337
00000220: 8f3f 8337 263d 9c35 c431 e537 037a 30b7
00000230: 1c88 0db7 6c9f 77b8 8a47 e7b1 c5a6 fab5
00000240: 7750 9335 12ff c9b8 694f 1636 ba48 60b4
00000250: cd37 b037 f3ff 68b7 02f8 9ab6 362a 10b5
00000260: 5a49 2bb8 7b5c da37 f51a d8b7 c871 1938
00000270: 043d 4536 c18b b2b5 8f62 be37 4cbe 12b8
00000280: ef60 b3b7 7428 22b7 a8d9 42b6 4b9c 89b5
00000290: 8765 71b5 4643 d234 e6ae e6af e8ef 4ab5
000002a0: 5795 7935 7ca5 9435 903a b0b6 2f27 25b5
000002b0: 0cb6 0c35 3f64 4eb4 0e38 2531 8f34 e733
000002c0: d462 8f34 fc72 eab5 38b8 6136 f966 4232
000002d0: 5c03 e036 dbe2 13b5 99b4 04b5 312b 6c33
000002e0: c2a8 9e36 5658 e1b6 037a 7eb4 ecc4 8bb7
000002f0: e487 b0b6 879c feb5 7e13 37b5 5ceb 6a36
00000300: f1bf e931 dc05 5eaf dcf0 5430 eb14 b0b0
00000310: 432d 762f 7792 e3ae 5537 992b ebe6 bfaf
00000320: 6b5d 3030 5463 7431 0ca1 4031 4f17 e6af
00000330: 6249 d1b0 0a58 8bb1 0e21 eeac c44c ac2c
00000340: 48d3 cdaf 5a24 38b1 2219 f42f cdae 97ad
00000350: 86e6 ddb0 f847 c6af 4c68 46af 62d0 26b1
00000360: 0bca b2b1 82b4 1131 3b6d 90b0 4031 8c31
00000370: 84a6 b6af 0593 4330 d786 c131 3d76 4eb0
00000380: 0bfd 17b9 7ef1 13b8 3939 e338 d36f e0b7
00000390: 1db6 9737 e99d 65b7 af99 92b1 8d92 07b9
000003a0: 2dc1 f437 787b 4136 841d be38 32a9 1a36
000003b0: d828 c536 7394 1d39 e492 cc31 d7d1 54b5
000003c0: db92 3ab5 d20b 6d39 d5d8 8db7 ec15 6db3
000003d0: 3fb3 a8b8 5110 a737 a141 f1b5 d259 92b5
000003e0: 13a8 80b8 8914 5ab7 db24 3fb5 f25d dbb8
000003f0: a2f1 2c38 f2d9 f238 181f 8eb8 1230 2ab8
0.00017292997 -3.2366188e-05 -0.00017023814 -0.00016155525 -2.2467599e-05 1.3294848e-05 -2.2097346e-08 0.00012289723
-4.228938e-06 1.5073267e-06 -0.000106189545 -3.7981442e-06 -1.5367713e-06 -0.00018401058 -5.4544667e-09 1.368685e-06
3.240215e-06 -0.00027846976 3.3862994e-05 1.1819159e-07 0.00012346626 -3.1833464e-05 -7.636509e-08 5.107405e-07
9.262941e-05 -2.453526e-05 4.600798e-06 -2.5802157e-05 -7.007689e-05 -0.00012908762 -5.0834264e-05 6.665903e-05
3.5506007e-05 2.0619997e-05 -6.4127285e-05 3.5747573e-05 -9.228805e-06 9.270257e-06 1.28505455e-08 7.0490365e-05
-2.2484228e-05 -7.2375e-07 -6.479728e-05 -2.4751337e-06 -6.911088e-06 -7.694499e-05 2.1036817e-08 1.3082713e-07
-1.4571866e-07 -0.000107060136 6.931957e-06 6.484194e-08 4.7241734e-05 -1.6406193e-07 8.269288e-07 -6.465646e-07
2.6862192e-05 1.5298028e-05 -2.5321315e-06 8.4907304e-05 -1.8731826e-05 -7.834367e-05 0.00010088378 2.0833584e-05
0.00020463145 2.0239424e-05 3.9132676e-05 6.615836e-05 2.5668252e-05 -2.3071423e-06 -8.62904e-10 1.6015824e-06
-8.292559e-06 -7.8525245e-06 6.389306e-05 6.537664e-06 -1.13591095e-05 9.262091e-06 -3.7475598e-08 -1.3360723e-06
-5.04466e-07 -1.372077e-05 -4.0270086e-05 -3.8704147e-07 -5.481486e-05 1.1161178e-05 2.2752154e-07 1.8531817e-07
-8.79787e-05 9.6511685e-05 -1.6877393e-05 0.00016839392 6.0384336e-05 4.2375477e-06 8.745827e-05 -7.92367e-05
-4.6656056e-05 -3.3761364e-06 6.117948e-05 3.5108955e-05 7.0279007e-06 -5.589064e-06 1.1975597e-08 -4.5467346e-05
5.9772165e-06 8.286696e-06 4.521046e-05 -3.539566e-07 -2.0041036e-06 5.4516026e-05 -5.972822e-09 -6.681738e-07
-9.2723036e-07 9.951796e-05 -7.5201206e-06 -1.08019215e-07 -4.2320175e-05 7.5220414e-06 -8.405309e-07 5.0957374e-06
-3.7155416e-05 5.806932e-06 -5.084657e-06 7.4341756e-06 2.0708552e-05 5.6961882e-05 -4.6504624e-06 -2.1998412e-05
0.00012396705 -8.860377e-05 -1.7770099e-05 -6.500043e-05 1.3687212e-05 5.181667e-07 1.2105163e-08 2.5211495e-05
1.5646014e-05 1.1640702e-06 2.7322101e-05 -1.0518826e-05 -8.435945e-06 -5.9037862e-05 -6.731118e-09 -1.8674988e-06
1.0975772e-06 -9.6319374e-05 2.2397965e-06 -2.0888083e-07 2.100682e-05 -1.388787e-05 -4.6184296e-06 -5.3705605e-07
-4.083789e-05 2.603069e-05 -2.576176e-05 3.658401e-05 2.9390803e-06 -1.3302707e-06 2.269566e-05 -3.498634e-05
-2.1383601e-05 -9.665371e-06 -2.9034945e-06 -1.0252783e-06 -8.992724e-07 3.9164496e-07 -4.196103e-10 -7.5599974e-07
9.2977047e-07 1.1075022e-06 -5.2520263e-06 -6.152431e-07 5.241898e-07 -1.9221714e-07 2.4042524e-09 1.0766336e-07
2.6707733e-07 -1.7467823e-06 3.3634842e-06 1.13156995e-08 6.6761113e-06 -5.5091886e-07 -4.9436636e-07 5.4987314e-08
4.728413e-06 -6.715806e-06 -2.3699981e-07 -1.666179e-05 -5.2610285e-06 -1.897003e-06 -6.820118e-07 3.5005714e-06
6.8030137e-09 -2.0192864e-10 7.746743e-10 -1.2811631e-09 2.238965e-10 -1.0348782e-10 1.0886662e-12 -3.4906775e-10
6.416118e-10 3.5563135e-09 2.8031222e-09 -4.1853318e-10 -1.5227608e-09 -4.0554413e-09 -6.7680367e-12 4.8970567e-12
-3.7439407e-10 -2.6796187e-09 4.44012e-10 -1.724434e-11 -1.6145385e-09 -3.6067127e-10 -1.8045049e-10 -2.4274631e-09
-5.2034514e-09 2.1202884e-09 -1.0508424e-09 4.0801353e-09 -3.3223924e-10 7.1149514e-10 5.632369e-09 -7.511039e-10
-0.00014494748 -3.527244e-05 0.00010834862 -2.6754953e-05 1.8085406e-05 -1.368623e-05 -4.266631e-09 -0.00012929198
2.9177021e-05 2.883111e-06 9.065404e-05 2.3046273e-06 5.8758123e-06 0.00015027988 5.953881e-09 -7.928151e-07
-6.95041e-07 0.00022606485 -1.690948e-05 -5.52008e-08 -8.0442514e-05 1.991555e-05 -1.7975e-06 -1.0903989e-06
-6.134822e-05 -1.2998594e-05 -7.1206676e-07 -0.000104602324 4.1233034e-05 0.00011580055 -6.776879e-05 -4.0575927e-05
