models/drone/policy_ego_rotor_best_iter22.pth (torch, 80830 bytes, 20 tensors)

lstm.weight_ih_l0 f4 [128, 12]
000000 ca 31 c8 3d 97 a1 ab bd 14 84 95 bd f1 79 9a 3d
       0.097751215 -0.0838043 -0.073005825 0.0754279
000010 a6 1b 11 be 89 19 73 3d 64 cf c0 bd da d3 cd 3d
       -0.14170703 0.059350524 -0.094145566 0.10050173
000020 ec d6 81 bd 94 39 21 be 13 3b d9 bc e6 93 9a bd
       -0.06339821 -0.1574462 -0.026517427 -0.07547741
000030 d1 33 4e 3d 57 0f 0b 3c 0d 9b c2 3d c9 8b f1 bc
       0.050342385 0.008487544 0.0950223 -0.0294856
000040 a8 52 d0 bc 96 38 f0 3c 68 b9 4a 3e 13 4c 8b 3d
       -0.025430039 0.029323857 0.1979729 0.068016194
000050 4b bb 0d bc e0 b2 c6 bd 93 95 b8 3b 3e f4 22 bd
       -0.008650611 -0.097020864 0.005633065 -0.03978371
000060 ea 2e 2f 3d 1a 49 20 bd 12 15 dc bc c7 b5 f0 3d
       0.04276935 -0.039132215 -0.026865516 0.11753421
000070 13 9b 27 be 94 b4 b4 3d 62 49 8d 3d 6c 89 66 3e
       -0.1636775 0.08823505 0.06898762 0.2251336
000080 e3 df 02 3e a9 ea 08 be 86 ce 0e be 08 5c 82 bd
       0.12780719 -0.13370766 -0.1394597 -0.0636521
000090 9d 19 f9 3c e6 0c a6 3d 8c 01 2d 3e c8 e2 0f be
       0.030407721 0.08107929 0.16895121 -0.14051354
0000a0 0e bf 43 3e 76 fe e2 bd 1b ff 9d 3d 81 10 67 3d
       0.1911585 -0.11083691 0.07714673 0.056412224
0000b0 4f e8 23 3a 84 21 c2 3d 4c d9 38 bd df 96 1b 3d
       0.0006252573 0.09479049 -0.045129105 0.03798568
0000c0 c7 af a9 bd 8b 0b d9 bb 11 89 b2 be 21 78 cf bc
       -0.0828548 -0.0066236905 -0.34870198 -0.025325837
0000d0 ae 82 c2 3d 20 9a e4 bd 57 d5 5c 3e 9a 03 a4 3e
       0.094975814 -0.111622095 0.21565758 0.32033998
0000e0 79 3d fa bc 31 05 b7 bd bb c7 f6 3d 53 4b 41 3c
       -0.03054689 -0.08936537 0.12049814 0.011797744
0000f0 2d f0 91 be fd b8 c1 3d f0 9d 1d bd bf 95 0b 3e
       -0.28503552 0.09459112 -0.0384807 0.13631342
000100 2d ac fa bd 39 37 c8 bd ac 75 64 bd ac da 6f 3d
       -0.12239871 -0.09776158 -0.055776283 0.05855815
000110 46 59 16 be f0 af 01 be 64 74 24 3e 97 93 ad bd
       -0.14682493 -0.12664771 0.16060024 -0.08475416
000120 4a 0e 20 3c 22 4d 28 bc ec 2b 32 3c 46 02 97 3b
       0.009769032 -0.010272296 0.01087473 0.0046084253
000130 66 37 08 3b 99 32 2e 3d f4 96 6b be fd 60 a1 3d
       0.0020784973 0.042528722 -0.23006803 0.07879827
000140 f2 96 1b be 69 7d 0e be 57 72 42 3d 41 ed 90 bd
       -0.151943 -0.13915028 0.047472324 -0.070765026
000150 cb d4 82 bc 11 41 bf bd b1 bf 97 be 6b fc a8 3d
       -0.015970608 -0.09338582 -0.29638436 0.0825127
000160 e2 f3 d3 bc 03 02 89 3d 24 f5 2a bd 71 0c 1a be
       -0.025873128 0.06689837 -0.04173769 -0.15043809
000170 d2 9b 0a 3d 79 95 59 3d 62 0d 17 bd c0 6c bb bd
       0.033840008 0.053121064 -0.036877997 -0.09151602
000180 56 e5 16 bc 49 ed 3c 3d 5b 41 79 3c 83 b4 e3 bd
       -0.009209951 0.04612473 0.015213336 -0.11118414
000190 23 63 ea 3d 69 b4 85 bd f6 f9 06 3e a6 2b c6 3d
       0.1144469 -0.06528551 0.1318129 0.09676294
0001a0 93 fa c5 bd f1 83 55 be 76 2d 00 3e 6b ff 24 bd
       -0.09666934 -0.20851113 0.12517342 -0.040282648
0001b0 87 cb 08 3e e4 7f 77 3c ca b2 d7 3c c0 f8 38 3e
       0.1335889 0.015106175 0.02633037 0.1806364
0001c0 46 80 f9 3d e4 83 32 be 3e 0c 9f bd aa 8e a6 3c
       0.12182669 -0.17433125 -0.07766007 0.0203317
0001d0 82 89 e8 3d 2f 06 1a 3d 76 91 2c be bf bd 04 be
       0.113543525 0.037603553 -0.16852364 -0.12963007
0001e0 67 ac 64 be 81 3b d2 3d 0e 11 18 3e f8 d7 2b be
       -0.22331391 0.10265256 0.14850256 -0.16781604
0001f0 c9 b1 0b 3e 4d 31 10 be 08 67 15 be ca 63 85 bc
       0.13642038 -0.14081307 -0.14590085 -0.016282935
000200 63 2b f8 3d ff 45 3b 3e 9d 2b c1 bd f9 fe a7 bb
       0.1211765 0.1828842 -0.09432147 -0.0051268307
000210 5f a8 7e 3e 73 63 12 3c 82 bc 71 bd 75 d7 78 3e
       0.24868916 0.008934843 -0.059017666 0.2430094
000220 53 98 aa 3d f6 40 1d bd 62 88 02 be c9 b9 4c be
       0.08329835 -0.03839203 -0.12747338 -0.19992746
000230 fd 2b 1d be 49 84 26 bd 3d cf d1 bd de ab c3 3c
       -0.15348811 -0.0406535 -0.10244606 0.023885664
000240 83 7a 1d 3d b0 2e 18 be 10 b4 a7 bd 25 03 d1 3c
       0.038446914 -0.1486156 -0.08188641 0.025514195
000250 07 d2 1d 3d 66 7e bd 3d 60 1c b8 bd 86 78 21 3e
       0.038530376 0.09252624 -0.08989787 0.15768632
000260 12 02 8a bd c9 bf 5c 3b 32 52 e2 bd d2 3c ef bd
       -0.06738676 0.0033683649 -0.11050834 -0.116815224
000270 a9 8e 1b 3d 6e de 17 be 81 06 18 3e 8c 5d c1 3b
       0.03797785 -0.14830944 0.14846231 0.0059010442
000280 25 2f 42 be e0 9e 88 3d 4c 97 ac bc 4c 3b 9d 3c
       -0.18963297 0.06670928 -0.021068238 0.019193314
000290 02 03 0b be 47 b8 98 bc 7d 91 c9 bd fa 1a 2a bd
       -0.13575366 -0.018642558 -0.09842203 -0.041529633
0002a0 09 dd 5d be 44 5e 32 be 29 ae 70 be 97 e2 05 3d
       -0.2166635 -0.17418772 -0.23503937 0.032686796
0002b0 06 60 8a bc b9 25 8b bc 4f af d9 3d fb 88 39 3e
       -0.01689149 -0.016985761 0.106291406 0.1811866
0002c0 9f ca 9a 3d 8f 8f e1 bc c1 25 d6 bd fc 8b b8 3d
       0.07558178 -0.027534274 -0.1045642 0.09011075
0002d0 f7 42 30 3d ef 1d c0 bc 9c 4e 10 be 67 35 b0 3d
       0.043032613 -0.023451773 -0.14092487 0.08603936
0002e0 de ff 0a be 78 af ae 3d 10 43 14 be 2b f4 0b be
       -0.13574168 0.08529562 -0.14478707 -0.13667361
0002f0 3b 9b 0e bd c1 c0 12 be bf 08 01 3e 40 ed 0b be
       -0.034816008 -0.14331342 0.12600993 -0.13664722
000300 41 6f 0a 3d 59 b2 b6 3c b8 3c f3 3c 7e 8f 22 bd
       0.033797506 0.02230184 0.029692039 -0.039687626
000310 19 13 c0 3d 8c 57 94 3d c8 a6 03 3e cf 4d 12 be
       0.093786426 0.07243261 0.12856591 -0.14287494
000320 07 8a 9f bb eb bc 1d be 27 b6 cc 3d ee 60 c2 bd
       -0.004868749 -0.15404098 0.0999568 -0.09491144
000330 0c b9 5f 3e 62 c8 5a 3e 93 a2 f1 3b bc b5 2b bc
       0.21847934 0.21365502 0.0073741167 -0.010480341
000340 49 39 aa 3d 15 39 01 3e 27 3d d7 3c e0 59 85 bd
       0.083117075 0.12619431 0.026274277 -0.06511283
000350 ad 7e 1e be 41 c5 3d 3e 26 9b ba 3d 93 e4 3a 3e
       -0.1547801 0.18532278 0.091116235 0.18251257
000360 a8 13 98 3e 20 6a 8e be 38 5e 52 be ee 20 91 3e
       0.29702497 -0.27815342 -0.20543754 0.28345436
000370 74 b0 28 be 0e ff d4 3d 6f a1 ee bd cb d9 02 be
       -0.16473562 0.1040021 -0.11651885 -0.12778394
000380 b5 95 95 3c 6a cc d0 bd 2c d1 c2 bc 3c e1 bd 3d
       0.018259862 -0.10195239 -0.023781382 0.09271476
000390 0d 7f d4 3d 32 6b 33 3d f0 c9 12 be b6 93 17 be
       0.103757955 0.0438034 -0.14334846 -0.14802441
0003a0 2b 96 4a 3e 87 34 80 bd f8 b6 2c be 03 9f 3a 3d
       0.19783847 -0.06260019 -0.16866672 0.0455618
0003b0 c6 00 4d be 37 2d 7b 3d c1 50 d3 3d 85 aa 1c be
       -0.20019826 0.061322417 0.10318137 -0.15299423
0003c0 ea 3e 05 be b1 82 bb 3b a1 2c e0 3d 4f 2f 36 3d
       -0.13012281 0.0057223667 0.10946012 0.04447871
0003d0 a5 46 14 be d2 50 5e bd 10 b7 e4 bd ac 98 dd bb
       -0.14480074 -0.054276295 -0.11167729 -0.0067625847
0003e0 57 b3 9b bd 37 64 8f 3e cf 17 62 3e 69 3c af bd
       -0.07602566 0.28006145 0.22079395 -0.08556444
0003f0 4c 3e 57 bd ae dd 8a bc 59 21 c9 bd 33 8d 65 bd
       -0.052549645 -0.016951408 -0.09820814 -0.05604286

lstm.weight_hh_l0 f4 [128, 32]
000000 7d c6 6b 3d 74 86 7d 3c d8 2e b3 3d a8 0f ad 3d
       0.05756234 0.015473951 0.08749169 0.08450252
000010 1e 90 fd 3d d0 a2 90 3d cc 90 1f be a3 d6 ef bd
       0.12381004 0.07062304 -0.1558258 -0.117108606
000020 e8 f8 da bd a1 66 b1 3d d2 11 68 be 89 90 1e be
       -0.10692006 0.08662153 -0.22663048 -0.15484823
000030 14 f5 04 3e 44 32 5b 3c 18 fe 24 be 5d d7 ad 3d
       0.12984115 0.0133786835 -0.16112554 0.08488343
000040 92 10 c7 bc 7f f3 b9 3c 88 80 95 bd 43 72 8d bd
       -0.024299894 0.022699116 -0.07299906 -0.06906559
000050 94 06 a2 bb 29 c7 30 3e ba 8b da b9 e1 6f b0 bd
       -0.004944632 0.17263474 -0.00041684305 -0.08615089
000060 d2 90 ab bd 56 97 cc bd e5 56 39 3d 33 b4 a5 3d
       -0.08377232 -0.099898025 0.045248885 0.08091011
000070 11 71 34 be e2 71 c6 bc 29 9b 1f 3d 9a b7 9b bd
       -0.17621256 -0.024224225 0.03896633 -0.076033786
000080 16 07 de 3d 64 10 f4 bd bb fe bd bd cd 1f 70 bd
       0.10841195 -0.11917189 -0.092771016 -0.058624078
000090 9f a0 9c bc fa 95 56 be 9e 6f c0 3c 68 4d 07 3e
       -0.019119559 -0.20955649 0.023490723 0.13213122
0000a0 73 44 5a bd 1a b9 0c 3d 99 28 5a 3e a6 9c 24 3d
       -0.053287935 0.034356214 0.2130455 0.040188454
0000b0 b3 e4 30 3e 65 33 5b 3c 5f 63 59 3d ae 2e 5e be
       0.17274742 0.013378953 0.053073283 -0.21697494
0000c0 4d ad 24 3c f1 f0 52 3e b8 da 2d bc 52 cd 29 be
       0.010051084 0.20599724 -0.010611229 -0.1658223
0000d0 b8 cd e3 3d c2 d2 07 3e d5 5c 1f 3e de ef 82 3d
       0.11123222 0.13263991 0.15562756 0.06393407
0000e0 37 7e f6 bb 9a f9 42 bd 99 ac 80 3b 18 0c 0f be
       -0.00752237 -0.04760132 0.0039268252 -0.13969457
0000f0 f6 2f 09 3e ff 7f 5d 3d c6 66 63 3e af c7 0f be
       0.13397202 0.054077145 0.22207174 -0.14041017
000100 30 8e 62 bd 27 94 1f bd 6c ec 44 be eb de 1e 3e
       -0.05531138 -0.03895965 -0.19230813 0.15514724
000110 73 61 8b 3d 3c fe 5e bd 5e 73 69 3e ce b9 48 3e
       0.06805696 -0.054441676 0.22797915 0.19602129
000120 2a f0 1b be 95 33 82 3c 0d af 41 3e e5 9a cc bd
       -0.15228334 0.015893737 0.18914433 -0.09990481
000130 5f 52 9b bd df e9 0a be 28 18 56 3d 1b 45 54 bd
       -0.075840704 -0.13565777 0.05226913 -0.051823717
000140 0d d0 ac 3c 84 3f d7 3d 30 82 12 bd bb 54 00 be
       0.0210953 0.105101615 -0.035768688 -0.12532322
000150 be 93 c5 3d 83 6f 33 bd f5 5e 9a 3d b8 84 5b 3d
       0.0964732 -0.043807518 0.07537643 0.053593367
000160 9f b8 36 bd 39 7b be bd 90 38 be 3c 74 f4 3e 3d
       -0.044609662 -0.093008466 0.02322033 0.046619847
000170 88 ee 8f bc fe 00 c4 3d 80 5d f0 3c d5 b7 da bd
       -0.017569795 0.09570502 0.02934146 -0.106795944
000180 00 3f 00 3d 1b 95 0a bd 05 b7 0d be fb d9 ac 3d
       0.03131008 -0.033833604 -0.13839348 0.08440014
000190 e0 00 9b 3b ac b2 88 3d 90 6a 83 be ac bd 4d 3e
       0.004730329 0.06674704 -0.25667238 0.20091885
0001a0 e1 82 ed bd 98 e2 1b 3d ea 54 fa 3d 37 ac 62 bb
       -0.11597229 0.038057894 0.12223227 -0.0034587511
0001b0 06 5a bd bd bf 4d f6 bd 34 dc f7 bd 65 25 03 3d
       -0.09245686 -0.12026548 -0.12102547 0.032018084
0001c0 5a b8 44 3d bf e2 27 3d f5 16 52 bd e7 91 9b 3d
       0.048027374 0.040987726 -0.051291425 0.07596188
0001d0 c1 29 f8 3d 8d e4 de bd 81 76 ea 3c 30 44 29 3d
       0.12117339 -0.10883436 0.02862096 0.041324794
0001e0 fd 26 a4 3d f4 57 19 be 50 42 41 be 09 40 b6 3c
       0.08015249 -0.14974958 -0.18872952 0.022247331
0001f0 a9 29 18 be de 7a 24 3d 17 4f 78 3e 5d 10 10 bd
       -0.14859642 0.040156238 0.2424892 -0.035171855
000200 d0 30 b6 bc c4 42 09 3d ce fb f8 bd 07 b2 c4 3c
       -0.022240072 0.03351094 -0.12157403 0.024010671
000210 8c 18 e6 bb 76 fc 4f 3e 8e 38 0f be cc cc 66 3d
       -0.007021969 0.2031115 -0.13986418 0.056347653
000220 d4 6d 74 be 02 58 92 bd 7e ac 3d bd 46 15 84 bb
       -0.23870021 -0.071456924 -0.04630708 -0.0040308563
000230 df 23 a9 3d 7c a3 5f 3d 58 15 36 be ed c6 30 bd
       0.08258795 0.05459927 -0.1778158 -0.04315846
000240 ac 12 0c be 1c 1f b9 bc 35 6d fb 3d 5c 35 12 3e
       -0.13678998 -0.022597842 0.12276689 0.14278167
000250 01 b5 5d be 09 82 4d 3d 30 65 14 be 8e 71 16 be
       -0.21651079 0.05017284 -0.14491725 -0.14691755
000260 7f 44 49 3e db b3 2a bd db 4b f8 bd 1b ea e1 3d
       0.19655035 -0.04167543 -0.12123843 0.1103098
000270 33 1f fd bd 08 a7 4b be e7 5a 49 bd 2d 1f 8b bd
       -0.123594664 -0.19887936 -0.049158957 -0.06793056
000280 a3 ba 17 bb 10 97 21 bc ed bd 85 be ef d7 29 3e
       -0.0023152016 -0.009862676 -0.26121464 0.16586278
000290 9f b8 84 be 0d 18 f0 3c 60 18 4b 3e 5c 60 84 3c
       -0.25922105 0.029308343 0.19833517 0.016159229
0002a0 a1 e5 e3 bd c9 4b 4b 3d 56 5d 9a 3d b7 bc ad 3c
       -0.111277826 0.04963282 0.07537334 0.02120815
0002b0 23 c5 dc bd 1f bd 55 3d 42 67 61 bd 58 99 12 3c
       -0.10779788 0.052182313 -0.055030115 0.008947693
0002c0 e1 4b 1f 3d c4 fe 0e 3d c8 a9 b2 bd 70 9e 80 bc
       0.038890723 0.034910932 -0.087237895 -0.015700549
0002d0 93 5b 11 3e 2d 71 f5 3c 19 30 ee 3c e4 e9 9d 3d
       0.14195089 0.029961193 0.02907567 0.07710627
0002e0 26 2e 2a 3e c7 5e df 3d 1e cf 21 3e 14 89 aa bd
       0.16619167 0.10906749 0.15801665 -0.08326927
0002f0 45 72 a6 bd d4 9c c5 bb 30 19 1c 3d 68 9c 3e bd
       -0.08127264 -0.0060306583 0.03810996 -0.04653588
000300 59 1c e2 3b c2 e6 05 be 0e 9b a7 bd 68 a1 fa 3d
       0.006900352 -0.13076308 -0.08183871 0.12237817
000310 f6 98 a7 bd 8f 0b 46 bd 63 f8 e5 3d 94 2a 3a bc
       -0.08183472 -0.048350867 0.11229017 -0.0113626905
000320 81 e0 e6 3d e9 0c 6a be d9 80 91 3d 37 21 ac bd
       0.112732895 -0.22856487 0.07104654 -0.08404773
000330 af 40 61 bc d8 16 3d be 1e e4 43 be 90 0a 03 3e
       -0.013748332 -0.18465745 -0.19129989 0.12796998
000340 70 f2 e3 bd ca b5 15 3c 86 89 8a bc 43 12 28 3e
       -0.11130226 0.00913758 -0.01691128 0.16413216
000350 d5 ce aa 3c a7 67 bb 3d 80 e3 67 bd 94 a1 a2 bd
       0.020850578 0.091506295 -0.056613445 -0.07940975
000360 64 3f 22 3e 31 23 88 3d 1b e9 07 3e 18 47 1d be
       0.15844494 0.06647337 0.13272516 -0.15359151
000370 ac 4d 24 be 10 b3 af bb de 7c 10 bd c0 6b 14 3e
       -0.16045254 -0.005361922 -0.035275333 0.14494228
000380 9f ee c6 3d 96 58 46 bc 4d a8 25 be b0 15 29 3e
       0.09713482 -0.0121060815 -0.16177483 0.1651218
000390 64 f8 16 be c8 5f fb bd c5 36 99 bd d9 b8 8a 3d
       -0.14743191 -0.12274128 -0.074811496 0.06773538
0003a0 1a 45 dd 3d 74 09 a1 3d 75 a9 e2 3d 6e 0e 1f 3e
       0.10804196 0.07863131 0.110674776 0.15532848
0003b0 95 65 b3 bc bd fe 18 3e 3d 3f 13 be c1 d0 e7 bc
       -0.021899024 0.14940925 -0.14379592 -0.028297784
0003c0 ff e7 02 3e ca 13 83 bd 3f 73 be 3d bd 7b 56 3d
       0.12783812 -0.06400259 0.09299325 0.0523641
0003d0 bc 90 56 3d d1 76 31 bd d4 51 26 be 5f 43 c9 3d
       0.052384123 -0.043326203 -0.16242152 0.09827303
0003e0 04 b7 33 3e 59 4c 21 be 41 f7 77 bc 95 bb 1d 3d
       0.17550284 -0.1575178 -0.0151346335 0.03850897
0003f0 40 b2 3b 3d 46 7e 36 bd 24 3a 92 bd ae f2 19 3e
       0.04582429 -0.044554017 -0.07139996 0.15033981

lstm.bias_ih_l0 f4 [128]
000000 11 7e 87 3d 70 07 77 bd 60 8f bf 3c b6 68 90 bd
       0.06615842 -0.060309827 0.023383796 -0.07051222
000010 43 37 0a be 44 63 db 3d 9e c3 19 be d4 ee 93 3c
       -0.13497643 0.10712293 -0.15016028 0.018058218
000020 0b 98 2f be 58 37 43 3d 3c 32 f1 3d 42 10 74 be
       -0.17147844 0.0476602 0.117771596 -0.23834327
000030 48 1b 28 be 18 1b 53 be cb 0d 5b bc e0 7a 79 be
       -0.16416657 -0.20615804 -0.013369988 -0.2436328
000040 e0 52 16 3d af 2c 38 3e 84 d4 c6 bd 16 3d 0d bc
       0.03670013 0.17985795 -0.09708503 -0.008620521
000050 7b 1f 1e be 9d 8d e9 bc 69 0a bd bd 04 ad fa bc
       -0.15441696 -0.02850991 -0.09230501 -0.030600078
000060 78 a1 32 3e 15 ed 02 be 51 c6 09 be 4d 73 04 be
       0.17444408 -0.12785752 -0.13454558 -0.12934609
000070 01 56 f2 3d 3b e1 31 3e e1 d8 2f bd a6 97 71 3e
       0.1183281 0.17371075 -0.04293144 0.23593006
000080 b2 77 9f 3d ee ee a9 bd 30 7d 06 3d 4c c8 bf 3d
       0.07786502 -0.08297525 0.03283423 0.093643755
000090 3a 93 4a bd fc d7 27 be cc 76 0e 3d 0f da 44 be
       -0.049456812 -0.16390985 0.034781262 -0.19223808
0000a0 3c 48 06 bc da c8 5e be ec 0d 34 3e cb 89 39 be
       -0.008195933 -0.21756306 0.17583436 -0.1811897
0000b0 46 f4 03 be 66 71 48 3d 6e a9 39 be 61 ea a4 3d
       -0.12886152 0.04893627 -0.18131039 0.08052517
0000c0 0c 11 17 bd fd 75 0f 3e c0 a8 1f be 25 2a ca bd
       -0.03688149 0.14009853 -0.15591717 -0.0987132
0000d0 86 6e 89 3d 5b a6 17 bc 5c 50 a8 bd e6 8c 27 bb
       0.06710534 -0.009255971 -0.08218452 -0.002556616
0000e0 90 6a a2 3d bf a8 05 bd 97 47 97 be 28 bf 88 3d
       0.079304814 -0.032631632 -0.29546806 0.06677085
0000f0 64 c7 28 3e 6e 0c da bd 67 6c 18 bd 66 84 3c 3e
       0.16482311 -0.10646902 -0.037212756 0.18409881
000100 2c 43 d9 3d 18 da 83 bd 92 5d f2 3d de 2a 05 be
       0.10608515 -0.064380825 0.11834253 -0.13004634
000110 1b 11 8e 3d 8a 9a 34 bd 6e bc 64 3d a6 39 8b 3d
       0.06936856 -0.044092692 0.055843763 0.06798105
000120 00 eb 8b bb b4 b8 0a 3e de 14 1b 3b 76 e3 c4 bd
       -0.0042699575 0.13547021 0.002366356 -0.09613697
000130 da 5e 16 3e 0c 19 2d bd c0 d8 3d bd eb f9 77 3c
       0.1468462 -0.042260215 -0.046349287 0.015135269
000140 e8 c9 db 3c 9b 5b b9 3a 75 48 0e be d5 8c c3 bc
       0.026829675 0.001414168 -0.13894828 -0.023870865
000150 59 d2 0e bd 7c 88 12 3c 0f c4 09 be 10 1b e2 3d
       -0.034868572 0.008943673 -0.13453697 0.11040318
000160 55 65 86 b9 d8 bf d9 3c 07 d9 59 3d 5e 98 ed 3c
       -0.0002563397 0.026580736 0.05318549 0.029003318
000170 61 b3 b0 3d 9a c6 1f bd 03 89 f3 bd 00 3d 48 be
       0.08627964 -0.03900776 -0.11891367 -0.1955452
000180 52 a0 00 3d e4 7e 17 3e d6 5c 23 3d 1b a4 3a be
       0.031402893 0.14794499 0.039883457 -0.18226664
000190 cc 0d d2 3d ae 69 ac bb 57 82 48 be fa 3e f2 3d
       0.10256538 -0.0052616214 -0.1958097 0.11828418
0001a0 98 fb 0f 3e f6 f4 d3 3d 32 0c 24 be 82 7e f4 bd
       0.14060819 0.10349457 -0.16020277 -0.11938192
0001b0 d4 01 ce bc 7c 54 e2 bd 68 68 85 bd 60 f9 02 be
       -0.025147356 -0.1105127 -0.065140545 -0.12790442
0001c0 fc 58 35 bd 5f fc 20 be d1 a8 95 bd 84 31 74 3d
       -0.044274315 -0.15721272 -0.0730759 0.059617534
0001d0 60 ff d0 3d f0 30 a2 3a f6 39 37 be 66 0c 68 be
       0.10204959 0.0012374204 -0.17893204 -0.2266098
0001e0 e8 67 13 3e 5f 29 64 3c c0 d4 0a be 42 fc 26 be
       0.14395106 0.013925879 -0.1355772 -0.16307166
0001f0 34 37 ca bd 2b af 44 be 5d ad 20 3d aa c7 0c bb
       -0.098738104 -0.19207446 0.039227832 -0.0021481314

lstm.bias_hh_l0 f4 [128]
000000 3c 34 90 bd 34 e4 81 3d 84 c4 85 3a 2e dd d5 3c
       -0.07041213 0.063423544 0.0010205661 0.026106443
000010 c7 06 c1 3d 61 da 24 be 60 ac 4b bd 91 74 00 3e
       0.09425121 -0.1609893 -0.049724936 0.12544467
000020 08 c9 94 bc 62 b7 29 bd 9c b9 e0 3d 64 71 5f bd
       -0.018162265 -0.041434653 0.10972902 -0.054551497
000030 70 4a 7a bd 7b a4 70 3d 14 d7 9f 3b 9c 17 82 be
       -0.061106145 0.05875061 0.004877934 -0.25408638
000040 24 ad 0b 3d 15 1a b1 bc 50 9c 38 bd 21 b5 ab bd
       0.034100667 -0.021618882 -0.045070946 -0.08384157
000050 ec 17 d3 3d e8 7d 73 be 5d 40 22 3b 75 d0 21 bd
       0.10307297 -0.23778498 0.0024757602 -0.03950544
000060 48 f5 06 be 79 e3 99 bc 61 6b 7c bc e2 03 a2 3b
       -0.13179505 -0.018785225 -0.0154064605 0.0049443105
000070 32 14 27 3e 39 49 21 3e d1 2d 0b 3e 10 04 81 3e
       0.16316298 0.15750588 0.13591696 0.25198412
000080 b5 83 01 3e 14 94 ad bd 3b c1 d0 bd 61 44 3b be
       0.12647898 -0.08475509 -0.10193106 -0.18287803
000090 f8 40 ce bd 0e 85 0f 3d 88 f2 9f 3d df c9 ab bc
       -0.100709856 0.035039 0.07809931 -0.020970283
0000a0 03 f5 b8 3d eb 2e 69 3d 4e 16 03 3e 0c 8f 26 bd
       0.09031107 0.05692951 0.12801477 -0.040663764
0000b0 09 2c 60 bd 55 93 3c be 4f 3e 13 3d 8d bb 2c be
       -0.054729495 -0.18415578 0.035948094 -0.1686842
0000c0 3b ae 8c bd 91 fc 3c 3e 01 02 00 3e 39 13 e5 bd
       -0.06869169 0.18455721 0.12500764 -0.11185307
0000d0 38 f6 e3 3d 4e fa 37 3d ac 28 38 be 95 3f 3b be
       0.11130947 0.044916444 -0.17984265 -0.18285973
0000e0 d0 07 81 3d 39 7d 07 3e 7f a6 82 be 4f 47 11 be
       0.06300318 0.13231362 -0.2551765 -0.14187358
0000f0 cc 2e 26 3e 71 61 01 3e 46 dd f8 bd 98 b4 53 3e
       0.16228789 0.12634827 -0.121515796 0.2067436
000100 a7 ba 4d bc 00 15 97 bd 66 d4 f6 3d 68 71 dc 3d
       -0.012556708 -0.07377052 0.120522305 0.10763818
000110 2c f3 98 bd 86 cd ff bd 7c d1 1c 3e be 29 bb bc
       -0.07468256 -0.12490372 0.15314287 -0.022847053
000120 a5 09 bd 3d cc e1 11 be 19 5c 8c bd 40 de 05 3e
       0.09230355 -0.14246291 -0.06853504 0.13073063
000130 38 80 ae 3b 7e 99 11 bd 3b 69 8c bd a0 87 9b 3d
       0.0053253435 -0.035546772 -0.068560086 0.07594228
000140 78 ec da 3c 68 97 11 be 74 70 29 3d 28 e9 b2 3d
       0.026724085 -0.14217913 0.04136701 0.08735877
000150 1a 5e 93 bd d4 e0 ed 3d f3 5f c3 3d 17 97 3f 3d
       -0.07195683 0.11615148 0.09539785 0.04677495
000160 5b e5 08 be c7 e8 fd 3d 7d 25 0d be 33 3d 8f bd
       -0.13368742 0.123979144 -0.13783832 -0.06994095
000170 67 99 c7 3d 3a 64 06 be 44 4f 9c 3b 62 49 ad 3c
       0.09746056 -0.13124171 0.0047701914 0.021153156
000180 8f 28 a5 bc ca 6d e7 3d fd aa a8 bd 6d 65 95 bd
       -0.020160941 0.113002375 -0.082357384 -0.07294736
000190 4c ab d0 3d 5d 06 83 bd cd a2 0f be f8 fd f3 bd
       0.10188922 -0.06397698 -0.14026947 -0.11913675
0001a0 2c 7d 54 3d 81 4a 8f bd 99 b0 19 bd 46 e8 57 bb
       0.051877186 -0.06996632 -0.037521932 -0.0032944842
0001b0 32 2c 52 be 46 ed a1 bd 56 45 69 be 6f 93 af bd
       -0.20524672 -0.079065844 -0.22780356 -0.085730426
0001c0 e6 05 49 bd 3b c1 28 bc 78 49 18 bd f6 18 24 bd
       -0.04907789 -0.010299976 -0.03717944 -0.040062867
0001d0 a1 40 8d 3c 71 81 e3 3a d0 f7 18 be 21 c4 fb 3c
       0.017242732 0.0017357302 -0.14938283 0.03073317
0001e0 66 63 8e bd 39 84 a3 3d 8e 15 3c 3d 94 dc 01 3c
       -0.069525525 0.07984204 0.045918994 0.007926125
0001f0 88 33 0d be 24 0c 86 bd 1a 75 4d be d1 fb 12 be
       -0.13789189 -0.065452844 -0.20064202 -0.14353873

hidden2out.weight f4 [3, 32]
000000 aa dd d9 bc e2 1f 41 3e ea f8 7a bd 31 d2 30 bd
       -0.026594955 0.18859819 -0.06127254 -0.043169204
000010 e9 a4 d8 3b a1 2c 97 bd 91 02 84 bd df e1 13 be
       0.0066114557 -0.07381559 -0.06445802 -0.14441632
000020 3b 7e a7 3d ed 59 b9 3d 0e c6 0a 3e 38 6d 0f be
       0.081783734 0.09050355 0.13552114 -0.14006507
000030 8d fb 9b 3d f8 ee e7 bd c4 81 46 3d e0 17 93 bd
       0.07616339 -0.113248765 0.048463598 -0.07182288
000040 c7 81 1e bd 8b 3b d2 bd 28 7b fd 3d 4e 84 be bd
       -0.038697984 -0.10265263 0.12377006 -0.09302579
000050 6f d0 d4 3d 3f fe 1f 3e 2e e5 12 bd c2 99 7f 3d
       0.10391318 0.15624331 -0.035863094 0.062402494
000060 fc 1b 0f 3e 3e 92 28 be c0 34 df bd 31 dd e9 3d
       0.13975519 -0.16462037 -0.10898733 0.11419142
000070 e2 a1 aa bd 16 de 28 3e d9 84 ff bd e5 be e0 bc
       -0.08331658 0.16490969 -0.124765106 -0.027434776
000080 e7 26 b5 bd f8 04 cb 39 e3 c6 7e bd fc 43 df bd
       -0.08845311 0.0003872288 -0.062201392 -0.10901639
000090 21 80 a6 3d dd 10 0f bd d5 7f 4a bb 59 79 22 bd
       0.081299074 -0.03492819 -0.0030898948 -0.039666507
0000a0 b6 78 d9 3d b8 ae a0 3d 54 19 f0 3d d2 5f e0 bd
       0.10618727 0.07845825 0.11723581 -0.10955776
0000b0 19 d4 d7 bd ac 2d fe bd cf ef 6c bc 69 93 98 bb
       -0.10538501 -0.12411055 -0.014461472 -0.0046562445
0000c0 a6 19 b5 bc e5 22 9a 3d 28 1f ea 3d 29 dd 11 3d
       -0.022106957 0.07526187 0.11431724 0.035611305
0000d0 01 7a b3 bc 0c 8b 0f bc 44 94 16 bb 08 6e d8 3b
       -0.021908762 -0.008761179 -0.0022976557 0.0066049136
0000e0 b9 1b ee bd a7 58 dc 3c 70 ea d7 bd 85 13 08 3e
       -0.116263814 0.026897741 -0.10542762 0.13288696
0000f0 eb 8d 06 3e 8d 91 26 bc 22 a5 e1 bd 01 e7 af bd
       0.13140075 -0.010166538 -0.11017825 -0.085889824
000100 d7 ac ed 3c 7e 8c b3 3d 2d 2e df 3d 44 ec be 3c
       0.02901308 0.08767031 0.10897479 0.02330602
000110 ec 56 12 3e 66 29 31 bd 31 6d a1 bd bd 99 bc bd
       0.1429097 -0.04325237 -0.07882155 -0.09209011
000120 a7 a0 07 bc 0a a6 a2 bd 57 01 48 3d ad 2a 47 3e
       -0.008278049 -0.07941826 0.048829403 0.19449873
000130 91 fd 17 3e b2 63 e5 bd a9 ab 3d 3d 1c 72 f8 bc
       0.14842822 -0.11200656 0.046306286 -0.03032785
000140 69 a9 b9 3d 2a c4 0c be 5f ea c7 bd fd 7c 45 3d
       0.090655155 -0.13746706 -0.097614996 0.0482149
000150 96 97 66 bd 36 46 0c bd d9 17 24 3e 13 8c 91 bd
       -0.056296907 -0.034246646 0.16024722 -0.07106795
000160 0b 3e c3 bd 6a 58 d0 ba 12 cc 98 3d 05 7d 0a be
       -0.09533318 -0.001589549 0.07460798 -0.13524254
000170 aa 12 17 3e c8 10 07 be fa a1 b0 3d 00 fe 2e be
       0.14753214 -0.13189995 0.086246446 -0.17089081

hidden2out.bias f4 [3]
000000 6c de cc 3c 8a 8c e3 bd 4f 54 01 be
       0.025008403 -0.1111079 -0.12629817

std_layer.weight f4 [3, 32]
000000 7f 0b 32 3e e2 84 96 3d 25 0d 18 be e1 e4 1e be
       0.17387198 0.07349564 -0.14848764 -0.15516998
000010 60 9d 1a bc 42 df e8 3d 3e 54 c9 3d 20 fe fe 3b
       -0.009436935 0.11370708 0.09830521 0.007781759
000020 98 df bb 3c a7 ea 05 be d6 c1 dc 3d 80 74 9b bc
       0.022933766 -0.13077794 0.10779159 -0.01897645
000030 7d c5 11 be cc 33 05 be 38 29 15 bd 2c 0a e4 bd
       -0.14235492 -0.1300804 -0.036416262 -0.11134753
000040 72 64 69 bd e9 a0 30 3e 40 08 f9 3b f2 7e c4 bd
       -0.056980558 0.17248882 0.0075998604 -0.095945254
000050 8f 20 0d 3e 8d 06 28 3e e0 b7 8c 3c 80 3b 91 bb
       0.13781951 0.16408749 0.017177522 -0.004432142
000060 80 a6 ab 3c a8 f0 11 bd f0 6c 06 3d a0 a3 61 3d
       0.020953417 -0.0356299 0.032818735 0.055087686
000070 bb a1 08 3e 82 63 aa 3d 38 45 0e 3d d0 18 5a bc
       0.13342945 0.08319761 0.03473398 -0.01331158
000080 53 3d 0a 3e 8c e0 92 3d d0 7c 65 3d 8a f6 f7 3d
       0.13499956 0.07171735 0.056027234 0.121075705
000090 bc 7f 15 3d a4 55 4a bd 34 eb 38 3d de ec b3 bd
       0.03649877 -0.04939808 0.045146182 -0.08785413
0000a0 e6 ec dd 3d da ea 66 bd 0c 19 25 3d e8 f2 4a 3d
       0.108362004 -0.056376316 0.04030709 0.04954806
0000b0 a6 88 07 be ef 22 17 be 46 d4 f8 3d 81 b2 32 be
       -0.13235721 -0.1475942 0.12149863 -0.17450906
0000c0 e8 71 7d bd 1a bc ce 3d f0 f7 33 3d 19 70 2d 3e
       -0.061876208 0.10094471 0.043937624 0.16937293
0000d0 52 96 31 be b0 99 7b 3d 79 6c 89 bd 36 1a 97 3d
       -0.17342499 0.061425865 -0.06710143 0.07378046
0000e0 7d 8b 04 3e 62 33 f5 3d f1 73 33 be 57 22 80 bd
       0.12943836 0.11972691 -0.17524697 -0.0625655
0000f0 ee 73 fd 3d a2 7f 87 3d 84 26 13 be aa 9f de 3d
       0.123756275 0.06616141 -0.14370161 0.10870297
000100 ee b0 fb 3d 48 bb af bd 3c 10 58 bd a3 69 02 be
       0.12289606 -0.08580643 -0.052749857 -0.1273561
000110 42 0a 09 be 01 49 a7 bd ac 5d 29 bd c0 79 8b 3b
       -0.1338282 -0.08168221 -0.041349098 0.004256457
000120 c6 0b dc 3d 27 46 22 3e 10 79 9e 3c 7e b3 d6 3d
       0.10744433 0.15847073 0.019344836 0.10483454
000130 42 d0 d7 3d 40 b5 0d 3d bb 6f ab bd 42 6f 91 3d
       0.10537769 0.03459668 -0.0837092 0.07101299
000140 08 de e1 3c 8a a7 0f be f6 ce 63 bd ac ec 8d bd
       0.027571693 -0.14028755 -0.055617295 -0.06929907
000150 28 a5 7d 3d f5 89 a7 bd 2a e1 97 3d 10 ac 20 bc
       0.061925083 -0.0818061 0.074159935 -0.009806648
000160 60 5e f7 bc 78 b6 8b 3d 12 2b dd 3d 8c bf 5e 3d
       -0.030196369 0.068219125 0.10799231 0.054381892
000170 c0 68 f7 3c e0 bd 31 bc 04 4e 01 bd 32 e0 b0 3d
       0.030201316 -0.010848492 -0.031568542 0.08636512

std_layer.bias f4 [3]
000000 44 db 13 bd 09 36 09 3e 92 a3 e4 3d
       -0.03609778 0.13399519 0.11164011

exp_avg f4 [128, 12]
000000 ce fb b6 38 58 53 58 38 24 df 6e b9 57 e2 99 39
       8.7253386e-05 5.1576033e-05 -0.00022780575 0.0002935107
000010 78 68 7d 39 c0 31 22 ba be 68 0d b8 f4 12 01 b7
       0.00024166878 -0.0006187223 -3.371457e-05 -7.693412e-06
000020 1a 74 34 b9 dd 32 d5 b8 9b 87 35 b9 24 3f 07 ba
       -0.00017209389 -0.000101661055 -0.00017312022 -0.000515925
000030 f3 48 ca b9 c0 06 9a ba 62 24 31 ba 95 09 fb 3a
       -0.00038582794 -0.0011751279 -0.00067574356 0.0019152636
000040 10 b3 dc b8 0f 42 d9 bb c8 b8 57 ba 75 65 ad b9
       -0.000105237705 -0.0066301893 -0.00082291337 -0.00033072723
000050 f8 78 e0 ba eb d7 89 bb fa a4 af bb ff 11 36 bc
       -0.0017125895 -0.0042066476 -0.005360243 -0.011112689
000060 9d a9 c1 b9 42 bd dc ba 45 71 9b 39 11 b5 c4 37
       -0.000369382 -0.0016841071 0.00029648296 2.3449336e-05
000070 7b 8b 2c bb dd 07 35 bb f8 cd 4b ba 7e a9 5d 39
       -0.0026328254 -0.0027623095 -0.0007774527 0.00021139343
000080 8f ec 27 ba 23 d5 2d bb 2b dd 0a bb 3c 8d ff bb
       -0.00064057944 -0.0026524744 -0.0021188955 -0.007798819
000090 d5 7f d5 b9 bd d8 81 39 fc 50 75 39 29 8e 67 ba
       -0.00040721768 0.0002476628 0.0002339519 -0.0008833134
0000a0 13 87 b3 ba 92 9b b4 3a 4e b3 88 ba c1 5e fa b9
       -0.0013696871 0.0013779274 -0.0010429414 -0.00047754313
0000b0 85 08 ce 39 25 43 22 ba 45 89 ef b9 a7 3f 94 3a
       0.0003929773 -0.0006189815 -0.00045687906 0.0011310474
0000c0 f5 af 5e ba 05 0e 92 ba 8c ba 6d b9 2d 86 6b 3a
       -0.00084948476 -0.0011143094 -0.00022671575 0.00089845323
0000d0 60 c5 e1 ba f1 5e ab bb 2f df 8c ba 8d 77 39 ba
       -0.001722496 -0.0052298238 -0.0010747666 -0.00070750044
0000e0 ac 36 97 ba cd 56 82 bb 81 64 ac bb 54 06 2d bc
       -0.0011536679 -0.0039776326 -0.0052610044 -0.010560591
0000f0 c3 86 81 39 bb ab 2d 3a 47 8d f8 b9 60 b3 ae 39
       0.00024705203 0.0006625016 -0.00047407506 0.0003332151
000100 38 2d 36 3a 29 05 f1 38 12 2c b2 b9 cd 6c e7 b9
       0.0006949487 0.00011492737 -0.0003398364 -0.00044140816
000110 c8 23 cb b9 20 b6 be b9 c9 bd f5 38 6f ff 78 3a
       -0.00038745836 -0.00036375318 0.000117178606 0.0009498512
000120 7e 0c 52 39 b4 65 db 39 ed af 5e ba 9a 49 be 3a
       0.00020031814 0.0004184671 -0.0008494843 0.0014517785
000130 55 fd c3 3a bb da 2c bb d3 14 8f b9 22 93 34 ba
       0.0014952818 -0.002637549 -0.000272906 -0.00068883796
000140 c9 0a 9f ba a3 1c f5 ba 54 e8 7b ba a4 d8 28 bb
       -0.0012133952 -0.0018700551 -0.000960951 -0.0025763893
000150 68 51 10 3a 1e 53 70 3a 02 2d c3 b9 0e 1d 4b 3a
       0.00055052945 0.0009167659 -0.00037226832 0.0007748165
000160 43 96 11 3b 6e c1 52 3a 1d b9 07 3a f7 18 aa b8
       0.0022214807 0.00080396875 0.00051774253 -8.110882e-05
000170 f2 03 ee 37 c0 5c 36 3a f9 9f 0f 3b 2d 2e 91 3b
       2.8373648e-05 0.000695657 0.002191542 0.0044305534
000180 46 66 86 38 cc 4a 3a 3a e6 3f 4f b8 4a 1b 17 ba
       6.408668e-05 0.00071064825 -4.9412156e-05 -0.0005764259
000190 98 15 27 b7 62 ee 02 3b 82 b0 a8 35 7e 7d 3c b8
       -9.959003e-06 0.0019978513 1.2568346e-06 -4.4939567e-05
0001a0 3f f5 fa 39 1e 3d bd 3a 8f 0b e0 39 3f 1c 45 3b
       0.00047866438 0.001443777 0.0004273322 0.003007665
0001b0 1f 26 38 b8 18 b8 22 38 72 01 11 38 0c cf df b6
       -4.390452e-05 3.879526e-05 3.457204e-05 -6.6700213e-06
0001c0 9b a2 d4 38 b0 f2 5a 38 47 89 2c b8 51 99 2c b8
       0.000101392354 5.220127e-05 -4.1135845e-05 -4.1150783e-05
0001d0 12 2d 90 38 84 6b 89 38 79 c2 12 b9 60 d4 35 39
       6.87485e-05 6.5526954e-05 -0.00013996092 0.00017340621
0001e0 77 12 8a 37 ad b6 15 3a e7 40 06 ba b9 f3 58 3a
       1.645948e-05 0.000571112 -0.00051213655 0.00082760636
0001f0 4b 97 2e 3a 33 d2 7f ba b1 bc bf ba 43 27 9e ba
       0.00066601177 -0.00097588 -0.0014628378 -0.0012066144
000200 ae d5 85 ba 2d 82 0a bb b3 f1 34 bb d4 ae 0d bb
       -0.0010210776 -0.002113472 -0.0027609884 -0.0021619098
000210 fd 9b 2c ba 49 3c 9d b9 a5 86 99 38 7e 6b d2 39
       -0.00065845234 -0.0002999029 7.320688e-05 0.0004013441
000220 34 91 10 ba de 77 04 bb f9 a1 0a ba 62 6a 3a ba
       -0.0005514801 -0.0020213048 -0.0005288418 -0.0007111189
000230 fd 71 98 ba f7 04 60 bb e0 43 3d ba 6f 70 af bb
       -0.0011630651 -0.0034182647 -0.0007219892 -0.0053539793
000240 b9 9c c0 3a 7e 2b c8 b9 6e a9 f2 ba b3 55 b2 3b
       0.0014695144 -0.00038179377 -0.0018513629 0.005442345
000250 05 3e d3 3b c0 9f 17 bc b6 32 23 3b 91 73 a2 3a
       0.0064466023 -0.009254396 0.0024902052 0.0012394061
000260 22 f1 29 bb fe 3d 8c bb 15 c9 98 3b af d0 86 bb
       -0.002593108 -0.004279851 0.0046626427 -0.0041142325
000270 11 8f 97 39 c8 d0 bc b9 7a 10 8e b8 f5 2d 1c 3a
       0.00028907557 -0.00036013708 -6.774157e-05 0.0005957776
000280 cd 57 92 3a 8d 19 9a ba ff 11 81 3a 90 5e 4c 38
       0.0011165083 -0.0011756882 0.0009847282 4.872546e-05
000290 49 12 14 ba 8a 01 e3 3a ab a7 01 bb ae 52 75 bb
       -0.00056484767 0.0017319184 -0.0019783776 -0.0037433314
0002a0 6e 82 e4 38 b3 b3 5d b8 7c 67 26 36 dc 79 4a 39
       0.000108961816 -5.2857864e-05 2.4796163e-06 0.00019309617
0002b0 af c1 bb 39 78 d0 16 b9 d7 ed bc 39 b9 61 8b 39
       0.00035811725 -0.00014382775 0.0003603536 0.00026584955
0002c0 a7 8c da 38 8b d5 81 39 91 19 f1 39 e6 31 af 39
       0.000104212486 0.000247639 0.0004598615 0.00033415778
0002d0 31 d6 fb 37 50 7f 9f 38 37 10 f5 b7 a5 77 9a b9
       3.0021272e-05 7.6054246e-05 -2.9213827e-05 -0.0002946231
0002e0 88 84 ca b9 b3 a2 05 3a cf f4 a2 b9 7f 22 06 b9
       -0.00038627186 0.00050977914 -0.00031081444 -0.00012792087
0002f0 b9 7c be b7 06 e1 4a 39 f2 32 85 39 9d 21 12 3a
       -2.2707844e-05 0.00019348049 0.00025405694 0.0005574467
000300 f0 f7 22 b7 78 0d 9d b8 b5 dd 8c 38 6e c9 21 b8
       -9.71368e-06 -7.488852e-05 6.7170164e-05 -3.8572987e-05
000310 cc 79 17 b8 c9 1c b5 37 4d 76 36 39 92 83 33 39
       -3.6114638e-05 2.1590286e-05 0.00017400943 0.00017119784
000320 a4 10 28 39 5a 7f 1c 39 00 64 9e 39 4b 7e 78 39
       0.00016027928 0.00014924761 0.00030210614 0.00023698171
000330 5d 34 81 39 be 8e 43 39 af 38 07 ba 4c b2 fc 39
       0.0002464381 0.00018649825 -0.0005158288 0.00048198027
000340 23 39 c2 39 a4 87 3e ba d2 6e 51 ba 53 d1 b1 b9
       0.00037045134 -0.0007268137 -0.0007989231 -0.0003391603
000350 fa f7 37 ba 21 34 5a ba 34 ad c8 b9 89 89 66 ba
       -0.00070178474 -0.0008323808 -0.0003827602 -0.0008794298
000360 08 44 34 ba 07 99 3a bb c8 54 a4 3a 0b 99 bd b9
       -0.00068765925 -0.002847256 0.0012537474 -0.00036162915
000370 66 cd 3c bb ec 9b 3e bb 8c b7 00 3a 64 5d 63 3a
       -0.002880895 -0.0029084636 0.0004910163 0.0008673279
000380 b9 71 04 ba 6e 71 81 bb 4d 3e 0a 38 61 9a 14 bc
       -0.00050523464 -0.0039502895 3.2959786e-05 -0.00907001
000390 0b 49 aa 38 0c f6 50 38 75 e5 f7 b8 7c 48 7b 39
       8.119837e-05 4.9820213e-05 -0.000118206175 0.00023964228
0003a0 a1 19 b3 39 e4 d5 b0 b9 ce 39 4f 39 b1 3a ef 37
       0.00034160636 -0.00033728697 0.00019762592 2.851835e-05
0003b0 54 15 ca b8 aa 2d 80 38 ee d0 af b7 b6 ac 37 b9
       -9.636083e-05 6.112021e-05 -2.0958916e-05 -0.0001751658
0003c0 bd 49 bf 38 94 98 66 39 8f 4b cc 37 bc 50 11 ba
       9.1213245e-05 0.00021991349 2.435388e-05 -0.00055433414
0003d0 4c 17 29 ba 4f 4f d9 3a 34 9d a5 ba 59 fc d1 b9
       -0.000645031 0.0016579422 -0.0012635351 -0.000400516
0003e0 d1 2e 36 b9 a5 56 00 ba e0 60 e3 37 9b d4 80 3a
       -0.00017374313 -0.00048957235 2.710562e-05 0.0009828986
0003f0 ca b4 af 38 8a 0c d5 b9 e4 1f a8 b9 12 ad 9b 3a
       8.378325e-05 -0.00040635868 -0.00032067217 0.001187714

exp_avg_sq f4 [128, 12]
000000 df ae 26 33 8c 69 6d 33 19 1a 50 34 10 33 8e 34
       3.880893e-08 5.5276857e-08 1.9381004e-07 2.6486714e-07
000010 a3 b5 18 34 a5 2b cb 35 c7 7b cb 33 51 2c dc 33
       1.4222182e-07 1.5137381e-06 9.475439e-08 1.02526094e-07
000020 10 5e a1 34 44 99 81 34 dc 2c 0b 35 02 32 e3 35
       3.0057026e-07 2.4139638e-07 5.1846814e-07 1.6927372e-06
000030 d8 07 86 36 a3 d2 1d 37 a8 57 e3 36 db 09 14 38
       3.9944243e-06 9.406972e-06 6.7753317e-06 3.529513e-05
000040 e7 3e ab 37 07 b6 9d 39 18 14 52 37 62 0d cf 36
       2.041408e-05 0.00030080994 1.2521654e-05 6.1706387e-06
000050 f9 b9 04 38 29 d7 1d 39 2e 26 55 39 11 59 55 3a
       3.1644453e-05 0.0001505284 0.00020327486 0.0008138577
000060 f5 d0 7c 37 fc 69 a1 37 5d 70 72 37 f6 68 67 38
       1.5069022e-05 1.9242048e-05 1.4450486e-05 5.5172444e-05
000070 b5 ae 87 38 93 f7 09 3a 97 ab 92 37 52 6f 6e 37
       6.469843e-05 0.00052630267 1.7484459e-05 1.4211824e-05
000080 70 b7 75 38 34 43 b0 39 55 5f 7c 39 cd 54 ba 3a
       5.858339e-05 0.00033619406 0.00024068107 0.0014215946
000090 0f 6d 7a 36 b6 00 a0 36 b9 12 27 35 96 9c f9 36
       3.7316383e-06 4.7684543e-06 6.2239593e-07 7.4390073e-06
0000a0 f1 64 64 37 58 86 da 38 fe 2b d6 35 8f 03 05 36
       1.3613361e-05 0.000104200735 1.5957046e-06 1.9820616e-06
0000b0 23 4f 98 36 01 d1 88 38 9b 2e 52 38 c9 81 7b 39
       4.5391657e-06 6.523915e-05 5.0111306e-05 0.00023985574
0000c0 ff 08 79 37 e8 11 aa 37 a1 92 f2 35 7e bd 1b 37
       1.4843651e-05 2.0273917e-05 1.807308e-06 9.2828395e-06
0000d0 aa 7e 63 38 72 5d e6 39 5b 50 fb 36 3a df 89 36
       5.4238983e-05 0.0004393864 7.4897375e-06 4.108905e-06
0000e0 98 f9 e6 37 89 75 b1 39 ca 15 94 39 2f b7 cd 3a
       2.7534363e-05 0.0003384764 0.00028244994 0.0015694852
0000f0 a3 e4 a4 35 7c 58 91 36 01 5e 4d 36 5f a6 1c 37
       1.2285494e-06 4.3316377e-06 3.0602098e-06 9.337061e-06
000100 08 52 ec 36 2b 90 d4 38 04 4c 6b 36 b3 c7 0d 36
       7.042898e-06 0.00010135801 3.5061976e-06 2.1126878e-06
000110 b3 91 44 37 c2 07 6c 38 8c 60 8a 38 69 3b 97 39
       1.1716434e-05 5.627401e-05 6.598336e-05 0.00028845228
000120 8d d7 b4 34 7f 99 17 36 cc 32 79 36 68 67 24 37
       3.3684447e-07 2.25901e-06 3.713346e-06 9.799238e-06
000130 e2 8e e7 36 7b 90 50 38 64 b8 26 36 41 8b 7e 36
       6.90097e-06 4.9725622e-05 2.4843257e-06 3.7930006e-06
000140 e3 08 1b 37 8d 70 50 37 da 24 0b 38 05 21 d9 38
       9.240789e-06 1.2423971e-05 3.3174503e-05 0.00010353517
000150 79 3e 22 37 1b 2f a2 37 18 35 f8 36 12 3b 1b 38
       9.670498e-06 1.933384e-05 7.397157e-06 3.7009893e-05
000160 d0 34 19 38 05 c8 12 3a 2e ce 72 37 50 59 dc 36
       3.6527228e-05 0.0005599263 1.4472329e-05 6.5669083e-06
000170 e2 af 4f 38 66 cc ad 39 af 9d b6 39 89 3a dd 3a
       4.951645e-05 0.0003314942 0.0003483123 0.0016878407
000180 e5 8b 96 35 ca f9 2d 36 c8 c0 bd 35 c2 aa 8c 36
       1.1216586e-06 2.5924405e-06 1.4137704e-06 4.192204e-06
000190 c2 b2 b7 36 b7 c3 00 38 98 ec 29 36 93 10 82 35
       5.474635e-06 3.069985e-05 2.5320678e-06 9.690579e-07
0001a0 6a 0e 60 36 a6 4e bb 37 a2 86 96 37 bf a9 a9 38
       3.3386991e-06 2.232876e-05 1.7944087e-05 8.090166e-05
0001b0 6a 30 1e 35 b6 76 86 35 9d 7e a2 34 d9 7b ec 35
       5.893004e-07 1.0018327e-06 3.0266975e-07 1.7619415e-06
0001c0 cc 72 89 37 00 71 61 37 d8 74 85 38 3f 04 10 35
       1.638513e-05 1.3437355e-05 6.363698e-05 5.365036e-07
0001d0 4a a5 28 36 6a b4 7f 3a 89 e9 08 38 34 f7 84 38
       2.5130162e-06 0.0009754362 3.2642423e-05 6.340296e-05
0001e0 97 fa 04 37 36 bc 51 37 b0 fd 7e 36 7f 37 73 37
       7.926158e-06 1.2501192e-05 3.7996615e-06 1.449685e-05
0001f0 dd 5d 14 38 47 9e 0b 39 b9 25 02 37 63 dc 37 36
       3.5373367e-05 0.00013315036 7.757387e-06 2.7397407e-06
000200 29 67 1d 37 ef 50 ce 38 8e 1a d0 38 73 64 e4 39
       9.381948e-06 9.8379205e-05 9.923159e-05 0.0004356239
000210 5d fc 0c 38 62 2e 0e 38 44 c7 30 36 0d 29 77 37
       3.3613633e-05 3.3898636e-05 2.6342032e-06 1.4731905e-05
000220 8f 05 23 39 34 3d 49 3a 58 c9 1f 37 c3 99 43 37
       0.00015546962 0.00076766615 9.5240175e-06 1.1658706e-05
000230 04 4d 27 38 ea c7 28 3a 5c b6 ff 39 22 6b 3c 3b
       3.988763e-05 0.0006438481 0.00048773258 0.002875038
000240 dd 46 f5 37 d4 6a 09 39 a0 ab b7 38 c3 2e 02 3a
       2.9239274e-05 0.00013105135 8.758088e-05 0.00049660745
000250 0e da ca 38 1f f7 a8 3b 3d 59 03 39 a1 99 85 38
       9.6727264e-05 0.0051564123 0.00012526377 6.37055e-05
000260 3a 3c 0a 3a f6 19 4c 3b 47 91 23 3b 5a f6 5b 3c
       0.00052732567 0.0031143404 0.0024958418 0.013425434
000270 e1 9d 5d 37 71 af ba 37 b1 4c a5 36 eb 26 f2 37
       1.32093855e-05 2.2254624e-05 4.9263112e-06 2.886677e-05
000280 92 a8 32 38 a8 39 11 3a c8 5c 1c 37 8a d1 db 36
       4.25955e-05 0.00055399025 9.319927e-06 6.551102e-06
000290 35 80 11 38 ed 2a d9 39 ed 71 6f 39 72 3e ab 3a
       3.4690096e-05 0.00041421448 0.00022835257 0.0013064875
0002a0 c0 ab 31 34 84 9a 37 35 2c 7a 29 35 11 27 38 36
       1.6546892e-07 6.839766e-07 6.313519e-07 2.7440876e-06
0002b0 1f 55 d7 34 a7 ce f8 37 9f a8 28 35 79 8e 1d 35
       4.0108804e-07 2.9660134e-05 6.2830253e-07 5.869438e-07
0002c0 2a 8b 37 36 ac 5d 4c 37 7d d3 5d 37 da a6 86 38
       2.735013e-06 1.2181157e-05 1.3221867e-05 6.4206964e-05
0002d0 4f cd 25 34 6b a9 11 34 16 91 2a 34 65 5b 76 34
       1.5441513e-07 1.3565811e-07 1.5885266e-07 2.2943784e-07
0002e0 e7 03 a8 34 90 0c 01 36 77 3d d7 33 cf 8d a0 33
       3.1295278e-07 1.922981e-06 1.0022898e-07 7.4763754e-08
0002f0 46 5f 5e 34 bb 82 25 35 79 6b 40 35 5f 57 6f 35
       2.0710021e-07 6.165753e-07 7.1681967e-07 8.916158e-07
000300 e7 a0 00 34 8b dc 9e 34 f0 69 df 34 65 ee a6 35
       1.1979465e-07 2.959026e-07 4.1614067e-07 1.2437346e-06
000310 59 e0 0e 35 4c 02 4a 37 b4 f9 e1 34 ca 53 c7 34
       5.322559e-07 1.2040673e-05 4.20912e-07 3.7127603e-07
000320 d1 51 d3 35 91 c1 a8 36 0d 0e ff 36 c4 68 05 38
       1.5744537e-06 5.0293243e-06 7.601228e-06 3.180724e-05
000330 2e 5c 87 35 12 2a 1d 35 8d 41 7a 36 1d d4 72 36
       1.0085112e-06 5.854828e-07 3.7291059e-06 3.6184276e-06
000340 b4 8c 1c 36 7a 67 1f 37 82 82 d4 35 a1 08 f3 35
       2.3327711e-06 9.501231e-06 1.5833214e-06 1.8107422e-06
000350 20 1c de 36 34 22 52 36 53 4e 0f 36 8b c1 4f 37
       6.6193898e-06 3.1312347e-06 2.1354251e-06 1.2383224e-05
000360 f6 78 95 38 94 e0 66 38 4b 61 b6 37 af 87 ea 38
       7.1274044e-05 5.5045428e-05 2.1741396e-05 0.000111832625
000370 2c 58 b0 39 a4 51 89 3a f8 b7 1c 38 98 c1 d0 37
       0.0003363503 0.0010476601 3.7364633e-05 2.4885681e-05
000380 e2 3b b9 38 21 ba 69 3a 11 9d 13 3a e5 4f 5e 3b
       8.8326415e-05 0.000891598 0.00056310097 0.0033922133
000390 2c 46 24 33 dd c1 39 33 88 1d 36 34 73 6b 03 35
       3.8248047e-08 4.3249987e-08 1.6960814e-07 4.895766e-07
0003a0 71 7d 06 35 6f b4 08 36 37 9f a8 33 61 af 68 34
       5.010143e-07 2.0370605e-06 7.8520706e-08 2.1670486e-07
0003b0 df 73 e8 34 df 0a 85 34 e7 a1 a7 35 24 9a 54 36
       4.3297675e-07 2.478109e-07 1.2489589e-06 3.1680183e-06
0003c0 f8 2d e5 34 4e cb f7 34 37 d6 a1 35 a7 7b 15 36
       4.268802e-07 4.615526e-07 1.205778e-06 2.2274705e-06
0003d0 ae 19 b9 35 aa 25 32 37 bd bf 90 35 ab 4f 60 35
       1.3791048e-06 1.0618396e-05 1.0784639e-06 8.3562435e-07
0003e0 8e 3f 03 36 79 0e 09 36 bf 44 38 36 0a 7c ed 36
       1.9557515e-06 2.0423015e-06 2.7458152e-06 7.0775905e-06
0003f0 6e 11 99 34 5c 65 71 35 18 22 fd 34 ed 66 7e 36
       2.8511153e-07 8.9926993e-07 4.714973e-07 3.790886e-06

exp_avg f4 [128, 32]
000000 7d f2 32 b6 71 af 40 b6 82 e1 37 b8 18 3c c0 36
       -2.6665214e-06 -2.871235e-06 -4.384062e-05 5.7290417e-06
000010 f3 a7 67 b6 e7 c2 20 37 40 c8 5d 37 b4 c1 8c 37
       -3.4519442e-06 9.582122e-06 1.3219251e-05 1.67795e-05
000020 73 08 12 b5 2e 17 cc b6 49 8d d0 b7 72 17 0e 37
       -5.4401534e-07 -6.0823722e-06 -2.4861323e-05 8.469318e-06
000030 b8 89 ed b7 56 59 7d b7 a3 64 7a b7 ad 77 cf b6
       -2.8316732e-05 -1.5100775e-05 -1.49245925e-05 -6.183013e-06
000040 27 69 c1 b6 e5 df 88 b8 c9 93 a7 37 97 9b 2c 36
       -5.7640896e-06 -6.526689e-05 1.997677e-05 2.5720562e-06
000050 44 5f 8a 37 89 f6 9e b7 5a 90 a3 35 25 ae 13 b7
       1.6495243e-05 -1.894987e-05 1.2186458e-06 -8.802429e-06
000060 c9 6e 2b 38 be 05 41 36 4c 46 36 36 13 96 40 b7
       4.0872754e-05 2.8762583e-06 2.7161032e-06 -1.1479034e-05
000070 35 e7 1f b8 79 da 20 b8 e3 8e 91 b7 da 81 1f 38
       -3.8123882e-05 -3.835044e-05 -1.7351884e-05 3.8029488e-05
000080 f2 98 fc 36 51 82 b1 38 e2 fa 50 b9 af 0e a7 38
       7.5279904e-06 8.464291e-05 -0.00019929887 7.9659156e-05
000090 13 5a a9 b8 cd 11 19 39 46 11 27 38 2c 0f e2 38
       -8.0753256e-05 0.00014597848 3.983199e-05 0.00010779346
0000a0 49 2b 02 b8 30 ad bb b5 96 d8 3b b9 7a 17 e4 b6
       -3.1034728e-05 -1.398299e-06 -0.00017914394 -6.7976625e-06
0000b0 8a d6 12 b9 e4 1e 8d b8 1f d1 6e b8 db e2 28 b7
       -0.00014003567 -6.729158e-05 -5.693838e-05 -1.0066399e-05
0000c0 b9 5b 0c b8 37 1b 27 ba 4a 19 98 39 f0 58 ec 36
       -3.3464024e-05 -0.00063746 0.0002901054 7.0437018e-06
0000d0 0e 33 49 38 a5 b7 53 b6 b9 fe 60 b7 2d f6 d9 b7
       4.7969683e-05 -3.1548345e-06 -1.3410748e-05 -2.598305e-05
0000e0 8f 96 b4 38 ae 64 43 39 ad 36 37 b6 9e 1d 8f 38
       8.6111126e-05 0.00018634155 -2.730095e-06 6.824288e-05
0000f0 5e 5c fa b8 20 f3 a0 b9 dc e8 e9 38 81 d7 9d 39
       -0.00011938134 -0.0003069872 0.00011153679 0.00030105936
000100 71 dc 23 b8 85 c6 1d 39 48 48 23 39 51 98 e4 38
       -3.906753e-05 0.00015046641 0.00015571818 0.00010900258
000110 9d 7e 30 b8 71 fd 8a b7 35 4d f7 b8 ae 4c 03 b8
       -4.2079588e-05 -1.65689e-05 -0.00011792259 -3.1304247e-05
000120 04 20 de 37 91 74 9e b6 46 82 d9 35 d0 20 1a b8
       2.647937e-05 -4.722337e-06 1.6205674e-06 -3.674702e-05
000130 77 78 2d 38 bf 94 47 37 bb c4 0a 38 b9 4f d8 36
       4.1358606e-05 1.1895957e-05 3.3084983e-05 6.4465826e-06
000140 2b 3e 52 36 36 a3 ac 37 c2 c6 87 38 a2 65 4e b7
       3.1328625e-06 2.0579999e-05 6.474323e-05 -1.230222e-05
000150 ab 9c fa b8 7e dd 9d 38 ad 63 fa 37 70 98 c1 37
       -0.00011950111 7.5275995e-05 2.9848738e-05 2.3078377e-05
000160 f2 b6 a2 b8 1a a9 0c 38 94 cb 88 37 56 25 99 38
       -7.758838e-05 3.353609e-05 1.6307262e-05 7.302563e-05
000170 ae bd 02 39 7d 9b e7 b8 50 5a b5 39 33 26 c1 38
       0.00012468427 -0.000110439 0.00034590298 9.210072e-05
000180 32 99 78 35 55 82 13 38 d3 57 89 38 a4 b6 d1 37
       9.261013e-07 3.5168912e-05 6.5490276e-05 2.499979e-05
000190 c2 52 ef b7 4e dd 45 b6 43 5b a1 b6 bc bd cd b7
       -2.8529557e-05 -2.9484104e-06 -4.808798e-06 -2.4526256e-05
0001a0 92 63 f6 37 18 6d 4d 37 f8 05 ee 37 29 c9 01 b8
       2.9371851e-05 1.2244353e-05 2.837459e-05 -3.094334e-05
0001b0 84 e0 95 38 5b 89 af 38 11 09 ed 37 23 c5 15 37
       7.146693e-05 8.370235e-05 2.8256823e-05 8.9269915e-06
0001c0 be da c3 b6 fd b4 26 39 4a b6 18 37 35 c3 11 b7
       -5.836918e-06 0.00015898417 9.1023485e-06 -8.688124e-06
0001d0 8a 53 a4 35 1c 21 a7 37 c3 10 7a 36 76 7c df 37
       1.2243265e-06 1.992337e-05 3.726266e-06 2.6641628e-05
0001e0 fc 8d ef 36 65 56 00 37 56 a1 81 36 72 f3 0d 37
       7.139284e-06 7.64951e-06 3.8632816e-06 8.460936e-06
0001f0 ec a7 55 38 af 1b 53 b6 e6 46 8a 39 47 23 01 37
       5.0939547e-05 -3.1457564e-06 0.00026374235 7.697213e-06
000200 e1 23 f6 b5 95 7c c5 38 90 74 a5 b8 7f b0 df 38
       -1.833887e-06 9.416897e-05 -7.8895246e-05 0.000106663436
000210 66 85 f0 b8 e4 d6 cd 38 e2 de 30 37 e6 65 81 38
       -0.00011468939 9.815188e-05 1.0542311e-05 6.1701794e-05
000220 69 8c db b6 55 9f e8 36 60 7f cc b8 6e 2c 29 b8
       -6.5430545e-06 6.9326875e-06 -9.7512035e-05 -4.033412e-05
000230 43 99 79 b8 f2 a5 f5 b6 b1 92 b7 b7 1a 8b 61 b5
       -5.9508962e-05 -7.3208876e-06 -2.1883608e-05 -8.402145e-07
000240 fc e0 d1 b7 e3 3b ee b9 15 df 91 39 f3 ce d8 35
       -2.5019508e-05 -0.00045439517 0.00027822764 1.6153484e-06
000250 06 d8 32 37 3b 49 89 37 c3 cb 9b b6 8c 77 9a b6
       1.0659924e-05 1.6365773e-05 -4.643081e-06 -4.6034747e-06
000260 22 9b f1 37 50 88 4a 39 7e 1b 40 35 bc 9d 87 38
       2.8801678e-05 0.00019315002 7.156558e-07 6.466682e-05
000270 c1 79 4c b8 26 f1 98 b9 f6 c2 99 39 91 0a 8f 39
       -4.8750782e-05 -0.0002917137 0.0002932769 0.00027282958
000280 e6 ca de 36 a0 dc ae b7 c1 25 d8 b8 bf 24 dd 36
       6.639736e-06 -2.0845153e-05 -0.00010306715 6.590591e-06
000290 a7 65 e0 35 7a f2 4a 37 3a 4c 56 38 b0 16 e9 37
       1.6718885e-06 1.2096594e-05 5.1092567e-05 2.778633e-05
0002a0 85 29 05 b7 c4 52 22 b7 a0 db 50 b8 1d 1d 25 37
       -7.937085e-06 -9.675223e-06 -4.9795606e-05 9.841545e-06
0002b0 21 59 36 b8 71 a6 fc 37 7b 91 c0 b7 37 69 bd b6
       -4.347519e-05 3.0118246e-05 -2.2955928e-05 -5.6448876e-06
0002c0 8d 57 34 b7 d0 d3 b2 b8 56 24 b3 37 e5 d3 41 36
       -1.0749221e-05 -8.5271546e-05 2.1355383e-05 2.888258e-06
0002d0 dc a6 82 38 1c e4 c1 b7 b2 84 d4 b6 eb 1d 1d b7
       6.229963e-05 -2.3113615e-05 -6.33354e-06 -9.364895e-06
0002e0 a7 29 d4 38 50 c6 8d 35 f5 8a 90 35 f0 4a 19 b8
       0.00010116706 1.0563035e-06 1.0769278e-06 -3.6547834e-05
0002f0 1a cb 93 b8 c9 59 61 b8 0e 82 d2 b6 e8 fb 35 38
       -7.047337e-05 -5.37278e-05 -6.273628e-06 4.338837e-05
000300 75 40 8f 37 fd ce b0 b7 90 25 88 b9 f3 cc 02 38
       1.7076944e-05 -2.1077221e-05 -0.00025967928 3.118529e-05
000310 1f 99 9d b7 b4 c5 84 38 d9 56 cf 38 27 13 ae 38
       -1.8787161e-05 6.3310756e-05 9.886706e-05 8.300534e-05
000320 51 a5 23 b8 ee 29 dc b6 e2 8c 16 b9 e2 a7 5b 37
       -3.901619e-05 -6.561392e-06 -0.00014357598 1.30925055e-05
000330 21 6b 28 b9 bf 7a ed b7 4f c8 84 b8 4f c4 2e b7
       -0.00016061637 -2.830976e-05 -6.331561e-05 -1.0416915e-05
000340 db e8 af b7 8f 8f e2 b9 25 be 0e 39 00 92 48 37
       -2.0970057e-05 -0.0004321304 0.0001361301 1.1954922e-05
000350 17 2c f0 38 6f e7 30 b8 41 f8 d6 b7 37 1e 06 b8
       0.00011452304 -4.217721e-05 -2.562639e-05 -3.197623e-05
000360 08 1b 1f 39 e0 ed 99 38 8e 4a dc b6 7b be de b7
       0.00015173492 7.339916e-05 -6.5651902e-06 -2.6553162e-05
000370 78 bc 2b b9 e6 d4 3b b9 c6 dc 88 b8 62 17 1d 39
       -0.00016378041 -0.0001791302 -6.5261076e-05 0.00014981398
000380 7f 13 ca 37 35 10 8b b8 61 8a 1c b9 e5 5d 12 b8
       2.4089355e-05 -6.631055e-05 -0.0001492887 -3.489656e-05
000390 49 f1 6c 38 d1 36 82 b7 da b3 8e 38 70 d7 d3 37
       5.64915e-05 -1.5522734e-05 6.8045876e-05 2.5253481e-05
0003a0 af 1f 1a b8 b8 23 d0 35 5d 31 46 b8 fd ec 07 38
       -3.674597e-05 1.5507603e-06 -4.725285e-05 3.240722e-05
0003b0 7e 32 c2 b8 b7 27 54 b8 9d d9 f2 b7 d0 c8 00 b7
       -9.260046e-05 -5.0581726e-05 -2.8949982e-05 -7.67615e-06
0003c0 28 d7 25 36 53 62 94 b8 0d 8a 69 b8 a0 c1 fa 36
       2.4712153e-06 -7.075504e-05 -5.56801e-05 7.4731215e-06
0003d0 f4 bb 9f 38 1c 32 80 b8 41 99 c2 b7 f0 be a8 b7
       7.61672e-05 -6.112849e-05 -2.3197967e-05 -2.0116073e-05
0003e0 f6 a9 98 38 e9 0a 2c b8 da 45 04 b7 e4 32 57 b8
       7.2795825e-05 -4.1018156e-05 -7.884077e-06 -5.130739e-05
0003f0 0b 21 bf b8 6e 81 8c 37 9b 1e 63 b9 8b ab a2 b8
       -9.1137445e-05 1.6749571e-05 -0.00021659808 -7.756714e-05
