models/drone/policy_ego_rotor_best_iter93.pth (torch, 80830 bytes, 20 tensors)

lstm.weight_ih_l0 f4 [128, 12]
-0.074523695 -0.5089772 0.13687181 0.035112426 -0.3344926 0.03213936 -0.03264332 0.13217035
0.07321406 -0.27004567 -0.17362767 -0.027905514 -0.017095301 0.12346231 0.31061298 -0.071429744
-0.13608529 0.023406101 0.22439319 0.12377623 0.043493725 -0.13555995 -0.089128695 -0.016439648
0.20593591 -0.049705755 -0.12043221 0.24791028 -0.22182932 0.027921088 0.036039956 0.20725623
0.16117589 -0.060778394 -0.19097874 -0.05025686 -0.13191609 0.25577152 0.32304588 -0.25411558
0.13979018 -0.11913748 0.13161258 0.22225961 0.19381508 0.18245904 0.055019133 0.16463771
-0.08920082 0.11472593 -0.39190814 0.047240376 0.19491301 -0.20848574 0.3002554 0.25995004
-0.10237163 -0.10436802 0.07001378 0.026714962 -0.26514152 0.2557018 -0.24321114 0.14635418
0.078675136 -0.17776641 -0.027762454 0.0019566945 -0.2744614 -0.14203681 0.1766469 -0.07111745
0.2877422 0.14245701 -0.41968077 0.28049058 0.20455237 -0.30394825 -0.47483057 -0.11341851
-0.4156178 -0.16927978 -0.06557749 -0.38926286 -0.20060329 -0.08565706 -0.4774371 -0.0085916575
-0.023276873 0.071061455 -0.073815815 -0.18940078 0.046809196 0.06471251 -0.030918602 -0.06774381
-0.21943119 0.23183721 -0.12783492 -0.20179927 0.0658951 -0.112934 0.05229839 -0.04819136
-0.1450046 -0.13529961 0.117897026 0.07037775 0.215299 -0.05873868 -0.21141852 0.22697234
0.17670053 -0.23482804 -0.071879044 -0.052418694 -0.011076603 0.025675438 -0.19504951 -0.18731457
-0.428664 0.17228854 0.05808095 -0.3127604 0.22406343 -0.19852169 -0.17284505 -0.0026610051
0.10144196 0.13686642 -0.09943523 0.018601758 0.3700711 -0.0014328599 -0.34703547 0.48583975
0.14456546 -0.10334072 -0.12754908 -0.06476837 -0.18646878 -0.030422632 -0.062874846 -0.051523913
0.10149253 -0.24878792 -0.41037804 0.06466377 0.06832263 0.10082123 -0.20460485 0.14492843
-0.08951604 0.012746761 -0.11455071 -0.09791899 0.18069616 -0.28139904 0.08082155 -0.002556789
-0.2882535 0.13507378 -0.14686617 -0.07865428 -0.17214218 -0.041898184 -0.13920774 -0.04629232
-0.12865968 -0.1717205 -0.58622414 0.2835245 0.050363466 -0.2633744 -0.0111293625 0.10763033
-0.11362556 -0.07852946 -0.07433329 -0.12922126 0.1521107 0.044422306 -0.5081995 0.015589417
0.015586975 -0.00990101 -0.13076463 -0.22109456 -0.073916696 -0.041382764 0.21658936 -0.22331765
0.04653259 0.07323011 -0.18966694 0.013487827 0.102383554 0.116308756 0.10023548 -0.34925085
-0.2771987 -0.18926072 0.037377123 -0.12692831 0.46854994 0.6339395 -0.09428954 0.013780611
0.17530352 0.12241333 -0.027944203 -0.175788 -0.32866356 0.12725852 0.08396424 0.14849588
0.4958752 -0.38339874 -0.35399556 0.36693954 -0.15714742 0.06453173 -0.18686163 -0.13054912
-0.09944264 -0.10213525 -0.0596945 -0.0045453017 0.19168133 0.062364705 -0.3195407 -0.01738741
0.3363466 -0.16194333 -0.34014496 -0.000300412 -0.3516295 -0.0036146431 0.10078971 -0.2822482
-0.06616896 0.1303621 0.10242587 0.028849974 -0.20457721 -0.043460824 -0.08313739 0.021633085
-0.14480431 0.38214943 0.3059306 -0.089562215 -0.08912982 0.1267444 -0.271763 0.032421544
00000000: e19f 98bd 544c 02bf 2028 0c3e 0cd2 0f3d
00000010: 9d42 abbe 90a4 033d 00b5 05bd aa57 073e
00000020: 41f1 953d 6d43 8abe 74cb 31be 1b9a e4bc
00000030: 720b 8cbc cfd9 fc3d aa08 9f3e c249 92bd
00000040: f159 0bbe 27be bf3c 54c7 653e 647e fd3d
00000050: 7a26 323d 3ad0 0abe 1b89 b6bd 71ac 86bc
00000060: dde0 523e 4398 4bbd 2aa5 f6bd 31dc 7d3e
00000070: 3a27 63be c4ba e43c a29e 133d fa3a 543e
00000080: 4b0b 253e c4f2 78bd ee8f 43be 23da 4dbd
00000090: 0315 07be 7cf4 823e 4566 a53e 701b 82be
000000a0: 2825 0f3e 5afe f3bd 73c5 063e 0698 633e
000000b0: 7677 463e 8bd6 3a3e be5b 613d ca96 283e
000000c0: ebae b6bd 6ef5 ea3d 2fa8 c8be 207f 413d
000000d0: 4797 473e 497d 55be 13bb 993e 2c18 853e
000000e0: 38a8 d1bd e7be d5bd 6263 8f3d 56d9 da3c
000000f0: a1c0 87be 59eb 823e 570c 79be dfdd 153e
00000100: 6e20 a13d 6608 36be 166e e3bc e33b 003b
00000110: 3486 8cbe 1972 11be ede2 343e 07a6 91bd
00000120: f252 933e 40e0 113e 66e0 d6be 769c 8f3e
00000130: 2d76 513e 1b9f 9bbe fe1c f3be f747 e8bd
00000140: dbcb d4be ae57 2dbe 7e4d 86bd 764d c7be
00000150: f36a 4dbe f86c afbd a372 f4be 06c4 0cbc
00000160: 24af bebc ab88 913d bf2c 97bd 47f2 41be
00000170: 00bb 3f3d fe87 843d 0249 fdbc 44bd 8abd
00000180: 92b2 60be bc66 6d3e 28e7 02be 78a4 4ebe
00000190: 03f4 863d f149 e7bd d636 563d 4e64 45bd
000001a0: 167c 14be fb8b 0abe ff73 f13d 3622 903d
000001b0: 5777 5c3e f897 70bd 197e 58be 706b 683e
000001c0: fcf0 343e c376 70be 5235 93bd fcb4 56bd
000001d0: a47a 35bc 4c55 d23c 0fbb 47be 64cf 3fbe
000001e0: d979 dbbe 686c 303e 4ae6 6d3d 2222 a0be
000001f0: e270 653e 4549 4bbe 4bfe 30be 4264 2ebb
00000200: cdc0 cf3d b626 0c3e b3a4 cbbd b762 983c
00000210: f679 bd3e cdce bbba a2ae b1be fdbf f83e
00000220: f808 143e 4da4 d3bd 3a9c 02be 47a5 84bd
00000230: acf1 3ebe e238 f9bc 87c4 80bd bd0a 53bd
00000240: 51db cf3d 43c2 7ebe 121d d2be 706e 843d
00000250: bcec 8b3d 5c7b ce3d ef83 51be 1e68 143e
00000260: 3054 b7bd cad7 503c 9099 eabd c089 c8bd
00000270: 6a08 393e 8913 90be c585 a53d cd8f 27bb
00000280: f695 93be c850 0a3e 1664 16be 7f15 a1bd
00000290: 0a46 30be 6e9d 2bbd 798c 0ebe 049d 3dbd
000002a0: 5dbf 03be 80d7 2fbe c912 16bf 202a 913e
000002b0: ec49 4e3d 02d9 86be ee57 36bc 4a6d dc3d
000002c0: 85b4 e8bd 0ed4 a0bd 0d3c 98bd 9452 04be
000002d0: e8c2 1b3e 2af4 353d 5d19 02bf c16a 7f3c
000002e0: 8360 7f3c d937 22bc 2ae7 05be 9d66 62be
000002f0: a361 97bd f980 29bd 9ac9 5d3e 62ad 64be
00000300: f598 3e3d abf9 953d 0d38 42be 0cfc 5c3c
00000310: 78ae d13d 4933 ee3d 4248 cd3d 02d1 b2be
00000320: fdec 8dbe 90cd 41be c118 193d 7ff9 01be
00000330: c7e5 ef3e dc49 223f e01a c1bd 12c8 613c
00000340: c482 333e d7b3 fa3d 3eeb e4bc c501 34be
00000350: 9746 a8be 0f50 023e 72f5 ab3d 4e0f 183e
00000360: 5be3 fd3e d74c c4be e83e b5be 80df bb3e
00000370: 41eb 20be 3629 843d a858 3fbe abae 05be
00000380: 95a8 cbbd 492c d1bd 3882 74bd c1f0 94bb
00000390: 1c48 443e 2272 7f3d d79a a3be 0b70 8ebc
000003a0: 9f35 ac3e 79d4 25be 7b27 aebe 9e80 9db9
000003b0: c808 b4be a6e3 6cbb d66a ce3d d682 90be
000003c0: 9783 87bd a47d 053e a8c4 d13d c856 ec3c
000003d0: b07c 51be fa03 32bd f043 aabd de37 b13c
000003e0: 9547 14be 17a9 c33e f0a2 9c3e 656c b7bd
000003f0: b289 b6bd 49c9 013e 8524 8bbe 74cc 043d

lstm.weight_hh_l0 f4 [128, 32]
-0.117434844 0.30597505 0.24403685 0.3970296 0.2631476 -0.19365685 -0.38132843 -0.21317253
-0.56496954 -0.40730426 -0.020086557 0.028415814 0.49144202 0.10419346 -0.12163723 -0.118097775
-0.10782723 0.17132592 -0.29460773 -0.048185315 -0.29253122 0.19149396 0.34263426 0.011256323
-0.2793791 0.09276371 0.14280151 0.46164075 0.04897421 0.05856535 0.12188906 -0.2845816
0.15355925 -0.28769055 0.0421557 0.008436807 0.027915854 -0.28525773 -0.04754664 0.1295565
0.050238144 0.18167484 0.25847375 0.039320387 0.43849584 0.09417254 0.29830092 -0.2408764
0.11835754 0.20890442 -0.060396828 -0.2341309 0.039253093 0.0655713 0.06762115 -0.06928773
-0.13123144 -0.019058637 0.18958218 -0.18156655 0.22931254 0.17919172 0.23372972 -0.17279987
-0.038636748 -0.114170276 -0.2001262 0.33291712 -0.07847487 0.02300128 0.26659733 0.30556685
-0.29483888 0.105647616 0.115293495 -0.092274256 -0.0047017178 -0.14835939 -0.040354513 0.18584356
-0.047778618 0.08888223 0.019589094 -0.090342306 0.10314902 -0.04432766 0.27547523 0.14991404
0.0363089 -0.16938749 0.01803411 -0.027816985 -0.118709296 0.08530058 0.10223857 -0.04208114
0.41037175 0.27904227 -0.112491585 0.028386028 0.20877463 -0.0737737 -0.11122932 0.20416215
-0.14348637 -0.17660685 0.21091911 0.01931221 -0.2833899 -0.25794658 -0.1561587 0.032493174
-0.21308151 0.07819341 -0.018866433 -0.19297849 0.054750357 -0.28008947 -0.035849158 0.3454807
0.042271033 -0.23181206 -0.14131467 0.19780065 -0.064399324 0.06609889 0.2424419 -0.13885343
-0.048846062 0.14480256 -0.20035048 0.16394031 -0.06324981 0.24855226 -0.14810708 0.08262468
-0.500158 -0.5022763 -0.061745256 0.15794528 0.011826633 0.13218124 -0.18900056 0.052517973
-0.21521266 0.0007643241 0.16897713 0.08372303 -0.25936648 0.2219652 -0.004629636 -0.07838261
0.23027621 -0.055695318 -0.05892992 0.15033518 -0.14677893 -0.2149829 0.04067819 -0.026553538
0.01114619 0.073539056 -0.4211503 0.38997373 -0.30334693 0.17111185 0.08228882 0.037456814
-0.18517756 0.16732216 -0.03173473 0.047007915 -0.27764404 0.012981742 -0.033470377 -0.06663478
0.16667356 0.028645216 -0.013722001 -0.15284564 0.20559444 0.079269595 -0.029793784 0.19673918
0.3474706 -0.0045773773 0.7847209 -0.17323253 -0.17241156 -0.12976283 0.12660459 0.068118654
-0.30068374 0.015558719 -0.4033502 0.5132333 -0.43134654 -0.021329684 0.10361477 0.033835273
-0.12642506 -0.038684864 -0.23323375 0.19695015 -0.11394607 -0.3555296 -0.06507672 -0.033872694
-0.14318623 -0.11496904 0.27701405 0.3077294 0.12798463 -0.002374988 0.17890127 -0.25689918
0.5304519 -0.17942329 0.6396178 -0.44323772 -0.5047038 -0.3552612 0.21785963 0.5177967
0.07317414 -0.040754136 -0.1777833 0.17791955 -0.20830955 -0.10681327 -0.27568173 0.06170423
0.032208826 -0.014363152 0.11735331 0.18524207 -0.07738819 0.25865498 0.08231578 0.08443511
0.20142323 -0.018040048 0.092360824 0.11121258 0.04831779 -0.08574913 -0.14620456 0.07833517
0.1978055 -0.24087775 0.44059175 0.010898777 0.010412541 0.03373559 0.00950028 0.16383646
00000000: ae81 f0bd c3a8 9c3e cce4 793e 7747 cb3e
00000010: 48bb 863e fb4d 46be 7b3d c3be e649 5abe
00000020: d8a1 10bf 2f8a d0be 908c a4bc 48c8 e83c
00000030: 4a9e fb3e 6163 d53d f11c f9bd 3fdd f1bd
00000040: 86d4 dcbd 1070 2f3e d3d6 96be f75d 45bd
00000050: a7c6 95be fe16 443e c26d af3e 716c 383c
00000060: c70a 8fbe e6fa bd3d 8f3a 123e 2d5c ec3e
00000070: 2e99 483d 38e2 6f3d f9a0 f93d aeb4 91be
00000080: a33e 1d3e 2d4c 93be 75ab 2c3d 893a 0a3c
00000090: caaf e43c 4d0d 92be 44c0 42bd 76aa 043e
000000a0: 83c6 4d3d f808 3a3e ac56 843e 6a0e 213d
000000b0: 8782 e03e 88dd c03d e6ba 983e 4ea8 76be
000000c0: 7065 f23d 0aeb 553e aa62 77bd 03c0 6fbe
000000d0: dac7 203d 3f4a 863d f57c 8a3d bae6 8dbd
000000e0: 8961 06be dc20 9cbc d521 423e 95ec 39be
000000f0: e8d0 6a3e 097e 373e d856 6f3e 73f2 30be
00000100: 9141 1ebd 1bd2 e9bd e2ed 4cbe 1d74 aa3e
00000110: 6fb7 a0bd 2e6d bc3c 727f 883e 4273 9c3e
00000120: 1ff5 96be c75d d83d ff1e ec3d 49fa bcbd
00000130: de10 9abb 86eb 17be c64a 25bd c64d 3e3e
00000140: 83b3 43bd e307 b63d 4f79 a03c 6305 b9bd
00000150: cb3f d33d ec90 35bd 170b 8d3e 1183 193e
00000160: a4b8 143d ea73 2dbe 45bc 933c 72e0 e3bc
00000170: dc1d f3bd 12b2 ae3d 7562 d13d 465d 2cbd
00000180: 3f1c d23e a1de 8e3e fd61 e6bd d189 e83c
00000190: 04c9 553e aa16 97bd 33cc e3bd e20f 513e
000001a0: 17ee 12be 6dd8 34be 2efb 573e a434 9e3c
000001b0: 7b18 91be 9311 84be 11e8 1fbe 9017 053d
000001c0: 0a32 5abe de23 a03d c78d 9abc 279c 45be
000001d0: e941 603d e367 8fbe 91d6 12bd d9e2 b03e
000001e0: 6424 2d3d 2460 6dbe cbb4 10be 418c 4a3e
000001f0: cbe3 83bd db5e 873d b042 783e 982f 0ebe
00000200: cf12 48bd 1f47 143e ad28 4dbe f8df 273e
00000210: 1e89 81bd 7c84 7e3e 62a9 17be 2137 a93d
00000220: 5b0a 00bf 2e95 00bf 98e8 7cbd 68bc 213e
00000230: 7ec4 413c 855a 073e 5d89 41be 161d 573d
00000240: b560 5cbe ec5c 483a 5708 2d3e fb76 ab3d
00000250: afcb 84be d84a 633e 34b4 97bb 1087 a0bd
00000260: 87cd 6b3e c620 64bd 8060 71bd 77f1 193e
00000270: 374d 16be 7a24 5cbe 2c9e 263d ce86 d9bc
00000280: 829e 363c a59b 963d 03a1 d7be a3aa c73e
00000290: 4a50 9bbe f237 2f3e 0a87 a83d 516c 193d
000002a0: 309f 3dbe 8056 2b3e 47fc 01bd 5f8b 403d
000002b0: 5c27 8ebe 5fb1 543c 3c18 09bd d177 88bd
000002c0: 79ac 2a3e 5fa9 ea3c 3ed2 60bc 9183 1cbe
000002d0: 5987 523e 1958 a23d 1812 f4bc ff75 493e
000002e0: abe7 b13e d3fd 95bb 78e3 483f de63 31be
000002f0: a88c 30be 8ce0 04be a2a4 013e cb81 8b3d
00000300: 38f3 99be ffe9 7e3c eb83 cebe 4263 033f
00000310: 74d9 dcbe 97bb aebc fb33 d43d db96 0a3d
00000320: 9275 01be 0574 1ebd d4d4 6ebe 4dad 493e
00000330: 8f5c e9bd fa07 b6be f246 85bd 18be 0abd
00000340: 699f 12be e374 ebbd c9d4 8d3e b58e 9d3e
00000350: 670e 033e b0a5 1bbb e531 373e 4a88 83be
00000360: b2cb 073f bdba 37be febd 233f 0ef0 e2be
00000370: 4534 01bf cce4 b5be 9816 5f3e 538e 043f
00000380: 53dc 953d cfed 26bd d30c 36be 8b30 363e
00000390: 194f 55be eac0 dabd 2826 8dbe 93bd 7c3d
000003a0: 67ed 033d 6d53 6bbc ef56 f03d 19b0 3d3e
000003b0: b37d 9ebd 6d6e 843e 2d95 a83d 51ec ac3d
000003c0: e441 4e3e b9c8 93bc ac27 bd3d 6cc3 e33d
000003d0: e0e8 453d 3d9d afbd a6b6 15be 316e a03d
000003e0: 868d 4a3e a8a8 76be 3e95 e13e c990 323c
000003f0: 5d99 2a3c 542e 0a3d 10a7 1b3c bfc4 273e

lstm.bias_ih_l0 f4 [128]
0.19255443 -0.033351947 -0.0031755758 -0.015501353 -0.17850642 -0.0110329455 -0.5728112 0.033383995
-0.29881233 -0.12606217 0.09321489 -0.275117 -0.19302608 -0.24466209 -0.23354904 -0.47874698
-0.0058970987 0.09503365 -0.16550401 -0.1928844 -0.1570965 -0.14322534 -0.1145349 -0.13788866
0.061344363 -0.1585064 -0.044439737 -0.05291502 0.08166268 0.21263075 -0.12755054 0.2230426
0.124880806 -0.07487587 -0.021229737 0.076308526 -0.08987107 -0.25626126 -0.44718367 -0.19335479
0.014184651 -0.2696819 0.1574136 -0.42316738 -0.13066097 0.009699281 -0.52994424 -0.06887922
-0.33814183 0.15674229 -0.2509442 -0.35539684 0.047608707 -0.15408161 -0.3950049 -0.03842564
0.05327331 0.030072315 -0.38110074 -0.076472506 0.12330075 -0.19545081 -0.039505936 0.16070163
0.07011519 -0.19438414 0.15325151 -0.13626345 0.14609423 -0.059749182 0.07353783 0.0670173
0.024117967 0.14324795 0.06745539 -0.045718014 0.12626365 -0.02670246 -0.10341401 -0.09081812
0.016806858 0.054731496 -0.18626598 -0.043792818 -0.03126359 -0.051432677 -0.07709939 0.044985052
-0.0018345475 0.054763626 -0.12461464 0.07476692 0.09363112 -0.051331803 -0.10376013 -0.22647855
0.16531667 0.15887356 -0.054777317 -0.10320344 0.045137987 -0.13699093 -0.6116929 0.121327385
0.023848861 -0.05358559 -0.18925266 -0.17974588 -0.028589685 -0.17177136 -0.28732938 -0.33707154
-0.08680295 -0.21047565 -0.13611263 -0.117251985 0.097421475 -0.056809112 -0.27078286 -0.3526559
0.14055508 -0.020150403 -0.06303506 -0.12027843 -0.23070763 -0.17903322 0.0040327962 -0.040907536
00000000: fd2c 453e 0d9c 08bd 521d 50bb 63f9 7dbc
00000010: 63ca 36be 87c3 34bc c1a3 12bf a8bd 083d
00000020: eefd 98be 7116 01be 73e7 be3d 23dc 8cbe
00000030: a1a8 45be b388 7abe 7b27 6fbe 531e f5be
00000040: 733c c1bb 01a1 c23d e279 29be 7d83 45be
00000050: e8dd 20be aaa9 12be 4691 eabd af32 0dbe
00000060: 3a44 7b3d 804f 22be 7106 36bd 6cbd 58bd
00000070: c33e a73d e0bb 593e 9c9c 02be 4865 643e
00000080: 82c1 ff3d 8558 99bd fce9 adbc a547 9c3d
00000090: 530e b8bd ad34 83be 42f5 e4be ccfe 45be
000000a0: bd66 683c bf13 8abe 0831 213e 65a9 d8be
000000b0: fdcb 05be bce9 1e3c 6daa 07bf 8c10 8dbd
000000c0: ed20 adbe 0d81 203e c27b 80be 93f6 b5be
000000d0: 5901 433d 92c7 1dbe 153e cabe 3464 1dbd
000000e0: 1d35 5a3d 375a f63c a31f c3be 9e9d 9cbd
000000f0: 1b85 fc3d 4224 48be fad0 21bd f88e 243e
00000100: 8e98 8f3d a30c 47be f7ed 1c3e a588 0bbe
00000110: ba99 153e 8fbb 74bd 009b 963d 5e40 893d
00000120: 0b93 c53c 97af 123e 0d26 8a3d d042 3bbd
00000130: 424b 013e 1ebf dabc b9ca d3bd dafe b9bd
00000140: 89ae 893c 222e 603d 82bc 3ebe 1960 33bd
00000150: 400e 00bd 12ab 52bd 49e6 9dbd 3f42 383d
00000160: 3375 f0ba d34f 603d f635 ffbd 661f 993d
00000170: acc1 bf3d 4c41 52bd 3180 d4bd fee9 67be
00000180: c648 293e c0af 223e 2e5e 60bd 535c d3bd
00000190: 9ce2 383d 5a47 0cbe e897 1cbf 7e7a f83d
000001a0: b05e c33c 907c 5bbd 73cb 41be 4e0f 38be
000001b0: ea34 eabc d5e4 2fbe d61c 93be a494 acbe
000001c0: bfc5 b1bd ee86 57be 1c61 0bbe cf21 f0bd
000001d0: e984 c73d acb0 68bd 0da4 8abe 508f b4be
000001e0: aced 0f3e 7512 a5bc 8718 81bd 8a54 f6bd
000001f0: 9f3e 6cbe 7c54 37be 8c25 843b a98e 27bd

lstm.bias_hh_l0 f4 [128]
0.055983715 0.0903818 -0.025538683 0.081117354 0.050721295 -0.2791449 -0.4723734 0.14077026
-0.14549704 -0.21515675 0.08517232 -0.091325015 -0.08996488 0.020245146 -0.21530123 -0.48920056
-0.008496581 -0.10644361 -0.11349055 -0.268104 0.10039461 -0.3525002 -0.01975358 -0.14679398
-0.24489477 -0.04943472 0.07469868 0.08137474 0.12649703 0.19642588 0.051297132 0.23909679
0.17349432 -0.07665569 -0.15599497 -0.2002139 -0.14112452 -0.0573128 -0.40386552 -0.022087524
0.11269148 0.0048114806 0.10959367 -0.28264087 -0.05652972 -0.22339222 -0.31268582 -0.31808805
-0.36995116 0.20120098 0.029979274 -0.36853716 0.091813 -0.09990877 -0.4926624 -0.21872757
0.036971677 0.19501819 -0.3408092 -0.2851164 0.12076569 0.037366744 -0.1238084 0.18334642
-0.04852678 -0.20377381 0.15543155 0.10142123 0.0020427487 -0.14056012 0.17083743 -0.023810733
0.120691456 -0.1346858 -0.003445855 0.18114947 -0.015256798 -0.019988976 -0.1256252 -0.030010795
0.016701266 -0.08886154 -0.0059513003 0.06743669 -0.06835198 0.055774704 0.15283586 -0.018643346
-0.13526575 0.15216169 -0.31563932 -0.02417755 0.10481204 -0.14356627 0.019923864 -0.009780956
0.11375197 0.123930365 -0.17701903 0.0061154678 0.044461846 -0.19570607 -0.5561533 -0.11609352
-0.064882174 -0.22704639 -0.066572085 -0.063657604 -0.20868829 -0.14032367 -0.44999248 -0.2948979
-0.09160652 -0.06356351 -0.100216344 -0.21693201 0.012614652 -0.056310795 -0.24123383 -0.09531614
-0.07292093 0.045765568 0.11846149 0.0507198 -0.26986253 -0.05241163 -0.23583701 -0.18229814
00000000: 2e4f 653d 181a b93d 8036 d1bc db20 a63d
00000010: 22c1 4f3d 15ec 8ebe edda f1be 1426 103e
00000020: 2dfd 14be 0d52 5cbe d36e ae3d 9c08 bbbd
00000030: 823f b8bd 26d9 a53c ed77 5cbe 7f78 fabe
00000040: 3e35 0bbc 1bff d9bd bc6d e8bd ed44 89be
00000050: b09b cd3d e87a b4be 43d2 a1bc 2951 16be
00000060: b2c5 7abe 107c 4abd 9ffb 983d cda7 a63d
00000070: 7088 013e de23 493e f11c 523d cad5 743e
00000080: 7fa8 313e a9fd 9cbd 25bd 1fbe df04 4dbe
00000090: f282 10be d4c0 6abd 76c7 cebe e5f0 b4bc
000000a0: caca e63d a0a9 9d3b a572 e03d 4eb6 90be
000000b0: b58b 67bd eec0 64be 5b18 a0be 70dc a2be
000000c0: 3d6a bdbe a107 4e3e 1897 f53c e7b0 bcbe
000000d0: 7408 bc3d f89c ccbd 3f3e fcbe 1ffa 5fbe
000000e0: 9d6f 173d d9b2 473e 8b7e aebe c7fa 91be
000000f0: 0154 f73d df0d 193d 428f fdbd 2abf 3b3e
00000100: 04c4 46bd 15aa 50be 7329 1f3e efb5 cf3d
00000110: a3df 053b feee 0fbe 02f0 2e3e ba0e c3bc
00000120: 152d f73d 13eb 09be dbd3 61bb 3f7f 393e
00000130: a6f7 79bc ecbf a3bc e4a3 00be 33d9 f5bc
00000140: 18d1 883c 0afd b5bd 2003 c3bb 3f1c 8a3d
00000150: 1ffc 8bbd 0474 643d 0181 1c3e eeb9 98bc
00000160: 1b83 0abe 46d0 1b3e 7a9b a1be ff0f c6bc
00000170: b2a7 d63d 0903 13be 5f37 a33c 4e40 20bc
00000180: cbf6 e83d 34cf fd3d 7a44 35be 4364 c83b
00000190: a01d 363d 2c67 48be 1060 0ebf 70c2 edbd
000001a0: f2e0 84bd d97e 68be f256 88bd eb5e 82bd
000001b0: 62b2 55be 02b1 0fbe 6a65 e6be dcfc 96be
000001c0: 339c bbbd 962d 82bd 3a3e cdbd 6d23 5ebe
000001d0: afad 4e3c 26a6 66bd 0006 77be 1c35 c3bd
000001e0: 9257 95bd ad74 3b3d f09b f23d 91bf 4f3d
000001f0: 6c2b 8abe 94ad 56bd 427f 71be 5dac 3abe

hidden2out.weight f4 [3, 32]
-0.03550464 0.19211592 -0.11713271 -0.097188726 0.018080931 -0.050664674 -0.0734278 -0.14759216
0.051185798 0.21287897 0.18136474 -0.16133152 0.053595986 -0.101196684 0.11141467 -0.16644968
0.0067441775 -0.080539554 0.13687453 0.02216394 0.20949167 0.11978705 -0.2291115 -0.032156847
0.15642299 -0.13609219 9.844085e-05 0.12564155 -0.07130002 0.16990788 -0.14027096 -0.04767178
-0.17626126 0.09419107 -0.08844842 -0.11030326 0.12584406 -0.045330517 -0.040345073 -0.055510867
0.041329965 -0.11374183 0.1599923 -0.028387403 -0.13559738 -0.12771685 0.039189227 0.26399952
-0.11041103 0.09967251 0.16452006 0.035184577 -0.08765127 0.0019709815 0.20694107 0.024650628
-0.098351575 0.016078936 -0.20659211 0.21212599 0.087063394 0.045823652 -0.11512767 -0.094209455
0.07085993 0.05111709 0.09350398 0.010120926 0.14233966 -0.044356298 -0.06891638 -0.13745885
0.0077534253 -0.15189794 0.061004885 0.31902224 0.099081434 -0.028556949 0.04406127 0.18606882
0.061132416 -0.05457452 -0.113672204 0.062611625 -0.09771619 -0.020744983 0.55099833 -0.058827378
-0.06819942 0.0021889727 0.12474478 -0.06506989 0.1129341 -0.06929448 0.09645216 -0.183073
00000000: 506d 11bd 09ba 443e 46e3 efbd e20a c7bd
00000010: 761e 943c c385 4fbd 5061 96bd 6622 17be
00000020: 33a8 513d f2fc 593e aeb7 393e 1734 25be
00000030: 7787 5b3d 3540 cfbd 602d e43d c971 2abe
00000040: 43fe dc3b ecf1 a4bd d628 0c3e 2791 b53c
00000050: fc84 563e ea52 f53d 349c 6abe e6b6 03bd
00000060: 592d 203e c05b 0bbe 0772 ce38 2ea8 003e
00000070: bf05 92bd 55fc 2d3e 31a3 0fbe 7c43 43bd
00000080: d57d 34be 3fe7 c03d 7224 b5bd ade6 e1bd
00000090: 44dd 003e 7eac 39bd e040 25bd 5d5f 63bd
000000a0: 9c49 293d 7af1 e8bd 06d5 233e b38c e8bc
000000b0: 0ada 0abe 35c8 02be e284 203d f22a 873e
000000c0: 2e1f e2bd 1a21 cc3d f277 283e b41d 103d
000000d0: 8282 b3bd 952b 013b 5ce8 533e 1df0 c93c
000000e0: 8d6c c9bd f9b7 833c e28c 53be 8e37 593e
000000f0: 4b4e b23d 95b1 3b3d 0ec8 ebbd e3f0 c0bd
00000100: 031f 913d 2760 513d 047f bf3d 3ed2 253c
00000110: 7dc1 113e f3ae 35bd 0824 8dbd 03c2 0cbe
00000120: 7210 fe3b 228b 1bbe 42e0 793d e256 a33e
00000130: 35eb ca3d 43f0 e9bc 9779 343d d388 3e3e
00000140: fc65 7a3d 8889 5fbd f9cc e8bd 863a 803d
00000150: 6d1f c8bd 62f1 a9bc 3a0e 0d3f faf4 70bd
00000160: 23ac 8bbd de74 0f3b 317a ff3d 5d43 85bd
00000170: fe49 e73d 44ea 8dbd b688 c53d 7d77 3bbe

hidden2out.bias f4 [3]
0.03875685 -0.10047446 -0.10695418
00000000: 81bf 1e3d 8ec5 cdbd cb0a dbbd

std_layer.weight f4 [3, 32]
0.17387198 0.07349564 -0.14848764 -0.15516998 -0.009436935 0.11370708 0.09830521 0.007781759
0.022933766 -0.13077794 0.10779159 -0.01897645 -0.14235492 -0.1300804 -0.036416262 -0.11134753
-0.056980558 0.17248882 0.0075998604 -0.095945254 0.13781951 0.16408749 0.017177522 -0.004432142
0.020953417 -0.0356299 0.032818735 0.055087686 0.13342945 0.08319761 0.03473398 -0.01331158
0.13499956 0.07171735 0.056027234 0.121075705 0.03649877 -0.04939808 0.045146182 -0.08785413
0.108362004 -0.056376316 0.04030709 0.04954806 -0.13235721 -0.1475942 0.12149863 -0.17450906
-0.061876208 0.10094471 0.043937624 0.16937293 -0.17342499 0.061425865 -0.06710143 0.07378046
0.12943836 0.11972691 -0.17524697 -0.0625655 0.123756275 0.06616141 -0.14370161 0.10870297
0.12289606 -0.08580643 -0.052749857 -0.1273561 -0.1338282 -0.08168221 -0.041349098 0.004256457
0.10744433 0.15847073 0.019344836 0.10483454 0.10537769 0.03459668 -0.0837092 0.07101299
0.027571693 -0.14028755 -0.055617295 -0.06929907 0.061925083 -0.0818061 0.074159935 -0.009806648
-0.030196369 0.068219125 0.10799231 0.054381892 0.030201316 -0.010848492 -0.031568542 0.08636512
00000000: 7f0b 323e e284 963d 250d 18be e1e4 1ebe
00000010: 609d 1abc 42df e83d 3e54 c93d 20fe fe3b
00000020: 98df bb3c a7ea 05be d6c1 dc3d 8074 9bbc
00000030: 7dc5 11be cc33 05be 3829 15bd 2c0a e4bd
00000040: 7264 69bd e9a0 303e 4008 f93b f27e c4bd
00000050: 8f20 0d3e 8d06 283e e0b7 8c3c 803b 91bb
00000060: 80a6 ab3c a8f0 11bd f06c 063d a0a3 613d
00000070: bba1 083e 8263 aa3d 3845 0e3d d018 5abc
00000080: 533d 0a3e 8ce0 923d d07c 653d 8af6 f73d
00000090: bc7f 153d a455 4abd 34eb 383d deec b3bd
000000a0: e6ec dd3d daea 66bd 0c19 253d e8f2 4a3d
000000b0: a688 07be ef22 17be 46d4 f83d 81b2 32be
000000c0: e871 7dbd 1abc ce3d f0f7 333d 1970 2d3e
000000d0: 5296 31be b099 7b3d 796c 89bd 361a 973d
000000e0: 7d8b 043e 6233 f53d f173 33be 5722 80bd
000000f0: ee73 fd3d a27f 873d 8426 13be aa9f de3d
00000100: eeb0 fb3d 48bb afbd 3c10 58bd a369 02be
00000110: 420a 09be 0149 a7bd ac5d 29bd c079 8b3b
00000120: c60b dc3d 2746 223e 1079 9e3c 7eb3 d63d
00000130: 42d0 d73d 40b5 0d3d bb6f abbd 426f 913d
00000140: 08de e13c 8aa7 0fbe f6ce 63bd acec 8dbd
00000150: 28a5 7d3d f589 a7bd 2ae1 973d 10ac 20bc
00000160: 605e f7bc 78b6 8b3d 122b dd3d 8cbf 5e3d
00000170: c068 f73c e0bd 31bc 044e 01bd 32e0 b03d

std_layer.bias f4 [3]
-0.03609778 0.13399519 0.11164011
00000000: 44db 13bd 0936 093e 92a3 e43d

exp_avg f4 [128, 12]
-8.936613e-05 7.005739e-05 0.00041382175 -0.0009213865 -0.0008996395 0.0024058446 0.0003125271 0.00054213946
0.00078704994 0.0013682749 0.0018822054 0.00302016 -4.713073e-05 9.73971e-05 9.027651e-05 -0.00032771277
-8.2027116e-05 0.00081858353 0.00048613484 0.00042657185 0.00043767525 0.0010685388 0.0016739595 0.0014316007
-0.00016161734 -6.434254e-05 -0.00012951298 -0.00013020544 -0.0002613224 -0.0009171747 0.00013900302 -2.4759014e-05
-0.0003058914 -0.0010162917 -0.00072249584 -0.0011928118 1.901035e-06 8.723963e-06 3.0184325e-05 2.6671863e-05
9.130152e-05 6.6651344e-05 -0.00012813816 -0.0001954881 -0.0001283351 -0.00032829618 -0.00056998635 -0.0002870806
0.00032586296 0.00027523338 -0.00011947091 1.6728713e-05 0.00027736163 0.0010215145 0.00021807227 -5.1627252e-05
0.00012320302 0.0013499114 0.0013647617 0.0010936902 3.4689514e-05 1.3685711e-05 -8.608346e-06 2.7901866e-05
5.383933e-05 4.9404975e-05 1.1446374e-05 -1.6967526e-05 1.9468322e-05 0.000112593865 6.132457e-05 7.8851546e-05
-1.4865658e-07 -1.5061376e-07 2.1296907e-07 -1.9342055e-08 -1.610117e-08 3.3912084e-08 2.4188875e-08 7.9891805e-08
1.9644479e-07 9.023052e-11 3.778962e-09 2.4620025e-08 9.746717e-05 1.4930386e-05 -6.468048e-05 0.00019230545
0.000222846 -7.419228e-05 -8.268759e-05 -9.762741e-06 5.8492646e-05 8.796101e-05 2.071205e-06 0.00020933703
0.00015284994 5.6497807e-05 -6.326923e-05 0.00023511126 0.00030299788 5.332792e-05 -2.3904042e-05 -0.00013439466
-2.3659886e-06 0.00041307334 0.00016355484 0.00010691097 -2.9659162e-05 -6.460585e-05 -4.7462767e-05 0.00012409984
-1.9022653e-05 -0.00043257728 -6.6466496e-06 3.9994702e-05 3.926381e-05 9.870875e-05 0.00021992205 -9.512028e-05
0.0009337768 0.00053913594 -7.9061945e-05 0.0004090274 0.0011003583 0.0027626783 0.00022846846 -0.00029227656
0.0005933104 0.0038391424 0.0031478396 0.003202433 1.8880526e-05 3.222794e-05 -1.9685436e-05 -0.00014469765
-9.8678975e-05 0.000147609 0.0001895412 -2.1837284e-05 -9.852087e-06 0.00019790899 0.0003104535 -0.0002068538
-0.00018545335 -0.00014582854 -4.6604335e-05 5.4187833e-05 -0.00014747531 -0.00097536854 -0.00022842671 -1.0640709e-05
-0.0002250215 -0.0012863916 -0.0011624795 -0.0008407402 -0.002102093 -0.001455385 -0.000243665 0.00018787535
-0.0021440152 -0.008577309 -0.0017850567 0.00024379425 -0.0017402607 -0.010579476 -0.009805521 -0.008485269
-7.879776e-07 -7.672254e-07 1.1493289e-06 -9.169982e-08 -3.8854524e-09 3.0928803e-07 7.7943355e-08 3.7907097e-07
1.0106661e-06 -4.653016e-08 -1.03313525e-07 5.779091e-08 -1.9550345e-05 -1.5533145e-05 2.0785134e-05 8.407082e-05
4.780215e-05 -2.1046644e-05 -0.00013560503 2.7574179e-05 6.2561044e-06 -2.784681e-06 -6.3727035e-05 5.148876e-05
4.2084894e-06 5.409141e-06 -7.893154e-07 -5.7408292e-06 -7.989521e-07 3.128193e-05 4.8052793e-06 5.9307054e-06
-1.8070224e-06 3.3671568e-06 1.6773329e-05 1.3669838e-05 8.017476e-05 9.2017195e-05 -0.00021390026 0.00026312305
0.00027199415 -0.00043665926 -2.6693e-05 -0.00013264589 -0.00018732378 -0.00012708124 -0.00016565384 -0.00036896454
-0.00031509277 -0.00024809738 -0.0001300283 -6.772025e-06 -0.0004447183 -0.0017601519 -0.00022271786 -6.832122e-05
-0.0003966262 -0.0020915056 -0.0019509777 -0.0018128143 2.398037e-07 3.8319004e-07 -3.125874e-07 -3.868908e-07
-1.9128292e-07 7.812981e-07 3.7077365e-07 -2.7950206e-08 -4.7601932e-07 6.161746e-08 1.8157175e-07 2.2878133e-07
0.00018988793 0.000110547764 -0.00039069442 0.00049862376 0.0004386688 -0.0009463386 4.591171e-06 -0.00015469243
-0.00015765453 -6.0814706e-05 -0.00015190756 -0.0005673103 -9.053794e-06 4.0812778e-05 2.169213e-05 -5.5547796e-05
00000000: 136a bbb8 c6eb 9238 37f6 d839 3489 71ba
00000010: c9d5 6bba 60ab 1d3b adda a339 5d1e 0e3a
00000020: 0752 4e3a b057 b33a 55b4 f63a e0ed 453b
00000030: 3cae 45b8 ab41 cc38 d552 bd38 ddd0 abb9
00000040: f905 acb8 3696 563a eadf fe39 81a5 df39
00000050: c777 e539 360e 8c3a c368 db3a 8ca4 bb3a
00000060: d377 29b9 a3ef 86b8 e0cd 07b9 c287 08b9
00000070: 1902 89b9 8d6e 70ba 57c1 1139 94b1 cfb7
00000080: 0c60 a0b9 1735 85ba e065 3dba 1f58 9cba
00000090: 1127 ff35 235d 1237 5834 fd37 64bd df37
000000a0: 2179 bf38 2bc7 8b38 d35c 06b9 f0fb 4cb9
000000b0: b191 06b9 2b1f acb9 236b 15ba 4e83 96b9
000000c0: 96d8 aa39 334d 9039 758c fab8 a354 8c37
000000d0: d96a 9139 57e4 853a 54aa 6439 578a 58b8
000000e0: 0f30 0139 83ef b03a cee1 b23a 275a 8f3a
000000f0: 957f 1138 ae9b 6537 916c 10b7 cd0e ea37
00000100: 8ad1 6138 3038 4f38 cd09 4037 7c55 8eb7
00000110: e74f a337 5f20 ec38 619b 8038 1a5d a538
00000120: 699e 1fb4 65b8 21b4 7eac 6434 a125 a6b2
00000130: d94e 8ab2 bba6 1133 e6c7 cf32 fc90 ab33
00000140: 55ee 5234 446b c62e 1ad8 8131 027c d332
00000150: 4a67 cc38 857d 7a37 11a5 87b8 9aa5 4939
00000160: c5ab 6939 ad97 9bb8 9068 adb8 a7ca 23b7
00000170: 0056 7538 b577 b838 08ff 0a36 7b81 5b39
00000180: 5846 2039 0ff8 6c38 69af 84b8 3388 7639
00000190: b0db 9e39 6bac 5f38 8a85 c8b7 4bec 0cb9
000001a0: 60c7 1eb6 c491 d839 eb7f 2b39 6435 e038
000001b0: 91cc f8b7 007d 87b8 c212 47b8 cc20 0239
000001c0: d692 9fb7 8acb e2b9 4906 dfb6 fcbf 2738
000001d0: 32af 2438 db01 cf38 e09a 6639 507b c7b8
000001e0: b3c8 743a cd54 0d3a 0fce a5b8 ba72 d639
000001f0: e639 903a 0d0e 353b 0991 6f39 b23c 99b9
00000200: 6388 1b3a 1f9a 7b3b fc4b 4e3b e9df 513b
00000210: 9f61 9e37 7d2c 0738 2722 a5b7 fbb9 17b9
00000220: dff1 ceb8 7dc7 1a39 94bf 4639 362f b7b7
00000230: 644a 25b7 ca85 4f39 5dc4 a239 e5e6 58b9
00000240: 4176 42b9 8de9 18b9 0679 43b8 be47 6338
00000250: 9aa3 1ab9 e0af 7fba d485 6fb9 7f85 32b7
00000260: c0f3 6bb9 249c a8ba 575e 98ba 1f65 5cba
00000270: 45c3 09bb 9ec2 beba 5380 7fb9 6800 4539
00000280: 9b82 0cbb d787 0cbc 90f8 e9ba 05a3 7f39
00000290: 7619 e4ba 8a55 2dbc 56a7 20bc cc05 0bbc
000002a0: 6985 53b5 54f3 4db5 a442 9a35 82ec c4b3
000002b0: cd80 85b1 390c a634 d061 a733 1e83 cb34
000002c0: 39a6 8735 74d8 47b3 36dd ddb3 c735 7833
000002d0: 0c00 a4b7 2d4d 82b7 bc5b ae37 2e4f b038
000002e0: 2b7f 4838 538d b0b7 3331 0eb9 194f e737
000002f0: 87eb d136 75e0 3ab6 31a5 85b8 a3f5 5738
00000300: a636 8d36 2b80 b536 57e1 53b5 59a1 c0b6
00000310: 9277 56b5 b734 0338 093d a136 5f00 c736
00000320: d188 f2b5 50f7 6136 73b4 8c37 8257 6537
00000330: 7f23 a838 5bf9 c038 6a4a 60b9 c7f3 8939
00000340: 709a 8e39 6aef e4b9 c8ea dfb7 dc16 0bb9
00000350: 586c 44b9 1c41 05b9 5db3 2db9 9571 c1b9
00000360: 0933 a5b9 1113 82b9 3558 08b9 403b e3b6
00000370: 1429 e9b9 e6b4 e6ba 5f89 69b9 ad47 8fb8
00000380: 44f2 cfb9 a411 09bb f3b7 ffba f49b edba
00000390: 5fbe 8034 3db9 cd34 afd1 a7b4 deb5 cfb4
000003a0: 7363 4db4 66ba 5135 be0e c734 2717 f0b2
000003b0: 998f ffb4 8f52 8433 10f6 4234 efa6 7534
000003c0: a71c 4739 e1d5 e738 1ed6 ccb9 13b6 023a
000003d0: 21fd e539 b513 78ba dc0d 9a36 ef34 22b9
000003e0: 1150 25b9 4b13 7fb8 6049 1fb9 8db7 14ba
000003f0: c0e5 17b7 632e 2b38 7ff7 b537 fefb 68b8

exp_avg_sq f4 [128, 12]
3.9091722e-07 1.0216213e-06 1.7597053e-05 8.144373e-05 6.0590515e-05 0.000566181 1.7865143e-05 4.1964056e-05
7.4862105e-06 0.00011175231 0.0005279831 0.00025863881 3.0484034e-07 7.615105e-07 1.6831731e-06 7.0688293e-06
3.0045207e-06 6.1007217e-05 3.5316832e-06 3.652928e-06 1.5535429e-06 2.376414e-05 6.9894835e-05 3.3023356e-05
6.9845936e-07 1.3347701e-06 1.2992554e-06 3.0156489e-06 3.2744626e-06 2.9100434e-05 1.3588884e-06 1.8781745e-06
8.8014957e-07 1.5648488e-05 3.1622843e-05 2.0049327e-05 6.2275824e-08 1.3565138e-07 3.294844e-07 2.3756422e-06
1.7045234e-06 1.5639118e-05 5.4850204e-07 1.1656008e-06 1.0306056e-07 3.2373398e-06 1.4086228e-05 6.9408275e-06
1.1372881e-06 1.6896435e-06 2.041904e-06 4.179913e-06 4.7592e-06 2.7078344e-05 1.4046877e-06 2.1009673e-06
8.714391e-07 1.1743052e-05 3.03915e-05 1.30778835e-05 3.0744542e-09 5.4011724e-09 1.25924675e-08 3.783954e-08
4.2625544e-08 2.2551318e-07 8.063073e-09 1.9669377e-08 3.889141e-09 6.192472e-08 1.9515171e-07 1.0213137e-07
1.1024202e-12 1.0893195e-12 1.9931433e-12 1.8308217e-14 2.600875e-13 1.2436896e-12 6.617744e-14 2.9052197e-13
1.7210661e-12 3.5237248e-13 8.5691084e-13 3.815072e-14 1.9895155e-07 1.962432e-06 4.521709e-06 1.4689184e-05
7.5023036e-06 0.0001234627 6.1528463e-06 6.9092684e-06 3.3577555e-06 4.4938228e-05 0.00012052482 7.608722e-05
2.3890383e-08 3.079057e-08 5.2437212e-08 2.4741274e-07 1.6346323e-07 2.014149e-06 9.4151424e-08 1.3864017e-07
4.687586e-08 9.2471134e-07 2.1869726e-06 1.298549e-06 8.1910616e-07 9.403934e-07 5.1181967e-08 5.5179066e-07
1.2066921e-06 1.8721626e-05 1.9897473e-07 5.7029354e-07 2.3298767e-07 4.8680035e-06 8.781114e-06 2.68908e-06
1.6861229e-06 2.5065822e-06 3.7068771e-06 1.15572e-05 1.1140211e-05 9.085828e-05 4.767328e-06 5.1720504e-06
2.636786e-06 4.559969e-05 8.6148e-05 5.771339e-05 1.2159451e-06 1.3772544e-06 1.7983264e-07 5.635951e-07
2.4953467e-06 2.8648052e-05 9.0655845e-07 2.9641853e-07 1.3467206e-06 3.1695057e-05 3.1429427e-05 5.794315e-05
4.1695185e-07 8.19243e-07 1.9810427e-07 1.6091318e-06 4.959371e-07 2.904796e-05 1.36729e-06 4.0254346e-07
1.0763516e-06 2.306996e-05 3.070064e-05 2.9447674e-05 9.311251e-06 7.3074348e-06 4.257252e-06 2.4749379e-05
2.0908701e-05 0.0003273306 2.0009571e-05 1.0469116e-05 7.081331e-06 0.00024384345 0.00038129548 0.00023187578
3.6512165e-11 3.567438e-11 6.494717e-11 8.367671e-13 1.0161973e-11 3.728395e-11 3.0610395e-12 8.946437e-12
5.641321e-11 7.798231e-12 2.637717e-11 1.1197509e-12 2.6429447e-07 3.7452082e-07 5.8863705e-08 3.6348794e-07
5.6326786e-07 1.2107234e-05 4.8873244e-07 1.7559769e-07 1.9486738e-07 1.202767e-05 1.7107268e-05 6.9136604e-06
1.2816378e-09 1.6519711e-09 5.896165e-09 3.0706925e-08 3.0195633e-08 2.0772698e-07 6.572873e-09 1.42123735e-08
1.9765438e-09 3.441328e-08 1.5775589e-07 8.4170296e-08 4.9298112e-08 6.791401e-08 7.589711e-07 2.3323307e-06
2.1377925e-06 1.2768144e-05 2.7471867e-07 1.4495077e-06 2.9277743e-07 1.9027977e-06 9.668456e-06 6.49769e-06
4.881124e-07 4.6696533e-07 1.3030807e-06 3.0267274e-06 2.7949536e-06 2.7632605e-05 1.237516e-06 1.5981237e-06
9.0969354e-07 1.3269765e-05 2.6253301e-05 1.6956863e-05 3.8960373e-11 3.866023e-11 6.296259e-11 8.591495e-12
3.7064168e-11 3.5273073e-10 5.2172966e-12 1.6126487e-11 5.918394e-11 9.5713014e-11 1.7877876e-10 2.828739e-11
5.79161e-07 7.1603927e-07 2.6267808e-06 3.1107102e-06 2.7607712e-06 1.5031558e-05 3.1418097e-07 1.4735489e-06
1.2375183e-06 6.304134e-07 3.1401805e-06 6.0135408e-06 2.5276924e-08 6.153917e-08 3.3348552e-08 1.3059372e-07
00000000: 41df d134 a41e 8935 629d 9337 c5cc aa38
00000010: 9222 7e38 c46b 143a 1add 9537 9002 3038
00000020: 0f32 fb36 915c ea38 5968 0a3a ea99 8739
00000030: f0a8 a334 9a6a 4c35 63e9 e135 c830 ed36
00000040: 46a1 4936 00e2 7f38 db01 6d36 d324 7536
00000050: 5483 d035 1a59 c737 8194 9238 8f82 0a38
00000060: c37d 3b35 5a26 b335 1362 ae35 7460 4a36
00000070: d7be 5b36 b51c f437 0d63 b635 9615 fc35
00000080: 6b43 6c35 df44 8337 c5a2 0438 9a2f a837
00000090: 7fbc 8533 91a7 1134 fee3 b034 396d 1f36
000000a0: fac6 e435 c030 8337 c63c 1335 bd71 9c35
000000b0: 2452 dd33 1341 5936 e353 6c37 41e5 e836
000000c0: eca4 9835 b5c7 e235 a507 0936 2e41 8c36
000000d0: 37b1 9f36 4d26 e337 b488 bc35 58fe 0c36
000000e0: d7ec 6935 0604 4537 40f1 fe37 1569 5b37
000000f0: 5f46 5331 3795 b931 4256 5832 0485 2233
00000100: 4813 3733 9724 7234 c585 0a32 6bf5 a832
00000110: 3fa1 8531 7afb 8433 e58a 5134 5053 db33
00000120: e026 9b2b df4e 992b 4741 0c2c e0e7 a428
00000130: 8f6a 922a a408 af2b b204 9529 a18c a32a
00000140: f137 f22b 3a5e c62a ef32 712b c9d0 2b29
00000150: 639f 5534 53b2 0336 2fb9 9736 9171 7637
00000160: 4cbc fb36 c475 0139 8c74 ce36 2ad6 e736
00000170: cd55 6136 0e7c 3c38 45c2 fc38 0491 9f38
00000180: 8237 cd32 973e 0433 5337 6133 26d4 8434
00000190: 6e84 2f34 d12a 0736 4b30 ca33 1fdd 1434
000001a0: 8e54 4933 ae39 7835 e7c3 1236 ce49 ae35
000001b0: 8ce0 5b35 586f 7c35 2bd3 5b33 c41e 1435
000001c0: a0f5 a135 630c 9d37 c2a5 5534 4616 1935
000001d0: 2a2b 7a34 d557 a336 9952 1337 0b76 3436
000001e0: be4e e235 c136 2836 aac3 7836 cce5 4137
000001f0: d8e6 3a37 2b8b be38 09f7 9f36 938b ad36
00000200: a3f3 3036 4b42 3f38 5baa b438 4811 7238
00000210: 8e33 a335 1ada b835 0518 4134 f649 1735
00000220: bb75 2736 3951 f037 395a 7335 7423 9f34
00000230: f8c0 b435 4ff0 0438 17d3 0338 fc07 7338
00000240: 6dd9 df34 f3e9 5b35 7db6 5434 59f9 d735
00000250: 8a20 0535 05ac f337 ba83 b735 271d d834
00000260: 2977 9035 5d86 c137 90c4 0038 6606 f737
00000270: 8537 1c37 6332 f536 84d9 8e36 e39c cf37
00000280: 1865 af37 929d ab39 3ada a737 83a4 2f37
00000290: 2c9c ed36 3ab0 7f39 9de8 c739 ae23 7339
000002a0: 0b95 202e c8e5 1c2e 02d2 8e2e 6d87 6b2b
000002b0: 75c5 322d fff9 232e c966 572c 2c63 1d2d
000002c0: a11b 782e 1c30 092d 1b04 e82d 4797 9d2b
000002d0: 5be4 8d34 c011 c934 54d1 7c33 6725 c334
000002e0: 7933 1735 2d20 4b37 7031 0335 ed8b 3c34
000002f0: bd3c 5134 73ca 4937 9481 8f37 e4fb e736
00000300: 9f25 b030 910b e330 3797 ca31 9fe2 0333
00000310: 73b0 0133 8f0b 5f34 9ad7 e131 ae2a 7432
00000320: bad3 0731 cdcd 1333 9c63 2934 1cc1 b433
00000330: d9bb 5333 1fd8 9133 19bc 4b35 2385 1c36
00000340: ff76 0f36 c336 5637 0c7d 9334 b58c c235
00000350: 062f 9d34 a263 ff35 b435 2237 bb06 da36
00000360: d406 0335 3ab3 fa34 83e5 ae35 c81e 4b36
00000370: f090 3b36 91cc e737 ba18 a635 1d7f d635
00000380: aa31 7435 35a1 5e37 893a dc37 963e 8e37
00000390: 7b59 2b2e 8d07 2a2e c974 8a2e a724 172d
000003a0: 8b02 232e 70ea c12f 3b91 b72c 9fd9 8d2d
000003b0: 9925 822e a379 d22e bf91 442f 8ad1 f82d
000003c0: a477 1b35 d835 4035 c047 3036 98c1 5036
000003d0: b045 3936 0d30 7c37 b4ac a834 c1c6 c535
000003e0: ce18 a635 ae39 2935 e4bb 5236 ecc7 c936
000003f0: 8b20 d932 8427 8433 1f3b 0f33 5439 0c34

exp_avg f4 [128, 32]
-8.6670263e-07 6.849564e-05 4.0152405e-05 0.00011937326 4.6895807e-06 -9.1910476e-07 4.00152e-09 -2.8884513e-05
-6.1292535e-06 1.0218539e-06 3.588808e-05 1.5894648e-06 7.0310107e-06 4.0344683e-05 -2.1969417e-08 6.524836e-08
-1.4221765e-06 8.232325e-05 -4.820079e-06 -3.8225245e-08 -4.6102512e-05 -1.9139066e-05 2.0735395e-06 4.2388006e-06
-2.4411158e-05 1.3207668e-05 1.5148433e-06 7.166957e-05 1.6046064e-05 2.4808238e-05 4.0127718e-05 -2.102913e-05
-8.450172e-06 -1.0517703e-05 2.9856878e-06 -5.891858e-05 2.3207012e-06 1.0376262e-06 5.0425246e-08 -1.2264372e-06
2.6845605e-06 5.0452223e-07 7.6039382e-06 -1.2313891e-06 -2.8021077e-06 -3.2857395e-05 -2.9638787e-07 8.746499e-08
-7.3443545e-07 -8.317318e-06 4.4249236e-06 -4.708311e-07 5.0944545e-06 -2.3893826e-05 -1.8041472e-06 -2.8846282e-05
3.408101e-06 -1.3557679e-05 -1.0114785e-05 -2.5151036e-05 -8.50469e-06 -1.7575352e-06 -0.0001128689 7.464117e-08
-6.601059e-06 9.2389655e-06 -1.4353158e-05 -3.366891e-05 -7.3624806e-06 4.3021353e-07 -1.3436763e-08 -7.579085e-07
7.6334045e-06 6.012404e-07 -1.900047e-05 -7.354469e-06 -3.6441186e-06 -1.6786194e-05 7.3879235e-08 -5.6385954e-07
-8.3185677e-07 -1.7918435e-05 6.1040732e-06 1.1243089e-07 1.1023337e-05 -3.0391732e-07 -1.2818689e-05 -8.307586e-06
1.2043325e-05 -4.0842126e-05 5.966136e-06 -3.0796346e-05 -6.7399596e-06 -7.5028192e-06 -4.4611686e-05 2.3706772e-05
1.000466e-05 -3.116739e-05 1.0224738e-06 -2.1817841e-05 1.608694e-06 -8.813327e-07 -4.0283693e-10 -7.115859e-06
6.5572835e-06 -7.827219e-07 1.4439685e-05 8.523757e-07 6.3528096e-06 3.0250494e-05 6.67654e-09 -2.4195828e-09
1.2600549e-06 1.2275964e-05 -3.6204788e-06 2.6093772e-08 -1.46625e-06 1.1017926e-05 1.4796216e-06 3.1149102e-05
-7.4183145e-06 8.105666e-06 -2.2912234e-06 9.635667e-06 6.536964e-06 2.1646467e-05 1.3535266e-05 -1.0449757e-05
-5.016601e-05 2.4731171e-05 -2.3982711e-06 2.259914e-05 -5.7357165e-06 1.1552734e-07 -4.5910532e-08 -2.0195118e-06
-5.2803666e-06 1.0189857e-06 -1.5863781e-05 3.4933064e-06 2.6331018e-06 7.114526e-06 2.699833e-07 4.806843e-07
3.6304033e-07 1.0550318e-05 2.2315423e-06 4.3163152e-07 1.3453111e-06 -3.7424564e-07 7.88899e-06 -4.1853928e-06
1.50808255e-05 -5.19127e-06 1.2939722e-05 -2.6617823e-05 -4.859835e-06 -1.48377385e-05 -5.189255e-05 1.1442464e-05
1.3607323e-07 -2.9137587e-07 -5.8689363e-08 -1.8486371e-06 8.9322105e-10 7.3336764e-08 1.15947654e-10 1.5675566e-06
-4.620915e-07 -4.9921287e-08 -4.2375572e-07 4.4491202e-07 2.4916213e-07 -6.0257605e-07 -4.9093096e-10 5.6529373e-08
1.473717e-07 -1.1428036e-06 -3.2748904e-08 -1.0268794e-09 8.8810305e-07 -3.2040683e-07 8.8330546e-07 4.4730862e-07
6.896403e-07 1.1586544e-06 2.1453191e-08 -7.383407e-07 -4.4741742e-07 -1.2737662e-06 -7.1433647e-06 -7.5031494e-08
1.3943224e-08 -8.971179e-09 3.5878849e-09 -7.193754e-09 2.664349e-09 8.568771e-10 1.0815712e-10 2.4003153e-09
1.2218212e-09 1.27322675e-11 6.1934253e-09 -7.390937e-10 -1.5794711e-09 9.480492e-10 -6.3870104e-10 5.842954e-11
-5.483553e-10 -1.0850344e-09 -7.203684e-10 -9.834227e-10 2.146294e-09 -1.8092002e-09 -9.392749e-10 2.4014064e-09
-7.723526e-09 6.5281083e-09 -1.7532134e-08 1.1681287e-08 1.1386203e-09 4.5073225e-09 -1.7599179e-09 -4.103314e-09
-2.7223045e-05 1.7172663e-06 -1.8809267e-07 3.4079818e-05 -1.9361035e-07 5.318293e-07 4.756907e-09 1.1113555e-05
-1.1663395e-05 -3.0528702e-07 -1.1275857e-05 1.4366441e-06 3.087391e-06 -8.990842e-06 -2.712079e-08 1.7810768e-07
1.5852205e-06 -6.3381e-06 1.7285137e-06 -4.1669562e-08 1.1042583e-05 -5.4124837e-07 2.3316754e-06 4.7122094e-06
9.996153e-06 -1.7938324e-06 1.3262309e-06 -5.199182e-06 -3.9717374e-06 -8.776753e-06 1.5210874e-05 2.2450158e-06
00000000: 5aa7 68b5 51a5 8f38 5169 2838 0858 fa38
00000010: 315b 9d36 66b8 76b5 be7d 8931 054d f2b7
00000020: e3a9 cdb6 a226 8935 8886 1638 9855 d535
00000030: eceb eb36 c637 2938 42b7 bcb2 aa1e 8c33
00000040: 9de1 beb5 f5a4 ac38 2abc a1b6 1a2d 24b3
00000050: 325e 41b8 d58c a0b7 2327 0b36 053b 8e36
00000060: 90c6 ccb7 8196 5d37 9f51 cb35 4f4d 9638
00000070: a99a 8637 491b d037 cf4e 2838 b667 b0b7
00000080: 36c5 0db7 3175 30b7 ba5d 4836 581f 77b8
00000090: 58bd 1b36 9144 8b35 2593 5833 109c a4b5
000000a0: 6628 3436 816e 0735 5525 ff36 3546 a5b5
000000b0: d80b 3cb6 5cd0 09b8 3d1f 9fb4 63d4 bb33
000000c0: 0526 45b5 9c8a 0bb7 ce79 9436 89c6 fcb4
000000d0: 08f1 aa36 9a6f c8b7 0726 f2b5 ebfa f1b7
000000e0: bbb6 6436 ca75 63b7 acb2 29b7 70fb d2b7
000000f0: 5eaf 0eb7 73e4 ebb5 07b4 ecb8 6b4a a033
00000100: aa7e ddb6 0e01 1b37 58ce 70b7 b837 0db8
00000110: 3a0b f7b6 19f8 e634 82d7 66b2 1373 4bb5
00000120: 3911 0037 ed64 2135 3363 9fb7 68c6 f6b6
00000130: 7b8d 74b6 14d0 8cb7 8aa7 9e33 225c 17b5
00000140: c34c 5fb5 8c4f 96b7 97d1 cc36 8971 f133
00000150: dff0 3837 142a a3b4 da0f 57b7 cf60 0bb7
00000160: b00d 4a37 e64d 2bb8 b830 c836 532b 01b8
00000170: d027 e2b6 bac0 fbb6 6f1d 3bb8 e8dd c637
00000180: b0d9 2737 bbb9 02b8 ef3b 8935 7505 b7b7
00000190: 4eea d735 b994 6cb5 4276 ddaf c3c4 eeb6
000001a0: a306 dc36 3d1c 52b5 fa41 7237 d0ce 6435
000001b0: 382a d536 71c2 fd37 7867 e531 c045 26b1
000001c0: 281f a935 ddf4 4d37 5af7 72b6 d024 e032
000001d0: f7cb c4b5 a2d9 3837 6997 c635 18a6 0238
000001e0: d6ea f8b6 92fd 0737 ebc2 19b6 e0a8 2137
000001f0: 1858 db36 6f95 b537 8615 6337 5d51 2fb7
00000200: 5869 52b8 c975 cf37 fcf1 20b6 4993 bd37
00000210: 6e75 c0b6 d417 f833 2a2f 45b3 f386 07b6
00000220: 012e b1b6 15c4 8835 3613 85b7 8c6e 6a36
00000230: 58b4 3036 50b9 ee36 39f2 9034 6008 0135
00000240: e2e7 c234 4501 3137 9bc1 1536 fcba e734
00000250: 8a90 b435 eeeb c8b4 f45a 0437 4070 8cb6
00000260: a703 7d37 ab30 aeb6 af17 5937 5749 dfb7
00000270: aa11 a3b6 9aef 78b7 34a7 59b8 02f9 3f37
00000280: 861b 1234 656e 9cb4 a311 7cb3 b01e f8b5
00000290: d886 7530 507d 9d33 baf8 fe2e d664 d235
000002a0: 5f15 f8b4 0969 56b3 8b80 e3b4 3edc ee34
000002b0: 95c4 8534 b6c0 21b5 32f2 06b0 b4ca 7233
000002c0: 393d 1e34 6f62 99b5 cda7 0cb3 1b22 8db0
000002d0: fa65 6e35 6104 acb4 4a1c 6d35 a125 f034
000002e0: b81f 3935 1083 9b35 1148 b832 6332 46b5
000002f0: 9534 f0b4 46f6 aab5 09b1 efb6 0021 a1b3
00000300: f38a 6f32 aa1f 1ab2 bd8e 7631 ee2c f7b1
00000310: b917 3731 5e89 6b30 0cd7 ed2e cbf2 2431
00000320: 03ed a730 09fd 5f2d f2cd d431 1829 4bb0
00000330: b314 d9b0 844c 8230 9790 2fb0 e87c 802e
00000340: 13bb 16b0 4120 95b0 6b03 46b0 1c29 87b0
00000350: 017e 1331 93a7 f8b0 cc17 81b0 fd05 2531
00000360: 6db0 04b2 d94d e031 9299 96b2 d8ae 4832
00000370: a47d 9c30 d4de 9a31 9be1 f1b0 22fd 8cb1
00000380: 0b5d e4b7 d27c e635 85f6 49b4 edf0 0e38
00000390: 35e3 4fb4 08c3 0e35 3272 a331 5b74 3a37
000003a0: e6ad 43b7 54e6 a3b4 702d 3db7 b7d2 c035
000003b0: f930 4f36 5fd7 16b7 3ff7 e8b2 de3d 3f34
000003c0: c3c3 d435 ddab d4b6 47ff e735 2bf8 32b3
000003d0: 8843 3937 4e4a 11b5 e179 1c36 921d 9e36
000003e0: 26b5 2737 9dc3 f0b5 f200 b235 a274 aeb6
000003f0: f744 85b6 de3f 13b7 3532 7f37 14a9 1636
