models/drone/policy_opp_rotor_best_iter43.pth (torch, 80830 bytes, 20 tensors)

lstm.weight_ih_l0 f4 [128, 12]
00000000: be15 063e dd86 d83e d24e 48be fb89 253e
00000010: 002a be3e eea2 b4bc 8920 cabc 669c 20be
00000020: dbd4 b5bd c6f6 063e 462b 693d 6bba 9e3c
00000030: 8dae 9ebe 8e17 ca3c f54a 603e b815 113c
00000040: dbaf 4a3d 622e 2ebe 753e e8ba 7452 d73e
00000050: 3d94 a23d 5ab5 d6bc 4730 073e 64b7 37be
00000060: b3d1 9ebd 6d5d 103c 0942 7c3d 4f18 36be
00000070: b2ca 813d b6b3 7cbb 4c06 efbc 14f8 07bd
00000080: 284f 363e 02c1 a5bd aa50 98bd 33e1 9f3d
00000090: 6021 29be e55a 2bbf 7a65 6f3b f25b 86be
000000a0: 0388 d8bb d09c 6abd 2aea c23c 8b4d fbbd
000000b0: d142 263d 5fbe 8dbc a307 2b3e afc6 04be
000000c0: 5ca9 7bbe e0e2 c3be 809a 9c3e c729 99be
000000d0: 08d1 1bbf f24f 9dbd 5c73 923e 4c0e 05be
000000e0: 5435 323e c1b6 9f3c a128 ac3d cc1e 953d
000000f0: 02d2 d63d 97de 813d 406d 85be cc77 c93d
00000100: f973 833d 07cd 863d 2bff d83d a59d 683d
00000110: efab 87bc 7103 50be 6eea e2bd e5b6 57be
00000120: 474a 853d 3687 ff3e f0f3 5bbe 4416 03be
00000130: c8fa cc3c 1508 a7bd 3787 9bbd b8db 96bd
00000140: 145b f9bc 0cce 3f3e 41b5 933d d30f 0d3e
00000150: 6916 78be 6073 d73d ad94 553e 57f1 c23d
00000160: 2786 4fbd 18d4 7dbd 1754 1c3d 9679 58be
00000170: 3df4 a8bd 824d adbd ac42 98be 9fe9 f2bb
00000180: 875f 91bd c9dc 043e 63eb 64be 2587 c0bd
00000190: d164 253c c94d 61bc 06aa a0be 1df2 8cbe
000001a0: b7e0 1a3e bca9 dabd 57f5 13bc 8fe2 bf3d
000001b0: 0195 0abe 1357 313d 5bd6 123e caf1 023c
000001c0: 7628 7b3e ab7c af3d e5f9 433e ed03 da3e
000001d0: 0ee5 3e3e 2f15 a1bc 7f2c 483e bd5f d43d
000001e0: 4f9a b7be c4e5 e1be 77e2 7b3e 11c9 b0bc
000001f0: 322e bdbd 9d6c e2bb 53b0 aabe 5b93 aa3e
00000200: 55e7 773e aeea c9bd fb91 55be 9727 af3c
00000210: a94b 85bd 750d 853e 863c 253d 72c3 4abe
00000220: 9281 1f3e 11fb 453e 0d85 b2bd 9c9e 12be
00000230: f00d 7c3d 1c14 24bd aa3f 32bd 42a5 4cbd
00000240: 3933 72be 5b06 02bf 5c93 ab3b 9a85 ad3c
00000250: db3a 70be a036 953b 54a7 b3be 0c52 0a3f
00000260: 03ee 1ebe a990 39bb 5ea1 683e f6f0 1e3c
00000270: 45d8 83be 1c41 5cbe ec09 aa3e 23db 163e
00000280: 5101 4dbe 08a6 183e 8017 b3ba be52 713e
00000290: 3912 bf3d 7614 10bc fa5b c3bd ba87 12be
000002a0: 347b 9cbd dfd3 3ebd 67f6 cabd d9e7 33be
000002b0: f45b 033e fc36 97be a710 bcbe 71b4 f03b
000002c0: 3cdf 993e a71c b83c 1c32 16bc 3a66 983d
000002d0: 7af4 acbd b213 e63d 9a34 f63c 5690 24be
000002e0: 47a5 813e bb0b f53d 234a 223e bb76 c33e
000002f0: 873e 89bd edd0 87bb e7a9 693e f1bb 25bd
00000300: 40ab 8abe 34ff 0c3f 5fe4 bbbd 6f70 2a3d
00000310: 7bc0 443e 0ef5 053e 37b8 413e 9744 fabd
00000320: 07d0 c1bb 93fb 013e d745 933d ff59 133e
00000330: d2ab 85bd 4a61 e5bd 28ff da3d 30c4 bf3d
00000340: ddff d83d 01dd 32bd 2312 6c3d acb1 833d
00000350: 3d39 973e 941a 103c 94a2 84bc 094c 4b3e
00000360: df26 cf3d 2715 b63b 3fee e5bd e97d 7cbd
00000370: e262 cdbd fce8 ee3d 1af1 e43c 1425 4cbd
00000380: 3568 14be 5303 1fbd d373 09be 13f2 3fbe
00000390: e1cb 14be 69de cf3d 8b95 c13d 5096 5cbe
000003a0: 1f2f e73c cefe 71bd 93fc a03d 27f8 64bc
000003b0: 89c3 a33d f143 fa3d 82ca 773e 7dec 0bbd
000003c0: 54f3 4dbd cf97 6dbe 49b2 b93d beaa 8f3d
000003d0: 40c0 68bd 8fe8 a03d b6b0 0e3e 4d43 323e
000003e0: 806b e1bb 0252 7b3c 2f2a 12bc fb7a c8bd
000003f0: 9820 1c3e 8033 84be 67be 18bd 1169 e0bc
0.13094231 0.42290393 -0.19561318 0.16165917 0.37141418 -0.022050347 -0.024673717 -0.15684661
-0.088784896 0.13180074 0.056926034 0.019376 -0.30992547 0.024669435 0.21903594 0.008855276
0.049484115 -0.17009881 -0.0017718809 0.42055094 0.079384305 -0.026209522 0.1320201 -0.17941052
-0.07754841 0.008811337 0.061586414 -0.1778271 0.06337489 -0.0038559265 -0.029177807 -0.03319557
0.17803633 -0.08093454 -0.074372604 0.07806625 -0.16516638 -0.6693557 0.003652899 -0.26242024
-0.0066080107 -0.057278454 0.023793299 -0.122706495 0.040591065 -0.01730269 0.16702132 -0.12966417
-0.24576324 -0.3825903 0.30586624 -0.29914686 -0.6086583 -0.07681264 0.28603637 -0.12993735
0.17403156 0.019496324 0.08406187 0.07281265 0.104892746 0.06341284 -0.26059914 0.098373026
0.064186044 0.065820746 0.105955444 0.056790967 -0.016561477 -0.20313813 -0.1107987 -0.21065862
0.06508308 0.49907845 -0.21479774 -0.12801462 0.025021926 -0.081558384 -0.075941496 -0.07366127
-0.030438937 0.18730944 0.07212306 0.13775568 -0.24227299 0.10520053 0.20857497 0.09518688
-0.050665047 -0.061969846 0.03816613 -0.21140131 -0.0824971 -0.08462049 -0.29738367 -0.0074131037
-0.070982985 0.12974848 -0.22355418 -0.09400777 0.010094837 -0.013751456 -0.31379718 -0.27528468
0.15124784 -0.106769055 -0.009030662 0.093693845 -0.13533403 0.04329593 0.14339583 0.007992217
0.24527153 0.085687004 0.19138296 0.4258112 0.18642065 -0.019663421 0.19548224 0.10369823
-0.35859916 -0.4412061 0.24598108 -0.021580251 -0.09237327 -0.0069099204 -0.3333765 0.33315548
0.2420934 -0.09859215 -0.20856468 0.021381183 -0.06508572 0.2598683 0.040340923 -0.19801119
0.15576771 0.19334055 -0.08716784 -0.14318317 0.06153673 -0.04005824 -0.043517746 -0.04996229
-0.23652352 -0.5079095 0.0052360725 0.02118187 -0.23459952 0.004553631 -0.350886 0.54031444
-0.15520482 -0.0028314984 0.22717807 0.009701004 -0.25750938 -0.21509212 0.33210695 0.14732032
-0.20020033 0.14907086 -0.001366362 0.2356672 0.093296476 -0.008793941 -0.095390275 -0.14309588
-0.07640687 -0.046588775 -0.09910279 -0.17568912 0.12828046 -0.29534137 -0.36731455 0.007345729
0.30053127 0.0224746 -0.00916722 0.07441373 -0.08445068 0.11234225 0.03005438 -0.16070685
0.2532141 0.11965128 0.15848593 0.38176522 -0.06701379 -0.004144779 0.22818719 -0.040462438
-0.27083778 0.5507691 -0.09174418 0.04161113 0.1921405 0.13081762 0.18917929 -0.12220114
-0.0059146914 0.12693624 0.07191055 0.143898 -0.06526913 -0.11200197 0.106931984 0.09363592
0.10595677 -0.043667797 0.057634484 0.064303726 0.29535857 0.008795399 -0.016190805 0.19853224
0.10114836 0.005556721 -0.112270825 -0.061643515 -0.10028626 0.11665532 0.027946997 -0.049840048
-0.14492877 -0.03882153 -0.1342309 -0.18744688 -0.14530899 0.10149843 0.09452351 -0.21541715
0.028220711 -0.05908089 0.07860675 -0.01397518 0.0799628 0.1221999 0.24198344 -0.03416108
-0.050280884 -0.23202442 0.09067208 0.07014988 -0.05682397 0.07856857 0.13934597 0.17408486
-0.00687927 0.015339376 -0.00892119 -0.09789082 0.15246809 -0.2582054 -0.037290957 -0.02739385

lstm.weight_hh_l0 f4 [128, 32]
00000000: 5c06 5b3b 9720 17be 7395 22be 1e26 c43d
00000010: e1d5 3b3e 47b4 35bd 66bb 9ebd 8096 1e3e
00000020: ccc8 7ebe c7ec 1a3e 62de 20be e521 a23d
00000030: 4d8e 97be 4be6 703d 7a40 1ebd efd4 7abd
00000040: 2ce1 823d bf16 8fb9 bf13 cf3d 4358 693e
00000050: c542 5dbd 90f1 e4bd d171 223e a425 893d
00000060: a39c 193e b746 bb3d 9130 123e 0b3b 783e
00000070: 5b84 de3a 40d2 5d37 223b 5abd 5fee 963d
00000080: 793c 5dbd 6c62 dabd 5d23 e03d f05c 0fbd
00000090: e1a6 6d3d eb72 8cbd b851 72bd 46bc a0bd
000000a0: efeb 063d 907c 97bc c6f9 acbd 109b ad3d
000000b0: a58c 80bd f31b 05be 2bf8 bb3d 4e54 53bb
000000c0: f95d 05be a2a8 b1bd 6ec9 87bd f706 f3bc
000000d0: aa09 d4bd e687 ef3a f99d c6bd 75c6 213e
000000e0: cf1c 543e 4ce7 25bd 940c 633e a446 7c3e
000000f0: 797d 883d f198 dabd 8a14 b33d 743c e73c
00000100: cf22 cdbd 7805 093b 33d7 233e 2017 cdbc
00000110: 03e1 a2bd 01e8 733d bc3f 84bd b51d 393d
00000120: fa63 07be eb2d 1bbd e159 8e3e 4f9e 3c3e
00000130: 4df6 1dbe 378e 30be 338a 5fbd 34bf d2bd
00000140: 846d 983d dc69 163d f581 37ba 50d9 253d
00000150: e6e3 37be 7d11 823d a8b5 acbe e3ee e0bd
00000160: dfc2 9abe cbb1 a8bd 6f12 1b3d 597a 1abe
00000170: 39de abbb 4430 9fbd ff98 463e 9ceb 783d
00000180: 402a 183e 5c1a 2dbe ea6a 663e 02a3 12bd
00000190: 18b6 32be 7446 29be 8e78 33bd df50 423e
000001a0: dfc3 1fbd bc1f 0abd 02e1 b03e 890a 37be
000001b0: 37f8 563e 8c1b 0dbe bb97 c4bd c2a4 34be
000001c0: e46b 40be f127 073e e61e 9d3d 69bc 193e
000001d0: 6293 fd3d 7a25 6a3e 3ffa f03d 7673 9cbd
000001e0: 6f84 a5bd 88cb 523d 8f57 453d 0ed3 38be
000001f0: b269 75be 0245 f33d 0ab0 89bd 85fe 743e
00000200: 4341 e8be 7056 9a3c cea8 9ebe cf6b 883d
00000210: 4626 75be 8297 9cbd 0b79 1abe de0a 033e
00000220: f849 9ebd 710e d13d be3d 873e b068 063f
00000230: 44fe afbd 39a6 0dbe a5e7 c43d 64db 063d
00000240: 33ed 85bc 262a 373d 4ed3 7c3e 28ad 453d
00000250: 0aa3 82bd f73f fdbd 8eb1 d13d 681c a43c
00000260: acfc bb3d f838 723e 212f 73be 4b42 81be
00000270: 4669 123e 31f3 bc3c ca5a b13d 0030 b5be
00000280: ade5 4e3e c786 053d 0840 fbbd 32eb 093e
00000290: 1ecc 283d 7b0b a93d 0eb2 af3d dc71 b5bd
000002a0: e3d2 b03e 600e dabc 650c a9be 3580 95bd
000002b0: 0180 123a 8ecc 4ebd 8b7a f7bd 5ce1 1cbd
000002c0: 22fa 523d 736d 22be 5bc5 fc3d 27fc 583c
000002d0: 71e4 4a3d 8527 5dbe 9e35 e1bd 0f1e 073d
000002e0: d97f 593e 964b 413e 40ef ddbd d900 213e
000002f0: 1499 3bbd e37c 3cbc 526f 45be 3214 1dbc
00000300: d85d 63bc 2ab6 5abc 3281 1e3b a7e6 54be
00000310: 9b91 09be 8c73 723e d301 bbbc 7727 f4bd
00000320: d735 883b dabd e03c a78f 76be e9db 25bc
00000330: 3f5a 96be 6d54 d03d 1816 413e 6a87 2dbe
00000340: ebd0 293e b4cd c4bd 74a3 f63c 1285 44bd
00000350: 1736 103e 121a 963d adb1 033e 13a9 7f3c
00000360: 3ba5 6d3d e105 7cbd a378 5e3e 2777 213e
00000370: 379c 2b3e 344b a83d 3856 52be fc79 403e
00000380: fced acbe 0cfe df3b 675f d8bd eb5a 99bd
00000390: d647 0bbd 6ddd a0be 72ea 92bd bbd5 273e
000003a0: beb2 003d 9d99 243c de0f 30be 42bc de3e
000003b0: dc65 8ebd 2b82 b33e 0c0d 3a3e a79a d3bd
000003c0: c90d e9be f997 583d b794 1cbe 005c 16be
000003d0: 776c 8fbc d263 b0bd 348f ba3d bad7 083c
000003e0: 1c86 553e 4374 133e ea7f b2bd 7d17 503e
000003f0: 6073 82be 1ac9 9e3e 5bdc 6d3e 4e85 a33d
0.0033420539 -0.14758526 -0.15877323 0.09577583 0.18343307 -0.04436138 -0.07750587 0.15487099
-0.24881285 0.15129386 -0.15709832 0.07916621 -0.29600754 0.058813374 -0.03863571 -0.061238226
0.063906044 -0.00027292033 0.10111188 0.22787575 -0.054018755 -0.11178887 0.1586373 0.066966325
0.15001158 0.09144347 0.14276339 0.24241273 0.0016976701 1.3221579e-05 -0.05327905 0.073696844
-0.05401275 -0.10663304 0.10944245 -0.03500074 0.058020476 -0.06857856 -0.059159964 -0.0784841
0.032939848 -0.018492013 -0.08446078 0.084768414 -0.06276826 -0.12998943 0.09178194 -0.0032246294
-0.13024129 -0.08674742 -0.066302165 -0.029666407 -0.10353406 0.0018274754 -0.096981 0.15798362
0.20714115 -0.040503785 0.22172767 0.24636322 0.06664557 -0.106737025 0.08744152 0.028227068
-0.10016405 0.00209078 0.1600006 -0.02503544 -0.07953074 0.059547428 -0.06457469 0.045194346
-0.13221732 -0.037885588 0.27802947 0.18419765 -0.15425988 -0.1724175 -0.054575156 -0.10290375
0.074427634 0.03672205 -0.0007000261 0.04049045 -0.1795803 0.06350992 -0.33732343 -0.10983064
-0.302268 -0.08237036 0.037859377 -0.15085734 -0.005244997 -0.07772878 0.19394301 0.06077157
0.14859867 -0.16904587 0.22501722 -0.035799988 -0.17452276 -0.16530782 -0.04381614 0.18976162
-0.039005157 -0.03372167 0.34546667 -0.17875113 0.20993124 -0.1378004 -0.09599253 -0.17640975
-0.18791157 0.1319883 0.07671909 0.15013279 0.12381627 0.22865859 0.11766481 -0.0763921
-0.080819 0.051463634 0.048179206 -0.18049261 -0.23966101 0.118783966 -0.0672303 0.23925216
-0.4536229 0.018840045 -0.30988163 0.06661188 -0.23940381 -0.07646085 -0.15085237 0.12797114
-0.07728952 0.102078326 0.26414293 0.5250349 -0.08593419 -0.1383294 0.09614495 0.03292407
-0.016348457 0.04471793 0.24689981 0.048260838 -0.063787535 -0.12365716 0.10238944 0.020033076
0.09179053 0.23654544 -0.23748447 -0.2524589 0.14297971 0.023065181 0.08659895 -0.35388184
0.20204802 0.032599237 -0.12268072 0.13468626 0.041210286 0.08254143 0.08578883 -0.088596076
0.34535894 -0.026618183 -0.3301727 -0.07299844 0.0005588532 -0.050488047 -0.1208392 -0.038300857
0.051508076 -0.15862064 0.1234233 0.013243712 0.049534265 -0.21597107 -0.10996555 0.03298765
0.21240176 0.1887649 -0.10836649 0.1572298 -0.045800284 -0.011504385 -0.19280747 -0.0095873345
-0.013877355 -0.013349095 0.0024185893 -0.20791112 -0.1343445 0.2367689 -0.022828018 -0.1192159
0.004156809 0.027434278 -0.24078237 -0.010123231 -0.29365727 0.10172353 0.18856084 -0.16946188
0.16583602 -0.09609547 0.030107237 -0.04797847 0.14083134 0.07329191 0.12860747 0.015604275
0.058018904 -0.061529044 0.21725707 0.1576811 0.1675881 0.08217469 -0.20540702 0.18796533
-0.33775318 0.0068357047 -0.105650716 -0.07488044 -0.034004055 -0.31418934 -0.07173623 0.16390125
0.03142046 0.01004639 -0.17193553 0.43503004 -0.06953022 0.35060248 0.1816904 -0.10332232
-0.4551833 0.052879307 -0.15291105 -0.14683533 -0.017507775 -0.08612789 0.09109345 0.0083522145
0.2085194 0.14399819 -0.08715804 0.2032146 -0.2547865 0.31012803 0.2322859 0.0798441

lstm.bias_ih_l0 f4 [128]
00000000: 77ec 94bd cf88 26be 818e 78bc 9293 ebbc
00000010: 2bc3 563e e780 8f3d 086c bdbd 5201 a63c
00000020: e5f5 04be 126f f73c c5bc 9b3e 0115 993d
00000030: 8f79 30be 5603 f4b9 caf8 edbd 8228 233d
00000040: 9d23 303d 4a1f 91bd b096 94bd 43ef a83d
00000050: 6ea7 a03d 3e1e 2b3d 9541 283e 2b93 733e
00000060: 3c1b 83bd e835 c13d 6217 bf3d e4e3 3b3d
00000070: 507b 6fbe 27d1 d63e 69bb e53d 0fab 46bd
00000080: df1b 49bc 0c8c f43d 9afe 4dbe ce4f 05be
00000090: a5c9 8fbd ee19 363e ef5e 11bc 7936 b43d
000000a0: cf30 f23b d8b4 3bbe dbee 83be 5c3d ac3d
000000b0: f2a5 cabd 3759 8dbd e4ce 3b3d 31a1 6cbb
000000c0: 7672 1d3e 834b 113e 1d60 8e3d b83d 703e
000000d0: a689 633c c2da 1bbd f265 8abc f83a f3bd
000000e0: cd41 a3bd d15d c03d 6374 04be 7aba 75be
000000f0: 39ee 00be afcb 89ba 2d14 08be 407c c9bd
00000100: dffc a73c bf68 093e 75f3 8c3d 544c d33b
00000110: b6cb 13be 5a5b 94bd 8f81 273d c68a 9fbd
00000120: 7bb7 d93d 3bf1 cbbb 2fa5 05bc 8cdb e13d
00000130: 7892 b0bd 5e2f 563e 383a f83d 91e5 ab3d
00000140: 8e42 04bc dcf9 d73d 4ccf e2bd 633e ee3c
00000150: 3897 4d3e cbce 483d 4136 0e3d eb86 2bbe
00000160: c216 7bbd 5cdf 063e 38a5 33bd 7187 c53d
00000170: 34f3 383c 0d98 413e eaf9 c93d 7557 04be
00000180: bd42 153e 1adb d83d f4d0 50be e80b 6c3d
00000190: ec3a 553e f925 9cba 0358 13bd 8339 483d
000001a0: 878a e7bd 49ae c8bc d3c7 27bd ca04 e63d
000001b0: 88e0 4c3e 950e 1c3c d068 243c be3d be3c
000001c0: f688 22be 8087 da3d ee84 b43b 9774 a4bd
000001d0: d6c4 833e c60d adbd 55f3 0a3e 9f73 5f3d
000001e0: 4d5c 18be 83d6 d53d 9948 533e 9e24 453e
000001f0: f487 073e 6136 583e af41 a9bd 525a 7e3d
-0.072716646 -0.16263126 -0.015170694 -0.02875689 0.20972888 0.07007008 -0.09249121 0.020264301
-0.12984426 0.03020433 0.30417457 0.07474709 -0.17233871 -0.00046541792 -0.116197184 0.039833553
0.043002713 -0.07086046 -0.07255304 0.082487606 0.07844435 0.041776888 0.16431268 0.23786609
-0.06401679 0.0943411 0.09330632 0.04587163 -0.23386884 0.41956446 0.11217386 -0.048502978
-0.012274711 0.11940774 -0.20116654 -0.13018724 -0.070208825 0.17783329 -0.008872732 0.08799452
0.0073910723 -0.18330705 -0.2576817 0.08410141 -0.09894933 -0.06901782 0.045851603 -0.003610682
0.15375695 0.14188962 0.06951926 0.23461044 0.013887798 -0.03805042 -0.016894314 -0.11876482
-0.07971535 0.09392894 -0.12935023 -0.23996916 -0.12590875 -0.0010512973 -0.13288946 -0.09838152
0.02050632 0.13418864 0.06882373 0.006448308 -0.14433178 -0.072439864 0.04089504 -0.07790141
0.10630699 -0.0062238253 -0.008157059 0.11028203 -0.08621687 0.20916507 0.12120479 0.08393396
-0.0080725085 0.10545704 -0.11074695 0.029082483 0.20077217 0.04902534 0.03471971 -0.16750686
-0.061301 0.13171142 -0.043858737 0.09644974 0.011288453 0.18905659 0.098621204 -0.12923987
0.1457624 0.10588665 -0.2039221 0.057628542 0.20823258 -0.0011913172 -0.035972606 0.048882972
-0.11305719 -0.024497168 -0.04096205 0.11231382 0.20007527 0.009524961 0.010034755 0.0232228
-0.15872559 0.10670376 0.0055090105 -0.0803005 0.2573611 -0.08449893 0.13569386 0.054553624
-0.1487896 0.104413055 0.20633163 0.1925225 0.13235456 0.21114494 -0.08264481 0.062097855

lstm.bias_hh_l0 f4 [128]
00000000: 379c 1bbd cda2 8bbb 7f16 2e3e 7610 28be
00000010: cbe4 703e 8519 1abb 1c73 1cbe 756d 05be
00000020: 4529 543d 854b 4e3c a561 0fbc f762 01bc
00000030: fe9d 94bd b302 1fbd 34ce b6bc 88b2 d53c
00000040: 2baf e13b 3c13 4b3d b248 95bd e552 c63d
00000050: b430 ccbd 8f26 f0bc dd35 483e 2355 88bc
00000060: 9ad0 863d 5ed5 1d3d 2b59 4c3e 81e1 1e3e
00000070: 0c97 13be 92de b33e 1a81 093e c671 ddbd
00000080: c1f9 093e 7c1c 00bd d05e 46bc 8d3d f83d
00000090: fb12 bf3d 9bf0 023e 3b6e d7bd 625b 26be
000000a0: de8d 25be 30a8 373d 84a8 0ebd ada4 2dbe
000000b0: 7ebe 583d 4cb4 673d 39d1 e23d 6c19 4cbd
000000c0: d872 06be f158 2abe 5142 bfbd 3140 fd3d
000000d0: 5e0d 29be e36a bbbc b73d debc e657 8d3d
000000e0: f059 2dbe 604b 3dbd 756e 57be 08aa 93bd
000000f0: 09c5 993d c976 093b 2f57 42be 8574 3bbe
00000100: 3408 0a3e 5278 f23d 1921 4d3e 1d61 0f3d
00000110: c0c5 17be 56b7 763e 24f6 703d 5399 09bd
00000120: 0aa2 65bc c212 6ebd 7e80 9cbe b295 acbd
00000130: 7eaa 59be a038 3b3e eb3b 863e f589 b13d
00000140: 724e dcbd 11c0 013e c62e 20be be0e 3d3e
00000150: 2f0d ad3c 94eb b3bc 6544 ee3b fc18 233d
00000160: 5d75 d83d 5a88 493e 7c60 d5bd 3b5d 4b3e
00000170: f079 2c3e 013d 2e3e b402 b63d cc02 96be
00000180: ab10 2ebc 875b 3fbd 743e 2b3d 9d01 78be
00000190: ed0f 9f3c 6ec7 0d3e 629d d83d 6345 7bbd
000001a0: 4d3a 38be cf4b 4bbd 8bb4 403d 233f 083e
000001b0: d7f6 803e 12e2 2c3e c27d 2f3e 1835 ee3d
000001c0: ac12 0bbe b29d 3b3d 74e2 56bb 3d5e 813d
000001d0: a25d 1a3e 9eab 28bd 0833 453e 877b 1f3d
000001e0: 81a8 c6bd 0734 a63b e67c d2bd 8173 b03e
000001f0: c3f5 e0bd 9ef6 a43e 1b16 d4bd 0cfa 473d
-0.037990775 -0.0042613507 0.17000769 -0.1641253 0.23524778 -0.0023513746 -0.15278286 -0.13030036
0.05179717 0.012591247 -0.008751308 -0.00789713 -0.07256697 -0.038820934 -0.022315122 0.026086107
0.0068873367 0.04957889 -0.07289256 0.096837796 -0.09970227 -0.029315261 0.19551797 -0.016642159
0.06582756 0.03853356 0.1995589 0.1551571 -0.14413089 0.35130745 0.13428155 -0.10812716
0.1347418 -0.031277165 -0.012107566 0.12121115 0.09329792 0.12787096 -0.10519072 -0.16245797
-0.161674 0.04483813 -0.034828678 -0.1695735 0.052916043 0.05656843 0.11075062 -0.04982893
-0.13129747 -0.16635491 -0.09338821 0.12365759 -0.16509005 -0.022878116 -0.027129037 0.06901531
-0.1692884 -0.04621446 -0.2103823 -0.07210165 0.075082846 0.0020975342 -0.1897857 -0.18306167
0.13479692 0.118393555 0.20032157 0.035004724 -0.1482153 0.24093375 0.058828488 -0.033593487
-0.014015684 -0.058123358 -0.30566782 -0.084269896 -0.21256444 0.1828332 0.2621759 0.08668891
-0.1075715 0.12670924 -0.15642843 0.18462655 0.02112445 -0.021962918 0.007271337 0.03981875
0.1056926 0.1968092 -0.104187936 0.19859783 0.1684339 0.17015459 0.08887234 -0.2929901
-0.010624091 -0.046718147 0.041807607 -0.24219365 0.019416774 0.13845608 0.105768934 -0.06134547
-0.1799099 -0.049632844 0.04704718 0.13305335 0.25188324 0.16883114 0.17137817 0.116312206
-0.13581342 0.045804687 -0.0032788785 0.06316803 0.1507478 -0.041179292 0.19257748 0.038936164
-0.09700108 0.00507212 -0.10277729 0.34463122 -0.10984375 0.32219404 -0.10355779 0.048822448

hidden2out.weight f4 [3, 32]
00000000: 8024 bcbe 2433 6f3c ee9c 043e e50a 51be
00000010: 2e47 31be a059 473e 7cc7 af3d 596a dcbc
00000020: eb9e 6e3e c990 5f3d 550a 5fbe 2507 8ebd
00000030: 4ac2 57be 31a1 6e3e 78fe 133e 6526 a83c
00000040: f6f8 babd 7954 bc3c e4e0 b63d 6a7e bfbc
00000050: 2dd6 253e 0454 6fbc 1fb3 5bbd f321 fcbd
00000060: 95aa 9e3e 5b16 8f3e 2c77 f9bd 4c3c 7d3d
00000070: b3e8 0b3e 5313 b33e 0e25 3e3e ab37 e6bd
00000080: f3f2 39be 55a7 713e be71 803d 6ed2 4ebe
00000090: 9849 113e 31c7 983d eefe 35be 3cf5 27bd
000000a0: 6653 eebd c6ff 2c3d bc10 263e da97 c43d
000000b0: 18db 4ebe 9781 ffbd e9bf 3cbd 2aca 6d3e
000000c0: 1771 9abd d966 5fbe 3ab7 c33d 03d9 0fbe
000000d0: 6233 f9bd 779d e93d cb58 3c3e f549 c0bc
000000e0: 109e 97bc 5ba3 d63d f7be 0c3e c52d af3d
000000f0: f79f 413d d238 4c3d cefe 4cbd 9db1 e63d
00000100: 04ae d2bd e325 d3bd 6ab1 843e 9f80 2b3e
00000110: b166 023c 5510 4d3e d315 6a3e 817c 56be
00000120: 8f78 803b 97de adbd 3178 debc 8b36 f53d
00000130: 422c 163d 7876 5bbe 621a 44be d792 81bc
00000140: 265c 503d 7054 febd c39c 933b 3f16 c6bd
00000150: 28a8 96bd 62a2 b1be 818b 56bd 9f8f 28be
00000160: 9feb b23d a6ac a5bc b3e6 8f3d e6d3 273b
00000170: 842a a53d 567d 9fbe ee58 e9bc 9a5c 7f3e
-0.36746597 0.014599595 0.12950489 -0.20414312 -0.17312309 0.19467783 0.085829705 -0.02690618
0.2330281 0.054581437 -0.21781285 -0.069349565 -0.21070209 0.23303677 0.14452541 0.02052612
-0.09129517 0.022989498 0.08929613 -0.023375709 0.16194983 -0.014607433 -0.05363762 -0.12311163
0.3098952 0.27946743 -0.12180933 0.06182508 0.13662986 0.3497568 0.18568823 -0.112410866
-0.18159084 0.23598988 0.062716946 -0.2019746 0.1418823 0.07459868 -0.17773029 -0.041005358
-0.11637001 0.042236112 0.16217321 0.09599276 -0.20200765 -0.12475889 -0.046081457 0.2322165
-0.075411014 -0.21816577 0.09556432 -0.14047627 -0.121680036 0.11406987 0.18393247 -0.023472765
-0.018507987 0.10480376 0.13744722 0.08553652 0.047271695 0.049858876 -0.05004769 0.11264346
-0.10287097 -0.10309961 0.25916606 0.16748284 0.007959054 0.20025761 0.22859888 -0.20945932
0.0039206217 -0.08489721 -0.027156921 0.11973294 0.0366633 -0.21431911 -0.19150689 -0.015817089
0.05086913 -0.12418449 0.0045047714 -0.09672212 -0.07356292 -0.346942 -0.052379135 -0.16461037
0.087363474 -0.020223927 0.07026424 0.002560848 0.0806475 -0.3115031 -0.028484788 0.24937668

hidden2out.bias f4 [3]
00000000: b565 a13d ccde d4bc 9934 bc3d
0.07880727 -0.025985144 0.0918972

std_layer.weight f4 [3, 32]
00000000: 0760 103e c048 ea3c 50c2 dabc 7ed4 a63d
00000010: 3067 60bd d27d b03d 4a5f d63d 6015 b2bc
00000020: 6055 32bd 260a b4bd 39be 0dbe 5ad5 883d
00000030: ee18 b13d cc54 1bbd 30b3 34bc b8fd d9bc
00000040: 505c 2ebc 44ee 04bd 6ff5 26be ecd0 213d
00000050: 86c9 e53d 0cd7 50bd 7211 f13d 2630 f2bd
00000060: 9b02 08be 7e5f 913d e475 31be 184e 07bd
00000070: 007d 113a 4272 f3bd afcf acbd 2245 f83d
00000080: 208b a8bd 4842 36bd 6156 01be f23d a5bd
00000090: e0cf 2abe 15bf 05be 0c9e 893d 000f 063b
000000a0: da63 a23d 0b29 06be c600 ef3d 7ed5 c13d
000000b0: b0fa 3abd 9629 68bd 59f6 113e e49a 3f3d
000000c0: 80f3 f33c 203a 90bb 1086 6dbc b080 44bd
000000d0: c88d 933c 85ca 343e 76b1 e13d d158 303e
000000e0: 45b3 e0bd d8e3 f4bd d9c0 073e 54f1 15bd
000000f0: 14cc 45bd 5c29 68bd b097 bbbd 1074 13bd
00000100: 40cf 803c 0834 b33c 5440 51bd d29a f03d
00000110: 92c9 dd3d 58f7 2ebd a837 d63c 900c 7f3d
00000120: 8016 cf3a d000 debd b00f 71bc 0cd4 6a3d
00000130: c227 7bbd 09e7 adbd 6b4d c8bd c9ef 0dbe
00000140: dba9 a5bd afd1 dabd 04ab 52bd b03f 2b3d
00000150: e0d3 ce3c 00a7 743b e544 113e 7a8c 21be
00000160: dc52 79bd d946 133e d86e 073d 8d43 0a3e
00000170: 0089 beba eb31 203e b808 82bc 541e 823d
0.14099132 0.028599143 -0.026703984 0.081459984 -0.054785907 0.08617748 0.10467394 -0.021738708
-0.04353845 -0.08790998 -0.13842095 0.066813186 0.08647333 -0.037922665 -0.01102905 -0.02661024
-0.010642126 -0.03245379 -0.16304563 0.039505884 0.11220078 -0.050986335 0.117709056 -0.1182559
-0.13282244 0.07098292 -0.17330128 -0.03303346 0.00055499375 -0.11887027 -0.0843805 0.12122561
-0.08229661 -0.044496804 -0.12630607 -0.08068456 -0.1668086 -0.13061173 0.06719598 0.0020455718
0.079292014 -0.13101594 0.116700694 0.094645485 -0.04564923 -0.056680284 0.1425413 0.046778575
0.029779196 -0.0044014603 -0.014497295 -0.04797429 0.018011943 0.1765538 0.11020176 0.17221381
-0.10971693 -0.1195752 0.1325716 -0.0366071 -0.048290327 -0.05668007 -0.091597915 -0.035999358
0.015723825 0.021875396 -0.05108674 0.1174828 0.10829462 -0.042716354 0.026149586 0.06226784
0.0015799552 -0.10839999 -0.014713213 0.05733113 -0.061317213 -0.08491332 -0.09780391 -0.13861002
-0.08089038 -0.10684525 -0.051432624 0.041808784 0.025247514 0.0037330985 0.14186437 -0.15776244
-0.060870036 0.14382495 0.033064693 0.13502331 -0.0014536679 0.15644042 -0.015873298 0.06353441

std_layer.bias f4 [3]
00000000: dca2 6fbd 0bc0 09be e20e 09be
-0.058504924 -0.13452165 -0.13384584

exp_avg f4 [128, 12]
00000000: fa18 a0b8 6c08 86b7 6938 e838 3630 4db9
00000010: 5b68 4ab9 a91e 473a 6753 0339 e0d7 8a38
00000020: a7a6 39b8 3e03 5b39 2d04 233a 6f39 1239
00000030: 0ff6 6c3b 279d e53a 6eef 30bb 77c9 ab3b
00000040: de65 273c 76b7 30bb 6dfb a639 1429 92bb
00000050: 2247 3e3a 942d 163c 7350 213b 6adf 163b
00000060: c0b4 1ab9 17e2 c1b9 a26a 91b8 a6b2 e339
00000070: af32 1bb9 8dde eaba 839a ecb9 a2d5 10b9
00000080: 5313 36b9 21e7 c8ba af02 11bb 6dfa 8eba
00000090: 86a4 2e39 949b ad38 1f53 f3b9 86c6 283a
000000a0: b6bb 0f3a cd08 b5ba ff5b 5bb9 8a98 05ba
000000b0: f5ae 85b9 ca42 0bba f116 98ba 8cd0 74ba
000000c0: 0f01 e938 35b5 ff38 c03b 4138 dfa8 c336
000000d0: af82 0939 5eff 2b3a 151b 0338 6dbd 5637
000000e0: 9d67 c338 ba04 333a 207e 393a 8732 f939
000000f0: c924 7439 864a 573a 1187 3b3a f94f fbba
00000100: d0c9 9bb9 1455 db3b 9d0f c33a 29d5 683a
00000110: cb10 113a 5098 943b acb2 ec3b 1e74 743b
00000120: 8535 afb8 8867 70b8 2b81 a139 f4a6 d5b9
00000130: 856b bdb9 954d 723a d68e d938 4b61 b439
00000140: 7cce ef38 b57a ab39 3936 553a 80f3 1f3a
00000150: 58ae aa37 9ea0 2837 4fcc 08b8 f2ac 9236
00000160: 780f 82b7 f668 69b6 774d cab7 75e2 d6b6
00000170: 914f 12b8 8ef7 83b6 f722 ca36 0c2f eeb6
00000180: 6f13 19b9 e9e2 5739 7771 313a 9e33 a4ba
00000190: 980d 75ba 31d5 6a3b 6a0c 323a 62de 6d3a
000001a0: 208d 9539 b896 d73a 2ffe 623b 1227 f43a
000001b0: 85f6 88b6 3ef4 25b6 6907 4137 c0a0 94b7
000001c0: c949 98b7 1557 2038 e01e 2437 3320 5337
000001d0: d14e e736 0a97 8b37 46c4 0938 4fa9 be37
000001e0: 831f 3b39 43ae b6b8 0d2c 4eba 6e67 ab3a
000001f0: 9f98 8e3a ea94 6bbb 5de6 16ba decf 85ba
00000200: 505a cab9 8987 d7ba 1df6 5dbb 7aae 0bbb
00000210: 646e 1238 987a 8a37 6a48 b6b7 fcf8 7038
00000220: e526 ef38 3b8d 52b8 30b3 f9b7 71ca 25b8
00000230: 7367 bc36 cbdd 9a38 5285 58b7 3f2d d537
00000240: 2633 b43a c789 fb3a ad75 193a 6e30 09bb
00000250: 3767 0b3b 53dd 263c 910d 463b e720 8d39
00000260: ab23 c63a 1eb8 283c c694 4d3c ed50 e83b
00000270: 428d 613a 692d 87b8 e61a a1ba bf8e 263b
00000280: 9cf9 523b 627c adbb d7ef 50ba 7a12 d5ba
00000290: 1ad3 22b9 571b fab9 8b81 7bbb d361 ebba
000002a0: 5d8e fcb9 e0e8 06ba 430e 1839 9ab4 1cba
000002b0: 26c1 d6ba b32e 95ba baa3 a9b8 4106 aa36
000002c0: 516f a7b9 ab37 0fbb a7a2 03bb 19b4 e3ba
000002d0: ca68 1d38 78c5 e237 6a7d eab8 6506 2c39
000002e0: 014d 1539 90fb 8cb9 64a2 4fb8 300f 14b9
000002f0: b1e4 72b8 9279 b8b8 f0e9 42b9 089d 5bb9
00000300: 06f5 38b8 9de0 8bb8 4e85 e538 89f7 ccb8
00000310: 548d c0b8 7fe9 3439 ee25 3d37 ceed 9238
00000320: ecbf 7f38 d7a4 2738 a1ab 0839 b404 f638
00000330: 4d08 4eba 5c13 c0b9 720c 273a 1725 a0ba
00000340: 0bd4 11bb 446b 5b3a e013 8fb7 03c0 8f3a
00000350: 3868 deb8 6077 eaba 54e1 bab9 8be6 81b9
00000360: 1dd9 4039 1ce9 fe36 70c9 f0b7 838b 3d39
00000370: 592d 2f39 f4f2 d239 e441 0639 34f4 61b9
00000380: ff50 8f38 0e32 5d3a e1c3 3e3a fefa aa39
00000390: 3fd6 1836 a37d 9936 b137 6e36 2fca aab6
000003a0: e6e8 8135 66e0 9137 91ee ed36 28b0 3c37
000003b0: 4850 cb35 492b 1037 036c 6937 1daf 8437
000003c0: 73e0 ef3a a736 943a 3eb9 93ba e176 3d3b
000003d0: f25b b53b 3682 70b9 e8ae 4ab9 7f73 d0ba
000003e0: 063e 2c3a 2840 b63b 9f1e 193b d552 2e3b
000003f0: 3ec8 5eb8 bae9 9638 c424 1639 96cb a8b9
-7.634047e-05 -1.5977967e-05 0.00011073129 -0.00019568283 -0.00019303097 0.0007595816 0.00012524203 6.6205626e-05
-4.4262644e-05 0.00020886675 0.0006218579 0.0001394504 0.0036157405 0.0017518149 -0.002699818 0.0052425223
0.010217158 -0.002696482 0.00031849314 -0.0044604633 0.00072585244 0.00916614 0.0024614602 0.0023021349
-0.00014753919 -0.0003698028 -6.934001e-05 0.00043429917 -0.00014800833 -0.0017919109 -0.00045128548 -0.00013812495
-0.00017364071 -0.0015327671 -0.0022126844 -0.0010908373 0.00016655223 8.2782615e-05 -0.00046410502 0.00064382737
0.0005482988 -0.0013811827 -0.00020919739 -0.00050962775 -0.0002549809 -0.00053123815 -0.0011603517 -0.0009338937
0.00011110503 0.000121931 4.6070432e-05 5.831112e-06 0.00013114022 0.0006561185 3.1258056e-05 1.2799498e-05
9.317624e-05 0.00068290124 0.0007075984 0.00047530627 0.00023283357 0.0008212704 0.00071536103 -0.0019173614
-0.00029714266 0.0066934917 0.0014881972 0.0008881861 0.00055338134 0.0045347586 0.007223448 0.0037300657
-8.354619e-05 -5.731688e-05 0.0003080455 -0.00040750916 -0.00036128997 0.0009243128 0.000103739716 0.00034404764
0.00011434869 0.00032707085 0.0008133385 0.0006101653 2.0346764e-05 1.0050977e-05 -3.2615204e-05 4.3712726e-06
-1.550441e-05 -3.47808e-06 -2.4116349e-05 -6.40406e-06 -3.4883215e-05 -3.9329234e-06 6.0241396e-06 -7.0984297e-06
-0.00014598457 0.00020588528 0.0006768922 -0.001252759 -0.0009348034 0.0035832638 0.0006792011 0.000907397
0.0002852464 0.0016448116 0.0034636369 0.0018627367 -4.0818145e-06 -2.4729084e-06 1.1505422e-05 -1.771783e-05
-1.815417e-05 3.8228074e-05 9.78235e-06 1.2584077e-05 6.893512e-06 1.6640424e-05 3.284614e-05 2.2728605e-05
0.00017845449 -8.710895e-05 -0.00078648404 0.0013077089 0.0010879225 -0.0035946914 -0.00057563727 -0.0010209044
-0.0003859573 -0.0016443591 -0.0033868619 -0.0021313713 3.4911922e-05 1.650797e-05 -2.1729811e-05 5.7452344e-05
0.00011403653 -5.0199433e-05 -2.9766554e-05 -3.9527604e-05 5.6148797e-06 7.3846044e-05 -1.2905644e-05 2.5412648e-05
0.0013748154 0.0019190841 0.0005854022 -0.0020933407 0.0021271238 0.010184604 0.0030220489 0.0002691813
0.0015116831 0.010297803 0.012547677 0.007089725 0.0008604118 -6.44576e-05 -0.0012291342 0.0025414673
0.0032192236 -0.0052943686 -0.0007970309 -0.0016256117 -0.00015528165 -0.00047704086 -0.0038376774 -0.0017958231
-0.00048171254 -0.00051463954 0.00014501163 -0.00059778395 -0.0016384467 -0.0011381715 -8.0890444e-05 5.067123e-06
-0.0003193566 -0.002185325 -0.0020085962 -0.0017372399 3.752931e-05 2.7033253e-05 -0.0001118135 0.0001640558
0.00014238434 -0.0002689031 -4.9503884e-05 -0.00014120038 -5.791028e-05 -8.796448e-05 -0.0001858843 -0.00020943966
-4.4097214e-05 -6.669874e-05 0.00010944401 -9.773585e-05 -9.181598e-05 0.00017253122 1.1274109e-05 7.006117e-05
6.097548e-05 3.996942e-05 0.00013033907 0.0001173107 -0.0007859513 -0.00036635518 0.0006372399 -0.0012218085
-0.0022251632 0.0008370171 -1.7056183e-05 0.0010967258 -0.00010605197 -0.001788836 -0.00035644567 -0.00024776565
0.00018391428 7.5969274e-06 -2.8704031e-05 0.00018076417 0.00016706194 0.00040235335 0.00012803782 -0.00021548645
6.833858e-05 0.00084379397 0.0007277113 0.0003261193 2.2774473e-06 4.5743814e-06 3.549718e-06 -5.089932e-06
9.679031e-07 1.738984e-05 7.090923e-06 1.1246688e-05 1.5148044e-06 8.593147e-06 1.3913031e-05 1.581717e-05
0.0018301144 0.0011307792 -0.0011270416 0.0028909969 0.0055346424 -0.00022936691 -0.00019329379 -0.0015903561
0.00065705215 0.0055618472 0.00233642 0.0026599665 -5.3115415e-05 7.196092e-05 0.00014318811 -0.0003219514

exp_avg_sq f4 [128, 12]
00000000: 8fa3 3b35 6e5c fb35 5d9a 0c35 c9e8 a736
00000010: 4c5b 0f36 99d4 8d38 d891 cb36 8cbe ed35
00000020: d4d2 a935 399a 4b38 64ff e038 4071 c437
00000030: 0c1f 3638 cf2b d237 48c6 2538 a556 3a39
00000040: 3fd5 7a39 ead3 d83a d1c2 5638 5ed8 c838
00000050: f674 b537 234f 923a 20e7 003b f714 333a
00000060: 6ac5 5e34 e803 1135 974e ed34 330d 0f36
00000070: 99ba ab35 b68c e537 ef62 fd35 bab2 8735
00000080: a7ec 0435 cf9f 9637 4ff3 2538 9e2e 3d37
00000090: 7b91 cc33 6381 ba33 34b2 8335 5335 2b36
000000a0: 3ca2 0636 adc8 5937 efbc 9034 60b2 b835
000000b0: bafa 4f34 c1b7 db35 33af 2037 3d04 ab36
000000c0: 0043 9133 f497 2034 f47c 7933 25e7 af34
000000d0: b2a5 2934 aba4 aa36 1d72 b834 c731 bd33
000000e0: 37e7 bf33 1dcd 7a36 474d f636 86e7 0636
000000f0: 6cb2 9935 181b ba36 84dc 5236 ea0b d337
00000100: b4e6 d336 ef5f 8239 8f36 9137 ac93 3537
00000110: cb1a 4336 931b 0239 b5c3 b439 6f5c ae38
00000120: 2abb 2c34 fda7 0734 f41c a535 a789 3636
00000130: 39db 1936 5171 3e37 821e 8a34 f9e3 cb35
00000140: 8344 d034 70ef a635 d813 fc36 94be b436
00000150: 9df4 3432 ce1d b632 df97 d432 5884 5932
00000160: bcdd 8033 1bb3 3733 6449 6d32 371c 4332
00000170: 7174 bc32 ff91 9c32 8e1b 6b32 09ba 2033
00000180: 11ab a334 cce7 5c35 a942 0b36 4715 0e37
00000190: 253c b236 6d30 7038 abb2 e435 b990 8c36
000001a0: 72f7 1735 4e16 4737 029b 7038 ce44 9a37
000001b0: 201d 2a31 1038 2831 7560 d031 0a64 2931
000001c0: a3c6 cf30 8049 0a32 d254 8130 150e e030
000001d0: 4946 9f31 77fe 7d30 9426 cf31 50ce 5831
000001e0: 2cf7 1c34 e5b9 8c34 4951 5136 e09e 4d37
000001f0: 06e8 1337 d978 a338 8528 d935 729c d236
00000200: 00c0 c034 2b4b 3137 d9c9 8c38 b35c d637
00000210: dbfc 2633 734e 3733 2841 1334 8973 5334
00000220: 27a1 4e34 068b 9a35 9920 ee32 4973 0234
00000230: b28d 8f33 8a54 8c34 9103 8035 076d fe34
00000240: a52d 2e37 e374 4437 8f86 a935 f822 8c37
00000250: b532 ce37 4470 db39 193b 2238 c1d4 9536
00000260: 07db 0237 4388 e139 4efd 303a fbe7 3a39
00000270: d83e 8836 7acb 2237 aa95 6137 a0c3 af38
00000280: 4ef8 0438 b265 663a eee3 1538 9ae2 1d38
00000290: 2655 d736 803c cd39 a3e3 8e3a 9edb 9539
000002a0: 154e b135 2e16 f435 f8c0 a435 0789 0137
000002b0: c23b 5337 0589 8838 7151 f535 fa61 3236
000002c0: 0652 a435 9096 4138 0c2b af38 ab38 2038
000002d0: 08b6 8433 1598 8633 9a93 6734 d132 8234
000002e0: 01eb 7134 c573 3435 fef3 0633 a9c5 1434
000002f0: b7fa 0d34 a163 9933 f48d 9034 e77d fa34
00000300: 96a6 7e32 4d2f 6532 d1f0 6333 66ae cf33
00000310: f6f6 cf33 5911 c934 d7fa b231 2ff6 4e33
00000320: 6de8 f232 d01c 1933 5322 6034 78c4 5334
00000330: f796 5536 6ba7 0a36 d803 4b36 bc8a 5a37
00000340: ce6a 7f37 9d41 0d39 9949 a436 5308 db36
00000350: 0921 f435 96fb bd38 64c8 2539 c6ef 6738
00000360: 03f8 6334 0080 5435 741b ed33 6a2e 5935
00000370: f7c5 3436 8967 9d36 3093 2f35 b4fb 0a35
00000380: 71f2 2034 5201 8736 d800 fc36 d8cd 1336
00000390: d3e0 cf32 a719 c632 01d5 7533 3d52 6d32
000003a0: e8e0 7d32 371a 0433 6710 1a32 82a8 7432
000003b0: 3984 4933 f982 4e31 547f e131 c871 dc32
000003c0: 8077 6b37 423f 6337 c80f 2d37 45ae 6338
000003d0: 20b6 be38 f7fe 313a 03b8 ab37 0d5e dd37
000003e0: 6078 2237 f79c 073a 97da 633a a57d a039
000003f0: ce58 1c33 90da 4c33 cf0b 2834 b817 2135
6.990094e-07 1.8727858e-06 5.237869e-07 5.0040876e-06 2.1361802e-06 6.763003e-05 6.06685e-06 1.7713332e-06
1.265284e-06 4.8542603e-05 0.000107287226 2.3417757e-05 4.3421096e-05 2.505435e-05 3.952373e-05 0.0001777062
0.00023921298 0.0016542647 5.1203013e-05 9.577045e-05 2.1631346e-05 0.0011162501 0.0019669011 0.0006831432
2.074718e-07 5.4022394e-07 4.4201872e-07 2.1316343e-06 1.27948e-06 2.7364451e-05 1.8878762e-06 1.01103e-06
4.9518206e-07 1.795581e-05 3.9565664e-05 1.1276132e-05 9.525953e-08 8.684835e-08 9.812125e-07 2.5512024e-06
2.0061989e-06 1.2980931e-05 2.6959557e-07 1.3760982e-06 1.9369591e-07 1.6370251e-06 9.577535e-06 5.0966905e-06
6.764276e-08 1.4956441e-07 5.8088474e-08 3.276447e-07 1.5799631e-07 5.0855647e-06 3.43557e-07 8.810053e-08
8.936188e-08 3.7372295e-06 7.3403676e-06 2.010232e-06 1.1451316e-06 5.546386e-06 3.1420795e-06 2.5158708e-05
6.3151474e-06 0.00024867008 1.7310753e-05 1.0822823e-05 2.907286e-06 0.00012408038 0.00034478088 8.314184e-05
1.6086838e-07 1.2633969e-07 1.2301884e-06 2.7200238e-06 2.292638e-06 1.1351266e-05 2.57267e-07 1.5191027e-06
3.8792868e-07 1.2437649e-06 7.5124954e-06 5.3866042e-06 1.0532998e-08 2.1201142e-08 2.4749111e-08 1.2661154e-08
6.000798e-08 4.2770903e-08 1.3811903e-08 1.1356909e-08 2.1939032e-08 1.8227182e-08 1.36850655e-08 3.74221e-08
3.0485583e-07 8.2293695e-07 2.0751415e-06 8.468814e-06 5.311815e-06 5.726556e-05 1.7039323e-06 4.189173e-06
5.6611964e-07 1.18665175e-05 5.736482e-05 1.839027e-05 2.4754812e-09 2.4479085e-09 6.0645626e-09 2.4649602e-09
1.5117688e-09 8.049369e-09 9.410093e-10 1.6302147e-09 4.6354995e-09 9.240248e-10 6.0288787e-09 3.1549412e-09
1.4618553e-07 2.6212288e-07 3.119074e-06 1.2255943e-05 8.815905e-06 7.794955e-05 1.6179553e-06 6.2767003e-06
3.5902485e-07 1.05675235e-05 6.713317e-05 2.5553954e-05 3.8879858e-08 4.2679357e-08 1.3714146e-07 1.9692938e-07
1.9243872e-07 1.1514355e-06 2.772167e-08 1.2149134e-07 6.6847306e-08 2.6138542e-07 9.537781e-07 4.7390515e-07
1.0381836e-05 1.1709725e-05 1.2630643e-06 1.6705584e-05 2.4580726e-05 0.0004185458 3.867885e-05 4.465314e-06
7.7996e-06 0.00043016867 0.00067516125 0.00017824762 4.060432e-06 9.703328e-06 1.3445891e-05 8.381088e-05
3.1702504e-05 0.00087889575 3.5736644e-05 3.7642756e-05 6.417412e-06 0.00039145723 0.0010901581 0.00028583122
1.3210253e-06 1.8185872e-06 1.2275113e-06 7.720903e-06 1.25904935e-05 6.510507e-05 1.8277625e-06 2.6581097e-06
1.2242824e-06 4.6155008e-05 8.3526684e-05 3.819975e-05 6.17984e-08 6.267525e-08 2.1567249e-07 2.425136e-07
2.2530368e-07 6.722369e-07 3.1421216e-08 1.3855482e-07 1.3222858e-07 7.14274e-08 2.6925375e-07 4.6657735e-07
1.4822623e-08 1.3340309e-08 5.3071577e-08 9.6709115e-08 9.6841106e-08 3.745179e-07 5.208999e-09 4.8187015e-08
2.8278203e-08 3.5649293e-08 2.0874113e-07 1.9722381e-07 3.1827346e-06 2.0661053e-06 3.0251595e-06 1.3026114e-05
1.5224052e-05 0.0001347125 4.8961488e-06 6.5276777e-06 1.8189031e-06 9.059084e-05 0.00015810278 5.5298e-05
2.1231249e-07 7.916242e-07 1.1041166e-07 8.090634e-07 2.693732e-06 4.6910177e-06 6.5406766e-07 5.177528e-07
1.4989361e-07 4.023467e-06 7.5102835e-06 2.2024524e-06 2.420021e-08 2.3061899e-08 5.7237234e-08 1.38139145e-08
1.4777676e-08 3.0757487e-08 8.967709e-09 1.42409835e-08 4.6919215e-08 3.0051395e-09 6.5628374e-09 2.5663113e-08
1.4034915e-05 1.3544983e-05 1.0315278e-05 5.428332e-05 9.0938294e-05 0.0006790007 2.0470476e-05 2.6389049e-05
9.683979e-06 0.0005173231 0.0008691935 0.0003061119 3.6402348e-08 4.7696233e-08 1.5650515e-07 6.001169e-07

exp_avg f4 [128, 32]
00000000: bcd1 d3b7 8315 4eb7 28b4 5235 64b6 9437
00000010: 7086 6eb8 c070 ecb7 72fa 84b7 4c74 5036
00000020: a747 34b7 1b89 24b6 9171 ceb7 e2ee a336
00000030: 9d3e 57b8 1402 89b8 18cd 05b8 cfc3 6437
00000040: fc19 3b36 16e3 8537 b096 1fb6 4f1e 1037
00000050: d122 c8b7 1684 1136 2287 bdb7 c3e2 1237
00000060: 1559 55b8 bc47 8fb6 d483 91b8 36ff d0b7
00000070: 9e25 cfb6 3986 a338 d0fd 5637 8eaf de35
00000080: ae75 dd39 44cf b7b9 5a6a db39 b884 8139
00000090: 1191 d43a a2b1 8fb9 0011 e0b9 d914 dfb7
000000a0: ce0b b7b9 f0ac a2b9 2e3b 46ba 7501 f237
000000b0: 06a6 7e38 bc16 b93a 5289 beb9 aae3 73ba
000000c0: db97 47b9 8f89 06b9 e31a 44b9 8b52 52ba
000000d0: 5d83 8e3a 40ac c738 a792 843a b336 1e3a
000000e0: 0d3e 193b 9f77 a1b8 cff5 223b be8c c73a
000000f0: e28f adb9 dc38 c9ba 3fcd 123a c573 6438
00000100: 4866 3837 7e5f b3b8 e1fc d436 b973 aeb7
00000110: 1218 b5b7 78ce 3ab7 2b5a 8fb7 f57d 5a36
00000120: c07b 2037 462c 2437 61e3 8638 7614 06b8
00000130: 06e6 ab38 5e50 8338 ddf5 a437 fea2 c1b8
00000140: 699c c4b8 3c29 46b8 cb4b 8fb7 83be 8db8
00000150: 8b14 dd38 63c4 f536 29ba 3e39 c208 4a38
00000160: 8a62 9cb6 ccbf fd36 3b40 0ab6 e690 64b8
00000170: 73ef a4b7 18f8 5837 1ebe 9e38 25ba eeb6
00000180: 29d9 6737 4e3b 2db9 5013 b238 6d36 8b38
00000190: c8dc 3739 e014 54b8 b752 82b8 003f 31b7
000001a0: 7258 7db8 ed3a 4fb8 950d 46b9 9714 7837
000001b0: b60d cf36 89a9 1a39 a45f e6b8 5052 50b9
000001c0: 8e2a 5db8 b2c8 09b9 2723 d9b7 c426 50b9
000001d0: a010 4839 cc7b f136 7810 8339 da34 0339
000001e0: ca44 9a39 f1b4 c7b7 cb41 5d39 36d2 c238
000001f0: 4f95 7eb8 730d d5b8 0bd2 0439 415f a237
00000200: 2ec6 8938 ea25 f637 ab9d c7b6 20df 2cb6
00000210: 8627 b7b6 c36f 1237 8399 4737 a997 16b5
00000220: 9cb8 1c36 5929 ae34 7860 2337 cbb9 9637
00000230: 44dc 47b6 e1dc b9b7 e19a ec36 3de8 5438
00000240: 0a7b 0b38 98a0 6038 8a85 1237 09cc 4938
00000250: 4c3b 37b8 0754 49b6 89b4 c4b8 d248 1fb8
00000260: 1241 c1b7 2e5a bf34 3727 a638 9246 0a38
00000270: f89d af37 f95c b937 c31f 9fb7 66fa 37b5
00000280: 880c 87b8 f2d3 bb39 6fa3 e2b8 a112 feb6
00000290: 0c1e 42b9 7e92 b038 e061 f638 8234 80b6
000002a0: 7645 3838 7120 a237 20a6 4738 3f7d 6d38
000002b0: fe74 96b9 2a5a dcb9 6126 1138 cc3f ef39
000002c0: b913 b039 cb10 9539 c2ad 4d38 6523 cd39
000002d0: 2d26 08ba 9496 3db8 2987 4eba 246d 8db9
000002e0: c9aa ceb9 db47 75b6 4053 80b9 7b13 9cb8
000002f0: 6d2b 1039 f4e1 3839 15cb a8b9 e118 8936
00000300: 8bd1 87b6 4c8a cb38 1b4f 62b8 75f9 53b8
00000310: 1419 dfb8 538f 0d38 b26c 3838 bcee 0e34
00000320: a576 1a38 f924 0438 b8d4 0239 4af2 51b7
00000330: 7142 a1b7 dd58 e3b8 797a 8d38 0831 0339
00000340: 633b 9538 91c7 a438 0b4f 5e37 97eb f738
00000350: c2b5 00b9 e64e 18b7 5989 3db9 db48 a4b8
00000360: 4044 4bb9 6243 4037 1f5f 06b9 c8c7 9ab8
00000370: 6b7e 2338 419d 9f38 d9b7 9fb8 75fd eab6
00000380: 270c bb35 19af 07b7 9003 b435 519d 4eb6
00000390: 9165 c936 3484 0a35 342a 1c35 d305 9cb6
000003a0: aa9b a1b5 5115 87b6 b6f7 33b6 7287 8c34
000003b0: 8052 95b5 0225 69b6 8ef2 cfb6 d165 4fb6
000003c0: c6d7 c836 71fe bdb6 a182 33b5 7724 e0b6
000003d0: d58e 95b6 5565 65b6 b65e 3bb7 5013 b8b4
000003e0: 417b 4936 fc5a 0bb6 953b f836 5374 c4b6
000003f0: 94d9 ed35 9eab 83b4 aae6 93b4 c46a 3336
-2.5250825e-05 -1.2283565e-05 7.849326e-07 1.7727907e-05 -5.6868827e-05 -2.8185896e-05 -1.5852249e-05 3.106211e-06
-1.0745519e-05 -2.451771e-06 -2.4609997e-05 4.885588e-06 -5.1318308e-05 -6.533056e-05 -3.190068e-05 1.3635449e-05
2.7880296e-06 1.596058e-05 -2.3780558e-06 8.590126e-06 -2.385807e-05 2.1683568e-06 -2.2593482e-05 8.755075e-06
-5.086612e-05 -4.270083e-06 -6.938694e-05 -2.4914374e-05 -6.17346e-06 7.7974466e-05 1.2814489e-05 1.6591382e-06
0.00042240083 -0.00035058905 0.00041850173 0.0002470368 0.001621755 -0.00027407432 -0.00042737275 -2.659338e-05
-0.00034913275 -0.00031027896 -0.0007561919 2.8849327e-05 6.071294e-05 0.0014121155 -0.00036341936 -0.0009303639
-0.0001903469 -0.0001283048 -0.00018702033 -0.0008023164 0.001087289 9.5211435e-05 0.0010114507 0.00060353725
0.0023382932 -7.6993594e-05 0.0024865752 0.001522444 -0.00033104332 -0.0015352028 0.0005600042 5.4467255e-05
1.0991069e-05 -8.553172e-05 6.3475313e-06 -2.0796304e-05 -2.158809e-05 -1.1134536e-05 -1.7088916e-05 3.2557848e-06
9.565556e-06 9.78547e-06 6.4319705e-05 -3.1967145e-05 8.1967606e-05 6.261536e-05 1.9664812e-05 -9.233317e-05
-9.375142e-05 -4.724528e-05 -1.7082222e-05 -6.7588895e-05 0.000105419276 7.3244314e-06 0.00018189162 4.816871e-05
-4.6606337e-06 7.5623157e-06 -2.060099e-06 -5.4494383e-05 -1.9661826e-05 1.2932367e-05 7.569439e-05 -7.114623e-06
1.38192345e-05 -0.00016520658 8.491299e-05 6.638174e-05 0.00017534487 -5.056418e-05 -6.21429e-05 -1.05646905e-05
-6.040227e-05 -4.9407525e-05 -0.00018887811 1.4786746e-05 6.170677e-06 0.00014749741 -0.00010985069 -0.0001986709
-5.2730138e-05 -0.00013140103 -2.5884785e-05 -0.00019850867 0.0001907968 7.1967715e-06 0.00024998537 0.00012512822
0.0002942442 -2.3806906e-05 0.00021100712 9.289796e-05 -6.0697374e-05 -0.000101591366 0.00012666748 1.9356261e-05
6.569583e-05 2.934314e-05 -5.949017e-06 -2.5759873e-06 -5.458426e-06 8.7283e-06 1.18970665e-05 -5.610005e-07
2.3353268e-06 3.244011e-07 9.738018e-06 1.796791e-05 -2.9781522e-06 -2.2156573e-05 7.0513784e-06 5.0761028e-05
3.325477e-05 5.3555326e-05 8.73337e-06 4.8112157e-05 -4.3685824e-05 -3.0000244e-06 -9.3796356e-05 -3.7976373e-05
-2.3037694e-05 3.5642137e-07 7.922801e-05 3.2967488e-05 2.0935186e-05 2.2097012e-05 -1.8969067e-05 -6.853719e-07
-6.439636e-05 0.0003582533 -0.00010806962 -7.5719586e-06 -0.00018512475 8.41962e-05 0.00011748425 -3.82081e-06
4.393371e-05 1.9327012e-05 4.7600013e-05 5.6621848e-05 -0.00028697395 -0.00042028847 3.4606437e-05 0.00045633165
0.0003358403 0.00028432006 4.9037633e-05 0.00039127018 -0.0005193677 -4.520135e-05 -0.0007878417 -0.00026974932
-0.00039418627 -3.654967e-06 -0.0002447609 -7.442288e-05 0.00013749088 0.00017631782 -0.00032194765 4.0858145e-06
-4.0477075e-06 9.705554e-05 -5.395627e-05 -5.0538645e-05 -0.0001063814 3.37505e-05 4.397025e-05 1.3311632e-07
3.6826958e-05 3.1505686e-05 0.0001247701 -1.2513783e-05 -1.9223635e-05 -0.000108407556 6.746216e-05 0.00012511399
7.115935e-05 7.8573015e-05 1.3250635e-05 0.0001182176 -0.00012274741 -9.078276e-06 -0.0001807561 -7.8337e-05
-0.00019385014 1.1459781e-05 -0.00012814671 -7.3805044e-05 3.8979964e-05 7.611002e-05 -7.615955e-05 -7.0032497e-06
1.3936123e-06 -8.087395e-06 1.3412082e-06 -3.0787962e-06 6.0020907e-06 5.1601387e-07 5.817594e-07 -4.6498403e-06
-1.2040739e-06 -4.025795e-06 -2.6817265e-06 2.6175582e-07 -1.1125376e-06 -3.4741247e-06 -6.197318e-06 -3.0904669e-06
5.985584e-06 -5.66226e-06 -6.6872786e-07 -6.6799653e-06 -4.457174e-06 -3.4182642e-06 -1.116812e-05 -3.4286722e-07
3.0023077e-06 -2.0765574e-06 7.397912e-06 -5.854797e-06 1.77212e-06 -2.452552e-07 -2.7548714e-07 2.6735224e-06
