models/drone/policy_ego_rotor_best_iter2.pth (torch, 80800 bytes, 20 tensors)

lstm.weight_ih_l0 f4 [128, 12]
000000 fc 8f d2 3d ea 75 6e bd 01 7c 20 bd 46 73 d5 3d
       0.10281369 -0.05821792 -0.03918076 0.10422377
000010 92 3f 24 be b2 e9 b6 3d 03 48 6b bd 88 02 bb 3d
       -0.16039875 0.089312926 -0.057441723 0.09131342
000020 a1 4a cf 3b ac 46 29 bd bb 66 bc 3c ee 4b f1 bb
       0.006326035 -0.041327164 0.022998204 -0.007363788
000030 50 fe a8 3d 71 8c 9a bd 14 ee 0f bc ac 09 43 bb
       0.08251631 -0.07546318 -0.00878479 -0.0029760404
000040 0f 1b a1 3c b3 48 97 bb cf 65 26 3e 3b 6a 4f 3d
       0.019666223 -0.0046168207 0.16249774 0.05063842
000050 3e 99 80 bd 83 ad e3 bd ff 7f 09 bd 8d 1b a3 bd
       -0.06279229 -0.11117079 -0.033569332 -0.07964239
000060 7a 05 4a bd 53 6d c4 bc 1c c4 a4 3d 86 88 e6 3d
       -0.04932163 -0.023977911 0.080452174 0.112565085
000070 45 47 28 be ba 46 aa 3d ae 09 4b 3c 7d b0 02 3e
       -0.16433437 0.08314271 0.012392445 0.12762637
000080 34 e2 b5 3d 0b 67 41 be b3 26 4d be ce c8 de bd
       0.088810354 -0.18886964 -0.20034294 -0.10878144
000090 b1 b3 0c 3e 5f b9 82 bc c8 b0 b8 3d 64 cb c8 bd
       0.13740422 -0.015957532 0.09018093 -0.09804419
0000a0 b3 d5 34 3e a3 f1 a8 bd e7 2d ff 3d 50 a0 58 3c
       0.17659645 -0.082492135 0.12459927 0.013221815
0000b0 1e 59 b8 bd d6 9d a8 3d 02 d0 cf bd 12 c8 2c 3d
       -0.09001373 0.0823323 -0.10147096 0.04218299
0000c0 f7 9c 85 bd 60 cb ce bc 3b 98 2b be 5d 46 9d bd
       -0.06524079 -0.025243461 -0.1675729 -0.07679436
0000d0 b4 0f 98 3d cf 6c 2c bd e3 5c 29 3e 06 f4 21 3e
       0.0742487 -0.042095955 0.1653934 0.15815744
0000e0 70 8f 39 bc 31 f3 ef bd 48 53 df 3d 9b 0b 5b 3d
       -0.011325702 -0.11716307 0.109045565 0.053477865
0000f0 a6 63 11 be 72 67 0b 3e 0a ef de 3d 1a d0 09 3e
       -0.14198169 0.1361368 0.10885437 0.1345829
000100 13 5e d0 bd ed b8 8b bc 6c 12 97 3c 1d 50 32 3d
       -0.10174193 -0.017055953 0.018441401 0.043533433
000110 b1 c3 fc bd 37 1b d9 bd 9f 03 ef 3d ab 9f f3 bc
       -0.12342013 -0.10600894 0.116706125 -0.029739222
000120 89 bd 8e 3d 2b 3c 7f 3c 1b a6 5f 3d ff 5a c5 3c
       0.06969745 0.01557831 0.05460177 0.024091242
000130 35 1e 68 3d 05 00 b2 3d 19 f1 26 be a5 36 b6 3d
       0.056669433 0.0869141 -0.16302909 0.08897141
000140 db 10 03 be 20 e4 03 be 79 33 8a 3c b0 b5 0c bd
       -0.12799399 -0.12879992 0.016870247 -0.03435296
000150 cc af cd 3d 7a ca c2 bd da 06 1f be f1 2e ff 3d
       0.10043296 -0.095112756 -0.15529957 0.12460125
000160 38 04 e1 bc ed 54 e3 3d 7a a5 54 3d 4a 5a e0 bd
       -0.027467832 0.11100183 0.051915623 -0.10954721
000170 e9 f8 15 3d 86 9c 37 3d 0e e6 be bd 97 aa a5 bd
       0.036614332 0.044827007 -0.09321223 -0.08089178
000180 d6 0b 81 3d 1b 89 02 3d e9 94 72 bd 87 95 3b bd
       0.06301086 0.031869035 -0.059224043 -0.045796897
000190 6d 9f 26 3e bb 9d 43 bd cb a2 be 3d c9 b6 85 3d
       0.16271754 -0.047757845 0.09308394 0.06529004
0001a0 1d 2b 03 be 77 d5 2a be 6b a7 0f 3e 80 4c 32 bc
       -0.12809415 -0.16682993 0.14028709 -0.010882497
0001b0 eb 4d f8 3d 20 ef 3d 3d eb 65 3c 3d 00 ba 03 3e
       0.12124237 0.046370625 0.045995634 0.12863922
0001c0 f9 c1 1b 3e 32 f2 01 be d6 ad 06 3c 0b ec 0b 3e
       0.15210713 -0.12690046 0.008220157 0.13664262
0001d0 ec 38 dc 3d af 90 c3 3d 3c 28 fb bd 8b 47 13 be
       0.107530445 0.095490806 -0.122635335 -0.1438276
0001e0 d0 78 fa bd ae 63 d7 3c 77 d9 39 3e 14 15 ef bd
       -0.122300744 0.026292648 0.18149363 -0.11673942
0001f0 71 04 b5 3d 86 ee d3 bd 0f fb 32 be f5 1d 08 bd
       0.08838738 -0.10348229 -0.17478584 -0.033231694
000200 b7 9e d1 3d 4e 0e 1c 3e a4 1a f8 bd 86 1a f4 3c
       0.102353506 0.15239832 -0.12114456 0.029797804
000210 e0 9e 43 3e ac fd b8 3d 46 92 b1 3d 98 11 18 3e
       0.19103575 0.09032759 0.086704776 0.14850461
000220 05 d0 cb 3d aa 80 dc 3c 5d 94 0f be 73 ae 34 be
       0.09951786 0.02691682 -0.1402144 -0.17644672
000230 4f ba d9 bd 75 f0 07 bd 4f 3a ea bd eb 0e 32 3d
       -0.10631239 -0.033188302 -0.11436903 0.043471258
000240 b9 06 6f 3d 50 3c 70 bd 00 5b 46 3d 31 20 5f 3d
       0.05835602 -0.05865127 0.048426628 0.05447406
000250 60 87 cf 3d 14 b0 d5 3d 18 d3 9b bd 7f 40 1e 3e
       0.101332426 0.10433975 -0.07608622 0.15454291
000260 8e fe 0f bd 2f 34 92 bc 95 ed 35 be ff 23 01 be
       -0.03515487 -0.017847149 -0.17766412 -0.12611388
000270 30 ed 3e bd de e1 cc bd 21 9b eb 3d e5 6f cb bc
       -0.04661292 -0.10004018 0.11504198 -0.024833629
000280 82 af 1e be 13 34 1f 3d 71 89 d3 3c 64 11 e7 3d
       -0.15496638 0.03886802 0.025822373 0.11282614
000290 78 6e f0 bd a1 31 80 3b 61 d5 96 bd fe e6 92 bd
       -0.1173982 0.003912166 -0.073649175 -0.071729645
0002a0 e0 19 17 be 0b 6f cc bd 82 f3 70 bd 67 f3 a4 3d
       -0.14755964 -0.09982117 -0.058825977 0.08054238
0002b0 2f 21 a1 3c 0f 3a 10 3d 4f 60 1f 3e 45 98 27 3e
       0.019669143 0.03521162 0.15564083 0.1636668
0002c0 be d5 e7 3d ef 89 7d bc ee 99 00 be df 74 f8 3d
       0.11320065 -0.01547478 -0.1255872 0.121316664
0002d0 1b fb ea bc 81 08 0d bd ca df 1f be a6 0d 34 bc
       -0.02868419 -0.034431938 -0.15612713 -0.010989582
0002e0 3b 18 07 be 9a b7 11 3e 8a b4 21 be 25 35 fe bd
       -0.13192837 0.14230195 -0.15791526 -0.1241248
0002f0 0f 52 85 bc 87 12 00 be 66 f2 a0 3d a9 af c6 bd
       -0.01627448 -0.12507068 0.07858734 -0.09701473
000300 85 c2 54 bd 2b f9 d9 3b 10 05 f8 3d 37 b7 a6 bd
       -0.05194332 0.0066520176 0.121103406 -0.08140414
000310 fa d9 a4 3d 54 4b c5 3d 8c 8e 1d 3e f8 48 13 be
       0.08049388 0.09633508 0.15386409 -0.14383304
000320 fd 75 c1 3c 49 5d 14 be 25 af f9 3d 0e 2c b0 bd
       0.023615832 -0.1448871 0.12191609 -0.08602153
000330 f2 37 fb 3d 9d 16 93 3c bb cc fc bb d9 9b d7 bb
       0.1226653 0.017955119 -0.0077148355 -0.006579858
000340 b4 de 2c 3d 38 9c b3 3d 42 60 06 3d f7 fe 3f 3d
       0.042204574 0.08770031 0.032806642 0.046874013
000350 0b 3f 1e be 1e 8b 0a 3e 8f 6a 24 3e 4f e7 18 3e
       -0.15453736 0.13529631 0.16056274 0.14931987
000360 df e7 4a 3e 7d ad 0e be a4 9f a8 bd 34 1c 4c 3e
       0.19815014 -0.13933368 -0.08233574 0.19932634
000370 8d f5 c4 bd a2 51 19 3e 55 45 0a be da 1c 19 be
       -0.096171476 0.14972547 -0.1350301 -0.14952412
000380 d9 89 99 3d d4 e7 f2 bd 46 28 b7 bc 05 2c 05 3e
       0.074969955 -0.11860624 -0.022358071 0.13005073
000390 29 74 06 3e 50 d1 1f 3e fd 17 19 bd 1c e4 12 be
       0.13130249 0.1560719 -0.037376393 -0.1434483
0003a0 9d 1d 40 3e 95 a9 0f bd dc e8 98 bd e2 b4 2d 3d
       0.18761297 -0.035073835 -0.074662894 0.04240883
0003b0 1c 9a fa bd 83 6c f5 3d a9 f9 d9 3d e6 da 09 be
       -0.12236425 0.119835876 0.10643322 -0.1346241
0003c0 bf 2e 02 be 32 49 03 bd 6c 44 82 3d 72 1b 25 3c
       -0.12713145 -0.032052226 0.06360707 0.010077344
0003d0 9b 92 d9 bd 30 29 0f bc 99 71 31 be 90 58 fb bd
       -0.10623666 -0.008737847 -0.1732849 -0.12272751
0003e0 78 71 05 be e2 d6 00 3e 46 77 19 3e 2c ad 96 bd
       -0.13031566 0.12581971 0.14986905 -0.07357249
0003f0 0c f2 e3 3c 33 b8 84 3d 50 44 b5 3b 96 9b 97 bd
       0.027825378 0.06480446 0.005531825 -0.074027225

lstm.weight_hh_l0 f4 [128, 32]
000000 22 77 e8 bb 22 ac 2f 3d a7 1d cd 3d 65 f6 b2 3d
       -0.00709428 0.042888768 0.10015421 0.08738402
000010 ee d7 61 3d 1c 36 56 3d 9a ed e6 bd 89 2e af bd
       0.055137567 0.052297696 -0.11275788 -0.08553798
000020 45 4a 27 be 87 6a 9d 3d 1e 4b 22 be 0b 34 01 be
       -0.16336925 0.07686334 -0.15848967 -0.12617509
000030 e3 c3 ee 3d 59 b5 9f 3d ae bc 25 be c4 4e bb 3d
       0.11658456 0.07798261 -0.16185257 0.09145883
000040 d0 d9 89 bd c7 90 b9 3c ca 60 cc bd ff 0a 54 bc
       -0.067309976 0.022652043 -0.099793985 -0.012942075
000050 89 a8 6a 3d a1 85 f3 3d 99 a2 c8 3d 52 7b be bd
       0.057289634 0.11890722 0.09796638 -0.09300865
000060 06 cf c4 bd 7f c2 42 3b f1 d7 49 3d 7a 1d fc 3d
       -0.09609799 0.002971798 0.049278203 0.1231031
000070 41 1e 4d be e3 7c 16 bd bd dc c0 3c 65 81 83 bd
       -0.20031072 -0.036740195 0.023542756 -0.064211644
000080 da 7f 17 3e bb b6 2e bd 67 d0 2e be eb 2d c0 bd
       0.14794865 -0.042654734 -0.17071687 -0.09383758
000090 2d 1e ef 3a 8f b5 05 be fd 00 0b 3d 56 8b 36 3e
       0.0018243246 -0.1305754 0.03393649 0.1782659
0000a0 d4 e1 20 bc ed e0 48 bd 1c e1 2c 3e a5 a3 e0 3d
       -0.009819467 -0.04904263 0.16882747 0.10968713
0000b0 86 a9 fe 3d 49 ae d5 ba 25 0d 63 3c 09 50 11 be
       0.12434678 -0.0016302551 0.013858114 -0.14190687
0000c0 00 21 08 3c ce d1 22 3e 41 74 c6 3c 76 f0 20 be
       0.008308649 0.15900347 0.024225356 -0.15716729
0000d0 e2 3b da 3d d7 39 2a 3e 22 09 16 3e a1 42 9d 3c
       0.10655953 0.16623627 0.14651921 0.01919681
0000e0 92 89 0b 3d 70 bd 02 3d bc e4 ab bd 29 5a 67 bc
       0.034066744 0.031918943 -0.08393237 -0.014120617
0000f0 ee e6 09 3e f5 2f 80 3c 2f 54 34 3e 83 70 e3 bd
       0.13466999 0.015647868 0.17610238 -0.11105444
000100 3e 7e 2b bd e2 48 14 3d 38 7a 15 be 5f 5f 1f 3e
       -0.04186844 0.03620232 -0.14597404 0.15563725
000110 4e a4 0d 3e bc 24 89 bd 71 84 43 3e 97 75 44 3e
       0.13832209 -0.0669646 0.19093491 0.19185482
000120 8b e4 ad bd 76 e6 eb bc a9 67 37 3e c4 5b d7 bd
       -0.08490857 -0.028796416 0.17910637 -0.1051555
000130 c4 30 51 bd 39 28 0d be 09 4d c5 3d d0 e2 ed 3b
       -0.051071897 -0.13784875 0.09633834 0.007259704
000140 e4 19 7b 3d 23 2c cc 3d 09 30 7e bc ee ac 0f be
       0.061303988 0.09969356 -0.015514382 -0.14030811
000150 47 33 55 3d ae 55 c0 bb 1f 1f 91 3d 60 eb 7a 3d
       0.052050855 -0.005869589 0.07086014 0.061259627
000160 fb 3d 75 bd c8 02 8a bd f6 23 d7 3d 8d 2b 82 3d
       -0.059873562 -0.06738812 0.10504906 0.06355963
000170 78 e5 4b 3d 15 3f 76 3d e8 f6 47 3d 70 4c e6 bd
       0.049779385 0.060118753 0.048819453 -0.11245048
000180 78 10 27 3d a0 6b 22 3c 35 f1 23 be b6 66 41 3d
       0.04078719 0.009913355 -0.16009982 0.047217093
000190 44 74 f4 b8 9b 9d 10 3e 83 3c 31 be d2 fa 2f 3e
       -0.00011656483 0.14122622 -0.1730824 0.17185524
0001a0 f3 54 b5 bd dd c6 c9 3d 5d 21 ed 3d a2 8b 09 bd
       -0.088540934 0.09852383 0.11578629 -0.03358043
0001b0 98 56 b0 bd 90 34 33 bd 9e b2 ca bd af 5c 0e 3d
       -0.086102664 -0.0437513 -0.0989735 0.03475636
0001c0 d6 40 72 3d 14 20 ff 3c ad 49 ca bd db 7f bc 3d
       0.059143864 0.031143226 -0.09877334 0.09204074
0001d0 9f f6 16 3e d9 ab 3d bd 64 6f 99 3d ec 42 be bb
       0.14742516 -0.046306465 0.07491949 -0.0058063176
0001e0 bc 5e 88 3d e6 bc ee bd 9d 8f 20 be 83 ee 23 bb
       0.06658694 -0.11657123 -0.15679784 -0.002501399
0001f0 05 40 17 be b2 73 4e 3d d5 2d 49 3e 07 8f cc bc
       -0.14770515 0.050403304 0.1964639 -0.024970545
000200 81 8b 18 3c 97 a6 a7 3c a3 89 a1 bd c7 5f 1c bc
       0.009310604 0.020465178 -0.0788758 -0.0095443195
000210 e0 bf 6d 3c ca c1 15 3e 03 cb 16 be 7a 0e dc bb
       0.014511079 0.14624706 -0.1472588 -0.006715593
000220 d5 08 2e be 57 cb bc bc 27 ba c7 bc b1 78 b8 bd
       -0.16995557 -0.023046179 -0.024380757 -0.09007395
000230 55 5c ed 3d 80 c2 ff 3d ed 21 b1 bd 59 e1 c8 bc
       0.115898766 0.1248827 -0.08649049 -0.024521517
000240 f4 a0 78 bd a5 f7 38 3c 7d 67 a3 3d 12 6b 22 3e
       -0.06070037 0.011289512 0.07978723 0.15861157
000250 03 df 40 be 89 a5 3d 3d 8b 5c b7 bd 90 01 16 be
       -0.18835072 0.046300445 -0.08953198 -0.14649034
000260 67 a9 0e 3e 4c 04 35 bd d6 c3 da bd b6 ee 91 3d
       0.1393181 -0.04419355 -0.10681884 0.071256086
000270 2f 36 91 bd 06 fc 2b be dc 63 ad bd 8d 08 c3 bd
       -0.07090413 -0.16795358 -0.08466312 -0.09523115
000280 4f 45 d7 bc 2b 50 02 be 98 9c 26 be 9b c0 b9 3d
       -0.026278166 -0.12725894 -0.16270673 0.0906994
000290 9a ad 2b be 09 b7 2a bd d7 a4 10 3e 6e 66 95 bd
       -0.16765442 -0.041678462 0.14125381 -0.072949275
0002a0 40 5c 01 be 96 2e 8d 3d 8a 47 1b 3e 06 ed 41 bc
       -0.12632847 0.06893651 0.15164009 -0.011836296
0002b0 37 7e 69 bc 67 36 cd 3d 91 00 1c 3d 09 a1 3c 3d
       -0.014251283 0.10020142 0.038086478 0.046052013
0002c0 67 d1 d0 3d ba ba c1 3d c6 d4 18 be cb a5 97 bd
       0.1019619 0.094594434 -0.14924917 -0.074046694
0002d0 82 e0 e2 3d 42 1b b6 3c e8 29 89 3d 4b d3 25 3e
       0.11077978 0.022229794 0.06697446 0.16193883
0002e0 34 67 c2 3d 9f 93 97 3d 85 0f 34 3e d9 50 30 be
       0.09492341 0.07401203 0.17584045 -0.17218341
0002f0 31 d4 c4 3c 63 40 61 3d af 38 80 bc c0 f2 ce bd
       0.024026962 0.054993045 -0.015652029 -0.10104895
000300 1d 1e 33 3d 77 e0 1a be 6c 57 97 bd bf dc 05 3e
       0.04372989 -0.15124689 -0.07389721 0.13072489
000310 d3 3e 93 bd 9f 2d 53 bd d9 4c aa 3d 15 71 42 bd
       -0.07189717 -0.05155718 0.08315439 -0.047471125
000320 6c e2 d4 3c 95 50 32 be c3 b8 c2 3d e6 35 17 be
       0.025986873 -0.17413552 0.09507897 -0.14766654
000330 d9 04 22 3c fe 35 2b be 89 30 22 be c8 6f 13 3e
       0.009888851 -0.16719815 -0.15838827 0.1439811
000340 21 f7 c1 bd b6 65 bd 3a b1 f2 a8 3a 6b 27 29 3e
       -0.09470964 0.0014449868 0.001288971 0.16518943
000350 7d 60 32 3d ab 2c a1 3d 38 3d 97 bd a8 5d 99 bd
       0.04354905 0.07869848 -0.073847234 -0.07488567
000360 e4 a4 02 3e f8 cb 78 3d a9 21 48 3d db f0 0c be
       0.12758213 0.060741395 0.048860226 -0.13763754
000370 f3 94 15 be 23 fd 13 3d 89 ae 03 be ee 62 f1 3d
       -0.14607601 0.03613008 -0.12859549 0.117864475
000380 85 66 07 3e 73 37 b0 bd af 8e cf bd c7 1f 1a 3e
       0.13222702 -0.08604326 -0.101346366 0.15051185
000390 73 c9 c4 bd 32 fe 21 be d6 47 05 be a7 e3 82 3c
       -0.09608736 -0.15819624 -0.13015684 0.015977694
0003a0 59 94 38 3d e2 11 00 3e 81 14 0c 3e 20 41 b7 3d
       0.04506335 0.12506822 0.13679697 0.089479685
0003b0 c0 4d 90 3c ed 36 33 3e f4 e0 57 bd 5e b8 c5 bc
       0.0176152 0.17501421 -0.052704766 -0.024135765
0003c0 0a dc 24 3e 0f 3f 39 bd 24 48 9e 3d be ae e6 3c
       0.16099563 -0.045226153 0.077286035 0.028159495
0003d0 04 07 44 3d b1 7f 4b bd 0d 2a 1a be 73 1d f4 3d
       0.047858253 -0.049682323 -0.15055104 0.119196795
0003e0 5a b1 0e 3e b9 2c 2e be d1 d4 90 bd 6f 65 43 bc
       0.13934842 -0.17009248 -0.070718415 -0.011926039
0003f0 d2 34 bb 3d ac 75 9f bc 4f 44 bb bd 22 98 00 3e
       0.09140934 -0.01946529 -0.09143888 0.12558034

lstm.bias_ih_l0 f4 [128]
000000 8b df ae 3d 90 7f 88 bd c3 5b d5 3c d6 fd 4b bd
       0.08538731 -0.066649556 0.026044732 -0.049802624
000010 2f 5c c3 bd e6 3f 34 3e 7c b1 f3 bd d4 1e 48 3d
       -0.09539067 0.176025 -0.11899087 0.048857525
000020 85 f4 33 be 23 3a a4 3d f5 e6 f6 3d bb 5f 42 be
       -0.17573746 0.08018901 0.1205577 -0.18981831
000030 48 bf 08 be 51 f4 43 be 5a 69 17 3d b8 63 2c be
       -0.13354218 -0.19136168 0.036965705 -0.16834915
000040 49 be 65 3d 74 a1 30 3e b5 a8 0a bd 1a 25 b2 3d
       0.056089673 0.1724909 -0.033852298 0.08698483
000050 cb 64 1b be d0 65 25 3d a3 3b ac bc aa 3e bb 3d
       -0.15175168 0.0403803 -0.02102453 0.091428116
000060 8a 5a 2b 3e 4e bb 08 be 15 0f 0d bd 5f 3f e6 bd
       0.16733757 -0.13352701 -0.03443821 -0.11242556
000070 9b 38 99 3d 5e 67 29 3e 1d e0 1b bd 57 46 38 3e
       0.074815 0.16543338 -0.038055528 0.17995583
000080 cb b2 b8 3d 50 64 bf bc c7 72 87 3d c4 89 14 3e
       0.09018477 -0.023363262 0.06613689 0.14505678
000090 03 76 2d 3b d5 d7 0d be 16 6e 40 3d 5e 48 13 be
       0.0026468046 -0.13851865 0.046979986 -0.14383075
0000a0 1e df 20 bc 99 98 14 be 78 0a 27 3e 44 60 04 be
       -0.00981882 -0.14511336 0.16312587 -0.12927347
0000b0 f8 59 c9 bd db 8c c1 3d 07 85 06 be 1f 21 2a 3e
       -0.09831613 0.09450694 -0.13136683 0.16614197
0000c0 b0 59 66 3c ae 70 cb 3d 3c d8 e4 bd b7 d4 84 bb
       0.014059469 0.09933601 -0.11174056 -0.004053678
0000d0 a0 8b 74 3d b1 d5 94 3d b3 4f 4e ba 4e 68 17 3e
       0.05970347 0.07267321 -0.00078701525 0.14785883
0000e0 6c 3e 8e 3d 77 a6 41 bd b0 85 37 be bc 45 0b 3e
       0.069455 -0.047277894 -0.17922091 0.1360082
0000f0 2a 3a 07 3e a2 d4 b5 bd d7 26 c5 bb bc db ff 3d
       0.13205782 -0.08878447 -0.006016593 0.12493083
000100 da f6 0a 3e c1 40 8d bd 43 37 b0 3d eb 75 bd bd
       0.13570729 -0.068971165 0.0860429 -0.09251007
000110 0e d9 c0 b9 38 e4 22 bd 45 2e 22 3d 52 5f ce 3d
       -0.00036782812 -0.039768428 0.039594907 0.10076775
000120 47 8f 91 bc 79 c1 02 3e 20 84 87 bd ea e1 c1 bd
       -0.017768515 0.12769116 -0.06616998 -0.09466918
000130 be 33 20 3e 85 4c 82 3b 55 5e 2f bd e6 a2 2c 3d
       0.15644738 0.003976407 -0.04281457 0.04214754
000140 5a 16 1d 3d e3 b9 ab bc 4e 03 bf bd 33 a1 bb bd
       0.038351394 -0.020962661 -0.09326802 -0.09161606
000150 b2 c8 0c bd 26 65 cd 3c 28 d4 2d be 78 e0 12 3e
       -0.034371085 0.025072645 -0.16975462 0.1434344
000160 69 bf fa 3b 14 cb 6b ba 14 89 37 3d 46 61 b0 3c
       0.0076522124 -0.00089947996 0.044808462 0.021530759
000170 db 61 13 3d 30 36 cc 38 09 c6 75 bd 01 b5 fd bd
       0.035981994 9.737571e-05 -0.060003314 -0.123880394
000180 91 5c 8c 3d 0d f1 27 3e 53 bb e2 3d c6 a0 25 be
       0.06853593 0.16400547 0.110708855 -0.16174611
000190 42 a1 ee 3d 2b 59 65 3d 3c fa 28 be ad 3e 26 3e
       0.11651851 0.05599324 -0.16501707 0.16234846
0001a0 d1 a7 10 3e 6b 9d 0e 3e 9a c8 19 be 49 be 8c bd
       0.14126517 0.13927238 -0.1501793 -0.068722315
0001b0 5a c5 01 3b 68 58 d9 bd 3d 6f e5 bc 16 22 22 bd
       0.0019801469 -0.10612565 -0.028007144 -0.039583288
0001c0 5e 46 0c 3d c6 f1 04 be 6c 78 e8 bc 4d 6c 1b 3e
       0.034246795 -0.12982854 -0.028377734 0.15178032
0001d0 00 f6 d3 3d 2f bb f0 3c e4 0f bb bd d4 5d f1 bd
       0.10349655 0.029386131 -0.0913389 -0.117854744
0001e0 78 b8 13 3e ba 3a e7 3b da eb b6 bc 1b 52 1c be
       0.14425838 0.0070565613 -0.02232926 -0.15265696
0001f0 35 2d 77 bd 95 fe 29 be 7e 56 a0 3d aa 8a 68 3c
       -0.060345847 -0.16601022 0.07828997 0.014193216

lstm.bias_hh_l0 f4 [128]
000000 79 a5 51 bd ae d0 69 3d 3e 44 71 3b 36 c2 3f 3d
       -0.051183198 0.057083778 0.0036814357 0.046816073
000010 a6 0c 09 3e 7e 98 bc bd 3d 01 98 bc 78 fe 1f 3e
       0.13383731 -0.09208773 -0.018555278 0.15624416
000020 58 ac b7 bc 39 e9 11 bc 59 6e e6 3d 5a 7a c5 bb
       -0.022421047 -0.008905702 0.11251516 -0.0060265483
000030 a9 b4 f9 bc 00 a0 96 3d af 27 62 3d 2a 18 37 be
       -0.030481653 0.07354736 0.055213626 -0.17880312
000040 7f 18 5b 3d bb 73 ed bc f9 c7 94 3c b9 bc 40 3c
       0.05349016 -0.028985849 0.01816176 0.011763745
000050 4a 8d d8 3d b1 f2 2c be 8b 0d 97 3d ae 01 a9 3d
       0.10573824 -0.16889454 0.0737563 0.082522735
000060 36 3c 0e be 8d 54 c8 bc a1 77 ad 3d 0b 1e b3 3c
       -0.13890156 -0.02445438 0.08470083 0.021864912
000070 eb 0a f5 3d 5c cf 18 3e 0f 2c 10 3e 17 b7 48 3e
       0.11964973 0.14922851 0.14079307 0.19601093
000080 3b 21 0e 3e e0 f8 cd bc 06 8d 8c bd bf 9e 06 be
       0.13879864 -0.025143087 -0.068628356 -0.13146494
000090 32 17 47 bd 2e 85 77 3d 33 ee b8 3d 28 c3 e0 3c
       -0.048606105 0.060429744 0.09029808 0.027436808
0000a0 29 a2 b5 3d 00 7c 04 3e c8 25 ec 3d c9 5a 38 3c
       0.0886882 0.12937927 0.11530644 0.011252114
0000b0 d4 1d c6 bc 25 e9 0d be da e7 af 3d 59 1f aa bd
       -0.024184145 -0.13858469 0.08589144 -0.0830676
0000c0 ca 69 91 bc d0 3e 13 3e b5 3e 2d 3e 60 d9 8c bc
       -0.01775064 0.1437943 0.16918452 -0.017193496
0000d0 84 cd d4 3d d6 e3 01 3e c6 9d c9 bd b2 e4 04 bd
       0.103907615 0.12684569 -0.09844546 -0.032444663
0000e0 39 b7 59 3d a0 fb f0 3d 9e 43 0e be 54 c2 94 bd
       0.05315325 0.11766744 -0.13892981 -0.07263628
0000f0 92 a1 04 3e 40 7d 13 3e 83 f9 b8 bd 10 1e 17 3e
       0.12952259 0.14403248 -0.090319656 0.14757562
000100 b1 cc 8b 3c b9 7b a0 bd 17 ae b4 3d a0 a8 14 3e
       0.017065378 -0.07836098 0.088222675 0.1451745
000110 99 e2 13 be 6f f2 f6 bd f2 2d 0c 3e c3 d9 22 3c
       -0.14441909 -0.12057959 0.13689402 0.009939614
000120 81 64 a1 3d 08 d9 19 be 6d 5c 0c be 05 5f 07 3e
       0.07880498 -0.15024197 -0.13707133 0.13219841
000130 e2 8e 74 3c 6d 24 2f 3c ec 2b 85 bd c3 d9 d2 3d
       0.014926644 0.010689837 -0.06502518 0.10295441
000140 a2 a7 1c 3d 72 81 28 be aa 45 b2 3d 72 ac a0 3c
       0.038245805 -0.1645563 0.087046936 0.019613478
000150 3a 59 92 bd 9c 74 07 3e 8d 7f 76 3d 2b 71 a3 3d
       -0.07145925 0.13228077 0.060180236 0.079805695
000160 28 cc 00 be 37 a1 c5 3d 79 b9 15 be 07 8b 9e bd
       -0.1257788 0.0964989 -0.14621533 -0.07741361
000170 df 2d 41 3d 2c b2 bc bd 00 6b 82 3d 93 17 be 3d
       0.047162887 -0.09213671 0.06368065 0.0928184
000180 b0 08 8b 3c 2f 29 04 3e 12 f0 3c bc c9 bd 56 bd
       0.016971916 0.12906335 -0.011531847 -0.052427087
000190 c1 3e ed 3d a7 66 32 bb 7b 35 e0 bd b4 bf 99 bd
       0.11584235 -0.002722183 -0.109477006 -0.075072676
0001a0 88 2d 57 3d 66 09 0c bd 07 44 e1 bc 50 02 42 3d
       0.052533656 -0.03418865 -0.027498258 0.047365487
0001b0 e0 64 36 be 27 f1 98 bd 0c 3f 43 be b0 cb 29 3b
       -0.17811918 -0.07467871 -0.19067019 0.002590876
0001c0 06 33 f1 3c 55 f4 8b 3c f7 60 f6 3b b2 66 55 3d
       0.029443275 0.01708428 0.0075188833 0.05209989
0001d0 7a 1b 99 3c 35 d0 f4 3c 44 17 7d bd 08 d6 0e 3e
       0.01868986 0.029884437 -0.061789766 0.13948834
0001e0 5a c2 8d bd de 72 95 3d a2 fc 22 3e 71 3f 96 3c
       -0.06921835 0.072973 0.15916684 0.018340798
0001f0 55 c6 cb bd 09 56 21 bd 3c 75 25 be 1b 40 02 be
       -0.09949938 -0.03938869 -0.16158003 -0.12719767

hidden2out.weight f4 [3, 32]
000000 e5 3c f6 bb a6 2b 16 3e d6 08 e7 bc 31 ad e0 bc
       -0.0075145834 0.14665088 -0.028202455 -0.027426334
000010 0a d2 86 3c e4 f2 c4 bd ec 7e a8 bd f5 1e 11 be
       0.016457576 -0.0961664 -0.082273334 -0.14171965
000020 92 9b 3c 3c 2a a8 9c 3d a7 40 fc 3d 01 d6 25 be
       0.0115117 0.07649262 0.12317019 -0.16194917
000030 3c 91 ad 3d 48 8a 04 be 5b 04 7c 3d 8d 2b f4 bd
       0.08474967 -0.12943375 0.06152759 -0.11922369
000040 99 da c3 bd 4a 69 01 be 4f 94 10 3e 76 64 16 be
       -0.095631786 -0.12637821 0.14119075 -0.1468676
000050 e5 1d e9 3d 74 d5 13 3e d5 f6 d4 bd 54 eb ec 3d
       0.11382655 0.14436895 -0.10398642 0.11568323
000060 8e 78 1e 3e d6 21 1f be 81 8c df bd 0b 0e f9 3d
       0.15475675 -0.15540251 -0.10915471 0.121608816
000070 77 14 cc bd ff af 02 3e 3c 7a c9 bd 44 a2 d4 bc
       -0.09964841 0.1276245 -0.098377675 -0.02595628
000080 b2 1a cb bd 47 55 db 3c dc 4a c7 bd 4a 95 da bd
       -0.09917201 0.026774062 -0.09731075 -0.10673006
000090 fe ff 25 3d ba 41 98 bc 4e 4d ae bb 5e fd 9f bd
       0.040527336 -0.018586028 -0.005319274 -0.07811998
0000a0 7c b5 bf 3d 39 45 02 3e f8 66 fa 3d b5 ad 00 be
       0.09360787 0.12721719 0.12226671 -0.12566264
0000b0 22 a4 09 be 12 95 de bd 0e 35 56 ba 41 28 85 bc
       -0.13441518 -0.10868277 -0.0008171358 -0.016254546
0000c0 4f 64 a5 3b 1d cd 8d 3d 00 9c cd 3d 5c 2a b2 3d
       0.005047358 0.06923888 0.1003952 0.08699486
0000d0 e2 30 a6 3c b4 b6 52 bd 2c bb 80 3b c9 f5 4a bd
       0.020286981 -0.05144377 0.0039285626 -0.049550805
0000e0 12 b9 ef bd d3 cc bf 3b 80 6e 15 be 62 93 00 3e
       -0.11705221 0.0058532744 -0.14592934 0.12556222
0000f0 56 45 09 3e 05 86 05 3c ad dd f5 bd 4c 64 7b bd
       0.13405356 0.0081496285 -0.12005172 -0.061374947
000100 f6 ce 8d 3c 65 92 27 3e 0e 45 fc 3d fc cc 1f 3d
       0.0173106 0.16364439 0.12317859 0.039013848
000110 6d 82 c7 3d 9c 4b 1e bd d5 f2 9b bd a5 ca aa bd
       0.097416736 -0.038646325 -0.07614676 -0.083394326
000120 eb ad 40 bd cb 3d 2d bd 01 09 0b 3d 60 fc 20 3e
       -0.04704086 -0.04229526 0.033944134 0.15721273
000130 08 84 1d 3e d1 40 04 be 93 c8 90 3d ce d7 96 bd
       0.15382397 -0.1291535 0.070695065 -0.0736538
000140 82 9c a5 3d af cd 2b be e1 2a 88 bd cc 1c f1 3d
       0.08086492 -0.16777681 -0.066488035 0.11773071
000150 2d 6d 49 bc a4 dd 90 bd 3a 5b 37 3e 04 64 ec bd
       -0.012294096 -0.070735246 0.17905894 -0.11542514
000160 46 0a b5 bd 48 e5 1f 3d ca bc c0 3d 0a 25 0c be
       -0.0883985 0.03903702 0.09411009 -0.13686004
000170 de e2 17 3e fd e7 2a be d5 28 b9 3d 60 59 11 be
       0.14832637 -0.16690059 0.09040991 -0.1419425

hidden2out.bias f4 [3]
000000 79 2c 60 3c df bb f8 bd 91 68 21 be
       0.013682478 -0.121452086 -0.15762545

std_layer.weight f4 [3, 32]
000000 7f 0b 32 3e e2 84 96 3d 25 0d 18 be e1 e4 1e be
       0.17387198 0.07349564 -0.14848764 -0.15516998
000010 60 9d 1a bc 42 df e8 3d 3e 54 c9 3d 20 fe fe 3b
       -0.009436935 0.11370708 0.09830521 0.007781759
000020 98 df bb 3c a7 ea 05 be d6 c1 dc 3d 80 74 9b bc
       0.022933766 -0.13077794 0.10779159 -0.01897645
000030 7d c5 11 be cc 33 05 be 38 29 15 bd 2c 0a e4 bd
       -0.14235492 -0.1300804 -0.036416262 -0.11134753
000040 72 64 69 bd e9 a0 30 3e 40 08 f9 3b f2 7e c4 bd
       -0.056980558 0.17248882 0.0075998604 -0.095945254
000050 8f 20 0d 3e 8d 06 28 3e e0 b7 8c 3c 80 3b 91 bb
       0.13781951 0.16408749 0.017177522 -0.004432142
000060 80 a6 ab 3c a8 f0 11 bd f0 6c 06 3d a0 a3 61 3d
       0.020953417 -0.0356299 0.032818735 0.055087686
000070 bb a1 08 3e 82 63 aa 3d 38 45 0e 3d d0 18 5a bc
       0.13342945 0.08319761 0.03473398 -0.01331158
000080 53 3d 0a 3e 8c e0 92 3d d0 7c 65 3d 8a f6 f7 3d
       0.13499956 0.07171735 0.056027234 0.121075705
000090 bc 7f 15 3d a4 55 4a bd 34 eb 38 3d de ec b3 bd
       0.03649877 -0.04939808 0.045146182 -0.08785413
0000a0 e6 ec dd 3d da ea 66 bd 0c 19 25 3d e8 f2 4a 3d
       0.108362004 -0.056376316 0.04030709 0.04954806
0000b0 a6 88 07 be ef 22 17 be 46 d4 f8 3d 81 b2 32 be
       -0.13235721 -0.1475942 0.12149863 -0.17450906
0000c0 e8 71 7d bd 1a bc ce 3d f0 f7 33 3d 19 70 2d 3e
       -0.061876208 0.10094471 0.043937624 0.16937293
0000d0 52 96 31 be b0 99 7b 3d 79 6c 89 bd 36 1a 97 3d
       -0.17342499 0.061425865 -0.06710143 0.07378046
0000e0 7d 8b 04 3e 62 33 f5 3d f1 73 33 be 57 22 80 bd
       0.12943836 0.11972691 -0.17524697 -0.0625655
0000f0 ee 73 fd 3d a2 7f 87 3d 84 26 13 be aa 9f de 3d
       0.123756275 0.06616141 -0.14370161 0.10870297
000100 ee b0 fb 3d 48 bb af bd 3c 10 58 bd a3 69 02 be
       0.12289606 -0.08580643 -0.052749857 -0.1273561
000110 42 0a 09 be 01 49 a7 bd ac 5d 29 bd c0 79 8b 3b
       -0.1338282 -0.08168221 -0.041349098 0.004256457
000120 c6 0b dc 3d 27 46 22 3e 10 79 9e 3c 7e b3 d6 3d
       0.10744433 0.15847073 0.019344836 0.10483454
000130 42 d0 d7 3d 40 b5 0d 3d bb 6f ab bd 42 6f 91 3d
       0.10537769 0.03459668 -0.0837092 0.07101299
000140 08 de e1 3c 8a a7 0f be f6 ce 63 bd ac ec 8d bd
       0.027571693 -0.14028755 -0.055617295 -0.06929907
000150 28 a5 7d 3d f5 89 a7 bd 2a e1 97 3d 10 ac 20 bc
       0.061925083 -0.0818061 0.074159935 -0.009806648
000160 60 5e f7 bc 78 b6 8b 3d 12 2b dd 3d 8c bf 5e 3d
       -0.030196369 0.068219125 0.10799231 0.054381892
000170 c0 68 f7 3c e0 bd 31 bc 04 4e 01 bd 32 e0 b0 3d
       0.030201316 -0.010848492 -0.031568542 0.08636512

std_layer.bias f4 [3]
000000 44 db 13 bd 09 36 09 3e 92 a3 e4 3d
       -0.03609778 0.13399519 0.11164011

exp_avg f4 [128, 12]
000000 fb bf 24 3a 5a c8 a4 bb e6 60 1e bb 67 eb 15 bc
       0.0006284711 -0.0050287666 -0.0024166643 -0.009150363
000010 de 47 a7 ba 61 aa e0 ba f2 17 a1 bc 7b 0e 2d bc
       -0.0012762507 -0.0017140621 -0.019664738 -0.010562534
000020 00 04 e6 bb 5b 95 21 bd 38 8e 91 bc b9 3c 85 bc
       -0.00701952 -0.039449077 -0.01776801 -0.016264306
000030 59 d2 e8 3b eb 53 e0 bb 07 8f 95 bb 3d 32 41 3c
       0.0071051535 -0.0068459413 -0.0045641693 0.011791763
000040 73 8b fc 3b 0c 28 e9 bb 65 7e 90 bb 1b 9d 39 bc
       0.0077070533 -0.0071153697 -0.0044095987 -0.011328961
000050 f1 cc b0 ba 17 82 42 3b a7 c6 1b bc f9 db b5 38
       -0.0013488812 0.002967959 -0.009507812 8.671726e-05
000060 f4 f4 34 3c c9 ff 81 ba d2 50 92 bb 76 2c 6d 3c
       0.0110447295 -0.0009918149 -0.004465201 0.014475932
000070 a1 92 97 3c 87 0a 44 bb f1 4e 5f 3c 14 92 86 bb
       0.018502535 -0.0029913501 0.013629661 -0.0041067693
000080 d6 9e e3 3b 93 71 1d 3d 10 1d ba bb 5e 51 a8 3c
       0.006946425 0.03843839 -0.005679734 0.020546611
000090 73 a6 14 ba a8 08 27 3c d4 94 38 bb 97 02 78 bc
       -0.0005670555 0.010194935 -0.002816488 -0.015137336
0000a0 b5 25 10 3c e7 71 24 3c c1 2f aa bb 25 ba 4c bb
       0.008798053 0.010036922 -0.005193681 -0.003123888
0000b0 a4 af a8 bb aa c8 43 bc 6c 6c 5a bb 24 06 04 3b
       -0.005147891 -0.0119496975 -0.0033328785 0.0020145262
0000c0 bb 20 03 3b a5 52 99 3b 86 2e 09 3a 5d 40 be bb
       0.0020008523 0.0046790414 0.0005233068 -0.0058060125
0000d0 b0 c8 d0 3b 5a e1 da 3b 57 66 8f 3b 62 bb 12 3b
       0.00637158 0.006679696 0.0043762135 0.002238952
0000e0 56 ea 0b 3b e4 09 ea 3b 52 27 cd 3b 07 26 d7 3b
       0.0021349392 0.0071422923 0.006260791 0.0065658125
0000f0 20 53 05 bd a3 65 d9 bc bf 15 96 b9 5f bc d2 bb
       -0.032549977 -0.026537722 -0.00028626432 -0.006431147
000100 81 ab f0 bd 52 9a 57 bd c9 5a 7a bc 9d 27 2c 3d
       -0.11751462 -0.052637406 -0.015280434 0.042029966
000110 f6 26 d1 bc 1e 82 a4 bd ca 44 07 3c 1c 43 c1 bd
       -0.025531273 -0.080326304 0.008256147 -0.09436628
000120 87 47 09 bc 0c da a1 3c bd 54 6c 3c db f9 9e bc
       -0.00837887 0.019757293 0.0144245 -0.01940625
000130 4e 8c 4b 3c b3 15 f0 3c 89 7e ad 3c 74 b9 f0 3b
       0.012423588 0.029307222 0.0211785 0.0073463265
000140 e1 4c 96 3c b9 08 f4 3c 9b 6c 87 3c 0d 91 10 3d
       0.018347206 0.029789316 0.01653128 0.03529458
000150 b6 1f d1 bc c7 bf f5 3a 81 f2 c6 3b f1 1e e8 bc
       -0.025527816 0.0018749171 0.006071389 -0.028335067
000160 6e 30 8a bd d6 90 3f bc fc 7f 49 bb 87 da e6 3c
       -0.067475185 -0.011692246 -0.003074645 0.028180374
000170 a4 63 38 bc b3 f4 51 bd a9 6a b3 3c 0b f8 46 bd
       -0.011254225 -0.051258754 0.021901445 -0.048576396
000180 38 d5 f4 3b 0e 6a bd 3c 7b 09 ba 3b c2 40 60 bb
       0.0074717067 0.02312186 0.0056773997 -0.0034218286
000190 01 92 39 3d 4b 3b 07 3d 1a 2a 31 3d 68 86 2a 3c
       0.045305256 0.03301553 0.04325304 0.0104080215
0001a0 a1 d2 9d 3c 95 3f d2 3d 92 68 54 3d c8 86 74 3d
       0.019265475 0.102660336 0.05185754 0.05969885
0001b0 ed e3 c9 bb f7 98 0c 3d 4c 29 58 3c bd 4b b8 bc
       -0.006161204 0.034325566 0.01319344 -0.022497052
0001c0 25 e4 96 3d 83 4f 56 3d 2d 86 2b 3c c7 27 c2 bc
       0.07367734 0.052321922 0.010469002 -0.023700608
0001d0 9c cb ba 3c b6 9f 43 3d 9f 57 c3 bc 4b 71 a0 3d
       0.022802167 0.047759734 -0.023845492 0.07834109
0001e0 ac b6 b3 ba 99 c1 3c bb 3f b9 65 bb cd 80 1a bb
       -0.0013711057 -0.0028801917 -0.0035053042 -0.0023575306
0001f0 34 cd 4f bc e0 f4 eb bb f7 29 50 bb 93 a1 09 3c
       -0.012683202 -0.0072008222 -0.0031763294 0.008400339
000200 aa 0c e2 bb ad ec 8f bc ab b1 95 3a 54 cf 85 bc
       -0.0068984823 -0.01756891 0.0011420747 -0.016334213
000210 41 0b 94 3c f5 9a 53 3c a6 b6 89 3a 51 ea d5 3b
       0.018071773 0.012915363 0.0010506704 0.006528177
000220 63 16 90 3d 80 85 de 3c d6 73 07 b8 6c ac 25 bd
       0.0703552 0.027163267 -3.229439e-05 -0.040447637
000230 58 7a 8a 3c 1e ab 10 3d 86 e9 f0 bc 22 e2 6b 3d
       0.016904041 0.03531944 -0.029408228 0.057588704
000240 19 18 4a b8 4c 4c 0d bc 1d 8f 61 bb d1 7c 0a 3d
       -4.8182996e-05 -0.008624148 -0.0034417578 0.03381044
000250 7d 43 3b bd ab 1d e8 bc f2 a2 2d 3d 49 85 37 3d
       -0.04571866 -0.02833446 0.042391725 0.044804845
000260 0c 26 59 ba 9e 0d 85 3d 71 7e 59 3d 85 e7 43 bc
       -0.00082835625 0.06496738 0.0530991 -0.011957054
000270 65 75 5a 3b 97 48 43 3c 88 54 9d 3a 2b d5 35 bb
       0.0033334133 0.011919162 0.0012003342 -0.0027745466
000280 52 a8 03 3d 33 f5 8b 3c 98 bc 97 3b 3d 91 6a bc
       0.032142945 0.017084694 0.0046306364 -0.014316854
000290 14 b4 e6 3b 30 e8 db 3c 33 3c 14 bc c7 ff fd 3c
       0.00704051 0.026844114 -0.009047556 0.031005753
0002a0 34 61 fe ba 0b 96 15 bb f3 4e 24 ba 10 ec 8c 39
       -0.0019407631 -0.0022825028 -0.0006267868 0.0002687876
0002b0 0e 0c 24 bc aa 14 99 bb 1d 1a a0 ba 17 44 b2 3b
       -0.01001264 -0.004671653 -0.0012214814 0.005440246
0002c0 4b 4e 48 bb 5f 44 06 bc 3e f5 27 3b 7d 24 1c bc
       -0.0030564244 -0.008195012 0.0025628353 -0.009530184
0002d0 f4 00 e9 3c 03 7d ad b9 f7 26 41 bc d5 d1 d0 3c
       0.028442837 -0.00033090272 -0.011789075 0.02549068
0002e0 52 47 82 3d b3 05 f4 3b 68 e8 6e bb ee dc fb bc
       0.063612595 0.0074469685 -0.0036454443 -0.030744996
0002f0 4e 62 21 3b d5 43 21 3d 60 f4 96 bc 09 7b 14 3d
       0.0024625245 0.03937133 -0.018427074 0.036250148
000300 fc ce 37 3c 79 76 29 3c 0e 8a 5c 3a 02 0f 9a bb
       0.0112187825 0.0103431875 0.0008412906 -0.004701496
000310 27 55 38 3d 6b 88 ae 3c 0d 3c 03 3b bc 15 ac bc
       0.045003083 0.021305284 0.0020024807 -0.021006458
000320 6c cf 2a 3c 2f a6 b9 3c 18 56 43 bc 9e 6f 11 3d
       0.01042543 0.02266225 -0.011922382 0.035506837
000330 ab d8 75 3b 76 b4 93 bb 95 a3 ad bb eb cf c8 3b
       0.0037513177 -0.0045075966 -0.0052990415 0.0061283014
000340 a4 8c de ba 72 79 f6 bb 38 b1 d4 bb 88 7b 71 bb
       -0.001697917 -0.0075218016 -0.0064908527 -0.0036847312
000350 af 0e c7 bb 6a 4a b9 bb 93 44 6d bb ea 33 fb bb
       -0.0060747485 -0.005654623 -0.0036204203 -0.0076661007
000360 e6 aa 81 3c 4f f6 9a 3b 7a 93 7c ba d8 34 d5 3b
       0.015828561 0.0047290693 -0.0009635013 0.0065065436
000370 3b 19 85 3d 66 f1 8f 3c 77 7d 36 bc 09 83 56 bd
       0.06498953 0.017571162 -0.011138312 -0.05237106
000380 25 f8 39 3c 3a 79 92 3c 14 dd 20 bd 2c dd 23 3d
       0.011350666 0.017880071 -0.039273337 0.040005848
000390 b0 2d 09 bc 94 48 a0 3b 17 17 ef 3b d4 29 0a bc
       -0.008372709 0.0048914645 0.0072964537 -0.008432824
0003a0 c7 6c 7e bc 28 27 a2 3b 61 0c 11 3c 3c 3b 23 3c
       -0.015528864 0.0049485154 0.008853049 0.009962853
0003b0 e1 79 99 3b 8a 20 dc bb 2d ce 26 3c f3 f0 5a bb
       0.0046837186 -0.006717746 0.010180992 -0.0033407777
0003c0 a9 67 16 3c 12 5e 58 bb da c9 a7 bb 6c 90 46 3c
       0.009179988 -0.0033015055 -0.005120498 0.012119394
0003d0 9e c3 7c 3c 87 2a f5 ba 02 45 a5 bb a4 2d c3 bb
       0.015427498 -0.0018704691 -0.0050436268 -0.0059563685
0003e0 94 91 53 bb 55 a7 15 3b 02 4e cb bb 8d 9c 23 3b
       -0.0032282816 0.0022835333 -0.0062043676 0.0024965138
0003f0 d2 5a 16 bb ab 6c cf 3a ec b3 a0 3a f1 af 08 bb
       -0.0022942317 0.0015825232 0.0012260652 -0.0020856822

exp_avg_sq f4 [128, 12]
000000 d1 8a 58 3a 29 28 3a 3b 92 dd 3b 39 65 a6 a1 3a
       0.00082604314 0.0028405285 0.00017916251 0.0012332915
000010 3f 0c c2 3c 23 2f 10 3c 02 3c 2d 3b 27 a2 17 3a
       0.02368748 0.008800301 0.0026433473 0.00057843555
000020 b8 2c 6e 3a a3 2f ba 3c 9e 1e 51 3b 00 e1 85 3c
       0.0009085643 0.022727793 0.0031909118 0.01634264
000030 67 1b 76 39 43 5b 17 3a 14 da 8a 39 e0 a0 46 3a
       0.00023470596 0.0005773792 0.00026483892 0.0007577073
000040 f8 00 1e 3b 45 3d e8 3a eb 4d bf 39 42 e2 39 39
       0.0024109464 0.0017718455 0.00036488412 0.00017727262
000050 87 a4 c1 39 e9 5f bf 3a 50 48 de 39 b4 fe 25 3b
       0.0003693441 0.0014600727 0.00042397017 0.0025328817
000060 a7 cd 60 3a 07 8d 3d 3b 55 42 62 3a 42 76 39 3b
       0.00085755665 0.002892317 0.00086311 0.0028299247
000070 b1 e3 50 3c f4 32 0b 3c ee 21 bf 3a c5 42 45 3a
       0.012749598 0.008496035 0.0014582255 0.0007524903
000080 91 9e c5 3a ce d5 db 3b 2f 6a dd 3a ce 1f 3c 3c
       0.0015077164 0.006708837 0.0016892607 0.011482192
000090 c8 d4 01 39 07 d0 c4 3a 0e a6 15 3a 5e 17 de 3a
       0.00012381666 0.001501561 0.0005708643 0.001694422
0000a0 fa 5e b0 3b 7e 0b 91 3b 8e 73 27 3a 05 7b 13 39
       0.005382416 0.004426419 0.00063877634 0.00014064841
0000b0 bf dd 7a 3a 09 d5 8f 3b 1b d9 82 3a b6 6a b5 3b
       0.0009569786 0.0043894094 0.0009982915 0.0055364026
0000c0 86 7e 2b 38 4c a9 ba 39 8c fa e2 38 ef 0f 0a 3a
       4.088741e-05 0.0003560282 0.00010823188 0.00052666565
0000d0 05 c5 dc 3a e7 fb 98 3a 47 a2 8f 38 37 10 1c 38
       0.0016843384 0.0011671752 6.848998e-05 3.72084e-05
0000e0 32 59 50 39 d0 42 75 3a 33 63 89 39 93 bb b6 3a
       0.00019869654 0.0009355964 0.00026204585 0.00139414
0000f0 1c 09 ff 3a 0c 38 97 3b 28 31 a3 39 b9 39 cb 3b
       0.0019457671 0.0046148356 0.00031126407 0.0062019494
000100 96 f4 51 3d 36 02 4c 3c ac 8a 77 3a b5 a7 43 3a
       0.051258646 0.012451699 0.0009442966 0.000746365
000110 da af 82 3a fe a9 30 3c 13 ec 0d 3b 4c fb b8 3c
       0.0009970621 0.010782717 0.0021655604 0.022580765
000120 e4 5a 8b 3a 63 8d 23 3a 76 f5 c4 3a ed 5c c3 3a
       0.0010631946 0.0006239025 0.0015026766 0.0014905013
000130 cd 1b cf 3a cb da 27 3b 98 d9 20 3b e3 82 15 3a
       0.0015801132 0.0025612589 0.0024543758 0.00057034026
000140 4b ca be 3a 0a 2e 7c 3b 37 20 af 3a 1c 7a 32 3b
       0.0014556138 0.003847959 0.0013361041 0.0027233427
000150 71 0d 33 3a 77 e7 76 3b e1 3b 13 3a 4b f8 be 3b
       0.0006830311 0.0037674585 0.00056165276 0.0058279387
000160 d7 bf 99 3c 17 67 2b 3c 46 ee 7f 3a 15 ff 64 3a
       0.018768234 0.01046159 0.00097629835 0.000873552
000170 55 c3 b2 3a 0d 44 09 3c 2a ce c1 3b 52 ca a1 3c
       0.0013638536 0.008378041 0.0059144692 0.019749794
000180 3d c4 e2 39 c4 12 3d 3b a6 1e 16 39 63 af 10 3b
       0.00043252288 0.0028850297 0.00014316532 0.0022077195
000190 58 c5 74 3c b6 b7 f7 3b 58 9b 5c 3b d2 97 07 3a
       0.014939629 0.007559742 0.0033661928 0.00051724643
0001a0 27 0c 64 3a c7 f1 bf 3c 44 5e 77 3b 52 a1 59 3c
       0.00086993206 0.023430718 0.0037745396 0.013283091
0001b0 af a3 4e 3a 13 22 1f 3b f9 7b 9b 3a d0 78 3c 3b
       0.0007882667 0.0024281784 0.0011862508 0.0028758533
0001c0 1a d4 2c 3c 5f f9 fc 3b 2b 47 30 3b ea 4f 67 3a
       0.010548616 0.007720157 0.0026897888 0.0008823859
0001d0 9b a1 07 3b 58 93 0a 3c 77 01 0f 3b 62 60 44 3c
       0.002069569 0.008457981 0.0021820941 0.01198587
0001e0 9d 72 4a 39 48 a2 da 39 2e 89 08 3a 0b c9 75 3a
       0.00019306918 0.0004170111 0.00052084296 0.0009375966
0001f0 46 1e cf 3a 52 c5 e7 3a 9e d8 57 3a bd 83 1f 39
       0.0015801869 0.0017682707 0.00082338776 0.00015212498
000200 55 fc 50 3a 70 89 67 3b a8 cc 8e 3a b9 b5 23 3b
       0.0007972171 0.0035329722 0.0010894733 0.0024980141
000210 10 16 0f 3a 01 7e 78 3a c7 88 ee 38 40 40 bc 3a
       0.00054583047 0.0009479225 0.00011374201 0.001436241
000220 a1 f5 05 3c b7 70 43 3b de b2 ad 3a 6f fa 20 3a
       0.008176238 0.0029821822 0.0013252159 0.0006140833
000230 37 32 ff 39 76 65 8b 3c 83 e4 f4 3a 21 97 bc 3b
       0.00048674803 0.017016154 0.0018683824 0.0057553207
000240 b3 bb 1d 3a 7f 2f 83 3c 37 19 74 3b 51 29 9b 3c
       0.0006017044 0.016013859 0.0037246475 0.0189406
000250 e7 fb 0d 3d 01 45 40 3d 7a b3 63 3c f6 32 aa 3a
       0.03466406 0.046940807 0.013897771 0.0012985158
000260 63 2b 0e 3c 61 60 9e 3d 7f ca 7a 3c 41 3d 83 3d
       0.008677336 0.077332266 0.015307068 0.06408168
000270 b0 97 1e 3a fa 4d b8 3a 34 6d 0e 38 dd a1 49 3a
       0.0006049825 0.0014061325 3.395714e-05 0.0007691661
000280 55 3e fd 3b a8 fd 53 3b 32 3c 96 3a 21 eb 00 3a
       0.007728378 0.0032347236 0.0011462031 0.00049178494
000290 9e 32 85 39 95 24 70 3c 57 b9 99 3a c7 de b9 3b
       0.0002540545 0.014657159 0.0011728209 0.005672309
0002a0 b9 fa 80 38 07 29 43 38 4d 3f c5 37 0c fb 2b 39
       6.150216e-05 4.6529833e-05 2.3513707e-05 0.00016401353
0002b0 d8 20 b6 3a a6 ea 92 39 60 fd fe 37 0b 7e c6 37
       0.0013895286 0.00028022117 3.0397146e-05 2.3662133e-05
0002c0 0c ca 35 38 b4 69 05 39 4e f0 34 39 ba 2c 2f 3a
       4.3341934e-05 0.00012723246 0.00017255658 0.0006682385
0002d0 94 a8 1d 3b 85 02 70 3b 63 f2 2d 3b a5 71 84 3b
       0.002405678 0.0036622596 0.0026542179 0.004041868
0002e0 14 23 91 3c 9b 41 37 3c 31 74 e6 3a eb 7b 45 3a
       0.017716922 0.011185075 0.0017582235 0.0007533419
0002f0 ef 7f 2e 3b 51 cb 21 3c 73 c8 36 3b ac b8 4b 3c
       0.0026626547 0.009875135 0.0027890473 0.012434166
000300 29 4f be 38 3d f3 01 3a 94 31 29 39 0a 64 e5 39
       9.074651e-05 0.0004957205 0.00016135565 0.0004375282
000310 e9 d0 3c 3b 42 65 f0 3a f3 23 04 3a 41 17 0c 39
       0.0028811044 0.0018340724 0.0005040757 0.00013360103
000320 8b ba d9 39 c8 54 6e 3b 9b fb 0c 3a f7 27 5a 3b
       0.0004152845 0.0036366452 0.00053780683 0.003328798
000330 ac 3f 89 39 74 db af 3a 93 f4 24 3a 67 7a e8 3a
       0.00026178116 0.0013416843 0.0006292548 0.0017736674
000340 14 51 21 3a 63 5d 80 3b c3 7a 80 3a 29 6f e2 38
       0.0006153744 0.0039173826 0.0009802211 0.00010797225
000350 fc ea 3b 3a ab fc 16 3b 68 f2 09 3a 5c 05 78 3b
       0.0007168499 0.0023038785 0.00052622566 0.0037844991
000360 41 e0 91 3a f7 0d 1d 3b 81 99 0c 3a 8f 58 6a 3b
       0.0011129455 0.0023964623 0.000536345 0.0035758351
000370 ac cc 83 3c d1 14 00 3c 10 a3 6f 3b a1 1f ca 3a
       0.016088806 0.007817463 0.0036565699 0.0015420803
000380 38 39 09 3b 79 6b ea 3c d6 81 a2 3b c5 7c 82 3c
       0.0020938646 0.0286157 0.0049593253 0.015928635
000390 e9 fa c8 3a 29 a0 a6 3a 00 f9 7a 3b d7 53 4d 3b
       0.0015333566 0.0012712526 0.0038295388 0.003133049
0003a0 cb c9 38 3c 83 4a 30 3c 50 e4 3f 3b 80 0d 42 3a
       0.01127858 0.0107599525 0.0029280372 0.00074025244
0003b0 0a 90 a9 3b 5d 69 94 3b 4a c1 4a 3b 26 97 b0 3c
       0.0051746415 0.004529162 0.0030937963 0.021556448
0003c0 26 16 ba 39 24 6c 68 39 2a e7 48 39 c7 e1 90 3a
       0.00035493186 0.0002216553 0.00019159602 0.0011053615
0003d0 06 9e 39 3b 82 49 38 3a f1 96 f8 39 14 3c f0 38
       0.002832295 0.00070299965 0.00047414706 0.00011455282
0003e0 70 8f 08 39 32 2c 1f 3a 5c b0 1f 3a 98 41 67 3a
       0.00013023405 0.0006071954 0.0006091648 0.0008821725
0003f0 34 f5 9c 39 69 0a c0 39 d7 09 0c 3a 4c 04 72 3a
       0.0002993733 0.0003662885 0.00053420424 0.00092322077

exp_avg f4 [128, 32]
000000 49 7e 1a b9 61 87 05 b9 67 95 0b b9 6b 2a 04 b9
       -0.0001473363 -0.00012734301 -0.0001331173 -0.00012604303
000010 45 81 fa 3a ce e6 64 39 49 79 e2 39 e3 f0 f3 b9
       0.0019112012 0.00021829756 0.00043196444 -0.00046528046
000020 ad 1e a9 3a c3 40 45 b9 53 1d ac b8 7f b7 94 39
       0.0012902819 -0.0001881151 -8.207061e-05 0.00028365475
000030 d4 32 0a 3a 5d 25 6e b8 ce 2b 1e b8 a3 9f c2 38
       0.0005271856 -5.677842e-05 -3.771093e-05 9.2803755e-05
000040 8f 40 1d 3a b7 29 ee b9 de ef d3 39 d1 01 e4 38
       0.00059986947 -0.00045425977 0.0004042377 0.000108722255
000050 0a 23 12 39 df b1 80 39 68 4f 71 ba 97 a9 95 39
       0.00013936698 0.00024546587 -0.0009205253 0.0002854585
000060 0e 37 fd b7 54 14 5a ba 0d 23 aa 39 8c 78 82 b9
       -3.0185587e-05 -0.0008319069 0.00032451042 -0.00024885347
000070 4b cc 7e 3a 3a 47 86 b9 e5 6f a4 ba ba 12 08 38
       0.0009719773 -0.0002561154 -0.0012545554 3.2442367e-05
000080 eb b0 ca b9 c8 9d c8 39 82 a4 af ba 87 b0 88 b9
       -0.00038660257 0.0003826453 -0.0013400468 -0.00026071465
000090 f2 f0 15 39 60 20 0c 3a 9c c7 a0 3a 16 eb 9a 39
       0.00014299506 0.00053454004 0.001226652 0.00029548322
0000a0 76 1c 2b ba 95 62 d7 ba 03 cc 69 3a 89 c1 61 3a
       -0.00065273733 -0.0016432578 0.0008918645 0.0008611908
0000b0 f6 53 f6 b9 ce f6 6e 39 61 64 04 b9 8d e0 4e ba
       -0.00046983332 0.0002278939 -0.00012625895 -0.0007891737
0000c0 ed e2 1e ba f5 dd b0 ba 99 8c e2 b9 fc 89 cf 3a
       -0.0006061036 -0.0013493883 -0.00043210833 0.0015833969
0000d0 ba 3b 2c 3a c1 aa 8d ba dc 1a e5 3a bb 82 d1 ba
       0.0006570179 -0.0010808335 0.0017479318 -0.0015984395
0000e0 17 ab cb 3a b5 ac be 38 72 15 dc 39 61 94 a5 b9
       0.001553866 9.092075e-05 0.00041977648 -0.00031581803
0000f0 69 9a be ba 3b 27 6b ba 14 e5 9f ba 6e dd d0 ba
       -0.0014541867 -0.00089703844 -0.0012199008 -0.0015935132
000100 d5 d1 27 ba 58 09 94 38 dd 19 94 ba ac a6 b4 ba
       -0.0006401812 7.05893e-05 -0.0011299212 -0.0013782582
000110 26 fc 94 ba 74 52 99 b9 a3 e0 4e 3a fb b1 19 ba
       -0.001136665 -0.00029243866 0.000789175 -0.0005863008
000120 09 99 c5 ba ee 29 9e ba a3 6c bd 3a e9 e0 a8 3a
       -0.0015075515 -0.0012066939 0.0014451932 0.0012884411
000130 b5 f8 3f 39 a7 9a 0f 39 eb ee 3b b8 db ec ae ba
       0.0001830783 0.00013695155 -4.4806784e-05 -0.0013345735
000140 49 55 88 ba fd bc 1a 3a 04 e6 8f ba 96 82 af 3a
       -0.0010401394 0.0005902795 -0.0010978584 0.0013390358
000150 a5 f6 21 3a 52 1c eb ba e4 21 36 3b fe f9 b4 ba
       0.00061784155 -0.0017937517 0.0027791196 -0.0013807414
000160 fb 72 ba 3a 22 09 4b 37 8a f7 3f 3a 2f b2 3b ba
       0.0014224941 1.2101869e-05 0.0007322958 -0.00071600353
000170 81 41 39 bb 21 d3 10 38 b3 df 08 bb a0 1e 9a bb
       -0.0028267803 3.4528905e-05 -0.0020885288 -0.004703358
000180 90 46 32 38 ca cd d3 b9 6e 73 2b 3a 9b e6 9a ba
       4.2504224e-05 -0.0004039838 0.00065403327 -0.0011817993
000190 f2 52 e6 3a 9c 74 af ba 86 c5 0b ba 28 75 c7 ba
       0.0017572327 -0.0013386193 -0.00053318625 -0.001521741
0001a0 2d 4e df 3a 95 86 42 3a ee bf 74 39 e5 4a 99 39
       0.0017036848 0.0007420567 0.00023341153 0.00029238235
0001b0 f0 10 bc 3a 4f c9 a2 b9 8b 85 a5 36 ae 53 15 3a
       0.001434831 -0.00031049034 4.9329296e-06 0.0005696368
0001c0 3e cf 9a 3a d4 45 1c 3b 66 15 ed b9 16 be ab ba
       0.001181103 0.0023845332 -0.00045220106 -0.0013102915
0001d0 89 eb 35 ba c1 2a b1 3a 54 45 2c ba 49 fb f6 3a
       -0.00069396995 0.001351677 -0.000657161 0.0018843199
0001e0 fd a5 af ba 99 d6 85 ba 5d c7 c0 39 ce 0f 14 ba
       -0.0013400909 -0.001021105 0.0003676963 -0.0005648107
0001f0 29 8e 32 3b e2 92 6f 3a c9 d2 85 ba 7c 38 81 39
       0.0027245379 0.0009139014 -0.0010209914 0.00024646882
000200 5d 01 96 b9 82 81 aa b9 db 8b 02 3a 8d 76 46 ba
       -0.00028611245 -0.00032521418 0.00049799465 -0.0007570766
000210 3a 8b 96 39 6f 6a 7b ba 27 5e ec b9 f3 50 9b ba
       0.0002871396 -0.000959075 -0.00045083577 -0.0011849686
000220 f1 37 f3 39 c2 d3 18 3a 0b d8 a1 39 f4 a8 0f 39
       0.0004639025 0.0005829894 0.00030869278 0.00013700483
000230 1f 47 42 3a 23 9c 17 b8 09 7f 9d 36 c0 54 50 39
       0.00074111106 -3.614662e-05 4.6937535e-06 0.00019867998
000240 13 ec 31 3a af 74 e2 3a ba 9e 0b ba 7a 52 5c ba
       0.0006787192 0.0017277206 -0.00053260813 -0.0008404624
000250 cb 51 45 b9 8a 70 3d 39 1e c1 35 ba 56 aa 97 3a
       -0.00018817854 0.00018066369 -0.0006933379 0.001157115
000260 07 49 2f ba 15 6f 0a ba 51 d2 63 39 53 ad c0 b9
       -0.0006686602 -0.0005280835 0.00021726756 -0.0003675023
000270 9a df 3f 3a 38 08 5a 3a e3 3d cc b9 49 b5 97 ba
       0.0007319391 0.0008317265 -0.0003895602 -0.0011574413
000280 34 99 2b 3b ca af 0d 3a 06 a1 3b ba b4 07 01 3c
       0.0026183845 0.0005404918 -0.0007157478 0.007875372
000290 34 16 5d bb 76 37 99 3b ee 75 43 ba 1b 9a eb 3b
       -0.0033735158 0.004675801 -0.00074562326 0.0071900017
0002a0 39 1c e0 ba 09 c0 32 3b 56 21 c7 bb 8b df d1 bb
       -0.0017098255 0.0027275106 -0.006076972 -0.006404822
0002b0 2a 0e d7 bb 4d e6 a7 ba f3 2b 96 ba 1c 72 f4 b9
       -0.006562968 -0.0012809724 -0.001145719 -0.00046624325
0002c0 51 a7 92 bb 66 b7 20 bc 28 21 d2 3b 5b c4 1d 3b
       -0.004475512 -0.009809351 0.006412644 0.0024073336
0002d0 f9 11 b5 b9 0e 54 fa 39 3e 86 70 bb d6 e0 cb bb
       -0.000345364 0.0004774634 -0.0036701108 -0.006221871
0002e0 27 9a 02 3b e7 d5 04 3b c6 c4 0c bb 8c 2c 55 3b
       0.0019928308 0.0020269097 -0.002147959 0.0032527773
0002f0 8d 21 8d bb 60 73 4d bb 76 4a fb 3b 89 b6 55 3c
       -0.004306978 -0.0031349286 0.0076687885 0.013044008
000300 d6 75 25 3a 73 57 50 ba 29 3f 4f 3b ba 4c 14 ba
       0.00063118094 -0.0007947601 0.003162334 -0.0005657185
000310 ad 20 9a ba 57 57 af ba 72 99 26 bb d1 0d ef ba
       -0.0011759006 -0.001337747 -0.002542105 -0.001823837
000320 3c 8e 53 3a 51 05 1a 3b 4e f8 aa b9 de 4f af 38
       0.0008070206 0.0023501704 -0.00032609928 8.359527e-05
000330 21 0d 2f 3b d4 71 ca 38 b2 61 1c 3a ba 9f fc 3a
       0.0026710706 9.653313e-05 0.00059654855 0.0019273676
000340 d6 b9 19 3b 9b 5c 90 3b de 48 41 ba 04 c0 7a bb
       0.0023456714 0.0044055707 -0.0007373224 -0.0038261423
000350 69 ca a4 ba aa 38 c9 3a a4 33 d4 ba 65 67 9f 3b
       -0.001257253 0.001535197 -0.0016189707 0.0048646205
000360 05 95 88 bb 9d d7 63 39 4f 75 86 ba e2 1b a6 38
       -0.004168155 0.00021728729 -0.0010258349 7.9206904e-05
000370 6d c8 47 3b 54 9a 22 3b 67 ec b7 3a 99 23 89 38
       0.0030484453 0.0024811225 0.0014032245 6.5393e-05
000380 83 5c 02 3b 14 e7 e4 b9 80 0a fd 3a 52 15 84 3b
       0.0019891567 -0.00043659715 0.0019305497 0.004030862
000390 ad 7d 9b ba e3 cc 67 3a 1f c9 15 bb 9e bc 0c 3b
       -0.0011863016 0.0008842481 -0.0022855473 0.002147473
0003a0 30 05 47 3a b7 b1 7d 3b 50 76 78 bb d8 85 82 bb
       0.00075920206 0.0038710663 -0.0037912317 -0.0039832406
0003b0 6f 81 04 bb 13 96 77 ba 61 6c d4 b9 7f 30 ae 3a
       -0.002021875 -0.0009444665 -0.0004051654 0.00132896
0003c0 36 bf ba b9 38 93 02 bb b3 82 43 3b 72 2e f1 ba
       -0.00035619148 -0.0019924175 0.0029832541 -0.0018400683
0003d0 25 72 c0 ba 71 f9 1a 3b 6f 0b a3 bb b6 d7 45 3a
       -0.0014682455 0.0023647214 -0.004975728 0.0007547097
0003e0 9a ae 0a bb df 7b b3 39 15 4f cc ba 77 0f c5 3a
       -0.00211612 0.00034233832 -0.0015587533 0.0015034516
0003f0 89 55 c0 3a 70 ce 63 b8 97 61 b9 3b 8e 73 15 3c
       0.0014673929 -5.4313277e-05 0.0056573856 0.009121789
