models/drone/policy_ego_rotor_best_iter20.pth (torch, 80830 bytes, 20 tensors)

lstm.weight_ih_l0 f4 [128, 12]
0	0x3db29606	0.08720021
1	0xbda5d8f5	-0.08098022
2	0xbd97f0c2	-0.07418968
3	0x3d9d1f5e	0.076719984
4	0xbe12fe11	-0.14354731
5	0x3d78b249	0.0607169
6	0xbdb5fafa	-0.088857606
7	0x3dda2dfe	0.106533036
8	0xbd806fce	-0.06271325
9	0xbe0f072f	-0.13967584
10	0xbc5a0c7b	-0.01330864
11	0xbd8c5a59	-0.0685317
12	0x3d55df22	0.05221475
13	0xbbca7f9a	-0.006179762
14	0x3dbb47b6	0.09144537
15	0xbcf8dc3d	-0.030378455
16	0xbce06842	-0.027393464
17	0x3cd3129c	0.02576571
18	0x3e3949ba	0.1809453
19	0x3d837d08	0.06420332
20	0xbc51c036	-0.012802174
21	0xbdda26e8	-0.10651952
22	0x3a0026e4	0.00048886077
23	0xbd37623a	-0.04477141
24	0x3cfd9945	0.030956874
25	0xbd311242	-0.043230303
26	0xbcc033b1	-0.023462148
27	0x3df291dd	0.118442275
28	0xbe251260	-0.16120291
29	0x3dac92b8	0.08426422
30	0x3d9461dc	0.07245228
31	0x3e664b38	0.22489631
32	0x3e00a922	0.12564519
33	0xbe0b3e32	-0.13597944
34	0xbe123c31	-0.14280774
35	0xbd86b274	-0.06577006
36	0x3d2d8634	0.042364314
37	0x3da61ca4	0.081109315
38	0x3e202f6b	0.15643089
39	0xbe0ba074	-0.13635427
40	0x3e43adc2	0.19109252
41	0xbdd5006d	-0.10400472
42	0x3d8c8dba	0.0686297
43	0x3d4bed5c	0.04978691
44	0xbbd88258	-0.006607335
45	0x3dc75953	0.09733834
46	0xbd2619a8	-0.04055181
47	0x3d22d5d0	0.03975469
48	0xbda624be	-0.08112477
49	0xbbdd8f2f	-0.0067614536
50	0xbeac488b	-0.33649096
51	0xbcbeb815	-0.023281137
52	0x3dc1c6fc	0.094617814
53	0xbdd7b861	-0.10533214
54	0x3e62f194	0.22162467
55	0x3ea25a3d	0.3170947
56	0xbd085f82	-0.03329421
57	0xbdb3a4c2	-0.087716594
58	0x3e00d6e2	0.12581971
59	0x3c21e5ec	0.009881478
60	0xbe8a0a13	-0.2696081
61	0x3dbed66b	0.09318241
62	0xbd077669	-0.03307191
63	0x3e11fe00	0.1425705
64	0xbdf47c9b	-0.11937829
65	0xbdc7f9f4	-0.09764472
66	0xbd4e0157	-0.050294247
67	0x3d7d7bde	0.061885707
68	0xbe1725bb	-0.14760487
69	0xbe025d92	-0.12731007
70	0x3e234b8d	0.15946789
71	0xbdaf0c80	-0.08547306
72	0x3c2b315e	0.010448782
73	0xbc1c6226	-0.009544885
74	0x3c72d620	0.014821559
75	0x3c09b3f7	0.008404723
76	0x3bcdeea6	0.0062845526
77	0x3d25725e	0.040392272
78	0xbe62f1ee	-0.22162601
79	0x3da10b01	0.07863427
80	0xbe1b38ad	-0.15158339
81	0xbe0b895e	-0.1362662
82	0x3d407065	0.046982188
83	0xbd942eee	-0.07235514
84	0xbb6f347c	-0.003649979
85	0xbdbaf2b1	-0.09128321
86	0xbe93752a	-0.28800327
87	0x3db6f846	0.08934073
88	0xbcbf45cc	-0.023348711
89	0x3d8d83d7	0.06909912
90	0xbd09e8de	-0.033669345
91	0xbe11e438	-0.14247215
92	0x3d1908b1	0.037361804
93	0x3d5f2b90	0.054484904
94	0xbd17bf2e	-0.037047558
95	0xbdb393e6	-0.08768444
96	0xbcf5d84b	-0.030010363
97	0x3d208144	0.039185777
98	0x3d0d2b58	0.034465164
99	0xbdfa6625	-0.12226514
100	0x3dacc6bd	0.08436344
101	0xbd7451c4	-0.05964829
102	0x3e211585	0.15730865
103	0x3e0a8d3d	0.1353044
104	0xbda71eaf	-0.08160149
105	0xbe4cee19	-0.20012702
106	0x3e08b53b	0.13350384
107	0xbd21b8e3	-0.039482962
108	0x3e128358	0.14307916
109	0x3cbcf2e8	0.023065045
110	0x3d110189	0.035401855
111	0x3e44b9f5	0.19211562
112	0x3e088cf2	0.13335016
113	0xbe23c0f0	-0.15991569
114	0xbd93c5a6	-0.07215433
115	0x3d47b78e	0.048759036
116	0x3e047756	0.12936148
117	0x3d3ef546	0.04662063
118	0xbe22277b	-0.15835373
119	0xbde288d7	-0.110612564
120	0xbe5a7621	-0.21334125
121	0x3dd0a784	0.10188201
122	0x3e20cd18	0.15703237
123	0xbe24ceaa	-0.16094461
124	0x3e0a161b	0.13484995
125	0xbe091ea0	-0.13390589
126	0xbe146a53	-0.14493684
127	0xbc1abf9b	-0.009445096
128	0x3e002f6b	0.12518089
129	0x3e3ef50e	0.18648168
130	0xbdb82e2b	-0.08993181
131	0xbb93c1e9	-0.0045092
132	0x3e79b19c	0.24384159
133	0x3c8819c8	0.016613856
134	0xbd14ee4c	-0.03636007
135	0x3e608f24	0.21929604
136	0x3da82c8e	0.08211623
137	0xbd022ff0	-0.031783998
138	0xbe0511b0	-0.12995028
139	0xbe4d5044	-0.2005015
140	0xbe179d4e	-0.148061
141	0xbd2866fe	-0.041113846
142	0xbdd29504	-0.10282329
143	0x3ce47e48	0.027892247
144	0x3d249566	0.04018154
145	0xbe11e74d	-0.1424839
146	0xbd90b8f8	-0.0706653
147	0x3cc299bc	0.023754947
148	0x3d2ca642	0.042150743
149	0x3dc10816	0.094253704
150	0xbdab382f	-0.083603255
151	0x3e2194e3	0.15779452
152	0xbd7a3bfb	-0.061092358
153	0x3b6f3436	0.0036499626
154	0xbde1a423	-0.11017635
155	0xbde9907f	-0.114045136
156	0x3cf99629	0.03046711
157	0xbe16df2a	-0.14733568
158	0x3e1c639e	0.15272376
159	0x3b1878e5	0.0023265418
160	0xbe4556a5	-0.19271334
161	0x3d8e7f5e	0.06957887
162	0xbc4ec85d	-0.0126210125
163	0x3d05b148	0.03263977
164	0xbe09cd13	-0.13457136
165	0xbc67fd99	-0.0141595835
166	0xbdc8e2af	-0.098088615
167	0xbd22f1d4	-0.039781407
168	0xbe5b108f	-0.21393035
169	0xbe2d90ae	-0.16949722
170	0xbe6764b9	-0.22597016
171	0x3cfbb1f9	0.030724512
172	0xbc1a277b	-0.009408827
173	0xbc78bd7e	-0.015181897
174	0x3de22e62	0.11044003
175	0x3e3fe3d2	0.1873925
176	0x3da62938	0.081133306
177	0xbceefc73	-0.029173112
178	0xbdd209b0	-0.10255754
179	0x3dbff767	0.0937336
180	0x3d1fe6db	0.03903852
181	0xbcb678e2	-0.022274438
182	0xbe113d0b	-0.14183442
183	0x3da403af	0.08008515
184	0xbe087a68	-0.13327944
185	0x3db82449	0.08991296
186	0xbe102921	-0.1407819
187	0xbe13051d	-0.1435742
188	0xbd11e0c1	-0.035614733
189	0xbe0a12cb	-0.13483731
190	0x3df8d9a9	0.121508904
191	0xbe064bc3	-0.13114838
192	0x3ca5974a	0.020213742
193	0x3cbd05e3	0.023074096
194	0x3d2616f3	0.04054923
195	0xbd2b1ae2	-0.041773684
196	0x3db75e60	0.089535475
197	0x3d90de01	0.07073594
198	0x3e0c0069	0.13672031
199	0xbe08e3f1	-0.13368203
200	0x3bb9c3bd	0.005669086
201	0xbe1d6c99	-0.15373458
202	0x3dcaba24	0.09898785
203	0xbdc2d514	-0.09513298
204	0x3e592400	0.21205139
205	0x3e4e3dcc	0.20140761
206	0x3c14978a	0.009069333
207	0xbc0ed327	-0.008717335
208	0x3da9210c	0.08258256
209	0x3dfb3c38	0.12267345
210	0x3cacb62e	0.021082964
211	0xbd883cfe	-0.06652258
212	0xbe1d8613	-0.15383177
213	0x3e3708ba	0.17874423
214	0x3daf480d	0.085586645
215	0x3e36c7a8	0.178496
216	0x3e93e44b	0.2888511
217	0xbe8c983d	-0.274599
218	0xbe4b325a	-0.19843426
219	0x3e8e3986	0.27778262
220	0xbe2570be	-0.16156289
221	0x3dd67cb5	0.10473005
222	0xbdedb53a	-0.11606832
223	0xbe0688b5	-0.13138087
224	0x3cafb51d	0.021448666
225	0xbdda47ae	-0.10658203
226	0xbcb5486c	-0.02212926
227	0x3dc2f35d	0.09519074
228	0x3ddc0c79	0.107445665
229	0x3d271999	0.040795896
230	0xbe07faa0	-0.132792
231	0xbe17e40d	-0.14833088
232	0x3e49b9d5	0.19699796
233	0xbd838e57	-0.064236335
234	0xbe28c783	-0.16482358
235	0x3d50787e	0.05089616
236	0xbe464ed6	-0.19366011
237	0x3d7179f8	0.05895421
238	0x3dd58fb4	0.104278
239	0xbe195a6d	-0.14975901
240	0xbe0f8636	-0.14016041
241	0xbb23ed63	-0.002501332
242	0x3ddc45be	0.1075549
243	0x3d359048	0.04432705
244	0xbe163a84	-0.1467076
245	0xbd5a04bb	-0.053227168
246	0xbde2bfb1	-0.110717185
247	0xbcb0eb1e	-0.021596488
248	0xbda1c19f	-0.078982584
249	0x3e89cfd2	0.26916367
250	0x3e617916	0.22018847
251	0xbdb8e39f	-0.0902779
252	0xbcc692f9	-0.024240004
253	0xbc8ade65	-0.01695175
254	0xbdc9ff07	-0.09863096
255	0xbd55714b	-0.052109998

lstm.weight_hh_l0 f4 [128, 32]
0	0x3d643554	0.05571492
1	0x3c5153af	0.012776299
2	0x3dad4d57	0.08462017
3	0x3dabf378	0.08396047
4	0x3e006318	0.12537801
5	0x3d875f3f	0.066099636
6	0xbe19eebb	-0.15032475
7	0xbde6db7e	-0.112723336
8	0xbdf00a0b	-0.117206655
9	0x3db7675b	0.0895526
10	0xbe69f23a	-0.22846308
11	0xbe192123	-0.14954047
12	0x3dfd7f42	0.12377788
13	0xba86bf1a	-0.0010280341
14	0xbe298686	-0.16555223
15	0x3da5f925	0.08104161
16	0xbcdfd7e5	-0.027324626
17	0x3cb01c48	0.02149786
18	0xbd97f66a	-0.07420047
19	0xbd57d4ec	-0.052693292
20	0xba148c11	-0.00056666235
21	0x3e2c67fe	0.16836545
22	0xbaf34410	-0.0018559713
23	0xbdc1f468	-0.09470445
24	0xbdade4cf	-0.084909074
25	0xbdccf144	-0.10006955
26	0x3d59ee8c	0.05320601
27	0x3da41240	0.080112934
28	0xbe3a0be9	-0.18168606
29	0xbcb217ea	-0.021739919
30	0x3d3766e4	0.04477586
31	0xbd95c5a8	-0.073130906
32	0x3dd32e9e	0.10311626
33	0xbde8b832	-0.113632575
34	0xbdbdec97	-0.092736416
35	0xbd7aacd0	-0.061199963
36	0xbc8c5819	-0.017131852
37	0xbe50e835	-0.2040108
38	0x3c3eacc2	0.011637868
39	0x3e089f28	0.13341963
40	0xbd288ffc	-0.04115294
41	0x3d1a5cf0	0.03768629
42	0x3e542d33	0.20720367
43	0x3d2c19b8	0.042016715
44	0x3e339ba0	0.17539835
45	0x3c6c9a1e	0.014441041
46	0x3d63f811	0.055656496
47	0xbe4c271a	-0.19936791
48	0x3c5ee12c	0.01360349
49	0x3e526763	0.20547251
50	0xbbd26574	-0.0064207856
51	0xbe34e435	-0.17665179
52	0x3dc6f7b8	0.09715217
53	0x3e078477	0.13234125
54	0x3e2fd8ab	0.17172496
55	0x3d88cd70	0.06679809
56	0xbc5f1103	-0.013614896
57	0xbd41cce6	-0.047314547
58	0x3c725c8f	0.0147925755
59	0xbe092d56	-0.133962
60	0x3e0ef3cd	0.1396019
61	0x3d4ffcb2	0.0507781
62	0x3e65b864	0.2243362
63	0xbe0d3550	-0.13789868
64	0xbd79919f	-0.06092989
65	0xbd1133f2	-0.03544993
66	0xbe42a408	-0.19007885
67	0x3e1974ab	0.14985912
68	0x3d781710	0.06056887
69	0xbd5bb9ae	-0.053643875
70	0x3e62ae78	0.22136867
71	0x3e49f1b2	0.19721106
72	0xbe2cc698	-0.16872633
73	0x3c80ca2f	0.015721409
74	0x3e3ef042	0.18646339
75	0xbdc130e8	-0.09433156
76	0xbd957c89	-0.07299144
77	0xbe092b03	-0.13395314
78	0x3d5b2bd9	0.053508613
79	0xbd60cc1f	-0.054882165
80	0x3ccf9f87	0.025344623
81	0x3dd22830	0.102615714
82	0xbd050b8b	-0.03248171
83	0xbdf3ab15	-0.11897866
84	0x3dbc9e45	0.09209875
85	0xbd4257ae	-0.0474469
86	0x3d932014	0.07183853
87	0x3d44637d	0.047946442
88	0xbd46f8d5	-0.04857715
89	0xbdbf73ff	-0.093482964
90	0x3ce72565	0.028216073
91	0x3d4e9c9c	0.050442323
92	0xbc79de57	-0.015250764
93	0x3dbfbc75	0.09362117
94	0x3cc27c4c	0.02374091
95	0xbdd5e41d	-0.104439
96	0x3cb7da8a	0.022443075
97	0xbd1fe95b	-0.039040904
98	0xbe0ceffc	-0.13763422
99	0x3da61c63	0.08110883
100	0x3c18d691	0.0093285
101	0x3d9b973f	0.07597207
102	0xbe7e212f	-0.24817346
103	0x3e47d331	0.19514157
104	0xbdee2b88	-0.11629397
105	0x3d657a1c	0.056024656
106	0x3dfc82ea	0.123296574
107	0xbc11d75e	-0.008901445
108	0xbdb5a0a7	-0.08868533
109	0xbddfd0e0	-0.109285116
110	0xbdfb3629	-0.122661896
111	0x3d15e54e	0.036595635
112	0x3d655c21	0.055996064
113	0x3d349b0c	0.044093177
114	0xbd723bbf	-0.05913901
115	0x3d962fd9	0.07333345
116	0x3e03f22f	0.12885354
117	0xbdd33ef5	-0.103147425
118	0x3d16d2f2	0.036822267
119	0x3d44c353	0.04803784
120	0x3db828a2	0.08992125
121	0xbe1cf5e2	-0.15328172
122	0xbe37a9ce	-0.17935869
123	0x3bd7f226	0.0065901456
124	0xbe172413	-0.14759855
125	0x3d1966b7	0.037451472
126	0x3e78db56	0.2430242
127	0xbd106089	-0.035248313
128	0xbc807ee2	-0.015685502
129	0x3cd8dab9	0.026471483
130	0xbdeda406	-0.116035506
131	0x3c7bebaf	0.015376016
132	0xbc0e164a	-0.008672306
133	0x3e4e052a	0.20119157
134	0xbe0ce854	-0.13760501
135	0x3d42e372	0.04758019
136	0xbe71aa46	-0.2360011
137	0xbd82c66b	-0.063855015
138	0xbd380974	-0.04493089
139	0xbbea426a	-0.0071490305
140	0x3dac0ec7	0.08401256
141	0x3d796eb6	0.060896598
142	0xbe33f76a	-0.1757485
143	0xbd2125dd	-0.03934275
144	0xbdee544b	-0.11637171
145	0xbc9bfa27	-0.01904018
146	0x3df33969	0.118761845
147	0x3e1d66a3	0.15371184
148	0xbe587d86	-0.21141633
149	0x3d46871e	0.0484687
150	0xbe11e392	-0.14246967
151	0xbe1cb39b	-0.15302889
152	0x3e44bde3	0.19213061
153	0xbd2fb7c4	-0.042899862
154	0xbdf7a11c	-0.12091276
155	0x3dcd73a4	0.10031822
156	0xbdf0ba7a	-0.117543176
157	0xbe49b807	-0.19699107
158	0xbd530984	-0.051522747
159	0xbd8cca9f	-0.068745844
160	0x3bac4323	0.0052570268
161	0xbc6147fc	-0.013750073
162	0xbe8568b8	-0.26056457
163	0x3e1c7abe	0.15281197
164	0xbe82a094	-0.25513136
165	0x3cfa2ab5	0.030537942
166	0x3e4c676b	0.19961326
167	0x3c894a57	0.01675908
168	0xbe02a29a	-0.1275734
169	0x3d81183c	0.063034505
170	0x3d966de4	0.07345179
171	0x3ca32076	0.01991294
172	0xbddb8ebe	-0.10720585
173	0x3d5b87d4	0.053596333
174	0xbd6adb19	-0.057337854
175	0x3c60bd8e	0.013717068
176	0x3d208dd6	0.039197765
177	0x3d093203	0.03349496
178	0xbdb2bdec	-0.08727631
179	0xbc2379eb	-0.009977798
180	0x3e1431f6	0.14472184
181	0x3cd325b7	0.02577482
182	0x3cfb7c9a	0.030699063
183	0x3da0a48b	0.07843884
184	0x3e28ed0b	0.16496675
185	0x3de50b56	0.11183803
186	0x3e10c61e	0.14138076
187	0xbdb17eed	-0.08666787
188	0xbda51d1c	-0.08062193
189	0xbbdb44a3	-0.0066915317
190	0x3cfffec4	0.031249411
191	0xbd3efaf5	-0.04662605
192	0x3cc014ee	0.02344748
193	0xbdf714e7	-0.12064534
194	0xbdae87a9	-0.08521969
195	0x3e00fe4a	0.12597004
196	0xbda57cb3	-0.08080425
197	0xbd4d48a4	-0.050118104
198	0x3de9c4ae	0.11414467
199	0xbc3330e0	-0.010936946
200	0x3dcdf056	0.10055606
201	0xbe5a0693	-0.2129157
202	0x3d952502	0.07282449
203	0xbdc53ba1	-0.09630514
204	0xbc995a3f	-0.01871979
205	0xbe40e07a	-0.18835631
206	0xbe451b40	-0.19248676
207	0x3e0fc234	0.14038926
208	0xbde2d4e1	-0.1107576
209	0x3b7713d8	0.0037701037
210	0xbc71a195	-0.014747997
211	0x3e2adc38	0.1668557
212	0x3cb17895	0.021663943
213	0x3dc03678	0.09385389
214	0xbd803c41	-0.062614925
215	0xbdaa57f1	-0.08317555
216	0x3e1d404c	0.15356559
217	0x3d9ac9c5	0.07558016
218	0x3de933b8	0.11386818
219	0xbe1826c8	-0.14858544
220	0xbe25bb85	-0.16184814
221	0xbc06c337	-0.008225254
222	0xbd48804d	-0.048950482
223	0x3e10274d	0.14077492
224	0x3dd23b02	0.10265161
225	0xbc657049	-0.014003822
226	0xbe221fa2	-0.1583238
227	0x3e29d572	0.16585329
228	0xbe100af4	-0.14066678
229	0xbe029601	-0.12752534
230	0xbd9b684a	-0.07588251
231	0x3d8c64b1	0.06855143
232	0x3dbd2465	0.09235457
233	0x3dc2ee39	0.095180936
234	0x3de58ce0	0.112085104
235	0x3e1ecef0	0.15508628
236	0xbca82288	-0.020524278
237	0x3e0aeafc	0.13566202
238	0xbe102e79	-0.14080228
239	0xbccab2f8	-0.024743542
240	0x3e055ce8	0.13023722
241	0xbd83f256	-0.06442706
242	0x3db87e2a	0.09008439
243	0x3d574b12	0.052561827
244	0x3d56708d	0.05235343
245	0xbd3b3c4c	-0.0457118
246	0xbe2bfcee	-0.16795704
247	0x3dcb79e7	0.099353604
248	0x3e31ef83	0.17376523
249	0xbe2058f0	-0.15658927
250	0xbce41d50	-0.027846009
251	0x3d0ba86e	0.034096174
252	0x3d41b46d	0.047291208
253	0xbd356ced	-0.044293333
254	0xbd95b60b	-0.073101126
255	0x3e1751a2	0.14777234

lstm.bias_ih_l0 f4 [128]
0	0x3d81120f	0.063022725
1	0xbd774d80	-0.060376644
2	0x3ca1f3e6	0.01976962
3	0xbd8a9eb4	-0.067685515
4	0xbe07f82a	-0.13278261
5	0x3dddbca8	0.10826999
6	0xbe16619b	-0.14685671
7	0x3c9bfd59	0.019041704
8	0xbe1fb523	-0.15596442
9	0x3d833101	0.06405831
10	0x3e01062c	0.1260001
11	0xbe70c769	-0.23513569
12	0xbe251c47	-0.16124068
13	0xbe4d8919	-0.2007183
14	0xbc0af06b	-0.008480172
15	0xbe722f89	-0.23650946
16	0x3d28478f	0.04108387
17	0x3e3a0b9b	0.1816849
18	0xbdc40b34	-0.09572449
19	0x39e689ae	0.00043971598
20	0xbe1eebf1	-0.15519692
21	0xbce76050	-0.028244168
22	0xbdb02de6	-0.086025044
23	0xbc9c34d3	-0.019068157
24	0x3e3394e3	0.17537265
25	0xbdfd98f2	-0.12382688
26	0xbdfddd75	-0.12395755
27	0xbe024d03	-0.1272469
28	0x3deb4e7b	0.11489578
29	0x3e2e845e	0.17042682
30	0xbd2a8102	-0.041626938
31	0x3e72283c	0.2364816
32	0x3d8e4289	0.06946284
33	0xbd9ce757	-0.07661312
34	0x3d174fa1	0.036941174
35	0x3dce1424	0.10062435
36	0xbd40e8ce	-0.04709702
37	0xbe2d9d65	-0.16954572
38	0x3d11c428	0.03558746
39	0xbe43b003	-0.19110112
40	0xbaa4b150	-0.001256505
41	0xbe4deafe	-0.20109174
42	0x3e39839a	0.18116608
43	0xbe2adf97	-0.16686855
44	0xbe00728b	-0.12543695
45	0x3d624301	0.05523968
46	0xbe36d9e6	-0.17856559
47	0x3db50587	0.08838945
48	0xbcf28d01	-0.029608252
49	0x3e08e23c	0.13367552
50	0xbe20bd3d	-0.15697189
51	0xbdbe745d	-0.09299538
52	0x3d815ca6	0.063164994
53	0xbaaaa63c	-0.0013019512
54	0xbd8db614	-0.06919494
55	0x3cd1c4d0	0.025606543
56	0x3da6571d	0.08122084
57	0xbd053ddb	-0.032529693
58	0xbe90bbce	-0.28268284
59	0x3da9e762	0.08296086
60	0x3e256d51	0.16154982
61	0xbdd7bf9a	-0.10534592
62	0xbcf401ea	-0.029786069
63	0x3e3f9785	0.18710144
64	0x3dce3986	0.100695655
65	0xbd8778ed	-0.06614862
66	0x3de8036c	0.11328778
67	0xbe02d645	-0.1277705
68	0x3d8634a9	0.06553013
69	0xbd499668	-0.049215704
70	0x3d3f4baf	0.046703037
71	0x3d862466	0.06549911
72	0xbb953b28	-0.004554171
73	0x3e1a45fe	0.15065762
74	0x3b168a70	0.0022970699
75	0xbdce7f21	-0.10082842
76	0x3e162d47	0.1466571
77	0xbd3ec31f	-0.0465728
78	0xbd4b73f1	-0.049671117
79	0x3c51b9f1	0.01280068
80	0x3ce1e0d9	0.027573036
81	0x3b9af86d	0.0047293217
82	0xbe042093	-0.12903051
83	0xbcf31b81	-0.0296762
84	0xbd041d17	-0.032254305
85	0x3bce0972	0.006287747
86	0xbe0fb757	-0.14034782
87	0x3df105c8	0.11768681
88	0xbaa64da1	-0.001268793
89	0x3ce69d49	0.028151171
90	0x3d299a2e	0.041406803
91	0x3ce8817c	0.028382055
92	0x3dadf7fb	0.08494564
93	0xbd12fde2	-0.035886653
94	0xbdf45b10	-0.11931431
95	0xbe4571bb	-0.19281666
96	0x3cf448c5	0.029819855
97	0x3e147900	0.14499283
98	0x3d303568	0.043019682
99	0xbe37b8ba	-0.17941561
100	0x3dd4e755	0.103956856
101	0x3a05d6e1	0.0005105567
102	0xbe469e11	-0.19396235
103	0x3df6b968	0.12047082
104	0x3e1cbe91	0.1530707
105	0x3df2f489	0.11863048
106	0xbe1fd060	-0.15606833
107	0xbdeb4710	-0.114881635
108	0xbcc088f1	-0.023502799
109	0xbdd7cce8	-0.1053713
110	0xbd833fff	-0.06408691
111	0xbded869f	-0.115979426
112	0xbd2385cd	-0.039922524
113	0xbe1f2391	-0.15540911
114	0xbd930270	-0.07178199
115	0x3d867883	0.065659545
116	0x3dd4fb51	0.10399497
117	0x3ad99871	0.0016601217
118	0xbe2f393d	-0.17111678
119	0xbe5ac51b	-0.21364252
120	0x3e179fe8	0.14807093
121	0x3c641c1d	0.013922718
122	0xbe0042a2	-0.12525418
123	0xbe22ecea	-0.15910688
124	0xbdc43f06	-0.09582333
125	0xbe4484ce	-0.19191286
126	0x3d1969f3	0.037454557
127	0x3b8b6e5d	0.0042550997

lstm.bias_hh_l0 f4 [128]
0	0xbd96a03e	-0.073547825
1	0x3d81c12b	0.06335672
2	0xbb29f982	-0.0025936072
3	0x3ced0545	0.028933177
4	0x3dc584f9	0.09644503
5	0xbe23adbd	-0.15984245
6	0xbd3e2445	-0.046421308
7	0x3e017664	0.12642819
8	0xbb2d8d50	-0.0026481934
9	0xbccd196f	-0.025036542
10	0x3df193c0	0.11795759
11	0xbd524de2	-0.051343806
12	0xbd6e4e87	-0.05818036
13	0x3d83765f	0.06419062
14	0x3c2008ef	0.009767755
15	0xbe7ce3fb	-0.24696343
16	0x3d1da1d3	0.038484406
17	0xbca222de	-0.019792017
18	0xbd3309b9	-0.043710444
19	0xbd9926f8	-0.07478136
20	0x3dd17f0e	0.10229312
21	0xbe733833	-0.23751907
22	0x3c0f7403	0.008755687
23	0xbce528c2	-0.027973536
24	0xbe0601dd	-0.13086648
25	0xbc71bd47	-0.0147546
26	0xbb9de45b	-0.004818482
27	0x3be6cc8f	0.0070434283
28	0x3e239072	0.1597307
29	0x3e1dec5c	0.15422195
30	0x3e0c83c9	0.13722147
31	0x3e814c62	0.25253588
32	0x3df1d239	0.11807675
33	0xbda08c7d	-0.07839296
34	0xbdc85804	-0.09782413
35	0xbe341e7c	-0.17589754
36	0xbdc96bc4	-0.09835008
37	0x3cf0dee2	0.029403154
38	0x3da19929	0.07890541
39	0xbca27997	-0.01983337
40	0x3dc72b56	0.097250625
41	0x3d965339	0.07340092
42	0x3e088bfc	0.1333465
43	0xbcd7cc8d	-0.026342655
44	0xbd52253c	-0.05130504
45	0xbe361eee	-0.17785236
46	0x3d1e7c45	0.03869273
47	0xbe24adff	-0.16081999
48	0xbd7b91f6	-0.061418496
49	0x3e3668d0	0.1781342
50	0x3dfddb19	0.12395305
51	0xbdd95d71	-0.10613526
52	0x3ddbe458	0.107369125
53	0x3d588eae	0.052870445
54	0xbe2adb91	-0.1668532
55	0xbe1e68c5	-0.15469654
56	0x3d84f45d	0.06491921
57	0x3e0797f7	0.13241564
58	0xbe783572	-0.24239138
59	0xbe00b333	-0.12568359
60	0x3e22d4b9	0.1590146
61	0x3e0287cd	0.12747116
62	0xbde9a78c	-0.1140891
63	0x3e56c7b7	0.20974623
64	0xbc93040f	-0.017946271
65	0xbd9ab3d4	-0.07553831
66	0x3dec7a40	0.11546755
67	0x3de11a94	0.109913975
68	0xbda0cf9e	-0.078521
69	0xbe0525c0	-0.13002682
70	0x3e137551	0.14400221
71	0xbccf7eb5	-0.025328973
72	0x3dbc74ab	0.0920194
73	0xbe025482	-0.1272755
74	0xbd8c806d	-0.06860433
75	0x3e011063	0.12603907
76	0x3ba84da2	0.0051362077
77	0xbd234391	-0.03985936
78	0xbd9336d4	-0.07188192
79	0x3d96bfa1	0.07360769
80	0x3ce10368	0.027467445
81	0xbe0e325f	-0.13886403
82	0x3d520fe3	0.051284682
83	0x3da70580	0.08155346
84	0xbd8e0378	-0.06934255
85	0x3de87067	0.11349564
86	0x3db7795a	0.08958693
87	0x3d5d6c85	0.05405857
88	0xbe09eec5	-0.1346999
89	0x3e009014	0.12554961
90	0xbe193534	-0.14961702
91	0xbd9082fc	-0.07056233
92	0x3dc4de01	0.096126564
93	0xbe033212	-0.12812069
94	0x3b8f2ef4	0.004369611
95	0x3cc3a373	0.02388165
96	0xbcb2206f	-0.021743981
97	0x3de16215	0.11005036
98	0xbda23eba	-0.079221204
99	0xbd8f8eb1	-0.07009638
100	0x3dd384d5	0.1032807
101	0xbd6e6837	-0.058204856
102	0xbe0dbe87	-0.13842212
103	0xbdef838a	-0.11695011
104	0x3d83c474	0.06433955
105	0xbd6095e9	-0.054830465
106	0xbd08c150	-0.033387482
107	0x3a9e0f28	0.001205896
108	0xbe507d1b	-0.20360224
109	0xbd9765b2	-0.07392444
110	0xbe683112	-0.22674969
111	0xbd97274f	-0.073805444
112	0xbd3732b7	-0.0447261
113	0xbc0b3447	-0.008496351
114	0xbd12fcaf	-0.03588551
115	0xbd0b5972	-0.03402085
116	0x3c9d305e	0.019188102
117	0x3b0d7479	0.0021584316
118	0xbe10f717	-0.14156757
119	0x3d32ff0a	0.043700255
120	0xbd85f373	-0.06540575
121	0x3da382a3	0.07983901
122	0x3d665e26	0.05624213
123	0x3c42d228	0.0118909255
124	0xbe0a3772	-0.13497713
125	0xbd85b75e	-0.06529115
126	0xbe4f45f6	-0.20241532
127	0xbe0c6d41	-0.13713552

hidden2out.weight f4 [3, 32]
0	0xbc9ba25c	-0.018998317
1	0x3e4167ff	0.18887328
2	0xbd7740e8	-0.060364634
3	0xbd136fcd	-0.035995293
4	0x3c40ad88	0.011760123
5	0xbda0fbe0	-0.07860541
6	0xbd893212	-0.06699003
7	0xbe12772d	-0.14303274
8	0x3d8c82e3	0.06860902
9	0x3dcd3ad2	0.10020985
10	0x3e0d2fe5	0.13787802
11	0xbe0ddd53	-0.1385396
12	0x3da041d3	0.07825055
13	0xbdf24a0d	-0.1183053
14	0x3d55fabe	0.05224108
15	0xbd9a19cd	-0.07524452
16	0xbd274adc	-0.040842876
17	0xbdd49f96	-0.10382001
18	0x3dfd3a0a	0.12364586
19	0xbdd3d545	-0.10343412
20	0x3dd59a3b	0.10429808
21	0x3e1ce17e	0.15320393
22	0xbd0a7f29	-0.033812676
23	0x3d872d47	0.06600433
24	0x3e1239cb	0.14279859
25	0xbe287dfc	-0.16454309
26	0xbded4333	-0.11585083
27	0x3dec84be	0.11548756
28	0xbdad4387	-0.084601454
29	0x3e2842b2	0.16431692
30	0xbe0097e9	-0.12557949
31	0xbcff3d96	-0.031157296
32	0xbdbebf63	-0.09313848
33	0x3abb3eef	0.0014285723
34	0xbd76da6c	-0.060266897
35	0xbde3356b	-0.11094173
36	0x3da423fe	0.080146775
37	0xbcf6b1ab	-0.030114016
38	0xbb4364d7	-0.0029814744
39	0xbd3f9d25	-0.046780724
40	0x3dfa6edf	0.12228178
41	0x3dadaf5c	0.08480713
42	0x3df3830b	0.11890229
43	0xbde2b0b1	-0.110688575
44	0xbdd6c844	-0.104874164
45	0xbdf3e371	-0.119086154
46	0xbc610102	-0.01373315
47	0x3b798ed5	0.003807952
48	0xbc86a0a2	-0.016434018
49	0x3d9c548e	0.07633315
50	0x3de3d07f	0.11123752
51	0x3d1a424b	0.03766088
52	0xbcaa4c8e	-0.020788457
53	0xbbc529ec	-0.0060169604
54	0xbb3e48f7	-0.002903519
55	0x3c57b8fd	0.013166663
56	0xbdea7b87	-0.11449342
57	0x3cf0ee62	0.029410545
58	0xbdd82a5e	-0.10554956
59	0x3e059db6	0.13048443
60	0x3e088296	0.13331065
61	0xbc4a0085	-0.012329225
62	0xbdd9cb66	-0.10634498
63	0xbdaa0f69	-0.083037205
64	0x3cca75ac	0.024714313
65	0x3dbcc131	0.09216536
66	0x3de0353b	0.10947653
67	0x3c90facb	0.017697712
68	0x3e0c0185	0.13672455
69	0xbd238d0a	-0.039929427
70	0xbda26adc	-0.07930538
71	0xbdbd8774	-0.09254351
72	0xbca1ad14	-0.01973585
73	0xbd9c9113	-0.07644858
74	0x3d489688	0.048971683
75	0x3e4fbe81	0.20287515
76	0x3e19e076	0.15027031
77	0xbdf1051a	-0.11768551
78	0x3d47035e	0.048587196
79	0xbd0e52a3	-0.034746777
80	0x3dc23153	0.09482064
81	0xbe0c895c	-0.13724273
82	0xbdc7fe34	-0.09765282
83	0x3d6f9baf	0.05849808
84	0xbd546167	-0.051850703
85	0xbd3506b8	-0.04419586
86	0x3e24dc5c	0.16099685
87	0xbd9a823d	-0.07544372
88	0xbdc2a760	-0.095045805
89	0x3bc2d45e	0.0059457263
90	0x3d9b597d	0.07585428
91	0xbe0f74b5	-0.14009364
92	0x3e181422	0.1485143
93	0xbe07532c	-0.13215321
94	0x3da02b8e	0.078208074
95	0xbe2f2fb7	-0.17108046

hidden2out.bias f4 [3]
0	0x3ccae9b0	0.024769634
1	0xbde1a67e	-0.11018084
2	0xbe01ea30	-0.12686992

std_layer.weight f4 [3, 32]
0	0x3e320b7f	0.17387198
1	0x3d9684e2	0.07349564
2	0xbe180d25	-0.14848764
3	0xbe1ee4e1	-0.15516998
4	0xbc1a9d60	-0.009436935
5	0x3de8df42	0.11370708
6	0x3dc9543e	0.09830521
7	0x3bfefe20	0.007781759
8	0x3cbbdf98	0.022933766
9	0xbe05eaa7	-0.13077794
10	0x3ddcc1d6	0.10779159
11	0xbc9b7480	-0.01897645
12	0xbe11c57d	-0.14235492
13	0xbe0533cc	-0.1300804
14	0xbd152938	-0.036416262
15	0xbde40a2c	-0.11134753
16	0xbd696472	-0.056980558
17	0x3e30a0e9	0.17248882
18	0x3bf90840	0.0075998604
19	0xbdc47ef2	-0.095945254
20	0x3e0d208f	0.13781951
21	0x3e28068d	0.16408749
22	0x3c8cb7e0	0.017177522
23	0xbb913b80	-0.004432142
24	0x3caba680	0.020953417
25	0xbd11f0a8	-0.0356299
26	0x3d066cf0	0.032818735
27	0x3d61a3a0	0.055087686
28	0x3e08a1bb	0.13342945
29	0x3daa6382	0.08319761
30	0x3d0e4538	0.03473398
31	0xbc5a18d0	-0.01331158
32	0x3e0a3d53	0.13499956
33	0x3d92e08c	0.07171735
34	0x3d657cd0	0.056027234
35	0x3df7f68a	0.121075705
36	0x3d157fbc	0.03649877
37	0xbd4a55a4	-0.04939808
38	0x3d38eb34	0.045146182
39	0xbdb3ecde	-0.08785413
40	0x3dddece6	0.108362004
41	0xbd66eada	-0.056376316
42	0x3d25190c	0.04030709
43	0x3d4af2e8	0.04954806
44	0xbe0788a6	-0.13235721
45	0xbe1722ef	-0.1475942
46	0x3df8d446	0.12149863
47	0xbe32b281	-0.17450906
48	0xbd7d71e8	-0.061876208
49	0x3dcebc1a	0.10094471
50	0x3d33f7f0	0.043937624
51	0x3e2d7019	0.16937293
52	0xbe319652	-0.17342499
53	0x3d7b99b0	0.061425865
54	0xbd896c79	-0.06710143
55	0x3d971a36	0.07378046
56	0x3e048b7d	0.12943836
57	0x3df53362	0.11972691
58	0xbe3373f1	-0.17524697
59	0xbd802257	-0.0625655
60	0x3dfd73ee	0.123756275
61	0x3d877fa2	0.06616141
62	0xbe132684	-0.14370161
63	0x3dde9faa	0.10870297
64	0x3dfbb0ee	0.12289606
65	0xbdafbb48	-0.08580643
66	0xbd58103c	-0.052749857
67	0xbe0269a3	-0.1273561
68	0xbe090a42	-0.1338282
69	0xbda74901	-0.08168221
70	0xbd295dac	-0.041349098
71	0x3b8b79c0	0.004256457
72	0x3ddc0bc6	0.10744433
73	0x3e224627	0.15847073
74	0x3c9e7910	0.019344836
75	0x3dd6b37e	0.10483454
76	0x3dd7d042	0.10537769
77	0x3d0db540	0.03459668
78	0xbdab6fbb	-0.0837092
79	0x3d916f42	0.07101299
80	0x3ce1de08	0.027571693
81	0xbe0fa78a	-0.14028755
82	0xbd63cef6	-0.055617295
83	0xbd8decac	-0.06929907
84	0x3d7da528	0.061925083
85	0xbda789f5	-0.0818061
86	0x3d97e12a	0.074159935
87	0xbc20ac10	-0.009806648
88	0xbcf75e60	-0.030196369
89	0x3d8bb678	0.068219125
90	0x3ddd2b12	0.10799231
91	0x3d5ebf8c	0.054381892
92	0x3cf768c0	0.030201316
93	0xbc31bde0	-0.010848492
94	0xbd014e04	-0.031568542
95	0x3db0e032	0.08636512

std_layer.bias f4 [3]
0	0xbd13db44	-0.03609778
1	0x3e093609	0.13399519
2	0x3de4a392	0.11164011

exp_avg f4 [128, 12]
0	0xb6d4b2b0	-6.3388943e-06
1	0x38ffbfea	0.00012195094
2	0x390c19a7	0.00013360997
3	0xb9d194e3	-0.00039974516
4	0xb98eada7	-0.00027213732
5	0x3a97ebbb	0.0011590639
6	0x389de158	7.528317e-05
7	0x3948d512	0.00019152861
8	0x399f55e1	0.00030390828
9	0x396820fe	0.00022137535
10	0x3a819e70	0.0009889137
11	0x3ae7a933	0.0017674327
12	0x3a8c5fcc	0.0010709702
13	0x3a2efb05	0.0006674978
14	0x386eb6c5	5.691384e-05
15	0xba8b3eb5	-0.0010623547
16	0x3ac2a5ef	0.0014850477
17	0x3b8a98fa	0.004229662
18	0x38bdf9c7	9.058747e-05
19	0xb640ae03	-2.8711518e-06
20	0x3a602221	0.00085500075
21	0x3b4c1f85	0.0031146717
22	0x3b851366	0.0040611504
23	0x3c12ffc1	0.008972109
24	0x3925da93	0.00015817051
25	0xba8b8520	-0.0010644533
26	0xba149223	-0.0005667528
27	0x3ab8960b	0.0014082802
28	0x3a8867bc	0.0010406892
29	0xbbc0429c	-0.0058673155
30	0xba9808ff	-0.0011599361
31	0xbb160171	-0.0022889043
32	0xbb1ecef1	-0.0024232233
33	0xbb5343f9	-0.003223656
34	0xbbb0f0f4	-0.0053998176
35	0xbc2a56f4	-0.010396708
36	0x39bd7d6c	0.00036142336
37	0xba105728	-0.00055061514
38	0xba50b2f3	-0.0007961236
39	0x3b0a9fc6	0.0021152361
40	0x3aae7098	0.0013308702
41	0xbb98da4e	-0.004664696
42	0xb989cef2	-0.00026284863
43	0x3a41f69e	0.00073991145
44	0xba214c29	-0.00061530113
45	0x3a2b3214	0.00065305945
46	0x3ab3e7f9	0.001372575
47	0xbb03b51b	-0.002009696
48	0x3960b203	0.00021428619
49	0x3a04729d	0.0005052479
50	0x39f6b69e	0.00047056837
51	0xbad7b008	-0.001645566
52	0xb9c29a24	-0.00037117407
53	0x3b9e5e17	0.0048329937
54	0x3a1a8aee	0.0005895336
55	0x3a980faa	0.0011601348
56	0x3aec4309	0.0018025349
57	0x3b9fa061	0.0048714136
58	0x3bbeb7c6	0.0058202473
59	0x3c342e3c	0.010997351
60	0xb914ea7c	-0.00014201732
61	0xba490abd	-0.00076691416
62	0xb9b7d0b0	-0.00035059964
63	0x3adbe671	0.0016777051
64	0xb8f50df9	-0.00011685113
65	0xbb8a36c8	-0.004217956
66	0xb9fa59e9	-0.00047750704
67	0x394f53d0	0.00019772281
68	0xba891db7	-0.0010461126
69	0xbb185f23	-0.0023250065
70	0xbb50d2f6	-0.0031864024
71	0xbbe2d761	-0.006922648
72	0xb93e1c51	-0.0001813036
73	0x39604805	0.00021389134
74	0xb96e6b0e	-0.0002273733
75	0x399a0a89	0.00029381018
76	0x38fb3570	0.00011978566
77	0xba2b3e80	-0.00065324455
78	0x39d92567	0.00041417332
79	0xb9887a00	-0.00026030838
80	0xba129217	-0.0005591227
81	0xb9aec3cd	-0.0003333375
82	0x39fdcf22	0.00048410246
83	0xb9d592d0	-0.0004073591
84	0xbae3291d	-0.0017330978
85	0xbad6d07a	-0.0016389035
86	0xb8ae7300	-8.318387e-05
87	0x3b18b215	0.0023299505
88	0xbb17b6e0	-0.0023149773
89	0xbc05d31b	-0.008168007
90	0xba0e72f4	-0.00054339995
91	0x39a8804a	0.0003213904
92	0xbae4b3c1	-0.001744859
93	0xbbcf955c	-0.0063349437
94	0xbbccdc3e	-0.006251841
95	0xbc7e1f87	-0.015510446
96	0xb84cc24b	-4.881834e-05
97	0xb8b29711	-8.51584e-05
98	0xb8ad7cac	-8.272505e-05
99	0x3952fc75	0.00020121208
100	0xb979c062	-0.00023818159
101	0xb8fd2aaa	-0.00012071927
102	0xb87c92df	-6.0218266e-05
103	0x3a33c154	0.0006857116
104	0xb882f2cf	-6.24411e-05
105	0xb8c9bde6	-9.619798e-05
106	0x3b05954c	0.0020383177
107	0x3a86a577	0.0010272701
108	0x38460558	4.7211855e-05
109	0x38d4e459	0.00010151481
110	0x3955f7ac	0.00020405528
111	0xb9775731	-0.00023588237
112	0x38c5e2ea	9.435958e-05
113	0x3a8d72f2	0.0010791703
114	0x393e1b5b	0.00018130003
115	0x3990840a	0.00027564197
116	0x39cb7277	0.0003880446
117	0x39ef440d	0.00045636334
118	0x3a200c12	0.0006105314
119	0x3b0a9878	0.0021148007
120	0xbaa6d72d	-0.0012728922
121	0xba487f43	-0.0007648358
122	0x3a69deca	0.0008921443
123	0xba0bbef0	-0.0005330881
124	0xbb307f8a	-0.0026931488
125	0x3a133ba4	0.0005616492
126	0x3a2d9c32	0.0006622701
127	0x3b00328c	0.0019561378
128	0x3a9be8e0	0.0011894964
129	0x39baa831	0.00035601997
130	0x3b8351fd	0.0040075765
131	0x3b163402	0.0022919183
132	0xba9d6782	-0.0012008997
133	0xb9f626a3	-0.00046949563
134	0x39d2df21	0.00040220565
135	0xbaabc77e	-0.0013105718
136	0xbb1dc09a	-0.0024071098
137	0xba295cb1	-0.00064606505
138	0x3997a8d0	0.0002892674
139	0xb9bb6d66	-0.00035748928
140	0x38a4a437	7.850717e-05
141	0xbb801249	-0.0039084298
142	0x3b22b1cf	0.002482522
143	0xbb1d8b09	-0.002403917
144	0xbae94080	-0.0017795712
145	0xbb6dddab	-0.0036295454
146	0xbb4318d5	-0.002976944
147	0x3c28e488	0.010308392
148	0x3adf87e1	0.0017054045
149	0xbcfed902	-0.031109337
150	0xbb66fdb2	-0.003524643
151	0xbbc0c178	-0.0058824383
152	0xbc1ef795	-0.009702583
153	0xbca1d5fa	-0.019755352
154	0xbd04c681	-0.03241587
155	0xbd708ead	-0.058729816
156	0xb9b14b44	-0.00033816148
157	0x3b153b30	0.0022770874
158	0x3ae72b34	0.0017636777
159	0xbbc23da9	-0.0059277606
160	0xbb05135e	-0.0020305733
161	0x3c6ede9b	0.0145794405
162	0x3ad2d870	0.0016086232
163	0xba9388fc	-0.0011256034
164	0x3b1db6ec	0.0024065329
165	0x3b9e0265	0.004822063
166	0x3ae0c8b0	0.0017149653
167	0x3c56c2cd	0.013107968
168	0xb752c8bb	-1.2563712e-05
169	0xb90adcb0	-0.00013242918
170	0xb9572460	-0.00020517549
171	0x3a31ba1f	0.00067797484
172	0x39dd54f9	0.00042215714
173	0xbaea8289	-0.0017891686
174	0xb9043766	-0.00012609139
175	0xba09646e	-0.00052411004
176	0xba3e8d8e	-0.0007269018
177	0xbaa4ad86	-0.0012563921
178	0xbb22c5ce	-0.002483714
179	0xbb702779	-0.0036644621
180	0xb8e5e85a	-0.0001096285
181	0xb8c76a1c	-9.508824e-05
182	0x38868efd	6.4162516e-05
183	0xb91f544a	-0.00015194822
184	0xb9c28678	-0.0003710275
185	0x37fb77dc	2.9977346e-05
186	0xb8b5c180	-8.666795e-05
187	0x388af4cf	6.625952e-05
188	0x390862c8	0.0001300677
189	0x39833498	0.00025025452
190	0x3a0cb6df	0.0005367826
191	0x39cc12ae	0.0003892383
192	0x38d2c355	0.00010049964
193	0xb86dcd95	-5.6696666e-05
194	0xb97a6c0c	-0.00023882109
195	0x39ff8449	0.0004873595
196	0x39e7e5e3	0.00044231032
197	0xbaa6728f	-0.0012698936
198	0xb91f9dc8	-0.000152222
199	0xb9d6b559	-0.00040952375
200	0xba06822d	-0.0005131092
201	0xb9da8cfa	-0.00041685236
202	0xba9c5903	-0.0011928383
203	0xbafb04b0	-0.0019151177
204	0xb93c106d	-0.00017935196
205	0xb98515d1	-0.0002538399
206	0x39ca4d36	0.0003858597
207	0xb9ae2b64	-0.00033220195
208	0xb9c6b709	-0.00037901875
209	0x3a26f1dd	0.0006368438
210	0xb8c53588	-9.403663e-05
211	0x3a11c62c	0.0005560841
212	0x3a2bafd7	0.00065493345
213	0x391f8670	0.00015213504
214	0x3a189bf7	0.00058215804
215	0x3a731baa	0.00092738366
216	0x39ef4c7c	0.00045642618
217	0xba536195	-0.0008063552
218	0xba949c1a	-0.0011338026
219	0x3a97b652	0.0011574721
220	0x3b1382c5	0.0022508365
221	0xbc03e4cc	-0.008050155
222	0xbacc34c6	-0.0015579693
223	0xbbb4718d	-0.0055067004
224	0xbb64b9a3	-0.0034900687
225	0xbba74789	-0.005104963
226	0xbc27a756	-0.010232767
227	0xbc8718b2	-0.016491268
228	0x38b6aaa7	8.710223e-05
229	0x38fbd0c4	0.00012007498
230	0xb8f19fe3	-0.00011521557
231	0x3939a4df	0.00017704394
232	0x39b07d90	0.00033662887
233	0xb937c245	-0.00017524611
234	0x3920c73c	0.0001533301
235	0xb900df61	-0.00012290246
236	0xb9794df5	-0.00023775532
237	0xb93e2f68	-0.00018137472
238	0xba1e43a6	-0.0006037302
239	0xba339fcd	-0.000685212
240	0xb96bf26e	-0.00022501659
241	0xb9bd41d1	-0.00036097926
242	0x39e40b35	0.000434959
243	0xb9b4beac	-0.00034474337
244	0xba44b35c	-0.0007503533
245	0x3a3552f8	0.00069169654
246	0xb82d5838	-4.1328574e-05
247	0x39beff06	0.0003642963
248	0x39cfaf78	0.0003961285
249	0x3975f732	0.00023457108
250	0x3a9c7a3d	0.0011938285
251	0x3a828f0b	0.0009960843
252	0x39df2edf	0.00042568796
253	0x3917696f	0.00014439759
254	0xb93969c6	-0.00017682379
255	0x39a83f1a	0.0003209047

exp_avg_sq f4 [128, 12]
0	0x3317c15f	3.5333297e-08
1	0x33c5c86d	9.2099846e-08
2	0x342f5da9	1.6332218e-07
3	0x34c3cab9	3.646908e-07
4	0x34889055	2.543699e-07
5	0x361dd15e	2.351669e-06
6	0x33ba34c6	8.6708994e-08
7	0x345a122e	2.0309446e-07
8	0x34cc11fa	3.801104e-07
9	0x35206944	5.9757826e-07
10	0x35b4462f	1.3431471e-06
11	0x36703af2	3.5797098e-06
12	0x366ad018	3.4989844e-06
13	0x37027907	7.776783e-06
14	0x36986692	4.5418938e-06
15	0x380cabd2	3.353862e-05
16	0x37971a4c	1.8012848e-05
17	0x3984a005	0.00025296226
18	0x37509030	1.2431337e-05
19	0x36cea6fb	6.1587175e-06
20	0x37e30566	2.7063023e-05
21	0x38ed5fa1	0.00011318853
22	0x3951c284	0.00020004256
23	0x3a3c6e75	0.000718809
24	0x37749a73	1.4579494e-05
25	0x372c1dbd	1.0258923e-05
26	0x37763cc1	1.4676888e-05
27	0x383ba1ff	4.4735145e-05
28	0x388297c5	6.227152e-05
29	0x397fe25e	0.00024403023
30	0x37833661	1.5641739e-05
31	0x37358372	1.0819045e-05
32	0x3818840e	3.636261e-05
33	0x38fe263b	0.00012118785
34	0x3906cce5	0.00012855565
35	0x3a110159	0.0005531512
36	0x36550a85	3.1745597e-06
37	0x3690ad99	4.311744e-06
38	0x35710074	8.9780156e-07
39	0x371057be	8.603498e-06
40	0x3717427c	9.015781e-06
41	0x38ff096d	0.00012161103
42	0x36032146	1.9539889e-06
43	0x371ee649	9.471151e-06
44	0x36884dc9	4.0621712e-06
45	0x38518601	4.9954284e-05
46	0x38a7d183	8.002205e-05
47	0x3944f0ce	0.00018781723
48	0x3660db3d	3.3506215e-06
49	0x36db0caf	6.528185e-06
50	0x35e88b4b	1.7325887e-06
51	0x37060616	7.988439e-06
52	0x37675cfd	1.37903235e-05
53	0x3922f71f	0.00015541584
54	0x36274747	2.4926428e-06
55	0x36405c5f	2.8663997e-06
56	0x373a2751	1.1095618e-05
57	0x38b8d4c9	8.813438e-05
58	0x38f06245	0.00011462396
59	0x3a0f03a3	0.0005455559
60	0x35930c88	1.0956e-06
61	0x365dd41a	3.3055026e-06
62	0x35a3202b	1.2153808e-06
63	0x36a5b419	4.9383493e-06
64	0x36e3ccd8	6.788974e-06
65	0x38615a53	5.37283e-05
66	0x360b14db	2.0724754e-06
67	0x358b6f54	1.0388708e-06
68	0x36998586	4.5752995e-06
69	0x37f1c6f2	2.882208e-05
70	0x383bd17d	4.4779375e-05
71	0x3947ce58	0.00019054988
72	0x34a2f3a8	3.0352135e-07
73	0x368a1c86	4.116041e-06
74	0x366df240	3.545676e-06
75	0x36a941f9	5.0442727e-06
76	0x36d1600b	6.2398663e-06
77	0x37ea5543	2.7934677e-05
78	0x360bb807	2.0819732e-06
79	0x365656ca	3.1939003e-06
80	0x36dc8b33	6.572716e-06
81	0x37178df4	9.033352e-06
82	0x37b636d6	2.1721626e-05
83	0x388b15a7	6.6320696e-05
84	0x37570cf9	1.2818019e-05
85	0x37839ebb	1.5690332e-05
86	0x366ce46d	3.5299702e-06
87	0x37cb8384	2.4260728e-05
88	0x383109fc	4.2209387e-05
89	0x39d513a9	0.00040641174
90	0x3719cfb1	9.167868e-06
91	0x36bfb5c9	5.713406e-06
92	0x37e99f0a	2.7849823e-05
93	0x3975810f	0.00023413099
94	0x399c3231	0.00029792034
95	0x3abc9f50	0.001439074
96	0x358c6e49	1.046291e-06
97	0x36979d09	4.518432e-06
98	0x3612c147	2.1868198e-06
99	0x37210b73	9.5990135e-06
100	0x36a165b5	4.810014e-06
101	0x38992b97	7.303728e-05
102	0x36e101f3	6.7057495e-06
103	0x360ddfd2	2.1140918e-06
104	0x36e48484	6.8103564e-06
105	0x38320bcb	4.244949e-05
106	0x384183df	4.61376e-05
107	0x3942ec87	0.00018589395
108	0x35bea56b	1.4204246e-06
109	0x35ee455e	1.775257e-06
110	0x3599d9fc	1.146283e-06
111	0x36251972	2.4601727e-06
112	0x36a5029a	4.917686e-06
113	0x38253c86	3.9395432e-05
114	0x36502757	3.1017314e-06
115	0x36903f02	4.2988695e-06
116	0x36509635	3.1081847e-06
117	0x38019bcf	3.0901105e-05
118	0x380613ab	3.1966407e-05
119	0x37f2b784	2.8934104e-05
120	0x371e34f0	9.429859e-06
121	0x371276b8	8.7299195e-06
122	0x36bc2c27	5.6079766e-06
123	0x3726850e	9.92535e-06
124	0x3823648b	3.8955866e-05
125	0x38a47c95	7.8433346e-05
126	0x36c5abc3	5.891053e-06
127	0x36e79f1a	6.9028583e-06
128	0x371cea36	9.352856e-06
129	0x389fe0f8	7.6236145e-05
130	0x38a4d5dc	7.859964e-05
131	0x399450c6	0.0002828894
132	0x3812cd46	3.500029e-05
133	0x3845c7ad	4.7154423e-05
134	0x36d375a7	6.3019866e-06
135	0x37d71436	2.5639409e-05
136	0x393c0c39	0.0001793363
137	0x3a992659	0.0011684402
138	0x378115fb	1.5388234e-05
139	0x37ab0041	2.0384907e-05
140	0x38962bba	7.160702e-05
141	0x3a62c7d0	0.000865099
142	0x3a5b64a5	0.0008369184
143	0x3b9a139f	0.004702046
144	0x37cb4d36	2.423544e-05
145	0x38e1c98e	0.000107663785
146	0x389b2d0c	7.3993666e-05
147	0x39df2b46	0.00042566116
148	0x38eb4ba8	0.00011219765
149	0x3b9a9317	0.0047172415
150	0x38cff3e6	9.915959e-05
151	0x389acd0b	7.3814845e-05
152	0x39df1735	0.00042551165
153	0x3b0eed16	0.0021808795
154	0x3b3714ec	0.0027936054
155	0x3c57651a	0.013146663
156	0x3792bc97	1.7492375e-05
157	0x37da28ec	2.600668e-05
158	0x36f5a050	7.320232e-06
159	0x3809bcf7	3.2839333e-05
160	0x386dbd75	5.668165e-05
161	0x3a0c3565	0.00053485326
162	0x37963b95	1.7909138e-05
163	0x37b70bd6	2.1820812e-05
164	0x37dadc78	2.6090289e-05
165	0x399bff54	0.00029754138
166	0x39b85715	0.00035160096
167	0x3a9590dd	0.001141097
168	0x34c5b32a	3.6824468e-07
169	0x35b7e19d	1.3700225e-06
170	0x35853d78	9.927162e-07
171	0x36a59be9	4.9355335e-06
172	0x3543e30a	7.2973546e-07
173	0x387e1a49	6.05828e-05
174	0x3539454f	6.901873e-07
175	0x36091237	2.0425193e-06
176	0x36259ddb	2.46788e-06
177	0x373e85f5	1.1356072e-05
178	0x37aaf7eb	2.0381025e-05
179	0x388d37c3	6.73379e-05
180	0x3430e854	1.6475798e-07
181	0x3444f78f	1.8343984e-07
182	0x342a4198	1.5856347e-07
183	0x34d1179a	3.8946456e-07
184	0x349886be	2.8410244e-07
185	0x369f1f64	4.7422236e-06
186	0x340e0810	1.3227714e-07
187	0x3456f38a	2.0018902e-07
188	0x34617086	2.0995694e-07
189	0x355d2c64	8.239351e-07
190	0x35946dee	1.1058853e-06
191	0x35967117	1.1208784e-06
192	0x3423fe43	1.5273058e-07
193	0x3453ba36	1.971865e-07
194	0x34fa02db	4.6568206e-07
195	0x358e53b4	1.0604185e-06
196	0x35675005	8.617065e-07
197	0x3701a8d5	7.728308e-06
198	0x34d32d77	3.9334893e-07
199	0x34ba5dec	3.4713537e-07
200	0x359c5916	1.1648833e-06
201	0x36249696	2.4525557e-06
202	0x369119d6	4.3243444e-06
203	0x378d5a90	1.6850681e-05
204	0x35764d96	9.1755044e-07
205	0x35380825	6.8557193e-07
206	0x368bbd75	4.1645785e-06
207	0x368168ad	3.8566855e-06
208	0x36370b76	2.7275796e-06
209	0x3742ed2c	1.1618522e-05
210	0x3609bb3d	2.0523578e-06
211	0x35f90d92	1.8555895e-06
212	0x36ee72cd	7.1063173e-06
213	0x3681b851	3.865957e-06
214	0x361e3d79	2.3579616e-06
215	0x37732d7a	1.4494517e-05
216	0x38bf20cb	9.113698e-05
217	0x385b96e2	5.235419e-05
218	0x37947754	1.7698541e-05
219	0x38adc3b3	8.285735e-05
220	0x39cd9af7	0.00039216105
221	0x3a31dd75	0.0006785014
222	0x37dda469	2.6421812e-05
223	0x37940dac	1.7649341e-05
224	0x382bfad2	4.100317e-05
225	0x3a21f7ee	0.0006178607
226	0x39fe7a14	0.0004853761
227	0x3b377af1	0.0027996863
228	0x33c4f8f9	9.172249e-08
229	0x3415c22d	1.3947347e-07
230	0x341a35c2	1.4361925e-07
231	0x3510886c	5.38427e-07
232	0x353f1fd6	7.119937e-07
233	0x367500bf	3.650828e-06
234	0x342e62a2	1.6240895e-07
235	0x34a055cc	2.9864748e-07
236	0x34c428d6	3.6537557e-07
237	0x353340c6	6.6776954e-07
238	0x3607a243	2.0211016e-06
239	0x368fa081	4.280417e-06
240	0x34f55359	4.569545e-07
241	0x354143b5	7.199663e-07
242	0x35c3423b	1.4547908e-06
243	0x3642e645	2.9042287e-06
244	0x36118830	2.1685955e-06
245	0x37917635	1.7340391e-05
246	0x35e9105f	1.7364617e-06
247	0x35c7c6c7	1.4884507e-06
248	0x361ace45	2.3067853e-06
249	0x365c5a23	3.283502e-06
250	0x3677a0b0	3.68994e-06
251	0x37130772	8.763616e-06
252	0x3576282c	9.17006e-07
253	0x3607d4cd	2.0240434e-06
254	0x3551d978	7.8175026e-07
255	0x36d66d72	6.390438e-06

exp_avg f4 [128, 32]
0	0xb6955010	-4.4498665e-06
1	0xb7eb33b4	-2.803826e-05
2	0x384e0706	4.912077e-05
3	0x35e40b20	1.6990562e-06
4	0x3766f6df	1.3766547e-05
5	0xb7e5b279	-2.7382035e-05
6	0xb79add07	-1.8461154e-05
7	0xb7b1a3ef	-2.1176382e-05
8	0x36dfee63	6.6736698e-06
9	0xb63aa378	-2.7811311e-06
10	0x379384c6	1.7585593e-05
11	0xb60782a8	-2.019262e-06
12	0x37fcbdb9	3.0129087e-05
13	0xb6d67ea7	-6.3924413e-06
14	0x3794a43c	1.7719452e-05
15	0x35b0e6f9	1.3180244e-06
16	0x371e7e4b	9.446939e-06
17	0x390d4286	0.0001347159
18	0xb83a7ae6	-4.4460314e-05
19	0xb66d2ed4	-3.534301e-06
20	0xb6b409bf	-5.3655526e-06
21	0xb6e82c90	-6.9193266e-06
22	0x35031a28	4.8839365e-07
23	0x37742e2b	1.4554283e-05
24	0xb6815f13	-3.8555677e-06
25	0xb838c670	-4.4053828e-05
26	0x35c8bbbf	1.4955802e-06
27	0xb7b094bb	-2.1050093e-05
28	0x381524b2	3.5558543e-05
29	0x38933b27	7.020524e-05
30	0x36b2eead	5.332599e-06
31	0xb84f8d89	-4.948446e-05
32	0xb5450441	-7.339441e-07
33	0x385625ec	5.1056893e-05
34	0xb7f4a02e	-2.9161656e-05
35	0xb8be8cf5	-9.086161e-05
36	0x3894832c	7.0816226e-05
37	0xb85c545b	-5.253065e-05
38	0xb651e808	-3.1278487e-06
39	0xb83eb164	-4.5464738e-05
40	0x3876e617	5.886526e-05
41	0x36acffce	5.155779e-06
42	0x389ca6f1	7.469755e-05
43	0x37d1f7bc	2.5030102e-05
44	0x3820fca3	3.838226e-05
45	0x3801b91a	3.0928386e-05
46	0x370f057b	8.52474e-06
47	0x360725bd	2.0138534e-06
48	0x33d11759	9.736568e-08
49	0x39a20a37	0.00030906659
50	0xb95bcdec	-0.0002096218
51	0xb69e562c	-4.7187987e-06
52	0x36a853ed	5.0165604e-06
53	0xb7bf0084	-2.2769214e-05
54	0x36738407	3.6286672e-06
55	0xb684645c	-3.94559e-06
56	0x371488b7	8.853319e-06
57	0xb94afc2d	-0.00019358164
58	0x351a6d4b	5.752851e-07
59	0xb6980297	-4.5302545e-06
60	0x37540c61	1.2639067e-05
61	0x394850a6	0.0001910353
62	0xb94459df	-0.00018725496
63	0xb93c4a3e	-0.00017956735
64	0x37a248f8	1.9345884e-05
65	0x397e2d04	0.00024240097
66	0xb994d03e	-0.00028383912
67	0x352ac098	6.3610196e-07
68	0xb8dc7632	-0.00010512433
69	0x38af11cf	8.3479674e-05
70	0x383bdeac	4.4791654e-05
71	0x3872b94e	5.7869875e-05
72	0x37bd8417	2.2592065e-05
73	0x37013f1c	7.703693e-06
74	0xb898ef5c	-7.292509e-05
75	0xb793aa34	-1.7603023e-05
76	0xb92555f8	-0.00015767652
77	0x38dfea04	0.000106770574
78	0xb88ac838	-6.6176464e-05
79	0x3721f1c1	9.6526355e-06
80	0xb8470119	-4.744632e-05
81	0xba2c670d	-0.0006576635
82	0x39765d63	0.00023495177
83	0x376be745	1.4060938e-05
84	0xb7fdf9b4	-3.0276227e-05
85	0x38ef4300	0.00011408888
86	0x36bd7629	5.6463946e-06
87	0xb88771e0	-6.4585125e-05
88	0xb7a59c1c	-1.9742227e-05
89	0x39450280	0.00018788315
90	0xb69160ab	-4.3325904e-06
91	0x3928f856	0.00016114241
92	0xb8b9887b	-8.846909e-05
93	0xb9c1214b	-0.00036836634
94	0x378b208e	1.658525e-05
95	0x396bdc01	0.00022493304
96	0x3610be82	2.1568562e-06
97	0x38a33709	7.782697e-05
98	0xb981ca41	-0.00024755488
99	0x37794017	1.4856479e-05
100	0x37e0e7af	2.6810767e-05
101	0x38b29b0f	8.516583e-05
102	0x388415a6	6.298283e-05
103	0x38b9d20f	8.860614e-05
104	0xb7b2acb9	-2.1299684e-05
105	0x3802a02a	3.114358e-05
106	0xb903ca9b	-0.0001256861
107	0x3795775f	1.781777e-05
108	0xb97dde10	-0.00024210685
109	0xb9495b6b	-0.0001920291
110	0xb8da3a95	-0.00010405962
111	0xb7ece46f	-2.8239765e-05
112	0xb82ce32d	-4.121957e-05
113	0xb9dfac49	-0.00042662237
114	0x3892553b	6.977698e-05
115	0x3792dc94	1.7507271e-05
116	0x389595c3	7.132769e-05
117	0xb8ec7da4	-0.00011276759
118	0xb7247813	-9.803119e-06
119	0xb8a5a050	-7.897674e-05
120	0x38d76c5a	0.00010272181
121	0x37cae0b4	2.4184912e-05
122	0x35238b3a	6.0924833e-07
123	0x37f14ba0	2.8764654e-05
124	0xb978bbb6	-0.00023721051
125	0xb9810965	-0.00024611797
126	0x38501d31	4.961825e-05
127	0x39275c6a	0.00015960788
128	0xb75304b5	-1.2577676e-05
129	0xb8611872	-5.3666947e-05
130	0x38fb0513	0.00011969558
131	0xb87440b4	-5.8234393e-05
132	0x38c35dd6	9.315803e-05
133	0xb88724e6	-6.4441745e-05
134	0xb8163927	-3.5816014e-05
135	0xb886afbb	-6.42235e-05
136	0x381865e6	3.6334524e-05
137	0x380853f1	3.2503103e-05
138	0x390b0caa	0.00013260791
139	0x36e6764e	6.8683066e-06
140	0x38b43acf	8.594023e-05
141	0xb881fc86	-6.1982355e-05
142	0x37ecd7e6	2.8233928e-05
143	0xb73ff7d1	-1.1442186e-05
144	0x37326344	1.0632739e-05
145	0x39f6cc2c	0.00047072896
146	0xb9760792	-0.00023463208
147	0x36194f4a	2.284493e-06
148	0xb7710047	-1.4364784e-05
149	0xb8804d18	-6.1178755e-05
150	0x37061fb9	7.994408e-06
151	0x372d04ed	1.031275e-05
152	0xb89fa9b4	-7.6133205e-05
153	0xb956fa75	-0.00020501933
154	0xb5923291	-1.0892564e-06
155	0xb82bc34f	-4.0951472e-05
156	0x373e0ba5	1.1327594e-05
157	0x3997a64b	0.00028924862
158	0xb81eac57	-3.783064e-05
159	0xb95aff5e	-0.00020885232
160	0x35765ddb	9.177872e-07
161	0x37ade5f8	2.0730295e-05
162	0xb86bf006	-5.6251905e-05
163	0x3846344d	4.7255588e-05
164	0xb8325b00	-4.2523257e-05
165	0x38bc3acc	8.97549e-05
166	0xb687f384	-4.0516625e-06
167	0x387df16a	6.0544735e-05
168	0xb899238f	-7.302232e-05
169	0xb69a1694	-4.592186e-06
170	0xb8f10887	-0.00011493364
171	0xb4d3bc76	-3.9438936e-07
172	0xb8a74170	-7.975369e-05
173	0xb84a57fd	-4.82425e-05
174	0xb8091a0a	-3.2687596e-05
175	0xb6b36317	-5.3461513e-06
176	0xb7504eea	-1.241614e-05
177	0xb9b73d04	-0.0003494994
178	0x39294007	0.00016140948
179	0x364ca021	3.0491576e-06
180	0x375313c5	1.2581183e-05
181	0xb77b4093	-1.4975801e-05
182	0xb60e64cb	-2.1218318e-06
183	0xb7a8f49a	-2.0141062e-05
184	0x3821dc5c	3.8590617e-05
185	0x390d0ff1	0.00013452746
186	0x34667674	2.1463512e-07
187	0x376557c6	1.36699e-05
188	0xb85f176f	-5.3189167e-05
189	0xb980d13a	-0.00024569948
190	0x3811ed94	3.4791956e-05
191	0x392a5c89	0.00016246935
192	0x375355fb	1.2596599e-05
193	0xb87536f9	-5.846375e-05
194	0xb8a2760c	-7.74675e-05
195	0x3816f37e	3.5989557e-05
196	0xb788d53a	-1.6311755e-05
197	0xb59a7d3f	-1.1510346e-06
198	0x383f29ad	4.5576762e-05
199	0x37a5cb48	1.9764193e-05
200	0xb82e86b6	-4.1610292e-05
201	0xb746ae2a	-1.184227e-05
202	0xb82a3783	-4.0582858e-05
203	0x36ec0393	7.033764e-06
204	0xb8acff84	-8.2491926e-05
205	0xb7c53b28	-2.3511777e-05
206	0xb7f2ac9b	-2.8929024e-05
207	0xb6a7f29b	-5.005231e-06
208	0xb69bfdb2	-4.648894e-06
209	0xb919f77a	-0.00014683409
210	0x379e6ffd	1.8887216e-05
211	0x37653bbc	1.3663372e-05
212	0x38414749	4.6081175e-05
213	0xb67b5c97	-3.745581e-06
214	0xb7115736	-8.662979e-06
215	0xb7a2618d	-1.935733e-05
216	0x383d530e	4.5138462e-05
217	0x37a430eb	1.9573103e-05
218	0xb6b007ba	-5.2461082e-06
219	0xb7cbd05a	-2.4296507e-05
220	0xb88d39de	-6.7341825e-05
221	0xb6a274a3	-4.8415545e-06
222	0xb78e819e	-1.6988077e-05
223	0x387d9db3	6.046677e-05
224	0x36638aef	3.3906506e-06
225	0xb88dd872	-6.76372e-05
226	0xb721276d	-9.605527e-06
227	0x392e8cf5	0.00016646444
228	0xb8d9a14d	-0.00010377411
229	0x38dc1000	0.00010493398
230	0xb75f1d0f	-1.32986015e-05
231	0x38b35a6b	8.552227e-05
232	0xb8defe9c	-0.000106332096
233	0xb6e96dbd	-6.9567163e-06
234	0xb9452e38	-0.00018804602
235	0xb82f46f9	-4.178935e-05
236	0xb90a2a2b	-0.00013176414
237	0xb9035bba	-0.00012527304
238	0xb7d9ca38	-2.5962581e-05
239	0xb57b3d0d	-9.3593627e-07
240	0xb68ac5c4	-4.1357434e-06
241	0xba1d99da	-0.00060120004
242	0x39c15ac6	0.0003687946
243	0x371ba59e	9.277281e-06
244	0x37075e5a	8.068595e-06
245	0x3734028a	1.0729427e-05
246	0xb756fb00	-1.28138345e-05
247	0xb686f015	-4.0214604e-06
248	0x37a73d5f	1.993653e-05
249	0x399ebf08	0.00030278438
250	0xb6b0872a	-5.260944e-06
251	0x374b79f5	1.2128138e-05
252	0xb81a9979	-3.6859394e-05
253	0xb9c45be0	-0.00037452485
254	0x39a1a57c	0.00030831608
255	0x39a89125	0.00032151598
