models/drone/policy_ego_rotor_best_iter9.pth (torch, 80800 bytes, 20 tensors)

lstm.weight_ih_l0 f4 [128, 12]
0	0x3de405ee	0.111339435
1	0xbc636ef6	-0.013881436
2	0xbdafb38d	-0.085791685
3	0x3d99446a	0.07483752
4	0xbe0fd262	-0.14045098
5	0x3daddbc3	0.08489182
6	0xbe05e9be	-0.13077447
7	0x3d99750c	0.07493028
8	0xbd19dd47	-0.037564542
9	0xbdb13dad	-0.08654342
10	0x3c38d9cc	0.011282396
11	0xbc2619a7	-0.010137952
12	0x3db295f2	0.08720006
13	0xbd761494	-0.06007822
14	0x3d07dc2f	0.033168968
15	0xbcbb5fb2	-0.02287278
16	0x3c56d3a8	0.013111986
17	0x3bff19fb	0.0077850795
18	0x3e2546f7	0.16140352
19	0x3d302912	0.043007918
20	0xbd56ffb2	-0.052489944
21	0xbe00183a	-0.12509242
22	0xbcfcf250	-0.030877262
23	0xbd8369ec	-0.06416687
24	0xbd4069a4	-0.046975747
25	0xbd9f1a6e	-0.07768713
26	0x3cb1bb4f	0.021695761
27	0x3deab7e9	0.11460859
28	0xbe46c3d1	-0.19410636
29	0x3d92f76a	0.07176097
30	0x3cfd5b07	0.030927194
31	0x3e2d03f0	0.16896033
32	0x3dd30fc2	0.1030574
33	0xbe3701ec	-0.17871827
34	0xbe33dbf7	-0.17564379
35	0xbdc8732b	-0.097875915
36	0x3de13605	0.109966315
37	0x3d014279	0.031557534
38	0x3d9948c9	0.07484586
39	0xbdbbcff3	-0.091705225
40	0x3e33e2ce	0.17566988
41	0xbdda8509	-0.10669906
42	0x3d9bc9dd	0.07606862
43	0x3c357e94	0.011077542
44	0xbdb805af	-0.08985459
45	0x3dbda152	0.09259285
46	0xbd906f7c	-0.07052514
47	0x3c5b4c12	0.013384836
48	0xbd85970a	-0.06522949
49	0xbcb9d197	-0.022682948
50	0xbe94364f	-0.28947684
51	0xbd088bb7	-0.033336367
52	0x3d924717	0.071424656
53	0xbda0ad3c	-0.07845542
54	0x3e5ec3fe	0.21754453
55	0x3e8e811d	0.2783288
56	0xbd65b5ce	-0.056081586
57	0xbdc475c3	-0.09592774
58	0x3e1debe2	0.15422013
59	0x3c8f2fe0	0.017478883
60	0xbe44cb1b	-0.19218104
61	0x3de0ff23	0.109861635
62	0x3cfe0448	0.0310079
63	0x3dfd93c6	0.12381701
64	0xbe087e82	-0.13329509
65	0xbd7186c5	-0.058966417
66	0x3c803f79	0.015655266
67	0x3dd0f45c	0.10202858
68	0xbded6de2	-0.11593224
69	0xbdd7913a	-0.10525747
70	0x3e38bd41	0.18040945
71	0xbd844604	-0.06458667
72	0x3c17f496	0.009274622
73	0x39fb1b3e	0.00047894748
74	0x3d27754c	0.040883347
75	0x3ce64f2d	0.028113926
76	0x3c83d844	0.016094334
77	0x3d80de0e	0.062923536
78	0xbe3241f2	-0.17407969
79	0x3d9c20ae	0.07623421
80	0xbe14b341	-0.14521505
81	0xbdfb54fa	-0.12272067
82	0x3d1f65f7	0.0389156
83	0xbd6339d0	-0.055475056
84	0x3d2dc1d6	0.042421184
85	0xbdcbbfdb	-0.09948703
86	0xbe663701	-0.2248192
87	0x3e0592b3	0.13044243
88	0xbd36719a	-0.044541933
89	0x3da501d7	0.080569915
90	0x3b43c834	0.002987397
91	0xbde4446b	-0.11145862
92	0x3d3009e2	0.042978175
93	0x3d6385cd	0.055547524
94	0xbd3a9ba8	-0.0455586
95	0xbdc0bc26	-0.094108865
96	0x3d859b58	0.0652377
97	0x3d8c3b40	0.068472385
98	0xbcf11331	-0.029428096
99	0xbd42fca3	-0.047604214
100	0x3e1ec991	0.15506579
101	0xbd49ece9	-0.0492982
102	0x3dd21571	0.10257996
103	0x3de1f52d	0.11033092
104	0xbdf42b4e	-0.11922322
105	0xbe2df416	-0.16987643
106	0x3e1eaaa9	0.15494789
107	0xbc92efa0	-0.017936528
108	0x3e00d217	0.12580143
109	0x3cbaba7b	0.022793999
110	0x3d41f505	0.04735281
111	0x3e4b32c3	0.19843583
112	0x3e0c14f0	0.13679862
113	0xbe1cc3a1	-0.15309002
114	0xbd3b139d	-0.045673
115	0x3dc663c8	0.096870005
116	0x3ddc83c0	0.10767317
117	0x3d1b30c3	0.0378883
118	0xbe2253a9	-0.15852226
119	0xbe09fc57	-0.13475166
120	0xbe237865	-0.15963896
121	0x3db1284f	0.086502664
122	0x3e3d3f3f	0.18481158
123	0xbe0c4496	-0.13698038
124	0x3dd580c6	0.10424952
125	0xbdccbffa	-0.09997554
126	0xbde72f51	-0.11288322
127	0x3c4d0bf5	0.012515058
128	0x3e049f54	0.12951404
129	0x3e590029	0.21191467
130	0xbd9ec61d	-0.07752631
131	0x3cc03084	0.023460634
132	0x3e4c488d	0.19949551
133	0x3d173c5f	0.03692281
134	0x3d168ed5	0.03675731
135	0x3e57bb73	0.210676
136	0x3da7bc88	0.08190256
137	0xbc2beaf0	-0.010493025
138	0xbe186d59	-0.14885463
139	0xbe4b46c4	-0.19851214
140	0xbe1562b6	-0.14588436
141	0xbd631f5e	-0.055449836
142	0xbdf758b9	-0.120774694
143	0x3d05ffed	0.032714773
144	0x3cc5d585	0.024149666
145	0xbde37b28	-0.111074746
146	0xbbb0d077	-0.0053959447
147	0x3d07a699	0.033117864
148	0x3d61e1c4	0.055146948
149	0x3dc45c04	0.09587863
150	0xbd92a899	-0.07161064
151	0x3e2b1492	0.16707066
152	0xbd3b99fe	-0.045801155
153	0xbb1f7346	-0.0024330183
154	0xbe07346d	-0.13203593
155	0xbdf99d8a	-0.12188251
156	0xbd0a0b45	-0.033702154
157	0xbe06e8c0	-0.13174725
158	0x3e08b76a	0.13351217
159	0xbc394780	-0.011308551
160	0xbe3408a5	-0.17581423
161	0x3d245faf	0.040130313
162	0xbbf6f844	-0.00753692
163	0x3d748e62	0.0597061
164	0xbe0f7477	-0.14009272
165	0xbc4d08c5	-0.012514298
166	0xbdd37f3f	-0.10327005
167	0xbd68977d	-0.056785095
168	0xbe51bc03	-0.20481877
169	0xbe125102	-0.14288715
170	0xbe0eede9	-0.13957943
171	0x3cf19e18	0.02949433
172	0xbbbc5525	-0.0057474547
173	0x3ba74cda	0.005105597
174	0x3e08102b	0.13287418
175	0x3e3f12c3	0.18659501
176	0x3ddacd5a	0.10683699
177	0xbcd19267	-0.025582505
178	0xbdd7b360	-0.1053226
179	0x3dd37e12	0.103267804
180	0xbbdcc846	-0.0067377416
181	0xbd3d1c9c	-0.046169862
182	0xbe125e74	-0.14293844
183	0x3d1130c0	0.035446882
184	0xbe28a113	-0.16467695
185	0x3de81611	0.11332334
186	0xbdf4a66b	-0.11945804
187	0xbdeb3830	-0.11485326
188	0xbcd855c6	-0.026408087
189	0xbe0c5db0	-0.13707614
190	0x3de24feb	0.110503994
191	0xbe03ee3b	-0.12883846
192	0xbc90de1c	-0.017684035
193	0x3be4b587	0.0069796476
194	0x3dbab8f3	0.091173075
195	0xbd4e7b93	-0.05041082
196	0x3dac52c0	0.08414221
197	0x3daff54c	0.085917085
198	0x3e10c26f	0.1413667
199	0xbe03bb7c	-0.12864488
200	0x3c43869d	0.01193395
201	0xbe1ac4b5	-0.151141
202	0x3ddff2a3	0.10934951
203	0xbdc69817	-0.096969776
204	0x3e296c1a	0.16545144
205	0x3e0de8fd	0.13858409
206	0x3bede8de	0.007260426
207	0xbab3a24e	-0.0013704987
208	0x3da0a10f	0.078432195
209	0x3dd238fd	0.10264776
210	0x3d067c35	0.032833297
211	0xbca26001	-0.019821169
212	0xbe16599b	-0.1468262
213	0x3e18bdff	0.14916228
214	0x3dbb3528	0.09140998
215	0x3e25e5f2	0.16200998
216	0x3e6a6d9a	0.22893372
217	0xbe6fcb91	-0.23417498
218	0xbe04a4e8	-0.12953532
219	0x3e6582da	0.22413197
220	0xbe0ef02c	-0.13958806
221	0x3e012427	0.12611447
222	0xbe008605	-0.12551124
223	0xbe1e5057	-0.15460335
224	0x3d26885c	0.040657386
225	0xbde49761	-0.11161686
226	0xbc5a4bf4	-0.013323773
227	0x3de90109	0.113771506
228	0x3df65b36	0.12029116
229	0x3dd81268	0.10550386
230	0xbd942922	-0.07234408
231	0xbe1f8a37	-0.15580069
232	0x3e4e181b	0.20126383
233	0xbd199cd2	-0.03750307
234	0xbde9f4ac	-0.114236206
235	0x3d09a633	0.033605766
236	0xbe1c50ef	-0.15265249
237	0x3dde2bc8	0.10848194
238	0x3ddde068	0.10833818
239	0xbe009272	-0.12555864
240	0xbe01e385	-0.12684448
241	0xbc8fc143	-0.017548209
242	0x3db8dfff	0.09027099
243	0x3c7fad80	0.0156053305
244	0xbe1870b0	-0.14886737
245	0xbcbe8b87	-0.023259891
246	0xbde6e861	-0.112747915
247	0xbd76a306	-0.060214065
248	0xbdd51fa4	-0.104064256
249	0x3e22469a	0.15847245
250	0x3e3f7cb4	0.18699914
251	0xbdc37ed6	-0.095456764
252	0xbcbcfbf5	-0.023069361
253	0xbc57dfd7	-0.013175926
254	0xbcec3f45	-0.028838763
255	0xbd85a30f	-0.065252416

lstm.weight_hh_l0 f4 [128, 32]
0	0x3ab6cbd4	0.0013946244
1	0x3cdbb1a6	0.026818108
2	0x3d8edb89	0.06975467
3	0x3d9df1b4	0.07712117
4	0x3ddc8ea9	0.10769398
5	0x3d428e9a	0.047499277
6	0xbdab7fab	-0.0837396
7	0xbda65b68	-0.08122903
8	0xbe022249	-0.12708391
9	0x3d55a172	0.05215592
10	0xbe4c3a59	-0.19944133
11	0xbdb65a0b	-0.08903893
12	0x3e04891f	0.12942933
13	0x3d2de5db	0.042455535
14	0xbe2e1cd4	-0.17003185
15	0x3da2132e	0.079138145
16	0xbd943361	-0.07236362
17	0x3ced9e61	0.029006185
18	0xbdc47ad0	-0.09593737
19	0xbc7768aa	-0.015100637
20	0x3d7a2cea	0.06107799
21	0x3e1dda2a	0.15415254
22	0x3dac8f71	0.08425797
23	0xbda2f888	-0.0795756
24	0xbd5a591a	-0.05330763
25	0xbda81951	-0.08207954
26	0x3dd2ab70	0.10286605
27	0x3db9455f	0.090464346
28	0xbe3b9f92	-0.1832259
29	0xbce7c3b1	-0.028291555
30	0x3c8eba8f	0.017422942
31	0xbd82d66d	-0.06388555
32	0x3de24b19	0.1104948
33	0xbd935f8c	-0.071959585
34	0xbe0dbc97	-0.13841473
35	0xbdca7a44	-0.098866016
36	0xbc6e1972	-0.014532434
37	0xbe24b8cd	-0.16086121
38	0x3b222a0d	0.0024744303
39	0x3e239dce	0.15978166
40	0xbce5b77f	-0.0280416
41	0xbc45ab63	-0.012064788
42	0x3e34c152	0.17651871
43	0x3df12b25	0.11775807
44	0x3e13ce51	0.14434172
45	0xbcfcdc7f	-0.03086686
46	0x3d1a1419	0.037616823
47	0xbe20553f	-0.15657519
48	0x3c24a8a6	0.010049975
49	0x3e34f8a7	0.17672978
50	0x3c9af9bb	0.018917909
51	0xbe2b3562	-0.16719583
52	0x3db90c7f	0.090355866
53	0x3e280bfa	0.16410819
54	0x3e1c5db2	0.15270117
55	0x3cedd7ab	0.029033503
56	0x3c649f3f	0.013953983
57	0xbc4b39d3	-0.012403923
58	0xbd0095cf	-0.03139287
59	0xbd6e099e	-0.05811464
60	0x3e0e0871	0.13870408
61	0x3d111929	0.035424385
62	0x3e39bd48	0.18138611
63	0xbdfc0c0d	-0.12306986
64	0xbd8657f7	-0.06559747
65	0x3d198e4a	0.037489213
66	0xbe268508	-0.16261685
67	0x3e2629a7	0.16226827
68	0x3db49ede	0.08819364
69	0xbd4beea2	-0.049788125
70	0x3e3be998	0.18350828
71	0x3e3f3f10	0.186764
72	0xbdd5110b	-0.10403641
73	0x3c8984b2	0.016786907
74	0x3e25223d	0.16126342
75	0xbde8ed4d	-0.113733865
76	0xbd8a4e60	-0.0675323
77	0xbe2b0103	-0.16699605
78	0x3db3bf0a	0.08776672
79	0xbc7e61b5	-0.015526225
80	0x3d7997cb	0.060935777
81	0x3dc678ec	0.09691033
82	0xbc166be3	-0.009180996
83	0xbe098881	-0.13430978
84	0x3d801e7b	0.06255814
85	0xbcf54dc9	-0.029944317
86	0x3da2b3d3	0.07944455
87	0x3d1daa4e	0.038492493
88	0xbd861259	-0.06546468
89	0xbd9e6f74	-0.07736102
90	0x3d347bf1	0.044063512
91	0x3db52e08	0.088466704
92	0x3cffb3b5	0.03121362
93	0x3d9a2fa6	0.075286195
94	0x3d48237e	0.048861973
95	0xbdd900aa	-0.1059583
96	0x3ceafca3	0.02868492
97	0x3be00ff9	0.0068378416
98	0xbe328362	-0.17432931
99	0x3d874e41	0.066067226
100	0x3bb19cca	0.005420302
101	0x3e04744e	0.12934992
102	0xbe2b6196	-0.16736445
103	0x3e4a6b26	0.19767436
104	0xbdc5aff0	-0.09652698
105	0x3da689c3	0.08131745
106	0x3dee7dcb	0.11645087
107	0xbd5b84a8	-0.053593308
108	0xbdd05a46	-0.10173468
109	0xbd791960	-0.060815215
110	0xbe1065bb	-0.14101307
111	0x3d0a286b	0.03372995
112	0x3cc7677d	0.02434134
113	0x3ca42cc0	0.02004087
114	0xbd9b9d56	-0.07598369
115	0x3dc7da79	0.09758467
116	0x3e04d1dd	0.12970681
117	0xbd8604e5	-0.06543902
118	0x3d3e1156	0.04640325
119	0xbb58f56f	-0.0033105274
120	0x3dccb77b	0.099959336
121	0xbde18e5f	-0.11013483
122	0xbdfad747	-0.12248092
123	0xbb5d2473	-0.003374365
124	0xbe2b2019	-0.16711463
125	0x3c781eaa	0.01514403
126	0x3e6feecb	0.23430936
127	0xbc5df189	-0.013546356
128	0x3aff0837	0.0019457404
129	0x3c7b8978	0.015352599
130	0xbe0b7f9c	-0.13622898
131	0xb9078638	-0.00012924604
132	0x3cd83b5f	0.026395498
133	0x3e2b0b99	0.16703643
134	0xbdcff9a3	-0.10155036
135	0x3c88e2e2	0.016709749
136	0xbe2ef2ba	-0.1708478
137	0xbd20d5fb	-0.039266568
138	0xbd4832bb	-0.048876505
139	0xbdc28b9d	-0.09499285
140	0x3da5e4e1	0.08100296
141	0x3dacc260	0.084355116
142	0xbe1b8c1c	-0.15190166
143	0xbd44a08e	-0.04800468
144	0xbda8cbd2	-0.08242001
145	0xbc22ae42	-0.009929242
146	0x3dd0240e	0.10163127
147	0x3e2d4223	0.1691976
148	0xbe1ea343	-0.15491967
149	0x3c5da227	0.01352743
150	0xbe14286e	-0.14468548
151	0xbe2bb119	-0.16766776
152	0x3e662d6c	0.22478265
153	0xbd792839	-0.060829375
154	0xbde6aea5	-0.112637796
155	0x3d8ecccb	0.06972655
156	0xbdc8ab56	-0.09798305
157	0xbe42c639	-0.19020928
158	0xbd8d7fa2	-0.0690911
159	0xbd92f9aa	-0.07176526
160	0xbb4c437b	-0.0031168151
161	0xbddb680a	-0.10713203
162	0xbe5187e4	-0.20461994
163	0x3e0c72a1	0.13715602
164	0xbe570423	-0.20997672
165	0xbcc89228	-0.024483755
166	0x3e284981	0.1643429
167	0xbd2ea217	-0.04263505
168	0xbe13f2a9	-0.14448036
169	0x3dc1e5ed	0.09467683
170	0x3dfc6248	0.12323433
171	0xbd3a3045	-0.04545619
172	0xbd68f4ba	-0.056874014
173	0x3d925a31	0.07146109
174	0xbc6ef3ae	-0.014584465
175	0x3d122818	0.035682768
176	0x3da2a068	0.07940751
177	0x3d84de62	0.06487729
178	0xbe002026	-0.12512264
179	0xbd3d7c19	-0.046260927
180	0x3df2607e	0.11834811
181	0xbc4e5efa	-0.012595886
182	0x3d00b565	0.03142299
183	0x3e01ae3b	0.1266412
184	0x3dfa165b	0.12211295
185	0x3d921b5f	0.07134127
186	0x3e0ff33d	0.14057632
187	0xbe1d0090	-0.15332246
188	0xbcccd544	-0.025004037
189	0x3cb5eac7	0.022206677
190	0x3c81a373	0.015825009
191	0xbd9ad367	-0.07559853
192	0x3d83920f	0.06424343
193	0xbe01ea01	-0.12686922
194	0xbdc12810	-0.094314694
195	0x3e27e3c5	0.16395481
196	0xbda067c9	-0.078322954
197	0xbd56f08c	-0.052475497
198	0x3dd9a407	0.10626989
199	0xbc9f3c08	-0.019437805
200	0x3cfb5690	0.030680925
201	0xbe400e56	-0.18755469
202	0x3dc977cf	0.09837305
203	0xbe0db92a	-0.13840166
204	0xbcd48e3f	-0.025946734
205	0xbe2870a5	-0.1644922
206	0xbe43f3af	-0.19135927
207	0x3e15eece	0.14641878
208	0xbdd5ec81	-0.104455
209	0xbc528872	-0.012849914
210	0xbc748fcd	-0.014926863
211	0x3e3e736f	0.18598722
212	0x3d06af21	0.03288186
213	0x3da08971	0.07838715
214	0xbd7d43d4	-0.061832264
215	0xbdbfa4e4	-0.09357622
216	0x3e0dd719	0.13851584
217	0x3de81e6b	0.11333927
218	0x3d7a3a42	0.061090715
219	0xbe04f6bc	-0.12984747
220	0xbe2b9e17	-0.16759525
221	0x3af63079	0.0018782757
222	0xbd9afcd5	-0.07567755
223	0x3e0a0707	0.13479243
224	0x3dec2a92	0.11531557
225	0xbd3526a0	-0.04422629
226	0xbe0d1e1b	-0.13781016
227	0x3e39b493	0.1813529
228	0xbdf3f5af	-0.11912095
229	0xbe1a63a9	-0.1507708
230	0xbdc0050d	-0.09375963
231	0x3d3a0006	0.04541018
232	0x3d4a2087	0.049347427
233	0x3df9b288	0.12192255
234	0x3e03c87d	0.12869449
235	0x3db24453	0.08704438
236	0xbbed0c3e	-0.0072341254
237	0x3e208b30	0.15678096
238	0xbdfb32a3	-0.122655176
239	0xbd01f4ff	-0.031727787
240	0x3e0e9776	0.13924965
241	0xbd7e07c9	-0.062019143
242	0x3d9f65a1	0.07783056
243	0x3d4bbb24	0.049739018
244	0x3d482513	0.04886348
245	0xbd91d1dc	-0.071201056
246	0xbe208b91	-0.1567824
247	0x3dcf9dca	0.10137518
248	0x3e23d443	0.1599894
249	0xbe1d8c47	-0.15385543
250	0xbd6ce899	-0.05783901
251	0x3c550497	0.013001583
252	0x3d82a3f8	0.06378931
253	0xbd4f7bb7	-0.050655093
254	0xbd73f800	-0.059562683
255	0x3e13c957	0.14432274

lstm.bias_ih_l0 f4 [128]
0	0x3d739842	0.059471376
1	0xbd9006d2	-0.07032551
2	0x3ca3cade	0.019994196
3	0xbd9c59b8	-0.076343
4	0xbe030392	-0.1279433
5	0x3e15ee88	0.14641774
6	0xbe04e624	-0.12978417
7	0x3cd6c67a	0.026217688
8	0xbe38b91f	-0.18039368
9	0x3d953dd0	0.072871804
10	0x3e126268	0.14295352
11	0xbe5e57d7	-0.21713196
12	0xbe18e53f	-0.149312
13	0xbe581f35	-0.21105655
14	0x3c69b6e1	0.014264793
15	0xbe482eae	-0.19549057
16	0x3d80bf47	0.06286483
17	0x3e3bb5d0	0.18331075
18	0xbd79a5ca	-0.060949124
19	0x3d7cd3a9	0.061725292
20	0xbe1aa721	-0.15102817
21	0x3c93ccf6	0.018042069
22	0xbd7f53fe	-0.06233596
23	0x3d228645	0.03967883
24	0x3e300b89	0.171919
25	0xbdfa0bbf	-0.12209272
26	0xbd849878	-0.064743936
27	0xbdd5f486	-0.1044703
28	0x3dc5a9c4	0.09651521
29	0x3e319b24	0.17344338
30	0xbd1369a9	-0.035989437
31	0x3e6d950d	0.2320139
32	0x3d2c2f5b	0.04203735
33	0xbd46f295	-0.048571188
34	0x3d677efc	0.056517586
35	0x3de46908	0.111528456
36	0xbcef8203	-0.0292368
37	0xbe1a852c	-0.15089864
38	0x3d1650d9	0.036698196
39	0xbe2cb2fd	-0.16865154
40	0xbd2537ea	-0.040336527
41	0xbe1b302d	-0.15155096
42	0x3e31fb76	0.17381081
43	0xbdf988bc	-0.12184283
44	0xbdeae35d	-0.11469147
45	0x3d3df494	0.046375826
46	0xbe178c95	-0.14799722
47	0x3e0cc708	0.137478
48	0x3c4e1232	0.01257758
49	0x3de6af04	0.1126385
50	0xbe0ed9e7	-0.1395031
51	0xbcf57b0f	-0.029965905
52	0x3d871ec3	0.06597664
53	0x3d3ad3e8	0.045612246
54	0xbd1e9472	-0.038715787
55	0x3dd377d4	0.1032559
56	0x3d9ba747	0.07600265
57	0xbcb9a33c	-0.022660844
58	0xbe599e5a	-0.21251813
59	0x3e0dbcb6	0.13841519
60	0x3e15a70c	0.14614505
61	0xbdc46fdf	-0.0959165
62	0xbbfc8ff9	-0.0077075926
63	0x3e4389af	0.19095491
64	0x3dcc374a	0.09971483
65	0xbd505386	-0.050860904
66	0x3db3fdd2	0.08788647
67	0xbdec0ea8	-0.11526233
68	0x3d4672df	0.048449393
69	0xbd1a1096	-0.037613474
70	0x3cdf17aa	0.027232964
71	0x3d88f6af	0.06687676
72	0xbbf19b82	-0.0073732743
73	0x3e210862	0.15725854
74	0xbca68ea7	-0.020331694
75	0xbded897f	-0.11598491
76	0x3e1ae07e	0.151247
77	0xbd4d34ff	-0.05009937
78	0xbd21d6a4	-0.039511338
79	0x3cedbf71	0.02902195
80	0x3d2e784d	0.042595197
81	0x3b2fa8b4	0.0026803436
82	0xbddf6dcf	-0.10909616
83	0xbd847da3	-0.06469276
84	0xbd1f52f4	-0.03889747
85	0x3bd22c8b	0.0064140013
86	0xbe167c53	-0.14695863
87	0x3e0a766d	0.13521738
88	0xbb122bb7	-0.0022303888
89	0x3c5fafd6	0.013652762
90	0x3cef7525	0.029230664
91	0x3cf9c7e1	0.030490818
92	0x3d92c526	0.07166509
93	0xbcb9cc4b	-0.022680422
94	0xbddf35fd	-0.10898969
95	0xbe438bda	-0.19096318
96	0x3d0e0ae2	0.034678347
97	0x3e1a6f61	0.1508155
98	0x3db63164	0.08896139
99	0xbe3501bb	-0.17676441
100	0x3df6230e	0.12018405
101	0x3d2d7ad5	0.04235347
102	0xbe36da5e	-0.17856738
103	0x3e0a0a80	0.13480568
104	0x3e09565d	0.13411851
105	0x3e06c42e	0.13160774
106	0xbe17d8f2	-0.14828852
107	0xbdb6a02f	-0.08917271
108	0xbbd077df	-0.006361946
109	0xbdf4ab3c	-0.11946723
110	0xbd35f9b7	-0.0444276
111	0xbd880bf7	-0.06642907
112	0x3c2ceb65	0.010554169
113	0xbe11ef3a	-0.14251414
114	0xbd4fe085	-0.050751228
115	0x3e001191	0.12506701
116	0x3dd00b48	0.10158402
117	0x3c662f5d	0.014049378
118	0xbe08767d	-0.1332645
119	0xbe1b264c	-0.15151328
120	0x3e14e368	0.14539874
121	0x3cc6ee22	0.024283472
122	0xbd753eba	-0.059874274
123	0xbe0d9aac	-0.13828534
124	0xbd983d4b	-0.07433566
125	0xbe38d384	-0.18049437
126	0x3d01eab8	0.031717986
127	0x3b46f2fc	0.0030357232

lstm.bias_hh_l0 f4 [128]
0	0xbd9de61e	-0.07709907
1	0x3d5ac24f	0.053407963
2	0xbb1b4268	-0.0023690704
3	0x3ca61909	0.02027561
4	0x3dcf6e48	0.10128456
5	0xbdf93b15	-0.12169472
6	0xbcf06c6e	-0.029348578
7	0x3e08cf8a	0.1336042
8	0xbcddd0eb	-0.027077159
9	0xbc84e62b	-0.016223034
10	0x3e0a2618	0.13491094
11	0xbd088fad	-0.033340145
12	0xbd3d7208	-0.046251327
13	0x3d5c9479	0.053852532
14	0x3d052c0e	0.032512717
15	0xbe52e320	-0.20594454
16	0x3d76d8d2	0.06026537
17	0xbc94d0fe	-0.018166061
18	0xbc126431	-0.00893502
19	0xbc5d1d2c	-0.013495725
20	0x3dda0895	0.10646168
21	0xbe43d288	-0.1912328
22	0x3d04e4e0	0.032444835
23	0x3cfc1893	0.030773437
24	0xbe098b37	-0.13432012
25	0xbc5552cf	-0.013020231
26	0x3d5ecd6a	0.054395117
27	0x3cf44945	0.029820094
28	0x3e10be0f	0.14135002
29	0x3e210322	0.15723851
30	0x3e1249ae	0.14285919
31	0x3e7e05cd	0.248069
32	0x3db9a765	0.09065131
33	0xbd4e3cdf	-0.05035102
34	0xbda0404c	-0.07824764
35	0xbe28f403	-0.16499333
36	0xbda4d7cb	-0.08048972
37	0x3d44d020	0.048050046
38	0x3da3df95	0.08001629
39	0x3b2b70cb	0.002615976
40	0x3d6e4435	0.058170516
41	0x3dfbc8e2	0.12294175
42	0x3e0103d9	0.12599124
43	0x3c990c62	0.018682662
44	0xbd2621d3	-0.0405596
45	0xbe3f3277	-0.18671595
46	0x3d8dd8c4	0.069261104
47	0xbde4d36d	-0.11173139
48	0xbc9d8d99	-0.019232558
49	0x3e20ddfc	0.1570968
50	0x3e10d0f1	0.14142205
51	0xbd308fa4	-0.043105736
52	0x3de1a679	0.1101808
53	0x3dcc5be9	0.09978468
54	0xbe0ba5af	-0.13637422
55	0xbd9dcafd	-0.077047326
56	0x3d74890a	0.059701003
57	0x3e11b301	0.14228441
58	0xbe305c48	-0.17222703
59	0xbd8fd465	-0.07022933
60	0x3e130e74	0.14360982
61	0x3e0c2f9d	0.13690038
62	0xbdbc700d	-0.092010595
63	0x3e5ab9e1	0.2135997
64	0xbc9b0d36	-0.018927198
65	0xbd76c96c	-0.060250685
66	0x3db874a6	0.09006624
67	0x3dfab862	0.122421995
68	0xbdc3cae9	-0.095601864
69	0xbdf28885	-0.11842445
70	0x3dff0ab7	0.124532156
71	0xbcc435b0	-0.023951381
72	0x3db6aead	0.089200355
73	0xbdf7242d	-0.12067447
74	0xbdbad86a	-0.09123309
75	0x3de31677	0.11088269
76	0x3c1f5ab6	0.009726217
77	0xbd31b571	-0.043385927
78	0xbd7cd04a	-0.061722077
79	0x3db7f839	0.089828916
80	0x3d2e0995	0.042489607
81	0xbe104b9c	-0.14091343
82	0x3d91db29	0.071218796
83	0x3d3e9d7a	0.0465369
84	0xbd9b9e54	-0.07598558
85	0x3de8b2ac	0.11362204
86	0x3da9ef59	0.08297605
87	0x3d929d1b	0.07158872
88	0xbe0aead1	-0.13566138
89	0x3de36ed8	0.11105126
90	0xbe25ad0e	-0.16179296
91	0xbd8c3159	-0.0684535
92	0x3da9ab2b	0.08284601
93	0xbdeb5855	-0.114914574
94	0x3c70c016	0.014694234
95	0x3cd2d31b	0.025735429
96	0xbc8a53ad	-0.016885603
97	0x3ded4f13	0.11587348
98	0xbd084ff6	-0.03327938
99	0xbd8a20aa	-0.067445114
100	0x3df4c08e	0.119507894
101	0xbc86099b	-0.016362002
102	0xbdfbf5a7	-0.12302714
103	0xbdd227f3	-0.10261526
104	0x3d39e7e1	0.045387153
105	0xbd2b6e4a	-0.041853227
106	0xbcd1c732	-0.025607679
107	0x3cdc7d0b	0.026915094
108	0xbe3eefbc	-0.18646139
109	0xbdb44407	-0.08802038
110	0xbe540f87	-0.20709048
111	0xbcc6b296	-0.024255078
112	0x3bbc6fd6	0.0057506366
113	0x3b9022f3	0.0043986975
114	0xbc7360e4	-0.0148546435
115	0x3ccff774	0.02538655
116	0x3c89705a	0.016777206
117	0x3c6e5970	0.014547691
118	0xbdd4689f	-0.103715174
119	0x3dd8bd1e	0.10582946
120	0xbd8b6c7d	-0.06807802
121	0x3db8bab0	0.09019983
122	0x3df914ee	0.12162195
123	0x3d05fd55	0.0327123
124	0xbde86d09	-0.11348922
125	0xbd5ca9cc	-0.05387287
126	0xbe5525c3	-0.20815186
127	0xbe0dacf9	-0.13835515

hidden2out.weight f4 [3, 32]
0	0xbcb9f7b5	-0.022701124
1	0x3e270b2d	0.16312857
2	0xbd3e5f4f	-0.046477612
3	0xbcfdf074	-0.030998446
4	0x3c37df3a	0.011222655
5	0xbdaf40b3	-0.08557262
6	0xbd8ba8b8	-0.0681929
7	0xbe094b03	-0.13407521
8	0x3d164b4a	0.036692895
9	0x3dadbdb4	0.084834486
10	0x3e0fa782	0.14028743
11	0xbe11e5ca	-0.14247814
12	0x3db25604	0.087078124
13	0xbdea037b	-0.11426445
14	0x3d4c2d40	0.04984784
15	0xbdd34a34	-0.103168875
16	0xbd9c9871	-0.076462634
17	0xbdf22cac	-0.11824927
18	0x3e0767dc	0.13223213
19	0xbe088ecc	-0.13335723
20	0x3de90689	0.113781996
21	0x3e1a2f05	0.15056999
22	0xbd8fe3f3	-0.070259
23	0x3dc1e5a7	0.09467631
24	0x3e1955f4	0.14974195
25	0xbe205b28	-0.15659773
26	0xbddf104f	-0.108917825
27	0x3df47b37	0.11937564
28	0xbdc6605b	-0.09686347
29	0x3e0fa72b	0.14028613
30	0xbddc1882	-0.10746862
31	0xbcb1a1e9	-0.02168365
32	0xbd9bb1f9	-0.07602305
33	0x3c90a68a	0.017657537
34	0xbd971c09	-0.07378394
35	0xbdc69a54	-0.096974045
36	0x3d8da006	0.06915288
37	0xbcdd8347	-0.027040137
38	0xbc113b70	-0.008864269
39	0xbd76c007	-0.060241725
40	0x3dc708bc	0.09718463
41	0x3dc8f0ff	0.09811591
42	0x3df17fd0	0.117919564
43	0xbe04e56d	-0.12978144
44	0xbe03ceb9	-0.12871827
45	0xbdc6a02b	-0.09698518
46	0xbbc4ab0f	-0.006001837
47	0x3bc74964	0.006081747
48	0xbb66dd3d	-0.0035227083
49	0x3d8cfc8d	0.06884108
50	0x3dcbe680	0.09956074
51	0x3d89f34c	0.06735858
52	0xbbfe9d00	-0.0077701807
53	0xbd15f04c	-0.036606118
54	0xbbca8bd9	-0.006181222
55	0xbc6428d2	-0.013925748
56	0xbdf28c37	-0.1184315
57	0x3d1989af	0.03748482
58	0xbe0d6c2d	-0.13810797
59	0x3e136c48	0.14396775
60	0x3e07dfd8	0.13268983
61	0xbc377556	-0.011197409
62	0xbdd7bc23	-0.10533931
63	0xbd8d932b	-0.06912836
64	0x3bc3667c	0.005963145
65	0x3e0fd690	0.14046693
66	0x3df67d46	0.12035613
67	0x3ce7138e	0.028207567
68	0x3df24df5	0.118312754
69	0xbd2ee7eb	-0.042701643
70	0xbdad1729	-0.08451683
71	0xbdbcc5bf	-0.092174046
72	0xbcf1b231	-0.029503914
73	0xbd7f88f1	-0.062386457
74	0x3d287168	0.041123778
75	0x3e2a6ee3	0.16643862
76	0x3e1a0448	0.15040696
77	0xbe08d16c	-0.13361138
78	0x3d7916f6	0.060812913
79	0xbd65927a	-0.056047894
80	0x3dcfd2d3	0.101476334
81	0xbe1a1f4f	-0.15051006
82	0xbda54321	-0.080694444
83	0x3dc0d598	0.0941574
84	0xbd0b838b	-0.034060996
85	0xbd896bdc	-0.06710026
86	0x3e2c6a35	0.1683739
87	0xbdd07253	-0.101780556
88	0xbdb943d5	-0.09046141
89	0x3d1f0605	0.0388241
90	0x3da6fb58	0.08153409
91	0xbe155853	-0.14584474
92	0x3e1d810e	0.15381262
93	0xbe18ece1	-0.14934112
94	0x3da9ec93	0.08297076
95	0xbe1ecd8a	-0.15508094

hidden2out.bias f4 [3]
0	0x3c969019	0.018379258
1	0xbde3117f	-0.110873215
2	0xbe0b0f48	-0.13580048

std_layer.weight f4 [3, 32]
0	0x3e320b7f	0.17387198
1	0x3d9684e2	0.07349564
2	0xbe180d25	-0.14848764
3	0xbe1ee4e1	-0.15516998
4	0xbc1a9d60	-0.009436935
5	0x3de8df42	0.11370708
6	0x3dc9543e	0.09830521
7	0x3bfefe20	0.007781759
8	0x3cbbdf98	0.022933766
9	0xbe05eaa7	-0.13077794
10	0x3ddcc1d6	0.10779159
11	0xbc9b7480	-0.01897645
12	0xbe11c57d	-0.14235492
13	0xbe0533cc	-0.1300804
14	0xbd152938	-0.036416262
15	0xbde40a2c	-0.11134753
16	0xbd696472	-0.056980558
17	0x3e30a0e9	0.17248882
18	0x3bf90840	0.0075998604
19	0xbdc47ef2	-0.095945254
20	0x3e0d208f	0.13781951
21	0x3e28068d	0.16408749
22	0x3c8cb7e0	0.017177522
23	0xbb913b80	-0.004432142
24	0x3caba680	0.020953417
25	0xbd11f0a8	-0.0356299
26	0x3d066cf0	0.032818735
27	0x3d61a3a0	0.055087686
28	0x3e08a1bb	0.13342945
29	0x3daa6382	0.08319761
30	0x3d0e4538	0.03473398
31	0xbc5a18d0	-0.01331158
32	0x3e0a3d53	0.13499956
33	0x3d92e08c	0.07171735
34	0x3d657cd0	0.056027234
35	0x3df7f68a	0.121075705
36	0x3d157fbc	0.03649877
37	0xbd4a55a4	-0.04939808
38	0x3d38eb34	0.045146182
39	0xbdb3ecde	-0.08785413
40	0x3dddece6	0.108362004
41	0xbd66eada	-0.056376316
42	0x3d25190c	0.04030709
43	0x3d4af2e8	0.04954806
44	0xbe0788a6	-0.13235721
45	0xbe1722ef	-0.1475942
46	0x3df8d446	0.12149863
47	0xbe32b281	-0.17450906
48	0xbd7d71e8	-0.061876208
49	0x3dcebc1a	0.10094471
50	0x3d33f7f0	0.043937624
51	0x3e2d7019	0.16937293
52	0xbe319652	-0.17342499
53	0x3d7b99b0	0.061425865
54	0xbd896c79	-0.06710143
55	0x3d971a36	0.07378046
56	0x3e048b7d	0.12943836
57	0x3df53362	0.11972691
58	0xbe3373f1	-0.17524697
59	0xbd802257	-0.0625655
60	0x3dfd73ee	0.123756275
61	0x3d877fa2	0.06616141
62	0xbe132684	-0.14370161
63	0x3dde9faa	0.10870297
64	0x3dfbb0ee	0.12289606
65	0xbdafbb48	-0.08580643
66	0xbd58103c	-0.052749857
67	0xbe0269a3	-0.1273561
68	0xbe090a42	-0.1338282
69	0xbda74901	-0.08168221
70	0xbd295dac	-0.041349098
71	0x3b8b79c0	0.004256457
72	0x3ddc0bc6	0.10744433
73	0x3e224627	0.15847073
74	0x3c9e7910	0.019344836
75	0x3dd6b37e	0.10483454
76	0x3dd7d042	0.10537769
77	0x3d0db540	0.03459668
78	0xbdab6fbb	-0.0837092
79	0x3d916f42	0.07101299
80	0x3ce1de08	0.027571693
81	0xbe0fa78a	-0.14028755
82	0xbd63cef6	-0.055617295
83	0xbd8decac	-0.06929907
84	0x3d7da528	0.061925083
85	0xbda789f5	-0.0818061
86	0x3d97e12a	0.074159935
87	0xbc20ac10	-0.009806648
88	0xbcf75e60	-0.030196369
89	0x3d8bb678	0.068219125
90	0x3ddd2b12	0.10799231
91	0x3d5ebf8c	0.054381892
92	0x3cf768c0	0.030201316
93	0xbc31bde0	-0.010848492
94	0xbd014e04	-0.031568542
95	0x3db0e032	0.08636512

std_layer.bias f4 [3]
0	0xbd13db44	-0.03609778
1	0x3e093609	0.13399519
2	0x3de4a392	0.11164011

exp_avg f4 [128, 12]
0	0x3a2c1bb2	0.0006565406
1	0x3a39b334	0.0007083893
2	0xb928e2c1	-0.00016106201
3	0xb93eed06	-0.0001820811
4	0x3ae6f403	0.0017620329
5	0x3b077f03	0.002067507
6	0xb999312c	-0.0002921907
7	0xb9d0db73	-0.00039836354
8	0xb9c2615c	-0.00037075102
9	0xba26cf52	-0.00063632906
10	0xbaedd36e	-0.0018144676
11	0x39699167	0.00022274778
12	0xb7aa8920	-2.0329433e-05
13	0xb985adb2	-0.0002549715
14	0xb9693a5c	-0.00022242352
15	0x3a265811	0.00063455204
16	0x3750b6b6	1.2440307e-05
17	0xbad62191	-0.0016336908
18	0x3ab59741	0.0013854281
19	0x3ac2198f	0.0014808642
20	0x3923b677	0.00015612865
21	0x390b636f	0.00013293115
22	0x39a5bc3c	0.00031611498
23	0xbab6ed3f	-0.0013956203
24	0xbac71ff7	-0.0015192021
25	0x3a10473a	0.00055037776
26	0xbaa44f75	-0.0012535887
27	0xb779b03c	-1.4882589e-05
28	0xbad02760	-0.0015880875
29	0xbb9bffea	-0.004760732
30	0xbb996b4b	-0.00468198
31	0xbac36857	-0.0014908415
32	0xbb2b0f63	-0.00261017
33	0xbc4ff6c4	-0.012693111
34	0x3b37b00b	0.0028028514
35	0xbc06f01d	-0.008235958
36	0x3a9dba53	0.0012033678
37	0x366c5891	3.5218293e-06
38	0xba4df8c6	-0.00078571995
39	0x3a783aca	0.00094692095
40	0x3aba07bd	0.001419298
41	0x38d60e25	0.0001020695
42	0x3ab4ff7b	0.0013809049
43	0x3a1eb5e9	0.00060543284
44	0x3aaab5d4	0.001302416
45	0x3c1a2ed0	0.009410575
46	0xbaff7990	-0.0019491185
47	0x3ba6a15e	0.0050851544
48	0x39b69451	0.0003482425
49	0x3a8de820	0.0010826625
50	0x3a5bc498	0.0008383482
51	0xbb34e0c7	-0.0027599798
52	0x3a3d41d5	0.00072195876
53	0x3bece4b1	0.0072294106
54	0xba0e2a13	-0.00054231397
55	0xbae93a3d	-0.0017793846
56	0xb8a7853e	-7.987999e-05
57	0x38d6baea	0.00010239131
58	0xbb4ad363	-0.003094875
59	0x3b794aaa	0.0038038888
60	0xb9cc5dcc	-0.00038979796
61	0xb9a04574	-0.00030569325
62	0x3a9f039f	0.0012131816
63	0xbac44677	-0.0014974613
64	0xbaf446fd	-0.0018636879
65	0x3b401c75	0.0029313837
66	0xbab51c53	-0.0013817645
67	0xb859abda	-5.189688e-05
68	0xb9fcc218	-0.00048209797
69	0xbb86d97a	-0.0041152807
70	0x39678e78	0.0002208295
71	0x3ab25626	0.0013605997
72	0xb9bfb805	-0.00036567464
73	0xb8cfbb17	-9.9053774e-05
74	0x3aa2332d	0.0012374871
75	0xbae9b055	-0.001782904
76	0xbad7c892	-0.0016462973
77	0x3b749922	0.003732272
78	0xba40e6d7	-0.00073586166
79	0xb9bb7756	-0.00035756332
80	0x39064a0d	0.00012806822
81	0xb6c63b21	-5.9077433e-06
82	0x39cc5f42	0.00038980885
83	0x3b1e03aa	0.002411107
84	0xb984cf56	-0.0002533148
85	0x3a59912a	0.0008299524
86	0x3b1b8e8e	0.0023736092
87	0xbb908f2c	-0.0044115987
88	0xbb08408b	-0.0020790424
89	0x3c3259af	0.01088564
90	0xbb3dfe53	-0.00289907
91	0xbac0dafa	-0.0014713698
92	0xba35d597	-0.00069364294
93	0xbb481dc6	-0.0030535324
94	0xba8c9352	-0.0010725057
95	0x3bc13110	0.0058957413
96	0x392dab6b	0.00016562424
97	0xb98e9dd7	-0.0002720195
98	0xb9de8228	-0.00042440114
99	0x3a10782e	0.0005511072
100	0xba25d793	-0.00063263736
101	0xbadeeb36	-0.0017007354
102	0x39c784e8	0.0003805526
103	0x3a10725f	0.00055102067
104	0x39386328	0.00017584546
105	0x3b13770c	0.0022501377
106	0x3a45e3f2	0.000754892
107	0x3a015eff	0.0004935115
108	0x3adfdbbf	0.0017079039
109	0x3b1cc723	0.0023922406
110	0x3b16185c	0.0022902703
111	0xbb81978d	-0.003954834
112	0x3b8b5375	0.004251892
113	0x3c82d8e1	0.015972557
114	0x3b394915	0.002827232
115	0xba903768	-0.001100284
116	0xb99e2eb6	-0.0003017091
117	0x3ade2f19	0.0016951292
118	0xbbaf716c	-0.005354097
119	0x3ba1f8ac	0.004942974
120	0xbaa4745c	-0.0012546885
121	0xbaa41161	-0.0012517386
122	0x3ab03dfc	0.0013446207
123	0xba8fe4ca	-0.0010978219
124	0xbb8e14d5	-0.0043359795
125	0x393dc8d4	0.00018099259
126	0x39c3772d	0.0003728209
127	0x3a99b51f	0.0011726952
128	0x3ac15549	0.0014750148
129	0x3b59569c	0.0033163195
130	0x3b54f15a	0.003249249
131	0x3b78b8ca	0.003795194
132	0xbb916148	-0.0044366457
133	0xbb906235	-0.0044062384
134	0x3b09b99d	0.0021015175
135	0x392b2787	0.00016322556
136	0xbc1be887	-0.009515888
137	0xbc30e6e9	-0.010797241
138	0x3986e17f	0.0002572648
139	0x3aff5e55	0.0019483069
140	0xba8cf6f3	-0.0010754749
141	0xbc867e04	-0.01641751
142	0x3c07a2af	0.008278533
143	0xbc6fd632	-0.0146384705
144	0xba49ac29	-0.00076931954
145	0x3b4d583d	0.0031333112
146	0x3af9e6f8	0.0019066026
147	0xbb919e0e	-0.0044438904
148	0xbb26b8c0	-0.002543971
149	0x3c205901	0.009786845
150	0xbc0efa2b	-0.008726637
151	0xbb4b6b4c	-0.0031039296
152	0xbb10c28f	-0.0022088622
153	0xbc401bca	-0.011725375
154	0x3bfa4aa8	0.0076382942
155	0x3c20b76b	0.009809355
156	0xbb459585	-0.0030148935
157	0xbafda15d	-0.0019350458
158	0x392d94a8	0.00016553944
159	0x3a0ff5f5	0.00054916675
160	0xbbbcd6ad	-0.005762896
161	0xbc0e792c	-0.008695882
162	0xba68f860	-0.00088871084
163	0x3a05f6c0	0.0005110316
164	0xbb060d21	-0.0020454603
165	0xbc3bf7c2	-0.011472644
166	0x3bc19f97	0.005908917
167	0xbc657d40	-0.014006913
168	0x387479c5	5.828754e-05
169	0x3ab99be0	0.0014160834
170	0x3a73cbe0	0.0009300094
171	0xbb31b708	-0.0027117152
172	0x394badea	0.00019424377
173	0x3be16eac	0.006879648
174	0xbaf8961e	-0.0018965637
175	0xbac210d6	-0.0014806043
176	0xba593853	-0.0008286286
177	0xbb90dbcc	-0.004420733
178	0xbaaea494	-0.0013324195
179	0x3b2b2614	0.0026115226
180	0x3aa37032	0.001246935
181	0x3a98ec7e	0.001166716
182	0xba425311	-0.00074128906
183	0xb9d6fe6e	-0.00041006826
184	0x3b8a151f	0.0042139436
185	0x3b410269	0.00294509
186	0x3a9f535e	0.0012155583
187	0xba5a0fcd	-0.00083183945
188	0xb96bc1e8	-0.00022483582
189	0x39a60a65	0.00031669732
190	0xbb653abc	-0.0034977635
191	0xb909b07a	-0.00013131081
192	0x3755c8c0	1.274253e-05
193	0x3a66f59e	0.00088104035
194	0xb8327162	-4.2544103e-05
195	0xbaa9a6d0	-0.0012943391
196	0x3a0ac3ef	0.00052934786
197	0x3b2ef752	0.0026697707
198	0xba30684c	-0.00067294086
199	0xb9845273	-0.0002523843
200	0xb971f7e2	-0.00023075895
201	0xba9ef55b	-0.0012127565
202	0xba4bf596	-0.00077804306
203	0x3a5da613	0.0008455228
204	0x391d04e2	0.00014974506
205	0xbaa99461	-0.0012937897
206	0xba440e9c	-0.00074789836
207	0x3b2ee20d	0.002668503
208	0x39cff37c	0.00039663527
209	0xbbca2193	-0.006168553
210	0x3b571669	0.0032819754
211	0x3ae47bb7	0.001743189
212	0x3a3c72c2	0.0007188731
213	0x3aa3ef70	0.0012507271
214	0x3a4cc124	0.00078107626
215	0xbb523e22	-0.003208049
216	0xbb0e2cb7	-0.0021694133
217	0xb9235846	-0.00015577776
218	0xba9f4022	-0.001214985
219	0xb9eac55f	-0.0004477901
220	0xba20f59d	-0.0006140115
221	0xbba7eb60	-0.0051244944
222	0xbbd4dd7d	-0.00649613
223	0xbae6f049	-0.0017619218
224	0xbb89d773	-0.0042065918
225	0xbcc17f19	-0.023620175
226	0xbb3e76b9	-0.0029062463
227	0xbc80e130	-0.015732378
228	0xba87a200	-0.0010347962
229	0xbabe080a	-0.0014498245
230	0xb8264494	-3.9641352e-05
231	0x3adb05e4	0.001671013
232	0xbb7f566c	-0.0038961424
233	0xbbc3e101	-0.0059777503
234	0xbb0b658e	-0.0021270248
235	0x39864fbc	0.00025617878
236	0xba940d3b	-0.0011295447
237	0xbad98286	-0.0016594685
238	0x3b3e5231	0.002904069
239	0xbb7c2483	-0.003847391
240	0x3a353730	0.00069128256
241	0x3a62b9b4	0.0008648888
242	0xb9fc3518	-0.00048104743
243	0xb9c5be9a	-0.00037716777
244	0x3b3b31fb	0.0028563726
245	0x3b0887c5	0.0020832878
246	0x3a33906b	0.0006849828
247	0xb9fe15f9	-0.00048463026
248	0x398ff88f	0.00027460276
249	0xb91a15eb	-0.0001469475
250	0xbab7c19a	-0.001401949
251	0x3a8f5379	0.0010934911
252	0xbb1c134d	-0.0023815215
253	0xbb0976e4	-0.0020975405
254	0x3a767aad	0.00094024354
255	0x3a696671	0.00089035096

exp_avg_sq f4 [128, 12]
0	0x35145d0a	5.5269686e-07
1	0x352d1375	6.4475836e-07
2	0x35427ea6	7.245493e-07
3	0x364a58d8	3.015206e-06
4	0x36766ac8	3.6719011e-06
5	0x37acd58f	2.0603444e-05
6	0x35be80a2	1.419354e-06
7	0x34f2f1e7	4.525202e-07
8	0x35207d26	5.978676e-07
9	0x37032f56	7.81923e-06
10	0x367428d3	3.6382596e-06
11	0x371d76b2	9.385565e-06
12	0x360cb826	2.0968814e-06
13	0x36a871b4	5.020027e-06
14	0x3663f583	3.3968543e-06
15	0x3761b3ba	1.3452891e-05
16	0x376648e0	1.3726036e-05
17	0x38c9a32d	9.614821e-05
18	0x37bd94a7	2.2599777e-05
19	0x36df6431	6.6575817e-06
20	0x369ae520	4.6162313e-06
21	0x387f07ab	6.080388e-05
22	0x37e78a5b	2.7601773e-05
23	0x3853f548	5.0534756e-05
24	0x37a8fa4d	2.0143716e-05
25	0x382b26c0	4.0805666e-05
26	0x38528382	5.0190378e-05
27	0x3944aa7d	0.00018755528
28	0x39268abe	0.00015882679
29	0x3ab0b85d	0.0013482679
30	0x38ad7552	8.2711354e-05
31	0x37d2aba9	2.5113886e-05
32	0x384dc891	4.90626e-05
33	0x3a74e875	0.00093425
34	0x392d58ec	0.00016531692
35	0x3a508734	0.0007954717
36	0x373cfa78	1.126399e-05
37	0x3782c12f	1.5587166e-05
38	0x37810233	1.5379022e-05
39	0x38973373	7.209824e-05
40	0x388a4fdf	6.59523e-05
41	0x3a00db54	0.0004915495
42	0x3730cbde	1.0537884e-05
43	0x376a9b93	1.3983709e-05
44	0x37708dfc	1.4338173e-05
45	0x399248ce	0.00027901534
46	0x38e118d3	0.0001073346
47	0x3987092f	0.0002575605
48	0x36869917	4.011333e-06
49	0x370df2b6	8.4607655e-06
50	0x35f7b5b2	1.8455814e-06
51	0x376812eb	1.3832682e-05
52	0x383c7eec	4.4940898e-05
53	0x39539e98	0.00020181609
54	0x36246496	2.4496453e-06
55	0x3603231a	1.9540953e-06
56	0x3625138f	2.45983e-06
57	0x38539e42	5.045371e-05
58	0x37fdb628	3.0244773e-05
59	0x38ac0d1b	8.20404e-05
60	0x36b7f3fc	5.4822285e-06
61	0x36dc87cd	6.57232e-06
62	0x376f2bd1	1.4255712e-05
63	0x387710ac	5.8904916e-05
64	0x37e39d74	2.7133829e-05
65	0x3985254b	0.00025395522
66	0x37600aa3	1.3353917e-05
67	0x36b6f21b	5.4522075e-06
68	0x373a443c	1.1102351e-05
69	0x3940b802	0.00018379095
70	0x3782dbc8	1.5599551e-05
71	0x390e2545	0.0001355606
72	0x3651bbbd	3.1252705e-06
73	0x36d67f24	6.392498e-06
74	0x371fbee0	9.52158e-06
75	0x372a28d9	1.01423e-05
76	0x36d80afb	6.43858e-06
77	0x382deb20	4.146539e-05
78	0x37d0e653	2.4902785e-05
79	0x36aacb9c	5.090098e-06
80	0x372680a0	9.924319e-06
81	0x383cf2fa	4.5048982e-05
82	0x371ab4ff	9.221257e-06
83	0x3803ad61	3.1394306e-05
84	0x37283e9b	1.0028157e-05
85	0x37d5b80a	2.5477279e-05
86	0x37817f59	1.54373e-05
87	0x38c7962b	9.5170304e-05
88	0x38bcd136	9.003507e-05
89	0x3a0b9b9e	0.0005325618
90	0x380cacf0	3.353966e-05
91	0x3794b8e1	1.7729066e-05
92	0x37694754	1.390449e-05
93	0x3964bc93	0.00021814024
94	0x38b98ed3	8.8480905e-05
95	0x39c67d3d	0.00037858813
96	0x36b321f8	5.33857e-06
97	0x3737b5f9	1.0950019e-05
98	0x36912852	4.3260306e-06
99	0x379e19cf	1.8847086e-05
100	0x379c8884	1.866022e-05
101	0x38fa2e87	0.00011929595
102	0x3953873b	0.00020172905
103	0x37a1d988	1.9293991e-05
104	0x3797f8f9	1.811654e-05
105	0x3a692cfb	0.0008894947
106	0x393e902d	0.00018173522
107	0x3932528e	0.00017006157
108	0x37993472	1.8263443e-05
109	0x37d136ca	2.4940255e-05
110	0x37a63436	1.9813055e-05
111	0x380ccf2a	3.3571538e-05
112	0x38c7662c	9.5080904e-05
113	0x39da3dfd	0.00041626385
114	0x387eaced	6.071937e-05
115	0x3781c91d	1.5471649e-05
116	0x37c2b1e4	2.3209439e-05
117	0x39c19941	0.00036926012
118	0x39015ccf	0.00012336973
119	0x38fc386c	0.00012026806
120	0x36de8f23	6.632779e-06
121	0x36bd3bcb	5.6395997e-06
122	0x36b78bfc	5.4701213e-06
123	0x3789b7d4	1.6417274e-05
124	0x38395e24	4.4195112e-05
125	0x38aa30c6	8.1153165e-05
126	0x379357ee	1.7564711e-05
127	0x36f9e5a4	7.447512e-06
128	0x36c81a21	5.9635063e-06
129	0x38555ce6	5.0869676e-05
130	0x387030ff	5.726609e-05
131	0x382afe36	4.076791e-05
132	0x386e347d	5.6792505e-05
133	0x389b353c	7.4008916e-05
134	0x38261579	3.9597482e-05
135	0x38cf4827	9.8839686e-05
136	0x39de3466	0.0004238218
137	0x3aa833a3	0.0012832772
138	0x3821da52	3.8588718e-05
139	0x37332cc5	1.0679655e-05
140	0x3875ee2f	5.8634378e-05
141	0x3aa43f0d	0.0012530998
142	0x395e56f2	0.0002120396
143	0x3ae69fb2	0.00175952
144	0x38463265	4.7253812e-05
145	0x399f5eef	0.00030397574
146	0x39b5169b	0.00034539853
147	0x3af5fc26	0.0018767163
148	0x39fef455	0.00048628697
149	0x3c2b8b5a	0.010470236
150	0x39c5ccba	0.000377273
151	0x3914c283	0.00014186841
152	0x39bf7bca	0.0003652259
153	0x3bf6b21c	0.0075285565
154	0x3a248235	0.0006275506
155	0x3c12d464	0.008961771
156	0x38669826	5.4977972e-05
157	0x38c1c574	9.239736e-05
158	0x382a27e3	4.0568306e-05
159	0x3983d974	0.00025148282
160	0x3a0498ac	0.000505815
161	0x3b1fd0e9	0.0024385995
162	0x380d8ddf	3.3749147e-05
163	0x384e84cf	4.9237915e-05
164	0x38403028	4.5821216e-05
165	0x3a9257f7	0.0011165132
166	0x3a0f1a6e	0.00054589554
167	0x3a9601cb	0.0011444626
168	0x361ad488	2.3071498e-06
169	0x37330273	1.0669802e-05
170	0x36b6b52b	5.4451134e-06
171	0x3802e765	3.120992e-05
172	0x3812d8a3	3.501087e-05
173	0x39abe265	0.0003278434
174	0x35cdee5c	1.5343062e-06
175	0x36dd883d	6.6021735e-06
176	0x35d00442	1.5498447e-06
177	0x37f6a00e	2.9400017e-05
178	0x38581f52	5.1527582e-05
179	0x38afbe38	8.380081e-05
180	0x370662a9	8.0099935e-06
181	0x37b07b6c	2.1038308e-05
182	0x37232f77	9.726608e-06
183	0x38859257	6.369192e-05
184	0x38ba98d4	8.8976376e-05
185	0x3a157959	0.0005701981
186	0x36d72ddd	6.4128385e-06
187	0x374132ab	1.15154935e-05
188	0x36a6ddae	4.9729924e-06
189	0x38b4cd16	8.621269e-05
190	0x38d943cf	0.00010359997
191	0x38ed3496	0.000113108355
192	0x35ee5bf0	1.7759139e-06
193	0x36047267	1.9736124e-06
194	0x3654ef86	3.1729883e-06
195	0x36f0eb4f	7.179951e-06
196	0x371fe81c	9.531181e-06
197	0x3800ed4b	3.0738574e-05
198	0x37244c0d	9.792869e-06
199	0x36068cbb	2.0049472e-06
200	0x3628aa89	2.5133215e-06
201	0x38087861	3.253704e-05
202	0x37078717	8.07808e-06
203	0x37a7a7fb	1.9986173e-05
204	0x35eb659a	1.7538434e-06
205	0x354ff11e	7.746438e-07
206	0x37208464	9.567568e-06
207	0x37c1c8e8	2.3100947e-05
208	0x36dc76b4	6.57033e-06
209	0x38b9a77d	8.8526846e-05
210	0x36a6da4e	4.9725995e-06
211	0x35ec8963	1.7623355e-06
212	0x365e3fec	3.3117785e-06
213	0x37569ce4	1.2791923e-05
214	0x35fe67d2	1.895469e-06
215	0x3830f4e4	4.2189742e-05
216	0x388debf9	6.767357e-05
217	0x382aa6cb	4.0686497e-05
218	0x3812a609	3.4963745e-05
219	0x39341f19	0.00017177722
220	0x39d904d1	0.00041393054
221	0x3a2fee35	0.0006711216
222	0x39b09e0d	0.00033687093
223	0x3859d4e9	5.193512e-05
224	0x383ad915	4.454803e-05
225	0x3b196990	0.0023408867
226	0x3a00f6f9	0.00049196143
227	0x3a3e6b09	0.0007263874
228	0x37253f4b	9.849503e-06
229	0x3740d1b9	1.1492922e-05
230	0x37a5ccc9	1.9764893e-05
231	0x389f1208	7.5850694e-05
232	0x386ebaa2	5.6917437e-05
233	0x39ac413f	0.0003285501
234	0x37f2a6ff	2.8926412e-05
235	0x378bce14	1.6666054e-05
236	0x370c768d	8.3722525e-06
237	0x391bca19	0.00014857239
238	0x389f7f03	7.6053686e-05
239	0x391a89ef	0.00014737969
240	0x35c4a0ae	1.4649902e-06
241	0x368db6a2	4.2233887e-06
242	0x369f1f5b	4.7422195e-06
243	0x37e40222	2.7180711e-05
244	0x3738d362	1.1016471e-05
245	0x390872ab	0.00013012688
246	0x36945cf3	4.4215644e-06
247	0x36bd7a7c	5.646898e-06
248	0x35c37c61	1.4564831e-06
249	0x37deaeaa	2.6545797e-05
250	0x37ab5ac5	2.0427056e-05
251	0x38357fbc	4.3272725e-05
252	0x37050edf	7.93088e-06
253	0x377c402c	1.5035312e-05
254	0x371e265c	9.426465e-06
255	0x3894eb9e	7.101077e-05

exp_avg f4 [128, 32]
0	0x37af8007	2.0921243e-05
1	0xb8573569	-5.1309737e-05
2	0xb84b94bf	-4.8537502e-05
3	0xb8dae6b6	-0.00010438023
4	0x380c5388	3.3456396e-05
5	0x378ba19c	1.6645346e-05
6	0x3828cf7d	4.024756e-05
7	0xb75a1341	-1.29982955e-05
8	0x379d7e05	1.877454e-05
9	0xb88a793e	-6.602936e-05
10	0x3781fdf8	1.5496262e-05
11	0x383e4088	4.535963e-05
12	0x38fc14d4	0.00012020176
13	0x38867f40	6.41332e-05
14	0x37f6bc01	2.9413031e-05
15	0x37c993af	2.4029838e-05
16	0x37b8a396	2.2010685e-05
17	0x38ce4a4b	9.8366836e-05
18	0xb80587eb	-3.1836254e-05
19	0xb7311aa9	-1.0556229e-05
20	0x381647da	3.5829704e-05
21	0x384fc365	4.953462e-05
22	0x37530ff8	1.2580298e-05
23	0x382dc9ff	4.1434538e-05
24	0x390e6e06	0.00013583162
25	0xb746a0e7	-1.1839183e-05
26	0x37acb1e8	2.0586842e-05
27	0xb86a0132	-5.579106e-05
28	0x39067400	0.00012822449
29	0x381f5642	3.7988888e-05
30	0xb9ac746b	-0.00032893135
31	0xb84acbbb	-4.835029e-05
32	0xb7934fc7	-1.7560915e-05
33	0xb806620a	-3.2039396e-05
34	0x37b7adb8	2.1896194e-05
35	0x37febc31	3.0366793e-05
36	0xb7f2f620	-2.8963259e-05
37	0x38a43f58	7.831928e-05
38	0xb809d421	-3.2860906e-05
39	0x368b4508	4.150559e-06
40	0xb8ab9ea9	-8.183468e-05
41	0x32f4c1b6	2.8493428e-08
42	0xb89e235e	-7.540615e-05
43	0x382ca5f7	4.1162562e-05
44	0xb8a0775d	-7.651628e-05
45	0xb8135089	-3.5122535e-05
46	0xb7d742b4	-2.5661058e-05
47	0xb7dc5c2d	-2.6268966e-05
48	0x375fb8b9	1.3334845e-05
49	0xb8e934d3	-0.00011120145
50	0x3828fd54	4.029025e-05
51	0xb70212f1	-7.753014e-06
52	0x36b7973a	5.47143e-06
53	0xb8cd239e	-9.781796e-05
54	0xb91719c7	-0.00014410085
55	0xb8c0003d	-9.155318e-05
56	0x3779e9fb	1.4896034e-05
57	0xb87c0159	-6.0082737e-05
58	0xb70a2b84	-8.235573e-06
59	0xb893a729	-7.040642e-05
60	0xb91c3164	-0.00014895719
61	0xb7d5bace	-2.5478566e-05
62	0xb90a5f43	-0.00013196193
63	0x3827aa18	3.9974315e-05
64	0xb8241f20	-3.9129634e-05
65	0xb769681f	-1.3912125e-05
66	0xb9c1d3cc	-0.0003696963
67	0x391daa74	0.00015036186
68	0x37a2dfd5	1.9416135e-05
69	0xb7b28b5b	-2.1284146e-05
70	0x396aad29	0.00022380486
71	0x38d1d1fb	0.000100050085
72	0x38a31ecc	7.778182e-05
73	0xb948ad9d	-0.00019138162
74	0xb989973e	-0.0002624336
75	0xb8b85356	-8.789326e-05
76	0xb9e64994	-0.00043923839
77	0x37207fb3	9.5664755e-06
78	0xb8521a88	-5.009261e-05
79	0xb79140ee	-1.7315582e-05
80	0xb8ca6c26	-9.652255e-05
81	0xb98b86bb	-0.00026612528
82	0x397ab592	0.00023909498
83	0x38ca197d	9.636858e-05
84	0x394879d2	0.00019118868
85	0x39305b44	0.00016818667
86	0xb7d2085c	-2.5037843e-05
87	0xb7b970bd	-2.2106216e-05
88	0x3a325912	0.00068034336
89	0xb8fe3839	-0.00012122136
90	0x3915cf40	0.00014286954
91	0xb8f399b8	-0.00011615775
92	0x3929be31	0.00016187948
93	0xba036130	-0.00050117355
94	0x3a4d6873	0.00078356935
95	0x39e12092	0.0004293961
96	0xb8c15d33	-9.220317e-05
97	0x38932282	7.015934e-05
98	0x3813a8b2	3.520464e-05
99	0xb8c75391	-9.504625e-05
100	0xb81aad50	-3.687787e-05
101	0x38cf3166	9.87973e-05
102	0x3882da3d	6.239533e-05
103	0x390566b2	0.00012722125
104	0xb8172b2f	-3.6041423e-05
105	0x38a7e64c	8.006077e-05
106	0x39186cde	0.00014536406
107	0x39288988	0.00016072963
108	0x391db1c1	0.00015038905
109	0x3867a601	5.5229295e-05
110	0xb9003d4b	-0.00012229865
111	0xb93af488	-0.00017829437
112	0xb93f1b13	-0.00018225265
113	0xb91d8ccb	-0.00015025136
114	0xb879f38e	-5.9593054e-05
115	0x38d29922	0.000100421035
116	0x382dcab0	4.143518e-05
117	0xb93c7d8f	-0.00017975851
118	0x3925c42d	0.00015808707
119	0xb937e9be	-0.00017539316
120	0xb9933384	-0.00028076407
121	0x39040522	0.00012590413
122	0x37a3d9bb	1.9532503e-05
123	0x36816178	3.8558464e-06
124	0xb9e42eb8	-0.00043522357
125	0x39172e6e	0.00014417779
126	0xb9fa0539	-0.00047687607
127	0x390f94da	0.00013692994
128	0x38683569	5.5362852e-05
129	0xb8a0aab2	-7.661189e-05
130	0x394d5c05	0.00019584603
131	0xb922d627	-0.00015529302
132	0x3803756e	3.13422e-05
133	0xb8d49a72	-0.000101377154
134	0xb85a1e52	-5.200349e-05
135	0xb9328c0f	-0.00017027579
136	0x38843aa4	6.305173e-05
137	0x3779119f	1.4845659e-05
138	0x3927bd83	0.0001599696
139	0xb72315ac	-9.720603e-06
140	0x39edbc9b	0.00045344685
141	0x391b0860	0.00014785072
142	0x39449f52	0.00018751368
143	0x38e8aeb8	0.00011095166
144	0x39040e8d	0.00012593922
145	0x3a13f9d3	0.00056448317
146	0xb927a8e6	-0.0001598928
147	0xb8ee4523	-0.00011361602
148	0xb8c52e75	-9.402345e-05
149	0x396fc7c0	0.00022867229
150	0x38d1135c	9.9695026e-05
151	0x3986c905	0.00025708243
152	0xb923ecd0	-0.00015633111
153	0x370d2f33	8.415244e-06
154	0x36e88df4	6.9306643e-06
155	0xb7300b06	-1.0492984e-05
156	0x39ebb4e1	0.00044957458
157	0x39a20779	0.00030904615
158	0xb9a75ef9	-0.00031923482
159	0xb9a4fa79	-0.00031467134
160	0x386f64ff	5.70761e-05
161	0xb7a9bd9f	-2.023467e-05
162	0x397069cf	0.000229276
163	0xb48f1279	-2.6649266e-07
164	0x3856aab4	5.1180556e-05
165	0xb90a168e	-0.00013169108
166	0xb957ff67	-0.00020599143
167	0xb92dc329	-0.00016571268
168	0x38448dc8	4.6862086e-05
169	0x38c70686	9.4902745e-05
170	0xb91b58ef	-0.00014815082
171	0xb8cf6000	-9.8884106e-05
172	0x3928db9c	0.0001610354
173	0xb90c28ed	-0.00013366686
174	0x393a80cb	0.00017786321
175	0x39105fd8	0.00013768615
176	0x391aef33	0.00014775693
177	0x39c6dd8c	0.00037930568
178	0xb8849e88	-6.323779e-05
179	0xb929d1ef	-0.00016195302
180	0xb95d44b1	-0.00021101792
181	0x391d43ab	0.00014997895
182	0xb8dcdba2	-0.00010531327
183	0x391eb3b0	0.00015134993
184	0xb9835eae	-0.0002505681
185	0xb8ef2aed	-0.000114044036
186	0xb84c53c3	-4.87154e-05
187	0x38880ca3	6.487339e-05
188	0x39be7b8b	0.0003633167
189	0x39359d57	0.00017320119
190	0x39c054a4	0.00036684156
191	0xb9adbb36	-0.00033136614
192	0x380fa81b	3.4250417e-05
193	0x37c6a180	2.3678644e-05
194	0x396f9fe1	0.00022852376
195	0xb73d8ee5	-1.1298548e-05
196	0x37dc7545	2.6280652e-05
197	0xb95186af	-0.00019981967
198	0xb92015b5	-0.00015266876
199	0xb92a0112	-0.00016212862
200	0x389a55b3	7.359255e-05
201	0x3867af5d	5.523801e-05
202	0x38d2a9ce	0.00010045209
203	0xb8b5d59d	-8.670541e-05
204	0x3965e857	0.00021925695
205	0xb77b0af1	-1.4963313e-05
206	0x391bfdec	0.00014876545
207	0x3908fd81	0.00013064408
208	0x38f536aa	0.00011692692
209	0x39de59bc	0.00042409997
210	0xb8edbde4	-0.000113364105
211	0xb90f8c41	-0.00013689791
212	0xb93d56cb	-0.00018056777
213	0x390ba1aa	0.00013316298
214	0x381a9018	3.685066e-05
215	0x391d4e62	0.00015001887
216	0xb98436a6	-0.00025217718
217	0xb79173dc	-1.7339298e-05
218	0xb7e74591	-2.756974e-05
219	0x38a16268	7.695408e-05
220	0x39af6f10	0.0003346135
221	0x39392c6c	0.00017659523
222	0x3981c43e	0.0002475101
223	0xb9a65747	-0.00031727014
224	0x38d51ba5	0.00010161781
225	0xb82b2e8f	-4.0812938e-05
226	0x39ea44f5	0.00044683335
227	0xb91786fd	-0.00014450769
228	0x3919e313	0.00014675809
229	0xb9d883d9	-0.00041296965
230	0xb9915866	-0.00027722417
231	0xb9c79341	-0.0003806595
232	0x395103d5	0.00019933221
233	0x387e6e77	6.0661197e-05
234	0x38fee966	0.00012155138
235	0xb9297d7d	-0.00016163844
236	0x3a249703	0.0006278606
237	0xb602fcbf	-1.9518627e-06
238	0x39ba00b0	0.00035477197
239	0x399a5a22	0.00029440323
240	0x3992d82c	0.0002800835
241	0x3a93704a	0.0011248675
242	0xb9ac0f65	-0.00032817866
243	0xb9a96d0a	-0.00032315432
244	0xb9bca1c2	-0.00035978673
245	0x39c8277d	0.00038176394
246	0x38ee0680	0.00011349935
247	0x39d37d6a	0.00040338497
248	0xb9c971f5	-0.00038422612
249	0xb8c607b1	-9.4428084e-05
250	0xb73d1c3b	-1.1271851e-05
251	0x38a18564	7.701924e-05
252	0x3a739d5e	0.0009293164
253	0x39fae2fd	0.00047852835
254	0x39cfe9c2	0.0003965628
255	0xba3f544b	-0.00072986324
