models/drone/policy_opp_rotor_best_iter59.pth (torch, 80830 bytes, 20 tensors)

lstm.weight_ih_l0 f4 [128, 12]
00000000: 9ffc 313e 869e e23e a1e1 73be 796a 2d3e
00000010: 4a79 963e 0d0e 5dbc e95a 00bd 2d9a f8bd
00000020: 1e88 9dbd c4b1 f43d 80a5 573d 0945 c13c
00000030: e942 a7be 0266 313d 09fe 633e c336 cc3c
00000040: 9e67 3b3d c46a 21be d6d0 e53c 12df f03e
00000050: fc27 db3d 780c 38bd 7a1e 053e a24b 2dbe
00000060: c544 22be c89c b2bc e82b dd3c 1c94 1bbe
00000070: 4d08 573d 4b4e ffbc 865e 2abd e426 c5bc
00000080: 35c1 4d3e 53d2 dcbd 7df2 b8bd c3c6 a73d
00000090: 1b37 38be 4833 40bf 705d d83b 4583 7fbe
000000a0: 10b7 103c 010e 96bd 871b d7ba 4e76 e6bd
000000b0: 6abc 573d cdcf 2abd 222d 193e fa4d 11be
000000c0: 4fb7 a9be 5f86 e9be f2a3 a13e 8068 d1be
000000d0: a045 33bf 7325 c3bd b9f6 a73e a34c 8d3c
000000e0: 9314 2e3e 963e f2bc 580f 683d 90ba 4d3d
000000f0: 6993 753e 4c49 7b3d 6e90 94be b6e3 cf3d
00000100: 6c16 283d bc3a a13d 3975 e03d 9eea 423d
00000110: 0e38 5dbd 7faa 4cbe 1b19 e5bd 2818 56be
00000120: cf28 ce3d 7787 153f e9ca 84be 2bb0 17be
00000130: 5090 b4bb 556f a0bd 391f 5bbd 4a10 e1bd
00000140: 5d02 87bd fdf2 333e 1776 473d a27e 0b3e
00000150: 306c 94be 6817 d43d d8ba 6f3e 3d5f f63d
00000160: 87b5 003d 01ae cbbd 9434 9d3d 0d2a 5cbe
00000170: 8a55 7ebd 9cbb 94bd 331c a1be 3b2e dfbc
00000180: 4d8b 34bc fad2 d93d 1f31 7dbe 722d e1bd
00000190: 95db 923c 66f5 3cbc 1907 acbe e1ac 97be
000001a0: d978 043e 628c f2bd b9fb 8fbc c66f d23d
000001b0: 9cfb 15be 9707 6c3e dd8f a33d 2ae2 9bbd
000001c0: c1dd 853e 4262 c63d 0cb2 4c3e 6de4 cd3e
000001d0: 73f9 483e a8fa 173d 74ad 5e3e 4789 0f3e
000001e0: 7b68 c4be f52f 2bbf bf11 973e b9c7 6dbc
000001f0: fd85 b6bd 726e 34bc 5efe b4be f461 bb3e
00000200: ba9d 823e 080f e8bd 5121 54be 1a60 a53c
00000210: dddd f0bd 801c a63e e93c 043d e848 5fbe
00000220: abfe 133e d7e0 393e de6b e1bc 41de ddbd
00000230: 37a4 fe3d 703c 1dbd 5190 8ebd 6176 22bd
00000240: e3b7 8abe cb05 13bf 071e 003d 85d4 733b
00000250: bc35 85be f0a5 113c b159 b8be 5df4 133f
00000260: 0d39 37be 6946 8b3a e51e 6e3e c41e e338
00000270: 926a a5be 1507 22be 0d16 b43e 5bb6 3b3e
00000280: ad8f 5abe 3bf9 1d3e c5b6 033d 9a03 923e
00000290: 72ed d73d 7f6c 163c 0b21 b2bd 0a6e 0fbe
000002a0: fd74 5cbd 64ac 98bc a308 34be 1426 3cbe
000002b0: 7a52 063e 0a58 9dbe 1546 d7be a363 32bd
000002c0: 3b3a a23e 19ec a63c e7dd 0cbc 00f6 993d
000002d0: d701 babd 9cb4 c73d b645 4c3d 685e 21be
000002e0: 9ad7 833e 1237 003e 2019 623e 06d6 e13e
000002f0: c636 78bd cc5e 7a3c 339a 823e 12be 38bd
00000300: 98f1 72be e268 273f f79f 0fbe 813a 713d
00000310: 75d7 453e 6244 e33d 976e 673e b9d8 17be
00000320: 34a9 3cbd 771a 053e 1e47 533d 3fbe fa3d
00000330: d93b 1cbd 21d2 eebd e79d e93d f7d0 bd3d
00000340: 57a0 e93d 90ec 06bd e17d 363d c690 1b3d
00000350: 5843 a73e 895e 313d cb5d ab3a 3b02 6e3e
00000360: d2ae 193e dac0 933d b928 8dbe c4b4 ebbc
00000370: 1afc 25be d868 133e d85c 983d 1fa8 203d
00000380: 0ac0 c0bd af22 00bd 2600 0bbe 0f05 23be
00000390: ec0a 37be 7f5e 873d b5de d53d aad2 59be
000003a0: 199c 813c fe53 97bd abad 513d 8d95 31bd
000003b0: 420a e73d cdc0 e73d 3d77 663e 4ab7 26bd
000003c0: 237f c2bd f13d 6cbe 185e e53d b89b bc3d
000003d0: 12c2 1dbd 3ee2 ac3d 5816 373e 583e 613e
000003e0: dcf3 87bc 10ff 6bbb 4b31 6fbc 8b6a d6bd
000003f0: 6b78 263e 138f 6ebe 1160 0b3c f2fb c7bd
0.17381524 0.4426157 -0.2381654 0.16935147 0.2938941 -0.0134921195 -0.0313367 -0.12138782
-0.07691978 0.119479686 0.052648067 0.023592489 -0.32668236 0.043310173 0.22264875 0.024928456
0.045753114 -0.15763384 0.028053682 0.4704519 0.10700986 -0.044933766 0.12999907 -0.16923383
-0.15846546 -0.021803275 0.026998475 -0.15193218 0.05249815 -0.031165263 -0.04159405 -0.024066396
0.20093234 -0.10782304 -0.09030626 0.08192208 -0.17989771 -0.7507825 0.0066029355 -0.24952419
0.008832708 -0.0732689 -0.0016411402 -0.112530336 0.05266992 -0.04170208 0.14958623 -0.14189902
-0.33147666 -0.4561033 0.31570393 -0.4090004 -0.70028114 -0.09528627 0.32805422 0.017248457
0.17000036 -0.029570859 0.056655258 0.050226748 0.23982014 0.0613492 -0.2901644 0.10150854
0.04103701 0.07872531 0.109598584 0.04758703 -0.054008536 -0.19986914 -0.11186429 -0.20907652
0.10066377 0.5840983 -0.25936058 -0.14813296 -0.0055103675 -0.07833735 -0.053496573 -0.10989435
-0.06592248 0.17573161 0.048696604 0.13622525 -0.2898879 0.10356027 0.23411119 0.12029884
0.031423118 -0.09945298 0.07676044 -0.21500416 -0.062093295 -0.07262346 -0.31466827 -0.027243724
-0.01101954 0.10635944 -0.2472577 -0.10994996 0.01792697 -0.011533117 -0.33599165 -0.29624084
0.12936725 -0.11843182 -0.017576085 0.10275225 -0.14646763 0.2304977 0.07986424 -0.07611497
0.26145747 0.0968671 0.19989794 0.40213338 0.19626407 0.03710428 0.21745855 0.14017211
-0.38360962 -0.6687005 0.29505727 -0.01451295 -0.08912275 -0.01101266 -0.35350317 0.3659817
0.2551096 -0.11330992 -0.20715834 0.020187426 -0.11761067 0.3244362 0.03228465 -0.21805155
0.14452617 0.18152176 -0.027517255 -0.10833407 0.12433665 -0.038387716 -0.0696112 -0.039663676
-0.2709342 -0.57430714 0.031278636 0.003720553 -0.2601756 0.00888966 -0.3600593 0.57794744
-0.17892857 0.0010625842 0.23253973 0.00010829934 -0.3230787 -0.15823014 0.35173073 0.18331282
-0.2134387 0.15427105 0.032156724 0.28518373 0.10543336 0.009181141 -0.08697709 -0.1400682
-0.053822506 -0.01863689 -0.1758142 -0.183739 0.131174 -0.3073123 -0.42045656 -0.043552052
0.3168505 0.020376252 -0.0085978275 0.07517624 -0.09082382 0.097512454 0.04987117 -0.1575867
0.25750428 0.12521008 0.22079897 0.441086 -0.06059911 0.01528139 0.2550827 -0.04510314
-0.23724973 0.65394413 -0.14025865 0.058893684 0.19320472 0.11097027 0.2260078 -0.14828767
-0.046059802 0.12998377 0.051581495 0.12243318 -0.038143013 -0.11661173 0.114070706 0.092683725
0.114075355 -0.032940447 0.04455364 0.037979864 0.32668567 0.043303046 0.0013074217 0.23243038
0.15008095 0.07214518 -0.2757013 -0.02877272 -0.1620945 0.14395463 0.074395835 0.039222833
-0.094116285 -0.031283077 -0.13574275 -0.15919898 -0.1787526 0.066098206 0.104428686 -0.21271768
0.015821503 -0.07389067 0.051191013 -0.043355513 0.112812534 0.11316071 0.22506423 -0.04070214
-0.09496906 -0.23070504 0.111995876 0.092093885 -0.038515158 0.0844159 0.17879617 0.21996439
-0.016595773 -0.0036010183 -0.014599155 -0.1046954 0.16256873 -0.23296766 0.008506791 -0.09764852

lstm.weight_hh_l0 f4 [128, 32]
00000000: 716c 04bc f58f 03be 6e0f 73be 084b 013e
00000010: 990e 043e ded0 b33c bde2 00bd c913 753e
00000020: df9e 1abe 34d2 473e c407 1dbe 5ae1 e03d
00000030: 0a54 8bbe 1a22 8d3c 0032 113d 4238 4abc
00000040: 965e 7a3d 7f4b 943c 49a9 253e ce00 903e
00000050: acb7 b7bd 5250 23be 4995 053e 251a b7bc
00000060: cee1 073e 3f10 053e 7679 a73d 5949 473e
00000070: 6dc4 763d 427a ed3d 2fe5 b5bd d92f 7a3c
00000080: f6e2 4fbd 8f5b ebbd 3ba6 c23d a3f5 c9bc
00000090: 7e83 ae3d 3c9c 23bd b203 15bd 779e 64bc
000000a0: d3a5 b43c e244 30bd 47d8 babd dbd1 a43d
000000b0: 0860 9fbd fce9 11be 6239 c63d 6e18 62ba
000000c0: be27 f9bd 45f7 82bd 2bf2 56bd 8c74 14bc
000000d0: 6733 d3bd 124d 62bd 5dc8 d6bd aac5 293e
000000e0: ea11 703e 1681 9abd 2d52 7e3e 9e8e 883e
000000f0: 7dd8 843d 35cf 74bd aada 923d 9a7f 55bc
00000100: c239 f5bd 84e2 a9bb f6fa 663e f87f 21bc
00000110: 4dff 97bd 8f07 0e3d 0fc9 bebd 8ca5 fdbc
00000120: a6d2 36be 36e4 debd 31de 7c3e a73a 273e
00000130: d242 f2bd 7d30 18be 5504 13bd d7de 0ebe
00000140: 5921 313d 5ad3 5ebc ae19 a0bb e1da 2a3b
00000150: f4df 31be 52c0 ec3d 0e48 9ebe 8e24 a0bd
00000160: 06df a1be 0bf4 cebd a8aa 9d3c 7388 1abe
00000170: 229d 49bd e507 a7bd 5c5b 6a3e cb93 743d
00000180: 9cdf 363e c8ed 2abe 3c1e 603e 0db3 7bbd
00000190: b6e1 28be 5f0b 32be b7fc 90bd 23cc 3c3e
000001a0: fa75 59bd 1ce3 55bb a29a ba3e 794f 7cbe
000001b0: d007 9e3e 0990 edbd 412f b7bd 43c5 32be
000001c0: f2dc 84be 2106 f83d b54b 953d 6309 103e
000001d0: 4c62 043e 1039 873e 29ea 023e ec61 8abd
000001e0: 025f 9fbd 9846 453d 268e 563d 918e 3dbe
000001f0: 943c 84be 30a3 d53d b523 99bd a348 8a3e
00000200: c4f4 49bf b20a 663d a1c6 cebe 0fc2 fa3c
00000210: 9717 e9be 51c5 acbd 7468 33be 95d6 f73c
00000220: d98b 6fbd c8c0 4e3e d88b a83e 3332 ee3e
00000230: 5b16 09be 6b79 34be f46f 5b3e 0632 083d
00000240: 7ce3 5dbd 3917 87bd b95d 983e ba50 183d
00000250: 05a2 b9bd e140 fbbd c0b1 ed3d 371d 7b3d
00000260: 33d6 7dbc 8028 6c3e 76bd 18bf edfb c2be
00000270: 30c3 ec3d e1fa 183c 734d 8b3d 525e b7be
00000280: f4fe 473e 849b b23c 9dc7 30be 1ad3 e23d
00000290: b4d2 be3c f6e7 d23d 62e7 d63d fc27 56bd
000002a0: 6778 d13e 1e80 2bbd 9403 a6be 7d7f 8ebd
000002b0: c120 9cbc 8160 9dbd 7b5c efbd 3857 babc
000002c0: b35f 883d 9a05 febd cbe2 e73d 21c5 2c3d
000002d0: e89c 483d 710c 83be b0c8 f0bd 71ee 063c
000002e0: fc22 5a3e 4a97 6f3e b570 f9bd 05f8 233e
000002f0: fd2c 71bc 3061 313d 3482 4ebe 6c6c cfbc
00000300: 51e9 86bd 938e 4abd 1e13 533c 5796 33be
00000310: c909 0ebe 447e 743e e7db 9bbc 606c 0fbe
00000320: ca9c 383d 2c67 c8bc 1835 86be aa52 6c3b
00000330: 50ed 91be 3a34 bb3d 4eab 2a3e fc4c 3bbe
00000340: f001 123e 07ba bbbd bf69 86ba 4bf1 2dbd
00000350: cdc3 1b3e 939a 033d 8092 093e a5ea 363c
00000360: dc54 8c3d 52cf 2abd b8d8 643e cc6a 4a3e
00000370: 654c 443e a4ef a13d 5a3b 46be 638b 563e
00000380: d301 b1be c3aa f93c 361d ebbd 16c9 8abd
00000390: 2900 55bd 09fb 78be 678e 75bd aad3 5d3e
000003a0: b3a1 9f3c 516f ad3c dcf8 d4bd e5e2 a93e
000003b0: 2c47 89bc 0cec d73e ee6c 383e 5b80 a9bd
000003c0: fb8d fcbe 2fea b83d aa3c 3ebe 1ef0 0cbe
000003d0: b8c2 073b c066 383c 94bb e23d 897b 9cbb
000003e0: 2bd9 373e 36f6 373e 0d6c 03be f765 453e
000003f0: f289 77be 6c4f a53e ce1a 673e 4ba9 2f3c
-0.008082495 -0.12847884 -0.23736355 0.12626278 0.12896194 0.021950182 -0.031466234 0.23933329
-0.15099667 0.1951378 -0.15334994 0.109804824 -0.27212554 0.017228175 0.035448074 -0.0123425145
0.06112536 0.018102406 0.16177858 0.28125614 -0.089705795 -0.15948609 0.13045229 -0.022351334
0.13269731 0.12994479 0.08177464 0.19461574 0.06024592 0.115955845 -0.08881604 0.015270197
-0.050753556 -0.11492073 0.09504362 -0.024653262 0.08521174 -0.03994392 -0.036380477 -0.013953797
0.022051727 -0.04303444 -0.09123283 0.08047839 -0.077819884 -0.14249414 0.09678914 -0.0008624856
-0.12165783 -0.06394819 -0.052477043 -0.00906099 -0.103125386 -0.05524928 -0.10487435 0.16579309
0.23444334 -0.075441524 0.24836035 0.26671308 0.06486604 -0.05976792 0.07170613 -0.013030911
-0.11973907 -0.0051844735 0.22556672 -0.00985717 -0.07421742 0.034675177 -0.09315693 -0.030962728
-0.17853794 -0.108833715 0.24694134 0.16330968 -0.11829151 -0.14862247 -0.035892803 -0.13952194
0.043244693 -0.013600195 -0.0048858738 0.0026070403 -0.17370588 0.1156012 -0.30914348 -0.07819472
-0.31615466 -0.10105141 0.019246414 -0.15091114 -0.04922212 -0.08155803 0.22886413 0.05971126
0.17858738 -0.16692269 0.21886533 -0.061450053 -0.16492352 -0.1738715 -0.070794515 0.18437247
-0.053091027 -0.0032636588 0.364461 -0.24639691 0.30865335 -0.11599738 -0.0894456 -0.17458062
-0.25949818 0.12110544 0.072898306 0.14066081 0.12928122 0.26410723 0.12784638 -0.06756958
-0.07781793 0.048163027 0.052381657 -0.18511416 -0.25827467 0.10431516 -0.07477514 0.27008542
-0.7888911 0.056162544 -0.40385917 0.030610112 -0.4552581 -0.084360726 -0.17520314 0.030253688
-0.05848298 0.20190728 0.32919192 0.46522674 -0.13387434 -0.17624442 0.21429425 0.03325083
-0.054172024 -0.06596226 0.29759005 0.03718636 -0.09064106 -0.12268234 0.11606169 0.06130716
-0.015492964 0.23062325 -0.59664094 -0.3808283 0.115606666 0.009337158 0.06801882 -0.35814148
0.1953085 0.021802671 -0.17263646 0.11075421 0.02329383 0.10298149 0.104933515 -0.052284226
0.40912172 -0.04187023 -0.32424605 -0.0695791 -0.019058587 -0.07684422 -0.11687561 -0.022746667
0.06658878 -0.12403412 0.11322554 0.042180184 0.048977762 -0.2559543 -0.11757028 0.00823556
0.21302408 0.23397556 -0.121797 0.1601258 -0.014720199 0.043305576 -0.20166856 -0.025320254
-0.0658747 -0.049452376 0.012882976 -0.17537819 -0.1387092 0.23876292 -0.019025756 -0.14006186
0.0450714 -0.024463259 -0.26212382 0.0036060014 -0.28501368 0.09140821 0.1666691 -0.18291086
0.14258552 -0.09166341 -0.0010254903 -0.042466443 0.15211411 0.032129835 0.13434792 0.011164342
0.06852123 -0.041701622 0.22348297 0.19767302 0.19169767 0.07907036 -0.19358578 0.2095161
-0.34571704 0.030476933 -0.11480181 -0.06776635 -0.052002106 -0.24314512 -0.05995026 0.21662775
0.019486284 0.021171244 -0.10399029 0.3318092 -0.01675757 0.42172277 0.18010303 -0.08276435
-0.49327073 0.09029042 -0.18577829 -0.13763472 0.0020715427 0.011254966 0.11070934 -0.0047754687
0.17953937 0.17965016 -0.12834187 0.19277178 -0.24173716 0.32287157 0.22568819 0.010721515

lstm.bias_ih_l0 f4 [128]
00000000: b499 e0bc a947 23be 3196 20bd 3186 2dbd
00000010: 3963 623e ca7e bf3d 24ac bdbd b482 ec3c
00000020: 0175 d7bd 0109 b23c c923 9c3e ce93 d03d
00000030: a474 2dbe 3b78 2dbc 66b2 0abe c5f5 4c3d
00000040: 73fa 8d3c 4187 49bd f595 39bd 55c2 de3d
00000050: 178d 963d 96d8 c43d 7f4f 313e 5bdc 9b3e
00000060: 1c38 e4bd 482f ea3d 77c3 ed3d f261 573d
00000070: 54c9 61be 161e fb3e ba85 d43d 374c 87bd
00000080: a812 c3bc 9f7a d53d 080e 78be 9d12 0ebe
00000090: b83f 6fbd f1ba 453e 4a29 1cbc 49f7 e23d
000000a0: 18a7 043d 54f6 37be 6220 83be f730 f33c
000000b0: 525c 58be 5b73 afbd 6e67 d13c 59fe 12bb
000000c0: 170d 153e 3726 033e 4c37 e03d e5dd 553e
000000d0: 0c5a 0dbc ac58 69ba 3276 cbb9 cc03 a2bd
000000e0: 75db ffbd f725 a23d e574 f1bd ab75 9abe
000000f0: e9bc 00be 830a 34bc 8644 1fbe 0908 b3bd
00000100: a405 7f3c ea10 fd3d 9dba 763d 2062 9c3c
00000110: 9249 11be 7c1e 49bd e83d 283d 26e0 b2bd
00000120: 457a 243e 63a1 8ebc 3ac6 31bd 24db f53d
00000130: c0eb e0bd 5840 623e e475 303e ec1f dc3d
00000140: 35a1 22bc e4f9 d03d b038 cabd f1b8 103d
00000150: cff5 3c3e 4b0d 2d3d 44bc fe3c 3268 4fbe
00000160: 34bf 33bd 2118 283e a38d efbc 8fd4 093e
00000170: 483e 473d aff3 503e 76b1 da3d 2c8b 12be
00000180: ca97 213e 47c8 ab3d 52c6 79be a874 283d
00000190: ba9f 6a3e f429 923c 94eb 1fbd 5290 7a3d
000001a0: 194f b5bd 1cf6 72bb e093 4abd fbf6 093e
000001b0: 2b3d 4c3e 0524 823a a4a9 e33a 9da2 8e3c
000001c0: 2295 3dbe 2c76 d03d e512 41bc 914a aabd
000001d0: 9ce0 7a3e 9c60 44bd df6e 3f3e 5e7c 4e3d
000001e0: 0fd2 36be 8d0e e73d 52aa 623e 53e1 573e
000001f0: ac98 113e 480a a03e 1608 debd 9e55 293d
-0.027417041 -0.15945305 -0.039205734 -0.042364303 0.22108163 0.09350355 -0.09261349 0.028870918
-0.105203636 0.021732809 0.30496052 0.101844415 -0.16939026 -0.010587747 -0.13544616 0.05003907
0.017331338 -0.049201254 -0.045309026 0.1087691 0.073511295 0.09611623 0.17315482 0.30441555
-0.111435145 0.114347994 0.116095476 0.052583642 -0.22049457 0.4904639 0.10377069 -0.06606334
-0.023812607 0.10423779 -0.24224102 -0.13874288 -0.058410376 0.19309594 -0.009531328 0.11082322
0.032385916 -0.1796506 -0.25610644 0.029686434 -0.21128967 -0.08566924 0.025562014 -0.0022429435
0.14555775 0.12807547 0.10948047 0.20885427 -0.008627426 -0.0008901458 -0.0003880724 -0.079108804
-0.1249303 0.079173975 -0.11789874 -0.301679 -0.12572064 -0.010988834 -0.15553483 -0.08741767
0.01556531 0.12356742 0.060236562 0.019089758 -0.14188221 -0.049101338 0.041074663 -0.08734159
0.16062267 -0.01741094 -0.043401934 0.120046884 -0.10982466 0.22094858 0.17232472 0.10748276
-0.00992613 0.10203913 -0.098740935 0.035332624 0.18453144 0.042249005 0.031095631 -0.20254591
-0.043883517 0.16415454 -0.029242342 0.13459991 0.04864338 0.20405458 0.10678379 -0.14310902
0.15780559 0.08387809 -0.2439206 0.041126877 0.22912493 0.01784227 -0.039043024 0.06117279
-0.08852977 -0.0037072962 -0.04945743 0.13473122 0.19945209 0.0009928948 0.0017369282 0.017411524
-0.18513921 0.101787895 -0.01178429 -0.08315004 0.24499744 -0.047943696 0.18694638 0.050411575
-0.17853568 0.11282072 0.22135285 0.21082048 0.14218396 0.31257844 -0.10841386 0.041341417

lstm.bias_hh_l0 f4 [128]
00000000: 7a7e ef3b 1dfa 8dba f179 153e 84ff 35be
00000010: e784 7c3e 0cb4 ac3c 3d93 1cbe 853a f9bd
00000020: 5d8b 9c3d c9fe 863b 217e 02bc b949 9d3c
00000030: 2794 8ebd bf78 48bd 2b3f 2abd 6fa6 143d
00000040: cae0 99bc 4ce5 913d fff9 3abd f225 fc3d
00000050: 0b4b d6bd 2aff cc3c c743 513e 256c 4c3d
00000060: f5ce 963c 1fc8 6f3d 48af 633e 07c1 253e
00000070: 10e5 05be 802b d83e 43e6 003e 31b4 00be
00000080: 5352 fc3d 293f 3ebd 04d5 59bd 06b8 e63d
00000090: c13c d73d 9d91 123e 83c7 d8bd effa 0ebe
000000a0: acf5 0bbe 26a2 463d 0f34 08bd 5c5d 65be
000000b0: 7766 73bd f77f 233d 9243 b93d 6a7f 46bd
000000c0: 37d8 0ebe 3b7e 38be 69d6 5abd ac80 c83d
000000d0: a61b 40be adff 693c 350b 2ebc 128f de3d
000000e0: d8a6 5bbe 07bb 79bd 8eb4 4bbe 0b06 09be
000000f0: a927 9a3d 5073 00bc 8887 59be 873a 30be
00000100: 0cf9 043e e8b7 dc3d ff55 443e 8028 433d
00000110: 9c43 15be 9e4e 873e 93b2 713d 6144 30bd
00000120: 8d11 253d a5f2 8dbd 018c aebe 1a96 98bd
00000130: 39d7 71be 9a49 473e 4468 a03e 50c4 e13d
00000140: 391a e0bd 2080 fc3d 86e3 13be 2b75 433e
00000150: d609 a03b 726e ebbc 5805 6f3b 1fa0 9c3b
00000160: 0d21 fc3d 1fc1 6a3e 5a71 b7bd 246e 723e
00000170: 63ba 523e a398 3d3e 40ba c63d 991c 9dbe
00000180: b9f7 b93a 9dc0 8cbd 9023 ed3a ba73 84be
00000190: 321b 253d f944 213e a653 d23d 91ee 48bd
000001a0: b41c 1fbe 1c48 ecbc 7ee8 1d3d b333 1f3e
000001b0: 30a5 803e 7e25 243e 70fe 263e 4d4e e23d
000001c0: d81e 26be 1e7b 273d 0f87 a8bc 9e10 773d
000001d0: b9b4 0d3e 9b86 97bb 91ae 793e 4684 0e3d
000001e0: 03ca 01be 4ada 5c3c 1fb9 b3bd c7d1 b93e
000001f0: 15d4 ccbd c1e5 d83e 416e 04be a5ea e53c
0.0073087784 -0.0010831986 0.14597298 -0.17773253 0.24660073 0.021081947 -0.15290542 -0.12169365
0.07643769 0.004119728 -0.007964642 0.019200193 -0.069618516 -0.048943277 -0.041564148 0.036291536
-0.018783946 0.07123813 -0.04564857 0.12311925 -0.10463532 0.025024015 0.20436011 0.049907822
0.018409232 0.05854046 0.22234833 0.16186915 -0.13075662 0.42220688 0.12587838 -0.12568738
0.123203896 -0.046446953 -0.053181663 0.112655684 0.10509635 0.1431336 -0.10584929 -0.13962911
-0.13667935 0.04849448 -0.033252772 -0.22398895 -0.05942389 0.03991696 0.09046091 -0.048461355
-0.13949667 -0.18016903 -0.053427134 0.09790167 -0.18760547 0.014282149 -0.010622789 0.10867132
-0.21450365 -0.06096938 -0.19893095 -0.13381211 0.07527096 -0.007839993 -0.21243107 -0.17209826
0.12985629 0.10777265 0.1917343 0.047646046 -0.14576572 0.26427168 0.059008192 -0.04303396
0.04029994 -0.069310464 -0.3409119 -0.074505046 -0.23617257 0.1946167 0.31329548 0.11023772
-0.109425016 0.123291254 -0.14442262 0.19087665 0.004883985 -0.028739188 0.003647169 0.00477983
0.123109914 0.22925232 -0.08957167 0.23674828 0.20578913 0.18515258 0.09703493 -0.3068588
0.0014188207 -0.068726756 0.0018092263 -0.25869542 0.04030914 0.15748967 0.10269861 -0.04905564
-0.15538293 -0.028842978 0.0385518 0.15547065 0.25126028 0.16029927 0.16307998 0.11050091
-0.16222703 0.040888898 -0.020572213 0.06031858 0.13838471 -0.0046242005 0.24382998 0.034794115
-0.12674718 0.013479779 -0.087755434 0.3629286 -0.10001389 0.42362788 -0.12932684 0.028065989

hidden2out.weight f4 [3, 32]
00000000: 4522 cdbe b22a c13b 0e33 f83d 8353 5cbe
00000010: 6fee 4ebe 2cf1 4d3e 0af6 af3d d71a 29bc
00000020: 79d5 873e d292 6b3d 11fb 77be 968a d3bd
00000030: 762a 71be a94b 843e e72a 203e d87d d53c
00000040: c901 bbbd 67a8 4a3d 72e2 bd3d 18e9 3dbc
00000050: be3d 2e3e 0f93 bbbc d629 4abd bcec 11be
00000060: 3d7c b33e 6df0 a33e 686a 10be a2a9 5e3c
00000070: b1ad 133e eb2b c83e ff2e 493e 7b18 18be
00000080: 644e 5bbe afcd 7f3e b775 423d fac0 49be
00000090: 18e5 1d3e 24f1 953d 155b 3fbe 513d 26bd
000000a0: d3c2 14be f1af 3cbb 65d0 3e3e 725c c73d
000000b0: 836b 75be 3ba7 0dbe 6f6f 7dbd 5a04 753e
000000c0: aef9 91bd ce0d 5fbe 3587 df3d 0131 0cbe
000000d0: 6eb7 03be 2c34 c03d b107 403e aa0b fabb
000000e0: a2ad 223c f479 a03d 71f9 273e 57ee c43d
000000f0: 3c45 053d 6c84 2f3d 97ce 9abd e5ce de3d
00000100: aae3 05be 196a ebbd 3f56 7e3e 1900 213e
00000110: c78b 323d 7a47 5f3e 39e6 6a3e c7d2 49be
00000120: a739 1b3d f6fc 01be 87e3 163c 0592 f13d
00000130: d45a 803c 6d66 4fbe c9f6 58be 4b14 a4bc
00000140: 4291 7d3d a232 0abe 1344 0dbd 62aa c6bd
00000150: be2e 72bd 6a15 cabe 981e 56bd 05e6 36be
00000160: 753b 0f3e b98a 473c 5e9c c63d 9c3e 5c3d
00000170: ad70 d43d d5c1 b4be 8b79 cbbc 9f32 863e
-0.40065208 0.0058949823 0.12119113 -0.21516232 -0.20208143 0.20111531 0.0859185 -0.0103213405
0.26530054 0.057513066 -0.24216868 -0.103291675 -0.23551354 0.25838974 0.15641366 0.026060984
-0.091312 0.049477007 0.09271707 -0.011591218 0.1701574 -0.022897271 -0.049356304 -0.14250463
0.35055724 0.32019368 -0.14103091 0.013590248 0.14421727 0.39096007 0.19646834 -0.14853089
-0.21416622 0.24980806 0.047475543 -0.19702521 0.15419424 0.073213845 -0.18687089 -0.04058582
-0.14527445 -0.0028791393 0.18634184 0.097344294 -0.23966794 -0.13833325 -0.06187385 0.23927441
-0.07127701 -0.2178261 0.109144606 -0.13690569 -0.12862942 0.09384951 0.18752934 -0.007630785
0.009929093 0.07835761 0.16403748 0.09615772 0.03253673 0.042850897 -0.07558935 0.10879306
-0.13075128 -0.11494846 0.24837588 0.15722694 0.043590333 0.2180461 0.22939385 -0.19709311
0.03789678 -0.12694153 0.00920952 0.11795429 0.01566831 -0.20253916 -0.21187891 -0.020029208
0.061906107 -0.13495877 -0.03448875 -0.09700467 -0.059126608 -0.39469463 -0.05227527 -0.17861183
0.13987525 0.01217907 0.096977934 0.053770646 0.10373054 -0.35304132 -0.02483823 0.26210496

hidden2out.bias f4 [3]
00000000: 61d3 b53d 9348 c0bc a120 ca3d
0.08878208 -0.023472106 0.09869505

std_layer.weight f4 [3, 32]
00000000: 0760 103e c048 ea3c 50c2 dabc 7ed4 a63d
00000010: 3067 60bd d27d b03d 4a5f d63d 6015 b2bc
00000020: 6055 32bd 260a b4bd 39be 0dbe 5ad5 883d
00000030: ee18 b13d cc54 1bbd 30b3 34bc b8fd d9bc
00000040: 505c 2ebc 44ee 04bd 6ff5 26be ecd0 213d
00000050: 86c9 e53d 0cd7 50bd 7211 f13d 2630 f2bd
00000060: 9b02 08be 7e5f 913d e475 31be 184e 07bd
00000070: 007d 113a 4272 f3bd afcf acbd 2245 f83d
00000080: 208b a8bd 4842 36bd 6156 01be f23d a5bd
00000090: e0cf 2abe 15bf 05be 0c9e 893d 000f 063b
000000a0: da63 a23d 0b29 06be c600 ef3d 7ed5 c13d
000000b0: b0fa 3abd 9629 68bd 59f6 113e e49a 3f3d
000000c0: 80f3 f33c 203a 90bb 1086 6dbc b080 44bd
000000d0: c88d 933c 85ca 343e 76b1 e13d d158 303e
000000e0: 45b3 e0bd d8e3 f4bd d9c0 073e 54f1 15bd
000000f0: 14cc 45bd 5c29 68bd b097 bbbd 1074 13bd
00000100: 40cf 803c 0834 b33c 5440 51bd d29a f03d
00000110: 92c9 dd3d 58f7 2ebd a837 d63c 900c 7f3d
00000120: 8016 cf3a d000 debd b00f 71bc 0cd4 6a3d
00000130: c227 7bbd 09e7 adbd 6b4d c8bd c9ef 0dbe
00000140: dba9 a5bd afd1 dabd 04ab 52bd b03f 2b3d
00000150: e0d3 ce3c 00a7 743b e544 113e 7a8c 21be
00000160: dc52 79bd d946 133e d86e 073d 8d43 0a3e
00000170: 0089 beba eb31 203e b808 82bc 541e 823d
0.14099132 0.028599143 -0.026703984 0.081459984 -0.054785907 0.08617748 0.10467394 -0.021738708
-0.04353845 -0.08790998 -0.13842095 0.066813186 0.08647333 -0.037922665 -0.01102905 -0.02661024
-0.010642126 -0.03245379 -0.16304563 0.039505884 0.11220078 -0.050986335 0.117709056 -0.1182559
-0.13282244 0.07098292 -0.17330128 -0.03303346 0.00055499375 -0.11887027 -0.0843805 0.12122561
-0.08229661 -0.044496804 -0.12630607 -0.08068456 -0.1668086 -0.13061173 0.06719598 0.0020455718
0.079292014 -0.13101594 0.116700694 0.094645485 -0.04564923 -0.056680284 0.1425413 0.046778575
0.029779196 -0.0044014603 -0.014497295 -0.04797429 0.018011943 0.1765538 0.11020176 0.17221381
-0.10971693 -0.1195752 0.1325716 -0.0366071 -0.048290327 -0.05668007 -0.091597915 -0.035999358
0.015723825 0.021875396 -0.05108674 0.1174828 0.10829462 -0.042716354 0.026149586 0.06226784
0.0015799552 -0.10839999 -0.014713213 0.05733113 -0.061317213 -0.08491332 -0.09780391 -0.13861002
-0.08089038 -0.10684525 -0.051432624 0.041808784 0.025247514 0.0037330985 0.14186437 -0.15776244
-0.060870036 0.14382495 0.033064693 0.13502331 -0.0014536679 0.15644042 -0.015873298 0.06353441

std_layer.bias f4 [3]
00000000: dca2 6fbd 0bc0 09be e20e 09be
-0.058504924 -0.13452165 -0.13384584

exp_avg f4 [128, 12]
00000000: 37a5 1fba 93c1 19bb 6771 48b9 af6d 303b
00000010: 2020 9fba 9b1b 1cbc e0dc 47bb 1cea d9ba
00000020: 786a 98ba cacf fcbb 93cf 48bc 4284 c8bb
00000030: dccd 8cbb ff2e 27bb c021 0b3b 3585 33bb
00000040: 2109 32bc a97c c8bb 4931 57bb 9f1b 963b
00000050: 5472 08bb e38d 8abc daf8 49bc 2c75 fabb
00000060: 74c9 1439 127d 713a cf3c ae39 c267 c2ba
00000070: 152b 69b9 e4b0 a13b e122 a93a 1cb3 763a
00000080: 14ff 043a 5981 583b 16b7 bd3b ebcd 413b
00000090: 73d7 4fb9 50c3 9eb8 70f8 443a 818f 9cba
000000a0: 8608 9aba 8f46 303b 3fed c539 5c79 6b3a
000000b0: 745e c639 12fc 733a 86e5 0c3b f658 ee3a
000000c0: cedf 5cb9 aefe 6eb9 f99b 65b9 7c09 063a
000000d0: a929 98b9 8357 02bb 45ba 17ba 21f7 21b9
000000e0: 5b5e efb9 3e91 f6ba f8ea 1ebb 791c cfba
000000f0: 85a9 64ba 46e9 c8bb ed98 4dbb 7afc 333c
00000100: ffe0 113b 0a6f 13bd 3598 14bc 5ca7 ecbb
00000110: 4eb0 85bb 9c3c c1bc ebcc 27bd e5df b9bc
00000120: f48b efb5 738b 60b9 1658 8eb8 9546 9b39
00000130: b798 5139 cfdb 8bba 728f 4db9 8142 92b9
00000140: 9d85 42b8 7cf9 f0b9 c487 97ba af62 13ba
00000150: 31ec 9eb6 a721 95b6 e27d 7eb6 0256 aa37
00000160: 6f9e f036 07d5 09b8 f74b 9f36 5c49 8bb6
00000170: 5849 a235 b2a5 55b7 8889 c5b7 5a6d e3b7
00000180: 35b5 0bb8 909b bfba 0143 9cb9 975d f33a
00000190: 59ae f039 643a cfbb 7240 c6ba 852d ceba
000001a0: 3b1f 01ba 7646 71bb 1f0f f7bb d2d8 6bbb
000001b0: 3873 1a37 d609 f836 ed71 d0b7 3ae5 c337
000001c0: c087 ba37 0b16 81b8 676f 9cb6 67c6 beb7
000001d0: 020d 9fb7 716d ceb7 c8f3 62b8 24a6 29b8
000001e0: cca2 4bb9 82ac 2a39 d665 e239 362a 36ba
000001f0: e300 27ba 9df7 f73a 1924 5139 2ba4 263a
00000200: a330 6d39 23ea 333a d234 e73a cbe4 963a
00000210: c901 65b8 d81f 81b9 63a6 67b8 e89e b539
00000220: 8f00 eb37 2408 94ba 108f 7bb9 986d 3eb9
00000230: d828 b1b8 ccf7 51ba 21d7 a2ba e82c 4eba
00000240: 845a 27bb 246e 6bbb c21f bcba cc91 bb3b
00000250: 1e9a 30bb 236a b7bc 10d9 d0bb d509 ceba
00000260: f75f 6fbb fd5e a8bc 0784 debc 8a1f 89bc
00000270: 5b4a 0a39 d5fc 90ba 4d94 92ba 60fe bd3a
00000280: fb72 5339 5c67 0cbc 8946 89ba 0606 6fba
00000290: 5abb 75ba 34e4 ccbb 26b5 11bc e0b8 b8bb
000002a0: 742b 2939 0369 7f3a e5bf c539 168b baba
000002b0: 28ff 0eba b23a b83b 3e19 9c3a 9cbb 6c3a
000002c0: 1b88 d439 a54e 683b 1008 c43b ca79 5b3b
000002d0: f43f 38b9 8b58 30b9 6687 b939 eafe 90b9
000002e0: 8f32 8fb9 edb7 fd39 fded 0238 fc0a 7739
000002f0: 9b38 8039 86c0 1339 3eef 9a39 2566 cb39
00000300: 9f4a 6eb8 4ca5 65b8 28ee 77b8 8fe7 9639
00000310: 003f 9939 9fad 21ba f58b 3bb8 b689 2cb9
00000320: 7a64 5a38 0b9e 4ab9 310f f2b9 5df8 dbb9
00000330: 7189 193a 2493 213a 9e9f fbb6 f0b6 0cba
00000340: b63e 703a 962e 533b a9ff 7b3a f37b feb8
00000350: cb14 ee39 f141 603b f4ac 863b cc45 1e3b
00000360: 06b0 7eba 073f beba 7fcb a0b9 4232 e33a
00000370: 80ff 98ba 4990 febb c01f 16bb 8a7b 1bba
00000380: afb1 97ba 6e66 eabb 2a6c 1bbc e9be b7bb
00000390: 8140 3737 938b 9db6 e81b 9db7 8c92 9b37
000003a0: 37b2 8137 fe1f 5ab8 4388 a036 35bf b1b7
000003b0: ca7c 78b7 3730 bdb7 04b0 5cb8 f817 fbb7
000003c0: 546b 93ba 4acb 8aba a91a 0438 f8ef abb9
000003d0: 2544 39bb 48b9 a9bb a038 95ba 9674 783a
000003e0: e7b2 88ba 4602 edbb ca45 d9bb 525c 97bb
000003f0: ee6f 91b8 721f 08b9 921b 8338 4b38 1639
-0.00060899876 -0.0023461326 -0.00019115732 0.0026920845 -0.0012140311 -0.009528066 -0.0030496642 -0.0016625556
-0.001162841 -0.0077152 -0.012256521 -0.006119282 -0.0042970013 -0.002551019 0.0021229833 -0.002739263
-0.010866434 -0.0061183763 -0.0032835773 0.0045809294 -0.0020820098 -0.01691336 -0.012327397 -0.0076433625
0.00014189427 0.00092120573 0.00033233172 -0.0014831948 -0.00022236661 0.004934417 0.0012904071 0.00094108447
0.000507341 0.0033036082 0.005789648 0.00295722 -0.0001982132 -7.570407e-05 0.0007513827 -0.0011944623
-0.0011751808 0.0026897525 0.0003775153 0.00089826225 0.00037835876 0.0009307276 0.0021499111 0.0018184471
-0.00021064209 -0.00022792324 -0.00021897246 0.00051131076 -0.00029022738 -0.0019888587 -0.0005787949 -0.00015446219
-0.00045655933 -0.0018811596 -0.002424894 -0.0015801332 -0.000872277 -0.006131324 -0.0031371668 0.010985488
0.0022259352 -0.035994567 -0.009069492 -0.007222099 -0.004079855 -0.023588471 -0.04096691 -0.022689769
-1.7847619e-06 -0.00021414254 -6.787495e-05 0.00029616492 0.00019988684 -0.0010670366 -0.00019603761 -0.0002789684
-4.637764e-05 -0.00045962248 -0.0011560847 -0.000562231 -4.7362632e-06 -4.4444637e-06 -3.7922223e-06 2.030563e-05
7.1710015e-06 -3.2861743e-05 4.7474127e-06 -4.151063e-06 1.2091286e-06 -1.2734368e-05 -2.3548273e-05 -2.711143e-05
-3.3308945e-05 -0.0014618505 -0.0002980456 0.0018567321 0.00045906266 -0.0063240994 -0.0015125407 -0.0015730119
-0.0004925613 -0.003681568 -0.0075396444 -0.003598739 9.205942e-06 7.392121e-06 -2.4848583e-05 2.3352553e-05
2.2236141e-05 -6.155305e-05 -4.6621312e-06 -2.2742153e-05 -1.8960334e-05 -2.4608076e-05 -5.4109638e-05 -4.044747e-05
-0.00019420235 0.00016276728 0.00043181953 -0.0006949039 -0.00063706766 0.0018918399 0.0001994524 0.00063568604
0.000226202 0.0006863197 0.0017639643 0.0011512277 -5.4599517e-05 -0.00024628523 -5.522965e-05 0.00034641405
2.8014443e-05 -0.001129393 -0.0002399052 -0.00018160639 -8.4476254e-05 -0.0008009642 -0.0012423733 -0.0007864968
-0.002553613 -0.0035923803 -0.0014352726 0.0057241675 -0.002694733 -0.022389477 -0.006373532 -0.0015719483
-0.0036525705 -0.020553106 -0.027162565 -0.016738672 0.00013188405 -0.0011061678 -0.0011183113 0.0014495365
0.00020165362 -0.008569565 -0.0010473292 -0.0009118024 -0.0009373926 -0.00625279 -0.008893287 -0.005637273
0.00016133283 0.0009743126 0.0003771774 -0.0014232125 -0.00054548914 0.0056222314 0.0011909378 0.00090306415
0.00040537197 0.0035447266 0.0059824064 0.003348934 -0.00017571432 -0.00016817653 0.0003538683 -0.00027655746
-0.00027312755 0.00048392956 3.121606e-05 0.00023559848 0.00024456237 0.00014090733 0.00029551418 0.0003879528
-5.6813118e-05 -5.47518e-05 -5.911119e-05 0.00028782754 0.00029229373 -0.0006167534 -4.471462e-05 -0.000164545
5.2068826e-05 -0.00019323097 -0.00046169155 -0.0004195598 0.0005856967 0.0006163588 -7.498965e-06 -0.0005367836
0.0009164618 0.0032223812 0.00096129865 -0.00012134751 0.0004541039 0.0034218992 0.004109973 0.002415049
-0.00097155606 -0.0014514633 -0.00030669195 0.0017333704 -0.0011672825 -0.007768665 -0.0022907108 -0.00059311895
-0.001157334 -0.007153324 -0.009486238 -0.005607475 1.09226685e-05 -4.695213e-06 -1.8728853e-05 1.8545681e-05
1.5460986e-05 -5.2005045e-05 4.7842345e-06 -2.1189082e-05 -1.4811007e-05 -2.2553008e-05 -5.2616015e-05 -2.9932693e-05
-0.0011247196 -0.0010589149 3.149608e-05 -0.00032794452 -0.0028269377 -0.005179558 -0.0011384673 0.0009477822
-0.0010429294 -0.007232937 -0.006630634 -0.0046191597 -6.934987e-05 -0.00012981685 6.251702e-05 0.00014326086

exp_avg_sq f4 [128, 12]
00000000: bc00 da35 3343 8336 1fea 4035 a733 1537
00000010: 1a8b aa36 255a fa38 76f3 2837 f478 4b36
00000020: 8b52 0736 7ea7 b338 134f 3339 45d4 6038
00000030: 52ed 1338 6aae 9f37 b292 cb37 02e5 c238
00000040: 4624 3439 11cd 8c3a c16e 0138 5f4b 6438
00000050: fca7 de37 45e4 6e3a 4d18 9f3a 5ca1 2d3a
00000060: 66a8 a733 294f fc34 b68f e533 68ad 6d35
00000070: ec30 bf34 639d 4e37 7aae 6e35 32dc d134
00000080: f734 5834 36e2 0437 19c3 9437 605d be36
00000090: 9117 af33 7b79 9233 5756 4f35 e486 d735
000000a0: 3915 d135 20db e936 fbf6 0834 cfa4 5e35
000000b0: 490f 5d34 db09 4135 751e 8736 e504 5f36
000000c0: 401f 3934 d585 7634 6570 6233 403e ca34
000000d0: fdef 4534 1747 0b37 ca52 4635 a42a 2133
000000e0: c51c 7634 1c8a 0937 c950 4f37 1bfe 9e36
000000f0: 7eef 0236 47da 7e37 3eb6 fa36 87b2 7338
00000100: b49e 6737 b1fb 1e3a c259 1f38 aa3c d437
00000110: f6a9 0a37 392c 9639 cfbb 473a 7dd1 8439
00000120: 67f9 f633 110f f633 f71f 8135 05ae 1b36
00000130: c93c 1036 daf1 3737 3d0b 7534 1c70 9a35
00000140: fc64 9934 fe49 a435 6752 f036 4ceb a236
00000150: 0a94 8433 664f 3f33 3e61 0634 28c7 b433
00000160: 5ff1 a732 fc56 1b34 95ba 2133 cc98 f932
00000170: 43c2 f433 c04b 5033 32bf 1f33 be0c 0b34
00000180: b807 4435 c025 3136 7b0d b036 a00e b437
00000190: e878 7537 18ff 1e39 5b69 a236 d4db 2737
000001a0: 4e78 ef35 7044 0338 0a06 1339 c4ff 6738
000001b0: d048 c330 baea da30 772a e931 ce03 8232
000001c0: fcb8 6b32 bcd9 8133 6372 a430 1705 e031
000001d0: 870f 3431 30db e831 9200 1e33 7a06 0033
000001e0: 72e9 8533 af3e b333 bebe a335 ca33 9536
000001f0: fe8b 8736 5ec5 ca37 4215 0035 b733 0f36
00000200: 44f9 7834 cf49 4136 5c48 9337 740a 2237
00000210: ca53 f732 f271 0733 aa54 0a34 6f7f 8b34
00000220: 124f 8234 99ef 9a35 fa7c 2633 862f 0234
00000230: 4e54 7133 1e1b af34 fe0d 6f35 bb11 3635
00000240: 2718 4537 64f7 7437 8b68 0d36 2a4b d537
00000250: fdd7 9137 28fb 103a d285 4b38 3f04 af36
00000260: d44f 7837 613b 113a 9ab1 573a 52c2 ab39
00000270: 170c 2b37 ae87 7837 2828 1737 becc 3538
00000280: 2f1c 1d38 59b7 413a df34 e037 4fc5 c037
00000290: d551 6c37 0d28 083a 79bc 6c3a de66 d339
000002a0: aba0 5a36 7f0e 9936 e6c9 9535 6842 9e36
000002b0: 51e8 5537 7a3b 1139 af8f 6e36 9712 4536
000002c0: 20fc 6736 1b2e 0939 f10d 4039 10fa ce38
000002d0: 803d a033 4fef 9b33 7f75 7e34 417a 4334
000002e0: e890 3f34 43bc 0735 1aa1 c632 35a9 df33
000002f0: f31a 1c34 850b 3a33 b0eb 3c34 7c82 b734
00000300: 0ecd 9632 5929 3132 0c32 3b33 2988 3334
00000310: 4168 3134 5e2b 4f35 d97b 1132 6321 8833
00000320: 152e f032 c125 a433 bbf2 f734 0f9d b934
00000330: 5175 5a35 0296 9335 c0ac 8935 76f1 9c36
00000340: fe50 9836 f191 6438 8bd2 db35 dfa7 fe35
00000350: 6e61 9635 d65c 1038 0706 7d38 ee90 f037
00000360: d9b7 4d35 4f60 3235 072f 8734 381f 0536
00000370: f43f 0936 deba b637 27ea 2236 286e 9135
00000380: 9e2c 0e35 6f78 b137 9698 0c38 4252 5537
00000390: c4b5 a332 f0c3 ac32 6a42 4033 c6a2 3933
000003a0: fc41 3233 b084 1334 f6b8 ad31 9a6a 9a32
000003b0: 384c 1833 0816 5832 eb1d 8b33 7349 af33
000003c0: 1de1 4437 52ae 3d37 8e43 ea36 4005 ee37
000003d0: c069 5238 27f1 033a 19b9 4737 7a50 8537
000003e0: 704f 4b37 9908 e039 6288 1d3a f9ab aa39
000003f0: 6668 2432 ac24 5732 7cfb ba32 c5e3 de32
1.624248e-06 3.9119273e-06 7.1866265e-07 8.893118e-06 5.0825884e-06 0.0001193772 1.00702655e-05 3.0319761e-06
2.0164614e-06 8.566583e-05 0.00017100228 5.3603453e-05 3.5268553e-05 1.9035495e-05 2.4267796e-05 9.293297e-05
0.0001717965 0.0010742267 3.0859144e-05 5.442963e-05 2.6542686e-05 0.00091129943 0.001213798 0.00066234707
7.807175e-08 4.6996254e-07 1.0689784e-07 8.854172e-07 3.5612118e-07 1.2315201e-05 8.8915806e-07 3.9089497e-07
2.0135836e-07 7.920482e-06 1.7733824e-05 5.6733115e-06 8.153359e-08 6.820752e-08 7.723915e-07 1.6058007e-06
1.557789e-06 6.9694506e-06 1.2755838e-07 8.294127e-07 2.058779e-07 7.1912444e-07 4.026859e-06 3.3232438e-06
1.7240836e-07 2.2959223e-07 5.2721948e-08 3.7670725e-07 1.8434362e-07 8.3015975e-06 7.388122e-07 3.7524515e-08
2.2921002e-07 8.197992e-06 1.2356971e-05 4.7383487e-06 1.9510912e-06 1.5190401e-05 7.4717964e-06 5.810198e-05
1.3805624e-05 0.00060647266 3.7992148e-05 2.5300618e-05 8.265013e-06 0.00028643178 0.0007619233 0.00025333083
1.1500634e-07 1.1458008e-07 9.620552e-07 2.3198093e-06 2.1493054e-06 1.096396e-05 2.2821492e-07 1.1506522e-06
2.8571947e-07 1.2240487e-06 7.1621503e-06 4.8553684e-06 6.173657e-08 4.4542865e-08 1.2515099e-07 8.4181295e-08
1.9551122e-08 1.4467145e-07 3.765543e-08 2.9056899e-08 1.13974714e-07 4.8497668e-08 3.7193963e-08 1.295002e-07
7.302692e-07 2.6397029e-06 5.246778e-06 2.1464482e-05 1.4631289e-05 0.00015163084 4.840241e-06 1.0005158e-05
1.7841901e-06 3.129657e-05 0.00014021262 5.5312892e-05 1.4208812e-09 1.5928301e-09 6.78602e-09 1.5135722e-08
1.3720861e-08 6.046636e-08 1.1965081e-09 6.5198367e-09 2.6202274e-09 6.7770074e-09 3.678776e-08 2.9808213e-08
6.2357586e-08 8.346739e-08 1.219996e-06 4.446575e-06 4.0396108e-06 2.4172183e-05 4.771465e-07 2.1338763e-06
2.3187482e-07 2.8802203e-06 1.755746e-05 9.658386e-06 2.8792687e-08 3.153577e-08 1.2883052e-07 2.5983488e-07
2.4271918e-07 1.1543626e-06 3.8763552e-08 1.2124482e-07 5.618886e-08 3.261602e-07 8.90548e-07 6.7826085e-07
1.1747738e-05 1.4601133e-05 2.107149e-06 2.542658e-05 1.7385924e-05 0.0005530589 4.85236e-05 5.2159007e-06
1.4800538e-05 0.0005540159 0.0008228064 0.00032760442 1.0195209e-05 1.4813542e-05 9.009651e-06 4.3344444e-05
3.7457965e-05 0.00073896867 2.67275e-05 2.2980063e-05 1.4085749e-05 0.00051939563 0.000903077 0.00040321698
3.2578052e-06 4.561443e-06 1.1160125e-06 4.7164976e-06 1.274988e-05 0.00013850434 3.5548399e-06 2.9366108e-06
3.4568438e-06 0.00013082514 0.0001831574 9.869423e-05 7.4617674e-08 7.26128e-08 2.3698338e-07 1.8205266e-07
1.7840978e-07 5.0565376e-07 2.3123494e-08 1.0415025e-07 1.4538436e-07 4.3316977e-08 1.7594607e-07 3.4181346e-07
1.7555546e-08 1.0312157e-08 4.3584848e-08 1.6720209e-07 1.6522337e-07 7.7176617e-07 8.4682705e-09 6.3390665e-08
2.7960633e-08 7.6437125e-08 4.6183945e-07 3.457321e-07 8.1382046e-07 1.0996011e-06 1.0257572e-06 4.677272e-06
4.5393817e-06 5.4495355e-05 1.6378048e-06 1.8973332e-06 1.1204227e-06 3.4418736e-05 6.0325514e-05 2.8677718e-05
7.6635985e-07 6.6450315e-07 2.5179926e-07 1.9836716e-06 2.0451816e-06 2.1783108e-05 2.4276176e-06 1.0835402e-06
5.296405e-07 2.1156126e-05 3.3520708e-05 1.27149415e-05 1.9058355e-08 2.0112537e-08 4.4763887e-08 4.322171e-08
4.1503867e-08 1.3738713e-07 5.0559903e-09 1.7976436e-08 3.545958e-08 1.2577864e-08 6.478134e-08 8.162433e-08
1.1734924e-05 1.1305865e-05 6.981608e-06 2.8374256e-05 5.016639e-05 0.0005033188 1.1904421e-05 1.589231e-05
1.2118238e-05 0.00042731015 0.00060093973 0.00032553056 9.569794e-09 1.2522985e-08 2.1767612e-08 2.5947779e-08

exp_avg f4 [128, 32]
00000000: c581 9739 f66a 18ba ddb3 8837 6b1c 18b9
00000010: fcdb e138 b9a3 d3b8 50aa 3cb8 5da2 5136
00000020: d451 0039 733c edb7 3c00 073a 2736 1db9
00000030: 1568 7139 d7b6 ad39 1347 b537 c137 dbb9
00000040: e0f5 8eb9 bc4a 6239 b2b8 68b9 50ea c9b9
00000050: 6beb 013a a995 ebb7 9796 733a 4529 c038
00000060: 01af 0cb9 8c98 8238 ae45 493a c248 1f39
00000070: 67c2 3bb6 f308 4539 7294 093a 5fdb 41b7
00000080: bb84 9738 56ac 5539 863b 36b9 3ce0 96b8
00000090: 001c d0ba 9b9b c739 87df a339 11d4 5e37
000000a0: 887a f939 7cb4 e139 4425 e039 de0a 60b9
000000b0: 4184 0d3a d189 a7ba 5e0e 7839 621b 4f3a
000000c0: a739 6837 1e10 a737 c5a2 7e39 ae49 a439
000000d0: 3453 76ba 331f 49b8 1e88 81b9 2653 b6b9
000000e0: e694 04bb 757f 9c38 70f6 0ebb cef6 1abb
000000f0: 3ba8 aa39 d993 f93a 249d b8b9 0050 1f35
00000100: 91a5 bdb8 386d 9439 351d 89b7 7316 3838
00000110: 51c0 03b9 719c be38 6e65 5838 acf5 07b7
00000120: a414 a7b6 e8ed f437 e857 33b9 3d76 c038
00000130: 7d47 d2b8 998f a1b9 173f 1ab6 86c9 9c39
00000140: c74d 2b39 c5d8 cdb6 4bd1 0c39 c7e6 8739
00000150: 39ed b2b9 7dbe 7fb7 e9c4 20ba b797 d8b8
00000160: a979 00b9 a824 95b7 2339 a2b9 d0cc c9b8
00000170: 091a 7538 9183 b637 25af 89b9 a5c7 5636
00000180: cdcc 18b8 2d79 6c39 46fa d8b8 5e12 d1b8
00000190: 3f11 94b9 a664 0339 e9ee 9d38 f3dc 5b36
000001a0: 9168 1839 a080 9f38 496c a039 3a81 1fb8
000001b0: c2c2 a8b7 e0bf cfb9 8581 1139 f34b a739
000001c0: 4c4c 9438 61ea 5439 d680 7638 7630 a839
000001d0: 4ee5 d4b9 b29e 56b8 80d4 1aba 85d2 2cb9
000001e0: 6ac4 f5b9 a335 2f38 193f a4b9 29e6 38b9
000001f0: f7a1 0839 d152 4139 d762 4fb9 878e 4ab6
00000200: 06f7 0238 4607 d8b8 9c61 8d37 cb87 0836
00000210: 16bf a1b7 c276 35b8 b0fb a4b7 e11f 0236
00000220: 44ac 3ab7 6b07 5836 2879 12b6 13e9 bdb7
00000230: 3bf7 6e38 d592 9938 8eb0 d2b7 25a1 ccb8
00000240: 9fca a4b8 78df 1cb8 bd1c 17b8 6604 fab8
00000250: 9926 0039 e9ad 6437 50b7 8c39 5fe5 5b38
00000260: 3f65 9737 beed 8bb5 36d9 64b8 a7de d5b8
00000270: 6011 1eb8 c2ca c438 02eb bc38 2fa0 57b4
00000280: 1512 333a b97e 11bb d8e8 8839 d84e 7db9
00000290: d509 8a3a a9e1 53ba 722e f4b9 8655 acb6
000002a0: 087e 29b9 401e 89b9 a639 3e3a 54b9 08ba
000002b0: aeb8 353a 3138 1f3b fa92 78b9 4dcb 1bbb
000002c0: ec96 a7ba 8c35 91b9 689d 7aba c524 0fbb
000002d0: 1471 383b 4f58 fa38 dd1d 9b3b df7d 773a
000002e0: 4897 b53a 7d4a 8238 492a 153b d19e 113a
000002f0: 24ae 15ba 33f5 6db9 2c10 033b 7415 8db6
00000300: 9c0e 6a37 7853 87b8 8cc9 08b7 04f5 39b8
00000310: 7d39 e837 3405 13b8 2bbc c9b7 78ee f1b4
00000320: 431b fa35 9181 f8b6 35e3 ba38 efb1 d7b7
00000330: 56fb e137 e46a 5b38 2b01 0c37 344c bcb8
00000340: 91b6 bdb8 6447 c736 c37f 3ab8 8c4d 6db8
00000350: 2635 cd38 2bde f1b6 cfd7 0a39 d3e8 2438
00000360: b92a 3c38 c601 2737 4745 7838 611f 9337
00000370: c4cf e1b7 32f9 0cb8 f498 8438 e33f 12b5
00000380: 6fce 41b6 2d3b d836 ff50 c0b6 34c7 4b37
00000390: 5293 f1b6 35dd 83b6 d4fe edb5 5378 6437
000003a0: c30e fab5 5de4 57b5 5671 1b37 d846 2436
000003b0: bc7e 3f36 fc69 bb36 6b2d 2736 38cb 1fb6
000003c0: 50b7 8fb6 d7e0 9536 7b16 ee35 2b7e 1836
000003d0: e7cb b5b6 3d0f c136 0461 2637 2a47 52b6
000003e0: 35de f9b6 c9c9 11b5 458e dcb6 2423 6fb6
000003f0: 97b1 04b6 5617 8eb5 057e aab6 ddd8 10b6
0.0002889765 -0.0005814278 1.6296219e-05 -0.00014506436 0.00010769811 -0.0001009176 -4.498131e-05 3.1237935e-06
0.00012237515 -2.828075e-05 0.0005149876 -0.0001499286 0.00023022325 0.00033133358 2.1609978e-05 -0.00041812475
-0.00027267542 0.0002158088 -0.00022194049 -0.00038512284 0.00049560395 -2.8083874e-05 0.0009292154 9.1629605e-05
-0.00013416634 6.227297e-05 0.00076779246 0.00015190526 -2.7978328e-06 0.00018790718 0.00052482553 -1.1554773e-05
7.224964e-05 0.00020377463 -0.00017379047 -7.194324e-05 -0.0015877485 0.00038072173 0.00031256324 1.3281607e-05
0.00047584274 0.00043049816 0.00042752374 -0.00021366353 0.00053984305 -0.0012782161 0.00023656475 0.00079005037
1.3841701e-05 1.9915457e-05 0.00024283964 0.00031335413 -0.00093965535 -4.795119e-05 -0.00024706213 -0.00034775696
-0.0020230352 7.4624004e-05 -0.0021814369 -0.0023645642 0.00032550268 0.0019041254 -0.00035212294 5.934853e-07
-9.0430614e-05 0.00028310134 -1.6345273e-05 4.3889926e-05 -0.00012564777 9.0890455e-05 5.1592877e-05 -8.103827e-06
-4.9793907e-06 2.919785e-05 -0.00017103518 9.177297e-05 -0.00010026896 -0.00030815302 -2.2984511e-06 0.00029904785
0.00016336805 -6.1347114e-06 0.00013429408 0.0002592115 -0.0003412755 -1.5243536e-05 -0.00061328575 -0.00010327942
-0.00012252353 -1.7779254e-05 -0.00030941618 -9.622576e-05 5.84368e-05 2.1757356e-05 -0.0002626117 3.2004693e-06
-3.643036e-05 0.00022551855 -0.000103463 -9.969318e-05 -0.0002824161 0.00012530628 7.530844e-05 3.2762152e-06
0.00014534804 7.605669e-05 0.00030598257 -3.8028906e-05 -2.0117852e-05 -0.00039625075 0.00013876527 0.0003190931
7.071401e-05 0.00020305208 5.877096e-05 0.00032079563 -0.00040606636 -5.1169372e-05 -0.0005906299 -0.00016481623
-0.0004687638 4.1773204e-05 -0.0003132753 -0.00017633349 0.00013030307 0.00018436766 -0.00019777879 -3.0183307e-06
3.1224474e-05 -0.000103010374 1.6853963e-05 2.034462e-06 -1.9281677e-05 -4.3264365e-05 -1.9667525e-05 1.9390066e-06
-1.1126573e-05 3.2190826e-06 -2.1826218e-06 -2.263909e-05 5.6973873e-05 7.322958e-05 -2.5116165e-05 -9.7574935e-05
-7.8578705e-05 -3.740142e-05 -3.602797e-05 -0.00011921748 0.0001222141 1.3630351e-05 0.0002683946 5.2427287e-05
1.804775e-05 -1.0425499e-06 -5.456173e-05 -0.00010198104 -3.7686317e-05 9.383775e-05 9.008312e-05 -2.008171e-07
0.00068310025 -0.0022200777 0.00026113424 -0.00024157332 0.0010531495 -0.0008082637 -0.0004657391 -5.1359557e-06
-0.00016164046 -0.00026153214 0.0007256515 -0.00052156043 0.00069321215 0.0024294967 -0.00023705876 -0.00237723
-0.0012786067 -0.0002769645 -0.00095601985 -0.0021841985 0.0028143572 0.00011937378 0.0047337846 0.00094410585
0.001385429 6.2127576e-05 0.00227608 0.00055549765 -0.0005709848 -0.00022693425 0.0019998653 -4.204625e-06
1.3950888e-05 -6.452849e-05 -8.153158e-06 -4.4335626e-05 2.7683325e-05 -3.5052377e-05 -2.404869e-05 -4.5063257e-07
1.8634386e-06 -7.4060595e-06 8.911492e-05 -2.5712854e-05 2.6939128e-05 5.231322e-05 8.344922e-06 -8.9787325e-05
-9.046228e-05 5.938973e-06 -4.4464843e-05 -5.6577424e-05 9.7850614e-05 -7.2082235e-06 0.000132411 3.931748e-05
4.486248e-05 9.954389e-06 5.9192327e-05 1.7538378e-05 -2.6918839e-05 -3.3610682e-05 6.32274e-05 -5.4482206e-07
-2.8879401e-06 6.4441906e-06 -5.731475e-06 1.21461235e-05 -7.19951e-06 -3.929856e-06 -1.7732041e-06 1.3617874e-05
-1.8630748e-06 -8.0426054e-07 9.265108e-06 2.447914e-06 2.8534987e-06 5.5853725e-06 2.4911376e-06 -2.3811135e-06
-4.2830725e-06 4.466721e-06 1.7738924e-06 2.2723204e-06 -5.4179577e-06 5.753622e-06 9.916959e-06 -3.1333861e-06
-7.4466466e-06 -5.4310345e-07 -6.5730733e-06 -3.563423e-06 -1.9772904e-06 -1.0586616e-06 -5.0810654e-06 -2.1583903e-06
