models/drone/policy_opp_rotor_best_iter37.pth (torch, 80830 bytes, 20 tensors)

lstm.weight_ih_l0 f4 [128, 12]
0.115592964 0.40080807 -0.17797834 0.17243327 0.4306203 -0.030449374 -0.036426198 -0.20414552
-0.09857727 0.1324839 0.04855675 0.020301213 -0.30010173 0.01569354 0.20518968 0.0013544416
0.062212314 -0.17759521 -0.012640242 0.39760208 0.064282104 -0.023922896 0.12923287 -0.18143563
-0.032815434 0.009926374 0.05788933 -0.17817526 0.0711059 -0.010574059 -0.024131557 -0.031955324
0.1580542 -0.08835733 -0.08132621 0.060606163 -0.1599912 -0.60992795 -0.013004927 -0.26502296
-0.016473843 -0.05493991 0.05270245 -0.13146538 0.016301671 -0.012447731 0.17101705 -0.12701346
-0.16144957 -0.28816283 0.3100836 -0.25659359 -0.5147782 -0.018914422 0.3059677 -0.14871584
0.23071676 0.08681791 0.13556129 0.13757816 0.03235841 0.05510044 -0.20554751 0.11011634
0.12239908 0.060448065 0.088885695 0.033596084 0.028972909 -0.19736655 -0.115464136 -0.21007147
0.05831176 0.41865653 -0.18098213 -0.11498941 0.04708724 -0.08361875 -0.108836845 -0.057926208
-0.010480951 0.18869118 0.07282714 0.13902596 -0.2290875 0.09671997 0.19392829 0.1213062
-0.048722763 -0.06678244 0.008151528 -0.21771379 -0.10408837 -0.08850119 -0.2992322 -0.013255924
-0.1087858 0.11052457 -0.19294553 -0.08061554 0.024720682 -0.0142851025 -0.32195914 -0.27257866
0.15402555 -0.11081489 -0.0113801565 0.085021086 -0.14592868 0.01572125 0.14998661 0.008096041
0.22059177 0.1096074 0.21411672 0.43133694 0.19381706 0.0046530133 0.21002464 0.115699925
-0.34860155 -0.3722668 0.22814162 -0.043828838 -0.1258538 0.0014331653 -0.31799126 0.34574288
0.23111013 -0.10327611 -0.20106383 0.037637793 -0.020635752 0.29038644 0.0066368068 -0.19023693
0.18156764 0.1839699 -0.1354635 -0.1732436 0.009431557 -0.05352027 -0.043610014 -0.051291786
-0.23625815 -0.4804905 0.035360936 0.006540869 -0.21588016 0.013888229 -0.3442638 0.50088924
-0.14341234 0.0025441502 0.22963928 0.006468076 -0.2314908 -0.2261674 0.3129101 0.13492665
-0.20163816 0.15326957 0.0034328338 0.23190457 0.10144815 -0.0047206464 -0.088472985 -0.13854383
-0.08444437 -0.065429494 -0.067587055 -0.18520695 0.12745008 -0.28009382 -0.3339342 0.034869112
0.29589477 0.030200474 0.0026734436 0.07276311 -0.11087506 0.08190706 0.04516406 -0.16697751
0.22860152 0.12672806 0.14217944 0.37049264 -0.047057282 -0.014718083 0.22290291 -0.02936808
-0.2264747 0.49296865 -0.08450023 0.029031932 0.19464655 0.14536247 0.10050508 -0.13445029
-0.033845216 0.11470656 0.08290257 0.14787595 -0.06079827 -0.089475624 0.10129546 0.096839495
0.09946885 -0.043125305 0.07929252 0.07573048 0.2856613 0.0017350136 -0.019202657 0.19103381
0.04813733 -0.022590129 -0.051021125 -0.060015086 -0.06447759 0.094949074 -0.044998135 -0.08043501
-0.117140576 -0.05521356 -0.16443467 -0.18694949 -0.1468228 0.11361594 0.090674646 -0.22448306
0.027288925 -0.063909285 0.08083875 -0.016505798 0.07247803 0.13405333 0.24559726 -0.04732347
-0.039976813 -0.23546399 0.066132724 0.060466483 -0.06442399 0.07436152 0.11900261 0.16007909
-0.014157427 0.013366293 -0.011041012 -0.09536412 0.13401756 -0.2712538 -0.03502338 0.009737447
00000000: 01bc ec3d b736 cd3e f43f 36be 5992 303e
00000010: 447a dc3e f770 f9bc a333 15bd 860b 51be
00000020: e1e2 c9bd dca9 073e 71e3 463d bb4e a63c
00000030: efa6 99be bd8f 803c 3e1d 523e 8587 b13a
00000040: 57d2 7e3d 85db 35be 0519 4fbc 8092 cb3e
00000050: 56a6 833d f3f9 c3bc 9f55 043e 43ca 39be
00000060: 7a69 06bd 3ba2 223c 5d1d 6d3d 9373 36be
00000070: f89f 913d d13e 2dbc 8baf c5bc 96e3 02bd
00000080: f6d8 213e b0f4 b4bd 5b8e a6bd 2b3e 783d
00000090: bcd4 23be 3d24 1cbf 9e12 55bc 17b1 87be
000000a0: 27f4 86bc ac08 61bd 86de 573d dc9e 06be
000000b0: 158b 853c 91f1 4bbc 181f 2f3e d10f 02be
000000c0: 0953 25be 148a 93be 47c3 9e3e 3c60 83be
000000d0: 81c8 03bf 6bf2 9abc cca7 9c3e f748 18be
000000e0: 0441 6c3e 97cd b13d 94d0 0a3e 4ae1 0c3e
000000f0: 418a 043d 00b1 613d 0c7b 52be ad84 e13d
00000100: 5eac fa3d 6498 773d b409 b63d 0c9c 093d
00000110: 9858 ed3c 751a 4abe 7678 ecbd fa1c 57be
00000120: 50d8 6e3d 265a d63e 6153 39be 917f ebbd
00000130: 8dde 403d 4f40 abbd dae5 debd 0844 6dbd
00000140: 4bb8 2bbc 4338 413e 6526 953d d25c 0e3e
00000150: ea95 6abe 1f15 c63d 2395 463e 636f f83d
00000160: 8591 47bd 3bc5 88bd fd8d 053c 5df0 5ebe
00000170: 492c d5bd 1d40 b5bd f734 99be 602f 59bc
00000180: 17cb debd b55a e23d 8393 45be c319 a5bd
00000190: 0783 ca3c 100c 6abc d4d7 a4be 6e8f 8bbe
000001a0: e0b8 1d3e ebf2 e2bd d673 3abc 891f ae3d
000001b0: 546e 15be dac9 803c 1796 193e 42a5 043c
000001c0: cfe2 613e d879 e03d 6a41 5b3e 32d8 dc3e
000001d0: fb77 463e 4e78 983b b310 573e 15f4 ec3d
000001e0: e77b b2be c199 bebe f59d 693e de85 33bd
000001f0: d2df 00be 0cd9 bb3a c0cf a2be 3605 b13e
00000200: 22a8 6c3e 6d82 d3bd ade3 4dbe 162a 1a3d
00000210: 4f0c a9bc 88ad 943e 9279 d93b 78cd 42be
00000220: deec 393e 9b62 3c3e f2b6 0abe c566 31be
00000230: d186 1a3c 1238 5bbd 6aa0 32bd 5617 52bd
00000240: a8ed 71be da02 f6be a1d6 103d c954 d63b
00000250: b00f 5dbe 748b 633c 5843 b0be 473a 003f
00000260: afda 12be c2bb 263b 8f26 6b3e 27f2 d33b
00000270: ed0b 6dbe 6d98 67be c135 a03e 362a 0a3e
00000280: 3c7a 4ebe b3f2 1c3e 65f9 603b 6478 6d3e
00000290: 0cc4 cf3d a7af 9abb 5331 b5bd 6fde 0dbe
000002a0: 2bf1 acbd e6ff 85bd 156b 8abd e4a6 3dbe
000002b0: 4682 023e 7568 8fbe 6cf9 aabe ead2 0e3d
000002c0: 857f 973e fc66 f73c f134 2f3b d304 953d
000002d0: 7712 e3bd e4be a73d f3fd 383d 27fc 2abe
000002e0: 8416 6a3e 00c5 013e 7d97 113e 36b1 bd3e
000002f0: 23bf 40bd 1d24 71bc a940 643e 5495 f0bc
00000300: fce8 67be 6366 fc3e 750e adbd 60d4 ed3c
00000310: 6d51 473e e6d9 143e 9bd5 cd3d 56ad 09be
00000320: 48a1 0abd 46eb ea3d d3c8 a93d cb6c 173e
00000330: 9b07 79bd ff3e b7bd fe73 cf3d c953 c63d
00000340: 53b6 cb3d 29a4 30bd 1e64 a23d 9518 9b3d
00000350: 3342 923e 6569 e33a e44e 9dbc 5e9e 433e
00000360: a62b 453d ef0e b9bc 87fb 50bd 61d2 75bd
00000370: d40c 84bd a974 c23d f74f 38bd 1cbb a4bd
00000380: 66e7 efbd 9d27 62bd 9061 28be b06f 3fbe
00000390: b758 16be 79af e83d a1b3 b93d e3de 65be
000003a0: 068d df3c dfe2 82bd c98e a53d 2b37 87bc
000003b0: 5d6f 943d 4745 093e d97d 7b3e 41d6 41bd
000003c0: babe 23bd 791d 71be 9870 873d b4ab 773d
000003d0: baf0 83bd da4a 983d a4b7 f33d c6eb 233e
000003e0: 8df4 67bc 4cfe 5a3c 5ce5 34bc 444e c3bd
000003f0: e63b 093e c7e1 8abe ad74 0fbd d089 1f3c

lstm.weight_hh_l0 f4 [128, 32]
-0.015909797 -0.16628836 -0.1415492 0.06949534 0.21728829 -0.08943414 -0.13067114 0.11711146
-0.31626377 0.07441228 -0.14101616 0.040822193 -0.3109083 0.08961239 -0.07068558 -0.10338005
0.056965515 -0.012721718 0.017312462 0.18725456 -0.025045738 -0.07640989 0.18038788 0.119215794
0.19137841 0.07392309 0.20881237 0.26812658 -0.043693203 -0.08501627 -0.025763968 0.101274624
-0.02941869 -0.10632699 0.13495108 -0.025161965 0.04922061 -0.065063566 -0.06630662 -0.09142913
0.04006555 -0.009897164 -0.09780719 0.09368411 -0.05631894 -0.123600304 0.08517539 -0.005877221
-0.12616378 -0.087726966 -0.06810924 -0.03434759 -0.09808907 0.023179125 -0.09472505 0.15871513
0.19867477 -0.031156095 0.21324323 0.24186717 0.07125787 -0.12066731 0.09185891 0.04101291
-0.08548305 0.00031101462 0.14219642 -0.012794261 -0.07285199 0.10188619 -0.035040688 0.07373633
-0.11824327 -0.02328911 0.27898517 0.19600852 -0.15273672 -0.16949002 -0.057238996 -0.09552293
0.08811153 0.04293588 -0.0055381763 0.048882954 -0.17942551 0.034660902 -0.33716258 -0.12513961
-0.2866429 -0.08440458 0.0571458 -0.14109625 0.02246729 -0.08602672 0.1821329 0.042139933
0.12797083 -0.18195173 0.23530331 -0.013806163 -0.17493579 -0.1657187 -0.035802692 0.18787086
-0.03188337 -0.040403884 0.32401532 -0.12378517 0.17354603 -0.15305477 -0.10601372 -0.17990921
-0.16223927 0.1338308 0.086252764 0.14902468 0.12632662 0.18639863 0.11918113 -0.077554286
-0.07477241 0.046290185 0.05075176 -0.16070533 -0.23474464 0.11282173 -0.06324619 0.2604244
-0.2870515 0.053217027 -0.28598967 0.060772993 -0.1624377 -0.034809966 -0.12511502 0.12840436
-0.10149636 0.040848415 0.23875545 0.5666864 -0.10558138 -0.12919715 0.13635343 0.07948463
0.03659532 0.12528215 0.2567484 0.10544524 -0.092656456 -0.13528803 0.053562514 -0.054658916
0.10327318 0.2537137 -0.08012589 -0.13669054 0.21477962 0.10333139 0.06475894 -0.3746629
0.19413444 0.04598676 -0.11688155 0.1053277 0.081487924 0.060788587 0.060199533 -0.12230911
0.30458578 -0.04984238 -0.3126654 -0.060436975 0.02883293 -0.015812973 -0.12013562 -0.060850136
0.033894237 -0.16741756 0.117378354 -0.010236916 0.0571358 -0.13110596 -0.10799042 0.06008804
0.23511177 0.18002637 -0.07779923 0.18566072 -0.0710776 -0.07784333 -0.1855071 -0.0046160067
0.019976368 0.0070722257 -0.01972497 -0.2468952 -0.13431336 0.24091415 -0.02276464 -0.13685144
-0.010476929 0.03441074 -0.2156363 -0.05539088 -0.26811397 0.10935683 0.20950106 -0.1644123
0.16719177 -0.0976544 0.013799204 -0.049594417 0.13509741 0.086124465 0.11846235 0.013196024
0.05110385 -0.06575998 0.21374445 0.11877378 0.15645626 0.09263474 -0.21186048 0.17648296
-0.29325908 -0.005792232 -0.07967815 -0.041275837 -0.041560866 -0.3376805 -0.08232842 0.15228936
0.0057118246 -0.011176101 -0.17902827 0.43974543 -0.08656241 0.33977625 0.16893665 -0.12520628
-0.43042615 0.033909924 -0.20443228 -0.1648751 -0.011364142 -0.079492904 0.1027063 0.009504323
0.20723408 0.120168805 -0.07090588 0.20833287 -0.29928747 0.30252996 0.2452628 0.10265648
00000000: 4355 82bc 7f47 2abe 46f2 10be 9353 8e3d
00000010: d280 5e3e 3f29 b7bd a8ce 05be 22d8 ef3d
00000020: 53ed a1be 7765 983d 8a66 10be 2c35 273d
00000030: 5f2f 9fbe b386 b73d 9ac3 90bd ebb8 d3bd
00000040: ac54 693d c16e 50bc ddd2 8d3c a9bf 3f3e
00000050: b82c cdbc ca7c 9cbd 9ab7 383e 6927 f43d
00000060: b4f8 433e fd64 973d e9d2 553e e347 893e
00000070: a5f7 32bd 031d aebd f50e d3bc 1269 cf3d
00000080: 77ff f0bc f7c1 d9bd 9e30 0a3e 7720 cebc
00000090: 8d9b 493d 0c40 85bd c4cb 87bd 323f bbbd
000000a0: c61b 243d b727 22bc 234f c8bd 74dd bf3d
000000b0: b0ae 66bd 2822 fdbd 6f70 ae3d b495 c0bb
000000c0: 1431 01be 32aa b3bd db7c 8bbd 0fb0 0cbd
000000d0: ece2 c8bd 26e2 bd3c 35ff c1bd 3886 223e
000000e0: 6671 4b3e 113b ffbc 6f5c 5a3e 07ac 773e
000000f0: a5ef 913d 6c20 f7bd 8620 bc3d 27fd 273d
00000100: bd11 afbd ad0f a339 f09b 113e 059f 51bc
00000110: 6d33 95bd b5a9 d03d d386 0fbd 1303 973d
00000120: 8729 f2bd cec8 bebc 25d7 8e3e 75b6 483e
00000130: 0467 1cbe cb8e 2dbe 7073 6abd 87a1 c3bd
00000140: d173 b43d 89dd 2f3d 9779 b5bb 7e39 483d
00000150: 52bb 37be 97f8 0d3d 93a0 acbe 9924 00be
00000160: dcc2 92be 4fdc acbd b711 6a3d 897b 10be
00000170: 520d b83c c72e b0bd 0c81 3a3e ec9a 2c3d
00000180: c90a 033e 8e51 3abe 5af3 703e 3f33 62bc
00000190: 5e22 33be 2ab2 29be d8a5 12bd 3861 403e
000001a0: 2398 02bd 8b7e 25bd 56e5 a53e 1483 fdbd
000001b0: 0db6 313e 64ba 1cbe b91d d9bd 1f3a 38be
000001c0: 0d22 26be f10a 093e 4aa5 b03d ed99 183e
000001d0: c45b 013e 48df 3e3e 3c15 f43d c8d4 9ebd
000001e0: 4722 99bd c79a 3d3d 14e1 4f3d f08f 24be
000001f0: e660 70be 140f e73d 3887 81bd 5956 853e
00000200: 6af8 92be 19fa 593d 3d6d 92be 1aed 783d
00000210: 1256 26be e594 0ebd 271e 00be 6f7c 033e
00000220: 53dd cfbd ab50 273d 4f7c 743e 5c12 113f
00000230: 0d3b d8bd 424c 04be 3ca0 0b3e d6c8 a23d
00000240: f9e4 153d f749 003e 8774 833e adf3 d73d
00000250: abc2 bdbd f288 0abe 5e64 5b3d 07e2 5fbd
00000260: e480 d33d c3e6 813e 0b19 a4bd 9bf8 0bbe
00000270: 30ef 5b3e 689f d33d 56a0 843d d1d3 bfbe
00000280: 2ecb 463e 9d5c 3c3d 985f efbd 0db6 d73d
00000290: 24e3 a63d 74fd 783d c993 763d 337d fabd
000002a0: abf2 9b3e 8627 4cbd ae15 a0be c38c 77bd
000002b0: 0933 ec3c 358a 81bc aa09 f6bd fe3d 79bd
000002c0: afd4 0a3d 826f 2bbe 1064 f03d bdb8 27bc
000002d0: 3b07 6a3d a440 06be 152a ddbd e01e 763d
000002e0: 24c1 703e d558 383e 3455 9fbd d81d 3e3e
000002f0: 2291 91bd 536c 9fbd 93f5 3dbe df41 97bb
00000300: 7ba5 a33c 21be e73b 4396 a1bc 18d2 7cbe
00000310: 7189 09be 33b2 763e e97c babc c922 0cbe
00000320: 6da7 2bbc 47f2 0c3d c3cf 5cbe 8ce1 62bd
00000330: 3c46 89be 79f6 df3d 7287 563e b35b 28be
00000340: 5234 2b3e 08ff c7bd 0e16 623c 8423 4bbd
00000350: fa56 0a3e 0662 b03d 639c f23d 2334 583c
00000360: 4552 513d 2bad 86bd d3df 5a3e ab3f f33d
00000370: 1236 203e 48b7 bd3d f4f1 58be f3b7 343e
00000380: 0e26 96be c4cc bdbb 4c2e a3bd da10 29bd
00000390: ba3b 2abd 75e4 acbe cd9b a8bd bef1 1b3e
000003a0: 422a bb3b f71b 37bc 3053 37be 5026 e13e
000003b0: a247 b1bd 27f7 ad3e bbfd 2c3e 1336 00be
000003c0: d160 dcbe 22e5 0a3d b256 51be 05d5 28be
000003d0: ab30 3abc 2dcd a2bd ae57 d23d 05b8 1b3c
000003e0: 2c35 543e 101b f63d 1a37 91bd 3655 553e
000003f0: 353c 99be 35e5 9a3e 2c26 7b3e 903d d23d

lstm.bias_ih_l0 f4 [128]
-0.11397971 -0.16204062 -0.008623598 -0.029076822 0.25546062 0.0516195 -0.092156716 0.005072954
-0.14537066 0.036840677 0.32744506 0.037287053 -0.16758303 0.010824987 -0.10079805 0.060351104
0.03252516 -0.07857235 -0.07282951 0.07390702 0.08343521 0.026907172 0.1635307 0.19996528
-0.032781735 0.08580082 0.09909353 0.033076577 -0.23300427 0.35052702 0.11620724 -0.03966729
-0.0057931165 0.12243764 -0.18129914 -0.14265528 -0.05855326 0.18001555 -0.009983224 0.078398585
-0.0038856314 -0.13743803 -0.23944955 0.09848938 -0.073946536 -0.06555031 0.053708598 0.0077411993
0.1466329 0.14452697 0.0819542 0.24230589 0.021450397 -0.04922495 -0.018001458 -0.11888284
-0.05286481 0.108097725 -0.12391788 -0.2259095 -0.1319364 0.0075205113 -0.120470114 -0.08636933
0.01884125 0.13079429 0.06903618 0.0011594341 -0.15219557 -0.08991227 0.032449383 -0.07786407
0.083025835 -0.0005913143 -0.0021789656 0.11705265 -0.058110215 0.19790074 0.09905313 0.04295419
-0.0032846828 0.11296178 -0.115291685 0.032264717 0.18927419 0.053878274 0.038288064 -0.16025332
-0.07783517 0.112660885 -0.05164519 0.08658816 -0.01146392 0.17297274 0.094715476 -0.13143627
0.13946661 0.10987462 -0.18149363 0.0647967 0.2032806 -0.0075006173 -0.038895026 0.035454907
-0.1259622 0.023026748 -0.026214207 0.105723515 0.18778317 0.0063429778 0.0088625075 0.031359762
-0.1417719 0.10207967 -0.0007272104 -0.07835346 0.264266 -0.10597784 0.117326796 0.056026928
-0.13441354 0.103269204 0.2029684 0.17337444 0.13179323 0.16009973 -0.06461189 0.06909288
00000000: 326e e9bd faed 25be fe49 0dbc 8432 eebc
00000010: bccb 823e f86e 533d a9bc bcbd 063b a63b
00000020: 0cdc 14be 40e6 163d e1a6 a73e 4fba 183d
00000030: e39a 2bbe 495b 313c 356f cebd b832 773d
00000040: 1a39 053d 8aea a0bd a327 95bd 905c 973d
00000050: 14e0 aa3d 6e6c dc3c 9874 273e b3c3 4c3e
00000060: 2446 06bd 57b8 af3d 8cf1 ca3d 4e7b 073d
00000070: ac98 6ebe 4778 b33e 10fe ed3d 2b7a 22bd
00000080: 2fd4 bdbb 96c0 fa3d 7ba6 39be 3a14 12be
00000090: 8bd5 6fbd ff55 383e ad90 23bc 708f a03d
000000a0: 14a6 7ebb 8ebc 0cbe 4332 75be cdb4 c93d
000000b0: 4871 97bd 3e3f 86bd 8cfd 5b3d e3a9 fd3b
000000c0: ef26 163e e1fe 133e 9bd7 a73d 091f 783e
000000d0: beb8 af3c 1aa0 49bd cb77 93bc d978 f3bd
000000e0: c588 58bd 5762 dd3d a8c8 fdbd d254 67be
000000f0: 561a 07be 9f6e f63b 09b9 f6bd 67e2 b0bd
00000100: f758 9a3c f0ee 053e d762 8d3d 27f8 973a
00000110: 28d9 1bbe ed23 b8bd a5e9 043d 3377 9fbd
00000120: 7309 aa3d 6e02 1bba facc 0ebb 4db9 ef3d
00000130: fa04 6ebd 7ea6 4a3e 5edc ca3d bcf0 2f3d
00000140: d543 57bb 8158 e73d 0c1e ecbd 0228 043d
00000150: 18d1 413e 77af 5c3d f2d3 1c3d 7219 24be
00000160: 0c68 9fbd c0ba e63d e889 53bd 2255 b13d
00000170: 2ad3 3bbc c41f 313e 30fa c13d 3b97 06be
00000180: 56d0 0e3e f205 e13d 77d9 39be 22b4 843d
00000190: ca28 503e bdc7 f5bb 6450 1fbd 2a39 113d
000001a0: 3cfc 00be 97a2 bc3c 2dbf d6bc 9285 d83d
000001b0: 3b4a 403e c1d8 cf3b 0d34 113c 1873 003d
000001c0: a72c 11be 250f d13d 44a2 3eba c777 a0bd
000001d0: e04d 873e e90a d9bd 0849 f03d 7e7c 653d
000001e0: b4a3 09be ce7e d33d f3d6 4f3e 1289 313e
000001f0: cef4 063e 2ff1 233e 3d53 84bd 9180 8d3d

lstm.bias_hh_l0 f4 [128]
-0.07925384 -0.003670621 0.17655487 -0.1644452 0.2809795 -0.020801954 -0.15244798 -0.14549176
0.036270794 0.019227682 0.014519192 -0.045357212 -0.0678111 -0.027530529 -0.006915913 0.04660363
-0.0035902383 0.041867044 -0.07316903 0.08825721 -0.09471141 -0.044184938 0.194736 -0.054542966
0.09706248 0.029993253 0.2053461 0.14236224 -0.14326632 0.28227 0.13831498 -0.09929153
0.14122336 -0.02824735 0.007760085 0.108743295 0.10495352 0.1300533 -0.10630112 -0.17205405
-0.17295076 0.090707034 -0.0165967 -0.15518583 0.0779188 0.060035948 0.118607685 -0.038477045
-0.1384215 -0.16371755 -0.08095326 0.13135307 -0.15752739 -0.03405267 -0.028236175 0.068897285
-0.14243811 -0.03204573 -0.20495 -0.05804205 0.06905514 0.010669341 -0.17736636 -0.17104927
0.13313155 0.11499889 0.20053394 0.029715851 -0.1560791 0.22346151 0.05038285 -0.033556245
-0.037296973 -0.052490883 -0.29969007 -0.077499285 -0.18445772 0.17156887 0.24002416 0.045709163
-0.10278355 0.13421406 -0.16097297 0.18780842 0.00962664 -0.017110012 0.010839694 0.047072563
0.089158386 0.17775886 -0.11197451 0.18873635 0.14568129 0.15407072 0.084966615 -0.2951863
-0.016919812 -0.04273021 0.06423601 -0.23502563 0.014464793 0.13214676 0.10284633 -0.074773625
-0.192815 -0.0021089178 0.061794993 0.12646294 0.2395915 0.1656491 0.17020565 0.12444906
-0.11885974 0.041180667 -0.00951511 0.06511509 0.15765157 -0.06265808 0.17421041 0.040409468
-0.08262516 0.003928161 -0.10614066 0.32548323 -0.110405 0.2711487 -0.085524864 0.05581727
00000000: d64f a2bd cd8e 70bb cdca 343e 5364 28be
00000010: 8cdc 8f3e dc68 aabc 531b 1cbe cbfb 14be
00000020: af90 143d 5f83 9d3c e8e1 6d3c 7cc8 39bd
00000030: 8ce0 8abd b487 e1bc e29e e2bb 73e3 3e3d
00000040: 344a 6bbb c77c 2b3d a5d9 95bd 32c0 b43d
00000050: 0ef8 c1bd 44fb 34bd e068 473e 7268 5fbd
00000060: b2c8 c63d 69b4 f53c 3f46 523e 68c7 113e
00000070: 68b4 12be b285 903e 71a2 0d3e 5c59 cbbd
00000080: db9c 103e fd66 e7bc 5048 fe3b ceb4 de3d
00000090: dff1 d63d b12c 053e 67b4 d9bd f02e 30be
000000a0: 011a 31be 9cc4 b93d cdf5 87bc 09e9 1ebe
000000b0: e493 9f3d 41e8 753d 96e8 f23d 1b9a 1dbd
000000c0: 5ebe 0dbe 93a5 27be d3ca a5bd 6b81 063e
000000d0: dc4e 21be d07a 0bbd 8d4f e7bc 051a 8d3d
000000e0: 4cdb 11be 6242 03bd 6ade 51be 80bd 6dbd
000000f0: c86c 8d3d 76ce 2e3c 879f 35be 8a27 2fbe
00000100: a353 083e 8a84 eb3d c558 4d3e a86e f33c
00000110: 33d3 1fbe 18d3 643e 3f5e 4e3d 4672 09bd
00000120: b6c4 18bd ae00 57bd fa70 99be f2b7 9ebd
00000130: 7ce2 3cbe c0af 2f3e e5c8 753e 8839 3b3d
00000140: 2f80 d2bd 696f 093e 19d6 24be da50 403e
00000150: 0eb9 1d3c 4c2a 8cbc f998 313c 29cf 403d
00000160: ac98 b63d 6b06 363e e452 e5bd 1a44 413e
00000170: 7a2d 153e b7c4 1d3e fa02 ae3d a922 97be
00000180: 6b9b 8abc df05 2fbd 2b8e 833d 8faa 70be
00000190: bdfd 6c3c 7b51 073e 19a1 d23d ea22 99bd
000001a0: 4c71 45be c535 0abb bf1c 7d3d 807f 013e
000001b0: 7957 753e eb9f 293e 644a 2e3e 26df fe3d
000001c0: bc6c f3bd 0fad 283d 44e5 1bbc 0f5b 853d
000001d0: 6a6f 213e e152 80bd 3764 323e 6684 253d
000001e0: 6137 a9bd ceb7 803b 4660 d9bd bda5 a63e
000001f0: 041c e2bd 01d4 8a3e a927 afbd a6a0 643d

hidden2out.weight f4 [3, 32]
-0.3303434 0.019478336 0.1289161 -0.20229347 -0.16626741 0.18759555 0.08185224 -0.026295118
0.20839244 0.050528966 -0.2105303 -0.036274597 -0.19986837 0.21927734 0.13059004 0.014749248
-0.08581522 0.018090155 0.08407521 -0.030406307 0.15515089 -0.010343619 -0.057617456 -0.1194577
0.2941362 0.25422186 -0.09679969 0.11988529 0.13775994 0.33512312 0.18544553 -0.08583631
-0.18185957 0.22836882 0.07944095 -0.1954212 0.1332678 0.074626125 -0.17981178 -0.047860395
-0.10461235 0.060007814 0.15347998 0.11339526 -0.18047874 -0.115445174 -0.049298014 0.22878402
-0.07748894 -0.21620639 0.095767714 -0.14440733 -0.11421156 0.1244171 0.17855331 -0.019344205
-0.02552048 0.11402733 0.12543687 0.06693968 0.051967643 0.05535532 -0.041474994 0.12585962
-0.0880936 -0.10147883 0.2489687 0.12876736 -0.00851824 0.16413522 0.20729987 -0.20164356
-0.014718936 -0.08665407 0.004736584 0.1049184 0.04369865 -0.21126449 -0.17809176 -0.021234116
0.035473496 -0.11797725 5.317709e-05 -0.100312375 -0.07286411 -0.30731446 -0.046699725 -0.14800291
0.06762824 -0.01568843 0.05737201 -0.033361476 0.05360012 -0.2916879 -0.017900405 0.24426886
00000000: c522 a9be 0891 9f3c 9502 043e 0526 4fbe
00000010: 0142 2abe 0c19 403e 26a2 a73d dc68 d7bc
00000020: d464 553e 76f7 4e3d 4195 57be ac94 14bd
00000030: 4baa 4cbe 3d8a 603e 65b9 053e d4a6 713c
00000040: e4bf afbd ce31 943c a02f ac3d a616 f9bc
00000050: e0df 1e3e 4878 29bc 4800 6cbd 3da6 f4bd
00000060: 0599 963e 5e29 823e ea3e c6bd 6b86 f53d
00000070: f110 0d3e 4295 ab3e 6fe5 3d3e f3ca afbd
00000080: 6539 3abe 84d9 693e f0b1 a23d 7f1c 48be
00000090: 5b77 083e 95d5 983d 9420 38be 4309 44bd
000000a0: 003f d6bd c1ca 753d db29 1d3e c63b e83d
000000b0: 6bcf 38be 856e ecbd b7ec 49bd 5c46 6a3e
000000c0: 85b2 9ebd 3565 5dbe dd21 c43d 84df 13be
000000d0: c0e7 e9bd 64ce fe3d aed6 363e bd77 9ebc
000000e0: 5310 d1bc 2987 e93d 8672 003e ac17 893d
000000f0: 06dc 543d 43bc 623d afe1 29bd 58e1 003e
00000100: 6b6a b4bd 22d4 cfbd a7f1 7e3e 97db 033e
00000110: 1790 0bbc 1013 283e 6b46 543e a67b 4ebe
00000120: b127 71bc b077 b1bd 5935 9b3b 75df d63d
00000130: 5bfd 323d b855 58be b05d 36be 2bf3 adbc
00000140: a84c 113d 0e9e f1bd 770a 5f38 9370 cdbd
00000150: c739 95bd 5258 9dbe 3648 3fbd 138e 17be
00000160: ad80 8a3d 0685 80bc eafe 6a3d 0ba6 08bd
00000170: cd8b 5b3d 1e58 95be dfa3 92bc 9e21 7a3e

hidden2out.bias f4 [3]
0.07068047 -0.03100603 0.08305701
00000000: ecc0 903d 5c00 febc cb19 aa3d

std_layer.weight f4 [3, 32]
0.14099132 0.028599143 -0.026703984 0.081459984 -0.054785907 0.08617748 0.10467394 -0.021738708
-0.04353845 -0.08790998 -0.13842095 0.066813186 0.08647333 -0.037922665 -0.01102905 -0.02661024
-0.010642126 -0.03245379 -0.16304563 0.039505884 0.11220078 -0.050986335 0.117709056 -0.1182559
-0.13282244 0.07098292 -0.17330128 -0.03303346 0.00055499375 -0.11887027 -0.0843805 0.12122561
-0.08229661 -0.044496804 -0.12630607 -0.08068456 -0.1668086 -0.13061173 0.06719598 0.0020455718
0.079292014 -0.13101594 0.116700694 0.094645485 -0.04564923 -0.056680284 0.1425413 0.046778575
0.029779196 -0.0044014603 -0.014497295 -0.04797429 0.018011943 0.1765538 0.11020176 0.17221381
-0.10971693 -0.1195752 0.1325716 -0.0366071 -0.048290327 -0.05668007 -0.091597915 -0.035999358
0.015723825 0.021875396 -0.05108674 0.1174828 0.10829462 -0.042716354 0.026149586 0.06226784
0.0015799552 -0.10839999 -0.014713213 0.05733113 -0.061317213 -0.08491332 -0.09780391 -0.13861002
-0.08089038 -0.10684525 -0.051432624 0.041808784 0.025247514 0.0037330985 0.14186437 -0.15776244
-0.060870036 0.14382495 0.033064693 0.13502331 -0.0014536679 0.15644042 -0.015873298 0.06353441
00000000: 0760 103e c048 ea3c 50c2 dabc 7ed4 a63d
00000010: 3067 60bd d27d b03d 4a5f d63d 6015 b2bc
00000020: 6055 32bd 260a b4bd 39be 0dbe 5ad5 883d
00000030: ee18 b13d cc54 1bbd 30b3 34bc b8fd d9bc
00000040: 505c 2ebc 44ee 04bd 6ff5 26be ecd0 213d
00000050: 86c9 e53d 0cd7 50bd 7211 f13d 2630 f2bd
00000060: 9b02 08be 7e5f 913d e475 31be 184e 07bd
00000070: 007d 113a 4272 f3bd afcf acbd 2245 f83d
00000080: 208b a8bd 4842 36bd 6156 01be f23d a5bd
00000090: e0cf 2abe 15bf 05be 0c9e 893d 000f 063b
000000a0: da63 a23d 0b29 06be c600 ef3d 7ed5 c13d
000000b0: b0fa 3abd 9629 68bd 59f6 113e e49a 3f3d
000000c0: 80f3 f33c 203a 90bb 1086 6dbc b080 44bd
000000d0: c88d 933c 85ca 343e 76b1 e13d d158 303e
000000e0: 45b3 e0bd d8e3 f4bd d9c0 073e 54f1 15bd
000000f0: 14cc 45bd 5c29 68bd b097 bbbd 1074 13bd
00000100: 40cf 803c 0834 b33c 5440 51bd d29a f03d
00000110: 92c9 dd3d 58f7 2ebd a837 d63c 900c 7f3d
00000120: 8016 cf3a d000 debd b00f 71bc 0cd4 6a3d
00000130: c227 7bbd 09e7 adbd 6b4d c8bd c9ef 0dbe
00000140: dba9 a5bd afd1 dabd 04ab 52bd b03f 2b3d
00000150: e0d3 ce3c 00a7 743b e544 113e 7a8c 21be
00000160: dc52 79bd d946 133e d86e 073d 8d43 0a3e
00000170: 0089 beba eb31 203e b808 82bc 541e 823d

std_layer.bias f4 [3]
-0.058504924 -0.13452165 -0.13384584
00000000: dca2 6fbd 0bc0 09be e20e 09be

exp_avg f4 [128, 12]
0.00022174041 2.5292307e-05 0.00015689158 -0.00015005827 -8.280452e-05 0.0014324102 0.00013043942 0.00014601402
-4.199709e-05 0.0010669562 0.0015742945 0.0008735074 -0.0027272196 -0.000666509 -0.00044337285 -0.00085712323
-0.0072447713 -0.0072513614 -0.0046255863 0.0018508873 -0.0033592351 -0.01583526 -0.013085491 -0.0057413573
9.530941e-05 -0.00014168609 -8.458092e-06 0.0005554078 0.00050428 -0.000506675 -3.2946155e-05 -0.0003489114
6.2731204e-05 0.00023383212 -0.0007847076 -0.00056080916 -1.4363372e-05 0.00038590116 0.00020163423 -0.0008295658
-0.0005988683 0.0023462318 0.0004332949 0.00058320287 -0.00010014737 0.0008304068 0.002567363 0.001084158
-3.7295142e-06 3.3894394e-05 4.351208e-05 0.00015667017 0.00026129323 -2.2543332e-05 -0.00010220597 9.179794e-05
5.7506542e-05 4.5512486e-05 3.2147385e-05 0.0003442302 -0.0010622336 -0.0012031344 0.00067155465 -0.00023281167
-0.0023388092 -0.0029410946 -0.0015057935 0.0005810148 -0.00017024155 -0.004703669 -0.0049670087 -0.0008164147
-0.00022226115 -0.00023940804 0.0005167897 -0.00048068166 -0.00044196134 0.00075817504 7.02896e-05 0.00050933065
0.0003331623 0.00024606267 0.00053124636 0.00072221505 2.2664364e-05 2.0064022e-05 -3.7363832e-05 2.7069902e-06
3.9822958e-06 -2.62432e-06 -2.8306811e-05 -1.9528357e-05 -4.0745308e-05 -3.5714572e-06 -9.8080584e-08 -6.651251e-06
-0.00023314737 -0.0002291987 0.00044439416 -0.00025546338 -0.000397348 0.00014029603 -8.1617465e-05 0.000358084
0.00020921676 -0.00017414505 -9.5377385e-05 0.00048611814 2.4931853e-05 2.5803078e-05 -5.3014308e-05 5.2965068e-05
5.67329e-05 -8.031775e-05 -8.853403e-06 -5.424125e-05 -3.3200708e-05 -1.2294046e-05 -4.7436846e-05 -7.3056726e-05
4.4140994e-05 0.00032968604 5.7441302e-05 -0.0005977377 -0.00058913464 0.002243275 0.00038725435 0.00046881524
-0.00010883259 0.0009523332 0.0023444225 0.00082764204 -0.0001341259 -2.0060328e-05 0.00024890318 -0.0005752178
-0.00062757224 0.0010161868 0.000100288664 0.0004086895 1.0979305e-06 2.0745001e-05 0.0008579959 0.00047877504
-0.0021512196 -0.0022123866 -0.000355281 0.0013455906 -0.0036512292 -0.011883085 -0.0031587016 -0.000111491165
-0.0013389351 -0.013322868 -0.015888002 -0.007249514 -0.00074625365 0.0004077328 -2.9884392e-05 -0.0020935568
-0.0014907576 0.0012607749 0.00035406803 0.0011418946 -0.0002272322 -0.0020288038 0.00096480036 -0.00026602924
-0.00028882432 -0.0003556931 8.184065e-05 -0.00014561249 -0.0012410529 -0.0010396619 -0.00036139175 -0.00024116774
-0.00027342464 -0.0011778654 -0.0017996564 -0.0013957227 0.0002056048 0.00020224934 -0.0003475891 0.00018799426
0.00016269679 -0.00030220076 -9.727481e-05 -0.00024001076 -0.00028759454 -9.478807e-05 -0.00019225865 -0.00025721928
1.746626e-05 -2.7031962e-05 2.8575187e-05 -8.029176e-05 -7.821277e-05 0.00013164768 -2.3201403e-05 2.7404945e-05
-1.4314436e-05 1.5136882e-05 8.397964e-05 9.4008654e-05 0.0014642236 0.0006369717 0.00010980407 0.0006506612
0.0033468183 0.0035564343 0.00187005 -0.0009793111 0.0012378442 0.0072624977 0.005815146 0.0028460461
-0.0002735907 0.0001337491 0.0002072581 -0.00068009034 -0.00070875196 0.00096642715 4.2814827e-06 0.0005943987
-7.2339775e-05 -0.00027593924 0.00091169175 0.0005053009 -6.2543644e-05 -5.8268128e-05 9.320495e-05 -3.966642e-05
-3.7040103e-05 4.970932e-05 2.686189e-05 5.3994594e-05 8.3882645e-05 1.3744794e-05 2.5999647e-05 4.320352e-05
-0.0012727677 0.00011749612 -0.0002956774 -0.00061980815 -0.0018165038 -0.002060484 -0.0014129796 0.0013777694
-0.0009845921 -0.0057653165 -0.0033828819 -0.0016137203 9.567908e-05 2.0744485e-06 -6.557987e-05 0.00014466922
00000000: fd82 6839 d12a d437 4383 2439 f658 1db9
00000010: 57a7 adb8 b6bf bb3a 91c6 0839 571b 1939
00000020: 0826 30b8 1cd9 8b3a 8f58 ce3a 17fc 643a
00000030: 27bb 32bb a9b8 2eba 7f74 e8b9 91b0 60ba
00000040: 8c65 edbb d49c edbb 3b92 97bb 7999 f23a
00000050: 9d26 5cbb f2b8 81bc 8764 56bc ff21 bcbb
00000060: dae0 c738 9291 14b9 3be7 0db7 c998 113a
00000070: a831 043a 62d2 04ba aa2f 0ab8 18ee b6b9
00000080: 8f8e 8338 d530 7539 d6b4 4dba 4403 13ba
00000090: 37fa 70b7 c752 ca39 c76d 5339 3877 59ba
000000a0: 5ffd 1cba 3dc3 193b db2b e339 15e2 183a
000000b0: 3606 d2b8 a8af 593a 3441 283b 4e1a 8e3a
000000c0: 9148 7ab6 d429 0e38 bd80 3638 d447 2439
000000d0: 2ffe 8839 701b bdb7 6a57 d6b8 a583 c038
000000e0: 2e33 7138 a9e4 3e38 fed5 0638 cc79 b439
000000f0: a53a 8bba 7eb2 9dba 450b 303a e81e 74b9
00000100: b546 19bb 61bf 40bb 0c5e c5ba 3e4f 183a
00000110: de82 32b9 3c21 9abb 4ac2 a2bb aa04 56ba
00000120: c60e 69b9 9b09 7bb9 2b79 073a 0004 fcb9
00000130: 0cb7 e7b9 44c0 463a 7168 9338 9a84 053a
00000140: 49ac ae39 f901 8139 5743 0b3a 0853 3d3a
00000150: 5a1f be37 294f a837 1cb7 1cb8 bda9 3536
00000160: a99f 8536 791d 30b6 6a74 edb7 d4d0 a3b7
00000170: f1e5 2ab8 2bad 6fb6 5fa0 d2b3 d02d dfb6
00000180: 0579 74b9 0f55 70b9 93fd e839 b7ef 85b9
00000190: 2553 d0b9 6e1c 1339 0b2a abb8 39bd bb39
000001a0: 3261 5b39 b59a 36b9 5805 c8b8 acdd fe39
000001b0: bf24 d137 b073 d837 ae5b 5eb8 cf26 5e38
000001c0: 7df4 6d38 4470 a8b8 1489 14b7 1981 63b8
000001d0: fd40 0bb8 8742 4eb7 edf6 46b8 0836 99b8
000001e0: 0824 3938 b6d9 ac39 21ed 7038 7fb1 1cba
000001f0: 2870 1aba e903 133b 6608 cb39 51cb f539
00000200: 0d3d e4b8 00a6 793a e2a4 193b 1ef6 583a
00000210: 26a4 0cb9 3a47 a8b7 387f 8239 37ca 16ba
00000220: a983 24ba 9231 853a 1152 d238 6045 d639
00000230: 9b5c 9335 8d05 ae37 21eb 603a 1904 fb39
00000240: 7afb 0cbb b0fd 10bb 0245 bab9 875e b03a
00000250: 7649 6fbb 45b1 42bc 3802 4fbb 5dd0 e9b8
00000260: 357f afba 2948 5abc 8e27 82bc 558d edbb
00000270: 3ca0 43ba f8c4 d539 3eb0 fab7 0e34 09bb
00000280: 8665 c3ba 9640 a53a 35a2 b939 a0ab 953a
00000290: 2e45 6eb9 aef5 04bb a8ea 7c3a d779 8bb9
000002a0: 586d 97b9 527c bab9 dda1 ab38 8eaf 18b9
000002b0: d3aa a2ba 4445 88ba 2e79 bdb9 f9e1 7cb9
000002c0: 6f5a 8fb9 9b62 9aba 73e2 ebba aff0 b6ba
000002d0: 9e97 5739 e512 5439 9f3c b6b9 5320 4539
000002e0: 9699 2a39 b370 9eb9 0400 ccb8 66ab 7bb9
000002f0: 49c8 96b9 f5c8 c6b8 0a99 49b9 63db 86b9
00000300: 8284 9237 b2c2 e2b7 bfb4 ef37 4f62 a8b8
00000310: 2906 a4b8 e80a 0a39 a2a0 c2b7 ace3 e537
00000320: 0928 70b7 6af4 7d37 3a1e b038 8326 c538
00000330: 31eb bf3a 72fa 263a 9c46 e638 2291 2a3a
00000340: 4b56 5b3b 1113 693b 771c f53a 3a5c 80ba
00000350: 293f a23a 3ffa ed3b fb8c be3b bb84 3a3b
00000360: b970 8fb9 003f 0c39 6c53 5939 1748 32ba
00000370: 8acb 39ba d457 7d3a a8a9 8f36 6cd1 1b3a
00000380: 1fb5 97b8 f0ab 90b9 99fe 6e3a 2b76 043a
00000390: dd29 83b8 ed64 74b8 0777 c338 7f5f 26b8
000003a0: 825b 1bb8 fa7e 5038 7855 e137 4178 6238
000003b0: 27ea af38 7199 6637 d119 da37 6d35 3538
000003c0: ffd2 a6ba 4068 f638 2605 9bb9 9f7a 22ba
000003d0: c117 eeba 2f09 07bb ba33 b9ba 4596 b43a
000003e0: 6e0d 81ba fbea bcbb 57b3 5dbb 7883 d3ba
000003f0: 51a7 c838 c136 0b36 ed87 89b8 59b2 1739

exp_avg_sq f4 [128, 12]
5.634517e-07 1.5741839e-06 6.0341426e-07 4.054505e-06 2.2476304e-06 4.5409237e-05 4.113003e-06 1.5022464e-06
1.662984e-06 3.5909055e-05 7.327248e-05 1.8596667e-05 3.3402077e-05 1.7259503e-05 4.7724538e-05 0.00024341897
0.00021663576 0.0020373652 6.5093016e-05 0.000111018475 1.7017886e-05 0.0008967807 0.002459583 0.0005918618
8.85619e-07 2.748619e-07 7.498707e-07 1.3424389e-05 1.7872702e-05 1.7563172e-05 1.049191e-06 1.8197444e-06
9.897159e-07 1.7882428e-05 2.7439788e-05 2.868293e-05 1.3949418e-07 2.0154019e-07 1.3441547e-06 3.3878498e-06
2.4117483e-06 1.896741e-05 3.890507e-07 1.8768405e-06 2.4464293e-07 2.3172709e-06 1.7550463e-05 6.5089416e-06
1.2024772e-07 1.6407594e-07 3.7544932e-08 2.0121277e-07 1.2117736e-06 2.6560244e-06 7.7161026e-08 3.6078657e-08
1.1732725e-07 4.3940363e-06 5.171626e-06 2.703157e-06 2.8163415e-06 4.080456e-06 2.997247e-06 2.2219476e-05
2.1246e-05 0.00012539969 9.826124e-06 1.0062285e-05 3.7139505e-06 9.3309514e-05 0.00019681125 6.346945e-05
1.9132324e-07 1.3674124e-07 1.2369024e-06 2.4536719e-06 1.8424602e-06 1.0339387e-05 3.005414e-07 1.6880867e-06
4.6683013e-07 1.0871222e-06 7.760752e-06 5.057994e-06 5.3869634e-08 3.596751e-08 1.5735786e-07 9.79127e-08
1.04985665e-08 2.2634674e-07 1.1948399e-07 6.2794065e-08 1.4633868e-07 9.553648e-08 8.837784e-08 2.012954e-07
2.0934127e-07 4.804512e-07 1.107114e-06 3.5144744e-06 1.7669456e-06 2.7371887e-05 7.5267405e-07 1.7051664e-06
5.046857e-07 5.5293594e-06 2.8632165e-05 7.440037e-06 4.3023462e-08 4.0925052e-08 1.0261457e-07 1.5657458e-08
1.114148e-08 3.6184222e-08 9.207963e-09 2.5394241e-08 8.608765e-08 4.7282924e-09 1.7774324e-08 2.5426644e-08
7.8967105e-08 2.4076394e-07 1.059216e-06 4.42905e-06 2.5785798e-06 3.1652617e-05 7.58674e-07 2.1150047e-06
1.7025427e-07 5.2308146e-06 3.1672498e-05 9.078847e-06 4.614999e-08 3.5035725e-08 1.8881487e-07 6.454416e-07
5.441006e-07 3.824412e-06 9.744902e-08 3.73964e-07 6.402103e-08 6.464247e-07 3.855666e-06 1.3952181e-06
7.5663133e-06 8.96468e-06 1.2690871e-06 9.4478355e-06 2.626217e-05 0.00028132158 2.474997e-05 2.6044668e-06
4.7650515e-06 0.00030401084 0.0004800542 0.0001004617 2.6421587e-06 5.591723e-06 1.1643936e-05 8.005281e-05
2.2506578e-05 0.0008388161 2.806446e-05 3.2946355e-05 3.0460794e-06 0.00029582813 0.0010244647 0.00019252849
2.2499357e-06 1.0552127e-06 1.327525e-06 1.2997483e-05 2.9188062e-05 6.304317e-05 2.307517e-06 3.8076712e-06
1.7302357e-06 3.229983e-05 7.5252596e-05 4.439603e-05 1.4922595e-07 1.1244034e-07 4.3400573e-07 1.5032845e-07
1.3514209e-07 3.5933323e-07 8.970346e-08 1.8798907e-07 3.369309e-07 3.191409e-08 1.210155e-07 2.7820536e-07
4.653493e-08 5.5480903e-08 9.94578e-08 6.192836e-08 5.359048e-08 2.5846433e-07 4.6956794e-09 5.6176315e-08
7.238896e-08 3.2916557e-08 1.8875942e-07 1.4024435e-07 3.7721175e-06 1.7135286e-06 4.899925e-06 2.2984035e-05
2.2390235e-05 0.00018981061 6.30592e-06 1.0949897e-05 1.8714255e-06 7.9496356e-05 0.00021581234 4.9674123e-05
2.5109347e-07 2.4116426e-07 2.8960514e-07 1.0665251e-06 2.561366e-06 5.1215666e-06 1.2016696e-07 7.1116665e-07
1.7120306e-07 2.058007e-06 4.6437317e-06 3.0010622e-06 1.6574869e-07 1.5509109e-07 4.0484693e-07 2.741755e-08
2.811594e-08 6.060892e-08 3.119236e-08 9.0339384e-08 3.3701147e-07 3.8140975e-09 1.2470465e-08 5.1010932e-08
8.9193e-06 6.94714e-06 1.0793697e-05 6.257863e-05 6.1095016e-05 0.0006451724 2.0274667e-05 2.8644848e-05
4.8439497e-06 0.00031983366 0.00079498 0.00019280094 5.1923955e-08 5.8006393e-08 7.651335e-08 6.0480573e-07
00000000: 1b40 1735 8c48 d335 50fa 2135 ef0b 8836
00000010: ffd5 1636 cc75 3e38 6d02 8a36 cba0 c935
00000020: b233 df35 0e9d 1638 dda9 9938 0a00 9c37
00000030: 3519 0c38 80c8 9037 d52b 4838 483e 7f39
00000040: b828 6339 5185 053b 8c82 8838 97d2 e838
00000050: a2c1 8e37 ef15 6b3a f530 213b 2c27 1b3a
00000060: 46bb 6d35 bb90 9334 b94a 4935 5039 6137
00000070: 56ed 9537 a054 9337 eed1 8c35 f13d f435
00000080: 61d6 8435 3902 9637 7f2e e637 209c f037
00000090: dec7 1534 f266 5834 ce68 b435 d15a 6336
000000a0: 85d9 2136 341c 9f37 b9de d034 c0e7 fb35
000000b0: 7857 8334 6982 1b36 5539 9337 6267 da36
000000c0: 711d 0134 da2c 3034 1741 2133 f20c 5834
000000d0: 39a4 a235 273e 3236 b9b3 a533 e7f4 1a33
000000e0: 56f5 fb33 7c70 9336 ee87 ad36 e267 3536
000000f0: 6100 3d36 daea 8836 5024 4936 f663 ba37
00000100: 7039 b237 b97d 0339 e2da 2437 2fd1 2837
00000110: 2f3d 7936 2aaf c338 1e5f 4e39 e71a 8538
00000120: 886e 4d34 25d3 1234 a503 a635 c3a9 2436
00000130: 734a f735 5477 2d37 185a a134 3892 e235
00000140: a5a0 fa34 3ce9 9135 2d34 0237 d6b7 a936
00000150: 4a5e 6733 b27a 1a33 33f6 2834 1344 d233
00000160: 2f5d 3432 b809 7334 824b 0034 67d9 8633
00000170: 4521 1d34 bc29 cd33 3bca bd33 a923 5834
00000180: 4ac7 6034 5bf8 0035 2698 9435 36da 6b36
00000190: ca27 ed35 ae9c e537 5e0b 4a35 12dd e435
000001a0: bd79 0735 d688 b936 1b2f f037 6ea5 f936
000001b0: ccc8 3833 92c5 2f33 f55c dc33 1d7f 8632
000001c0: bf68 3f32 f968 1b33 0d31 1e32 8722 da32
000001d0: 30df b833 8076 a231 27ae 9832 c869 da32
000001e0: a094 a933 5842 8134 622a 8e35 409d 9436
000001f0: aa0b 2d36 bdc2 0438 aea7 4b35 81ef 0d36
00000200: 23cf 3634 5b84 af36 16d8 0438 5a51 1837
00000210: 7336 4633 307a 1633 09bd 4a34 6942 2d35
00000220: 4f0e 1235 7353 8036 2a45 d133 39c5 c834
00000230: ef7b 8933 f885 2d35 eb5f 8136 5443 bb35
00000240: 23e2 fd36 0267 1637 8055 aa35 2582 1e37
00000250: 954d dc37 587e 9339 289e cf37 66c8 2e36
00000260: 7be3 9f36 a563 9f39 c9af fb39 f7ae d238
00000270: f14f 3136 89a0 bb36 535a 4337 06e2 a738
00000280: 82cc bc37 ffe3 5b3a f86b eb37 e12f 0a38
00000290: 3f6b 4c36 6119 9b39 5547 863a 79e1 4939
000002a0: 9afd 1636 d5a0 8d35 692d b235 c40f 5a37
000002b0: e3d8 f437 0b36 8438 d7da 1a36 4b87 7f36
000002c0: 723a e835 ae79 0738 eed0 9d38 e035 3a38
000002d0: eb3a 2034 bb76 f133 4b01 e934 f869 2134
000002e0: 931b 1134 62ea c034 00a3 c033 0bda 4934
000002f0: 6ee3 b434 ea11 0933 7df0 0134 415c 9534
00000300: b2dd 4733 e649 6e33 8195 d533 7afd 8433
00000310: 5b2b 6633 11c3 8a34 a257 a131 8346 7133
00000320: 4074 9b33 2360 0d33 cbad 4a34 1396 1634
00000330: 7c24 7d36 65fc e535 096a a436 d7cd c037
00000340: aad2 bb37 e607 4739 7197 d336 73b5 3737
00000350: b12d fb35 48b7 a638 af4b 6239 2f59 5038
00000360: 06ce 8634 5d79 8134 077b 9b34 8625 8f35
00000370: efe3 2b36 ecd9 ab36 3e07 0134 00e7 3e35
00000380: f0d3 3734 4b1c 0a36 5ad1 9b36 db65 4936
00000390: a7f8 3134 1d87 2634 bd59 d934 d483 eb32
000003a0: 9b83 f132 1b28 8233 5df8 0533 9a00 c233
000003b0: 81ee b434 280d 8331 af3d 5632 1d17 5b33
000003c0: 1aa4 1537 7a1b e936 9316 3537 a53c 8338
000003d0: 2320 8038 c920 293a 8413 aa37 584a f037
000003e0: 3689 a236 59af a739 3466 503a 9c2a 4a39
000003f0: fe02 5f33 b422 7933 a94f a433 ef59 2235

exp_avg f4 [128, 32]
1.4503882e-05 -5.0437766e-06 -2.1482338e-05 -2.5907668e-05 -0.000114053415 -8.177927e-06 2.327498e-05 -1.1308168e-05
9.332758e-06 -1.1991949e-05 3.4027766e-05 9.457391e-06 -6.407724e-05 -8.697157e-05 1.640345e-06 8.345624e-05
0.000101126134 0.00010180195 -9.524398e-06 6.141189e-05 -0.000100529986 -9.485041e-06 -0.00019987332 -7.677153e-05
-0.00017924482 -2.4828748e-06 7.709228e-05 -4.3910764e-05 4.538876e-05 5.261439e-05 -1.4143187e-05 1.0321287e-05
0.0008031047 -0.00086008187 0.00025776928 2.3254748e-05 -0.0015870065 -9.300442e-05 0.00012172756 -6.8531706e-05
7.223873e-05 0.0001988637 -0.0003335322 1.7187931e-05 0.00035832272 -0.000542504 -0.00013713403 -0.0003341239
-0.000102265076 -0.00080951175 2.0910824e-05 -0.00029538528 0.00014814195 -5.147556e-05 0.00063569256 8.653029e-05
-0.0012184852 -5.9791448e-05 -0.0012406511 -0.00033853622 -1.4251299e-06 0.001778479 0.00065505365 0.00015308706
2.0905256e-05 -2.1740657e-06 1.864427e-06 -1.084855e-05 6.311868e-05 4.123071e-06 -2.48862e-05 1.27327285e-05
3.0474387e-06 -4.3229793e-05 7.389996e-05 -3.8754275e-05 5.501439e-05 8.267391e-05 -8.514578e-06 -3.4803412e-05
-0.00010221036 1.4473932e-06 -7.521623e-06 -3.105204e-05 7.282157e-05 7.0331844e-06 0.00012125483 4.732994e-05
8.600681e-05 1.14441e-05 0.00010917434 9.855808e-06 -1.8445086e-05 -9.2134316e-05 1.6984633e-05 -2.8628563e-05
-3.1483867e-06 9.39023e-05 -9.519273e-06 2.844585e-06 -0.00014035509 4.7927184e-05 8.1282386e-05 -8.995813e-06
2.2016891e-05 8.601575e-05 -2.8867948e-05 5.7506604e-05 -8.0760896e-05 -0.00020393226 2.5523475e-05 0.0002163259
0.0002347366 6.6919085e-05 1.5706994e-05 0.00016055322 -0.00022387081 -8.067116e-06 -0.00034441275 -0.00020436772
-0.000218094 -6.38163e-06 -0.00018750913 -2.794618e-05 8.342737e-05 0.00018126055 -0.00013174645 1.9326053e-05
6.584507e-05 2.2946411e-05 3.564188e-06 -3.0097813e-06 -3.1297084e-05 1.1033424e-05 1.7915087e-06 1.2963902e-06
3.6012168e-06 -1.509058e-06 3.96578e-06 -2.0466865e-05 8.654667e-06 5.89856e-06 3.608358e-05 8.26643e-06
-1.4609538e-05 5.3683702e-06 -5.943904e-06 2.2355893e-05 2.9911066e-06 1.412506e-06 4.2342126e-05 -6.133277e-06
-2.5190588e-05 2.2923214e-06 -7.201624e-06 2.049123e-05 -9.246929e-06 4.2612683e-05 1.0448827e-05 -3.0777335e-06
5.9148042e-05 -0.0001400007 -6.039468e-05 -0.00014106308 -0.00061600114 -6.8425725e-05 4.6780704e-05 -1.3086712e-06
8.6179054e-05 0.00017947053 0.0003136511 -8.661847e-06 0.00018826938 -3.090928e-05 0.00014946649 -7.874329e-05
-0.00014484236 -7.8709064e-07 2.7807993e-05 5.8594906e-05 2.2571752e-05 -5.1189495e-06 0.00014629208 4.104829e-05
-0.0006584161 3.105821e-05 -0.00024792645 -0.0001879866 3.3485936e-05 0.0003182144 0.00019417182 -3.6114285e-05
-9.462206e-06 0.00017477966 -9.0912974e-05 -0.000112128575 -0.0002081398 3.5366666e-05 5.0941137e-05 9.610072e-06
5.6313795e-05 0.00012574808 0.00024043358 -2.2172502e-05 0.000107995984 -5.8900114e-05 0.00014029446 0.00019137739
-3.8856586e-05 0.00012913371 2.8066786e-05 0.00020337648 -0.00015270783 -3.519828e-06 -0.00019171771 -0.0001323093
-0.0003022024 3.4315046e-05 -0.00020213016 -8.773501e-05 4.9250044e-05 6.519417e-05 -0.00013653029 -5.59743e-05
3.9530223e-06 -7.882803e-06 1.3175422e-06 -3.918771e-06 1.0064449e-05 9.597042e-07 1.0456089e-06 -3.032903e-06
4.1591818e-07 -5.923811e-06 -2.764654e-07 -1.8482274e-06 -1.445776e-06 -2.209543e-06 -5.766851e-06 -3.9932493e-06
5.5273995e-06 -6.4991614e-06 -2.0108025e-06 -5.934989e-06 -3.8179246e-07 -2.356473e-06 -6.119422e-06 1.6785008e-06
4.5388124e-06 -1.3078146e-06 9.914787e-06 -4.161686e-06 1.4783251e-06 6.996942e-07 -8.378169e-07 3.3649235e-06
00000000: b355 7337 b63d a9b6 f834 b4b7 4b54 d9b7
00000010: f62f efb8 ee33 09b7 a43e c337 36b8 3db7
00000020: e493 1c37 0731 49b7 09b9 0e38 2fab 1e37
00000030: 3561 86b8 8264 b6b8 d329 dc35 3a05 af38
00000040: ae13 d438 817e d538 faca 1fb7 42ca 8038
00000050: a0d3 d2b8 f121 1fb7 1695 51b9 6700 a1b8
00000060: aaf3 3bb9 779f 26b6 9aac a138 d32c 38b8
00000070: cf5f 3e38 45ae 5c38 8748 6db7 9729 2d37
00000080: 7287 523a 1e77 61ba 3525 8739 3113 c337
00000090: 1a03 d0ba 5e0b c3b8 fc47 ff38 aeb8 8fb8
000000a0: df7e 9738 1186 5039 efdd aeb9 cd2e 9037
000000b0: 43dd bb39 d436 0eba a3cb 0fb9 5a2d afb9
000000c0: 2577 d6b8 6a35 54ba a769 af37 f1dd 9ab9
000000d0: 8d56 1b39 76e7 57b8 9ba4 263a 9977 b538
000000e0: 94b5 9fba 94c8 7ab8 589d a2ba 907d b1b9
000000f0: 1747 bfb5 da1b e93a e8b7 2b3a ff85 2039
00000100: b25d af37 2ae6 11b6 393d fa35 2b02 36b7
00000110: 955e 8438 e958 8a36 b5c2 d0b7 a79e 5537
00000120: 9982 4c36 a351 35b8 bdfa 9a38 168c 22b8
00000130: 40bf 6638 3861 ad38 d6d9 0eb7 e1f9 11b8
00000140: c559 d6b8 0d44 c235 4062 fcb6 e03d 02b8
00000150: c8b7 9838 98fe eb36 314a fe38 2384 4638
00000160: 8e5e b438 0900 4037 87f4 e438 5f5a 2537
00000170: 85ba 9ab7 3c38 c1b8 397a 8e37 5f27 f0b7
00000180: df48 53b6 6aed c438 f7b4 1fb7 99e5 3e36
00000190: 482c 13b9 6c05 4938 2676 aa38 b9ec 16b7
000001a0: eab0 b837 5b63 b438 7229 f2b7 3f33 7138
000001b0: 2d5e a9b8 a6d6 55b9 3f1b d637 8bd5 6239
000001c0: a023 7639 e956 8c38 83c2 8337 2d5a 2839
000001d0: ddbe 6ab9 0058 07b7 4c92 b4b9 8b4b 56b9
000001e0: 2ab0 64b9 c921 d6b6 199e 44b9 f76d eab7
000001f0: baf5 ae38 c210 3e39 6b25 0ab9 621e a237
00000200: 4e16 8a38 0b7d c037 4930 6f36 a6fb 49b6
00000210: fd44 03b8 321c 3937 c573 f035 a1ff ad35
00000220: 6fac 7136 d78a cab5 ca11 8536 42b0 abb7
00000230: 8333 1137 3fec c536 7358 1738 0cb0 0a37
00000240: 7d1b 75b7 f321 b436 bf71 c7b6 ea88 bb37
00000250: d2ba 4836 5695 bd35 8398 3138 73cc cdb6
00000260: 6050 d3b7 c8d5 1936 7ba5 f1b6 95e4 ab37
00000270: 4223 1bb7 05bb 3238 5f4d 2f37 0f8b 4eb6
00000280: ba15 7838 27cd 12b9 4b50 7db8 55ea 13b9
00000290: 237b 21ba c87f 8fb8 6636 4438 9aa5 afb5
000002a0: 07bb b438 4130 3c39 8a71 a439 5952 11b7
000002b0: 2d6a 4539 96a4 01b8 1bba 1c39 fb22 a5b8
000002c0: d3e0 17b9 7548 53b5 3645 e937 cdc3 7538
000002d0: 7858 bd37 71c3 abb6 fb65 1939 442b 2c38
000002e0: 8e99 2cba 8044 0238 20fc 81b9 451e 45b9
000002f0: 4073 0c38 04d6 a639 9a9a 4b39 6b79 17b8
00000300: debf 1eb7 0f45 3739 88a8 beb8 9226 ebb8
00000310: 1a40 5ab9 ab56 1438 a1a9 5538 f23a 2137
00000320: 7a32 6c38 3edb 0339 e61c 7c39 16ff b9b7
00000330: e77b e238 840b 77b8 021c 1339 7aac 4839
00000340: f1f9 22b8 1168 0739 f770 eb37 7541 5539
00000350: 3220 20b9 2f36 6cb6 d507 49b9 82bc 0ab9
00000360: eb70 9eb9 80ed 0f38 e7f2 53b9 60fe b7b8
00000370: d591 4e38 dab8 8838 9229 0fb9 f2c5 6ab8
00000380: 34a4 8436 6240 04b7 68d6 b035 fd7d 83b6
00000390: 7bda 2837 2fcf 8035 d956 8c35 e088 4bb6
000003a0: 5c4b df34 26c5 c6b6 1e6d 94b4 9c10 f8b5
000003b0: 7c0c c2b5 a947 14b6 df80 c1b6 c0fd 85b6
000003c0: 0078 b936 5f13 dab6 53f1 06b6 2b25 c7b6
000003d0: 28f9 ccb4 e623 1eb6 6f55 cdb6 d948 e135
000003e0: 1a4c 9836 2b88 afb5 b057 2637 9ca4 8bb6
000003f0: dd6a c635 9fd2 3b35 57e6 60b5 f2d0 6136
