models/drone/policy_ego_rotor_best_iter7.pth (torch, 80800 bytes, 20 tensors)

lstm.weight_ih_l0 f4 [128, 12]
00000000: 12fd c83d 7b95 ccbc c3cf 98bd 776f a43d
00000010: 6d62 1cbe 4360 aa3d 0d4d bebd e36a 973d
00000020: 1042 20bd ae6f 94bd 5b79 9f3b d9c6 03bd
00000030: 1e62 b83d db33 81bd 89ff f83c 325b c5bc
00000040: db31 9b3c bd66 0b3c 8fb1 1b3e f69a 0b3d
00000050: 0c9c 59bd b65f 03be 5248 41bd b3b5 88bd
00000060: 6568 61bd a8fe 90bd 5a9d 023d 1bf7 e93d
00000070: 8346 40be 9b2f 933d 9a17 043c dd14 1f3e
00000080: fcff c03d 7e7c 45be e5c8 33be ac18 cfbd
00000090: 69fa fd3d 998c 863c 87b5 8c3d bddc c5bd
000000a0: 9651 2c3e 6282 d5bd 3c71 db3d 5074 3a3c
000000b0: de83 d6bd fbb4 bf3d 7518 a2bd 6500 1a3c
000000c0: 221a 99bd 7886 10bd aaeb 89be 9e27 31bd
000000d0: b528 803d 6f8c a0bd c10d 483e e8d9 723e
000000e0: bf88 97bd aa27 01be 793e 183e 7681 563c
000000f0: 9035 33be 1851 f33d b287 2c3d b571 f13d
00000100: c6a7 08be 9af8 3dbd 3fbc a43c 7302 9c3d
00000110: 28c1 fdbd 7d8e cfbd b2c2 253e 37fb 65bd
00000120: b748 e13c 2e34 913b 8604 2d3d aeec d33c
00000130: 538a 9e3c 2db4 923d ee3d 2ebe 5284 ac3d
00000140: 3b79 10be 77f2 f7bd 18f6 0f3d 1258 42bd
00000150: ed90 543d 920e cbbd 9b82 5dbe 676e 033e
00000160: be7b 4cbd 9394 b13d 7f8c 433c 2ecd e8bd
00000170: c0ca b33c 6688 3f3d d318 53bd 5a15 cbbd
00000180: c724 8e3d 6ef7 573d e26d 29bd 6808 2bbd
00000190: 359b 213e 7b7d 5cbd 7d3c bd3d f18b a63d
000001a0: 519c 12be 0eb9 3ebe 700c 043e 52d9 04bd
000001b0: 711b 013e f51b c43c 8634 3f3d 2c02 433e
000001c0: c526 093e 4cda 19be 88dc 35bd dddd d93d
000001d0: 4ba0 d43d 8ec4 183d 9a12 22be 06a9 1ebe
000001e0: 2041 0fbe 02c9 993d f6bf 2d3e 14ea 03be
000001f0: 4d94 cc3d 390c d9bd 7809 e5bd 4180 b63c
00000200: 3497 fe3d 867b 4e3e 08a5 9dbd 612d c73c
00000210: 3aa6 473e c461 343d 72a0 6a3d 2574 443e
00000220: 073e b13d ec0c d7b8 e2fa 18be 441f 3ebe
00000230: bf8c f4bd e2d0 3abd 90c2 dcbd 17da 4a3d
00000240: 3b26 063d 8771 cabd adfd d93b b6d5 1c3d
00000250: 8e67 8c3d 2fe2 c93d 4403 a9bd 7f1e 223e
00000260: 0dbf 35bd 6819 aebb 2681 08be dc70 f3bd
00000270: 1a12 10bd 4918 ffbd faf5 e73d 1361 9dbb
00000280: 0e35 2ebe 39ad 123d c6e2 ccbc f707 933d
00000290: c828 13be 8058 c1bc bdc6 cebd 0fb9 84bd
000002a0: 4c81 57be 3495 0fbe a83e f1bd 99c9 cb3c
000002b0: af5b 33bc e85d 153c 24aa 073e dd77 383e
000002c0: 5732 df3d 6872 ecbc 9952 d2bd 0054 da3d
000002d0: 79ed b9bb af1a 25bd 7856 1abe 95f1 c73c
000002e0: b2ee 1dbe 1955 f93d 6574 edbd 5377 e1bd
000002f0: 7b85 27bd c64d 0dbe 640d d03d 3c66 02be
00000300: 6030 0ebd c1bb bf3b 1c3c c23d 318c 7dbd
00000310: 5342 9f3d e262 b43d b258 093e f66e 11be
00000320: 55f4 033c a9b4 2cbe f064 e43d 60b0 c6bd
00000330: 1488 1d3e 62eb d13d eba0 a03b 7eb4 e4ba
00000340: 0459 863d d508 c63d 1a31 353d 058e 9a3b
00000350: 08a1 0fbe 18a6 203e 0260 fb3d 700a 223e
00000360: 638d 563e 2e55 62be 8d32 ecbd ee00 5f3e
00000370: b599 fbbd d903 053e 5ca2 0dbe 9139 28be
00000380: c271 693d 4a6d e3bd 9006 5dbc b5bf 053e
00000390: bcd1 fc3d 3b4b f33d 8743 7cbd 403a 18be
000003a0: 0b6e 4e3e db13 19bd 7ce5 e3bd 74ac f43c
000003b0: f46a 13be 9fb1 dc3d b76b d63d b89b 03be
000003c0: 29c0 eabd 85ff 4ebc 6501 c03d f6f5 9439
000003d0: cc14 04be cb4a eebb 26bd f9bd ab2d a0bd
000003e0: 8edf e5bd 5605 0f3e cb1b 293e c987 a8bd
000003f0: 58c4 6bbc dd79 6f3b 450a c8bc 19cc 78bd
0.09813894 -0.024973622 -0.074615024 0.08029073 -0.15271921 0.08319142 -0.0929204 0.07393434
-0.039125502 -0.07247864 0.0048667616 -0.032172058 0.09003089 -0.06308719 0.030395286 -0.024091337
0.018944671 0.008508381 0.15204452 0.03408333 -0.053127334 -0.1282948 -0.04718811 -0.066752814
-0.0550312 -0.07079822 0.031888343 0.11424085 -0.18776898 0.071868144 0.008062268 0.15535302
0.09423825 -0.19285771 -0.17557104 -0.10112128 0.124012776 0.016424464 0.06870561 -0.09661243
0.16827998 -0.10425259 0.10714957 0.01138027 -0.104743704 0.09360691 -0.07914821 0.009399508
-0.074756876 -0.03528449 -0.2693761 -0.043250673 0.06257764 -0.078392856 0.19536497 0.23715937
-0.07399129 -0.12612787 0.14867581 0.013092389 -0.17500901 0.11880702 0.042121597 0.11789266
-0.1334525 -0.046379663 0.020109294 0.07617655 -0.12390357 -0.10134599 0.16187552 -0.05614778
0.027500493 0.004431269 0.042240642 0.025869694 0.019353068 0.07163272 -0.17015812 0.084236756
-0.14108746 -0.121067934 0.035146803 -0.04744727 0.051896024 -0.099148884 -0.21631853 0.12835084
-0.049922697 0.086709164 0.011935352 -0.1136726 0.021947265 0.04676094 -0.051537346 -0.09916182
0.069406085 0.0527262 -0.041364558 -0.041756064 0.15781863 -0.053830605 0.09240053 0.081321605
-0.14317442 -0.1862528 0.1289537 -0.032433815 0.12608124 0.023939112 0.04668095 0.19043797
0.13393696 -0.1502468 -0.044399768 0.1063802 0.10382136 0.037296824 -0.15827408 -0.15494165
-0.13989687 0.07509042 0.16967759 -0.12882262 0.09989224 -0.105980344 -0.11183447 0.022277953
0.124311835 0.20164308 -0.07697493 0.02431363 0.19497004 0.04403855 0.05728192 0.1918493
0.08654409 -0.00010254406 -0.14939454 -0.18566614 -0.11940908 -0.045609362 -0.10779297 0.049524393
0.032751303 -0.09884935 0.006652555 0.038289748 0.06855689 0.09857594 -0.08252576 0.15831946
-0.044371653 -0.0053130873 -0.13330516 -0.118867606 -0.035173513 -0.12455804 0.11326213 -0.004802832
-0.17012426 0.03580973 -0.025010478 0.071792535 -0.14371026 -0.02360177 -0.100965 -0.064806096
-0.21045417 -0.1402176 -0.11779529 0.024876403 -0.010947152 0.009116627 0.13248497 0.18014474
0.108982734 -0.028863147 -0.102696605 0.10660553 -0.005674061 -0.04030865 -0.15072048 0.024407187
-0.15423086 0.12174434 -0.11594466 -0.110090874 -0.04089878 -0.137992 0.10158804 -0.12734312
-0.034714103 0.0058512394 0.09484121 -0.061901275 0.07776322 0.08807923 0.13412741 -0.14202484
0.008053859 -0.16865791 0.11152065 -0.097016096 0.15383941 0.10249974 0.0049019954 -0.001744881
0.06559947 0.09669653 0.04423628 0.004716637 -0.14026272 0.1568836 0.122741714 0.15824294
0.20952372 -0.22102806 -0.11533079 0.21777698 -0.12285177 0.12989749 -0.13831466 -0.1642821
0.056993254 -0.111048296 -0.013490334 0.13061412 0.12344691 0.118795834 -0.061587837 -0.1486597
0.20159166 -0.03737245 -0.11127755 0.029867388 -0.14396268 0.10776066 0.10469764 -0.1285237
-0.11462433 -0.012634163 0.09375266 0.00028412015 -0.12898558 -0.0072720996 -0.1219428 -0.078212105
-0.1122428 0.13966879 0.16514508 -0.08229024 -0.014390074 0.0036541142 -0.02441896 -0.060741518

lstm.weight_hh_l0 f4 [128, 32]
00000000: 394b ef3c f32d 6d3c 913b a83d 204b a93d
00000010: 9309 b13d d6d9 4a3d 4319 b4bd 9699 a9bd
00000020: 1a99 19be bd74 6c3d bc7c 3cbe 935e e5bd
00000030: 06ec fe3d e6f6 683d 71a2 2dbe 5fdd ba3d
00000040: f55e 84bd aec1 a43c be38 b5bd d2f8 6bbc
00000050: fc0b 1b3d 94fa 313e c105 983d 1ba7 a9bd
00000060: 544b 8abd df35 21bd f49f ad3d 9a7b d13d
00000070: d3a4 3abe 082a 13bd bcab 953c ea04 7bbd
00000080: aef3 0b3e ad60 72bd 6792 19be 2fe5 cbbd
00000090: 4de4 b5bb e2b3 10be ab8f 383c ce38 2c3e
000000a0: d94d 98bc 4edf 94bc c3fb 343e 9210 f73d
000000b0: 4d07 153e 0f48 a2bc 732e 283d eac8 13be
000000c0: 46a3 023c fa26 2f3e 11a0 ce3c 9f3c 27be
000000d0: a931 c53d 32d8 2d3e 22d7 2a3e 0f3f d93c
000000e0: ea0b 723c e4d1 183c 6ccf 8cbd 62ea d3bc
000000f0: 6170 113e 9087 023d 88c8 303e c8c5 f8bd
00000100: e4e2 42bd fe11 183d 15c3 25be cc24 293e
00000110: eec0 e23d 61ca 54bd 3e1d 3d3e bf3d 413e
00000120: a65f babd 1e53 a13b c4b9 1f3e 541e ebbd
00000130: df02 8abd 11e9 34be 78c2 be3d fb98 1ebc
00000140: 7637 863d 306e c73d a92c ecbb e75f 09be
00000150: 0718 723d b0f2 e2bc c633 9d3d 64c2 1f3d
00000160: 1429 75bd c639 b0bd faba 7c3d 3be5 ae3d
00000170: bb18 1a3d 4f21 963d bbac 563d 2621 debd
00000180: 3ce3 1b3d 4321 033c 0eff 2bbe 0e36 863d
00000190: 0ce4 8fbb 69e6 0a3e d694 28be 05dc 453e
000001a0: f487 ccbd 02cb b03d b686 ef3d fc4b 5ebd
000001b0: 6974 cdbd d33c 50bd 1936 0dbe a00c ef3c
000001c0: 42c5 e03c f326 903c 8c62 a7bd df80 cc3d
000001d0: 993b 063e 2900 5bbd 0016 473d 99f9 82bb
000001e0: 46cf b03d 8a41 d2bd f687 fbbd 2e73 28bc
000001f0: 07f2 2abe 696b 883c 0888 653e 4b42 1bbc
00000200: da07 933c b424 a23c 2daa f3bd 6630 de3b
00000210: 56d9 963c 84ab 2c3e 9186 e9bd 2a43 7c3c
00000220: 3f02 31be 865d e1bc 6579 75bd 3a60 e0bd
00000230: c0e2 a53d 6a78 a73d fbba 0fbe 6515 49bd
00000240: 21f0 a1bd 6cb9 56bc c890 d93d bd4b 313e
00000250: 23e5 2dbe 7cfc c03c 75a6 23be 685c 2abe
00000260: 5b27 4a3e 8699 3ebd a735 00be 3199 a03d
00000270: bb5c c2bd 1729 45be 26f4 88bd 1281 8bbd
00000280: ceb1 bdbb deef e2bd 1a7f 46be 37e4 f93d
00000290: 227b 53be 2d21 ffbc 6eab 253e 8e1f 5dbd
000002a0: 52a9 0dbe 05e8 c33d 5660 073e 4316 31bd
000002b0: 5e6c 37bd 10e3 ba3d 4f55 87ba b8fb 1d3d
000002c0: 6056 aa3d 52d8 973d ca82 08be 93be 62bd
000002d0: 8ea5 e93d c9c8 063c 3dcc 363d 867f 0d3e
000002e0: b39f e73d aa28 ac3d d424 283e 5a16 21be
000002f0: 60c9 30bc db51 013d 06ed 813c 356e a8bd
00000300: 6608 3c3d 2e0e fbbd 0ea8 b7bd 00b4 1b3e
00000310: d5cc 93bd 75a1 55bd 9700 d83d 108f c4bc
00000320: 5ce3 f83c 3b11 3ebe 3026 c93d 4946 0dbe
00000330: d90d 8abc 2a4d 1dbe c92d 3fbe feea 0f3e
00000340: f3f6 dcbd 3f8d 09bc 24e3 2dbc 9e5f 393e
00000350: d2c1 2d3d 32c0 993d 6d28 79bd a50d bfbd
00000360: d736 0d3e 6e59 d13d fa0a 7b3d 6f25 0ebe
00000370: 74a9 26be ad2f 1e3c 8a20 93bd bcef 093e
00000380: 67f6 f13d a140 4abd 68e6 04be ffd4 343e
00000390: 4b2c e5bd 10ee 1fbe c951 c6bd c838 173d
000003a0: b000 5d3d a99f ef3d afca 043e 1e82 923d
000003b0: fc80 52bb ebce 2d3e 8f20 e8bd cd87 f6bc
000003c0: c03d 123e 6439 71bd 51a7 9e3d 99b4 353d
000003d0: d199 513d f044 67bd 2766 20be 538c d93d
000003e0: a950 233e 6f73 1ebe 3a83 47bd 6290 3ebb
000003f0: 9456 9a3d a1ee 4bbd c0d7 64bd 37c8 133e
0.029210674 0.014476287 0.082144864 0.08266282 0.08644404 0.04952415 -0.08793881 -0.08281247
-0.1499981 0.057728518 -0.18406957 -0.11199679 0.12447362 0.056876086 -0.16956498 0.091242544
-0.06463424 0.020111885 -0.08848713 -0.014402585 0.037853226 0.17380744 0.074229725 -0.08283826
-0.06752649 -0.039358016 0.08477774 0.10228653 -0.18226938 -0.035928756 0.018270366 -0.061283983
0.13667175 -0.05917423 -0.14997254 -0.09955823 -0.005550897 -0.1413112 0.011264722 0.16818544
-0.018591808 -0.018172886 0.17674164 0.120637074 0.14553566 -0.01980975 0.041059922 -0.14432111
0.007973498 0.17104712 0.02522281 -0.16331719 0.096286125 0.16977003 0.16683629 0.026519326
0.014773348 0.009327386 -0.068755 -0.025868598 0.14203025 0.031867564 0.17263997 -0.12147099
-0.04757966 0.037126534 -0.16187699 0.16517943 0.11071955 -0.051950816 0.18468186 0.1887121
-0.09100275 0.0049232384 0.15598208 -0.11480394 -0.06738829 -0.17667033 0.09314436 -0.009680028
0.06553547 0.097378135 -0.0072074723 -0.1341549 0.059104946 -0.027703613 0.076758906 0.039003745
-0.05985363 -0.086047694 0.061701752 0.08539816 0.03762124 0.07330572 0.052410822 -0.10846166
0.038058504 0.008003536 -0.16796514 0.06553279 -0.004391199 0.13564457 -0.16463026 0.19322212
-0.099868685 0.08632471 0.11695616 -0.054271683 -0.10031969 -0.050839256 -0.13790168 0.029180825
0.02743781 0.017596697 -0.08173093 0.09985518 0.13108672 -0.05346695 0.048604965 -0.0039970395
0.08633284 -0.10266407 -0.12281792 -0.010281367 -0.16693889 0.01665278 0.22415173 -0.009476255
0.01794808 0.019792892 -0.11897693 0.006780672 0.01841418 0.16862303 -0.1140262 0.015396873
-0.17286013 -0.027510416 -0.059930224 -0.10955854 0.0809989 0.08177264 -0.14036171 -0.04909267
-0.07907129 -0.013105731 0.10623318 0.17314048 -0.1698194 0.023557894 -0.15981467 -0.16636813
0.19741575 -0.04653313 -0.12520467 0.07841719 -0.09490343 -0.19253956 -0.066871926 -0.068117276
-0.0057890182 -0.11080907 -0.19384423 0.12201732 -0.2065244 -0.03114375 0.16178676 -0.05398517
-0.13834122 0.095657386 0.13220343 -0.04323412 -0.04478108 0.0912534 -0.0010325107 0.038570136
0.08317256 0.07414307 -0.13331142 -0.055357527 0.1140853 0.008226582 0.04462837 0.13818178
0.11309757 0.084061936 0.16420299 -0.15731183 -0.010790199 0.031572204 0.015860092 -0.08224145
0.045906447 -0.12258564 -0.08967601 0.15205383 -0.07216803 -0.05215593 0.105469875 -0.023993999
0.03038185 -0.1856126 0.09821737 -0.13796343 -0.016852306 -0.15361467 -0.1866981 0.14054486
-0.10789289 -0.008395492 -0.010613237 0.18102881 0.04242117 0.075073615 -0.06082957 -0.09328774
0.13790451 0.102221355 0.061289765 -0.13881467 -0.16275579 0.0096549215 -0.07183941 0.13470358
0.11814576 -0.04937804 -0.12978518 0.17659377 -0.11190089 -0.15618157 -0.09683568 0.036919385
0.053955734 0.11700375 0.12967943 0.07153724 -0.0032120338 0.16973464 -0.11334335 -0.030094052
0.14281368 -0.058892623 0.07746757 0.044361684 0.05117208 -0.05646223 -0.15663968 0.10622468
0.15948738 -0.15473722 -0.04870913 -0.0029077758 0.07536045 -0.04978812 -0.055869818 0.14431845

lstm.bias_ih_l0 f4 [128]
00000000: 778e 813d 6429 82bd 711d 9e3c 1094 9abd
00000010: 87ad 02be 4162 1c3e f477 05be 1c69 da3c
00000020: 354a 3fbe fd82 8d3d 7a3c fc3d 07fe 4cbe
00000030: cd57 14be b9ba 5bbe 5834 953c 696b 41be
00000040: 4a3c 6d3d 2958 3b3e aa5f 57bd e4e6 8f3d
00000050: 6622 0ebe 1f31 923c 9939 6dbd fa0a 7f3d
00000060: 8032 2e3e 15fa 0ebe 42a9 5fbd 7b47 cfbd
00000070: 115c af3d c1b9 2f3e eada 3dbd fb92 5e3e
00000080: 1df8 733d bcb0 d2bc 75eb 613d 5217 ef3d
00000090: 1893 e3bc 1d1b 19be f820 173d df3d 26be
000000a0: 1842 0fbd 5213 1abe 9753 273e 30f7 f2bd
000000b0: b0e3 e2bd 331b 343d 9337 16be 93c0 153e
000000c0: 8b3c 8e3c 4a7d df3d 5b95 07be 4504 a5bc
000000d0: c434 963d 78ae 3a3d 5ada 0fbd 2af6 f53d
000000e0: e4b2 9a3d bc40 26bd e0dd 4bbe e39b 133e
000000f0: 386a 0b3e 6e75 c0bd ec97 86bc aec0 2e3e
00000100: 19a9 dd3d 5b46 4bbd 5ea5 ad3d af41 d7bd
00000110: 2181 da3c b382 1fbd 00d9 eb3c 8206 923d
00000120: 53d9 66bc 855e 233e 103c edbc f06b f1bd
00000130: adca 1d3e a29b 2bbd d32f 16bd 34e4 f93c
00000140: a270 393d 81e7 c3bb 8bfe d4bd e123 99bd
00000150: b0ad 01bd d382 3b3c c73d 20be 3035 083e
00000160: 6ad4 99ba c2f4 9a3b 955c f93c 3ec3 d73c
00000170: 16ad 693d 1770 4ebc 3554 c5bd eb5d 3fbe
00000180: 18ff 113d d59c 253e d96f c23d c3d4 30be
00000190: 7402 d93d e57f 3a3d 88fa 35be 7d8c 103e
000001a0: 228c 0a3e 70f1 053e 1677 1bbe a51f b2bd
000001b0: 390c bcbb f35f 01be 59fe 2cbd 4ec2 77bd
000001c0: 865c 963c 63c4 0dbe d984 40bd a3ef 093e
000001d0: 8181 dc3d f045 613c 9954 03be 429d 0abe
000001e0: a025 173e e9a6 583c d56f 4fbd 9fd6 09be
000001f0: c248 8ebd ebe0 30be f332 fa3c 37df 83ba
0.06326001 -0.06355551 0.019301148 -0.07547772 -0.12761508 0.15271856 -0.1303404 0.026661448
-0.18680651 0.0690975 0.123162225 -0.20018779 -0.14486618 -0.21457948 0.018213436 -0.1888863
0.057918824 0.18295349 -0.052581467 0.07026461 -0.1388031 0.017845688 -0.057916258 0.062266327
0.17011452 -0.13962586 -0.054604776 -0.10121056 0.08562482 0.17160703 -0.04635135 0.21735756
0.05956279 -0.02571904 0.05515619 0.1167437 -0.0277801 -0.14951749 0.036896676 -0.1623454
-0.03497514 -0.15046433 0.1634048 -0.118635535 -0.11078584 0.04397125 -0.14669637 0.14624242
0.017362854 0.10912569 -0.13240568 -0.020143637 0.07334283 0.045576543 -0.035120346 0.12009843
0.07553652 -0.04058908 -0.19908857 0.14414935 0.13614738 -0.09397398 -0.016429864 0.17065689
0.108232684 -0.049627643 0.08478807 -0.10510575 0.026672902 -0.038943004 0.028789997 0.071301475
-0.0140899 0.15954025 -0.028959304 -0.117881656 0.15409346 -0.04189647 -0.036666702 0.030504324
0.04527343 -0.005978525 -0.10400113 -0.074775465 -0.031659782 0.011444765 -0.15648566 0.1330154
-0.0011736278 0.0047288844 0.030439654 0.026338216 0.057049833 -0.0125999665 -0.09635202 -0.1868817
0.035643667 0.16173108 0.094939895 -0.17268662 0.10596171 0.045532126 -0.17771351 0.14116092
0.13530019 0.13080382 -0.15182146 -0.08697442 -0.0057387617 -0.12634258 -0.042234752 -0.060488038
0.018354665 -0.13844447 -0.047001693 0.1347032 0.107668884 0.013749585 -0.1282524 -0.13536552
0.14760447 0.013223388 -0.05064376 -0.13460778 -0.06947471 -0.172733 0.030541873 -0.001006103

lstm.bias_hh_l0 f4 [128]
00000000: cc23 96bd 107d 763d dbad 48bb 9d2f ad3c
00000010: 6e1a d03d c453 ecbd 94fa f4bc e243 093e
00000020: e32c 09bd 7fd1 a3bc dec3 eb3d 1f51 86bc
00000030: 423c 2bbd 5326 4e3d 7d58 153d db1f 4cbe
00000040: 8096 623d 6abe 97bc 67b9 14ba 9969 a2bb
00000050: 0612 f33d 0406 44be 4fff 163d 0991 5a3d
00000060: 4064 0bbe 034b fabc 832a 843d bf7e 073d
00000070: 2a97 053e bf21 1f3e 5ead 073e bb03 6f3e
00000080: cc8b dd3d 4c45 e1bc 110a a3bd db9c 23be
00000090: 12dc a1bd 2e78 4a3d a147 a43d 522e 123c
000000a0: 031d 823d 9302 fe3d 0eb8 ec3d 9952 b33c
000000b0: 6f22 16bd c6a8 41be d282 903d 7ae0 d2bd
000000c0: 44b4 6cbc 1a45 1d3e 7e15 183e 3554 08bd
000000d0: 7abc f03d 3649 cc3d 29f7 07be 4e99 76bd
000000e0: 34a0 723d 80ae fe3d ce9b 22be fc15 84bd
000000f0: a0d1 083e cf2c 0e3e 0b4d cebd e0f0 453e
00000100: f58b 2abc 42bc 71bd 321c b23d abc2 073e
00000110: 0e64 f0bd 9341 f5bd 831d 013e 65f6 9fbc
00000120: 36ed a83d f977 f2bd c883 ccbd 0634 df3d
00000130: 06fe 4d3c 141c 10bd 7929 71bd 6101 bb3d
00000140: ea01 393d 7429 19be 6d4a 9c3d 0551 153d
00000150: b6cb 8cbd 4400 f33d 6e6c 963d 981a 8e3d
00000160: cbd5 09be 2028 d13d 2670 24be 7db2 94bd
00000170: 8ebc 8b3d 3bb3 d6bd 16e7 df3c c942 f43c
00000180: 4b6b 82bc f7d4 013e 0ea6 dfbc cfc6 81bd
00000190: f49f d73d e0fe 57bc fe35 fabd 0f24 c5bd
000001a0: f8be 3e3d 4fb9 2ebd c8b7 eebc 2f7f ee3c
000001b0: 554c 3ebe a258 c2bd bad0 51be 2507 96bc
000001c0: 9d05 5e3c 70bf 0a3c 33f2 35bc 1574 0f3d
000001d0: 4449 bb3c ff6f 693c eb24 cabd 3acf f93d
000001e0: fce7 86bd 0b14 a23d 36fe 053e 540d 153d
000001f0: 8078 debd 55df 3cbd 135a 56be 86d0 11be
-0.073310465 0.060177863 -0.0030621204 0.021140868 0.10161291 -0.115394145 -0.029904641 0.13404801
-0.033490073 -0.019997356 0.11511968 -0.016396103 -0.041805513 0.050329518 0.036461342 -0.19934027
0.05531931 -0.018523414 -0.0005673379 -0.004956436 0.11868672 -0.1914292 0.036864575 0.053360973
-0.13612461 -0.030553346 0.06453421 0.03307986 0.13045946 0.15540217 0.13249728 0.23341267
0.1081768 -0.027498864 -0.079609044 -0.15977804 -0.07903303 0.04943102 0.08021475 0.008922176
0.0635319 0.12402835 0.11558543 0.021889972 -0.036653932 -0.18912038 0.07056202 -0.10296722
-0.014447276 0.15358391 0.14851949 -0.03328343 0.11754699 0.099749014 -0.13277878 -0.060204796
0.059234813 0.12435627 -0.15879747 -0.06449506 0.13361216 0.1388428 -0.100732885 0.19330168
-0.010409345 -0.059017427 0.08696784 0.13257854 -0.11737834 -0.11975398 0.12608914 -0.01952667
0.082483694 -0.11839289 -0.09986073 0.108985946 0.012572771 -0.035183027 -0.058877442 0.091311224
0.04516784 -0.1495722 0.07631383 0.03645422 -0.06874792 0.11865285 0.073449 0.06938666
-0.13460462 0.10212731 -0.16058406 -0.072606064 0.06823073 -0.10483404 0.02733187 0.029817002
-0.015920302 0.12678896 -0.02730086 -0.06336748 0.105285555 -0.0131833255 -0.122173294 -0.09626018
0.04656884 -0.042657193 -0.029140368 0.02911338 -0.18583806 -0.094895616 -0.20489779 -0.018313954
0.013551143 0.008468494 -0.011105108 0.035022814 0.022862084 0.014247893 -0.09870323 0.121977285
-0.06587216 0.07913979 0.13085255 0.036389664 -0.10862827 -0.046111424 -0.20932798 -0.14239702

hidden2out.weight f4 [3, 32]
00000000: 65a0 01bd 64f3 243e 726d 2cbd 7e79 06bd
00000010: d2cb 2a3c ef92 acbd dbc3 8ebd 9fce 08be
00000020: ebe8 dd3c 8b84 a53d 736a 053e 98d1 19be
00000030: 9ceb ad3d e2eb eebd a7e7 4f3d f53f ddbd
00000040: ebb4 a6bd 7d3e f5bd 3cb4 0a3e d7fa 0cbe
00000050: 0cbb f63d 3145 143e 9e1f a9bd 1488 d33d
00000060: b99a 1b3e 6c79 12be 3764 e8bd 51c9 073e
00000070: 9f61 c1bd 89ae 093e 7ff6 cbbd e189 b0bc
00000080: a336 94bd 0498 d23c 38a2 a1bd c5a8 c4bd
00000090: e9ba 3e3d 3144 c5bc 8a91 cfbb 57f4 80bd
000000a0: 77d8 bf3d e5ab d13d f871 f43d edb3 08be
000000b0: 4906 04be 8c01 b1bd 94ff cabb 42ee 9039
000000c0: be8a b1bb c53d 863d 161a d23d 5490 973d
000000d0: c548 3b3b e369 05bd 35a6 b8bc 6a35 a3bc
000000e0: c2c4 f8bd d129 0e3d 6f1c 12be e153 0d3e
000000f0: e4f1 073e 572f 26bc 0a29 e0bd 7ba0 74bd
00000100: e810 003c 4889 1b3e 47bb f83d b798 043d
00000110: e23c dd3d fdcd 2abd 745f a8bd 66f3 b8bd
00000120: 6171 11bd 8544 56bd d25f 223d 94fc 213e
00000130: 9500 1a3e 89dc 08be f3d4 783d 7607 81bd
00000140: 8d05 c43d 39da 1dbe a0e7 9bbd 31fb cf3d
00000150: 0c56 f5bc 9e95 7dbd 2d67 2f3e f563 dabd
00000160: c177 bbbd 8d7d 5b3d d8d9 ad3d 03b7 0ebe
00000170: 9464 1c3e 9932 1bbe e206 b63d 563f 18be
-0.031647105 0.16108471 -0.042096563 -0.032830708 0.010424571 -0.08426463 -0.0697095 -0.1336007
0.027088603 0.08081921 0.13028888 -0.1502136 0.084922045 -0.11666085 0.05075803 -0.108032145
-0.08139976 -0.11974809 0.13545316 -0.13767563 0.12047395 0.1447952 -0.082579836 0.10328689
0.15195741 -0.14304131 -0.113472395 0.1326039 -0.09442448 0.13445486 -0.09959125 -0.02155012
-0.072369836 0.025707252 -0.07892269 -0.09602503 0.04656497 -0.024080368 -0.0063344883 -0.06296604
0.09367459 0.102378644 0.119358 -0.13349886 -0.12893023 -0.08642873 -0.006195018 0.00027643336
-0.0054181507 0.0655475 0.10258882 0.07400575 0.002857731 -0.032571685 -0.022540191 -0.01992293
-0.121469036 0.034707848 -0.14268659 0.13801529 0.13275868 -0.010143123 -0.109453276 -0.05972336
0.007816531 0.15189087 0.12145095 0.032372203 0.10802628 -0.041700352 -0.08221331 -0.090307996
-0.035508517 -0.05231144 0.039642163 0.15819007 0.15039285 -0.13365377 0.06074996 -0.06300251
0.09571371 -0.15415277 -0.07612538 0.10155333 -0.029948257 -0.061910264 0.17129202 -0.106635965
-0.091537006 0.05358653 0.08488816 -0.13937001 0.15272743 -0.1515602 0.088880315 -0.1486791

hidden2out.bias f4 [3]
00000000: 692f 883c 0a1a e9bd 49f6 0fbe
0.01662417 -0.1138192 -0.14058794

std_layer.weight f4 [3, 32]
00000000: 7f0b 323e e284 963d 250d 18be e1e4 1ebe
00000010: 609d 1abc 42df e83d 3e54 c93d 20fe fe3b
00000020: 98df bb3c a7ea 05be d6c1 dc3d 8074 9bbc
00000030: 7dc5 11be cc33 05be 3829 15bd 2c0a e4bd
00000040: 7264 69bd e9a0 303e 4008 f93b f27e c4bd
00000050: 8f20 0d3e 8d06 283e e0b7 8c3c 803b 91bb
00000060: 80a6 ab3c a8f0 11bd f06c 063d a0a3 613d
00000070: bba1 083e 8263 aa3d 3845 0e3d d018 5abc
00000080: 533d 0a3e 8ce0 923d d07c 653d 8af6 f73d
00000090: bc7f 153d a455 4abd 34eb 383d deec b3bd
000000a0: e6ec dd3d daea 66bd 0c19 253d e8f2 4a3d
000000b0: a688 07be ef22 17be 46d4 f83d 81b2 32be
000000c0: e871 7dbd 1abc ce3d f0f7 333d 1970 2d3e
000000d0: 5296 31be b099 7b3d 796c 89bd 361a 973d
000000e0: 7d8b 043e 6233 f53d f173 33be 5722 80bd
000000f0: ee73 fd3d a27f 873d 8426 13be aa9f de3d
00000100: eeb0 fb3d 48bb afbd 3c10 58bd a369 02be
00000110: 420a 09be 0149 a7bd ac5d 29bd c079 8b3b
00000120: c60b dc3d 2746 223e 1079 9e3c 7eb3 d63d
00000130: 42d0 d73d 40b5 0d3d bb6f abbd 426f 913d
00000140: 08de e13c 8aa7 0fbe f6ce 63bd acec 8dbd
00000150: 28a5 7d3d f589 a7bd 2ae1 973d 10ac 20bc
00000160: 605e f7bc 78b6 8b3d 122b dd3d 8cbf 5e3d
00000170: c068 f73c e0bd 31bc 044e 01bd 32e0 b03d
0.17387198 0.07349564 -0.14848764 -0.15516998 -0.009436935 0.11370708 0.09830521 0.007781759
0.022933766 -0.13077794 0.10779159 -0.01897645 -0.14235492 -0.1300804 -0.036416262 -0.11134753
-0.056980558 0.17248882 0.0075998604 -0.095945254 0.13781951 0.16408749 0.017177522 -0.004432142
0.020953417 -0.0356299 0.032818735 0.055087686 0.13342945 0.08319761 0.03473398 -0.01331158
0.13499956 0.07171735 0.056027234 0.121075705 0.03649877 -0.04939808 0.045146182 -0.08785413
0.108362004 -0.056376316 0.04030709 0.04954806 -0.13235721 -0.1475942 0.12149863 -0.17450906
-0.061876208 0.10094471 0.043937624 0.16937293 -0.17342499 0.061425865 -0.06710143 0.07378046
0.12943836 0.11972691 -0.17524697 -0.0625655 0.123756275 0.06616141 -0.14370161 0.10870297
0.12289606 -0.08580643 -0.052749857 -0.1273561 -0.1338282 -0.08168221 -0.041349098 0.004256457
0.10744433 0.15847073 0.019344836 0.10483454 0.10537769 0.03459668 -0.0837092 0.07101299
0.027571693 -0.14028755 -0.055617295 -0.06929907 0.061925083 -0.0818061 0.074159935 -0.009806648
-0.030196369 0.068219125 0.10799231 0.054381892 0.030201316 -0.010848492 -0.031568542 0.08636512

std_layer.bias f4 [3]
00000000: 44db 13bd 0936 093e 92a3 e43d
-0.03609778 0.13399519 0.11164011

exp_avg f4 [128, 12]
00000000: f440 ed39 a512 853a d76f fc39 4366 66ba
00000010: ab6a 3c3b b756 983b d9c0 2fba 43b4 82b9
00000020: 2552 cdb7 926b 5eb9 66db abba d7de 243b
00000030: a93c 45ba 87b2 28bb be9d 12ba 89bb 5f3b
00000040: 3987 95bb 5daf 0fbc bc01 d639 f6ee 523a
00000050: 83b3 473a a7ea 80ba d0eb 2139 c76a 9bbb
00000060: 6ebc 9eba 9903 6c3b 678f 673b ef01 f6bb
00000070: eba0 353b 37e7 873c a459 ae3a df72 47bb
00000080: 51ba 94ba 3f98 133b 637a babb a651 bf3b
00000090: 26b3 c23a 24f0 fab8 e3c3 a8ba 3fb4 f93a
000000a0: 3fcd 373b f105 c7ba 7a9a 98ba 39f9 c639
000000b0: c534 81b9 6d40 5bba e0ed ab3a c5dc b83a
000000c0: 47d2 8539 e1aa 873a bcc2 5b3a 04bb f4ba
000000d0: 8bd6 113b 1a7e b43b fe17 7db8 a94e 8bba
000000e0: d6a2 bbb7 cac6 b83a 2ea2 b4ba a110 723b
000000f0: 088f 0eb9 54c1 d63a 8268 ea3a aeaa 8abb
00000100: 8217 aa3a 09d1 0d3c 66a5 fbba 4aa9 9bba
00000110: 4413 7d3a c5d7 b33a 182d 9d3a 2c28 de3b
00000120: 9c0d 13ba 7398 f239 302e f33a fc93 10bb
00000130: e976 67b9 0729 9d3b 8676 9c3a 190d 8b39
00000140: f8b0 e93a e40e 4b3b 9bcb f73a c947 903b
00000150: 0def 76ba 8ce8 463b 41bc 733b 31cb 07bc
00000160: 9be6 353b 11ab 863c 7998 3abb 7750 15bb
00000170: ab2d f23a e8fe 333b 4709 d83a 7cb8 503c
00000180: 6637 c039 9d87 e4b9 aaf5 0bba d38d 973a
00000190: ea69 d4b8 222f 29bb c786 583a f8a6 0f3a
000001a0: 5090 6f3a be69 fa3a 5352 203b 354e 9b3a
000001b0: 7302 123b fe9d c73a 34e7 483a a897 bfb9
000001c0: ca00 073c bd3c 263c 0ec8 0fbb a559 3dba
000001d0: 5762 f5ba b25f 60bc 5090 b7bb ba1f 4aba
000001e0: b8a2 3fba 054c deb9 79f7 553a 33e3 0ebb
000001f0: cc36 23bb 22a8 0a3a ba7f aeba 804e d5b9
00000200: 14db a53a 1849 043b 5844 473b 59fd 423b
00000210: efaf 9fba 13b0 ee38 ceb4 e83a 01a3 f5ba
00000220: af19 85ba 2046 673b 65f1 9f3a 702e 0aba
00000230: 2656 24b8 d910 86ba f8b2 563a c4dc 1e39
00000240: 8495 48bb 6b57 113c 2c04 2d3c 8390 88bc
00000250: be7a b03b bf3f 283d 4da8 ba3b dc2d 3ebb
00000260: 1750 9e3b fa7d e03c dcb9 a93a 97e9 f13c
00000270: e40a 8bb9 d620 1c3a e53d 23ba 21b2 f539
00000280: 9f5a 9c3a 9070 6eb9 5807 5d39 ca2c d03a
00000290: c7d5 9cba a48d e5bb eaf1 d6ba d32d 7fbb
000002a0: 92fb 91ba 729b 8f3a 07b0 003b 84b6 99bb
000002b0: d519 6cba aae7 d63b be84 83ba 4666 edba
000002c0: 8744 5b3a fe10 5f3b 4765 d1b8 43ef 993b
000002d0: e894 993b 451b e03a 1bea 3cbb 8765 cd3b
000002e0: cdb3 513c ef7e 6c3b 6f4d cb3a f7d8 39b8
000002f0: ca71 4fbb d5ae 41bc 187a 2bbc 3ac1 c7ba
00000300: 8f7b b6b9 0bf2 b839 eea7 133a 08b5 93ba
00000310: 01ec 8038 7476 133b 6ba8 f537 f6f1 37ba
00000320: 165a 64b9 03e4 1a39 20b8 d4ba 0085 653a
00000330: a8bc 713a c0cb 6dba 244c 17bb e7e5 403b
00000340: 9792 5e3a ce22 d6bb d9c0 8db9 5a9a 653a
00000350: 14a0 9fba f573 41bb 4fe5 d239 3f58 a5bb
00000360: 24e9 2fba cafe d43a 4018 c93a fe5e 53ba
00000370: 134c 353b 9a0f cc3b 3f08 903b 9f7f 21ba
00000380: edac acba f50b bd3b 85c8 1ebb 6ad8 813a
00000390: 5f0e 13bb 5ee1 6ab9 8641 093b f6b2 26bb
000003a0: fb51 aabb 1e39 8739 8f1a 693a afb3 ce3a
000003b0: 7de4 123b 320d b53b bcfa c73b e803 e83a
000003c0: 05d4 04bb 4f0b 2bbb e3b1 cbba e6be cd3a
000003d0: 9031 05bc 7828 55bc 3e66 f938 835e 273a
000003e0: 9dbc 0c3a 7a6b 8b3b ac10 5d3b 6160 b1bb
000003f0: a27f 44b9 8a36 4b3a 3de2 353a 2937 12bb
0.00045252556 0.0010152651 0.00048148513 -0.0008789042 0.0028750103 0.004649009 -0.0006704457 -0.00024929838
-2.4476156e-05 -0.00021211643 -0.001311165 0.0025157237 -0.00075239927 -0.0025741176 -0.00055929634 0.003413888
-0.004563239 -0.008769837 0.00040818553 0.0008046472 0.0007617997 -0.0009835557 0.00015442003 -0.0047429535
-0.00121106 0.0036012887 0.0035333277 -0.0075075547 0.0027714323 0.016589744 0.0013301861 -0.0030433459
-0.001134703 0.0022521166 -0.005690859 0.0058385907 0.0014854416 -0.000119656586 -0.0012875762 0.001905091
0.002804592 -0.0015184266 -0.0011642717 0.00037951188 -0.00024644114 -0.0008363787 0.0013117157 0.001410388
0.00025524406 0.0010350608 0.00083832047 -0.0018671458 0.0022253122 0.0055081965 -6.0342245e-05 -0.0010628301
-2.2367964e-05 0.001409733 -0.0013781243 0.003693618 -0.00013595459 0.001638452 0.0017883929 -0.0042317724
0.0012976977 0.008655795 -0.0019199073 -0.0011876014 0.0009654055 0.001372092 0.0011991588 0.006779691
-0.0005609633 0.0004627142 0.0018553194 -0.0022060862 -0.00022074174 0.0047961506 0.0011937178 0.00026521905
0.001782923 0.0030984217 0.0018905284 0.0044030887 -0.00094197766 0.003035101 0.0037191065 -0.008288191
0.002775586 0.016438993 -0.0028472228 -0.0022783556 0.0018476745 0.0027465168 0.0016482257 0.012739297
0.0003666237 -0.0004358859 -0.0005339036 0.0011562653 -0.00010128676 -0.0025815447 0.00082598295 0.00054798974
0.00091386307 0.0019105 0.0024463132 0.0011848869 0.0022279292 0.001522958 0.00076638465 -0.00036543352
0.008239934 0.010146317 -0.002193931 -0.0007223136 -0.0018721324 -0.013694691 -0.00560192 -0.0007710416
-0.0007310319 -0.0004239978 0.00081621815 -0.0021802902 -0.0024904488 0.0005289336 -0.0013313212 -0.00040685013
0.0012653791 0.0020185169 0.0030405726 0.0029753058 -0.001218317 0.00011381521 0.0017754079 -0.0018740596
-0.0010154749 0.00352896 0.0012202678 -0.0005271202 -3.918088e-05 -0.001022841 0.00081901206 0.00015150296
-0.0030606696 0.00887094 0.010560077 -0.016670471 0.0053857258 0.041076418 0.0056963325 -0.0029019034
0.004831325 0.02740382 0.0012949067 0.02953033 -0.0002652026 0.00059558207 -0.00062271795 0.00046862758
0.0011928863 -0.00022739382 0.00021078938 0.0015882489 -0.0011965566 -0.0070054103 -0.0016399 -0.0038937225
-0.0011137596 0.001095636 0.001963617 -0.004690947 -0.0009006535 0.006558378 -0.0010034067 -0.0018112145
0.00083643984 0.0034037228 -9.984761e-05 0.0046977117 0.0046869405 0.0017097971 -0.0028826061 0.0062682065
0.0127992155 0.00360864 0.0015510748 -4.43095e-05 -0.0031653517 -0.011821468 -0.010466121 -0.0015240081
-0.00034805803 0.0003527555 0.00056326285 -0.0011269161 6.147475e-05 0.0022501023 2.9284702e-05 -0.0007016951
-0.00021777334 0.00014771525 -0.001622919 0.0008755475 0.00092215324 -0.00090711936 -0.0023086155 0.0029433907
0.00084904715 -0.0065349108 -0.00027037298 0.0008758657 -0.0012178444 -0.0029518579 0.0004022517 -0.00504592
-0.0006710461 0.001625025 0.001534231 -0.0008063166 0.0027663752 0.006227446 0.0043955143 -0.00061606796
-0.0013174094 0.0057692477 -0.0024228406 0.0009906415 -0.0022438986 -0.00022399935 0.0020943596 -0.002543626
-0.005197761 0.00025791762 0.0008892202 0.0015770103 0.0022414022 0.0055252546 0.006102888 0.001770136
-0.0020267975 -0.002609927 -0.0015540685 0.0015697151 -0.008129492 -0.013010137 0.00011892289 0.0006384628
0.0005368682 0.0042547556 0.003373186 -0.0054131006 -0.00018739564 0.00077519624 0.0006938314 -0.002231071

exp_avg_sq f4 [128, 12]
00000000: 5896 a535 68c3 ed35 6fa5 8635 46c1 a936
00000010: 7eff 9e37 c936 1638 3ac5 2b36 73b3 1435
00000020: 81c3 5335 254c 9e37 f48d 9336 8ca1 8837
00000030: 44fe c736 d383 c537 ae2f f936 f58d 1238
00000040: 444a 0b39 4535 be39 5fc2 9b37 8edf 0e37
00000050: 9a8a a436 1337 c438 e687 2938 e778 2c39
00000060: f3bc 4038 0458 1339 964e 7c38 0058 8c39
00000070: f021 703a e82d 2c3b 3c0d 5938 7ac2 5738
00000080: a8ee fe37 f4e0 493a a37e ac39 16b2 9f3a
00000090: 9218 ac37 8b51 4638 f5ff e837 c342 3a39
000000a0: 02ac a939 9398 853a cf6c a737 85bc 8338
000000b0: 5d96 3537 1dc2 5439 f8f4 8639 f19f 1d3a
000000c0: 24af 6937 1214 dc37 dc45 b436 2c87 a437
000000d0: 008a 8f39 30b6 f039 f971 2136 f0c5 b836
000000e0: 416c fc35 f39e ee37 075a 8638 8a66 1039
000000f0: 2193 4b37 7d4e f937 0249 9237 25d6 b138
00000100: a62e 1239 da5f fa39 91a6 0737 ec3c ea36
00000110: 2c69 0237 095d 2f39 a340 f137 3a3d 8239
00000120: f084 0836 3450 9436 2b19 ff36 7361 6d37
00000130: 4eec bc36 74e5 8338 452e 9537 0640 8336
00000140: 8cc3 f436 4a9a 4338 0740 1937 49cf 4338
00000150: 96d0 7937 71e8 9638 d895 2538 31da 6139
00000160: ec17 7339 6b43 993a 5cfa 1d38 c266 0538
00000170: 5e09 af37 b2d1 9f39 e766 c638 f89b 343a
00000180: c301 c736 ddf0 7f37 f087 e336 5d6c 4738
00000190: 0023 8d38 5768 8539 e3bc 6438 7ced 5037
000001a0: 5b55 0937 1271 5339 d89e 7338 fa9b 1039
000001b0: 397e d437 5c14 4d38 65c4 8837 9456 5238
000001c0: 891c d139 4f3e 5e3a d413 dc37 580a b837
000001d0: 37c3 8437 42b3 6939 4175 2839 8e3b 9939
000001e0: e95f 2837 562d 6537 709b 4e37 fdcb 9138
000001f0: 4d40 aa38 be5e 8539 1c0b 3437 d6af 3a37
00000200: 8448 dd36 d1d8 a538 1ee4 6f38 a347 2939
00000210: ee0a 4138 d0a1 5238 7589 d437 6efe 8f38
00000220: 438b 1a3a 5e4a 483a 3e21 5d38 8dd5 8d37
00000230: b5f9 f037 e066 113a cefd 1f39 8c15 dc39
00000240: 417e 9038 b5ce b039 cba5 c939 1cbf d23a
00000250: 59a5 143a 8f10 ff3b 82bd a939 ba5a f738
00000260: 6ccc 0739 f6fe 8b3b c11f dd39 2444 8f3b
00000270: 012e 8838 f6cc 0739 ec35 a437 b580 e338
00000280: f197 9c3a 5a4d 0f3b 646d ab37 d858 3638
00000290: ca1c 8237 3a75 313a eeb9 d239 d06d 5a3a
000002a0: 8d02 9136 181b a137 9bce 0037 5970 f837
000002b0: 2879 0139 0498 bb39 9aa8 6a36 a05c 8437
000002c0: a32e 5536 4abd 3c38 4026 ab38 060b 4039
000002d0: 0134 6d38 8872 9338 f44a 2738 a0c0 f438
000002e0: 559a 423a 0c84 af3a 9d67 8037 d286 b337
000002f0: 4e1d af37 d622 8639 c3dd 4739 f258 ec39
00000300: 2623 4936 4bcf 8b36 060e 1236 1551 0537
00000310: dd0a 1438 f048 8a38 03aa af36 ad98 d535
00000320: 2f61 e735 3102 4c38 2693 0337 7f65 1d38
00000330: 0cf2 4636 7884 8d35 c82e 8637 571d c237
00000340: 8c01 b436 fded c838 aba2 1c37 e389 c235
00000350: c6f4 1437 6071 f637 daff e435 c69c 8738
00000360: 1ae2 9738 6bba 7838 46b9 1738 c16c 8339
00000370: 3042 e039 3419 473a 263b e539 d9a8 8238
00000380: a05e 9238 4cdc 1a3b acce 0a3a 42cf 4c3a
00000390: 9463 c237 051f ad37 e970 7c38 e049 2439
000003a0: c8d5 ee38 add2 283a 2737 6438 40c4 0638
000003b0: 203d fd37 85e9 5239 874c df38 01f7 d739
000003c0: 4634 9036 7af9 0a37 95d4 5237 ec22 1638
000003d0: e085 0a38 a3b1 5e39 e3b5 f536 adde 9836
000003e0: 93a6 8636 a504 2f38 be79 5337 0562 e738
000003f0: 22a8 a436 eda2 0d37 65c9 0037 2325 3338
1.2337214e-06 1.7714747e-06 1.0031926e-06 5.0590925e-06 1.895404e-05 3.581381e-05 2.5595787e-06 5.539543e-07
7.888812e-07 1.8870525e-05 4.397467e-06 1.628769e-05 5.9602626e-06 2.3545615e-05 7.426329e-06 3.494132e-05
0.00013283739 0.00036279313 1.8567951e-05 8.51591e-06 4.903716e-06 9.356267e-05 4.0419305e-05 0.00016448238
4.595234e-05 0.00014051801 6.015467e-05 0.00026768446 0.00091603305 0.002627248 5.1749157e-05 5.1441115e-05
3.0390293e-05 0.0007701062 0.00032900748 0.0012183811 2.051544e-05 4.728282e-05 2.7775744e-05 0.00017763213
0.00032362348 0.0010192565 1.995862e-05 6.281681e-05 1.082345e-05 0.00020290208 0.00025740988 0.0006012908
1.392866e-05 2.623539e-05 5.3725507e-06 1.9613268e-05 0.00027377903 0.00045912107 2.405721e-06 5.5066703e-06
1.8806969e-06 2.8445827e-05 6.406387e-05 0.00013771109 1.2133999e-05 2.9719662e-05 1.7438553e-05 8.479905e-05
0.00013941023 0.0004775513 8.085409e-06 6.9808357e-06 7.773091e-06 0.00016723959 2.8759538e-05 0.0002484115
2.034296e-06 4.4200806e-06 7.602522e-06 1.414899e-05 5.630346e-06 6.289306e-05 1.778373e-05 3.9115575e-06
7.2945313e-06 4.6635316e-05 9.134418e-06 4.6684672e-05 1.4890122e-05 7.195853e-05 3.947862e-05 0.00021538955
0.00023183197 0.0011693066 3.7664882e-05 3.180537e-05 2.0865988e-05 0.00030483078 9.460543e-05 0.0006889696
5.9308672e-06 1.5255265e-05 6.7809524e-06 4.754622e-05 6.729923e-05 0.00025445476 5.453535e-05 1.245306e-05
8.18571e-06 0.0002016465 5.808365e-05 0.00013791016 2.5331146e-05 4.889477e-05 1.6303917e-05 5.0148534e-05
0.00039884847 0.00084779126 2.6235277e-05 2.1939326e-05 1.582653e-05 0.0002228739 0.00016065409 0.00029226806
1.0035911e-05 1.3660019e-05 1.2314747e-05 6.9521346e-05 8.118209e-05 0.00025438325 1.0731423e-05 1.1127404e-05
6.594755e-06 7.908198e-05 5.719449e-05 0.00016143783 4.6024965e-05 5.02186e-05 2.5336378e-05 6.8661626e-05
0.00058953854 0.0007640476 5.2721465e-05 1.6907952e-05 2.8726508e-05 0.00055466406 0.00015257971 0.00041977724
6.889972e-05 0.00033723345 0.00038461233 0.0016078684 0.00056703907 0.0077839564 0.00032375386 0.00011794777
0.00012950756 0.004272337 0.00042176063 0.0043721367 6.493554e-05 0.00012950957 1.9575433e-05 0.00010848177
0.0011947138 0.0021866173 2.0435727e-05 4.3474924e-05 1.5510614e-05 0.0006769482 0.0004019285 0.00083324034
4.3216337e-06 1.9205312e-05 7.677499e-06 2.961622e-05 0.00012347533 0.0003578068 3.4966856e-06 1.5778758e-05
3.176662e-06 4.4998982e-05 8.16104e-05 0.00018314653 5.6553636e-05 7.030839e-05 3.988571e-05 0.00011670706
0.000742351 0.0013390793 1.5307038e-05 2.1401243e-05 2.0875272e-05 0.00025584426 0.00019060732 0.00045079697
2.9971793e-06 4.166655e-06 2.1763858e-06 7.946296e-06 3.5296067e-05 6.5939385e-05 5.2351984e-06 1.5914171e-06
1.7239125e-06 4.863943e-05 7.842469e-06 3.7526243e-05 2.964519e-06 1.0543872e-06 1.5995829e-05 2.3140265e-05
5.364598e-06 9.581072e-05 9.336199e-06 1.4494257e-06 8.878478e-06 2.937828e-05 1.7061786e-06 6.466503e-05
7.242356e-05 5.9301423e-05 3.6173755e-05 0.00025067295 0.00042773923 0.0007595003 0.00043722353 6.2303334e-05
6.979448e-05 0.0023629842 0.0005295079 0.0007812866 2.3172972e-05 2.0637652e-05 6.0186638e-05 0.0001566778
0.00011388544 0.00064400845 5.44108e-05 3.213086e-05 3.0188414e-05 0.00020114153 0.00010647723 0.00041192028
4.29762e-06 8.283527e-06 1.2566471e-05 3.579531e-05 3.3026445e-05 0.00021237745 7.3227434e-06 4.555876e-06
4.012903e-06 4.1727577e-05 1.2604925e-05 0.00011033196 4.907154e-06 8.442189e-06 7.676285e-06 4.2711512e-05

exp_avg f4 [128, 32]
00000000: 5809 40b8 f307 3fb8 3c36 1039 5696 45b9
00000010: adc4 9838 d25d f2b8 d06e 0eb8 f78c 1bb9
00000020: ed44 9438 d5fd beb8 783a de38 b906 a738
00000030: 1569 9b39 45c8 bf37 3c40 cb38 c046 d338
00000040: dc99 1b39 19b2 043a cc32 08b9 bffe 14b9
00000050: c1bc 0ab8 10d4 6738 c36c 2338 54c4 2f39
00000060: 1055 05b7 c1f9 5db8 75d3 2938 21f5 9ab8
00000070: 7551 be39 d0e9 3939 83b4 8fb9 6213 b7b9
00000080: b2a3 c238 247a 6a39 dcf1 41b9 bcf0 b039
00000090: f563 c8b8 2404 9239 9163 3138 5182 cc39
000000a0: 035b 05b9 0941 8837 d500 8cb9 af95 ffb8
000000b0: ef38 17ba 6a78 4eb7 0d85 e8b8 74b6 e7b8
000000c0: 47a1 97b9 1dba 7bba c328 8839 e57f 8039
000000d0: d036 1338 4f84 68b9 6e01 84b6 7091 a4b9
000000e0: 8a31 4537 3f63 6039 c0dd f0b8 45e4 6739
000000f0: cab8 28ba 1d77 05ba a579 d939 00b8 0a3a
00000100: 760e 4139 6414 d1b8 a5ad 343a 159b c6b9
00000110: bfa0 fc38 f92d fdb9 2f70 1fb9 e322 24ba
00000120: d918 3639 e15d ffb7 b2cb 4a3a 2970 92b7
00000130: 61ea a43a c048 bf39 4e0c 023a 4363 fb39
00000140: 8f00 063a 075c d33a 3bd6 ddb9 5b97 ffb9
00000150: d540 cab9 524e 3b3a 8d2a 8839 a9f5 be39
00000160: 5242 3bba d39a 4bb8 f069 9a38 64db 45b8
00000170: 1a4a ac3a 2178 603a 1bf6 e5b9 365b 89ba
00000180: f21c 25b9 d0e5 84b8 1dff 46b9 df9e b1b8
00000190: c0b6 0238 b332 bc38 bc45 a838 d8cc 9638
000001a0: ae75 0837 c118 8135 6a91 5cb9 59ee 2939
000001b0: bb83 2fb9 e536 19b9 3de9 18b9 b0ee 36b9
000001c0: 28e6 6cb8 943c 1fb9 0d82 cbb6 d697 b338
000001d0: 9909 2e39 6fb1 72b9 53f2 4bb8 9e6f 7438
000001e0: e391 aa39 8c90 c9b8 9a16 2838 3134 eab8
000001f0: 6d83 2cb9 8629 beb8 6cfb 77b9 8a3f d138
00000200: 3318 a1b7 aa09 a6b8 c967 5539 0969 31b9
00000210: 4da7 b837 23d3 03b9 9c87 20b8 5244 51b9
00000220: dcaf 4a38 f640 8038 a42f 4339 004b 9f38
00000230: 7566 ce39 63c5 5338 5ffd ec38 a516 9138
00000240: 62a4 2339 7999 0d3a bddc 2eb9 0810 02b9
00000250: baf2 a9b8 780d e238 bcfc 6a38 7868 3939
00000260: e3ef 36b9 f886 7cb8 6061 1238 c0a3 7bb8
00000270: d33c b039 d605 9d39 1cfd a2b9 dd7c b8b9
00000280: 6af2 0eb9 d4b9 d9b8 b9fb 063a 1fe0 09b9
00000290: 7a17 f336 04f0 c8b9 9aec 5db9 1eef cbb9
000002a0: f06a 0539 fd58 6839 dfd1 8f39 863d 2fb8
000002b0: 838d 2b3a 1d52 97b8 ff06 4a39 51fc 3d39
000002c0: 4ab9 bc39 e429 933a 3d35 9bb9 405f b6b9
000002d0: 9341 86b9 7776 ca38 1b40 2038 9b5a ea39
000002e0: 6428 c1b9 c41d 00b9 e54d b338 a1ef 6db8
000002f0: b63b 1d3a cae9 e339 daa1 96b8 74b5 41ba
00000300: b19b 08b8 1e32 fbb7 4f56 d139 6de1 7337
00000310: 6360 8eb8 7277 55b9 58d8 63b9 4382 8ab9
00000320: 47d9 5536 7afa 1339 31b7 5539 aeca d4b8
00000330: f4ac b539 4ae1 34b8 b499 2339 e11e 1f39
00000340: cf6e 8a39 b896 2b3a 20c2 2ab9 7f62 81b9
00000350: e341 28b9 a334 e236 4ada 9cb8 abc5 a739
00000360: b196 c7b9 5193 dbb6 a909 19b8 70c8 a537
00000370: be28 9439 a843 8e39 422d 2e38 bb80 08ba
00000380: 741a 81b9 3f95 37b9 f16c 6e3a 57bc 97b9
00000390: e7a8 5a38 0133 34ba 43a3 bbb9 e5ef 3fba
000003a0: 12e6 7639 22a5 b039 585a 143a c3d4 43b8
000003b0: 88e0 a63a 6900 e5b8 2832 c539 cdc4 b039
000003c0: 083d 2d3a 45a8 083b ee4a 09ba 9bd2 2aba
000003d0: d2c5 deb9 3b7c 9139 06c4 b338 1de8 563a
000003e0: 1817 51ba 0d49 6cb9 84ae ff38 a4e9 99b8
000003f0: b13b 9c3a fa4e 6f3a 1fc7 a9b8 b24f b0ba
-4.578507e-05 -4.5545352e-05 0.00013753114 -0.00018843389 7.2845585e-05 -0.000115569346 -3.395864e-05 -0.00014834465
7.0700284e-05 -9.107186e-05 0.000105966756 7.964433e-05 0.00029642196 2.2862232e-05 9.691759e-05 0.00010074442
0.00014839269 0.0005061939 -0.00012988894 -0.0001420928 -3.3077555e-05 5.527219e-05 3.896352e-05 0.00016762438
-7.947223e-06 -5.2923107e-05 4.0489675e-05 -7.388951e-05 0.00036300314 0.00017730077 -0.00027409577 -0.0003491892
9.2811315e-05 0.0002236148 -0.00018496014 0.00033748697 -9.5553616e-05 0.00027850375 4.2292817e-05 0.00039007005
-0.00012717773 1.6242748e-05 -0.000267035 -0.00012187228 -0.00057686766 -1.2306593e-05 -0.00011087405 -0.00011048923
-0.00028921125 -0.0009602623 0.0002597031 0.0002450935 3.509858e-05 -0.00022174533 -3.934073e-06 -0.00031388877
1.1753649e-05 0.00021399277 -0.00011485396 0.00022114914 -0.0006436227 -0.00050912966 0.00041480098 0.00052917004
0.00018411301 -9.969695e-05 0.000689233 -0.00037881048 0.00012046238 -0.00048290173 -0.00015205213 -0.0006261302
0.00017366129 -3.0442085e-05 0.00077360414 -1.7456785e-05 0.0012582057 0.00036484562 0.000496094 0.00047948406
0.00051117776 0.0016125449 -0.0004231202 -0.0004875016 -0.00038576746 0.00071451545 0.00025971644 0.00036422655
-0.00071433664 -4.8543163e-05 7.3630246e-05 -4.7172784e-05 0.0013144643 0.00085628225 -0.00043861647 -0.0010479453
-0.00015746409 -6.3370564e-05 -0.00018977789 -8.46961e-05 3.1164614e-05 8.973982e-05 8.023853e-05 7.1907125e-05
8.133631e-06 9.618453e-07 -0.00021035006 0.00016205887 -0.00016738374 -0.00014611667 -0.00014582738 -0.0001744579
-5.6481134e-05 -0.00015185989 -6.0650113e-06 8.563667e-05 0.00016597509 -0.00023145018 -4.8624654e-05 5.8278085e-05
0.0003253362 -9.611351e-05 4.007537e-05 -0.00011167711 -0.00016452158 -9.06764e-05 -0.00023649418 9.977732e-05
-1.9203964e-05 -7.917297e-05 0.00020351926 -0.00016919164 2.2012415e-05 -0.00012571788 -3.827327e-05 -0.00019957245
4.8324335e-05 6.1156155e-05 0.00018614397 7.595681e-05 0.00039367718 5.049015e-05 0.00011300551 6.918357e-05
0.00015606129 0.00054015924 -0.00016676165 -0.00012403738 -8.103759e-05 0.000107790285 5.6025325e-05 0.00017681892
-0.00017446237 -6.020718e-05 3.48998e-05 -5.9995567e-05 0.00033614654 0.00029949722 -0.0003108763 -0.00035188245
-0.00013632482 -0.000103819795 0.0005149204 -0.0001314883 7.2446974e-06 -0.00038325798 -0.00021164343 -0.00038897333
0.00012723706 0.00022158395 0.00027431452 -4.178055e-05 0.0006544219 -7.215536e-05 0.00019266827 0.0001811844
0.00035996205 0.0011227694 -0.0002960357 -0.00034784712 -0.00025607328 9.6541764e-05 3.8206676e-05 0.00044699464
-0.00036841922 -0.0001221812 8.549894e-05 -5.6728375e-05 0.00059979723 0.00043471 -7.1827046e-05 -0.00073894043
-3.2569926e-05 -2.994487e-05 0.0003992789 1.4536415e-05 -6.789041e-05 -0.0002035776 -0.00021729001 -0.00026418464
3.1865945e-06 0.00014112322 0.00020381507 -0.000101467 0.0003465187 -4.312516e-05 0.0001560215 0.00015174925
0.0002640397 0.0006545591 -0.0001628478 -0.00024678183 -0.00016046273 6.7414526e-06 -7.479319e-05 0.00031999996
-0.00038068512 -6.5438585e-06 -3.648704e-05 1.9762869e-05 0.00028259115 0.00027134758 4.1526982e-05 -0.00052071706
-0.00024624506 -0.00017507838 0.0009095213 -0.00028941288 5.2132553e-05 -0.0006874055 -0.0003578906 -0.0007321819
0.00023546096 0.0003369237 0.0005659214 -4.6689773e-05 0.001273171 -0.00010919647 0.00037612137 0.00033715964
0.00066085206 0.002085225 -0.00052373006 -0.0006516368 -0.00042490527 0.00027749114 8.571897e-05 0.000819804
-0.00079761585 -0.00022533927 0.000121918536 -7.3391275e-05 0.0011919645 0.0009128895 -8.095637e-05 -0.0013451485
