models/drone/policy_ego_rotor_best_iter92.pth (torch, 80830 bytes, 20 tensors)

lstm.weight_ih_l0 f4 [128, 12]
000000 23 83 87 bd 83 d7 02 bf e7 fe 06 3e d1 82 20 3d
       -0.06616809 -0.51110095 0.13183175 0.039187256
000010 5d 77 a9 be 3a 6c ec 3c 72 c2 1d bd 8e e8 01 3e
       -0.3309888 0.0288602 -0.038515516 0.12686369
000020 65 57 82 3d 89 11 8d be 5c 94 35 be 68 b8 08 bd
       0.063643254 -0.2755244 -0.17732376 -0.03337899
000030 c0 2e 75 bc fa 30 f5 3d 7f 60 9e 3e 6f 79 8c bd
       -0.014964759 0.11972232 0.30932996 -0.06859099
000040 9f db 05 be c5 f8 ab 3c 60 bf 62 3e 9e 0d f6 3d
       -0.1307206 0.020992646 0.22143316 0.12014316
000050 20 36 26 3d 30 26 0d be 5c 1d b9 bd 72 07 a1 bc
       0.04057896 -0.13784099 -0.09038803 -0.01965687
000060 fa 4d 54 3e fa 7d 4b bd 7e 1a f6 bd ab 86 7d 3e
       0.2073287 -0.049680687 -0.12016772 0.24758403
000070 dd f2 5f be ec 06 e8 3c 7e 14 07 3d 9e 22 52 3e
       -0.21869989 0.028323613 0.032978527 0.20521018
000080 da ba 23 3e e1 c2 7e bd e3 1d 47 be e4 be 55 bd
       0.15989247 -0.06219757 -0.19444995 -0.052184
000090 eb 2f f9 bd a8 74 7f 3e 63 51 a3 3e 37 10 81 be
       -0.12167343 0.24946845 0.3189803 -0.25207683
0000a0 e0 a7 10 3e a0 45 fd bd cc ff 01 3e f5 43 60 3e
       0.14126539 -0.123667955 0.12695235 0.21900924
0000b0 dd f5 43 3e 62 8e 36 3e a5 0d 4d 3d b7 7b 25 3e
       0.19136758 0.17827752 0.05006184 0.16160475
0000c0 bb f1 b4 bd 1c 28 e8 3d 4f 69 c9 be 3c f0 47 3d
       -0.08835169 0.11335775 -0.39338157 0.04881309
0000d0 25 e3 47 3e ff 4d 56 be 69 88 99 3e f8 83 85 3e
       0.19520243 -0.2092819 0.29986885 0.26077247
0000e0 fd 10 d8 bd 3b 5f d5 bd 23 dd 8f 3d 9c 91 b3 3c
       -0.10550115 -0.104185544 0.070246 0.021920018
0000f0 fd c6 87 be 54 a9 81 3e c3 36 74 be 30 25 17 3e
       -0.26519004 0.253245 -0.23849015 0.1476028
000100 55 a5 9b 3d e1 19 34 be 4a c0 ef bc f8 6e da 3b
       0.07599894 -0.17587997 -0.029266495 0.0066660605
000110 f4 70 8b be 6d 8d 0f be bf 3e 34 3e 4b ca 8d bd
       -0.27234614 -0.14018793 0.1760206 -0.0692335
000120 21 a1 94 3e f1 d9 13 3e 17 4f d6 be 0a 13 8b 3e
       0.29029182 0.14438607 -0.41857216 0.27162963
000130 00 65 4d 3e c6 11 96 be 52 c5 ec be a4 31 eb bd
       0.2005806 -0.29310435 -0.46244293 -0.114840776
000140 65 de d4 be bf 28 32 be 33 c3 82 bd 22 12 c1 be
       -0.41575924 -0.17398356 -0.063848875 -0.37709147
000150 4e af 4e be 01 fd ae bd f2 f5 f3 be 17 9c f9 bb
       -0.20184061 -0.085443504 -0.4764858 -0.0076174843
000160 04 fd bc bc 1d cb 91 3d 3f f2 9a bd 04 75 42 be
       -0.023069866 0.07118819 -0.07565736 -0.1898995
000170 75 73 3a 3d 76 4a 82 3d 21 b7 00 bd 87 7c 8b bd
       0.045520265 0.063618585 -0.031424645 -0.06810861
000180 57 da 62 be 1e cb 56 3e 2b 37 06 be bf ed 44 be
       -0.22153603 0.2097592 -0.13106982 -0.19231318
000190 c8 6d 8c 3d 91 c6 fc bd b6 6f 28 3d 38 ba 4a bd
       0.068568766 -0.12342561 0.04112216 -0.049494
0001a0 11 ed 1a be b5 93 15 be 00 d1 d7 3d dd d6 7b 3d
       -0.15129496 -0.14607127 0.105379105 0.061484206
0001b0 ce 11 4e 3e c5 14 94 bd 5b 23 55 be 1a 77 6d 3e
       0.2012398 -0.07230524 -0.20814268 0.23189965
0001c0 62 ba 28 3e 23 ea 7f be 29 ca a7 bd d3 62 32 bd
       0.1647735 -0.2499166 -0.08192856 -0.043551277
0001d0 0c 2b 83 bb d6 8a f8 3c 7a aa 37 be ba 7b 4b be
       -0.0040029343 0.03033964 -0.17936125 -0.19871417
0001e0 96 02 dc be 44 6d 2a 3e d3 5c 61 3d 0f 61 9e be
       -0.42970723 0.16643244 0.055020165 -0.30933425
0001f0 22 80 61 3e 2e c6 4e be 3d 36 35 be a0 24 24 ba
       0.22021535 -0.20192787 -0.17696472 -0.0006261561
000200 5a 34 c2 3d 88 b4 05 3e ba cc d1 bd 8a 00 65 3c
       0.094826415 0.13057148 -0.102441266 0.013977179
000210 81 d3 bb 3e 9c 4e 57 bb 28 bb b2 be cb a0 f5 3e
       0.36684802 -0.0032853251 -0.34908414 0.47974238
000220 64 29 0d 3e 59 09 d6 bd 1d 81 05 be 4e d0 8e bd
       0.1378532 -0.10451002 -0.13037534 -0.06973325
000230 6c 06 3d be f9 5c 08 bd 23 3b 8f bd 54 52 51 bd
       -0.18459481 -0.03329179 -0.06993701 -0.051103905
000240 46 c0 c2 3d 7c 8c 80 be c8 17 d0 be b0 d8 82 3d
       0.095093295 -0.2510718 -0.40643144 0.06388986
000250 60 98 71 3d 09 df c8 3d ff f8 51 be 1e 48 13 3e
       0.058983207 0.098081656 -0.2050514 0.1438298
000260 36 5c c9 bd 94 d0 a9 3b 99 43 eb bd 3e f4 d4 bd
       -0.09832041 0.005182335 -0.114875026 -0.10398148
000270 26 77 38 3e b5 84 8d be 7c 8f a9 3d 05 59 cd bb
       0.18014202 -0.2764031 0.082793206 -0.0062667155
000280 5e ff 92 be 33 be 0a 3e 08 cf 14 be c0 a2 a8 bd
       -0.28710455 0.13549118 -0.14532101 -0.08234167
000290 7b 37 2e be 39 8d 26 bd 1c cb 0e be de 56 33 bd
       -0.17013352 -0.040662024 -0.13944668 -0.043784015
0002a0 ce 54 ff bd d1 d2 2c be e8 41 16 bf 25 c3 8e 3e
       -0.12467347 -0.16877295 -0.58694315 0.27883258
0002b0 8e 12 3b 3d 4f 40 82 be f5 38 20 bb 6b 11 db 3d
       0.045671992 -0.2543969 -0.0024448012 0.106966816
0002c0 2f 12 ec bd 8d 98 b2 bd 08 79 9c bd 2c 1c fc bd
       -0.11526906 -0.08720503 -0.076402724 -0.12310061
0002d0 84 ab 1c 3e 81 65 4b 3d dc 77 00 bf b4 e9 5b 3c
       0.15299803 0.04965735 -0.5018289 0.013422418
0002e0 b0 ef 98 3c a3 aa fd bb fe cc 07 be 04 77 65 be
       0.01866898 -0.0077412887 -0.13261792 -0.22408682
0002f0 32 d2 97 bd 19 6d 2b bd 1f 9f 5d 3e 1f a5 61 be
       -0.074131384 -0.04185209 0.21642731 -0.22035645
000300 9b 8b 19 3d 38 a2 78 3d e4 5c 3e be 7b 56 7d 3c
       0.037486654 0.06070158 -0.18590122 0.015462513
000310 fa a2 ce 3d b3 9c e5 3d 95 1d b3 3d d7 a5 b4 be
       0.10089679 0.11211529 0.08745877 -0.35282776
000320 b7 60 8e be 53 9e 4a be cf 90 03 3d a9 07 07 be
       -0.27808163 -0.19786958 0.032120522 -0.13186516
000330 d6 68 ec 3e 13 1d 20 3f 32 e3 b6 bd d2 a1 f2 3b
       0.46173733 0.62544364 -0.08930053 0.0074045444
000340 27 f5 2c 3e b4 83 03 3e 97 c2 e0 bc f6 df 2c be
       0.16890393 0.1284321 -0.027436538 -0.1688231
000350 0a 1c a8 be 3d 47 04 3e 52 a0 b2 3d 92 95 1d 3e
       -0.32833892 0.129178 0.08721985 0.15389088
000360 9d 66 fb 3e b9 a9 c4 be e1 55 b4 be 38 82 bb 3e
       0.49101725 -0.38410738 -0.3522177 0.36622787
000370 51 ae 22 be bc 33 85 3d c8 c7 42 be a8 00 0a be
       -0.15886809 0.06504008 -0.19021523 -0.13476813
000380 48 54 c7 bd 52 00 d2 bd dd ca 7f bd 4d 35 2b bb
       -0.09732872 -0.10253967 -0.062449325 -0.00261243
000390 e1 82 4a 3e 61 82 8e 3d 7e bd a4 be a5 10 ed bc
       0.19776489 0.069584616 -0.3217582 -0.0289386
0003a0 ef fc a6 3e c8 6e 21 be b3 90 b1 be 11 9e 27 bc
       0.32614848 -0.15764916 -0.3468071 -0.010230557
0003b0 26 4e b7 be cf 92 af bc 3e 8e b5 3d 62 1a 91 be
       -0.3580181 -0.021432308 0.08865021 -0.2834044
0003c0 c2 8a 92 bd 99 ed 01 3e 89 4b d6 3d 3d dd de 3c
       -0.07155372 0.12688293 0.10463626 0.027205104
0003d0 c6 58 53 be e9 d8 32 bd 2a 1e b3 bd bc f5 a9 3c
       -0.20639333 -0.043663893 -0.08745988 0.020747058
0003e0 23 6d 10 be 0e 54 bf 3e e3 31 9c 3e d5 b4 b5 bd
       -0.14104132 0.37368816 0.3050681 -0.088723816
0003f0 30 c0 92 bd 52 5e 01 3e 0d 8b 8b be ec 09 09 3d
       -0.07165563 0.12633637 -0.27254525 0.033456728

lstm.weight_hh_l0 f4 [128, 32]
000000 97 00 e4 bd 81 b4 9b 3e 88 24 74 3e d2 ba c9 3e
       -0.11132925 0.3041115 0.2384206 0.39400345
000010 8f 9f 82 3e 13 57 42 be 89 b7 bd be c9 83 57 be
       0.2551236 -0.18978529 -0.3705409 -0.21046366
000020 e5 3b 0e bf 07 a9 ca be 2b 5a d4 bc 92 17 ac 3c
       -0.5556014 -0.39582083 -0.025921902 0.021007333
000030 c4 9b f5 3e a6 a1 d0 3d c9 2a 08 be f3 c9 e9 bd
       0.47970402 0.10187082 -0.13297571 -0.11415472
000040 ca 74 dc bd 1b 0c 2b 3e 9c 84 94 be 12 b8 75 bd
       -0.10764463 0.16703837 -0.29007423 -0.059989996
000050 9b 18 93 be 44 c1 54 3e 58 ed ab 3e 44 27 84 3c
       -0.2872971 0.2077685 0.33579516 0.016132005
000060 f7 aa 8c be 0f 1e aa 3d db d6 08 3e bb dc e8 3e
       -0.27474186 0.083065145 0.13363211 0.45480904
000070 6f 1d 36 3d af e1 57 3d 8c 34 f2 3d 30 4b 8e be
       0.044461664 0.052705463 0.11826429 -0.2779174
000080 4e 6b 2c 3e e1 ec 96 be d4 01 1f 3d a0 7e 73 bb
       0.16837808 -0.294776 0.038820103 -0.0037154332
000090 ae d6 01 3d c6 22 90 be 8a e8 3b bd 1e 9a 06 3e
       0.031698875 -0.2815153 -0.045876063 0.13144729
0000a0 1e 2d 84 3d 21 c0 28 3e c0 e0 86 3e e5 5b 3b 3d
       0.06453918 0.16479541 0.26343346 0.045741934
0000b0 44 a5 dc 3e 1f 33 b9 3d c7 fe 97 3e e8 31 7c be
       0.43094838 0.09042954 0.29686567 -0.24628413
0000c0 17 31 f0 3d c6 71 51 3e 92 db 86 bd 91 f6 71 be
       0.11728113 0.20453557 -0.065848485 -0.23629214
0000d0 f8 ac 2b 3d 77 58 7e 3d 0d cd 8d 3d f1 58 77 bd
       0.041913003 0.062096085 0.06923876 -0.060387556
0000e0 fd 72 09 be 44 bc 60 bc 25 98 3c 3e 34 06 38 be
       -0.13422771 -0.013716761 0.18417414 -0.17971116
0000f0 df 53 69 3e ba b6 32 3e 01 51 6a 3e 96 22 35 be
       0.227859 0.17452517 0.22882463 -0.17688975
000100 84 ad 1b bd e2 a8 e1 bd c4 00 48 be a5 5d a8 3e
       -0.038007274 -0.1101854 -0.19531542 0.32883945
000110 54 fd 9e bd 2b 72 c0 3c 09 d5 8a 3e 67 f9 9b 3e
       -0.07763162 0.02349194 0.27115658 0.30463716
000120 06 d2 91 be c9 c4 bf 3d 8f da ee 3d 78 87 af bd
       -0.28480548 0.09363706 0.116627805 -0.085707605
000130 31 20 96 3b 14 c0 10 be 5a 5e 36 bd 4c f2 3b 3e
       0.0045814742 -0.14135772 -0.044523574 0.18354148
000140 77 47 43 bd b0 d4 bd 3d 0f 90 72 3c 29 e6 bb bd
       -0.047675576 0.092690825 0.014804854 -0.09174759
000150 d6 d9 d0 3d 74 a9 34 bd 42 38 88 3e 75 d8 2a 3e
       0.10197799 -0.044106916 0.2660542 0.16684134
000160 75 e4 0c 3d dc 1a 2a be 53 a6 35 3c 87 fb c5 bc
       0.03439756 -0.16611809 0.011087018 -0.02416779
000170 30 61 ea bd b6 09 ad 3d 59 eb c4 3d ed 10 34 bd
       -0.11444318 0.08449118 0.096152015 -0.043961454
000180 c2 ad cd 3e 63 91 8b 3e d5 1a ed bd 29 ec b7 3c
       0.4017163 0.2725936 -0.115773834 0.022451477
000190 77 38 52 3e dd 8e 98 bd 82 74 fd bd 14 2b 54 3e
       0.20529352 -0.07449124 -0.12375738 0.20719558
0001a0 95 51 1b be 48 9d 29 be 70 e4 58 3e 2a 16 43 3c
       -0.1516784 -0.16563904 0.21180892 0.01190714
0001b0 06 b1 94 be 87 17 87 be 98 0f 12 be a5 fe 08 3d
       -0.29041308 -0.26385137 -0.14263761 0.033445973
0001c0 7e 98 57 be 32 c9 99 3d c9 a8 78 bc cf be 38 be
       -0.21054265 0.07509078 -0.01517696 -0.18041538
0001d0 a8 6e 5a 3d e7 52 8a be 89 68 d7 bc dd fa ad 3e
       0.053328186 -0.27016374 -0.026294963 0.33980456
0001e0 61 e4 25 3d fc 64 6a be b7 29 06 be 11 da 4d 3e
       0.040501002 -0.22890085 -0.1310185 0.20102717
0001f0 6a e7 87 bd b5 82 90 3d 07 6d 80 3e d2 c6 0e be
       -0.066359356 0.070561804 0.2508318 -0.13943031
000200 08 43 36 bd 93 a6 0f 3e c5 2f 50 be 89 f9 1e 3e
       -0.04449752 0.14028387 -0.20330723 0.15524878
000210 1a da 81 bd aa 8e 7d 3e 38 f7 15 be 04 59 ac 3d
       -0.06340428 0.24761453 -0.14645088 0.08415416
000220 e5 9f fc be 44 94 f7 be df 69 81 bd 89 c8 1b 3e
       -0.4934074 -0.48355305 -0.063190214 0.15213217
000230 1f cf d9 3b e0 d7 04 3e 67 41 43 be f0 c3 65 3d
       0.006647005 0.12972975 -0.19067918 0.056095064
000240 e7 a0 5b be fb e5 30 bb 14 c9 2f 3e 5c 36 a8 3d
       -0.21448098 -0.0026992548 0.17166549 0.08213493
000250 93 48 83 be 61 de 60 3e b2 82 90 ba 27 1a a9 bd
       -0.25641307 0.21959831 -0.0011025278 -0.08256941
000260 a3 dc 6b 3e bb 3c 5e bd ca dc 78 bd 0c 08 19 3e
       0.23033385 -0.054257136 -0.060757436 0.14944476
000270 b6 dc 18 be 94 dc 60 be ae 16 17 3d db 32 cd bc
       -0.14927945 -0.21959144 0.036886863 -0.025048664
000280 5c 88 83 3c de 53 96 3d c6 25 d5 be 21 a5 c4 3e
       0.016056232 0.07340215 -0.4163038 0.38407233
000290 83 e0 98 be d4 9c 2e 3e c4 e6 ae 3d fc 87 19 3d
       -0.2985879 0.17052013 0.08540109 0.0374832
0002a0 4e 82 35 be a0 1b 1f 3e 02 9c e9 bc 60 48 71 3d
       -0.17725489 0.15537882 -0.028516773 0.058906913
0002b0 4d 71 89 be 2f bd 7b 3c 9c 1d 2c bd c4 df 90 bd
       -0.26844254 0.015364929 -0.042020425 -0.0707393
0002c0 87 b6 1e 3e e6 a7 fd 3c c8 da 98 bc ec 33 24 be
       0.15499316 0.03096385 -0.01865901 -0.16035432
0002d0 69 82 4e 3e 8e 04 aa 3d a8 8c 43 bc 67 cd 4a 3e
       0.20166935 0.0830165 -0.0119353905 0.19804917
0002e0 03 f0 ae 3e 14 9e 08 3c 01 90 46 3f 8e 00 2f be
       0.3416749 0.00833847 0.7756348 -0.17090055
0002f0 df 72 2c be e6 46 02 be d3 0c 03 3e b8 fa 80 3d
       -0.16840695 -0.12722358 0.12797861 0.06297821
000300 ef 5f 96 be 9b b0 dc 3b 14 1d ca be 2c 2a 01 3f
       -0.29370067 0.00673492 -0.3947531 0.50454974
000310 e9 9d d8 be 3f a7 99 bc e1 1d d6 3d 1d 83 17 3d
       -0.42307976 -0.018756507 0.10454918 0.036990274
000320 ca 4b f6 bd 58 14 27 bd d6 ca 66 be 25 af 3e 3e
       -0.12026174 -0.040790886 -0.22538313 0.186215
000330 3f a2 e9 bd 50 7c b2 be 4d 28 8c bd 80 d9 20 bd
       -0.11407899 -0.34860468 -0.06843624 -0.039269924
000340 1c 3d 11 be 83 ca e6 bd 80 a2 89 3e c0 ab 9b 3e
       -0.14183468 -0.11269095 0.2688179 0.30404472
000350 19 af 04 3e 0f 35 8b bb 52 bc 33 3e 4b bd 7d be
       0.1295742 -0.0042482684 0.17552307 -0.24779241
000360 7a 85 07 3f 3f f7 30 be b5 45 22 3f f3 74 e0 be
       0.52938044 -0.17281817 0.63387614 -0.43839225
000370 28 69 fd be 9d ef af be c8 40 56 3e 19 91 01 3f
       -0.4949429 -0.34362498 0.2092315 0.50612026
000380 bb ec a1 3d 2f 87 21 bd 80 11 36 be 4b d7 36 3e
       0.07906481 -0.03943556 -0.17780113 0.17855565
000390 df 90 55 be 01 7a dc bd 16 cd 8a be 15 32 7c 3d
       -0.20856045 -0.10765458 -0.27109593 0.0615712
0003a0 ae aa 1e 3d a0 c6 88 bc 96 4d ef 3d 2e f9 39 3e
       0.03873699 -0.016696274 0.1168472 0.18161461
0003b0 8b 2c 93 bd 96 87 84 3e 77 12 9c 3d 4c 00 b3 3d
       -0.0718623 0.25884694 0.076207094 0.08740291
0003c0 c5 c7 4f 3e 4b 02 98 bc 2e a5 be 3d 11 f5 db 3d
       0.2029105 -0.01855578 0.09308849 0.10740102
0003d0 ae c3 47 3d 1c af a5 bd 69 d2 0f be 40 3e a9 3d
       0.0487706 -0.0809004 -0.14045109 0.08263826
0003e0 ed a6 4a 3e 65 0f 72 be f3 57 e4 3e 15 53 55 3c
       0.1979024 -0.23638685 0.4459835 0.013020297
0003f0 66 12 34 3c 3b bb 03 3d e6 52 3a 3c 94 39 28 3e
       0.010990715 0.03216098 0.011372304 0.16428214

lstm.bias_ih_l0 f4 [128]
000000 cd 24 40 3e 3e c0 0b bd 56 63 b6 ba 84 ab a0 bc
       0.18764038 -0.034118883 -0.0013915102 -0.019613035
000010 5a da 39 be 5b 01 02 bc 8c 2b 12 bf 4b 51 07 3d
       -0.18149701 -0.0079348935 -0.570977 0.03303651
000020 b4 18 9c be f8 66 05 be 74 48 b2 3d a0 c3 8d be
       -0.30487597 -0.1302756 0.087052256 -0.27688313
000030 a3 3b 47 be cc 06 78 be 0c 51 6f be 77 d1 f3 be
       -0.19456343 -0.24221343 -0.2337076 -0.47620746
000040 3a 80 5f bb 6b 13 cd 3d 51 0b 29 be ce d6 47 be
       -0.0034103529 0.10013469 -0.16508223 -0.19515535
000050 5a a5 1f be 1a 31 11 be b6 95 ec bd ee 81 11 be
       -0.1559042 -0.14178887 -0.115519926 -0.1420972
000060 71 59 84 3d 35 4a 22 be 41 4a 3b bd 7b 08 6a bd
       0.06462372 -0.1584862 -0.04572511 -0.057136994
000070 24 13 a9 3d 0d b8 57 3e 59 70 00 be 8e 31 65 3e
       0.08255604 0.21066304 -0.12542857 0.22382185
000080 20 8a f8 3d 10 89 97 bd 67 6d 61 bc 8a c5 a3 3d
       0.1213572 -0.073991895 -0.013758994 0.07996662
000090 f4 50 be bd 75 24 83 be 21 6d e2 be 4a d6 45 be
       -0.09292784 -0.25613752 -0.44223884 -0.19320026
0000a0 47 bc 86 3c 66 53 84 be 1d f6 1d 3e ab 10 db be
       0.0164472 -0.25844878 0.15425916 -0.42786154
0000b0 92 4e 09 be f2 e1 50 3c 75 a1 06 bf 9d 19 8a bd
       -0.13408878 0.012749182 -0.52590114 -0.067431666
0000c0 6d 72 a8 be e7 e4 27 3e b2 b8 7f be ef f9 b5 be
       -0.328998 0.16395913 -0.249728 -0.35542247
0000d0 36 ec 40 3d d6 6b 18 be 1d 17 cb be 2b 55 4a bd
       0.04710027 -0.14884886 -0.39666072 -0.04939763
0000e0 73 ed 62 3d 86 ed e9 3c 15 f6 c4 be 1c 07 a6 bd
       0.05540223 0.028555643 -0.38468996 -0.08106825
0000f0 e2 d4 fc 3d 4d 89 41 be 16 20 28 bd 7b 87 23 3e
       0.12345292 -0.18900032 -0.041046225 0.1596965
000100 78 c3 92 3d 5f 35 47 be 47 75 1e 3e 73 84 09 be
       0.07166189 -0.19453953 0.15474425 -0.13429432
000110 d1 16 16 3e ef 66 5a bd ea b0 95 3d ff 31 8d 3d
       0.14657141 -0.05332082 0.07309134 0.068943016
000120 c9 86 cd 3c 76 0b 14 3e 11 e3 85 3d 98 23 33 bd
       0.025088685 0.14457497 0.0653745 -0.043735117
000130 e6 22 04 3e 30 04 d7 bc 8d 8c d2 bd f2 db b6 bd
       0.12903938 -0.026247114 -0.10280714 -0.0892867
000140 59 f7 38 3c 75 9a 5f 3d 57 9b 43 be 02 31 34 bd
       0.011289441 0.05459066 -0.19102226 -0.04399205
000150 8a 62 0f bd fd e0 59 bd 35 bc a4 bd 6b 10 3d 3d
       -0.035006084 -0.05319308 -0.0804371 0.046158236
000160 41 9c ac bb d7 0f 5a 3d 24 05 f8 bd 33 fd 94 3d
       -0.0052676504 0.053237762 -0.121103555 0.072748564
000170 99 67 c3 3d ba 41 4f bd 7c c3 d9 bd e3 9c 68 be
       0.09541244 -0.05059979 -0.10632989 -0.22716098
000180 b9 90 24 3e 3b fd 1f 3e f2 28 5c bd 9d d7 dc bd
       0.16070832 0.15623944 -0.053749986 -0.107833125
000190 cc 29 2c 3d 6f 61 09 be e1 0d 1c bf f3 ed f5 3d
       0.042032048 -0.13416074 -0.6095868 0.12008276
0001a0 a6 ed 80 3c b0 68 73 bd c3 95 45 be 0e ca 36 be
       0.01573832 -0.05942601 -0.19295411 -0.17850515
0001b0 96 a0 ea bc 28 c6 2e be 8a 43 93 be ff cd ab be
       -0.028641026 -0.17067778 -0.28762466 -0.335556
0001c0 cf 57 a4 bd 68 94 59 be 9e c6 0a be 93 a0 f3 bd
       -0.08024561 -0.21248019 -0.13552329 -0.118958615
0001d0 0d 94 c1 3d 0e 0e 62 bd fb 97 8b be 00 c6 b0 be
       0.094520666 -0.055189185 -0.2726439 -0.34526062
0001e0 97 ac 12 3e 78 d1 95 bc 56 6c 82 bd 48 ed fa bd
       0.1432365 -0.018288359 -0.0636832 -0.12252289
0001f0 d0 73 6b be 19 e6 38 be af 24 b0 3b 55 22 33 bd
       -0.22993398 -0.18056525 0.005375467 -0.043733913

lstm.bias_hh_l0 f4 [128]
000000 6d 2e 51 3d 02 88 b7 3d 06 99 c2 bc 2c b5 9d 3d
       0.051069666 0.08961488 -0.023754608 0.077005714
000010 54 81 43 3d 06 56 8d be 88 ea f0 be 03 cb 0f 3e
       0.04773076 -0.27604693 -0.47053933 0.14042287
000020 b7 32 1b be 99 a2 60 be d4 cf a1 3d 92 a6 be bd
       -0.15156065 -0.21937026 0.07900968 -0.093091145
000030 7c 65 bb bd 6f e8 b9 3c 7e a1 5c be a3 2b f9 be
       -0.09150216 0.02269384 -0.2154598 -0.48666105
000040 2d ee c4 bb b1 8c cf bd 8e 90 e7 bd 98 6e 8a be
       -0.006009838 -0.10134257 -0.113068685 -0.270375
000050 b5 0c d0 3d a7 be b3 be fe e3 a9 bc 68 a0 1a be
       0.10158674 -0.35106394 -0.020738598 -0.15100253
000060 0b 6a 77 be 09 67 4a bd be 59 96 3d 41 02 9e 3d
       -0.24161546 -0.04941467 0.07341336 0.07715274
000070 9e 72 02 3e 0b 20 47 3e fa cd 5a 3d 10 a2 75 3e
       0.12739035 0.19445817 0.05341909 0.23987603
000080 cd 0c 2e 3e 34 2e 9b bd ba 16 18 be eb 45 49 be
       0.1699707 -0.07577172 -0.1485242 -0.19655578
000090 3f a4 13 be ff 3e 6a bd 55 3f cc be b1 ac b3 bc
       -0.14418124 -0.057188984 -0.39892069 -0.021932932
0000a0 04 6d eb 3d a4 6f 83 3c cc fc d9 3d 94 1d 93 be
       0.114954025 0.016044445 0.1064392 -0.28733504
0000b0 f3 95 75 bd 6d a1 61 be 63 06 9e be b7 1e a2 be
       -0.059957456 -0.22034235 -0.30864248 -0.3166406
0000c0 bd bb b8 be 7b 6b 55 3e ab 8d ff 3c 43 b4 bc be
       -0.36080733 0.20841782 0.031195482 -0.3685628
0000d0 e4 fd ba 3d 8a e5 c1 bd 47 17 fd be 61 36 6b be
       0.09130457 -0.09467609 -0.49431822 -0.22969963
0000e0 f3 27 20 3d 4a 25 46 3e fd 54 b0 be 25 55 94 be
       0.0391006 0.19350162 -0.3443984 -0.2897121
0000f0 c6 a3 f7 3d b4 79 33 3d 6d 5b 00 be ad b7 3a 3e
       0.12091784 0.043817237 -0.12534876 0.18234129
000100 32 6e 40 bd d1 d2 50 be c3 b0 20 3e 4c be d3 3d
       -0.04698009 -0.2039292 0.15692429 0.103390306
000110 5a 25 25 3b d5 59 09 be f9 7a 2e 3e 26 48 b3 bc
       0.0025199265 -0.13413174 0.17039098 -0.021884989
000120 04 2a f9 3d 34 8f 08 be c1 19 b5 bb 0a 87 3b 3e
       0.12166217 -0.13335878 -0.0055267517 0.18313232
000130 4a 7d 4c bc 00 05 a0 bc ca 04 00 be 81 4d e9 bc
       -0.012481043 -0.019533634 -0.12501827 -0.02847934
000140 78 3c 37 3c e5 46 b6 bd eb 6e 2f bc d0 b3 89 3d
       0.0111838505 -0.08900241 -0.010707597 0.0672375
000150 43 a6 93 bd 19 3e 5d 3d 06 16 19 3e 84 1d 8f bc
       -0.07209446 0.0540143 0.14949808 -0.017470129
000160 15 07 0e be 49 40 1a 3e 46 cf 9f be cf 98 d6 bc
       -0.13869889 0.15063585 -0.31212825 -0.026195912
000170 9f 4d da 3d 28 43 12 be 32 2a 8e 3c 79 6e 2b bc
       0.10659336 -0.1428343 0.017354105 -0.01046335
000180 a4 86 df 3d 25 6a f8 3d 2d 37 34 be b7 be c2 3a
       0.109143525 0.121296205 -0.17599173 0.0014857863
000190 d0 64 29 3d 41 81 45 be 09 d6 0d bf fb 4e f0 bd
       0.041355908 -0.19287588 -0.55404717 -0.11733814
0001a0 2d 7d 95 bd e3 79 6e be 82 eb 8f bd c0 a8 7f bd
       -0.07299266 -0.23288684 -0.070273414 -0.062416792
0001b0 d8 bf 55 be 55 92 0e be 1e 8c e6 be 37 36 96 be
       -0.20873964 -0.13923009 -0.45028776 -0.29338238
0001c0 43 2e ae bd 76 48 86 bd 3a 09 cc bd d0 e2 5f be
       -0.085049175 -0.065567896 -0.09962697 -0.21863866
0001d0 0a 27 1f 3c 88 03 60 bd d3 ed 78 be ba 0f b4 bd
       0.0097138975 -0.054690868 -0.24309473 -0.08792062
0001e0 bc d9 8f bd 28 15 43 3d 20 48 f1 3d 1b 8e 46 3d
       -0.070239514 0.047627598 0.11781335 0.048475366
0001f0 f7 c5 89 be f8 f3 5c bd 4b 1f 70 be 50 91 3d be
       -0.26908848 -0.053943604 -0.23449437 -0.18512464

hidden2out.weight f4 [3, 32]
000000 7a c9 0c bd a2 86 42 3e 88 b5 ea bd dd d0 bb bd
       -0.03437183 0.18996671 -0.114604056 -0.09170697
000010 06 6b c3 3c 83 8e 61 bd 95 c5 a1 bd b3 68 18 be
       0.023854744 -0.05506755 -0.07899014 -0.1488369
000020 e5 fe 37 3d 0d 7f 42 3e 4c 96 36 3e c1 df 2a be
       0.04492082 0.18993779 0.17830771 -0.16686918
000030 61 41 5c 3d 99 95 d2 bd fa cf ed 3d 1c d4 2d be
       0.053773288 -0.1028244 0.11611934 -0.16975445
000040 54 08 de 3b fc d6 9d bd 78 57 0f 3e 63 0b c5 3c
       0.006775895 -0.07707021 0.1399821 0.024053281
000050 f0 c9 50 3e d8 bb fd 3d 44 eb 67 be f3 e7 07 bd
       0.20389533 0.12389344 -0.2264834 -0.03318019
000060 9e b8 25 3e c7 78 0d be 7c a2 d9 3b f4 40 00 3e
       0.16183707 -0.13815604 0.006641684 0.12524778
000070 a5 b6 7e bd 0a fb 2f 3e fe 45 0a be 01 f0 52 bd
       -0.062185902 0.17185608 -0.13503262 -0.051498417
000080 78 e6 2d be 8b 9a c4 3d 23 a0 b6 bd 20 96 dc bd
       -0.16982448 0.09599789 -0.089172624 -0.107708216
000090 23 73 02 3e fc 9d 2e bd 85 f5 16 bd b1 84 58 bd
       0.12739234 -0.042631134 -0.03685524 -0.05286092
0000a0 7d 12 34 3d d3 30 b7 bd 0e 92 22 3e 08 7f ef bc
       0.043962944 -0.08944859 0.15876028 -0.029235378
0000b0 47 52 0c be 60 ba 03 be 43 c6 11 3d 21 af 85 3e
       -0.13703261 -0.12864065 0.035589468 0.26110175
0000c0 e6 26 e6 bd 85 ba c2 3d d4 08 2c 3e 92 b2 02 3d
       -0.11237888 0.09508232 0.16800243 0.03190858
0000d0 ec 86 ac bd e4 b8 75 3a 49 35 51 3e ad 66 ce 3c
       -0.08424172 0.0009373559 0.20430483 0.025195444
0000e0 d8 82 cb bd 98 4c 8e 3c 8b 4f 54 be 5c b3 56 3e
       -0.09937066 0.017370507 -0.20733468 0.20966858
0000f0 79 62 ad 3d 56 29 2c 3d 60 95 f0 bd 12 49 bd bd
       0.08466048 0.04203161 -0.11747241 -0.09242453
000100 17 8f 98 3d ac 78 44 3d 9a 75 bb 3d 83 cc bf 3b
       0.07449167 0.047966644 0.0915329 0.005853237
000110 c8 5a 10 3e 36 e5 31 bd 98 14 8f bd a4 53 0a be
       0.1409713 -0.043431483 -0.0698635 -0.13508469
000120 75 7f 6c 3c 8d 6e 1b be a9 b4 75 3d 55 df 9d 3e
       0.014434685 -0.1517889 0.059986744 0.3083445
000130 7e 16 d4 3d bd f0 f1 bc 92 27 3d 3d 84 aa 38 3e
       0.103558525 -0.029533738 0.046180315 0.18033797
000140 28 23 8c 3d 3a a5 69 bd 69 af e5 bd e4 24 88 3d
       0.06842643 -0.057042338 -0.112150975 0.06647661
000150 a5 fc c1 bd a8 d4 7e bc e7 47 0a 3f e3 d6 33 bd
       -0.09472016 -0.015553631 0.54015964 -0.043906104
000160 d3 56 8a bd d4 74 d0 3a 09 70 fc 3d 73 86 89 bd
       -0.06754842 0.0015903958 0.123260565 -0.06715097
000170 20 db e5 3d 37 6e 91 bd ed 7b cc 3d d2 cb 39 be
       0.112234354 -0.071011 0.099845745 -0.18144158

hidden2out.bias f4 [3]
000000 a5 97 21 3d 1b 50 cf bd e1 a8 e0 bd
       0.03945126 -0.10122701 -0.10969711

std_layer.weight f4 [3, 32]
000000 7f 0b 32 3e e2 84 96 3d 25 0d 18 be e1 e4 1e be
       0.17387198 0.07349564 -0.14848764 -0.15516998
000010 60 9d 1a bc 42 df e8 3d 3e 54 c9 3d 20 fe fe 3b
       -0.009436935 0.11370708 0.09830521 0.007781759
000020 98 df bb 3c a7 ea 05 be d6 c1 dc 3d 80 74 9b bc
       0.022933766 -0.13077794 0.10779159 -0.01897645
000030 7d c5 11 be cc 33 05 be 38 29 15 bd 2c 0a e4 bd
       -0.14235492 -0.1300804 -0.036416262 -0.11134753
000040 72 64 69 bd e9 a0 30 3e 40 08 f9 3b f2 7e c4 bd
       -0.056980558 0.17248882 0.0075998604 -0.095945254
000050 8f 20 0d 3e 8d 06 28 3e e0 b7 8c 3c 80 3b 91 bb
       0.13781951 0.16408749 0.017177522 -0.004432142
000060 80 a6 ab 3c a8 f0 11 bd f0 6c 06 3d a0 a3 61 3d
       0.020953417 -0.0356299 0.032818735 0.055087686
000070 bb a1 08 3e 82 63 aa 3d 38 45 0e 3d d0 18 5a bc
       0.13342945 0.08319761 0.03473398 -0.01331158
000080 53 3d 0a 3e 8c e0 92 3d d0 7c 65 3d 8a f6 f7 3d
       0.13499956 0.07171735 0.056027234 0.121075705
000090 bc 7f 15 3d a4 55 4a bd 34 eb 38 3d de ec b3 bd
       0.03649877 -0.04939808 0.045146182 -0.08785413
0000a0 e6 ec dd 3d da ea 66 bd 0c 19 25 3d e8 f2 4a 3d
       0.108362004 -0.056376316 0.04030709 0.04954806
0000b0 a6 88 07 be ef 22 17 be 46 d4 f8 3d 81 b2 32 be
       -0.13235721 -0.1475942 0.12149863 -0.17450906
0000c0 e8 71 7d bd 1a bc ce 3d f0 f7 33 3d 19 70 2d 3e
       -0.061876208 0.10094471 0.043937624 0.16937293
0000d0 52 96 31 be b0 99 7b 3d 79 6c 89 bd 36 1a 97 3d
       -0.17342499 0.061425865 -0.06710143 0.07378046
0000e0 7d 8b 04 3e 62 33 f5 3d f1 73 33 be 57 22 80 bd
       0.12943836 0.11972691 -0.17524697 -0.0625655
0000f0 ee 73 fd 3d a2 7f 87 3d 84 26 13 be aa 9f de 3d
       0.123756275 0.06616141 -0.14370161 0.10870297
000100 ee b0 fb 3d 48 bb af bd 3c 10 58 bd a3 69 02 be
       0.12289606 -0.08580643 -0.052749857 -0.1273561
000110 42 0a 09 be 01 49 a7 bd ac 5d 29 bd c0 79 8b 3b
       -0.1338282 -0.08168221 -0.041349098 0.004256457
000120 c6 0b dc 3d 27 46 22 3e 10 79 9e 3c 7e b3 d6 3d
       0.10744433 0.15847073 0.019344836 0.10483454
000130 42 d0 d7 3d 40 b5 0d 3d bb 6f ab bd 42 6f 91 3d
       0.10537769 0.03459668 -0.0837092 0.07101299
000140 08 de e1 3c 8a a7 0f be f6 ce 63 bd ac ec 8d bd
       0.027571693 -0.14028755 -0.055617295 -0.06929907
000150 28 a5 7d 3d f5 89 a7 bd 2a e1 97 3d 10 ac 20 bc
       0.061925083 -0.0818061 0.074159935 -0.009806648
000160 60 5e f7 bc 78 b6 8b 3d 12 2b dd 3d 8c bf 5e 3d
       -0.030196369 0.068219125 0.10799231 0.054381892
000170 c0 68 f7 3c e0 bd 31 bc 04 4e 01 bd 32 e0 b0 3d
       0.030201316 -0.010848492 -0.031568542 0.08636512

std_layer.bias f4 [3]
000000 44 db 13 bd 09 36 09 3e 92 a3 e4 3d
       -0.03609778 0.13399519 0.11164011

exp_avg f4 [128, 12]
000000 5d 67 40 37 0e 9e 18 b7 07 b7 03 b8 b8 a1 46 38
       1.1468158e-05 -9.096706e-06 -3.140329e-05 4.735749e-05
000010 fd a1 af 38 a1 cf 71 38 f6 67 ab b8 85 e3 bb b8
       8.374823e-05 5.7652247e-05 -8.17328e-05 -8.959234e-05
000020 3e 53 6d b9 97 f1 69 b8 18 71 d6 b9 64 ba 50 ba
       -0.00022633091 -5.5776527e-05 -0.00040901522 -0.00079623447
000030 6a 8a 69 b9 94 92 f5 b9 5c 69 6e b8 15 45 fa 39
       -0.00022272175 -0.0004683925 -5.6841745e-05 0.00047735186
000040 1f e2 1b b9 6c 5a 06 bb 40 5c 22 ba 31 00 7a b7
       -0.00014866189 -0.0020500673 -0.0006193556 -1.4901206e-05
000050 0b ec 4d b9 84 3f cb ba fb fa 02 bb db 76 00 bb
       -0.00019638256 -0.00155066 -0.0019986022 -0.0019602093
000060 9a d4 a9 39 fa 1a ba 39 46 89 01 39 70 cf 8f 37
       0.00032392592 0.00035496784 0.00012353537 1.7143524e-05
000070 8e 32 f9 39 83 09 f2 3a cf 86 4d b8 b2 e6 f8 38
       0.00047530647 0.001846597 -4.900136e-05 0.00011868532
000080 cb c0 00 3a 54 7b 09 3b 57 1c 0a 3b 1d 06 2a 3b
       0.0004911541 0.002097805 0.002107402 0.0025943585
000090 12 63 ec 36 0b a9 22 38 d0 41 f8 b7 a9 62 70 36
       7.0448814e-06 3.8781243e-05 -2.959455e-05 3.5820215e-06
0000a0 eb 54 b5 37 44 54 c8 37 e2 ba 40 b8 3e e6 e7 b8
       2.1616424e-05 2.3881097e-05 -4.5950415e-05 -0.00011057824
0000b0 65 52 b2 b8 5b ed 7f b9 48 b3 c8 b9 34 34 e6 b8
       -8.5030486e-05 -0.00024407117 -0.00038280548 -0.00010976978
0000c0 ed 15 d6 38 45 f5 c5 38 0b ae 06 39 8e be 1a b9
       0.00010208399 9.439377e-05 0.00012844072 -0.00014757572
0000d0 76 fd 06 38 82 30 80 3a e8 7a 12 39 ae e1 e0 38
       3.2184143e-05 0.0009780081 0.00013969431 0.000107231885
0000e0 ff d0 65 39 76 ea 19 3a 3c b4 1b 3a 9b ad 99 3a
       0.00021916999 0.0005871424 0.0005939638 0.0011724712
0000f0 c4 7e 9a b6 b2 9b 38 34 94 55 81 37 59 31 e6 b7
       -4.604315e-06 1.7192977e-07 1.5417849e-05 -2.7441116e-05
000100 a7 bb a0 b7 1c 17 8e 38 9a 05 39 38 22 97 e9 37
       -1.9160869e-05 6.775392e-05 4.4112654e-05 2.7846141e-05
000110 ec a5 78 37 bb 6e 12 38 13 fb 9e 38 39 fd a7 37
       1.4820584e-05 3.491224e-05 7.580793e-05 2.0025867e-05
000120 0d 53 14 32 b1 d3 3a 32 d6 8d 52 33 87 72 0a b1
       8.633617e-09 1.0874758e-08 4.9023434e-08 -2.0146744e-09
000130 de 1d 9a 33 83 45 67 34 1a 1d 0d 33 1d 66 e6 32
       7.1766166e-08 2.153884e-07 3.285559e-08 2.682196e-08
000140 dc d4 a2 31 8c bf a9 b1 d6 5c a3 b3 a6 55 62 32
       4.73902e-09 -4.9403237e-09 -7.607166e-08 1.3174406e-08
000150 b7 0c 82 39 a6 98 36 3a 93 52 38 3a 85 18 c2 ba
       0.00024805006 0.00069654954 0.00070313475 -0.0014808333
000160 0c 3a 02 ba de 73 b0 3b 65 c1 b0 3a ac 23 88 3a
       -0.0004967756 0.005384906 0.001348537 0.0010386608
000170 75 6d a2 3a f4 89 6e 3b b5 dc bf 3b 5b 5e dc 3b
       0.001239224 0.0036398144 0.0058551678 0.0067251152
000180 2a 02 dc b6 8d 9c 4f 37 fb 98 4c 37 0d 23 5f b8
       -6.556763e-06 1.2374611e-05 1.2194966e-05 -5.3199987e-05
000190 5e 6a f0 b6 71 31 d9 38 64 57 1b 39 bc 87 c9 37
       -7.16494e-06 0.000103565755 0.00014814507 2.4024273e-05
0001a0 1a 97 f8 37 a4 ba 86 38 6d f6 3c 39 16 59 0e 39
       2.9634266e-05 6.4243824e-05 0.00018020878 0.00013575362
0001b0 45 4c 04 39 44 bd 11 39 51 f4 f9 37 e1 e8 f9 b8
       0.00012616914 0.00013898785 2.9796882e-05 -0.00011916622
0001c0 1a f2 2d 39 7f 82 3e 3a 14 0a 28 38 d6 64 13 b8
       0.00016588756 0.000726737 4.0063707e-05 -3.5141442e-05
0001d0 45 fa cc b8 fb a1 d0 b8 cb 18 9c b9 ea ca c7 38
       -9.774094e-05 -9.948384e-05 -0.0002977311 9.526855e-05
0001e0 68 92 2a 39 ec a0 a0 39 76 8b c9 39 17 52 76 ba
       0.00016267004 0.00030637474 0.00038441614 -0.00093963876
0001f0 b3 fb ce b9 39 4d 43 3b fe 0e b7 3a 0e 76 14 3a
       -0.00039478912 0.0029800667 0.001396626 0.00056633435
000200 d7 28 21 3a ea 14 04 3b 8c 52 5d 3b 9d 61 48 3b
       0.0006147748 0.0020154067 0.0033771126 0.003057576
000210 0f 80 ae 3a 90 c2 bc 3a 15 0a d7 39 ca df 37 39
       0.0013313311 0.0014401246 0.00041015507 0.00017535608
000220 21 c3 0d 3b 8a bf f0 3b 73 34 1e 3a 83 1e 0a 3a
       0.0021631198 0.007347052 0.0006035037 0.0005268829
000230 11 e9 b9 3a 7c 66 f2 3b e0 b3 fa 3b b8 c2 1f 3c
       0.0014183839 0.007397471 0.0076508373 0.009751014
000240 e8 db 70 39 65 0f cb 39 05 2e 5c 39 ef f0 da b9
       0.00022970105 0.00038730647 0.00020997979 -0.0004175971
000250 5e 21 f4 38 4b 2d 14 3b 29 69 d2 39 ea 9f 8e 39
       0.00011641042 0.0022610005 0.00040132672 0.00027203496
000260 a1 c1 10 3a 5e cf f4 3a 83 53 23 3b 79 ad 5c 3b
       0.0005522017 0.0018677523 0.0024921603 0.0033672734
000270 17 55 5a 3a b3 3c 4c 3a cc 8f 1e 38 c1 4a 51 39
       0.00083287194 0.00077910273 3.7804057e-05 0.00019959641
000280 a5 f7 9b 3a 50 34 4a 3b 8a 16 15 ba 19 65 a9 b9
       0.0011899365 0.0030853935 -0.00056872575 -0.00032309516
000290 42 42 35 3a af d6 85 3b ca 0b 60 3b 1c 66 74 3b
       0.0006914475 0.00408443 0.0034186714 0.0037292307
0002a0 1b 0a 2d 32 61 0f 34 33 fc 0e 93 b2 c7 40 54 b3
       1.0072223e-08 4.1923503e-08 -1.7119866e-08 -4.941901e-08
0002b0 0f 8f e4 b2 be ff 55 34 a6 ff 98 33 cc 91 27 b2
       -2.6607749e-08 1.993021e-07 7.124554e-08 -9.75383e-09
0002c0 69 23 76 b3 ab 81 01 33 fe 9d 11 b2 3b 0d 9f 33
       -5.7308544e-08 3.0153085e-08 -8.476034e-09 7.406421e-08
0002d0 22 71 49 b8 27 1e 1d b8 ad d6 a0 b5 ee a4 5c b8
       -4.8027498e-05 -3.74598e-05 -1.1983408e-06 -5.260569e-05
0002e0 e6 95 8f b8 ad 71 2d b9 c0 fa c2 b8 0f 83 00 37
       -6.846692e-05 -0.00016540913 -9.297347e-05 7.659909e-06
0002f0 93 54 f8 b8 fa 9b 2a ba 7a 23 48 ba ac b1 aa b9
       -0.00011841315 -0.00065082277 -0.0007634681 -0.00032557303
000300 02 fd 04 b7 96 bc 01 b7 b6 86 bd b4 4c ab 15 b6
       -7.926721e-06 -7.732908e-06 -3.5302008e-07 -2.2302438e-06
000310 90 5f 22 b7 09 fb ea b7 ed b9 9c 36 7a 4c 4e 36
       -9.678202e-06 -2.8011871e-05 4.670807e-06 3.0740907e-06
000320 f2 51 ac 36 87 cb 1d 37 2c 99 17 38 e6 2e 69 b7
       5.135539e-06 9.405317e-06 3.6143858e-05 -1.3898802e-05
000330 1d f9 55 b8 1f 00 6a b8 5e 27 b6 38 b0 b2 99 b8
       -5.1015162e-05 -5.579006e-05 8.685769e-05 -7.328892e-05
000340 7f 3b 99 b8 fc 5d d2 38 e8 a7 31 38 0e 48 dd 38
       -7.3066905e-05 0.00010031086 4.2356463e-05 0.000105515224
000350 5d e7 00 39 0e c7 ca 37 a5 4d 17 39 c1 92 15 39
       0.00012293221 2.4172969e-05 0.00014429407 0.00014264417
000360 a7 40 b9 39 68 0d d9 39 86 ca 17 39 ae 40 02 b8
       0.0003533412 0.00041399454 0.00014475928 -3.1054653e-05
000370 9f 1e 04 3a ca d5 07 3b 35 29 7f 38 18 ad 0d 39
       0.0005039963 0.0020726793 6.0835115e-05 0.0001351129
000380 06 ab 0d 3a b0 45 1f 3b f3 f0 2b 3b f2 df 44 3b
       0.00054042076 0.0024303012 0.0026236146 0.0030040708
000390 ca 76 37 35 ec 44 41 35 4d 2e b6 b5 47 4a 01 35
       6.8345673e-07 7.19984e-07 -1.3573532e-06 4.816433e-07
0003a0 27 c0 16 32 95 7c 9d b5 25 8b bd 34 ea 74 40 b4
       8.7748395e-09 -1.173367e-06 3.5305234e-07 -1.7923927e-07
0003b0 aa 7e 21 b5 21 20 24 36 6e 3d 6e 36 21 1f 64 35
       -6.0161494e-07 2.4456606e-06 3.550052e-06 8.498192e-07
0003c0 37 85 b9 b8 5e e8 53 b9 17 cf 70 b8 9d b1 70 39
       -8.8463006e-05 -0.00020209092 -5.7413326e-05 0.0002295435
0003d0 f9 e5 92 36 51 95 82 ba d7 7c 93 38 75 d4 48 39
       4.3779114e-06 -0.0009962713 7.0327595e-05 0.00019152633
0003e0 34 50 40 39 c8 57 1c 37 44 0d 9c 39 00 bf af b9
       0.00018340425 9.318763e-06 0.00029764522 -0.00033520907
0003f0 27 ab 9f b6 f4 e8 40 b7 68 76 4b b8 04 51 b1 38
       -4.758494e-06 -1.149833e-05 -4.8509246e-05 8.455108e-05

exp_avg_sq f4 [128, 12]
000000 41 db 2a 34 c9 89 14 35 d0 e7 df 36 2e e5 01 38
       1.5912248e-07 5.53348e-07 6.6729044e-06 3.0969437e-05
000010 a0 d4 cd 37 44 ae 63 39 2a f7 f4 36 4c f5 84 37
       2.4536916e-05 0.00021713326 7.3005403e-06 1.5849851e-05
000020 14 27 71 36 23 a4 34 38 d4 fd 59 39 59 f9 ea 38
       3.5934545e-06 4.306821e-05 0.00020789291 0.00011204434
000030 18 48 27 34 5a c2 86 35 83 22 99 35 92 91 db 36
       1.5579315e-07 1.0040342e-06 1.1409433e-06 6.543655e-06
000040 cd 91 14 36 0c 01 74 38 cb b4 87 36 1d 36 4a 36
       2.2138586e-06 5.817511e-05 4.0443606e-06 3.0131844e-06
000050 3a 22 b7 35 96 79 c9 37 fc fa 97 38 b2 d7 18 38
       1.3644524e-06 2.4017685e-05 7.2469906e-05 3.6440506e-05
000060 ea 8a 41 35 d1 45 7f 35 d8 05 b1 35 4d 3e 5b 36
       7.210025e-07 9.50965e-07 1.3189228e-06 3.2669807e-06
000070 68 b8 75 36 06 f3 12 38 e3 25 e8 35 17 01 c8 35
       3.6615183e-06 3.5035446e-05 1.7296373e-06 1.4901478e-06
000080 37 68 c9 35 ad 49 b3 37 9a f7 24 38 39 8c 0d 38
       1.5005998e-06 2.137277e-05 3.9331244e-05 3.3747612e-05
000090 14 26 b7 32 9c 2f 05 34 54 0d 8e 34 ca 96 03 36
       2.132132e-08 1.240391e-07 2.645926e-07 1.9608292e-06
0000a0 ab ca be 35 a5 72 61 37 b8 5f e2 34 8a c1 6a 35
       1.4215087e-06 1.3437738e-05 4.2165425e-07 8.745343e-07
0000b0 54 a6 d9 33 f7 e0 2b 36 cd 0c 51 37 d3 25 d2 36
       1.0135105e-07 2.5611932e-06 1.2460351e-05 6.262891e-06
0000c0 14 d5 e7 35 90 bf f9 35 df fe cf 35 08 84 0d 36
       1.7272855e-06 1.8607698e-06 1.5496879e-06 2.108749e-06
0000d0 7c 85 a8 36 9d 57 48 37 a4 62 fd 34 f1 00 a0 35
       5.02233e-06 1.1941328e-05 4.7196693e-07 1.1921203e-06
0000e0 d2 95 12 35 75 40 6b 37 bf e4 98 37 6b cd 37 37
       5.4607256e-07 1.4022099e-05 1.822633e-05 1.0955478e-05
0000f0 6c 8e b8 31 8d 9a a8 31 28 1a e1 31 a7 84 c9 32
       5.3712963e-09 4.907014e-09 6.5513355e-09 2.3459803e-08
000100 e3 0d 08 33 b6 c7 0c 34 a4 b8 c1 31 21 93 50 32
       3.1677597e-08 1.311117e-07 5.6380305e-09 1.2140647e-08
000110 e8 93 5b 31 2b 47 a7 33 e6 12 04 34 be 95 ef 33
       3.195277e-09 7.789489e-08 1.2300333e-07 1.1156543e-07
000120 1a e1 93 2a 15 29 95 2a 5b 54 03 2b 3a 9d 65 28
       2.626864e-13 2.6496223e-13 4.6657616e-13 1.2746147e-14
000130 98 ad e7 29 74 75 08 2b e0 86 ac 28 26 06 93 29
       1.02885745e-13 4.8479905e-13 1.9154329e-14 6.529178e-14
000140 fd 83 ec 2a 66 25 9c 28 46 12 1f 2a 97 53 91 28
       4.2013607e-13 1.7335698e-14 1.4128377e-13 1.6134485e-14
000150 15 d6 43 34 60 59 e4 35 88 87 44 36 6e d7 5f 37
       1.8238673e-07 1.7013335e-06 2.9285166e-06 1.3341994e-05
000160 70 8e b4 36 05 f3 fa 38 e1 37 d0 36 f6 4e bd 36
       5.381e-06 0.00011966195 6.205388e-06 5.641831e-06
000170 56 a4 65 36 6b 16 44 38 26 c4 0d 39 66 99 c4 38
       3.4219315e-06 4.675092e-05 0.00013519879 9.374581e-05
000180 f6 5d 53 33 57 53 0d 33 97 82 ed 32 10 07 8b 34
       4.9212723e-08 3.2904918e-08 2.7649817e-08 2.5895906e-07
000190 ec 44 5d 34 5c b8 b7 35 7d 73 bf 33 3c 5d e1 33
       2.0607303e-07 1.3688218e-06 8.915138e-08 1.0494338e-07
0001a0 bc a6 0a 33 26 1e 73 35 9c c7 d6 35 89 92 92 35
       3.2282273e-08 9.0568426e-07 1.6002336e-06 1.0920495e-06
0001b0 81 4d bb 34 b3 f1 fe 34 13 b0 0e 33 d0 bb c3 34
       3.4887856e-07 4.7487046e-07 3.322209e-08 3.6458232e-07
0001c0 e6 8d 15 35 43 38 3f 37 e8 fd f5 32 39 69 80 34
       5.5713315e-07 1.1397587e-05 2.8637217e-08 2.3918417e-07
0001d0 98 f6 3e 34 27 78 0a 36 5b ad 64 36 e2 96 c1 34
       1.7784839e-07 2.063354e-06 3.4075554e-06 3.6058833e-07
0001e0 c8 3b 8a 36 11 8a 46 36 e0 33 03 36 f4 32 1f 37
       4.11968e-06 2.9584664e-06 1.9550716e-06 9.489002e-06
0001f0 98 60 5e 37 99 db 5e 38 49 d3 6c 36 12 79 8d 36
       1.3254721e-05 5.313344e-05 3.5289725e-06 4.216222e-06
000200 cc 1b cd 35 15 9d 7b 38 c7 7e 92 38 4c 77 41 38
       1.528178e-06 5.9989357e-05 6.9854366e-05 4.612589e-05
000210 e3 47 32 36 13 c1 45 36 86 96 1b 34 49 fe 9c 35
       2.656591e-06 2.9467672e-06 1.449026e-07 1.1696912e-06
000220 a3 2c 21 37 d1 a3 7b 38 ca f9 85 35 31 f7 92 34
       9.606741e-06 5.999563e-05 9.98197e-07 2.7374475e-07
000230 6c 22 d9 35 56 58 a5 38 cc 5d ab 38 27 49 a1 38
       1.6177778e-06 7.884267e-05 8.1713864e-05 7.690704e-05
000240 51 53 aa 34 1b 92 20 35 44 4c 47 34 cd d0 cb 35
       3.1725588e-07 5.9817256e-07 1.8561065e-07 1.5185448e-06
000250 62 6f e7 34 af 42 cf 37 de 2c 94 35 7d 1f c6 34
       4.3108145e-07 2.4707375e-05 1.1039917e-06 3.6903285e-07
000260 08 7a 6a 35 24 68 9c 37 bc 84 df 37 27 04 e2 37
       8.734937e-07 1.8645143e-05 2.664548e-05 2.6943233e-05
000270 8e 90 5f 37 66 f6 06 37 a5 3f f9 35 c8 1c 6f 37
       1.3325493e-05 8.0443915e-06 1.8570469e-06 1.4252211e-05
000280 01 62 be 37 07 9a 8a 39 66 d8 83 37 e3 e3 a9 36
       2.2695402e-05 0.0002643617 1.5717185e-05 5.063122e-06
000290 57 37 00 37 35 b3 a4 39 ba 10 be 39 94 a1 83 39
       7.642279e-06 0.00031414037 0.00036252086 0.00025106652
0002a0 80 28 24 2d db a1 26 2d 02 0c 9b 2d 42 f7 33 2b
       9.3313135e-12 9.471947e-12 1.7626792e-11 6.3936714e-13
0002b0 56 89 4b 2b 34 53 25 2c 74 4b ce 2a 1a 2c 2a 2c
       7.231068e-13 2.3494097e-12 3.6645307e-13 2.4182934e-12
0002c0 9f 60 88 2d 50 d8 0c 2b df 86 87 2b 23 22 9e 2b
       1.5504318e-11 5.0038185e-13 9.629761e-13 1.123605e-12
0002d0 84 6e 9d 34 a4 85 a4 34 e8 a8 19 33 10 47 b3 33
       2.932394e-07 3.0644617e-07 3.5776708e-08 8.348263e-08
0002e0 36 e4 5f 35 e0 01 18 37 d4 9e a3 34 b3 04 3c 33
       8.3406064e-07 9.060343e-06 3.047668e-07 4.3776435e-08
0002f0 80 0b 39 34 f9 ee 41 37 8b d3 59 37 46 60 76 36
       1.7233651e-07 1.1559337e-05 1.2983462e-05 3.6712895e-06
000300 8d f8 8e 30 b2 d4 8f 30 55 91 08 31 c4 62 1b 32
       1.0402502e-09 1.0465071e-09 1.9873216e-09 9.044644e-09
000310 bf 0a 33 32 8b f2 aa 33 00 10 2d 31 28 8b 8f 31
       1.0421615e-08 7.96036e-08 2.5183908e-09 4.177668e-09
000320 67 64 a3 30 f1 9b 6b 32 65 2e 79 33 67 4a ef 32
       1.1888347e-09 1.3714257e-08 5.8017026e-08 2.7857096e-08
000330 54 71 bc 32 50 b2 05 33 a9 be 03 34 05 67 97 34
       2.1937616e-08 3.112865e-08 1.2269687e-07 2.8200898e-07
000340 5d af 9f 34 9b e0 a9 35 4d 50 eb 32 1d 3b 04 34
       2.9743651e-07 1.265685e-06 2.7394117e-08 1.2314963e-07
000350 a7 c8 bb 33 57 4a 35 34 3a ef 64 35 3b fa 53 35
       8.7443645e-08 1.6883983e-07 8.528474e-07 7.896776e-07
000360 bd c4 49 35 59 b5 23 35 aa f6 95 35 0f 19 34 36
       7.5164627e-07 6.098613e-07 1.1173154e-06 2.6836676e-06
000370 9e 3f 35 36 4a f6 26 38 3d 88 b8 35 e4 03 9c 35
       2.7008132e-06 3.980686e-05 1.3748719e-06 1.1624038e-06
000380 50 39 c8 35 89 3d f4 37 6d e4 36 38 71 f0 1e 38
       1.4917841e-06 2.9115721e-05 4.360492e-05 3.7894064e-05
000390 b2 2c b4 2d a9 85 ac 2d ca dd 14 2e 3d c0 0e 2d
       2.048348e-11 1.9613493e-11 3.3848292e-11 8.114451e-12
0003a0 7a 72 34 2d 5c d4 16 2f ec f4 c4 2b 43 d0 f7 2c
       1.0257234e-11 1.3717866e-10 1.3994617e-12 7.043284e-12
0003b0 c4 ba 10 2e 88 c1 83 2d 70 a9 4d 2e d2 a9 83 2d
       3.290769e-11 1.4978921e-11 4.6762094e-11 1.4968391e-11
0003c0 0b 3e 08 35 43 43 35 35 5c 1c 22 36 1f c4 49 36
       5.075423e-07 6.7525633e-07 2.4156388e-06 3.0065492e-06
0003d0 65 df 2e 36 c4 63 7b 37 61 9b c4 34 81 25 e6 35
       2.6058053e-06 1.4983994e-05 3.6620898e-07 1.714725e-06
0003e0 be 9f cf 35 57 33 8d 35 f3 4f 87 36 fa 90 fc 36
       1.5469193e-06 1.052026e-06 4.032621e-06 7.5270627e-06
0003f0 c5 06 7b 31 30 2a 1b 33 ac 52 e2 32 7b b3 0f 34
       3.6529155e-09 3.612712e-08 2.6347458e-08 1.3383207e-07

exp_avg f4 [128, 32]
000000 dd fd 84 36 3e 1e 30 b7 13 dc 1c 34 78 8a 83 b7
       3.96346e-06 -1.0497459e-05 1.4608695e-07 -1.5680896e-05
000010 9b 74 f7 b1 df 16 60 b4 47 1e 07 33 9a 00 82 b5
       -7.2019026e-09 -2.0869946e-07 3.1459674e-08 -9.68593e-07
000020 df 4c 91 b5 5e e5 22 b7 5f 13 35 b5 7b af d8 b3
       -1.0825714e-06 -9.709356e-06 -6.7455943e-07 -1.00902035e-07
000030 6b ad 2f 36 42 72 04 38 d5 53 46 b4 9f e5 b9 34
       2.6177975e-06 3.1577663e-05 -1.8470685e-07 3.4626007e-07
000040 97 e0 02 32 79 cf 3d b5 93 5b a5 b6 62 03 5c b4
       7.618062e-09 -7.07099e-07 -4.928044e-06 -2.0490327e-07
000050 00 35 a8 36 63 82 4e 37 85 21 9c 34 a3 c8 82 37
       5.01296e-06 1.2308915e-05 2.9081653e-07 1.5590636e-05
000060 d0 05 3d 36 a7 ce c2 36 36 20 f6 b6 6a b7 7a 35
       2.8166578e-06 5.805708e-06 -7.335121e-06 9.339916e-07
000070 87 37 8a 36 01 5d 4b 37 29 a2 0f b3 2b 45 ec 34
       4.1191847e-06 1.2121397e-05 -3.3442266e-08 4.4008752e-07
000080 ad bf 37 38 93 90 12 38 94 61 c7 b5 cb a7 4c 38
       4.3809112e-05 3.4943758e-05 -1.4855054e-06 4.879366e-05
000090 d9 db e5 35 17 80 da 35 d5 6c e3 32 4f 91 03 38
       1.7125814e-06 1.6279545e-06 2.647577e-08 3.1368163e-05
0000a0 9e dd a0 b7 dd 5c e1 34 18 94 66 b7 46 1e 7e b5
       -1.9176685e-05 4.1977083e-07 -1.3743549e-05 -9.466643e-07
0000b0 ea c5 2a b7 2d e2 36 b8 2b ef 21 b4 e0 c6 e6 33
       -1.017887e-05 -4.3602824e-05 -1.5081302e-07 1.0746385e-07
0000c0 63 3b 64 b5 5f 20 ee b7 b9 5b b6 34 0b 46 86 b4
       -8.502304e-07 -2.8386885e-05 3.396688e-07 -2.5010408e-07
0000d0 56 f7 34 37 80 a0 fc b5 2f 76 65 b5 59 ec 82 b7
       1.0786423e-05 -1.8822175e-06 -8.548113e-07 -1.5607266e-05
0000e0 8c 4c d6 b5 b7 fb a7 37 5e f3 0e b7 7b c7 64 38
       -1.596652e-06 2.0025165e-05 -8.520523e-06 5.4545217e-05
0000f0 20 fe cd b5 c0 02 ed b7 79 9e f8 38 ba f5 b8 36
       -1.534765e-06 -2.8253882e-05 0.00011855079 5.5122337e-06
000100 7b 6f 2a b6 5f 6e b7 36 b1 0c 40 37 e6 fb 9e b6
       -2.5396864e-06 5.466674e-06 1.1447047e-05 -4.738092e-06
000110 31 ee 41 36 3d 62 be 34 d4 b3 62 32 ba 58 2b b7
       2.8897887e-06 3.5461736e-07 1.31958195e-08 -1.02130525e-05
000120 4b d3 1b 37 e8 0b a6 36 32 4f 89 37 0f 53 17 37
       9.287915e-06 4.9485716e-06 1.636855e-05 9.01964e-06
000130 17 8c 0b 35 30 45 f1 37 a6 16 8e b3 22 5c 04 35
       5.198539e-07 2.8761657e-05 -6.61651e-08 4.93079e-07
000140 a4 47 8d b5 6a 7b ca 37 1b 71 87 b6 e8 e2 10 b4
       -1.0526169e-06 2.4137746e-05 -4.0364807e-06 -1.3493593e-07
000150 a1 a0 5e b7 64 bb 67 b6 02 21 64 37 97 79 60 b7
       -1.32696305e-05 -3.4530758e-06 1.3597544e-05 -1.337975e-05
000160 be 17 4a b7 0c 9b 2d 38 cc 48 a2 b6 f1 db 53 b5
       -1.2045666e-05 4.1390813e-05 -4.836451e-06 -7.892368e-07
000170 38 d9 b9 35 0f e8 d4 b6 e8 03 32 b8 80 d5 9b b7
       1.3846793e-06 -6.3451075e-06 -4.2442145e-05 -1.8576859e-05
000180 23 f9 31 b7 54 41 01 b7 3b 82 bd 34 35 4b f6 35
       -1.0608029e-05 -7.70421e-06 3.5298748e-07 1.8350316e-06
000190 81 bf 0e b5 e7 f0 41 b5 b1 8a c8 b2 8d 1b 5b b6
       -5.3177797e-07 -7.224866e-07 -2.3346134e-08 -3.264958e-06
0001a0 5b c2 67 36 fa 6d c1 b6 7f 11 d5 35 90 e2 aa 34
       3.4534812e-06 -5.764651e-06 1.5874829e-06 3.1829813e-07
0001b0 81 4e aa 36 e6 2b 70 37 d0 fa 08 34 f6 bd e4 34
       5.075534e-06 1.4315336e-05 1.2757232e-07 4.2606524e-07
0001c0 60 8c 46 35 6a a0 35 37 f1 59 da b5 00 7e 88 34
       7.396502e-07 1.082579e-05 -1.6268442e-06 2.542365e-07
0001d0 ad a2 af 35 37 5c 5b 36 ee 50 72 34 b3 f9 9a 37
       1.3085861e-06 3.268722e-06 2.2567448e-07 1.8474506e-05
0001e0 59 90 e8 35 c2 88 60 b6 f3 87 b1 36 43 87 aa 35
       1.7327358e-06 -3.3458205e-06 5.2908376e-06 1.2705353e-06
0001f0 fd 18 7d 36 29 01 0d 37 7e a2 51 37 60 e5 2a b6
       3.7714483e-06 8.404525e-06 1.2495204e-05 -2.5465488e-06
000200 5e a7 2e 37 84 ee da 36 f8 6d 6c 37 3e 8f c2 b6
       1.0410176e-05 6.524673e-06 1.40923e-05 -5.798326e-06
000210 8b 7f ba 36 21 0c 48 b5 79 be 80 b2 95 b9 29 b7
       5.55808e-06 -7.4523456e-07 -1.4987778e-08 -1.0116394e-05
000220 09 dc 87 36 d1 8b 29 b7 16 12 a3 37 e2 2f c3 36
       4.048929e-06 -1.01057385e-05 1.9439536e-05 5.817027e-06
000230 0e 2c cc 36 94 cc a9 37 d3 a8 c2 33 63 72 f1 34
       6.0848024e-06 2.0241634e-05 9.064538e-08 4.4972975e-07
000240 5c 58 9e 35 de 4e 1b 38 d5 66 07 b7 b1 cd 41 34
       1.1797633e-06 3.702833e-05 -8.0705695e-06 1.8049356e-07
000250 1e 5b 92 b7 f1 a4 95 b6 7b 43 be 36 41 82 74 37
       -1.7446986e-05 -4.4597477e-06 5.670297e-06 1.457386e-05
000260 60 41 32 b6 e9 9f 58 37 47 90 34 36 de 5a 48 37
       -2.656212e-06 1.2911835e-05 2.690607e-06 1.1942086e-05
000270 20 aa 44 37 56 1f 71 37 64 82 fa b7 5f f6 af b7
       1.1722121e-05 1.4372015e-05 -2.986304e-05 -2.0976351e-05
000280 39 02 0a 35 75 de a7 b4 3a b0 8f 35 55 0d a3 b5
       5.141224e-07 -3.1268033e-07 1.0705619e-06 -1.2148327e-06
000290 95 13 37 35 a1 53 da b3 a1 85 fe 2f 5a 3d 92 b5
       6.820131e-07 -1.0166628e-07 4.629728e-10 -1.0895703e-06
0002a0 0b 03 85 b4 b3 56 7f b5 65 ac b9 35 38 e4 c2 31
       -2.4775395e-07 -9.5121067e-07 1.3833748e-06 5.6720886e-09
0002b0 37 fa e2 33 53 c0 39 32 80 45 65 b1 ea c7 cb 33
       1.0569459e-07 1.0812147e-08 -3.3363392e-09 9.489288e-08
0002c0 34 02 01 34 68 2a 27 36 87 43 cd b4 2c 73 1d b1
       1.2014863e-07 2.4909623e-06 -3.8233358e-07 -2.2911975e-09
0002d0 d7 3c b6 b5 9f ad 9e b5 04 63 5e 33 34 49 61 35
       -1.3577763e-06 -1.1822448e-06 5.1778457e-08 8.3925556e-07
0002e0 9c 5c 96 b4 80 4f e9 b4 d0 ca 00 b4 0d 0d 1d 35
       -2.800706e-07 -4.3457476e-07 -1.1994712e-07 5.850605e-07
0002f0 ff 60 80 35 89 4c ce 35 9b 33 6a b6 44 f3 a1 b5
       9.564973e-07 1.5370471e-06 -3.4898756e-06 -1.2066234e-06
000300 b7 fd e2 31 8a 1d ec b1 a5 c4 bd 31 4c 79 e2 b1
       6.6063097e-09 -6.871862e-09 5.52298e-09 -6.5912555e-09
000310 a2 8b 81 31 8f ed b7 ae 2c 3b d2 2d 21 1f 84 b0
       3.7702685e-09 -8.3640754e-11 2.3900514e-11 -9.613111e-10
000320 3c 05 60 30 b0 a4 3e b2 b3 4a dd 31 fb 28 75 30
       8.1498164e-10 -1.1096901e-08 6.440439e-09 8.918872e-10
000330 22 46 8d 31 27 5f 53 32 d1 14 1e af 78 29 47 30
       4.1116133e-09 1.2303452e-08 -1.4377412e-10 7.245471e-10
000340 85 17 a6 30 44 60 4d 32 10 8c a5 b1 42 cf 1e af
       1.2084774e-09 1.1954459e-08 -4.8180553e-09 -1.4443649e-10
000350 b9 d0 da 30 54 99 bd b0 78 99 6d 30 fb d1 7d 32
       1.592091e-09 -1.3795138e-09 8.643819e-10 1.4774282e-08
000360 07 28 3b 31 7e dd 88 31 59 78 c8 b1 ec 8b 11 31
       2.7234834e-09 3.9833017e-09 -5.834448e-09 2.1179813e-09
000370 d0 b2 d0 31 0c 6f f6 31 57 bf 9f b2 e0 4a 15 b2
       6.0739254e-09 7.172167e-09 -1.8597047e-08 -8.689966e-09
000380 d2 6d a9 b6 19 77 81 33 91 51 4a 38 a5 cb 2b b7
       -5.0493773e-06 6.028694e-08 4.8236518e-05 -1.0239809e-05
000390 bf 6a a6 37 a5 e1 50 b6 47 5b ce 30 3c 6c aa b8
       1.983845e-05 -3.1125758e-06 1.5014415e-09 -8.126392e-05
0003a0 46 eb ab 37 53 89 75 35 2e b2 a4 38 60 92 14 37
       2.0494346e-05 9.1469445e-07 7.853318e-05 8.855568e-06
0003b0 48 ab 1c 37 25 0c 72 38 ba 19 04 b2 5e e7 f3 b3
       9.338204e-06 5.7708607e-05 -7.689261e-09 -1.1357655e-07
0003c0 fa 89 93 b4 24 54 18 39 1c ff 4e b7 39 10 85 b3
       -2.7481275e-07 0.00014527194 -1.2337954e-05 -6.196246e-08
0003d0 bf a5 b1 b8 74 85 09 b8 02 bc 07 37 77 5a 07 b6
       -8.47089e-05 -3.2787633e-05 8.090401e-06 -2.0169225e-06
0003e0 cd f6 26 b8 de bf ae 36 95 0b 1e 35 2d b9 01 b7
       -3.9807335e-05 5.2079404e-06 5.887644e-07 -7.732114e-06
0003f0 a4 12 ff 37 87 4d 7e 38 87 7d 15 b9 8c a4 83 b8
       3.0407049e-05 6.0630522e-05 -0.0001425651 -6.277216e-05
