models/drone/policy_ego_rotor_best_iter27.pth (torch, 80830 bytes, 20 tensors)

lstm.weight_ih_l0 f4 [128, 12]
000000 78 20 c8 3d 12 ea 02 be 99 0f 7c bd 77 96 b0 3d
       0.09771818 -0.12784603 -0.061538313 0.08622449
000010 57 4d 0d be ab 32 4b 3d 9f 84 bd bd 87 28 c0 3d
       -0.13799034 0.049608868 -0.09253811 0.0938273
000020 21 51 8a bd 59 45 34 be 1e de 95 bd e5 c9 cb bd
       -0.06753755 -0.17604579 -0.07317756 -0.09950618
000030 bf 19 f4 3c 83 c4 eb 3c 7a 9a da 3d 94 19 ca bc
       0.029797433 0.028780228 0.10673995 -0.0246704
000040 79 bc 06 bd 78 22 d6 3c a9 e3 47 3e 88 66 6b 3d
       -0.032894585 0.026139483 0.19520439 0.05747083
000050 12 5c 42 bc 3c 39 cf bd 10 f6 89 bb 1f 09 35 bd
       -0.011862772 -0.101183385 -0.004210241 -0.04419815
000060 ab 16 48 3d 2d 30 06 bd 95 a0 02 bd 90 83 f0 3d
       0.048849743 -0.032760788 -0.031891424 0.117438436
000070 2b 24 35 be 89 6e c9 3d f0 c2 a1 3d d0 cc 73 3e
       -0.17689578 0.09835536 0.078985095 0.23808599
000080 ab b4 0d 3e 83 42 f8 bd 3f c4 06 be 90 ca 62 bd
       0.1383845 -0.12122061 -0.131608 -0.05536896
000090 f5 61 51 3c 40 72 b0 3d a9 eb 39 3e e6 c7 0d be
       0.012779702 0.086155415 0.18156303 -0.13845786
0000a0 f5 0c 59 3e 2c 2f 03 be 83 e3 62 3d 99 2b 25 3d
       0.21196349 -0.12810963 0.055392753 0.04032478
0000b0 d3 6e 15 3c f6 a9 af 3d 3d 62 5a bd 03 cc 25 3d
       0.009120661 0.08577339 -0.053316344 0.040477764
0000c0 64 3a a5 bd 5a d9 ca 3b 56 33 ba be ea d7 de bb
       -0.08067778 0.006190461 -0.3636729 -0.0068006413
0000d0 03 11 e4 3d 2f 2b f4 bd 8d 3f 5c 3e 34 63 a5 3e
       0.11136057 -0.11922299 0.21508618 0.32302248
0000e0 26 c0 15 bd 1a b5 bf bd eb 89 ed 3d 3d 37 50 3c
       -0.0365602 -0.09360714 0.115985714 0.012708482
0000f0 53 ed 98 be 81 0a cd 3d 5d 0e 4f bd 01 91 01 3e
       -0.29868564 0.10011769 -0.050550807 0.12652971
000100 9f 5a f6 bd 6c fe c7 bd 46 ad 88 bd e5 d1 99 3d
       -0.12029003 -0.09765324 -0.06673674 0.07510737
000110 a6 22 13 be 0a 82 01 be 52 d1 28 3e d2 72 9b bd
       -0.14368686 -0.12647262 0.164861 -0.075902596
000120 6c 88 ca 3c fb 1d a7 bc e1 ff 1c bb 0d 72 d5 3b
       0.024723254 -0.020400038 -0.0023956227 0.00651384
000130 18 3a e5 3b da 24 eb 3c 00 38 78 be ba 76 98 3d
       0.0069954507 0.028704096 -0.24240112 0.0744452
000140 a8 a7 28 be 58 8f 21 be c2 e9 05 3d 43 77 a9 bd
       -0.16470206 -0.15777338 0.032693632 -0.082747005
000150 c6 d1 ad bc 51 5a ba bd a0 89 a2 be 5c 56 87 3d
       -0.021218192 -0.09099258 -0.31745625 0.066082686
000160 bd 98 af bc b8 d9 96 3d 5e 50 23 bd 6c d8 0f be
       -0.021435136 0.07365745 -0.039871566 -0.14047402
000170 62 3e 1b 3d 54 89 6d 3d fb 3c c1 bc cd 6f a3 bd
       0.03790129 0.057992294 -0.023588648 -0.07980309
000180 7e 92 e4 3b ba 8b 8f 3d d7 c8 74 bd df 93 e8 bd
       0.006975471 0.070090726 -0.05976185 -0.11356329
000190 2b 17 08 3e fd ec cc bd 58 6b 0b 3e bb 95 1f 3c
       0.13290088 -0.100061394 0.13615167 0.009740288
0001a0 98 d4 23 be 2e 29 58 be 89 38 cb 3d 33 b2 8b bd
       -0.15999067 -0.21109459 0.099228926 -0.06821098
0001b0 60 71 10 3e 51 b9 81 3c 72 6d c3 3b 9a 5b 47 3e
       0.14105749 0.015835436 0.0059639746 0.19468537
0001c0 73 ff 00 3e b4 77 38 be 97 99 42 bd c4 b0 41 3c
       0.12597446 -0.18014413 -0.047509756 0.011821929
0001d0 22 61 cb 3d f2 e4 ba 3c bd c3 2c be cd b0 0b be
       0.09930636 0.022814248 -0.16871543 -0.13641663
0001e0 06 08 67 be 79 24 e5 3d b4 4e 06 3e 15 05 3a be
       -0.22561654 0.11188597 0.1311596 -0.18166001
0001f0 65 3e 16 3e 3a 94 1a be fb 35 24 be b1 68 00 bd
       0.14672239 -0.15095606 -0.16036217 -0.03134984
000200 25 03 fa 3d e4 25 35 3e 1a 0c d1 bd a3 73 a5 3a
       0.12207631 0.17690235 -0.10207386 0.0012622963
000210 18 d0 85 3e a3 39 19 ba 39 14 ae bd 52 72 80 3e
       0.26135325 -0.00058450754 -0.08499951 0.2508722
000220 a5 de a1 3d 40 90 38 bd 64 09 ed bd c7 36 5a be
       0.07903794 -0.045059443 -0.11574057 -0.21309958
000230 c9 67 1b be 46 a8 0c bd 0f 43 da bd e6 de 93 3c
       -0.1517631 -0.034340166 -0.10657322 0.018050622
000240 27 ce 46 3d df 25 24 be c7 5c df bd 51 72 d5 3c
       0.048536446 -0.16030072 -0.10906368 0.026055487
000250 be 93 28 3d c3 88 b9 3d d0 73 cc bd c8 a5 2c 3e
       0.041156523 0.09059288 -0.09983027 0.16860116
000260 42 f8 8a bd 63 8e 34 3c 98 5c df bd 28 a9 eb bd
       -0.06785633 0.011020276 -0.10906333 -0.11506873
000270 79 93 8a 3d 28 04 1e be ac 00 04 3e 4e c8 f0 3c
       0.067664094 -0.15431273 0.12890881 0.029392388
000280 13 83 2d be 51 63 89 3d 77 ab 39 bd a4 d6 0d bc
       -0.16944532 0.06708396 -0.045329537 -0.008657131
000290 3b 84 1d be 82 50 ca bc 77 9e de bd 4c b1 37 bd
       -0.15382473 -0.024696592 -0.108700685 -0.044846818
0002a0 19 bb 4e be 62 f4 3a be 9a f8 88 be 5a 4f 2a 3d
       -0.2018856 -0.18257287 -0.26752168 0.04157958
0002b0 47 0c 84 ba 72 f6 b3 bc c6 4d d1 3d cc 37 2f 3e
       -0.001007446 -0.0219681 0.10219912 0.17111129
0002c0 68 16 7d 3d e5 14 1c bd 53 81 e1 bd 15 ed ad 3d
       0.061788946 -0.038105864 -0.11010995 0.084924854
0002d0 b9 68 68 3d ba 9d fd bb 4a 01 20 be d8 9e bb 3d
       0.056740496 -0.0077397497 -0.15625492 0.091611564
0002e0 ac b7 f1 bd aa f4 ae 3d e5 bd 26 be a4 1e 14 be
       -0.11802611 0.0854276 -0.16283377 -0.14464813
0002f0 e8 90 2d bd 9b 99 0c be 62 8f 11 3e 4c 04 10 be
       -0.04237452 -0.13730471 0.14214852 -0.14064139
000300 14 18 18 3d 1e 44 c7 3c 46 e4 6b 3c 41 67 1a bd
       0.037132338 0.024324473 0.014397686 -0.037696127
000310 c4 58 b8 3d 67 27 96 3d f5 61 07 3e ba 8b 16 be
       0.09001306 0.07331734 0.13220961 -0.14701739
000320 f8 02 84 bc 16 6b 15 be 73 24 df 3d 31 41 c3 bd
       -0.016114697 -0.14591631 0.10895624 -0.09533919
000330 e6 d9 7f 3e bf 82 86 3e 98 04 37 bc 5e 0f 5b bb
       0.24985465 0.26271626 -0.011170529 -0.0033425908
000340 c6 05 c7 3d 88 b2 fe 3d cc 15 7c 3b 76 ad a1 bd
       0.09717898 0.12436396 0.003846514 -0.07894413
000350 8c ae 32 be 4c 15 33 3e 9e b9 c4 3d 4e a8 37 3e
       -0.17449397 0.17488593 0.09605716 0.17935297
000360 38 5e a0 3e 0e 0f 94 be 74 66 63 be 51 30 9a 3e
       0.31321883 -0.28917736 -0.22207052 0.30114987
000370 de d9 27 be 31 c0 cb 3d 28 43 eb bd f5 e6 02 be
       -0.16391703 0.09948767 -0.114874184 -0.12783416
000380 9e 8f 46 3c bb e4 c5 bd 76 87 f4 bc 46 88 ab 3d
       0.012119202 -0.096627675 -0.029849749 0.083756015
000390 d9 4c f4 3d 58 1e 32 3d 81 bd 2e be b2 90 09 be
       0.1192872 0.04348597 -0.17064478 -0.13434103
0003a0 c3 40 57 3e 25 94 a0 bd 61 ed 34 be 53 74 28 3d
       0.21020798 -0.07840756 -0.17668678 0.04112656
0003b0 e2 56 5f be 82 77 46 3d 82 12 bd 3d 46 04 28 be
       -0.21810487 0.048453815 0.09232046 -0.1640788
0003c0 0e 9c ef bd 75 65 35 3d cc e0 e4 3d 72 af 1d 3d
       -0.11699687 0.04428621 0.11175689 0.038497396
0003d0 cd 31 17 be b2 2e 37 bd 6e a8 de bd 94 dc 28 bc
       -0.14765091 -0.044722266 -0.10871969 -0.010306496
0003e0 45 86 ad bd 1e 6e 9b 3e 1a ea 5f 3e a5 f5 a0 bd
       -0.084728755 0.3035745 0.21866646 -0.07859353
0003f0 81 51 9e bd 84 9c f1 bc ab 75 01 be 8f 94 29 bd
       -0.077303894 -0.029493578 -0.12642543 -0.041401442

lstm.weight_hh_l0 f4 [128, 32]
000000 b3 01 7d 3d 2e 41 06 3d 9f e8 be 3d 27 be b0 3d
       0.0617692 0.032777004 0.09321713 0.08630019
000010 db 2a fb 3d 1c 3b 82 3d 5d a1 3e be 7e a2 0a be
       0.122640334 0.063589305 -0.18616243 -0.13538548
000020 8f e6 cb bd dd 0d a3 3d 4a 27 57 be a1 18 1c be
       -0.09956085 0.079616286 -0.21011081 -0.1524377
000030 40 88 11 3e 5a 39 81 3c 71 c5 1b be be 8d a4 3d
       0.14212132 0.015774418 -0.15212037 0.08034848
000040 05 2b 3d bc 8c b7 b4 3c 9a 91 aa bd d9 08 ba bd
       -0.011545901 0.022060178 -0.083285525 -0.09083719
000050 68 52 34 bd f1 a1 38 3e fc 2f ce 3c bd 8b a6 bd
       -0.0440239 0.18030526 0.025169365 -0.08132122
000060 44 2d d3 bd 7b 06 c6 bd 13 11 1d 3d 93 b1 e7 3d
       -0.10311368 -0.09669205 0.03834636 0.113131665
000070 e7 45 25 be bb 99 e8 bc 03 08 1b 3d 5d c2 b9 bd
       -0.16139947 -0.028393617 0.037849437 -0.09070275
000080 1e 66 eb 3d b2 00 08 be 85 e3 af bd c2 8c 54 bd
       0.11494087 -0.13281515 -0.08588318 -0.05189205
000090 e1 c1 d2 bc 7f e7 51 be f5 e5 56 3d f0 a3 0b 3e
       -0.025727214 -0.20498465 0.052465398 0.13636756
0000a0 40 c9 51 bd 03 58 ab 3c 2e 94 5a 3e 7c f8 06 3d
       -0.051217318 0.02091599 0.21345589 0.032951817
0000b0 8a cd 31 3e 89 ac 0e 3d 2d ce 55 3d c7 06 5c be
       0.17363563 0.03483251 0.052198578 -0.2148696
0000c0 b6 9d 17 3b 00 d8 4f 3e a7 9d 08 bc dd c3 05 be
       0.0023134775 0.20297241 -0.0083383685 -0.13062997
0000d0 47 46 e5 3d db 6b 11 3e 4f d2 1c 3e 95 60 51 3d
       0.11195045 0.142013 0.15314601 0.0511175
0000e0 27 fd 09 bc c9 9d 12 bd 6e 38 14 3c c3 9e 16 be
       -0.008422173 -0.035795007 0.009046657 -0.14709
0000f0 c2 26 05 3e f8 af 54 3d 95 de 6e 3e 4b 27 08 be
       0.13003066 0.05192563 0.23327096 -0.13296239
000100 3b 22 49 bd 40 5a 71 bd f9 2c 3a be 89 59 24 3e
       -0.04910491 -0.05892396 -0.18181218 0.1604978
000110 97 11 4f 3d 0a d3 82 bd 6b 3a 6e 3e 12 05 3d 3e
       0.050553884 -0.06387909 0.23264472 0.18458965
000120 c1 86 0f be b7 e7 05 3d ee bc 4c 3e dc 0b dd bd
       -0.14016248 0.032691684 0.19993946 -0.107932776
000130 4b 33 9d bd fa 00 09 be f9 af 4f 3d 06 38 8a bd
       -0.07675799 -0.13379279 0.05070493 -0.06748967
000140 71 72 dd 3c e9 da ec 3d a3 ae 42 bd 5b cb 04 be
       0.027032109 0.11565191 -0.047529828 -0.12968199
000150 f9 7c c8 3d 79 25 36 bd ed a7 8a 3d 3e ea 86 3d
       0.09789462 -0.04446933 0.067703106 0.06587647
000160 8c 1f 39 bd 7a 9f d1 bd 69 41 5d 3c ce 2a 15 3d
       -0.0451961 -0.10235496 0.0135043645 0.036417775
000170 89 bc 99 bc e6 1f ce 3d 4f f2 36 3d f4 b2 e0 bd
       -0.018766658 0.10064678 0.044664677 -0.109716326
000180 f7 d4 30 3d c0 4a 80 bb da 4f 19 be f6 95 b8 3d
       0.04317185 -0.003915161 -0.14971867 0.09012978
000190 d4 21 f2 3c b3 17 64 3d 55 4d 8e be cc 1f 61 3e
       0.029557146 0.055686664 -0.27793375 0.21984786
0001a0 f8 2c d6 bd 4d 45 68 3c a6 54 f8 3d c4 d7 b1 3c
       -0.10457796 0.014176679 0.121255204 0.02170933
0001b0 6c 39 bf bd 67 a1 08 be fb d4 ed bd 01 08 7a 3d
       -0.09337124 -0.1334282 -0.116128884 0.06104279
0001c0 32 6d 86 3c 60 81 14 3d 82 e8 1a bd b4 41 6e 3d
       0.01640949 0.036256194 -0.037819393 0.058168128
0001d0 cd e7 df 3d 66 28 c2 bd d4 88 2f 3d 1d 9c 5f 3d
       0.10932884 -0.09480362 0.0428551 0.05459224
0001e0 5d 9b a3 3d a3 bd 17 be f5 65 25 be c5 a8 7c 3d
       0.079886176 -0.14818434 -0.16152175 0.06168439
0001f0 c7 dc 0d be c1 0b 20 3d b1 1b 79 3e ae 92 38 bd
       -0.13853751 0.03907371 0.2432697 -0.04506176
000200 fb 14 b0 bc 88 11 1d 3d eb b8 f4 bd da 74 0c 3d
       -0.02149438 0.038346797 -0.11949333 0.034291126
000210 a1 17 c1 ba ac 55 4f 3e 05 1d 09 be 88 99 83 3d
       -0.0014731773 0.20247525 -0.13389976 0.06425768
000220 10 f4 90 be 6e 5b a8 bd 1e 5e 53 bd 75 6d ab 3c
       -0.28311205 -0.08220564 -0.05160343 0.020926217
000230 8a c5 a1 3d 4b 4a 61 3d a9 1f 39 be e6 19 31 bd
       0.07899006 0.055002492 -0.18078484 -0.04323759
000240 de 07 1c be da b6 bd bc be 24 f8 3d 4a b4 04 3e
       -0.15237376 -0.02315848 0.12116383 0.129594
000250 e9 59 6b be df 66 48 3d b3 46 1f be 02 fd 0f be
       -0.22983517 0.04892623 -0.15554313 -0.14061359
000260 be 51 4d 3e ca d5 17 bd fb c6 de bd 5e e8 f3 3d
       0.20050713 -0.03706912 -0.10877796 0.11909555
000270 f4 20 ff bd ab a9 4c be 78 88 27 bd 35 6b 99 bd
       -0.12457457 -0.19986598 -0.04090163 -0.07491151
000280 ce 16 26 bc 60 77 39 bc 72 a9 85 be 8a ac 36 3e
       -0.010137273 -0.011319965 -0.2610584 0.17839256
000290 cc c2 7a be 2d cf 9f 3c b0 2e 4a 3e bc 42 56 3c
       -0.24488372 0.019507969 0.19744372 0.013077434
0002a0 4d 26 e8 bd f0 c9 d3 3c 39 71 95 3d eb 5f 82 3d
       -0.1133543 0.025853127 0.07296986 0.06365951
0002b0 ae 75 cf bd a3 ad 38 3d f4 ee 4e bd fc a6 07 bc
       -0.101298675 0.045087468 -0.050520852 -0.008279558
0002c0 7e 97 05 3d a6 93 41 3d f5 ac c2 bd 0c 34 98 bc
       0.032615177 0.04725995 -0.09505645 -0.018579505
0002d0 72 ad 0d 3e 72 6a c8 3c 67 f2 17 3d 36 4a 8f 3d
       0.13835695 0.02446482 0.037096407 0.069965765
0002e0 0f 10 33 3e 69 d1 ce 3d 89 9a 66 3e 87 d7 a9 bd
       0.17486595 0.100985356 0.22519888 -0.08293062
0002f0 73 23 aa bd 62 9f af ba 85 28 42 3d db 15 55 bd
       -0.08307543 -0.001339894 0.047401924 -0.052022796
000300 d2 a7 ff bb db 5c 10 be 1e 92 b0 bd 77 13 05 3e
       -0.007801988 -0.14097922 -0.0862162 0.12995706
000310 35 44 d0 bd b9 40 27 bd 74 d6 e5 3d a6 ab a1 bb
       -0.101692595 -0.04083321 0.11222544 -0.004933792
000320 63 4c c1 3d 70 eb 83 be 3f 74 54 3d 57 e9 51 bd
       0.09438398 -0.25765562 0.051868673 -0.05124792
000330 f0 64 6f bc 50 69 30 be ff a2 49 be 98 cf d0 3d
       -0.014611468 -0.17227674 -0.19691084 0.10195845
000340 0f 96 f5 bd e7 6e 2a 3c d5 75 66 bc c8 4c 2b 3e
       -0.11991512 0.010402418 -0.014066179 0.16728508
000350 57 0d aa 3c 1f 80 a5 3d 7d c1 61 bd c9 2f ad bd
       0.020758314 0.08081078 -0.055116165 -0.0845638
000360 98 14 2e 3e a1 49 7c 3d c3 be 4d 3e 3a 13 1c be
       0.17000043 0.061593655 0.20092301 -0.1524171
000370 1c 47 29 be 07 dd f8 bb c9 34 de bc c2 57 24 3e
       -0.16531032 -0.007594708 -0.02712478 0.16049102
000380 97 69 be 3d 59 f2 2a bc 0e 10 29 be ca 61 22 3e
       0.092974834 -0.010433757 -0.1651003 0.15857616
000390 cc e5 0d be bd ce 08 be 3b 9d 95 bd 50 aa 70 3d
       -0.13857192 -0.13360114 -0.0730538 0.058756173
0003a0 99 a6 da 3d 26 bd 70 3d 1b c9 e7 3d 43 78 24 3e
       0.10676307 0.058774136 0.11317655 0.16061501
0003b0 01 3c 9f bc 57 2d 19 3e a0 3c 12 be b1 c2 ee bc
       -0.019437792 0.14958702 -0.14280939 -0.02914557
0003c0 b4 c5 05 3e 89 6d 59 bd 33 f8 bc 3d 08 23 41 3d
       0.13063699 -0.053082976 0.09227028 0.04715255
0003d0 25 95 50 3d c8 e8 3b bd 6d b0 25 be a7 a4 bc 3d
       0.050923485 -0.045876294 -0.16180582 0.092110924
0003e0 5c 70 38 3e 8e 91 31 be 42 ff 12 3d 34 de 21 3d
       0.18011612 -0.17340681 0.035887964 0.03951855
0003f0 4c 05 3c 3d dc 2f 06 bd 28 0e 9f bd da bd 16 3e
       0.04590349 -0.032760486 -0.07766372 0.1472086

lstm.bias_ih_l0 f4 [128]
000000 de 90 95 3d de f9 87 bd 4e 0a 03 3d 56 32 9e bd
       0.07303022 -0.06639455 0.03199225 -0.077244446
000010 7b 15 0c be 10 bb d7 3d 2f da 28 be 8b bb a3 3c
       -0.13680069 0.10533726 -0.1648948 0.019986888
000020 bf 12 72 be 46 d2 09 3d 03 bb dd 3d d0 34 78 be
       -0.23639964 0.033647798 0.10826685 -0.24238896
000030 27 20 2d be 6f 8c 5d be 2f f3 c9 bc 97 54 8c be
       -0.16906796 -0.21635602 -0.024652092 -0.27408287
000040 2e df 0f 3d ef 53 25 3e 88 40 cf bd 59 61 0a bd
       0.03512495 0.161453 -0.1011973 -0.033784244
000050 83 5b 1b be b4 06 54 bd 90 98 d9 bd 7b 87 63 bd
       -0.15171628 -0.051764205 -0.10624802 -0.055549126
000060 76 cc 33 3e fd 5c 03 be 49 08 13 be 02 a3 f9 bd
       0.17558464 -0.12828441 -0.1435863 -0.121892944
000070 25 b2 fa 3d e3 82 33 3e f7 2a 51 bd af e2 70 3e
       0.122410096 0.17530398 -0.051066365 0.23523973
000080 55 7d c9 3d a8 05 c3 bd e1 48 ce 3c 71 0a b2 3d
       0.09838358 -0.09522563 0.025181236 0.08693398
000090 56 c4 5d bd 41 4c 26 be 31 90 04 3d be 1e 45 be
       -0.05414232 -0.16240026 0.032364074 -0.19250008
0000a0 2b 8c 2d bd 75 17 77 be bd df 2a 3e 55 17 4e be
       -0.042370003 -0.24130042 0.16686912 -0.20126088
0000b0 90 b3 08 be b4 16 14 3d ee 56 49 be d4 3c 44 3d
       -0.13349748 0.036154464 -0.19662067 0.047909573
0000c0 89 49 4e bd 49 7c 13 3e 87 9d 25 be 52 1c f0 bd
       -0.050363097 0.1440288 -0.16173373 -0.11724152
0000d0 bb f5 8b 3d 89 b6 d0 bc 67 ea d4 bd a5 2b 6b bd
       0.06833979 -0.025477665 -0.10396271 -0.05741467
0000e0 97 bf a0 3d d9 73 06 bd 69 b8 a3 be 26 3f 70 3d
       0.07849043 -0.032825325 -0.3197663 0.058653973
0000f0 bf c4 2a 3e 71 85 de bd 11 b2 1f bd cb b9 37 3e
       0.16676615 -0.10865296 -0.038988177 0.17941968
000100 08 5f c5 3d eb 9e a5 bd 0f f8 f8 3d 9e 4b 06 be
       0.096372664 -0.08086952 0.121566884 -0.13114783
000110 c4 f1 a0 3d 77 8d 33 bd af ff 88 3d 9e 8b 98 3d
       0.07858613 -0.043836083 0.06689393 0.07448505
000120 32 6e c6 3b 97 64 0e 3e 2d f4 33 3c ee 12 b9 bd
       0.006055617 0.1390556 0.010983509 -0.09036814
000130 71 e1 0a 3e 78 36 30 bd e9 66 83 bd cf 9b 89 3b
       0.13562562 -0.043020695 -0.06416113 0.004199482
000140 28 41 8c 3c b1 f4 a4 b9 a9 f0 16 be cf 6f 7a bc
       0.017120913 -0.00031462827 -0.14740242 -0.015285446
000150 c5 cf 25 bd 77 c5 a0 3b fa 02 07 be 38 e6 d7 3d
       -0.040481348 0.004906352 -0.13184729 0.105419576
000160 5f f9 33 bc 0d 7c 0c 3d 15 a6 2c 3d fe 63 02 3d
       -0.010984748 0.03429799 0.042150576 0.03183364
000170 10 ce be 3d e9 9b 30 bd fb 0a fb bd 38 e5 51 be
       0.09316647 -0.043117438 -0.12257954 -0.20497596
000180 6c 0c 13 3d c3 bb 11 3e ab 3e ed 3c 13 b8 41 be
       0.03590052 0.14231782 0.028960546 -0.18917875
000190 8a fb c4 3d 52 a3 f2 bb 4a 03 57 be 6f b0 ed 3d
       0.0961829 -0.007404723 -0.20997348 0.11605918
0001a0 36 7e 8b 3d 53 cf b2 3d da 76 28 be 56 e1 ff bd
       0.06811182 0.0873095 -0.16451588 -0.12494151
0001b0 b7 89 f1 bc 9e 5e 01 be be 66 9d bd 60 5a 19 be
       -0.029484613 -0.1263375 -0.07685612 -0.14975882
0001c0 62 a3 4e bd 8f 0c 26 be 9b e9 a2 bd 12 43 09 3d
       -0.050448783 -0.16215728 -0.07954713 0.03351123
0001d0 e0 48 d8 3d bd 70 11 bc 20 f2 4f be 79 3b 83 be
       0.10560775 -0.008876977 -0.20307207 -0.25631312
0001e0 20 9c 14 3e 2f 98 46 3c 08 b6 19 be 4f 3a 23 be
       0.14512682 0.012121244 -0.15010846 -0.15940212
0001f0 1a cb d3 bd 0a 58 45 be 42 1b 27 3d 7b 08 ca bb
       -0.10341473 -0.19271865 0.04079748 -0.0061655617

lstm.bias_hh_l0 f4 [128]
000000 68 21 82 bd 16 dc 6a 3d 17 c3 1d 3c a5 b6 9e 3c
       -0.06354028 0.057338797 0.009629033 0.019374201
000010 5f 4a bd 3d 6e ae 26 be 4d 03 84 bd 17 6e 02 3e
       0.09242701 -0.16277477 -0.06445942 0.12737308
000020 c0 27 aa bd 72 1c 63 bd 63 42 cd 3d 88 03 70 bd
       -0.08308363 -0.05544705 0.10022428 -0.058597118
000030 f7 2e 87 bd f8 de 46 3d 40 da d1 bb c3 ae 91 be
       -0.06600755 0.048552483 -0.0064041913 -0.28453645
000040 6f 39 05 3d 09 f0 23 bd 6e 74 49 bd 35 3e df bd
       0.032525476 -0.040023837 -0.0491833 -0.10900537
000050 da 9f d8 3d e6 a6 85 be af e0 3b bc b9 00 84 bd
       0.10577364 -0.26103896 -0.011467143 -0.0644545
000060 4a ca 05 be b7 62 9d bc 9f 45 c8 bc 82 1e 4b 3c
       -0.13065448 -0.01921211 -0.02444726 0.01239741
000070 48 42 2b 3e e1 ea 22 3e 46 d9 02 3e a0 a9 80 3e
       0.16724503 0.15909912 0.12778196 0.25129414
000080 8f 86 16 3e ce aa c6 bd 93 6d e0 bd 54 23 42 be
       0.14699768 -0.09700547 -0.109583996 -0.18958789
000090 8f d9 d7 bd 04 b4 15 3d 3f ff 9a 3d 9e ef ad bc
       -0.10539543 0.03654863 0.075682156 -0.021232422
0000a0 d1 ef 65 3d a2 f4 07 3d 47 d0 f3 3d f2 c4 78 bd
       0.05613691 0.033192284 0.1190496 -0.060734697
0000b0 59 29 73 bd 04 aa 49 be 3d 10 a9 3c 8d 21 4e be
       -0.059365604 -0.19693762 0.020637626 -0.20129986
0000c0 74 4a a8 bd dd 02 41 3e 6f 1a f4 3d b6 82 05 be
       -0.08217326 0.18848749 0.11919104 -0.13038144
0000d0 6f 7d e6 3d 3b 11 eb 3c ca 75 4e be 44 6c 73 be
       0.11254393 0.02869474 -0.2016212 -0.23771769
0000e0 a4 b9 7e 3d 6d 4a 07 3e 51 17 8f be 2e 97 19 be
       0.06218876 0.13211985 -0.27947477 -0.14999077
0000f0 27 2c 28 3e ef 49 fe 3d 00 80 fc bd fd e9 4e 3e
       0.16423093 0.124164455 -0.123291016 0.20206447
000100 0a 6e b6 bc d3 d9 b8 bd e5 6e fd 3d 04 30 da 3d
       -0.022269268 -0.09025922 0.12374667 0.106536895
000110 84 12 86 bd de 46 ff bd 2f 22 28 3e 9a e1 85 bc
       -0.065465 -0.12464689 0.1641929 -0.016342927
000120 2e 2f d2 3d e9 35 0e be 75 6c 75 bd 72 c6 0b 3e
       0.10262905 -0.13887753 -0.059917886 0.1364992
000130 c6 2a c1 bb ea b6 14 bd cb e3 b0 bd 20 22 85 3d
       -0.0058949916 -0.036307253 -0.08637198 0.065006495
000140 b8 63 8b 3c af 5c 13 be a4 cf 06 3d 5a 7e c4 3d
       0.017015323 -0.14390825 0.032912865 0.09594412
000150 cd dc 9e bd 23 9c e5 3d 28 e2 c8 3d 65 2d 2b 3d
       -0.07756958 0.11211421 0.09808761 0.04179134
000160 c8 e1 13 be 71 db 06 3e 27 72 18 be 55 71 89 bd
       -0.14441597 0.13169648 -0.14887296 -0.067110695
000170 16 b4 d5 3d 99 99 0a be 2b c2 90 3a 66 0e 40 3c
       0.10434739 -0.13535155 0.0011044195 0.011722183
000180 81 50 80 bc 66 e7 db 3d c1 09 bf bd 8a 8d a3 bd
       -0.015663387 0.10737495 -0.09328032 -0.07985981
000190 0a 99 c3 3d f1 69 87 bd c0 23 1e be 83 8c f8 bd
       0.09550674 -0.066120036 -0.15443325 -0.121361755
0001a0 c9 e9 a8 bc 25 70 b0 bd 29 5b 2b bd a6 10 11 bc
       -0.02061929 -0.0861514 -0.041834984 -0.008854067
0001b0 37 9d 56 be 04 56 c2 bd 8a 44 75 be 72 55 dc bd
       -0.2095841 -0.094890624 -0.23951927 -0.10758485
0001c0 4c 50 62 bd 65 c4 79 bc 15 cb 32 bd b4 83 87 bd
       -0.05525236 -0.015244578 -0.043650705 -0.06616917
0001d0 c0 66 aa 3c ab 46 09 bc fa af 31 be 53 fe 86 3a
       0.020800948 -0.008378665 -0.17352286 0.0010299183
0001e0 f4 fa 8b bd 14 d2 9f 3d 6b 90 00 3d 16 fc 3d 3c
       -0.06834975 0.07803741 0.031387728 0.0115957465
0001f0 87 fd 11 be e6 5d 87 bd 91 d9 4b be ff 18 17 be
       -0.1425687 -0.066097066 -0.19907214 -0.14755629

hidden2out.weight f4 [3, 32]
000000 5e d7 fe bc d0 04 3e 3e d3 be 8e bd 15 3c 60 bd
       -0.031108554 0.18556523 -0.069699906 -0.0547448
000010 b7 b8 18 3c e9 6e 95 bd c1 59 8b bd 88 7c 19 be
       0.009321383 -0.07296545 -0.068042286 -0.14988911
000020 01 43 8c 3d 8c 5a b0 3d 5f 22 10 3e d1 60 13 be
       0.068487175 0.086110204 0.14075612 -0.14392401
000030 57 af 9f 3d fd 4f de bd bf 83 2f 3d ec 17 59 bd
       0.07797115 -0.108551 0.042850252 -0.05300133
000040 68 9b f7 bc 56 ec ce bd 86 2d 01 3e 10 2f 9e bd
       -0.03022547 -0.10103671 0.12615022 -0.0772382
000050 28 f6 ec 3d 03 77 1d 3e db be 81 bd 9b b8 3c 3d
       0.11570388 0.1537743 -0.06335231 0.04607449
000060 38 fb 17 3e 2f 6a 2b be 92 45 c3 bd 40 37 e3 3d
       0.14841926 -0.16739725 -0.09534754 0.110945225
000070 67 4a b7 bd 25 c9 2e 3e 4a 5c 07 be 21 07 bf bc
       -0.08949738 0.17068918 -0.13218799 -0.023318829
000080 22 e0 bc bd 58 18 48 3b 20 9b 75 bd 07 91 ce bd
       -0.092224374 0.0030532088 -0.05996239 -0.100862555
000090 10 76 c1 3d c2 58 18 bd 28 1b c5 ba 3a 53 06 bd
       0.09446347 -0.03719402 -0.0015038 -0.032794215
0000a0 b7 e1 94 3d 8e 0b 99 3d d2 0b ee 3d 72 0a bd bd
       0.07269614 0.07472907 0.11623348 -0.09230508
0000b0 51 3d d2 bd 8b c7 fa bd 4f 21 81 bc 6c 4e f8 b7
       -0.102656014 -0.12245091 -0.015762953 -2.9600422e-05
0000c0 a0 21 0d bd 16 ae 9f 3d e7 c2 ea 3d c1 09 2a 3d
       -0.034455895 0.07796876 0.11462956 0.04151321
0000d0 c0 0b cc bc 97 92 c4 bb 78 4c 36 bb ed ce 0f 3c
       -0.024907947 -0.00599892 -0.0027816575 0.008777362
0000e0 2a 65 f1 bd 27 94 e2 3c 97 b2 f8 bd d0 b0 14 3e
       -0.11786874 0.027658535 -0.12143438 0.14520574
0000f0 1e 0b 09 3e 45 47 0b bb 26 19 e5 bd cd ff bd bd
       0.13383147 -0.0021252197 -0.11186437 -0.09277306
000100 17 2d 25 3d c2 c6 a3 3d 0d 0e dd 3d 43 7b b6 3c
       0.040326204 0.079968944 0.107936956 0.022275573
000110 7d aa 19 3e cd 59 4e bd a3 a7 95 bd 71 1b c3 bd
       0.15006442 -0.05037861 -0.07307365 -0.095267184
000120 7d b6 27 bc d1 f4 9c bd af 76 54 3d 22 8e 48 3e
       -0.01023638 -0.076638825 0.051870998 0.1958547
000130 3e 80 15 3e 12 93 e1 bd 1b f2 28 3d e3 41 03 bd
       0.14599702 -0.110143796 0.041246515 -0.032045256
000140 1c 6a ae 3d be 24 06 be 73 c9 e1 bd 43 5b 16 3d
       0.085163325 -0.13099954 -0.110247515 0.036708128
000150 23 e1 6b bd 4e ab fe bc 1a 10 1b 3e 4e d6 90 bd
       -0.057587754 -0.031087544 0.15142861 -0.070721254
000160 4c 97 bb bd b9 b5 3b bc 7b 5b 9e 3d 58 f7 02 be
       -0.09159717 -0.0114569 0.07732292 -0.12789667
000170 d7 df 13 3e bd 3d 01 be c9 d0 be 3d a2 38 33 be
       0.14440857 -0.12621208 0.09317166 -0.17502072

hidden2out.bias f4 [3]
000000 bf 15 d8 3c 87 ae e1 bd d8 49 ff bd
       0.026377557 -0.110196166 -0.124652565

std_layer.weight f4 [3, 32]
000000 7f 0b 32 3e e2 84 96 3d 25 0d 18 be e1 e4 1e be
       0.17387198 0.07349564 -0.14848764 -0.15516998
000010 60 9d 1a bc 42 df e8 3d 3e 54 c9 3d 20 fe fe 3b
       -0.009436935 0.11370708 0.09830521 0.007781759
000020 98 df bb 3c a7 ea 05 be d6 c1 dc 3d 80 74 9b bc
       0.022933766 -0.13077794 0.10779159 -0.01897645
000030 7d c5 11 be cc 33 05 be 38 29 15 bd 2c 0a e4 bd
       -0.14235492 -0.1300804 -0.036416262 -0.11134753
000040 72 64 69 bd e9 a0 30 3e 40 08 f9 3b f2 7e c4 bd
       -0.056980558 0.17248882 0.0075998604 -0.095945254
000050 8f 20 0d 3e 8d 06 28 3e e0 b7 8c 3c 80 3b 91 bb
       0.13781951 0.16408749 0.017177522 -0.004432142
000060 80 a6 ab 3c a8 f0 11 bd f0 6c 06 3d a0 a3 61 3d
       0.020953417 -0.0356299 0.032818735 0.055087686
000070 bb a1 08 3e 82 63 aa 3d 38 45 0e 3d d0 18 5a bc
       0.13342945 0.08319761 0.03473398 -0.01331158
000080 53 3d 0a 3e 8c e0 92 3d d0 7c 65 3d 8a f6 f7 3d
       0.13499956 0.07171735 0.056027234 0.121075705
000090 bc 7f 15 3d a4 55 4a bd 34 eb 38 3d de ec b3 bd
       0.03649877 -0.04939808 0.045146182 -0.08785413
0000a0 e6 ec dd 3d da ea 66 bd 0c 19 25 3d e8 f2 4a 3d
       0.108362004 -0.056376316 0.04030709 0.04954806
0000b0 a6 88 07 be ef 22 17 be 46 d4 f8 3d 81 b2 32 be
       -0.13235721 -0.1475942 0.12149863 -0.17450906
0000c0 e8 71 7d bd 1a bc ce 3d f0 f7 33 3d 19 70 2d 3e
       -0.061876208 0.10094471 0.043937624 0.16937293
0000d0 52 96 31 be b0 99 7b 3d 79 6c 89 bd 36 1a 97 3d
       -0.17342499 0.061425865 -0.06710143 0.07378046
0000e0 7d 8b 04 3e 62 33 f5 3d f1 73 33 be 57 22 80 bd
       0.12943836 0.11972691 -0.17524697 -0.0625655
0000f0 ee 73 fd 3d a2 7f 87 3d 84 26 13 be aa 9f de 3d
       0.123756275 0.06616141 -0.14370161 0.10870297
000100 ee b0 fb 3d 48 bb af bd 3c 10 58 bd a3 69 02 be
       0.12289606 -0.08580643 -0.052749857 -0.1273561
000110 42 0a 09 be 01 49 a7 bd ac 5d 29 bd c0 79 8b 3b
       -0.1338282 -0.08168221 -0.041349098 0.004256457
000120 c6 0b dc 3d 27 46 22 3e 10 79 9e 3c 7e b3 d6 3d
       0.10744433 0.15847073 0.019344836 0.10483454
000130 42 d0 d7 3d 40 b5 0d 3d bb 6f ab bd 42 6f 91 3d
       0.10537769 0.03459668 -0.0837092 0.07101299
000140 08 de e1 3c 8a a7 0f be f6 ce 63 bd ac ec 8d bd
       0.027571693 -0.14028755 -0.055617295 -0.06929907
000150 28 a5 7d 3d f5 89 a7 bd 2a e1 97 3d 10 ac 20 bc
       0.061925083 -0.0818061 0.074159935 -0.009806648
000160 60 5e f7 bc 78 b6 8b 3d 12 2b dd 3d 8c bf 5e 3d
       -0.030196369 0.068219125 0.10799231 0.054381892
000170 c0 68 f7 3c e0 bd 31 bc 04 4e 01 bd 32 e0 b0 3d
       0.030201316 -0.010848492 -0.031568542 0.08636512

std_layer.bias f4 [3]
000000 44 db 13 bd 09 36 09 3e 92 a3 e4 3d
       -0.03609778 0.13399519 0.11164011

exp_avg f4 [128, 12]
000000 c2 29 80 b7 dd 7e 1a b7 78 4b 04 b8 29 fa 0c 38
       -1.5278234e-05 -9.208653e-06 -3.154154e-05 3.361158e-05
000010 f8 75 a0 b8 e2 b5 21 b9 c6 f8 a0 b7 c1 c3 bd 38
       -7.651368e-05 -0.00015421913 -1.918933e-05 9.048684e-05
000020 53 2a 91 b8 d8 b7 22 39 41 df fd 38 3c cf 02 b9
       -6.922022e-05 0.00015518011 0.000121055644 -0.00012474967
000030 98 31 0e 3a 2a f1 10 36 32 e6 a0 b9 9c 07 65 3a
       0.000542426 2.1598048e-06 -0.00030689087 0.00087367906
000040 a0 f1 bb 3a 09 b7 e0 b9 8a fc 3a b9 35 60 10 b9
       0.0014338978 -0.0004286098 -0.0001783242 -0.0001376875
000050 fc 2e 01 ba 28 00 f7 38 2f 98 7a b8 43 4b cd 39
       -0.00049279607 0.00011777907 -5.9746377e-05 0.0003915672
000060 40 4d da 3a 49 7e 98 3a b9 15 29 b9 21 1f e2 39
       0.0016655102 0.0011634316 -0.00016125188 0.00043129272
000070 40 03 5a 3b 05 ea 9a 3b 9c 5e e2 39 7a f2 0a b8
       0.0033266097 0.0047276043 0.0004317657 -3.3127588e-05
000080 e0 c0 da 39 93 25 9e 3b 1f e0 82 3b 24 1e 3e 3c
       0.00041723903 0.0048262565 0.0039940025 0.011603866
000090 cf cd 81 b9 6b ac 13 ba 45 d4 80 b9 c2 ac df 39
       -0.00024758137 -0.0005633297 -0.00024572216 0.0004266259
0000a0 bf b6 9c b9 0b 80 2c bb 59 42 84 ba b3 e7 c5 ba
       -0.00029890795 -0.0026321437 -0.0010090574 -0.0015098959
0000b0 93 68 76 ba 1b db 8b bb e2 78 b9 bb b5 1e e9 bb
       -0.0009399738 -0.0042680628 -0.0056601623 -0.0071142563
0000c0 07 ab eb b9 4e 8c 49 ba d7 5a 5a b9 ce 25 0a 3a
       -0.00044950118 -0.00076884485 -0.0002082394 0.00052699156
0000d0 c7 dc 30 ba 59 f4 5e bb 20 98 1f ba f7 0e 9f b9
       -0.00067467656 -0.0034020154 -0.0006088037 -0.00030337993
0000e0 c1 6f 06 ba 36 a7 29 bb 89 cd 44 bb cf 91 b3 bb
       -0.0005128347 -0.002588702 -0.0030029735 -0.005480028
0000f0 cb e2 fe b9 8f ff 84 ba cb 33 ed b9 26 8b ba 3a
       -0.0004861563 -0.0010146963 -0.0004524275 0.0014232143
000100 f3 7f db b9 37 4a b0 bb ce b7 59 ba 29 a0 40 b9
       -0.00041866265 -0.005379941 -0.0008305282 -0.00018370211
000110 b5 0d ac ba 1f 9b 6c bb 0a 00 92 bb 2c cf 22 bc
       -0.0013126644 -0.0036103202 -0.004455571 -0.009937089
000120 13 8b 02 38 9f eb 1e 39 08 02 d6 b7 bd cf d5 b8
       3.112394e-05 0.0001515583 -2.5511734e-05 -0.00010195326
000130 27 ae 42 b8 c4 5e b0 39 bd f5 31 37 f3 05 67 38
       -4.6415396e-05 0.00033639942 1.06072375e-05 5.5080232e-05
000140 b3 84 63 39 d4 5b 0e 38 2a 8e de 39 29 b9 80 3a
       0.00021697841 3.394096e-05 0.0004244906 0.0009820807
000150 52 05 a8 ba 35 74 76 ba 3d 7c e1 b8 e0 47 41 39
       -0.0012818968 -0.00094014715 -0.00010751977 0.0001843269
000160 65 c1 0d bb 5f c6 a0 bb 70 f9 10 ba 24 ae d1 b9
       -0.0021630165 -0.00490646 -0.0005530333 -0.0003999333
000170 96 52 57 ba 8f 0a 81 bb 12 85 8e bb b5 89 2d bc
       -0.00082139054 -0.0039380263 -0.0043493593 -0.010591914
000180 f7 db a9 37 46 80 ce 37 cf da de b6 dc 15 4f 37
       2.0248799e-05 2.4616846e-05 -6.6415882e-06 1.2343251e-05
000190 95 b6 3e 38 fd 33 6c 38 42 f4 8a b7 29 a2 1c 36
       4.5469573e-05 5.6315203e-05 -1.6564623e-05 2.33402e-06
0001a0 11 df d2 37 4d 32 37 b9 30 5e cd b8 78 c0 fd 37
       2.5137824e-05 -0.00017470978 -9.7927055e-05 3.0249576e-05
0001b0 2e 9e 5c b9 3c 2c 65 b9 7e 79 2a 37 f9 21 41 39
       -0.00021039761 -0.0002185562 1.0161077e-05 0.0001841857
0001c0 24 b1 92 b9 a4 d0 77 ba 65 28 20 38 23 3d fd 39
       -0.0002797927 -0.0009453392 3.8184593e-05 0.0004830147
0001d0 c7 8a d0 38 be 00 0f 3a 4e 1b 75 3a dc a2 dd b9
       9.944062e-05 0.00054551277 0.0009350077 -0.00042273744
0001e0 32 54 83 ba c7 57 99 ba d3 42 85 b9 8a 90 2b 3a
       -0.0010019599 -0.0011699133 -0.00025417525 0.00065446703
0001f0 fc 0c ae ba 13 25 b5 bb 61 89 a4 ba 2a 0c c4 ba
       -0.0013279016 -0.005528101 -0.0012553149 -0.0014957238
000200 ed 18 85 ba fa 76 db bb 89 77 f4 bb 31 db 46 bc
       -0.0010154523 -0.0066975327 -0.0074605388 -0.01213722
000210 4f 01 ae 3a f7 8f d3 3a 96 7e 0c 3a cc a5 67 ba
       0.0013275536 0.0016140927 0.0005359439 -0.00088366563
000220 03 83 0c 3b 6a 40 03 3c 2f 4e 8a 3a 81 22 9b 3a
       0.0021440394 0.008010963 0.0010551865 0.0011835844
000230 ec 6c 1d 3b dd d9 bb 3b 43 d5 06 3c 57 ff 98 3c
       0.0024021221 0.0057327584 0.0082295565 0.018676443
000240 50 91 dd b9 5b 5e 76 39 18 bc 97 39 26 90 c1 b9
       -0.0004226067 0.00023495538 0.00028941105 -0.00036919228
000250 a7 ea 55 ba 0f ea 04 3a fe 25 4a 3a 84 63 0a 3a
       -0.0008160271 0.0005070278 0.000771135 0.0005279111
000260 dd 04 bf b9 ac 48 22 3b de f6 d8 37 37 32 ce ba
       -0.00036433982 0.0024762554 2.5864163e-05 -0.0015731518
000270 a5 c5 19 b9 a3 f3 0e b8 ad cc c4 39 f8 94 3e b9
       -0.00014664845 -3.4082343e-05 0.00037536529 -0.00018175307
000280 a4 cf e6 b9 0e 61 7c 3a 55 79 20 3a d4 94 dc 3a
       -0.00044023723 0.00096274994 0.00061215955 0.0016829022
000290 05 a8 2a 3a a7 84 6d 3b d7 a5 a7 3b 51 2b 90 3b
       0.0006510022 0.0036242397 0.005116205 0.004399695
0002a0 e6 05 90 b8 c2 24 3f b8 a2 d9 0a b7 87 98 02 39
       -6.867554e-05 -4.5572182e-05 -8.276113e-06 0.00012454587
0002b0 40 77 83 b8 40 d7 be b9 af 46 0b 39 81 41 b7 39
       -6.268779e-05 -0.00036399998 0.00013282405 0.00034953284
0002c0 ae 3e b2 b7 19 e8 20 3a 88 78 0c 3a a4 bc 65 b9
       -2.1248441e-05 0.0006138101 0.0005358537 -0.00021909416
0002d0 9f 17 6d b7 59 d4 7d b7 d9 d3 ec b7 6a 25 4d 35
       -1.41318005e-05 -1.5129416e-05 -2.8232042e-05 7.6422896e-07
0002e0 4a ec 16 b8 cf 3b fc b8 cc 5e 94 b8 16 24 bb b8
       -3.598285e-05 -0.000120274366 -7.074847e-05 -8.9235764e-05
0002f0 e1 18 f7 36 e7 d9 e5 b8 b5 57 4b 37 07 31 a8 37
       7.36407e-06 -0.000109601584 1.2120164e-05 2.004999e-05
000300 dd a0 46 38 e8 5a 89 38 69 35 17 b7 e6 73 8a 36
       4.7356694e-05 6.549602e-05 -9.012737e-06 4.126213e-06
000310 eb bd ae 38 98 e4 35 39 31 92 be 38 26 95 a2 38
       8.3323415e-05 0.00017346663 9.087136e-05 7.752543e-05
000320 07 af 6f b6 ce 98 92 39 45 87 8f 39 be 22 c6 39
       -3.5715655e-06 0.00027961138 0.0002737587 0.00037791388
000330 06 41 00 b9 78 d7 0b b9 24 46 5c 39 5d 79 1c b9
       -0.00012231254 -0.00013336341 0.00021006964 -0.0001492253
000340 46 95 13 b9 52 34 64 39 30 4d 95 38 22 3f 9f 39
       -0.00014074621 0.00021763265 7.119251e-05 0.0003037388
000350 3f af c9 39 c2 29 5d 37 fe 55 a1 39 88 0e d0 39
       0.00038468276 1.3182349e-05 0.00030772382 0.00039683678
000360 f7 83 35 3b d8 fc 3c 3b 83 4c 27 3a 30 49 be ba
       0.0027697065 0.002883723 0.00063819456 -0.0014517661
000370 61 9f 97 3b a7 cd 63 3c 09 90 0b 3b 9d 7b 9f 3a
       0.0046271537 0.013904012 0.0021295568 0.0012167577
000380 6f 8f 25 3b b2 c4 40 3c d2 f0 4c 3c b6 80 f5 3c
       0.0025262495 0.011765646 0.012508588 0.0299686
000390 e6 7a da 36 5d 01 bd 37 05 06 f7 35 95 8a d0 b7
       6.5112135e-06 2.253119e-05 1.8404686e-06 -2.4860065e-05
0003a0 8a 29 26 b7 93 1e a8 38 1b 5f 2d 37 05 97 84 37
       -9.904043e-06 8.016559e-05 1.0333747e-05 1.580595e-05
0003b0 35 da 66 b7 cb 50 20 38 a6 58 1e 35 aa 8a a0 37
       -1.3759874e-05 3.8222217e-05 5.898859e-07 1.9138057e-05
0003c0 50 92 83 b8 5c 59 2d b9 50 54 c7 b7 9a e9 40 39
       -6.2738196e-05 -0.00016531855 -2.376191e-05 0.0001839757
0003d0 e4 a6 b5 38 74 b9 05 ba 28 be fd b9 c8 75 b3 b9
       8.6618384e-05 -0.0005101182 -0.00048397598 -0.00034229294
0003e0 7f fd 45 39 e0 ef e8 b9 f1 aa 85 39 ff 28 3e 37
       0.00018881819 -0.0004442921 0.00025495098 1.1334428e-05
0003f0 5f e9 03 38 77 38 48 b7 63 d8 8d b6 71 37 98 39
       3.1450178e-05 -1.1934076e-05 -4.227318e-06 0.00029033006

exp_avg_sq f4 [128, 12]
000000 d9 dd 95 33 9f 07 81 33 2f e2 64 34 86 6f 8d 34
       6.978707e-08 6.008417e-08 2.131644e-07 2.634444e-07
000010 76 0d 52 34 95 e7 be 35 1b 2e eb 33 fe 73 d7 33
       1.9562671e-07 1.4223502e-06 1.0951427e-07 1.00328165e-07
000020 bb cc ab 34 84 83 9a 34 8c eb 2c 35 38 3e c7 35
       3.2000193e-07 2.8780426e-07 6.441776e-07 1.4844763e-06
000030 3a 35 21 36 fb 9e e1 36 b6 a9 b4 36 17 c4 04 38
       2.4021851e-06 6.7240303e-06 5.384175e-06 3.1653875e-05
000040 72 23 8c 37 b6 5a 85 39 9c f3 75 37 ff bc d0 36
       1.6705806e-05 0.00025435322 1.4659858e-05 6.220885e-06
000050 09 10 b3 37 5d 51 fd 38 10 0e 65 39 2c 43 16 3a
       2.134593e-05 0.00012079135 0.0002184438 0.0005732055
000060 15 a5 46 37 30 14 55 37 bd 3f 43 37 48 71 36 38
       1.1840156e-05 1.270049e-05 1.1637746e-05 4.3497683e-05
000070 80 d0 7c 38 9b 8a b4 39 27 90 b0 37 5f 25 3b 37
       6.0275663e-05 0.00034435545 2.1047961e-05 1.115477e-05
000080 86 87 13 38 93 10 3f 39 10 6f 91 39 62 08 57 3a
       3.5173747e-05 0.00018221354 0.00027739303 0.0008202848
000090 e8 a7 b0 36 1f 8a d1 36 7c b8 2a 35 69 83 e8 36
       5.2647556e-06 6.244765e-06 6.3598395e-07 6.929437e-06
0000a0 dd 94 6e 37 b5 79 12 39 04 d9 7e 36 dc 81 ea 35
       1.4220565e-05 0.00013968984 3.797527e-06 1.7472153e-06
0000b0 ca 0c ea 36 ce e6 e1 38 05 5a b9 38 35 9b ce 39
       6.9752323e-06 0.00010771827 8.838255e-05 0.0003940702
0000c0 bb 43 08 37 09 05 59 37 ae 26 fb 35 a5 61 d5 36
       8.122001e-06 1.293538e-05 1.8712215e-06 6.359262e-06
0000d0 a4 80 c3 37 2f 2a 86 39 2d b1 c1 36 88 c7 31 36
       2.3305714e-05 0.000255899 5.772474e-06 2.6491198e-06
0000e0 5b 12 82 37 c0 4e 54 39 ee fc 64 39 53 a4 6c 3a
       1.5505755e-05 0.00020247232 0.00021837998 0.0009027172
0000f0 f3 4a 2b 35 a1 c8 22 36 e9 38 10 36 a2 a4 72 36
       6.381153e-07 2.4256663e-06 2.1490798e-06 3.615664e-06
000100 ab 62 85 36 8d 22 18 38 33 45 cf 35 fc 52 cf 35
       3.9751953e-06 3.6271802e-05 1.5442841e-06 1.5446853e-06
000110 93 e3 b3 36 cf c5 97 37 b6 d6 ff 37 53 24 e0 38
       5.361109e-06 1.8092715e-05 3.0498351e-05 0.00010687918
000120 af c6 74 34 7c 55 c3 35 4a 99 3d 36 7a 03 98 36
       2.2796551e-07 1.4553511e-06 2.825242e-06 4.5303577e-06
000130 73 44 b3 36 81 36 b0 37 c1 58 74 35 ed e1 49 36
       5.3425842e-06 2.1006215e-05 9.102624e-07 3.008284e-06
000140 2d 00 cc 36 e8 70 44 36 d6 87 81 37 f6 a4 25 38
       6.0796942e-06 2.9271996e-06 1.5441252e-05 3.9492697e-05
000150 2f f9 cc 36 f2 d8 77 37 a1 11 a8 36 fa 46 fa 37
       6.1086826e-06 1.4772859e-05 5.0088424e-06 2.9835373e-05
000160 5a 4e cb 37 7d c2 d2 39 f2 c2 a0 37 c0 bf d2 36
       2.4235971e-05 0.00040199226 1.9164265e-05 6.2808103e-06
000170 59 99 e4 37 dd e6 6a 39 29 c8 c4 39 d7 ba 84 3a
       2.7251126e-05 0.00022401982 0.00037533164 0.0010126483
000180 54 98 3f 33 90 ca d8 33 b5 0d c6 33 3b 41 d4 33
       4.4609195e-08 1.009513e-07 9.222587e-08 9.8838846e-08
000190 ed fd 54 34 9d 8e 4f 35 15 98 3f 34 b4 10 a7 33
       1.9836416e-07 7.732104e-07 1.7843588e-07 7.779582e-08
0001a0 c2 cb 08 34 8b 3f 15 35 27 cc 20 35 bc 74 cd 35
       1.2740114e-07 5.559929e-07 5.9901726e-07 1.5307664e-06
0001b0 2d 77 16 34 ad 73 30 34 92 62 8a 33 d9 06 71 34
       1.4013195e-07 1.643336e-07 6.4440556e-08 2.2447365e-07
0001c0 ad 44 f6 34 68 91 8e 36 ad c9 4b 34 39 2e b6 34
       4.587104e-07 4.2488573e-06 1.8979217e-07 3.3933773e-07
0001d0 82 13 32 34 e1 0c 1b 36 ff 49 4b 36 e8 a5 8e 35
       1.6584639e-07 2.3104296e-06 3.0292429e-06 1.062811e-06
0001e0 f4 e7 20 37 84 87 9c 37 b4 bc af 36 50 0b 4c 37
       9.590749e-06 1.8659754e-05 5.2373744e-06 1.2161981e-05
0001f0 e7 be 0b 38 44 b7 47 39 5e d8 16 37 4a 13 98 36
       3.3317974e-05 0.0001904639 8.991074e-06 4.5321985e-06
000200 61 f2 36 37 5c 33 14 39 69 5c 3b 39 7d 85 1b 3a
       1.0904479e-05 0.00014133513 0.00017868135 0.0005932672
000210 e5 3b 3f 37 16 33 4e 37 fb 14 a0 35 8a 0d 83 36
       1.1398432e-05 1.2290451e-05 1.1927035e-06 3.9056804e-06
000220 e9 3a 3f 38 03 50 90 39 4a d5 69 36 dd 60 8d 36
       4.5592813e-05 0.00027525434 3.4843856e-06 4.213404e-06
000230 2d 3c 84 37 b1 49 6c 39 6a 5e 5b 39 5d 0e 8f 3a
       1.5763648e-05 0.00022534166 0.0002092064 0.0010914315
000240 3a 1b 96 37 6c 25 58 38 0a 88 bf 37 88 b8 02 39
       1.7894072e-05 5.1533265e-05 2.2832322e-05 0.0001246651
000250 39 dd 34 38 b0 97 f4 3a 28 c5 5d 38 a3 ed d8 37
       4.3121374e-05 0.0018660929 5.2874122e-05 2.5859865e-05
000260 c3 ec 21 39 b4 66 9f 3a c3 9e a0 3a 3b 1b aa 3b
       0.00015442357 0.0012161345 0.0012254346 0.0051912344
000270 aa 2a cc 36 cd 52 e0 36 35 45 0b 36 3e d1 1a 37
       6.0846405e-06 6.6853595e-06 2.0752898e-06 9.227833e-06
000280 48 61 8b 37 d1 fd 4c 39 58 2c 8c 36 e7 f9 3c 36
       1.6615391e-05 0.0001954951 4.1774874e-06 2.8159645e-06
000290 4f 05 6c 37 a3 06 1a 39 75 f1 b8 38 24 3a f9 39
       1.4067932e-05 0.00014689057 8.8187786e-05 0.000475363
0002a0 88 11 81 33 b3 b6 f9 33 8f 8e 2c 34 00 7c 11 35
       6.0102195e-08 1.1628199e-07 1.6070611e-07 5.4197153e-07
0002b0 d8 16 14 34 a8 4b d5 36 13 14 39 34 69 85 8a 34
       1.3791885e-07 6.356702e-06 1.723677e-07 2.5801572e-07
0002c0 aa 56 01 35 99 51 13 36 ba 7d 89 36 ae 3f 2d 37
       4.818236e-07 2.1952203e-06 4.0975547e-06 1.032643e-05
0002d0 53 9f d1 32 a3 44 03 33 97 aa ca 32 c2 63 58 33
       2.4403255e-08 3.056324e-08 2.359347e-08 5.038215e-08
0002e0 81 af 31 33 80 c3 27 35 fd 8c 99 32 3f 01 10 33
       4.1370644e-08 6.249684e-07 1.7875658e-08 3.3528746e-08
0002f0 3f 1f fa 32 82 94 1f 34 d0 cd ac 34 af 6a df 33
       2.911804e-08 1.4862056e-07 3.2187245e-07 1.0403652e-07
000300 a1 a3 78 33 3f 24 7a 34 77 cf 6b 34 f5 cc 42 35
       5.789082e-08 2.329625e-07 2.1961556e-07 7.2568884e-07
000310 a3 b8 7a 34 f2 ad 0e 37 a2 39 be 34 c0 d4 82 34
       2.3350235e-07 8.504359e-06 3.543219e-07 2.4369183e-07
000320 f7 29 4f 35 5d 10 82 36 34 39 01 37 40 54 9f 37
       7.7174576e-07 3.876207e-06 7.702318e-06 1.8993509e-05
000330 dd 37 bd 35 62 de b5 35 3e 63 e3 36 fa 4d f6 36
       1.4097856e-06 1.3550273e-06 6.7766805e-06 7.340449e-06
000340 3f 52 ca 36 48 cb b1 37 79 52 78 35 ec 8d 97 36
       6.029644e-06 2.1194704e-05 9.2507213e-07 4.5166726e-06
000350 9c 0f 51 37 ab 92 8e 36 a2 57 d0 36 19 e3 ef 37
       1.2461005e-05 4.249004e-06 6.209085e-06 2.859677e-05
000360 1d b0 72 38 45 11 6a 38 52 bf 96 37 96 be d5 38
       5.7861314e-05 5.580603e-05 1.7970484e-05 0.00010192131
000370 4e 34 59 39 c6 25 c7 3a b6 0b 5c 38 30 a9 b1 37
       0.00020714218 0.0015193752 5.2462994e-05 2.1178828e-05
000380 2a 68 e8 38 f8 eb 95 3a a1 62 91 3a f0 16 98 3b
       0.00011082024 0.0011438122 0.0011092016 0.0046414062
000390 f9 93 d5 31 81 cb 0d 32 3c 8f 75 32 4a d1 01 33
       6.2159384e-09 8.253552e-09 1.4293445e-08 3.02255e-08
0003a0 8f 7a 25 33 26 cd 68 34 8a 86 31 32 59 d8 96 32
       3.8528523e-08 2.1681316e-07 1.0333347e-08 1.7560682e-08
0003b0 2b 9b 02 33 c4 4b ae 32 f1 ba 18 34 88 42 4f 34
       3.0409108e-08 2.029072e-08 1.4224112e-07 1.9302581e-07
0003c0 46 8e 0a 35 ad 6c 1b 35 50 4d f3 35 01 eb 27 36
       5.161604e-07 5.7900144e-07 1.8127412e-06 2.502173e-06
0003d0 e5 02 09 36 9b 2b 32 37 cb 65 53 35 56 27 aa 35
       2.0416276e-06 1.06197795e-05 7.8751754e-07 1.2677435e-06
0003e0 0a 94 38 36 52 3d bc 35 c7 67 8a 36 71 c3 ed 36
       2.7504307e-06 1.4024938e-06 4.1248018e-06 7.085903e-06
0003f0 2c 10 e5 34 81 05 75 35 d2 1a 63 34 24 e0 21 36
       4.266634e-07 9.127762e-07 2.115078e-07 2.4121337e-06

exp_avg f4 [128, 32]
000000 38 f4 a3 b3 a8 3f 9e 36 e4 a8 75 b6 05 0c 81 36
       -7.634702e-08 4.7161775e-06 -3.6606152e-06 3.845899e-06
000010 5a a8 b1 b4 17 12 9e b5 1f f7 52 b5 a7 fa 36 36
       -3.309131e-07 -1.1777182e-06 -7.8590705e-07 2.7266012e-06
000020 c0 4e a8 35 2c 19 80 b4 e4 e7 49 b6 99 b7 ae b4
       1.2539895e-06 -2.3860173e-07 -3.0086312e-06 -3.254361e-07
000030 f7 ea d5 b6 56 97 1e b7 b4 36 78 b6 a6 b0 22 b6
       -6.375248e-06 -9.4527695e-06 -3.6986721e-06 -2.4242704e-06
000040 5b 50 2f b6 fa ee 97 b6 8d c4 45 35 97 56 65 b4
       -2.6123805e-06 -4.527971e-06 7.367424e-07 -2.1358788e-07
000050 b4 93 c5 b5 67 96 4c b5 29 a1 07 36 6e e3 50 b6
       -1.4720631e-06 -7.6214786e-07 2.0210375e-06 -3.1126797e-06
000060 bd 41 fa 35 de 80 66 34 56 85 63 35 07 97 86 b5
       1.8645584e-06 2.1467301e-07 8.475812e-07 -1.0027733e-06
000070 a6 df 1c b7 fd 6d ba b6 31 09 ff 37 33 f2 3b 37
       -9.350397e-06 -5.5560363e-06 3.0402649e-05 1.120246e-05
000080 b9 da 7b b6 17 9c b4 37 35 9e e2 b8 3f fe a2 b7
       -3.7529228e-06 2.1530357e-05 -0.00010805988 -1.9430297e-05
000090 4a 4d 9c 37 96 a2 44 38 ca 81 25 37 19 58 a9 37
       1.863264e-05 4.688146e-05 9.864985e-06 2.0187394e-05
0000a0 fe af 94 b6 ad bc d3 35 67 84 29 b8 91 6b f7 37
       -4.431232e-06 1.5775637e-06 -4.041605e-05 2.9494784e-05
0000b0 11 a3 1b b8 31 c7 9e b6 56 62 8f b7 1e ac 43 b5
       -3.7106747e-05 -4.731956e-06 -1.709272e-05 -7.2893624e-07
0000c0 23 cb 8d b6 ea 0d e8 b8 b2 f9 41 b8 06 f7 b8 35
       -4.2257757e-06 -0.00011065214 -4.6247333e-05 1.3780962e-06
0000d0 d9 e1 11 38 06 86 8c 36 d0 09 37 b6 b2 65 99 34
       3.478103e-05 4.1879275e-06 -2.7274837e-06 2.8572464e-07
0000e0 62 72 43 38 87 c0 c0 37 9b fb f9 b3 d8 ce b6 36
       4.659815e-05 2.2977836e-05 -1.1640733e-07 5.4481025e-06
0000f0 fb 84 2a b8 10 70 85 b8 a5 49 ef b8 71 76 44 b6
       -4.0655006e-05 -6.3628075e-05 -0.000114101254 -2.9275218e-06
000100 d6 57 98 b5 bd 4c 29 38 fc a0 66 b8 fb 27 e7 b8
       -1.1350446e-06 4.0364208e-05 -5.49862e-05 -0.00011022385
000110 a8 91 c6 38 cb b8 dd b7 e9 a2 b3 37 41 d5 2d b8
       9.468506e-05 -2.6431304e-05 2.1414324e-05 -4.1445022e-05
000120 2c 87 34 35 50 5a 0c 35 f5 28 97 38 f8 9f c7 38
       6.7251926e-07 5.2285486e-07 7.20787e-05 9.518856e-05
000130 a8 ff 09 38 20 6e 1a 38 69 19 3b b7 5b ba 8d b5
       3.2901444e-05 3.6819023e-05 -1.1151985e-05 -1.0559555e-06
000140 dd 75 72 b6 ab bb 82 39 6e 5b b9 b9 8e 1a 4f 36
       -3.6129416e-06 0.00024935356 -0.0003535407 3.086086e-06
000150 a7 ef 25 37 8c a5 c4 37 d1 af 03 37 d7 01 bd b6
       9.890565e-06 2.344211e-05 7.849144e-06 -5.632853e-06
000160 0f 63 b7 36 9a 37 83 b8 ed 8e 78 35 bf 98 87 b7
       5.465357e-06 -6.2569234e-05 9.2595184e-07 -1.6164382e-05
000170 ad bb e1 b7 3c 27 eb 38 bb 2e cf b9 e0 22 71 b9
       -2.6909483e-05 0.00011212981 -0.00039516934 -0.00022996543
000180 2c 2f 17 37 4f 88 3c 37 96 42 d0 b8 7b c0 e8 37
       9.011284e-06 1.123741e-05 -9.9306155e-05 2.7746186e-05
000190 20 03 57 b8 b9 79 ac 38 81 8b 0e 37 5f 32 40 38
       -5.1262905e-05 8.224272e-05 8.49634e-06 4.582328e-05
0001a0 bf 6b 06 b6 4a 5a 03 b7 8f 53 41 b8 8c 50 b6 b7
       -2.0030272e-06 -7.8292305e-06 -4.6092606e-05 -2.1733598e-05
0001b0 3c af d8 37 b6 db f4 38 cd 1c e1 37 34 d8 90 37
       2.5830806e-05 0.00011675751 2.6835502e-05 1.7266815e-05
0001c0 fb d6 f2 b6 f7 ac 80 b9 f8 40 3b 39 49 65 91 b5
       -7.237189e-06 -0.0002454293 0.00017857912 -1.083282e-06
0001d0 ea 00 b2 37 e8 2b 8e 38 11 8a 77 b6 9a f6 aa 37
       2.121968e-05 6.779266e-05 -3.6886233e-06 2.0380412e-05
0001e0 22 e6 65 38 13 a6 e0 38 9c 71 df 34 d9 ff 54 38
       5.4812182e-05 0.00010712086 4.1619649e-07 5.0783015e-05
0001f0 ce 33 33 38 c9 5d 18 b9 82 8d 7a b6 49 e0 df 38
       4.2725173e-05 -0.00014530787 -3.7335271e-06 0.00010675245
000200 18 5d bc 35 a7 6f 30 38 be a5 a1 b8 f3 c8 61 38
       1.4034185e-06 4.2065654e-05 -7.70795e-05 5.383133e-05
000210 8c 4f 1f b8 d0 2b 5a 38 88 67 94 36 54 f7 73 38
       -3.7982638e-05 5.2016054e-05 4.4227963e-06 5.8166057e-05
000220 31 14 ec b5 4e 0f 68 36 98 1f 75 b8 4b ca cc b7
       -1.7589247e-06 3.4579602e-06 -5.8441976e-05 -2.4412895e-05
000230 b8 68 2c b8 1b e1 bb b7 36 41 15 b7 11 f1 40 b5
       -4.1105523e-05 -2.239696e-05 -8.896275e-06 -7.187637e-07
000240 0c 65 5e b7 56 a4 89 b9 40 cb 15 39 d3 65 07 35
       -1.3255758e-05 -0.00026253116 0.00014285464 5.043959e-07
000250 2b b8 94 37 d6 16 18 b7 c3 b9 10 b6 67 fd fb b4
       1.7728735e-05 -9.065223e-06 -2.15658e-06 -4.6936768e-07
000260 69 cb 92 37 a3 f3 99 38 21 2f 13 b5 e3 6d 48 38
       1.7499277e-05 7.3409894e-05 -5.483035e-07 4.7786056e-05
000270 d4 b7 f8 b7 90 71 18 b9 e8 7a e6 38 69 9e 01 39
       -2.9649505e-05 -0.00014538155 0.00010990148 0.00012361411
000280 87 83 2f 36 5d d4 88 38 31 41 18 b9 ed e4 88 38
       2.615359e-06 6.524541e-05 -0.00014520135 6.527626e-05
000290 a5 c0 30 b8 f0 59 fc 38 a4 d1 a1 36 31 99 c6 38
       -4.2141084e-05 0.000120330486 4.8225793e-06 9.46991e-05
0002a0 60 04 c6 b6 72 9d a2 35 72 db fd b8 1f 8b d6 b7
       -5.901369e-06 1.2115763e-06 -0.00012104855 -2.5575571e-05
0002b0 dd 3d aa b8 c9 6e 00 b8 df d4 9b b7 ab da 59 b5
       -8.1177546e-05 -3.0620755e-05 -1.8576566e-05 -8.1157003e-07
0002c0 bf db 7f b7 27 b3 e7 b9 48 42 77 39 be b1 43 34
       -1.5250348e-05 -0.00044193232 0.00023580447 1.8225452e-07
0002d0 a7 d1 09 38 ed fd d5 b6 ac 68 9b b6 34 93 0f b5
       3.28586e-05 -6.3774555e-06 -4.6315454e-06 -5.348586e-07
0002e0 48 f0 60 38 69 67 0e 39 c7 59 84 b4 67 51 70 38
       5.362954e-05 0.00013580699 -2.4652238e-07 5.729627e-05
0002f0 5a 6c 3d b8 f3 5a 80 b9 d2 89 71 39 f7 e1 47 39
       -4.516202e-05 -0.00024481825 0.00023034893 0.00019062297
000300 1a 87 c8 35 c3 c9 eb b6 bf ec 88 37 c5 62 c2 36
       1.4940481e-06 -7.027034e-06 1.6322707e-05 5.793149e-06
000310 b0 5b 20 36 8e 8d 83 b7 ad 03 6c 36 5e 98 35 b6
       2.3895227e-06 -1.5682333e-05 3.516888e-06 -2.705979e-06
000320 77 ae 51 b4 f1 38 21 b4 ef 3f 3f 36 a4 6b 2f b5
       -1.9528112e-07 -1.5015009e-07 2.8498432e-06 -6.534922e-07
000330 a6 8d 21 36 93 47 4b b6 9e 9b 36 36 75 0b 75 b5
       2.407332e-06 -3.029102e-06 2.7210694e-06 -9.1286284e-07
000340 61 cc b1 34 48 7a 1c 38 fd e3 d9 b6 67 33 a8 b3
       3.3117524e-07 3.730718e-05 -6.4936453e-06 -7.83246e-08
000350 cf 02 94 36 f9 5f 89 b7 87 2f e1 b3 bf ce 57 b4
       4.4110707e-06 -1.6376363e-05 -1.0486024e-07 -2.0098649e-07
000360 53 d4 fb 36 84 4d 9d b7 31 bb ec 34 aa 5a 3a b7
       7.5051007e-06 -1.8751954e-05 4.4094625e-07 -1.1107573e-05
000370 45 8c 84 b6 4f 4d 01 37 d2 66 49 b6 75 91 45 b7
       -3.950236e-06 7.706999e-06 -3.0011183e-06 -1.1775982e-05
000380 dc c3 bc 36 1a 22 c4 b6 d2 c8 43 b8 8f b2 b3 38
       5.6256376e-06 -5.845225e-06 -4.667865e-05 8.568644e-05
000390 b0 ae a1 b8 36 fd 62 38 a5 59 ce 36 5a 47 89 38
       -7.709616e-05 5.411842e-05 6.1497144e-06 6.545959e-05
0003a0 4c be ac b4 3b 36 0d b6 0c 40 94 b8 2d ac 90 b8
       -3.2175956e-07 -2.1042204e-06 -7.0691196e-05 -6.898525e-05
0003b0 1f 11 71 b8 84 51 d4 b7 ab 70 ac b6 a7 d1 a1 34
       -5.7474823e-05 -2.5310328e-05 -5.1391157e-06 3.014113e-07
0003c0 86 c0 35 b7 d3 22 b7 b9 83 a1 a5 39 dd a3 28 35
       -1.0833266e-05 -0.00034930426 0.00031591588 6.282333e-07
0003d0 a8 bd 42 37 47 c0 88 b7 8c 75 79 b6 ea 02 9e b5
       1.1607459e-05 -1.6302e-05 -3.7172313e-06 -1.1772765e-06
0003e0 54 41 ae 37 8b ce de 38 52 aa 74 b5 4a 2a 1e 38
       2.0772837e-05 0.000106242565 -9.114493e-07 3.770952e-05
0003f0 d9 1b 9f b7 4d 20 2f b9 47 a6 9a 39 13 73 6b 39
       -1.8967245e-05 -0.00016701334 0.00029497055 0.00022454215
