models/drone/policy_ego_rotor_best_iter63.pth (torch, 80830 bytes, 20 tensors)

lstm.weight_ih_l0 f4 [128, 12]
000000 8e 23 93 bc a8 f3 d0 be 5d 43 a5 3d 87 d0 25 3d
       -0.01796129 -0.40810895 0.08069489 0.04048207
000010 dc d9 95 be 10 fd 20 3d 04 0b 8c bd ee ed ff 3d
       -0.29267776 0.03930384 -0.068380386 0.12496553
000020 10 bd 99 3d c9 ca 83 be a0 e6 23 be 9b da 0d bd
       0.07506764 -0.2574065 -0.16005945 -0.034632307
000030 d3 23 96 bc f9 7f f8 3d 82 47 6a 3e 78 d4 41 bd
       -0.01832763 0.12133784 0.2287884 -0.047321767
000040 41 5e e1 bd a7 59 6e 3c 10 9d 61 3e 6b e0 cd 3d
       -0.11004306 0.014547742 0.22032571 0.1005257
000050 4e 40 77 bb 54 d4 df bd 8d 12 89 bd 16 48 ea bc
       -0.0037727538 -0.1092917 -0.066929914 -0.028598826
000060 15 5a ff 3d 98 cc 00 bd 47 04 98 bd 32 fb 27 3e
       0.12468354 -0.031445116 -0.07422691 0.16404417
000070 f4 e4 6b be a6 fd a1 3d b2 14 6d 3d db 14 6b 3e
       -0.23036557 0.07909708 0.057881065 0.22957174
000080 ab 71 3a 3e 9d 07 c4 bd 81 91 2a be 20 28 20 bd
       0.18207423 -0.095717646 -0.16657068 -0.039100766
000090 36 53 d0 bd c6 16 43 3e 07 58 7b 3e 7d 1a 4b be
       -0.10172121 0.19051656 0.24545299 -0.19834323
0000a0 86 f5 74 3e fd b4 1f be 83 40 aa 3d 23 f7 f4 3d
       0.23921785 -0.15596385 0.08313086 0.119612
0000b0 89 a3 c0 3d 5a 4b da 3d d0 7e cf bb 9b 2b ca 3d
       0.09406192 0.106589034 -0.006332256 0.09871598
0000c0 51 9d d6 bd 74 f0 9e 3d 56 e3 be be 2c 44 9b 3c
       -0.104792245 0.077607065 -0.3728282 0.018953405
0000d0 4c ce 22 3e 79 81 32 be 58 d6 8d 3e 94 80 9d 3e
       0.15899009 -0.17432202 0.27702594 0.3076216
0000e0 9d 41 86 bd ae 35 ad bd 59 ae a9 3d e8 14 7c 3c
       -0.065554835 -0.08457504 0.08285207 0.015385844
0000f0 01 51 92 be 47 38 5c 3e 72 46 1d be 06 68 00 3e
       -0.28577426 0.21505843 -0.15358904 0.12539682
000100 70 17 bf 3b 85 aa 07 be 7b 3e 27 bd 9d 34 d4 3c
       0.0058316514 -0.13248642 -0.04083107 0.025903994
000110 de 4c 56 be 4f 0f f8 bd 1f a1 33 3e c7 c5 ab bd
       -0.2092776 -0.12112295 0.17541932 -0.083873324
000120 77 1f 55 3e 23 9c 88 3d 73 00 8e be ea 56 3d 3e
       0.20812784 0.06670406 -0.27734718 0.18490186
000130 58 f2 21 3e 05 df 3d be 52 62 b4 be e9 b8 49 bd
       0.15815103 -0.18542106 -0.35231262 -0.04924861
000140 4c 94 9b be 45 35 55 be 78 3d 29 bd e0 b6 86 be
       -0.3038658 -0.20821102 -0.041318387 -0.26311398
000150 f4 7c e5 bd 71 fb f3 bd ad 6c db be 3e aa 64 3c
       -0.112054735 -0.11913193 -0.4285635 0.0139566045
000160 6b 20 3f bd 42 18 82 3d cb cd 9a bd b1 20 2b be
       -0.046661776 0.06352283 -0.07558783 -0.1671169
000170 69 13 80 3d 0d 26 49 3d 69 1a 01 bd 41 14 8b bd
       0.06253702 0.049108554 -0.031519327 -0.067909725
000180 fd b9 49 be 6d cf 0f 3e d3 55 b0 bd d5 e5 5d be
       -0.19699855 0.1404397 -0.0861012 -0.21669705
000190 0d 80 bd 3d d3 68 d0 bd a1 ec e4 3d 2f 17 87 3c
       0.092529394 -0.10176244 0.11177946 0.016490547
0001a0 77 3b 0b be 9b 43 45 be e4 44 e4 3d 40 fc c5 3c
       -0.13596903 -0.1926407 0.11145952 0.024168134
0001b0 b4 5d 57 3e 18 7e 0a bd a8 e5 d2 bd 29 9d 43 3e
       0.21031839 -0.03381166 -0.1029771 0.1910292
0001c0 b6 90 2a 3e 7e cb 54 be 60 78 ff bd 10 04 2c bd
       0.16656765 -0.20780751 -0.124741316 -0.04199606
0001d0 f5 f9 fd 3c 5a aa 11 3d 62 78 2b be 5f 82 24 be
       0.031002978 0.03556285 -0.16745141 -0.16065358
0001e0 fe ef b0 be fc a4 11 3e be 3c bc 3d f6 00 8d be
       -0.345581 0.14223093 0.09191273 -0.27539796
0001f0 a9 4e 3c 3e 65 cc 38 be f7 1a 2a be 9b 37 86 bc
       0.18389381 -0.1804672 -0.16611849 -0.016383937
000200 e3 0b 06 3e 4a 43 1f 3e a6 ba d1 bd 9b e6 9f 3c
       0.13090472 0.15553012 -0.102406785 0.019519141
000210 84 b2 a8 3e 6d fe d9 bb f2 8c 81 be bc e3 cf 3e
       0.32948697 -0.0066526444 -0.25302845 0.40603435
000220 d9 b3 c8 3d 10 bc 88 bd 1c f2 d5 bd 66 cb 06 be
       0.09799928 -0.06676495 -0.10446569 -0.13163528
000230 d9 a5 28 be 18 eb cc bc b6 10 82 bd 21 41 c8 bc
       -0.16469516 -0.025014445 -0.063508436 -0.024445118
000240 83 c7 bc 3d 10 36 5a be c6 0f 9a be 62 96 1b 3d
       0.09217741 -0.21309686 -0.3009016 0.037985213
000250 4e a0 8c 3d cc ef ad 3d d9 c8 31 be e5 ee 13 3e
       0.06866513 0.08493003 -0.17361774 0.144466
000260 58 b9 98 bd f9 9c 57 3c 7f 7e e9 bd a0 bb e1 bd
       -0.074572265 0.013159984 -0.1140108 -0.11022115
000270 f9 11 25 3e 12 16 59 be 3e 53 c9 3d ef 59 2c bc
       0.16120137 -0.21199825 0.0983033 -0.010519489
000280 6d 3c 82 be 7f 3a cf 3d 7f a7 d9 bd ce 02 5d bd
       -0.25436726 0.10118579 -0.106276505 -0.053957753
000290 2d 65 16 be 8a d6 a4 bc d4 6e 07 be 98 93 13 bd
       -0.14687033 -0.020121831 -0.13225871 -0.03602943
0002a0 ba c7 f8 bd 56 af 28 be 20 c8 06 bf 69 49 58 3e
       -0.1214747 -0.16473135 -0.52649117 0.21121754
0002b0 28 49 b8 3c e5 92 26 be ee bc 04 bd b6 12 1b 3e
       0.022495821 -0.16266973 -0.03240674 0.15143856
0002c0 10 a5 92 bd d3 bf 73 bd db ca ed bd a0 b4 2a bd
       -0.071603894 -0.05950911 -0.11610957 -0.041676164
0002d0 2a 71 ed 3d ca a9 00 3d a2 e8 b2 be ee 86 53 3e
       0.1159385 0.031411923 -0.3494311 0.2065694
0002e0 e2 89 c9 3c 7e f8 be 3c a4 80 d9 bd 07 76 6f be
       0.02460188 0.02331185 -0.106202394 -0.23384868
0002f0 98 27 88 bd 6d e6 4c bd 20 0e 5f 3e a3 28 6b be
       -0.06648177 -0.05002444 0.21782732 -0.2296472
000300 5e 10 31 3d 5b aa 2d bc b8 03 1d be 45 d1 5e ba
       0.0432285 -0.010599698 -0.1533345 -0.00084998115
000310 d6 38 38 3d e6 5d 9a 3d cb dd c9 3d 9d e5 8a be
       0.044976078 0.07537441 0.09856757 -0.27128306
000320 40 18 0c be 26 c6 1e be ae b5 c7 3d 11 48 fe bd
       -0.13681126 -0.15505275 0.097514495 -0.12416089
000330 71 b4 b0 3e 87 62 f1 3e 15 ba 8a bd 75 b5 99 3c
       0.34512666 0.47145483 -0.067737736 0.018763283
000340 26 98 22 3e 95 2c f8 3d 2e b3 c7 3b 4f d1 02 be
       0.15878353 0.12117878 0.006094358 -0.12775157
000350 2e bb 92 be f9 d4 0c 3e b8 7f c5 3d cb e0 0e 3e
       -0.28658432 0.13753118 0.09643501 0.13952939
000360 bb c0 de 3e d5 4c ae be a1 c7 9c be 30 64 a6 3e
       0.43506417 -0.34042993 -0.30621055 0.32498312
000370 cf c3 29 be 7d 77 af 3d e4 9b 17 be da 4c 0b be
       -0.16578601 0.085677125 -0.14805561 -0.13603535
000380 11 da f7 bc 0b ae b6 bd 92 82 2f bd 4d b6 1b 3d
       -0.03025535 -0.08919915 -0.04284913 0.038015652
000390 3c 9c 32 3e 3d 18 8b 3d f0 71 a2 be 09 aa 8a bd
       0.17442411 0.067917325 -0.31727552 -0.06770713
0003a0 50 57 90 3e c8 78 14 be 37 a2 9f be 6b 74 1f bd
       0.28191614 -0.144992 -0.31178448 -0.038929384
0003b0 b6 10 a5 be eb 81 a6 3b 07 30 8b 3d 96 64 7d be
       -0.32239312 0.0050814054 0.0679627 -0.24745402
0003c0 68 9a ba bd 35 48 f4 3d 73 b6 dd 3d 9a 11 d4 3c
       -0.09111482 0.11927835 0.10825815 0.0258873
0003d0 90 76 3f be c1 a6 08 bd 37 ac 9b bd 59 ff 14 3c
       -0.18697572 -0.033362154 -0.07601207 0.009094083
0003e0 88 24 0a be 12 c0 ab 3e 55 6a 84 3e e7 31 b7 bd
       -0.13490498 0.33544976 0.25862375 -0.08945065
0003f0 8e 8c ed bd 0b 33 32 3d 36 fc 65 be f7 2e b0 3b
       -0.11599074 0.04350571 -0.22459492 0.0053766924

lstm.weight_hh_l0 f4 [128, 32]
000000 d8 11 26 bc c9 67 71 3e 05 99 54 3e 60 9e 9c 3e
       -0.01013609 0.23574747 0.20761497 0.3058958
000010 d0 5f 43 3e bc 6b 07 be 8e c8 a2 be dd d1 46 be
       0.19079518 -0.13224691 -0.31793636 -0.19415994
000020 e2 10 cb be 0f 46 38 be 50 e1 89 bd c0 34 90 bd
       -0.39661318 -0.17995475 -0.06732428 -0.07041311
000030 3b 52 a9 3e 8e 1a c4 3d 8e 2a e2 bd 85 d1 0e bd
       0.3307055 0.095753774 -0.11043273 -0.034867782
000040 ec 0d f7 bd f2 ea 07 3e 40 c1 68 be c5 db d8 bd
       -0.12063202 0.13273218 -0.22729969 -0.10588793
000050 91 0b 68 be ad 8b 0f 3e bc b9 75 3e 0b a9 08 bb
       -0.22660662 0.14018126 0.23996633 -0.002085271
000060 20 34 72 be 5f c0 01 be 42 78 5e 3c 81 ff c1 3e
       -0.23652697 -0.1267104 0.013578476 0.37890247
000070 07 57 c8 bc 9d 96 28 3d 32 6e d2 3d b5 19 5b be
       -0.02445556 0.04115926 0.10274924 -0.21396525
000080 82 68 24 3e 75 79 63 be ff 3c 75 bc 12 69 b9 bc
       0.16055492 -0.22214301 -0.014968156 -0.02263311
000090 cc 1c 1d bc ca d6 57 be 28 fb 89 3d 51 65 1d 3e
       -0.009589385 -0.2107803 0.067373574 0.1537068
0000a0 84 7a a7 bc 45 dc 2b 3e 78 6e 68 3e 39 2f 9c bb
       -0.020444162 0.16783245 0.2269839 -0.0047663716
0000b0 56 3c 93 3e a3 fc 91 3d 79 a4 33 3e 74 2a 7a be
       0.2875697 0.07128265 0.1754321 -0.24430257
0000c0 5e 07 e7 bc 63 2e 56 3e 27 23 6f 3c eb b0 7a be
       -0.028201755 0.20916133 0.014595783 -0.24481551
0000d0 95 5b 7b 3d b3 22 b6 3d 39 67 a4 3d 8d 56 ba bd
       0.061366636 0.08893337 0.08027501 -0.090985395
0000e0 32 5c b0 bd 2e 31 77 bc 4a d6 f5 3d 0d 20 4c be
       -0.08611335 -0.015087409 0.12003763 -0.19934101
0000f0 4e f1 33 3e 78 00 b3 3d 5b e1 84 3e b5 1c 01 be
       0.17572519 0.08740324 0.25953183 -0.12608607
000100 bc dc 30 bd 74 be d2 bd cc a5 17 be 10 ed 9b 3e
       -0.04317926 -0.10290232 -0.1480934 0.30454302
000110 66 a1 fd bc bc 71 62 bd 9c c0 73 3e cf f2 6a 3e
       -0.03096075 -0.055284247 0.23803943 0.22944187
000120 46 43 82 be ec fa af 3d 6c ba 27 3e bf 67 dc bd
       -0.2544195 0.085927814 0.16379708 -0.107619755
000130 96 67 96 bd 6a 74 bd bd 60 7b b9 bc 63 8d 4d bc
       -0.07343976 -0.0925072 -0.022641838 -0.012545916
000140 20 0c a4 bd 9b 79 10 3e 80 39 4a bd cc 45 a9 bd
       -0.08010125 0.14108889 -0.049371243 -0.08265266
000150 92 50 a1 3d a3 9d 74 bd 55 31 55 3e 98 af 2e 3e
       0.07876696 -0.059720647 0.208196 0.17059171
000160 bd d6 6a bb 96 bc cb bd c9 75 e1 bb ea 1f d9 3b
       -0.003583356 -0.09948079 -0.006880496 0.006626119
000170 9a 2c 62 bd c2 5c a7 3d 26 a3 ca 3d 04 f5 a1 bd
       -0.055218317 0.08171989 0.09894399 -0.07908061
000180 15 9b 87 3e 76 8a 6b 3d 8b 71 35 be e2 0b b0 3a
       0.26485506 0.057505094 -0.17719094 0.0013431276
000190 11 45 1f 3e 57 c0 8f bd 85 1a 50 be 6a 56 67 3e
       0.1555369 -0.07019108 -0.20322616 0.22591558
0001a0 42 d0 f3 bc 75 28 51 be 35 46 2f 3e 3f 02 74 3d
       -0.029762391 -0.2042559 0.17116626 0.059572455
0001b0 72 ad 4d be 22 89 88 be 45 7c ce bd 38 fa 1b 3e
       -0.20085695 -0.26667124 -0.10082296 0.1523217
0001c0 5e eb bf bc 47 75 2f 3d 58 30 18 3d 4b cb 91 bd
       -0.023427662 0.042836454 0.03715548 -0.07118853
0001d0 e7 67 d4 3d 67 a7 45 be 5a c5 cc bc 4b c9 5e 3e
       0.1037138 -0.1930214 -0.024996448 0.21756475
0001e0 d5 92 7b 3d d7 f2 50 be a1 9d ca bd e6 64 fa 3d
       0.061419327 -0.20405136 -0.098933466 0.12226276
0001f0 c7 0d f8 bd 41 fd 91 3d 9e 86 6d 3e a1 11 13 be
       -0.12112003 0.071283825 0.23195884 -0.14362194
000200 e2 0d 02 bd e8 db 89 3d 20 93 17 be d5 93 7f 3d
       -0.03175152 0.06731397 -0.14802217 0.062396843
000210 05 8f d9 bc 31 f2 6e 3e dd b7 15 be da ed be 3d
       -0.026557455 0.23334576 -0.1462092 0.0932271
000220 de 61 c3 be c9 e0 d2 be f8 dc 44 bd d2 5b a1 3d
       -0.38160604 -0.41187122 -0.048062295 0.078788415
000230 90 b0 30 3d 24 14 b1 3d 8a 15 34 be 0d ae 9d 3c
       0.043137133 0.0864642 -0.17586342 0.019248033
000240 71 53 69 be a3 35 bd bc 1e e1 18 3e 21 36 a3 3d
       -0.22785737 -0.023096865 0.14929625 0.07969309
000250 6f 0c 83 be cd 74 b9 3d 30 86 d5 bd a5 c9 ff bd
       -0.25595424 0.09055481 -0.10425985 -0.124896325
000260 98 62 5b 3e 19 f7 2b bc c7 5e a4 bd f8 7e 14 3e
       0.2142433 -0.010495924 -0.0802589 0.1450156
000270 ba a0 fe bd 0d ff 48 be ed c7 48 ba a4 20 76 bd
       -0.12433 -0.19628544 -0.0007659186 -0.060089722
000280 e6 39 3b bc 3b 97 35 bd 6a 68 ac be 2a f1 57 3e
       -0.011427378 -0.044333678 -0.33673412 0.2108809
000290 94 18 8a be 04 32 be 3d e0 83 0a 3e b9 c7 7d 3a
       -0.26971877 0.092868835 0.13526869 0.0009680945
0002a0 fe 7c 17 bd 96 e8 0a 3e 8c 7f 0b 3d 09 18 cf 3d
       -0.036984436 0.13565287 0.034057185 0.10112006
0002b0 51 0a 44 be a6 2b 4d 3d f6 92 3d bd 12 e0 ee bc
       -0.1914456 0.050090455 -0.04628273 -0.02915958
0002c0 bf f0 04 3e 77 7b 7f 3d ec 6b 3d bd 17 78 b5 bd
       0.12982462 0.062373605 -0.0462455 -0.08860796
0002d0 4a c9 22 3e 20 5f c3 3c cd 24 8b 3c 6f 02 0e 3e
       0.15897098 0.02384907 0.016985321 0.13868116
0002e0 94 c9 7d 3e af 09 ae 3d 57 26 cc 3e c8 81 0f be
       0.24783927 0.08497941 0.39873 -0.14014351
0002f0 b2 67 03 be 67 fb 2a bd 37 fb d9 3d 3d 9f 22 bb
       -0.12832525 -0.041743662 0.106436186 -0.0024814152
000300 8b 46 1e be c3 78 fe bd e9 e3 8f be 12 84 bb 3e
       -0.15456598 -0.12425377 -0.2810357 0.366242
000310 19 0a 9e be 1f 5a e1 3c c0 51 e0 3d 30 e6 96 3d
       -0.3086708 0.027508793 0.109530926 0.073681235
000320 f8 7c 9c bc 53 3f b6 bd eb e1 01 be 23 dd 21 3e
       -0.019102558 -0.08898797 -0.12683837 0.15807013
000330 80 20 10 be 15 ff 8b be 72 c9 be bd 8c 62 d1 bc
       -0.14074898 -0.2734305 -0.093157664 -0.025559686
000340 42 ec 36 be c5 34 d4 bd 46 0c 38 3e e8 e0 8b 3e
       -0.17863563 -0.103616275 0.17973432 0.27320027
000350 a5 f9 27 3e 2d fe 99 bd 31 4d 04 3e aa a0 4d be
       0.16403826 -0.07519183 0.12920071 -0.2008082
000360 6e 3b c8 3e 6b 8a 57 bd 4c 63 f8 3e ad 79 8e be
       0.3910784 -0.05262224 0.48513258 -0.27827206
000370 7f c0 c7 be 6d 27 5c be d5 99 00 3e 3c 6c c3 3e
       -0.3901405 -0.21499415 0.12558682 0.38168514
000380 a4 af a7 3d 84 29 3e ba db b7 30 be 2b 5a 42 3e
       0.08187798 -0.0007254111 -0.17257635 0.18979709
000390 e2 ce 42 be a8 a9 e3 bd 3e 82 ea bd 6c 7b 86 3d
       -0.19024232 -0.11116344 -0.11450623 0.065665096
0003a0 a0 35 82 3d cd 97 91 3d af 4e eb 3d 3e 36 26 3e
       0.063578844 0.07109032 0.11489617 0.16231629
0003b0 a1 ba 14 bd 16 27 5f 3e 6f 01 39 bd 66 32 8a 3d
       -0.036310796 0.21792254 -0.045167383 0.06747894
0003c0 a2 31 0b 3e 2a 63 0b bd 7c 00 ba 3d 04 fa cf 3d
       0.13593152 -0.034030117 0.09082124 0.101551086
0003d0 d6 03 6e 3d 51 c1 e0 bd e4 63 08 be 6d e0 97 3d
       0.058109127 -0.10974372 -0.13319355 0.07415853
0003e0 97 18 48 3e be e5 4c be 80 6d 3b 3e 08 57 8d 3d
       0.1954063 -0.20009515 0.1830349 0.069013655
0003f0 f1 91 8f 3c 91 4c 4f bc 5d 8c 0a bd 6d 2e 23 3e
       0.017525645 -0.012652532 -0.033825267 0.15935679

lstm.bias_ih_l0 f4 [128]
000000 24 bc 28 3e f2 e6 8c bd 8d 62 3f 3d 48 06 90 bd
       0.1647802 -0.06879987 0.046724845 -0.07032448
000010 bb e1 1d be 19 5e 52 3d ef 64 e1 be 98 97 ca 3c
       -0.1541814 0.05135927 -0.4402232 0.024730489
000020 3f 9d 88 be d9 c9 f0 bc 85 93 c4 3d 66 28 81 be
       -0.2668247 -0.029393123 0.095984496 -0.25226134
000030 d5 41 4a be ee 66 76 be 7b 6e 3c be aa 93 ce be
       -0.19751675 -0.24062702 -0.1840152 -0.40347034
000040 38 33 cb bc 45 6a de 3d a0 25 06 be af 00 45 be
       -0.024804696 0.10860113 -0.1310029 -0.19238542
000050 28 34 21 be 71 71 e1 bd 05 92 d4 bd 4d db 0f be
       -0.15742552 -0.11007965 -0.103794135 -0.140485
000060 8e a8 0b 3e a4 89 1c be b7 23 db bd 47 8f b2 bd
       0.13638517 -0.1528688 -0.107001714 -0.08718734
000070 5e 18 ce 3d a2 89 4c 3e 9d 05 91 bd 65 57 63 3e
       0.100632414 0.19974378 -0.07081149 0.22201307
000080 bc 09 05 3e c8 a7 db bd 6c 27 ee bb 5f f8 e1 3d
       0.12991995 -0.10725361 -0.007267883 0.11033701
000090 f8 fd 7b bd d7 ce 5d be 22 62 88 be 58 72 56 be
       -0.0615215 -0.21660934 -0.2663737 -0.20942056
0000a0 2a 58 76 bd 67 fa 1e be f1 06 20 3e 1f ef b0 be
       -0.060142674 -0.15525208 0.15627648 -0.34557435
0000b0 5d 09 1a be ca 00 d7 3c b8 d4 bf be 30 fc 26 bd
       -0.15042634 0.026245493 -0.3746698 -0.04076785
0000c0 97 78 36 be a0 4d 1e 3e 93 ac 56 be d1 e0 86 be
       -0.17819439 0.15459299 -0.2096427 -0.26343396
0000d0 01 4e 5d 3d be fb ad bd 9e cf 94 be 61 47 2b be
       0.05402947 -0.08495282 -0.2906465 -0.16726448
0000e0 aa fe 65 3d 62 a4 e0 bc ff 67 cb be 18 72 fb bc
       0.05615107 -0.027422134 -0.3972778 -0.030694053
0000f0 61 0c 14 3e 30 a1 15 be 05 d4 1a bd ee 33 26 3e
       0.14457847 -0.1461227 -0.037799854 0.16230747
000100 c7 fe 97 3d 8b 24 26 be b8 ea 0e 3e f4 64 05 be
       0.07421642 -0.16224878 0.13956726 -0.13026792
000110 25 89 df 3d a6 52 45 bd ff df 2c 3d b0 d5 a9 3d
       0.1091483 -0.048174523 0.042205807 0.08292711
000120 cd 95 bf 3b d5 c8 f3 3d 31 74 ee 3c 53 e2 67 bd
       0.005846715 0.1190354 0.029108139 -0.056612324
000130 17 4d e5 3d 1a 39 07 bd 2a 3d 93 bd ea ce 7e bd
       0.11196344 -0.03301344 -0.071894005 -0.062209047
000140 aa 1e 1d 3c 39 2e 65 3c 23 ba 40 be d8 dc 88 bc
       0.00958983 0.013988071 -0.18821006 -0.016706869
000150 a3 aa 25 bd 27 3e 25 bd 92 74 e8 bd d5 42 88 3d
       -0.040445935 -0.040342476 -0.11350359 0.06653372
000160 98 80 dc bb 77 3e 47 3d f8 85 eb bb 6f 34 58 3d
       -0.0067291968 0.048643555 -0.007187601 0.05278438
000170 57 0f b7 3d 7e fd 93 bd 02 19 06 be ad a8 5b be
       0.08938473 -0.07226084 -0.13095477 -0.21451063
000180 c2 1d 0b 3e 4a 46 03 3e ea 4b c7 bc 3e f6 2a be
       0.1358557 0.12819782 -0.02432819 -0.16695496
000190 ae 21 ab 3d 1a d2 ab bd c4 1a f5 be d0 8a f3 3d
       0.08356033 -0.08389683 -0.47871983 0.11891711
0001a0 f4 04 5d 3d 4a 16 ef 3c e7 0d 35 be 91 25 18 be
       0.0539598 0.029185433 -0.17681085 -0.1485808
0001b0 af 22 3f bd ea 1a 12 be bd 35 74 be 5c 9d 89 be
       -0.046663936 -0.1426808 -0.23848625 -0.26877868
0001c0 57 e7 e0 bd 9b 81 46 be c3 db e2 bd b4 4e ee bd
       -0.109816246 -0.19385378 -0.110770725 -0.11636105
0001d0 c9 41 b5 3d cc 54 d2 bc 51 14 6a be bf bd a7 be
       0.08850438 -0.0256752 -0.22859313 -0.32761952
0001e0 3b 42 09 3e 50 f5 99 bb 97 25 fc bd f9 37 16 be
       0.13404171 -0.004698433 -0.12311857 -0.1466979
0001f0 9b d2 2a be 16 2f 47 be 96 a9 b0 3c 90 c3 f2 bc
       -0.16681902 -0.19451556 0.02156524 -0.029634267

lstm.bias_hh_l0 f4 [128]
000000 22 18 e7 3c 35 02 61 3d 0e 92 c7 3c 80 67 d7 3c
       0.02820975 0.054933745 0.024361636 0.02629447
000010 f5 b1 99 3d 72 f4 5d be 8f f8 ad be 94 49 07 3e
       0.07504646 -0.2167528 -0.33978698 0.13211662
000020 17 77 e8 bd cf a9 f2 bd e5 1a b4 3d de 39 8c bd
       -0.113508396 -0.11848795 0.08794192 -0.06846975
000030 fd 71 c1 bd b6 e7 c6 3c e9 be 29 be d6 ed d3 be
       -0.0944557 0.02428041 -0.16576733 -0.41392392
000040 c0 7e e0 bc d7 35 be bd 03 c5 a1 bd a9 03 89 be
       -0.02740419 -0.09287613 -0.07898905 -0.26760605
000050 c3 ee cc 3d 70 82 a3 be a0 ab 13 bc cd f9 18 be
       0.10006478 -0.31935453 -0.009013087 -0.14939041
000060 32 ee 2d be aa 64 33 bd 56 da 46 3c ec ee 40 3d
       -0.16985396 -0.043797173 0.012137016 0.047102854
000070 6b f5 14 3e a0 f1 3b 3e 27 42 dd 3d e7 c7 73 3e
       0.14546745 0.18353891 0.10803633 0.23806725
000080 84 d1 36 3e ec 4c df bd 11 71 11 be 73 2c 2a be
       0.17853361 -0.109033436 -0.14203288 -0.16618519
000090 94 f6 e6 bd de ab 90 bc 9f 68 64 be 88 46 1c bd
       -0.112775 -0.017660078 -0.22305535 -0.0381532
0000a0 c8 23 1d 3d 85 34 f4 3d 79 1e de 3d 2c f8 51 be
       0.0383642 0.1192408 0.10845656 -0.20504826
0000b0 1b 40 9c bd 79 cf 53 be 44 30 21 be c0 77 94 be
       -0.07629415 -0.20684613 -0.15741068 -0.28997612
0000c0 59 0b 57 be 34 d4 4b 3e ee fb 91 3d 25 9b 8d be
       -0.21000423 0.19905168 0.0712813 -0.27657428
0000d0 c5 2e c9 3d 47 27 fc bc c7 cf c6 be 55 f4 b1 be
       0.09823374 -0.030780448 -0.38830397 -0.34756723
0000e0 2a 39 23 3d f9 d2 0c 3e e7 c6 b6 be 05 15 75 be
       0.039849438 0.13752355 -0.35698625 -0.239338
0000f0 c9 73 11 3e 17 8d b1 3d dc 10 fa bd 20 64 3d 3e
       0.14204325 0.08669489 -0.12210247 0.18495226
000100 83 f7 35 bd fd c1 2f be 34 26 11 3e 69 fd db 3d
       -0.0444255 -0.17163844 0.1417473 0.107416935
000110 5c f6 0e bd cb 14 04 be 7b da 0e 3e a0 71 01 bc
       -0.034902915 -0.12898557 0.13950531 -0.0079006255
000120 ae c1 d1 3d 38 b6 22 be 71 2f 2b bd 6c 57 2e 3e
       0.102420196 -0.15889823 -0.04179329 0.17025536
000130 54 21 f2 bc e0 72 d7 bc 26 ba c0 bd 59 c3 b7 ba
       -0.029556908 -0.026299894 -0.09410505 -0.001402001
000140 c6 63 1b 3c 32 b7 04 be 2a 5b 01 bc 25 95 c1 3d
       0.009484237 -0.12960508 -0.00789527 0.09452275
000150 4b ca 9e bd 92 f0 88 3d 7c 73 ee 3d f0 6a 3e 3b
       -0.07753428 0.0668651 0.11643121 0.002905544
000160 42 86 0f be fb 8b 15 3e de f7 4a be 17 12 3d bd
       -0.14016059 0.1460418 -0.19821116 -0.04615983
000170 5d f5 cd 3d 56 71 28 be 46 3d ee bb e8 59 0f 3b
       0.10056565 -0.16449484 -0.007270488 0.0021873657
000180 05 a1 ac 3d 44 fc be 3d 4c 16 16 be f6 13 6c bd
       0.084291495 0.093254596 -0.14656943 -0.057636224
000190 2e bf a9 3d e2 08 12 be 10 ab d8 be 1c b2 f2 bd
       0.08288418 -0.14261201 -0.4231801 -0.11850378
0001a0 62 6c 0e bd 00 bd 13 be 67 b7 5d bd 4a 17 05 bd
       -0.03477133 -0.14427567 -0.054129984 -0.032492913
0001b0 85 34 68 be 5a ce e3 bd 76 63 cd be 10 0b 68 be
       -0.22676285 -0.11123343 -0.40114945 -0.2266047
0001c0 cb bd ea bd 8e 45 40 bd b5 57 99 bd ec 39 5d be
       -0.114619814 -0.046941333 -0.07487432 -0.21604127
0001d0 e5 52 72 3b c4 3f ce bc 2b d2 4b be ca ed 8f bd
       0.0036975679 -0.02517689 -0.19904391 -0.070277765
0001e0 84 ae a2 bd 63 bf 7a 3d b0 1d 6f 3d 0d 11 c7 3c
       -0.079434425 0.061217677 0.05837792 0.024300123
0001f0 a7 ea 52 be d1 0b 8b bd 20 8b 5f be 36 21 2f be
       -0.20597325 -0.06789363 -0.21830416 -0.17102513

hidden2out.weight f4 [3, 32]
000000 8a 83 0b bd 39 11 45 3e 4e 4f be bd e6 d4 90 bd
       -0.034060992 0.19244851 -0.0929247 -0.07071857
000010 ee de b4 3b 2a 5e 69 bd 7c 29 c0 bc 03 f0 2d be
       0.0055197394 -0.056974567 -0.023457281 -0.16986088
000020 9d ae 1b 3d 34 b2 19 3e 2b 2b 2a 3e 9e 00 17 be
       0.03800832 0.15009385 0.1661803 -0.14746329
000030 3d 83 8f 3d ec 30 ae bd 2a 9e 3d 3d 39 a5 c0 bd
       0.070074536 -0.08505425 0.046293415 -0.09406514
000040 a9 3b 2a 3b 8b 03 a6 bd ff 37 f2 3d f3 47 51 bc
       0.0025975502 -0.081061445 0.11827087 -0.012773502
000050 29 d2 08 3e ff ec 05 3e 8a b4 26 be 98 61 0a 3d
       0.1336142 0.13078688 -0.16279808 0.03378448
000060 2b 30 0e 3e 5e 38 14 be 99 36 f1 bc 04 e5 e3 3d
       0.13885562 -0.14474627 -0.02944498 0.11127666
000070 3e 78 9f bd f2 c2 39 3e d4 b5 06 be d6 5f 07 bd
       -0.07786606 0.18140772 -0.131553 -0.03305038
000080 74 07 0e be 70 c2 38 3d 16 78 98 bd 40 a5 ce bd
       -0.1387003 0.045107305 -0.074447796 -0.10090113
000090 e7 96 19 3e 88 9e f9 bc a4 d2 75 bb bd 6e 1c bd
       0.14998971 -0.030471101 -0.0037509585 -0.038191546
0000a0 98 64 46 3d 5b fb 00 bd a6 05 17 3e 47 34 86 bd
       0.048435777 -0.03148971 0.14748248 -0.0655294
0000b0 00 b9 d3 bd 08 6a 11 be ef 70 aa 3c 6b ba 2f 3e
       -0.1033802 -0.14200604 0.020805804 0.17160957
0000c0 bb 80 7a bd 86 15 b3 3d 4a e2 07 3e b3 6b 68 3c
       -0.061157923 0.0874434 0.13269916 0.014185834
0000d0 80 76 27 bd 22 a4 38 bc d6 d4 86 3d c5 2b 9f 3c
       -0.040884495 -0.011269601 0.06583564 0.01943005
0000e0 e5 38 ea bd 0a 51 1e bb 24 d9 35 be e6 b5 3c 3e
       -0.11436633 -0.002415719 -0.17758614 0.18428764
0000f0 52 ea f3 3d 5e b4 f3 3c 1b 91 e9 bd 8f 4d ef bd
       0.119099274 0.029749092 -0.1140463 -0.11684715
000100 24 3d 81 3d b1 b8 79 3d 81 e4 cb 3d b4 66 37 bc
       0.0631049 0.06096715 0.09955693 -0.01119392
000110 30 88 0b 3e 86 79 54 bd c6 a6 f1 bb d8 36 0a be
       0.1362617 -0.051873706 -0.0073746173 -0.13497484
000120 07 ac ea 3b 6d 96 ea bd ca c2 75 3d 1f 7d 5d 3e
       0.0071616205 -0.11454473 0.06000022 0.21629761
000130 d8 e4 d4 3d 72 e7 18 bd 67 6b 16 bb b4 54 11 3e
       0.10395211 -0.0373301 -0.00229522 0.14192468
000140 0b 49 3c 3d 69 bb 8f bd 64 12 e7 bd 85 5d 65 3d
       0.045968097 -0.070181675 -0.112828046 0.05599739
000150 ed 82 aa bd 06 76 16 bd 42 a0 a5 3e 78 d5 90 bd
       -0.08325753 -0.03673365 0.3234883 -0.07071966
000160 67 83 8b bd 71 f9 8e bb 65 fc dd 3d 39 d9 a1 bd
       -0.068121724 -0.004363232 0.10839156 -0.0790276
000170 8f 1d f6 3d 49 05 e2 bd 75 97 f4 3d 5a bc 37 be
       0.120173566 -0.11036164 0.11942951 -0.17942944

hidden2out.bias f4 [3]
000000 25 b7 10 3d 62 04 c7 bd e2 3d f1 bd
       0.03533091 -0.09717633 -0.11779381

std_layer.weight f4 [3, 32]
000000 7f 0b 32 3e e2 84 96 3d 25 0d 18 be e1 e4 1e be
       0.17387198 0.07349564 -0.14848764 -0.15516998
000010 60 9d 1a bc 42 df e8 3d 3e 54 c9 3d 20 fe fe 3b
       -0.009436935 0.11370708 0.09830521 0.007781759
000020 98 df bb 3c a7 ea 05 be d6 c1 dc 3d 80 74 9b bc
       0.022933766 -0.13077794 0.10779159 -0.01897645
000030 7d c5 11 be cc 33 05 be 38 29 15 bd 2c 0a e4 bd
       -0.14235492 -0.1300804 -0.036416262 -0.11134753
000040 72 64 69 bd e9 a0 30 3e 40 08 f9 3b f2 7e c4 bd
       -0.056980558 0.17248882 0.0075998604 -0.095945254
000050 8f 20 0d 3e 8d 06 28 3e e0 b7 8c 3c 80 3b 91 bb
       0.13781951 0.16408749 0.017177522 -0.004432142
000060 80 a6 ab 3c a8 f0 11 bd f0 6c 06 3d a0 a3 61 3d
       0.020953417 -0.0356299 0.032818735 0.055087686
000070 bb a1 08 3e 82 63 aa 3d 38 45 0e 3d d0 18 5a bc
       0.13342945 0.08319761 0.03473398 -0.01331158
000080 53 3d 0a 3e 8c e0 92 3d d0 7c 65 3d 8a f6 f7 3d
       0.13499956 0.07171735 0.056027234 0.121075705
000090 bc 7f 15 3d a4 55 4a bd 34 eb 38 3d de ec b3 bd
       0.03649877 -0.04939808 0.045146182 -0.08785413
0000a0 e6 ec dd 3d da ea 66 bd 0c 19 25 3d e8 f2 4a 3d
       0.108362004 -0.056376316 0.04030709 0.04954806
0000b0 a6 88 07 be ef 22 17 be 46 d4 f8 3d 81 b2 32 be
       -0.13235721 -0.1475942 0.12149863 -0.17450906
0000c0 e8 71 7d bd 1a bc ce 3d f0 f7 33 3d 19 70 2d 3e
       -0.061876208 0.10094471 0.043937624 0.16937293
0000d0 52 96 31 be b0 99 7b 3d 79 6c 89 bd 36 1a 97 3d
       -0.17342499 0.061425865 -0.06710143 0.07378046
0000e0 7d 8b 04 3e 62 33 f5 3d f1 73 33 be 57 22 80 bd
       0.12943836 0.11972691 -0.17524697 -0.0625655
0000f0 ee 73 fd 3d a2 7f 87 3d 84 26 13 be aa 9f de 3d
       0.123756275 0.06616141 -0.14370161 0.10870297
000100 ee b0 fb 3d 48 bb af bd 3c 10 58 bd a3 69 02 be
       0.12289606 -0.08580643 -0.052749857 -0.1273561
000110 42 0a 09 be 01 49 a7 bd ac 5d 29 bd c0 79 8b 3b
       -0.1338282 -0.08168221 -0.041349098 0.004256457
000120 c6 0b dc 3d 27 46 22 3e 10 79 9e 3c 7e b3 d6 3d
       0.10744433 0.15847073 0.019344836 0.10483454
000130 42 d0 d7 3d 40 b5 0d 3d bb 6f ab bd 42 6f 91 3d
       0.10537769 0.03459668 -0.0837092 0.07101299
000140 08 de e1 3c 8a a7 0f be f6 ce 63 bd ac ec 8d bd
       0.027571693 -0.14028755 -0.055617295 -0.06929907
000150 28 a5 7d 3d f5 89 a7 bd 2a e1 97 3d 10 ac 20 bc
       0.061925083 -0.0818061 0.074159935 -0.009806648
000160 60 5e f7 bc 78 b6 8b 3d 12 2b dd 3d 8c bf 5e 3d
       -0.030196369 0.068219125 0.10799231 0.054381892
000170 c0 68 f7 3c e0 bd 31 bc 04 4e 01 bd 32 e0 b0 3d
       0.030201316 -0.010848492 -0.031568542 0.08636512

std_layer.bias f4 [3]
000000 44 db 13 bd 09 36 09 3e 92 a3 e4 3d
       -0.03609778 0.13399519 0.11164011

exp_avg f4 [128, 12]
000000 bb eb 87 37 3b f0 f6 39 85 85 37 ba ab 32 8a 3a
       1.6203025e-05 0.00047099762 -0.0007000792 0.0010543665
000010 df 78 be 3a 86 77 c3 ba 4c ff f6 38 18 93 27 ba
       0.0014531872 -0.001491294 0.00011777747 -0.0006392463
000020 fb cd 0c 38 21 46 e4 39 f6 2b b8 b9 5c 9e a1 ba
       3.3570435e-05 0.000435398 -0.00035127968 -0.001233052
000030 9c 66 3f 3a bd 32 24 b8 73 b1 af b9 57 dc 3a 3a
       0.0007301362 -3.91479e-05 -0.0003351081 0.000712817
000040 a2 4a a8 3a 9c 9b 12 ba 3e 08 d9 39 7e eb 2c ba
       0.0012839625 -0.00055926456 0.00041395606 -0.00065963704
000050 73 c4 c3 38 f0 0f c1 3a b3 95 53 39 80 a0 7a b8
       9.334916e-05 0.0014729481 0.00020178295 -5.9754122e-05
000060 f4 eb c8 3a e2 b2 69 39 2a f9 66 b9 93 5e ab 39
       0.0015329109 0.0002228725 -0.0002202733 0.00032686125
000070 5f 71 98 3a 4c 92 36 3b 68 a0 c1 3a 02 d4 19 ba
       0.0011630467 0.0027858196 0.0014772536 -0.00058680784
000080 e5 64 06 3a 56 fd 92 3b ee 3d 8a 3b e8 ee 2e 3b
       0.0005126729 0.0044857664 0.0042188084 0.0026692692
000090 a1 8e af b9 d5 b5 1a 3a 12 45 33 3a 41 c9 03 bb
       -0.00033484868 0.0005901729 0.00068386004 -0.002010897
0000a0 61 2f d0 ba fa 69 a2 3b bb 07 75 3a 60 83 c7 3a
       -0.0015883261 0.004956481 0.000934716 0.0015221648
0000b0 c5 b5 7d 39 b4 ef 07 3b 30 a5 a8 3b ab 1d 37 3b
       0.00024195675 0.002074224 0.005146645 0.0027941267
0000c0 0f de 16 b9 69 ca 84 39 f8 a3 b4 b9 7a 64 0d b9
       -0.00014387838 0.0002532781 -0.00034454442 -0.00013484238
0000d0 5e 17 24 b9 a2 b8 6d b9 d7 88 5e 39 0e 62 0c 39
       -0.00015648964 -0.00022670862 0.00021222547 0.00013387969
0000e0 c0 d4 0b b9 20 3d 36 b9 6d 0f 06 3a 1f 12 bb ba
       -0.00013335329 -0.00017379643 0.0005113993 -0.0014272368
0000f0 95 c3 17 b9 e8 ca 3b b8 72 69 84 b8 08 72 23 39
       -0.00014473342 -4.4773245e-05 -6.313891e-05 0.00015587371
000100 ed 1c da b7 cb 16 29 ba 32 80 41 b9 37 5e 43 b8
       -2.6001095e-05 -0.0006450235 -0.00018453671 -4.6579367e-05
000110 13 ef 99 b8 e1 6c 11 ba 66 dd 38 ba a9 f2 23 ba
       -7.3401396e-05 -0.0005547535 -0.0007052034 -0.0006254116
000120 5c e0 91 32 d3 84 9c 32 12 95 08 b3 a0 61 2f 33
       1.6982248e-08 1.8221192e-08 -3.1800546e-08 4.0834152e-08
000130 7b cd 60 33 e5 7d 26 b3 24 2b 14 33 ca b0 98 b1
       5.2340948e-08 -3.8764387e-08 3.449817e-08 -4.443881e-09
000140 a6 fe 48 b2 ea 56 15 32 86 8b 5f b2 fb 56 50 b3
       -1.16994325e-08 8.6927034e-09 -1.3012032e-08 -4.8507882e-08
000150 aa 0c 2e ba ba b3 25 ba ad 1c 92 ba ed 6d 34 3b
       -0.00066394603 -0.0006321032 -0.0011147462 0.0027531341
000160 a3 8e 9c 3a b8 77 13 bc 19 ba 1d bb f4 82 e7 ba
       0.0011944365 -0.009000711 -0.0024067222 -0.0017662928
000170 93 19 65 ba 7a 38 cc bb af b2 25 bc 74 7a b3 bb
       -0.00087394676 -0.0062323185 -0.010113402 -0.005477244
000180 4c 02 38 b8 19 04 11 39 fb ec 3f 39 16 3e fc b9
       -4.3871158e-05 0.00013829804 0.00018303462 -0.00048111443
000190 1d 0b 9a b9 3f 4a aa 3a 78 6b 9e 39 a7 55 c3 39
       -0.0002938145 0.0012992098 0.0003021618 0.00037257114
0001a0 1c 3e cd 38 d2 9f 38 3a 3f 13 b7 3a cf a0 35 3a
       9.7867305e-05 0.0007042858 0.0013967528 0.00069285644
0001b0 5b ed 9c b7 52 07 38 b8 1f 4c 94 b8 c3 78 fb 38
       -1.8707176e-05 -4.3875836e-05 -7.0713686e-05 0.00011991106
0001c0 a3 b0 ab 37 a4 6b c6 b9 4c 13 ed 37 b9 11 01 38
       2.0467041e-05 -0.000378457 2.8261587e-05 3.0772502e-05
0001d0 f2 5d a7 36 72 de ec 38 a2 bc 18 39 d7 fb 31 b9
       4.9879245e-06 0.000112947906 0.00014566121 -0.00016973853
0001e0 7a 95 f2 ba a7 13 a3 b9 d0 66 4a ba 74 73 59 3a
       -0.0018507682 -0.00031104425 -0.0007721009 0.0008295097
0001f0 82 28 8f ba 5b 34 db bb 05 55 0b bb ce e3 3b 38
       -0.0010922106 -0.006689591 -0.0021260392 4.4796434e-05
000200 e0 3f 92 ba 76 02 ed bb dd 85 f9 bb b6 bf e8 bb
       -0.0011157952 -0.0072329594 -0.0076148347 -0.007102932
000210 da 22 18 39 a6 61 94 38 35 6b f6 37 f8 7f c3 b9
       0.00014508833 7.0753784e-05 2.9375407e-05 -0.00037288642
000220 4f ec c1 b8 87 05 67 3a 4c bb 37 3a 3b cd 19 38
       -9.246973e-05 0.00088127743 0.00070088054 3.666918e-05
000230 5e 7c 03 39 38 b9 8a 3a a8 41 c9 3a 84 26 e9 b7
       0.00012539464 0.0010583764 0.001535465 -2.77937e-05
000240 9a 7d 5c 38 e6 62 6c b8 52 06 25 b9 1f 10 f9 39
       5.2569063e-05 -5.635889e-05 -0.0001573798 0.00047504992
000250 eb 09 a1 39 e7 5e 96 ba df 46 15 ba 87 94 01 ba
       0.00030715702 -0.0011472375 -0.00056944595 -0.0004943092
000260 99 e6 81 b8 16 e2 74 ba fd 81 09 bb b1 a5 89 39
       -6.1941515e-05 -0.0009341551 -0.002098202 0.00026254126
000270 45 af 08 3b 31 bc 16 3a 55 2b 1c 39 6a 7f 0d 39
       0.0020856422 0.00057500886 0.00014893462 0.00013494273
000280 9d 00 1a 3b 03 67 8e 3b e1 f3 b3 3a 38 04 4a ba
       0.00234989 0.004345776 0.0013729298 -0.0007706317
000290 ee fc 92 3a da a1 d8 3b a1 68 9e 3b ce ff ee 3b
       0.0011214295 0.006611091 0.00483425 0.007293678
0002a0 96 e9 8a 34 8e ef 98 34 2b 45 67 33 f0 3d 1c b5
       2.587446e-07 2.8486505e-07 5.3846787e-08 -5.820466e-07
0002b0 08 0d e7 b4 32 27 07 36 61 5a 15 35 ba 78 00 35
       -4.3036584e-07 2.0139382e-06 5.5638344e-07 4.7859396e-07
0002c0 db 7e 09 b4 e5 a3 18 35 c3 d3 af 35 bc 85 86 35
       -1.2805269e-07 5.686291e-07 1.3100147e-06 1.00227e-06
0002d0 8f 90 a6 b9 6f 81 bc b9 22 b5 2d b8 3d 8c ce 37
       -0.00031769692 -0.0003595459 -4.1415107e-05 2.4622417e-05
0002e0 d7 e8 01 ba e3 3a d9 ba 8b 10 bb b9 1d 0d 69 b8
       -0.00049556553 -0.0016573336 -0.00035679745 -5.556374e-05
0002f0 d0 a3 62 b9 c6 26 f8 ba 7f 0d 06 bb b2 64 90 ba
       -0.00021614064 -0.0018932454 -0.0020454822 -0.0011016338
000300 3d ae 9b 34 8d 2d 85 b7 ce 40 1a b8 eb 3b bc 38
       2.8997775e-07 -1.5876047e-05 -3.6776815e-05 8.975699e-05
000310 11 77 47 38 93 a1 7a b9 b2 df 8f b8 0c 1d 99 b8
       4.7556186e-05 -0.00023902049 -6.860438e-05 -7.301019e-05
000320 a4 7a 03 b8 70 27 30 b9 b7 bb 9a b9 c4 9f 1d b9
       -3.1347052e-05 -0.0001679936 -0.00029513027 -0.00015032204
000330 42 1b 49 b9 10 2f 7e b9 84 f3 b3 b8 7d 23 30 3a
       -0.00019179008 -0.0002424086 -8.5807435e-05 0.00067191554
000340 9a 9b 1b 3a cd c0 d2 ba 71 f2 bc b8 eb aa d5 b9
       0.0005935967 -0.0016079188 -9.009697e-05 -0.0004075387
000350 79 4a ff 39 91 3a cd b9 c7 e9 be ba 91 46 14 ba
       0.00048692877 -0.00039144282 -0.0014565521 -0.0005656267
000360 f1 21 ef 3a 08 ea 68 3a aa 94 82 39 63 10 13 ba
       0.0018244368 0.0008884971 0.00024906296 -0.0005610047
000370 67 4e b0 3a ec 69 da 3b 32 6a 04 3b b4 15 a2 b8
       0.00134511 0.006665459 0.00202049 -7.7288045e-05
000380 4e d4 82 3a 95 f4 f1 3b b6 39 04 3c 96 8b e0 3b
       0.0009981485 0.007383893 0.0080704 0.0068525774
000390 79 18 f0 34 53 b2 ae 34 02 62 42 b5 5a 69 a5 34
       4.472129e-07 3.2539774e-07 -7.241325e-07 3.0810298e-07
0003a0 0c 90 2a 34 7c b6 4e b5 6b 64 2b 33 d3 91 58 b5
       1.5884888e-07 -7.700653e-07 3.990537e-08 -8.067847e-07
0003b0 cd 35 09 b5 31 6e a1 b4 1e 51 ce b5 a4 8f e5 b4
       -5.111477e-07 -3.0068762e-07 -1.5371804e-06 -4.2759086e-07
0003c0 f6 44 48 38 8b 70 20 38 57 93 6f b9 20 55 cd 39
       4.774794e-05 3.8251786e-05 -0.00022847705 0.0003916407
0003d0 72 1b b1 39 8c 84 49 ba 28 f1 a7 b8 da 41 73 b9
       0.0003378052 -0.00076872925 -8.0080994e-05 -0.00023198818
0003e0 65 c9 78 38 38 be 51 b9 20 bf f5 b9 99 37 b6 b9
       5.931537e-05 -0.00020002655 -0.0004687244 -0.0003475517
0003f0 f8 88 05 39 6b e1 df 38 4d 65 03 37 92 b6 ce b8
       0.00012734893 0.00010675456 7.831794e-06 -9.856852e-05

exp_avg_sq f4 [128, 12]
000000 a9 03 03 34 a6 bd 85 35 e5 2f 76 36 5c bd 80 37
       1.2201657e-07 9.964467e-07 3.6684735e-06 1.5346966e-05
000010 dd c9 6d 37 44 1e b6 38 35 84 28 36 e6 3c e3 36
       1.4173301e-05 8.684074e-05 2.5110905e-06 6.7722167e-06
000020 7f 7d c0 35 1d b7 61 37 bf 68 a0 38 99 9f 31 38
       1.4341639e-06 1.34536795e-05 7.648905e-05 4.2348725e-05
000030 40 0e 6e 35 11 54 14 36 04 8a 73 35 40 71 1b 37
       8.8682646e-07 2.2102652e-06 9.0725393e-07 9.265088e-06
000040 e4 53 7a 36 9c 25 b9 38 0b fa ce 36 15 3e 77 36
       3.7301734e-06 8.828493e-05 6.1683872e-06 3.6842005e-06
000050 a2 dd aa 35 f9 ac 35 38 35 fb e3 38 8e 6c 51 38
       1.2730491e-06 4.3314856e-05 0.000108709944 4.9930582e-05
000060 16 21 2d 37 c8 d4 18 37 32 50 b7 36 38 a9 ae 37
       1.0319307e-05 9.109448e-06 5.463161e-06 2.0821215e-05
000070 45 b0 02 38 aa a1 42 39 36 5f 96 37 8e 02 41 37
       3.115858e-05 0.00018561506 1.792573e-05 1.1504291e-05
000080 62 07 56 36 7b 52 2b 39 df ce 89 39 69 36 f8 38
       3.1892782e-06 0.00016338557 0.00026284807 0.00011835696
000090 af 48 98 35 0d b2 11 36 8c 0e 49 36 bf 0c e7 37
       1.1346036e-06 2.1710323e-06 2.9959801e-06 2.7543281e-05
0000a0 e0 d3 5d 37 36 e4 1c 39 48 cd af 36 e4 ce 35 37
       1.32219575e-05 0.00014962335 5.2393043e-06 1.0836611e-05
0000b0 26 21 2a 36 53 34 0b 38 c0 e8 21 39 0f 61 92 38
       2.535127e-06 3.3188913e-05 0.00015440863 6.979901e-05
0000c0 11 36 64 36 45 20 c9 36 85 4f 57 36 3f 43 de 36
       3.4006118e-06 5.9940235e-06 3.2083783e-06 6.623944e-06
0000d0 9c 56 80 37 b6 e8 33 38 8a ea 31 36 87 db 14 36
       1.529912e-05 4.2893655e-05 2.6511575e-06 2.21815e-06
0000e0 c1 c4 a9 35 a8 f8 2c 38 96 d2 8a 38 6f b7 28 38
       1.2648744e-06 4.1239575e-05 6.6195775e-05 4.0225157e-05
0000f0 9b 88 73 33 72 90 4b 33 5c f4 76 33 aa e7 29 34
       5.670209e-08 4.7395993e-08 5.7498582e-08 1.582363e-07
000100 9b cb 83 34 21 4d a1 35 61 09 c5 33 8a ce 86 33
       2.4548794e-07 1.2017882e-06 9.1752334e-08 6.2774305e-08
000110 4f d1 67 33 a1 4a 96 35 60 bc c0 35 37 5d 7d 35
       5.3974244e-08 1.1197591e-06 1.4359939e-06 9.438549e-07
000120 0c 3a 72 2b af 3b 23 2b c5 b3 9e 2a cb b9 88 29
       8.6056227e-13 5.799206e-13 2.8191178e-13 6.071843e-14
000130 c2 4d e6 2b b3 63 e1 2c df 26 0f 2b d8 25 f3 29
       1.6364065e-12 6.4059535e-12 5.085775e-13 1.07979326e-13
000140 3e 9b c0 2a f0 e7 20 2c 62 f9 d2 2c d9 20 cb 29
       3.4213772e-13 2.2866119e-12 5.996246e-12 9.020709e-14
000150 b2 84 0f 36 96 33 fc 36 87 e0 f6 36 20 dd 43 38
       2.13859e-06 7.5161906e-06 7.3575097e-06 4.669756e-05
000160 80 f2 4b 37 ad 69 f4 39 4c 06 da 37 16 8d 93 37
       1.2156204e-05 0.0004661804 2.5990557e-05 1.7589464e-05
000170 fb a6 23 37 8a 40 56 39 1b 6e 08 3a c5 10 a9 39
       9.754435e-06 0.00020432673 0.0005204395 0.00032246686
000180 4b a8 23 34 3b eb 9c 34 11 21 07 34 d5 88 9b 35
       1.5241783e-07 2.9228417e-07 1.2584884e-07 1.1588223e-06
000190 0e 0b ad 34 7c bd 58 37 93 a8 ae 35 39 c8 f6 34
       3.2231804e-07 1.2918721e-05 1.3013072e-06 4.5966752e-07
0001a0 88 ca 65 34 7a 04 12 37 34 73 a0 37 c3 6c ca 36
       2.1400967e-07 8.70332e-06 1.9127132e-05 6.0327307e-06
0001b0 78 fe 1f 34 42 e3 15 35 69 5e 08 34 1e bc f1 35
       1.4900604e-07 5.583753e-07 1.2700333e-07 1.8010649e-06
0001c0 45 e5 6b 34 81 0d 91 37 02 5e 89 32 ea 5e e6 34
       2.1969488e-07 1.7291635e-05 1.5991649e-08 4.2909898e-07
0001d0 55 b8 ba 33 a3 ef b6 35 93 fe 8e 36 a1 42 0f 36
       8.69483e-08 1.36298e-06 4.261566e-06 2.1347444e-06
0001e0 af 99 f9 36 52 f0 0c 37 fb e4 e4 36 de 01 ab 37
       7.4386694e-06 8.400604e-06 6.8215863e-06 2.0385658e-05
0001f0 17 b1 02 38 c0 b0 25 39 db e7 72 37 49 2f fe 36
       3.1159343e-05 0.0001580147 1.4478307e-05 7.5752946e-06
000200 60 38 11 37 d5 1b 24 39 a0 b6 49 39 a3 40 1f 39
       8.655799e-06 0.00015650627 0.00019236887 0.000151875
000210 7d fb f4 36 d2 7c 01 37 1a 2c be 34 3d 9d a0 35
       7.3010438e-06 7.718061e-06 3.5422346e-07 1.1966691e-06
000220 2c 2e 9c 37 3a 44 49 39 f3 ab 05 37 2b 3f 3e 35
       1.861815e-05 0.0001919427 7.967453e-06 7.087244e-07
000230 3d 11 b9 36 2e 89 73 39 29 21 89 39 84 46 5f 39
       5.5154364e-06 0.0002322539 0.00026155383 0.00021293206
000240 5f 9d 1c 35 09 23 e6 35 31 3d 58 35 c2 4d d2 36
       5.8343534e-07 1.7146532e-06 8.0555316e-07 6.26754e-06
000250 7e a8 89 35 43 5e 9e 38 3c c6 32 36 5e cc d0 35
       1.0256333e-06 7.551585e-05 2.6639455e-06 1.5556686e-06
000260 07 91 38 36 2e dd 1a 38 65 54 7a 38 54 3c b4 38
       2.7502554e-06 3.692245e-05 5.9683243e-05 8.594306e-05
000270 3f 2f 9f 37 f8 9e 6a 37 14 84 ac 36 03 4a 32 38
       1.8976278e-05 1.39845e-05 5.1413754e-06 4.2507436e-05
000280 a5 67 5d 38 e2 af bd 39 e5 5c ca 37 c6 56 91 37
       5.2787032e-05 0.00036179932 2.4123534e-05 1.7325754e-05
000290 90 b5 36 37 3c 6f a5 39 39 31 f5 39 13 d7 b5 39
       1.0890319e-05 0.00031554129 0.00046766715 0.00034683253
0002a0 93 0f fd 2e 6e ab d9 2e 1c 0f ef 2c b3 26 0c 2d
       1.15078745e-10 9.8984695e-11 6.794466e-12 7.966672e-12
0002b0 f5 0b 9a 2f 6b df c3 30 f8 bb 7e 2e 2d 13 ad 2d
       2.8020933e-10 1.4251617e-09 5.7919863e-11 1.9676339e-11
0002c0 41 c6 f3 2d a3 d6 ff 2f b6 bd 96 30 75 d5 ae 2d
       2.7713944e-11 4.6536738e-10 1.0967856e-09 1.9876304e-11
0002d0 d7 09 ed 35 09 52 e7 35 e0 a0 e6 33 3a 56 8f 33
       1.766074e-06 1.7234717e-06 1.07394726e-07 6.674641e-08
0002e0 2e 03 b0 36 a1 67 47 38 bb 58 d0 35 91 79 d5 33
       5.245579e-06 4.754181e-05 1.5523032e-06 9.940698e-08
0002f0 eb 53 8f 35 c9 72 8b 38 36 ec 9b 38 3c 9f cf 37
       1.0678754e-06 6.649417e-05 7.434974e-05 2.4750472e-05
000300 d2 23 12 32 b3 db 94 32 01 5b c3 32 62 53 1a 34
       8.506463e-09 1.7329375e-08 2.2742372e-08 1.4372702e-07
000310 58 0d 4e 33 56 0c a2 35 9a 53 89 33 c0 d0 81 33
       4.797525e-08 1.2073531e-06 6.394767e-08 6.045002e-08
000320 8c 42 63 32 71 4e 01 35 52 a7 bf 35 35 99 dc 34
       1.322827e-08 4.817039e-07 1.4279306e-06 4.1089666e-07
000330 f6 5e e3 34 6b 7d cd 34 2f 5a 99 36 26 94 37 37
       4.2351138e-07 3.827548e-07 4.570254e-06 1.09421435e-05
000340 36 f2 32 37 28 f8 34 38 f2 8f 21 35 b4 d8 b0 36
       1.0666021e-05 4.3146458e-05 6.018664e-07 5.2704363e-06
000350 4c 68 3d 36 bc 9f 84 36 4a 12 d1 37 51 2f f3 37
       2.8223903e-06 3.952502e-06 2.4923258e-05 2.898989e-05
000360 e8 10 77 37 1b 3e 1a 37 06 53 07 37 40 69 bc 37
       1.4726284e-05 9.193575e-06 8.065957e-06 2.2460357e-05
000370 e6 36 34 38 4a a6 94 39 cd a4 9a 37 86 49 41 37
       4.2966472e-05 0.00028352655 1.8434972e-05 1.1520815e-05
000380 43 36 3d 37 17 e0 8f 39 5f 8d ae 39 a7 e5 b4 39
       1.1277912e-05 0.00027442045 0.00033293196 0.0003450338
000390 8b 98 68 2d be d0 78 2d 95 a7 db 2d ef 4c 8d 2d
       1.32215445e-11 1.4143518e-11 2.4971839e-11 1.606401e-11
0003a0 06 a7 44 2d ff 4c d5 2e 44 d2 b4 2c c9 81 ac 2c
       1.1178397e-11 9.699796e-11 5.139252e-12 4.902943e-12
0003b0 92 96 c0 2d 01 88 ca 2d 36 63 5d 2e db 77 1e 2e
       2.189474e-11 2.3025139e-11 5.03377e-11 3.6031494e-11
0003c0 7f ff e3 34 4a 03 24 35 d5 f8 04 36 c8 e7 66 36
       4.2467943e-07 6.1099547e-07 1.9814372e-06 3.4407585e-06
0003d0 6f fa 4c 36 cf 8f 80 37 3a 15 83 34 58 eb f1 35
       3.054414e-06 1.5325755e-05 2.4416096e-07 1.8024393e-06
0003e0 b5 ba b0 35 b0 b7 99 35 da eb e2 36 39 58 03 37
       1.3167361e-06 1.1452848e-06 6.7627816e-06 7.828749e-06
0003f0 ed 00 e7 33 26 5d 3f 34 db 22 25 34 2a a6 63 35
       1.0756944e-07 1.7822148e-07 1.5379503e-07 8.480589e-07

exp_avg f4 [128, 32]
000000 fc e4 6d b6 88 3a 77 b8 5f 40 ff b8 51 02 e4 b7
       -3.5449038e-06 -5.89439e-05 -0.000121713376 -2.7180797e-05
000010 92 15 e4 b7 73 ff cd 37 c7 fb 6b 33 31 8a 94 38
       -2.7189762e-05 2.4556857e-05 5.494419e-08 7.08293e-05
000020 14 8a 98 37 87 f1 80 36 04 32 e8 b8 00 8b b4 b6
       1.818411e-05 3.8428147e-06 -0.00011071938 -5.3805998e-06
000030 da d2 54 b7 6b 77 81 b8 98 09 d3 33 72 28 b6 35
       -1.2685277e-05 -6.173443e-05 9.827198e-08 1.3571828e-06
000040 56 01 a4 36 47 a1 2a b9 c2 75 b5 38 f6 6f 31 34
       4.8877364e-06 -0.00016272544 8.652687e-05 1.6525141e-07
000050 bf 94 12 39 44 33 ad b7 6f 99 ca b6 2f 24 5a 36
       0.00013979057 -2.064708e-05 -6.037931e-06 3.2505593e-06
000060 03 26 d0 38 c2 bb 30 b7 1a d6 67 b7 bc 18 0d b9
       9.925293e-05 -1.0534133e-05 -1.3818522e-05 -0.00013456022
000070 0e 07 ca b8 5e 7f d7 b8 fb 36 91 b8 d5 82 bc 38
       -9.6334246e-05 -0.00010275723 -6.92438e-05 8.988908e-05
000080 1b 14 c7 38 7e 04 05 38 1c 87 b0 b8 34 77 90 b8
       9.4928044e-05 3.1713855e-05 -8.4175e-05 -6.8886584e-05
000090 95 dd 47 b5 dd 91 fe 36 f9 d6 b5 31 2b 0a 19 38
       -7.445572e-07 7.5867706e-06 5.292233e-09 3.6487512e-05
0000a0 84 33 56 b5 53 a2 5b b5 b0 46 37 b7 86 f4 f7 36
       -7.979618e-07 -8.182007e-07 -1.0924108e-05 7.38964e-06
0000b0 e9 8f 81 b6 d6 ac 31 b8 84 94 8b 31 d6 f8 9b b5
       -3.861253e-06 -4.2361055e-05 4.0623167e-09 -1.1620821e-06
0000c0 68 75 82 35 ed 81 0e b9 5c f2 13 b6 20 82 81 33
       9.719924e-07 -0.00013590576 -2.2045779e-06 6.0307e-08
0000d0 ea 7a 1e 38 3f 60 00 b7 8a 87 b0 35 97 5b 66 35
       3.7784608e-05 -7.651804e-06 1.3152469e-06 8.581496e-07
0000e0 b1 a7 f9 37 41 0f 49 36 e1 6b c1 35 15 51 ad 36
       2.97612e-05 2.9960213e-06 1.4411017e-06 5.165241e-06
0000f0 3b 39 f2 b7 c0 d3 82 b8 a2 50 9b b9 73 0e 7b 37
       -2.8875298e-05 -6.2383246e-05 -0.0002962398 1.496413e-05
000100 f6 e1 2a b9 e0 d5 d0 38 03 bd 2d b6 ff df b6 38
       -0.0001629664 9.95805e-05 -2.5889028e-06 8.720159e-05
000110 6e 8a b1 b6 8b 29 54 37 d5 05 82 b2 83 20 15 b7
       -5.2911264e-06 1.2645857e-05 -1.5136644e-08 -8.888662e-06
000120 fc 67 6d b8 3a c5 a8 35 a6 7b 1d b8 be fd 8b 37
       -5.6602046e-05 1.2574376e-06 -3.7546874e-05 1.668825e-05
000130 a7 ab e9 b5 62 16 96 38 00 6a e0 33 cb 6d 30 b6
       -1.740981e-06 7.1567265e-05 1.0450094e-07 -2.6289952e-06
000140 ed 1e 19 b5 cd 99 46 38 11 bf 6e b8 04 ff a6 b1
       -5.7041945e-07 4.7350117e-05 -5.6921566e-05 -4.8602278e-09
000150 39 4b a0 37 2b 60 32 36 e0 a5 12 36 bf e7 f9 35
       1.9108515e-05 2.6580044e-06 2.1852247e-06 1.8619393e-06
000160 56 31 36 38 e0 5c 1e b8 53 81 b6 b4 b3 d7 9d b7
       4.343813e-05 -3.7756632e-05 -3.3994237e-07 -1.8816301e-05
000170 dd bb 5d b7 2c 42 0a b8 79 5f b0 b9 34 99 c0 37
       -1.3216367e-05 -3.296339e-05 -0.0003364047 2.2959524e-05
000180 d6 d0 c2 b8 b9 59 67 b8 3d 1d 3c 39 c7 68 9a b6
       -9.2895396e-05 -5.5158253e-05 0.00017939969 -4.6017553e-06
000190 de 0a d0 37 b3 6c e4 b7 20 00 03 b3 83 63 f8 b8
       2.4800593e-05 -2.7230335e-05 -3.0500928e-08 -0.00011844097
0001a0 e2 d5 c5 36 b5 4c b5 b4 fe 67 ea 38 b5 4b af b4
       5.8959567e-06 -3.376969e-07 0.000111773596 -3.2651374e-07
0001b0 fb c0 3a 37 26 d1 c4 38 5e e7 1c 33 fe 11 c0 b5
       1.1131396e-05 9.384965e-05 3.6532008e-08 -1.4310351e-06
0001c0 e6 80 ed b4 6b 1e 8c 39 63 ca 47 b8 9d 6d e7 b2
       -4.4238476e-07 0.00026725544 -4.7633785e-05 -2.6941786e-08
0001d0 a5 77 e4 b8 9b fe 97 b6 97 93 ed b5 e9 b1 b3 b6
       -0.00010894173 -4.5297907e-06 -1.770083e-06 -5.355327e-06
0001e0 cf 40 ad b8 d3 f3 98 b7 26 77 06 37 3d a7 b7 b8
       -8.2613544e-05 -1.8233352e-05 8.014764e-06 -8.7572706e-05
0001f0 bc 26 90 38 09 86 43 39 53 ff f6 38 1f 6c a1 b8
       6.87367e-05 0.00018646581 0.00011777752 -7.6972174e-05
000200 c2 87 49 b8 94 4f 2a b7 74 c7 87 b7 12 79 c9 34
       -4.804857e-05 -1.0151318e-05 -1.6186132e-05 3.7527258e-07
000210 fd d8 3e b7 aa 77 7f 35 fc 68 01 b3 86 35 73 b6
       -1.1375404e-05 9.5169037e-07 -3.0130636e-08 -3.6240976e-06
000220 ab 55 0b 37 26 8b ac 36 27 56 17 b8 b6 b1 22 b7
       8.304992e-06 5.1421985e-06 -3.608144e-05 -9.697329e-06
000230 5d aa 0a 35 9a 97 b0 b7 4d 9c a1 34 b0 02 d5 b5
       5.165692e-07 -2.105143e-05 3.010231e-07 -1.5870519e-06
000240 a0 0c 47 36 20 60 5f b7 e9 12 45 38 9a 2b a8 b3
       2.966066e-06 -1.3314217e-05 4.698607e-05 -7.831041e-08
000250 17 07 cf 37 de ef 88 b7 03 5c 75 b6 59 f3 35 b6
       2.4679624e-05 -1.632416e-05 -3.6561403e-06 -2.7112749e-06
000260 f8 9d 3b 38 8c 7a 3a b8 46 22 19 37 58 50 d6 b8
       4.4731394e-05 -4.4459986e-05 9.127491e-06 -0.000102192804
000270 27 f2 f0 b7 78 90 48 b7 bb 47 02 38 59 42 4e 38
       -2.872299e-05 -1.1954566e-05 3.106122e-05 4.917602e-05
000280 39 63 04 b5 94 2d c4 b6 db 6a 38 b7 d2 3e 1e 37
       -4.931822e-07 -5.846561e-06 -1.0992134e-05 9.43216e-06
000290 11 59 5c b6 14 1e 07 36 1c 55 f7 31 9f 0f 36 37
       -3.2834398e-06 2.0134075e-06 7.198322e-09 1.0851682e-05
0002a0 c3 b5 9a 35 47 5c 8d 34 cc 98 7d b7 ea 31 0a b6
       1.1526794e-06 2.6330437e-07 -1.5115551e-05 -2.0592656e-06
0002b0 6c 07 f1 b5 f2 96 43 b7 eb cf a1 32 22 6e cc 34
       -1.7958059e-06 -1.165805e-05 1.8837417e-08 3.8078093e-07
0002c0 be 77 7c 34 93 c9 cc b7 ef a2 58 37 52 84 33 32
       2.3512891e-07 -2.441256e-05 1.2912539e-05 1.04492575e-08
0002d0 a4 97 34 37 d3 b9 67 b4 aa 76 e1 b4 b3 97 a7 b5
       1.0764143e-05 -2.1581154e-07 -4.1995855e-07 -1.248662e-06
0002e0 d4 5e 02 37 9e 46 31 36 bd 8a fc b4 3b 9e 43 b6
       7.770683e-06 2.641616e-06 -4.7039603e-07 -2.9149367e-06
0002f0 61 7c 06 b7 0b fc 89 b7 31 97 59 38 d5 6c 23 37
       -8.015982e-06 -1.644904e-05 5.187764e-05 9.7408965e-06
000300 e4 69 b1 b1 d8 08 87 b1 c1 62 04 b1 34 9d 8a af
       -5.1634164e-09 -3.9300225e-09 -1.9264663e-09 -2.5213753e-10
000310 89 85 3e af f9 81 d8 30 66 a9 c8 ac 79 14 55 31
       -1.732784e-10 1.5753009e-09 -5.703149e-12 3.1007217e-09
000320 6f 1a 65 af 32 82 b4 b0 01 73 9d b1 3f 5b 08 af
       -2.083682e-10 -1.3133727e-09 -4.582376e-09 -1.2401545e-10
000330 a5 78 ee af bb 3a 14 b1 fc 5d ed 2d a7 08 b1 2e
       -4.337767e-10 -2.157022e-09 2.6985518e-11 8.050565e-11
000340 54 9c 96 2f 64 b6 67 b1 71 b7 c7 30 2e aa d0 2d
       2.739592e-10 -3.3718601e-09 1.4531293e-09 2.3722437e-11
000350 f1 3f c1 31 c8 50 c7 b0 1c bf f6 af 95 48 35 b0
       5.6243086e-09 -1.4502115e-09 -4.488293e-10 -6.595056e-10
000360 3e 20 60 31 e2 f7 92 30 21 d0 af b0 bf ac 30 b1
       3.2614618e-09 1.0693351e-09 -1.279208e-09 -2.5709566e-09
000370 b7 68 f8 b0 dd e2 d9 b0 a8 dd fb b1 9e 65 c6 30
       -1.8074137e-09 -1.5853306e-09 -7.330261e-09 1.4435277e-09
000380 d6 b3 c4 38 d2 5c 27 b7 49 0a 72 b9 4a 86 a3 38
       9.379505e-05 -9.975587e-06 -0.0002308275 7.797459e-05
000390 60 c6 2e b8 38 ab f9 37 f6 86 82 31 d2 a3 33 39
       -4.1669584e-05 2.9762843e-05 3.7988412e-09 0.00017131798
0003a0 de c7 a2 36 bb 0c a0 34 1e d7 43 b9 2d 19 3c b7
       4.851244e-06 2.9811585e-07 -0.00018676787 -1.1211535e-05
0003b0 04 59 6e b7 ae a4 35 b9 98 bf 6d 34 f9 59 52 36
       -1.4206631e-05 -0.00017322853 2.2142046e-07 3.134481e-06
0003c0 9c 91 99 35 63 65 bb b9 ef 59 ff 38 90 cd bf 33
       1.1441766e-06 -0.00035742958 0.00012176099 8.931522e-08
0003d0 2b 53 1f 39 20 e4 15 37 ff 38 38 36 03 82 0d 35
       0.00015194404 8.934207e-06 2.7451313e-06 5.2715785e-07
0003e0 eb ba 0a 39 a1 bb 01 38 9a 93 c7 b5 e3 92 9a 38
       0.00013230338 3.093074e-05 -1.4869613e-06 7.370652e-05
0003f0 b2 d5 d7 b8 42 f1 89 b9 53 dc a5 39 dc 61 f7 38
       -0.00010291803 -0.00026310427 0.00031635407 0.000117961055
