models/drone/policy_opp_rotor_best_iter57.pth (torch, 80830 bytes, 20 tensors)

lstm.weight_ih_l0 f4 [128, 12]
0	0x3e2cd720	0.16878939
1	0x3ee23b89	0.44186047
2	0xbe6990a1	-0.22809078
3	0x3e28d7b4	0.16488534
4	0x3e98320f	0.29725692
5	0xbc59dd1c	-0.0132973455
6	0xbcedd2f2	-0.02903125
7	0xbdfc5121	-0.123201616
8	0xbd9cd167	-0.07657128
9	0x3df8e3cf	0.12152826
10	0x3d5fab9b	0.054607015
11	0x3cc0c7ed	0.023532832
12	0xbea57127	-0.3231289
13	0x3d356413	0.04428489
14	0x3e62fdfa	0.22167197
15	0x3cb628ab	0.022236189
16	0x3d3b497c	0.045724377
17	0xbe21ee19	-0.15813483
18	0x3ce4058b	0.027834674
19	0x3eeda604	0.46415722
20	0x3dd59a39	0.10429806
21	0xbd2cde2f	-0.04220408
22	0x3e060ed8	0.130916
23	0xbe2e4b39	-0.17020883
24	0xbe1ac615	-0.15114625
25	0xbc70e0d6	-0.014702043
26	0x3d1c7cd3	0.03820498
27	0xbe1d13c0	-0.15339565
28	0x3d75319d	0.059861768
29	0xbcc97b7b	-0.024595013
30	0xbd1354ff	-0.03596973
31	0xbc9499e3	-0.018139785
32	0x3e4dc6cd	0.20095368
33	0xbdd155fb	-0.102214776
34	0xbdaea206	-0.08526997
35	0x3daff05f	0.08590769
36	0xbe3a2c03	-0.18180852
37	0xbf3fb3b1	-0.7488356
38	0x3c0d05cc	0.008607339
39	0xbe81259a	-0.25224
40	0x3bc52981	0.0060169105
41	0xbd92bd5c	-0.07165024
42	0x3a92af34	0.0011191131
43	0xbde918c5	-0.113816775
44	0x3d689e15	0.056791384
45	0xbd198246	-0.037477754
46	0x3e1afffb	0.15136711
47	0xbe0fcf2f	-0.14043878
48	0xbea97377	-0.33095905
49	0xbee56fd3	-0.44811878
50	0x3ea2cadf	0.31795403
51	0xbecce893	-0.4002119
52	0xbf30228c	-0.68802714
53	0xbdc4d8c0	-0.09611654
54	0x3ea4834f	0.3213143
55	0xbc0e6cc4	-0.008692924
56	0x3e2f8ae7	0.17142831
57	0xbcead128	-0.028664187
58	0x3d65646e	0.05600398
59	0x3d52d7c7	0.051475313
60	0x3e60939c	0.21931309
61	0x3d6dbba7	0.058040287
62	0xbe9359b9	-0.2877939
63	0x3dce4213	0.100711964
64	0x3d21fd64	0.039548293
65	0x3d9b1c9d	0.07573817
66	0x3ddc2ec1	0.10751105
67	0x3d50734a	0.0508912
68	0xbd4bd70a	-0.049765624
69	0xbe4e7ff2	-0.20165995
70	0xbde720d2	-0.11285557
71	0xbe56e0df	-0.20984219
72	0x3db89017	0.09011858
73	0x3f12643b	0.5718419
74	0xbe816d99	-0.2527893
75	0xbe184c00	-0.14872742
76	0xbb87ccb6	-0.0041442765
77	0xbda0b405	-0.07846836
78	0xbd535092	-0.05159051
79	0xbdd199c6	-0.10234408
80	0xbd647e14	-0.0557843
81	0x3e37645d	0.1790938
82	0x3d52888c	0.051399752
83	0x3e0d3a86	0.13791856
84	0xbe8fee54	-0.28111517
85	0x3dedb599	0.11606903
86	0x3e69aae5	0.22819097
87	0x3dec0942	0.11525203
88	0x3ce0f3f2	0.027460072
89	0xbdb898ba	-0.09013505
90	0x3d996c35	0.07491342
91	0xbe5e7dc2	-0.2172766
92	0xbd8c5e7d	-0.0685396
93	0xbd8a0746	-0.067396685
94	0xbe9c90eb	-0.30579314
95	0xbc9f8701	-0.019473555
96	0xbc9060d5	-0.017624298
97	0x3dd98840	0.10621691
98	0xbe788aa3	-0.24271636
99	0xbde3032d	-0.1108459
100	0x3c72c72b	0.014817993
101	0xbc310148	-0.010803528
102	0xbea9febe	-0.33202165
103	0xbe94eafa	-0.29085523
104	0x3e0cac76	0.13737664
105	0xbdeaa48d	-0.11457167
106	0xbc771d0c	-0.015082609
107	0x3dd6d82b	0.104904495
108	0xbe1d0d62	-0.15337136
109	0x3e51b63d	0.20479675
110	0x3dad3117	0.08456629
111	0xbd8c20ca	-0.068421915
112	0x3e8563a1	0.26052573
113	0x3dc3f059	0.09567327
114	0x3e44a55f	0.19203709
115	0x3ecdcfc4	0.40197575
116	0x3e404efd	0.18780132
117	0x3cde2aa8	0.02711995
118	0x3e5c5f98	0.21520841
119	0x3e0b72b5	0.13617976
120	0xbec684a5	-0.38773075
121	0xbf2155b6	-0.6302141
122	0x3e954d8f	0.29160735
123	0xbc841b0d	-0.01612618
124	0xbdb7c5f7	-0.08973306
125	0xbbf0fdbe	-0.007354467
126	0xbeb2766d	-0.34855977
127	0x3eb9b902	0.36273962
128	0x3e84d826	0.25946158
129	0xbdd8222a	-0.10553391
130	0xbe508044	-0.2036143
131	0x3cc044a1	0.023470225
132	0xbde226de	-0.110425696
133	0x3e9f9416	0.31167668
134	0x3d0dc112	0.034607954
135	0xbe5d9741	-0.2163973
136	0x3e13f842	0.14450172
137	0x3e3af7ae	0.18258545
138	0xbd075ac7	-0.033045556
139	0xbde762bf	-0.11298131
140	0x3de7b851	0.113144524
141	0xbd27570a	-0.04085449
142	0xbd86ad65	-0.06576041
143	0xbd37795b	-0.044793468
144	0xbe869009	-0.26281765
145	0xbf11b4b1	-0.5691634
146	0x3cc8c68e	0.02450874
147	0x3c01f660	0.0079322755
148	0xbe81e6f7	-0.25371525
149	0x3bd52782	0.006504954
150	0xbeb8d82e	-0.36102432
151	0x3f138d52	0.5763751
152	0xbe35e415	-0.17762788
153	0xba4a44c4	-0.00077159354
154	0x3e6bc690	0.23024964
155	0x3a4ea31a	0.00078825804
156	0xbea2ad8e	-0.31773037
157	0xbe248d89	-0.16069616
158	0x3eb16c81	0.34653094
159	0x3e381c60	0.17979574
160	0xbe5e4e4d	-0.21709557
161	0x3e1c1502	0.15242389
162	0x3cdb4039	0.026764022
163	0x3e8dec3e	0.277193
164	0x3dd55c8f	0.10418045
165	0x3bfb2b82	0.0076650986
166	0xbdb80c46	-0.08986716
167	0xbe0ff192	-0.14056996
168	0xbd70dccd	-0.058804322
169	0xbccbf86e	-0.024898734
170	0xbe28b41b	-0.16474955
171	0xbe46cbde	-0.19413707
172	0x3e00125f	0.12507008
173	0xbe9cedab	-0.30650076
174	0xbed5c701	-0.4175339
175	0xbd229bb6	-0.03969928
176	0x3ea040f3	0.31299552
177	0x3c961ecf	0.018325238
178	0xbc1d7aca	-0.009611795
179	0x3d93900d	0.0720521
180	0xbdb7d0a1	-0.0897534
181	0x3dd291ad	0.10281692
182	0x3d3d7ee2	0.046263583
183	0xbe1eb601	-0.15499116
184	0x3e861fb2	0.26196057
185	0x3df974dd	0.12180493
186	0x3e58f874	0.21188527
187	0x3ede89b2	0.43464428
188	0xbd77feb3	-0.060545634
189	0x3c82e68e	0.015979078
190	0x3e80266d	0.25029317
191	0xbd41d7a4	-0.04732479
192	0xbe7dfb31	-0.24802853
193	0x3f234428	0.63775873
194	0xbe0b242e	-0.1358802
195	0x3d753aef	0.059870657
196	0x3e476512	0.19472149
197	0x3ddf9eba	0.109189466
198	0x3e67736e	0.22602627
199	0xbe1510db	-0.14557211
200	0xbd019397	-0.031634893
201	0x3e029071	0.12750413
202	0x3d4713cc	0.048602864
203	0x3dfab857	0.12242191
204	0xbd25dacd	-0.040491868
205	0xbdeff057	-0.11715763
206	0x3deab97b	0.11461159
207	0x3dbbd673	0.09171762
208	0x3df48cc4	0.119409114
209	0xbd0d422d	-0.03448694
210	0x3d2d5d32	0.042325206
211	0x3d2127bb	0.03934453
212	0x3ea55f65	0.32299343
213	0x3d1f2b95	0.038859922
214	0xbb36a1b0	-0.002786737
215	0x3e69b322	0.2282224
216	0x3e12064e	0.14260218
217	0x3d8699a7	0.065722756
218	0xbe85fc3f	-0.2616901
219	0xbd06edf2	-0.032941766
220	0xbe1cacc6	-0.15300283
221	0x3e0ed619	0.1394886
222	0x3d9189eb	0.07106384
223	0x3cdff20a	0.027337093
224	0xbdd35168	-0.103182614
225	0xbd09eea9	-0.03367487
226	0xbe0bc181	-0.13648035
227	0xbe283aad	-0.16428633
228	0xbe33ee43	-0.17571358
229	0x3d8b1fad	0.06793151
230	0x3dd46318	0.10370463
231	0xbe5eaf6d	-0.21746607
232	0x3c13dcfc	0.009024855
233	0xbd953796	-0.07285993
234	0x3d59e42a	0.05319611
235	0xbd20712f	-0.03917044
236	0x3ddb82e4	0.10718325
237	0x3de1b753	0.110212944
238	0x3e6636ab	0.22481792
239	0xbd222024	-0.039581433
240	0xbdb52572	-0.08845033
241	0xbe6dfad5	-0.23240216
242	0x3ddb8f63	0.10720708
243	0x3dbbde4e	0.09173261
244	0xbd2fe138	-0.042939395
245	0x3dab592e	0.08366619
246	0x3e348b18	0.17631185
247	0x3e5a091b	0.21292536
248	0xbc7ee196	-0.015556714
249	0xbac08481	-0.0014687927
250	0xbc489a65	-0.012243842
251	0xbdd24562	-0.1026714
252	0x3e1b7b01	0.15183641
253	0xbe736610	-0.23769403
254	0x3c5e6ad9	0.013575279
255	0xbdbe1d37	-0.09282916

lstm.weight_hh_l0 f4 [128, 32]
0	0xbbccbac2	-0.006247849
1	0xbe023031	-0.12713696
2	0xbe72e5f1	-0.23720528
3	0x3df9413e	0.12170647
4	0x3e060a10	0.13089776
5	0x3ca459a7	0.02006228
6	0xbcef4cda	-0.02921145
7	0x3e750eb1	0.23931386
8	0xbe1b70aa	-0.15179697
9	0x3e4ed70b	0.2019922
10	0xbe181c08	-0.14854443
11	0x3dde4773	0.108534716
12	0xbe8e8c9b	-0.27841648
13	0x3c807696	0.015681546
14	0x3d1f84b8	0.03894493
15	0xbc5567e3	-0.013025257
16	0x3d820ecb	0.06350478
17	0x3c99c261	0.018769445
18	0x3e2329a6	0.15933856
19	0x3e8f588a	0.27997237
20	0xbdb8a437	-0.090156965
21	0xbe22e56d	-0.15907831
22	0x3e04a05e	0.129518
23	0xbc96bdd2	-0.01840106
24	0x3e01bfd4	0.12670833
25	0x3e06369d	0.13106771
26	0x3daf4c49	0.08559472
27	0x3e450f3a	0.1924409
28	0x3d7967d1	0.060890023
29	0x3dd8f313	0.10593238
30	0xbdb2f000	-0.087371826
31	0x3c88f5ea	0.016718823
32	0xbd5e9fb1	-0.054351512
33	0xbdec36a9	-0.11533863
34	0x3dcd4a73	0.10023966
35	0xbcd57374	-0.026056029
36	0x3dabc541	0.083872326
37	0xbd2e47b3	-0.042548846
38	0xbd1a8508	-0.037724525
39	0xbcce902a	-0.025215227
40	0x3cbe308c	0.023216508
41	0xbd1d19d7	-0.03835472
42	0xbdb87b9a	-0.0900795
43	0x3da6cfa2	0.081450716
44	0xbda00138	-0.078127325
45	0xbe10cb2b	-0.14140002
46	0x3dbe319a	0.092868045
47	0xbacf7d02	-0.0015830102
48	0xbdf7dd81	-0.121027954
49	0xbd898498	-0.067147434
50	0xbd62fe91	-0.055418555
51	0xbc466ebd	-0.012111363
52	0xbdd26e58	-0.10274953
53	0xbd538952	-0.05164463
54	0xbdd41ef8	-0.10357469
55	0x3e293a29	0.16526093
56	0x3e6d3149	0.23163332
57	0xbd94e91e	-0.07271026
58	0x3e7aff06	0.24511346
59	0x3e86e681	0.26347736
60	0x3d85278a	0.06501682
61	0xbd8af533	-0.06785049
62	0x3d964ee2	0.073392645
63	0xbc057a70	-0.008146867
64	0xbdff412f	-0.12463605
65	0x3b0b9d39	0.0021303429
66	0x3e5dd02a	0.2166144
67	0xbc4b74b2	-0.012417959
68	0xbd9cbbd4	-0.07653013
69	0x3d214a07	0.03937724
70	0xbdb6797a	-0.089098886
71	0xbc101f1f	-0.008796482
72	0xbe3090cd	-0.17242737
73	0xbdbff931	-0.09373701
74	0x3e80c404	0.25149548
75	0x3e245d70	0.16051269
76	0xbe01d0d0	-0.12677312
77	0xbe19e521	-0.15028812
78	0xbd0cb808	-0.034355193
79	0xbe06f4e0	-0.1317935
80	0x3d39e2d3	0.045382332
81	0xbc827111	-0.015923055
82	0xbc0adc1b	-0.008475329
83	0x3c167898	0.009184025
84	0xbe3679ef	-0.17819951
85	0x3df4df72	0.11956681
86	0xbea0cb6c	-0.314052
87	0xbdb53841	-0.0884862
88	0xbea01402	-0.31265265
89	0xbdc1abb3	-0.09456577
90	0x3c7a495f	0.015276282
91	0xbe1de7b5	-0.1542042
92	0xbd3b76d5	-0.045767624
93	0xbdb13bdd	-0.08653996
94	0x3e6099ea	0.21933714
95	0x3d615ce1	0.055020217
96	0x3e308106	0.17236719
97	0xbe2824e2	-0.1642032
98	0x3e5f3159	0.21796168
99	0xbd7fb09e	-0.062424295
100	0xbe2becf6	-0.16789612
101	0xbe3159bd	-0.17319389
102	0xbd8a399c	-0.06749269
103	0x3e3f9611	0.1870959
104	0xbd4f4f08	-0.05061248
105	0xbbd58ece	-0.006517268
106	0x3ebb0dd5	0.3653399
107	0xbe7b6262	-0.24549249
108	0x3e9830b3	0.29724655
109	0xbdf42c4b	-0.11922511
110	0xbdb4ffbf	-0.08837842
111	0xbe333928	-0.17502272
112	0xbe7e7b63	-0.24851756
113	0x3dffff35	0.12499849
114	0x3d9c84bb	0.07642504
115	0x3e135d1d	0.14390989
116	0x3e0369d5	0.1283334
117	0x3e87350c	0.2640766
118	0x3e00c049	0.12573351
119	0xbd8f8255	-0.07007281
120	0xbda4e5d9	-0.080516525
121	0x3d4fbee9	0.050719175
122	0x3d4c5a1b	0.04989062
123	0xbe4018c0	-0.18759441
124	0xbe82f636	-0.2557847
125	0x3dda5a84	0.10661796
126	0xbd970947	-0.073748164
127	0x3e8433d4	0.25820792
128	0xbf3e5bfe	-0.7435912
129	0x3d567a59	0.052362774
130	0xbecda4fa	-0.4016493
131	0x3d0ae679	0.033911202
132	0xbeda12e6	-0.42592543
133	0xbdaa8c51	-0.083275445
134	0xbe31199e	-0.17294928
135	0x3d3b427b	0.045717698
136	0xbd73f2c9	-0.05955771
137	0x3e5ac29c	0.213633
138	0x3ea0c58c	0.31400716
139	0x3eee7ed9	0.46581152
140	0xbe0059da	-0.12534276
141	0xbe2ec64d	-0.17067833
142	0x3e55be3f	0.20873354
143	0x3d0450db	0.032303672
144	0xbd4d5dc3	-0.050138246
145	0xbd54af8d	-0.05192523
146	0x3e9429f3	0.28938255
147	0x3d1da3dd	0.03848635
148	0xbdb282fd	-0.0871639
149	0xbdf62d12	-0.12020315
150	0x3defec10	0.11714947
151	0x3d646c38	0.055767268
152	0x3b9cf4e8	0.0047899373
153	0x3e6cfff1	0.23144509
154	0xbf0b493c	-0.5440862
155	0xbebbdd8f	-0.36692473
156	0x3df440f4	0.11926451
157	0x3c2dbf4d	0.010604692
158	0x3d8d4d76	0.0689954
159	0xbeb6e2b2	-0.3571983
160	0x3e4bdee1	0.1990924
161	0x3cb890f5	0.022530058
162	0xbe2dfd01	-0.16991045
163	0x3dedafff	0.11605834
164	0x3caf5f4c	0.021407746
165	0x3dd2d6ea	0.10294898
166	0x3dd59983	0.10429671
167	0xbd69a3fd	-0.057041157
168	0x3ed0ccc8	0.40781236
169	0xbd1867e4	-0.037208453
170	0xbea5c33d	-0.32375517
171	0xbd944c6d	-0.072411396
172	0xbc845fe2	-0.016159002
173	0xbd9c95d8	-0.07645768
174	0xbde76fb0	-0.113005996
175	0xbcb7b1f5	-0.022423724
176	0x3d847332	0.06467284
177	0xbdfeb571	-0.12436951
178	0x3de9e23b	0.11420103
179	0x3d20e941	0.03928495
180	0x3d4115cb	0.047139924
181	0xbe80a13f	-0.2512302
182	0xbdf05fa8	-0.11736995
183	0x3c1add9f	0.009452253
184	0x3e55be59	0.20873393
185	0x3e68477a	0.22683516
186	0xbdfb2716	-0.122633144
187	0x3e1ab557	0.15108238
188	0xbc75391f	-0.014967232
189	0x3d3c9012	0.046035834
190	0xbe4d9410	-0.20076013
191	0xbccefc6d	-0.02526685
192	0xbd8288ea	-0.063737705
193	0xbd2a0411	-0.041507784
194	0x3c209240	0.009800494
195	0xbe34823c	-0.17627805
196	0xbe10daee	-0.14146015
197	0x3e7547fa	0.23953238
198	0xbc977774	-0.018489577
199	0xbe0504ca	-0.12990108
200	0x3d2d0a9c	0.042246446
201	0xbc8e0e30	-0.01734075
202	0xbe84d758	-0.25945544
203	0x3b18aa0e	0.002329472
204	0xbe8f8c17	-0.28036568
205	0x3dbe00c9	0.092774935
206	0x3e301af9	0.17197789
207	0xbe36b8b9	-0.17843904
208	0x3e1080bb	0.14111607
209	0xbdb7a1f8	-0.0896644
210	0x3baab94b	0.005210077
211	0xbd281915	-0.041039545
212	0x3e17fe14	0.14843017
213	0x3d2806a8	0.041021973
214	0x3e0894ae	0.13337967
215	0x3c1d6a88	0.009607919
216	0x3d860e8f	0.065457456
217	0xbd25a1a6	-0.040437363
218	0x3e6133ee	0.21992466
219	0x3e41e6f6	0.18935761
220	0x3e43f434	0.19136125
221	0x3d9fbd51	0.07799781
222	0xbe4a876b	-0.1977822
223	0x3e51915e	0.2046561
224	0xbeac91d7	-0.33705017
225	0x3cd0c69d	0.025485331
226	0xbde4e6ca	-0.11176832
227	0xbd801aba	-0.06255098
228	0xbd3abc49	-0.04558972
229	0xbe6fd332	-0.23420408
230	0xbd63b8f5	-0.05559631
231	0x3e5885ff	0.21144865
232	0x3c9689b2	0.018376205
233	0x3c2a01e1	0.0103764245
234	0xbdef7a86	-0.11693291
235	0x3eacd85e	0.33758825
236	0xbcc4d3cc	-0.024026774
237	0x3ed25004	0.41076672
238	0x3e363efb	0.17797463
239	0xbdad9e45	-0.08477453
240	0xbef908ab	-0.48639426
241	0x3da72ebe	0.08163212
242	0xbe3f9215	-0.1870807
243	0xbe11003f	-0.1416025
244	0x3b37e189	0.0028058013
245	0xbc39d076	-0.011341205
246	0x3dee4ec1	0.11636115
247	0xbaf080ac	-0.0018348894
248	0x3e3ee75e	0.18642947
249	0x3e2fd417	0.1717075
250	0xbdf95b6e	-0.12175642
251	0x3e550dee	0.20806095
252	0xbe74eec8	-0.23919213
253	0x3e9b2c73	0.3030735
254	0x3e67e3f4	0.22645551
255	0x3cce30af	0.025169699

lstm.bias_ih_l0 f4 [128]
0	0xbced4095	-0.02896146
1	0xbe241fec	-0.16027802
2	0xbcfb7a2f	-0.03069791
3	0xbd1d70c2	-0.038437612
4	0x3e612ae4	0.21989018
5	0x3db9f4e5	0.09079913
6	0xbdb886c1	-0.09010077
7	0x3ccb44da	0.024813104
8	0xbdd8640c	-0.105659574
9	0x3ca54dd7	0.020178718
10	0x3e9cc84d	0.30621567
11	0x3dcaaaad	0.09895835
12	0xbe2f94bc	-0.17146581
13	0xbc3c6b3b	-0.011500175
14	0xbe0b86e2	-0.13625672
15	0x3d411389	0.04713777
16	0x3ca3a7b0	0.01997742
17	0xbd515749	-0.051108632
18	0xbd3c4d05	-0.04597189
19	0x3dd7090c	0.104997724
20	0x3d95e9a7	0.07319956
21	0x3dce1f59	0.10064573
22	0x3e32c1b8	0.1745671
23	0x3e97bb1e	0.29634947
24	0xbdd98819	-0.10621662
25	0x3de1441d	0.1099932
26	0x3de84d43	0.113428615
27	0x3d582791	0.05277211
28	0xbe62d5b7	-0.22151838
29	0x3ef7d1b3	0.48402175
30	0x3dd4fc4a	0.10399683
31	0xbd892835	-0.06697122
32	0xbcc4aa99	-0.024007129
33	0x3dd796e9	0.10526831
34	0xbe6c08db	-0.23050253
35	0xbe0ae8b6	-0.13565335
36	0xbd75b71f	-0.05998909
37	0x3e442c0c	0.19157428
38	0xbc021609	-0.007939824
39	0x3ddef8f3	0.10887327
40	0x3d050847	0.032478597
41	0xbe3f969b	-0.18709795
42	0xbe822096	-0.25415486
43	0x3d283d1a	0.041073896
44	0xbe46cb8b	-0.19413583
45	0xbdab7bd4	-0.08373228
46	0x3cf3b090	0.029747277
47	0xbafdacc5	-0.0019353857
48	0x3e199b04	0.1500054
49	0x3e049fa5	0.12951525
50	0x3dd4d14d	0.103914835
51	0x3e5c37cd	0.21505661
52	0xbbf0c7eb	-0.007348051
53	0xbba984a0	-0.005173281
54	0xb92f6fdc	-0.00016730971
55	0xbda48b93	-0.08034434
56	0xbdfa90c1	-0.12234641
57	0x3da44703	0.08021357
58	0xbdf70cdc	-0.120629996
59	0xbe962038	-0.29321456
60	0xbdfbe74c	-0.12299976
61	0xbc08e396	-0.008355042
62	0xbe1b8569	-0.1518761
63	0xbdb2620b	-0.087101065
64	0x3c87214b	0.016495368
65	0x3dfe7b53	0.12425866
66	0x3d6c3af6	0.057673417
67	0x3cb54b98	0.022130772
68	0xbe0b7d6b	-0.13622062
69	0xbd5268d0	-0.05136949
70	0x3d4f74e1	0.050648574
71	0xbdac3ba1	-0.08409811
72	0x3e1823bf	0.14857386
73	0xbcdea0b1	-0.027176233
74	0xbd24a546	-0.04019668
75	0x3deb2341	0.114813335
76	0xbde00aae	-0.10939537
77	0x3e637965	0.22214277
78	0x3e2d4f18	0.16924703
79	0x3dd5c402	0.10437776
80	0xbc3ef734	-0.0116556175
81	0x3dd67f75	0.10473529
82	0xbdcc2ffe	-0.09970091
83	0x3d007e80	0.03137064
84	0x3e3ff154	0.18744403
85	0x3d26dd42	0.04073835
86	0x3d1782d3	0.036989998
87	0xbe4fe64e	-0.20302698
88	0xbd36c5be	-0.044622175
89	0x3e25fb2c	0.16209096
90	0xbcc90500	-0.024538517
91	0x3e0024fe	0.12514111
92	0x3d3b57e8	0.04573813
93	0x3e4f4ddc	0.20244545
94	0x3de14c80	0.11000919
95	0xbe0ec8bb	-0.1394376
96	0x3e218369	0.15772785
97	0x3dabf075	0.08395473
98	0xbe720f27	-0.23638593
99	0x3d3784fb	0.044804554
100	0x3e6a0295	0.22852547
101	0x3cb134e7	0.021631671
102	0xbd1d2c2b	-0.0383722
103	0x3d6f0c17	0.05836114
104	0xbdb60fbc	-0.0888972
105	0xbc12d1e5	-0.008961176
106	0xbd4a602b	-0.04940812
107	0x3e072179	0.13196363
108	0x3e57e1f7	0.21082292
109	0x3b29bb4a	0.0025898986
110	0x3bc60126	0.0060426174
111	0x3c9a4bb7	0.018834932
112	0xbe3cec54	-0.18449527
113	0x3dd1f6f4	0.10252181
114	0xbbf3d9a6	-0.007441717
115	0xbda6482c	-0.081192344
116	0x3e7c9ef2	0.24670008
117	0xbd555437	-0.052082267
118	0x3e3941c0	0.18091488
119	0x3d4e1b13	0.05031879
120	0xbe34cb06	-0.17655572
121	0x3de877ee	0.11351
122	0x3e6214c6	0.22078237
123	0x3e59be6a	0.21264043
124	0x3e1114c1	0.14168073
125	0x3e9cc773	0.30620918
126	0xbdda0382	-0.106452
127	0x3d2556de	0.040366046

lstm.bias_hh_l0 f4 [128]
0	0x3bbce2f5	0.00576436
1	0xbafa1d29	-0.0019082177
2	0x3e1e3031	0.15448071
3	0xbe31fa29	-0.17380585
4	0x3e7b4c91	0.24540927
5	0x3c968c8c	0.018377565
6	0xbe1a008b	-0.1503927
7	0xbe00c501	-0.12575151
8	0x3d9b9c52	0.07598175
9	0x3b282413	0.0025656268
10	0xbbdbdc97	-0.006709646
11	0x3c85a549	0.016314166
12	0xbd92d441	-0.071693905
13	0xbd4c3582	-0.049855717
14	0xbd2d90fe	-0.042374603
15	0x3d08c433	0.033390235
16	0xbc843395	-0.016137877
17	0x3d8dfd3d	0.06933067
18	0xbd3db10f	-0.046311434
19	0x3df46cae	0.119347915
20	0xbdd6ee7b	-0.10494705
21	0x3cf21a24	0.02955348
22	0x3e52b600	0.2057724
23	0x3d2b623c	0.04184173
24	0x3cc18f0b	0.023627779
25	0x3d5df1c4	0.054185644
26	0x3e60f431	0.21968152
27	0x3e25f26b	0.16205756
28	0xbe06f173	-0.13178043
29	0x3ed4df1d	0.41576472
30	0x3e012192	0.12610462
31	0xbe01a22a	-0.12659517
32	0x3dfbec4f	0.12300932
33	0xbd3a06ae	-0.045416526
34	0xbd29c054	-0.041443184
35	0x3ded0bce	0.11574517
36	0x3dd4010e	0.10351764
37	0x3e1102b8	0.14161193
38	0xbdd5851b	-0.104257785
39	0xbe10fa17	-0.14157902
40	0xbe0bdd66	-0.13658676
41	0x3d282112	0.041047163
42	0xbd0035dd	-0.031301368
43	0xbe59b431	-0.21260144
44	0xbd2d2356	-0.042270027
45	0x3d2b6efe	0.041853897
46	0x3dc1d5dc	0.094646186
47	0xbd453ce8	-0.048153788
48	0xbe0a4a4a	-0.13504902
49	0xbe3704cd	-0.17872925
50	0xbd71a258	-0.058992714
51	0x3dd53494	0.10410419
52	0xbe3ecc31	-0.1863258
53	0x3c23d2ea	0.009999016
54	0xbc2a6d3c	-0.01040202
55	0x3ddc074b	0.107435785
56	0xbe590181	-0.2119198
57	0xbd7578ed	-0.059929777
58	0xbe4e808d	-0.20166226
59	0xbe005b0d	-0.12534733
60	0x3d9fba31	0.07799185
61	0xbbaa98d1	-0.0052062054
62	0xbe55c86b	-0.20877235
63	0xbe2fe785	-0.17178161
64	0x3e05ecd7	0.13078628
65	0x3dde225d	0.10846398
66	0x3e41b61a	0.18917122
67	0x3d4f9d41	0.05068708
68	0xbe0f7775	-0.14010413
69	0x3e862553	0.2620035
70	0x3d8c74be	0.06858204
71	0xbd22fb43	-0.039790403
72	0x3ce76f2c	0.028251253
73	0xbda1f27a	-0.07907577
74	0xbeace7e2	-0.33770663
75	0xbda34dfd	-0.079738595
76	0xbe7166af	-0.23574327
77	0x3e4882a7	0.1958109
78	0x3e9ed4d8	0.31021762
79	0x3ddb6866	0.10713272
80	0xbde3a4fa	-0.11115451
81	0x3e0102d7	0.1259874
82	0xbe14df2d	-0.1453826
83	0x3e3f6690	0.18691468
84	0x3bff79fa	0.007796523
85	0xbcf7ce95	-0.030249873
86	0x3c1c5427	0.009541548
87	0x3b8cdc33	0.0042987107
88	0x3dfa9dd0	0.122371316
89	0x3e68a42a	0.22718874
90	0xbdadcf31	-0.08486784
91	0x3e68be93	0.22728948
92	0x3e4fc0d3	0.202884
93	0x3e3bf2d0	0.18354344
94	0x3dcd554a	0.10026033
95	0xbe9b3b5d	-0.30318728
96	0x3aafc984	0.0013411497
97	0xbd8c986f	-0.06865012
98	0x3c19172f	0.009343906
99	0xbe8291ac	-0.25501764
100	0x3d22a6a7	0.039709713
101	0x3e252650	0.16127896
102	0x3dd3b362	0.10336949
103	0xbd5472da	-0.051867343
104	0xbe1f7d00	-0.15575027
105	0xbd0ba925	-0.034096856
106	0x3d1e1c33	0.03860111
107	0x3e1c5e31	0.15270306
108	0x3e867791	0.26263097
109	0x3e25c825	0.1618963
110	0x3e2b6727	0.16738568
111	0x3de5388e	0.111924276
112	0xbe25760a	-0.1615831
113	0x3d2a7cb1	0.04162282
114	0xbc84f404	-0.016229637
115	0x3d7f1556	0.062276207
116	0x3e0f730f	0.14008735
117	0xbc0f918d	-0.008762729
118	0x3e738172	0.23779848
119	0x3d0e22fb	0.03470133
120	0xbdff85fb	-0.124767266
121	0x3c682549	0.014169046
122	0xbdb4e43f	-0.08832597
123	0x3ebac055	0.36474863
124	0xbdcddc00	-0.10051727
125	0x3ed5a2ec	0.41725862
126	0xbe026bf6	-0.12736496
127	0x3cdded2c	0.027090631

hidden2out.weight f4 [3, 32]
0	0xbecba7d9	-0.39776495
1	0x3c045f76	0.0080794
2	0x3df1f004	0.118133575
3	0xbe5cbeec	-0.21557206
4	0xbe4bfe86	-0.19921312
5	0x3e4c9447	0.19978438
6	0x3dacd33a	0.08438726
7	0xbc83460d	-0.016024614
8	0x3e868197	0.26270744
9	0x3d638777	0.05554911
10	0xbe73506b	-0.23761146
11	0xbdccf0d0	-0.10006869
12	0xbe6fc994	-0.2341674
13	0x3e820514	0.253945
14	0x3e240860	0.1601882
15	0x3cd5ee80	0.026114702
16	0xbdbb3201	-0.09140397
17	0x3d582788	0.052772075
18	0x3dbef227	0.09323531
19	0xbc4cb14d	-0.012493444
20	0x3e2bb04c	0.1676647
21	0xbcd02271	-0.025407048
22	0xbd50bc64	-0.050960913
23	0xbe10353f	-0.14082812
24	0x3eae5a28	0.3405316
25	0x3ea12973	0.31476936
26	0xbe0ffe2c	-0.14061803
27	0x3c769a97	0.0150515055
28	0x3e14ceab	0.14531963
29	0x3ec79b32	0.38985592
30	0x3e49135f	0.19636296
31	0xbe140f9c	-0.1445908
32	0xbe596b45	-0.21232326
33	0x3e7aca9d	0.24491353
34	0x3d612b89	0.05497316
35	0xbe479755	-0.19491322
36	0x3e1e8e1c	0.15483898
37	0x3d907b43	0.0705476
38	0xbe3d8493	-0.18507604
39	0xbd338ca9	-0.043835316
40	0xbe12008d	-0.14258023
41	0x3b8047f9	0.00391483
42	0x3e38b5b1	0.1803806
43	0x3dcd4cde	0.10024427
44	0xbe73aab6	-0.2379559
45	0xbe0b044d	-0.1357586
46	0xbd866333	-0.065618895
47	0x3e743a55	0.23850377
48	0xbd8f557e	-0.06998728
49	0xbe5bf688	-0.21480763
50	0x3de249bf	0.11049222
51	0xbe0cdc9e	-0.13756034
52	0xbe015c23	-0.12632804
53	0x3dc23bdd	0.09484074
54	0x3e40d134	0.18829805
55	0xbc051361	-0.008122296
56	0x3c086a0b	0.008326064
57	0x3da32ee2	0.079679266
58	0x3e25987a	0.16171446
59	0x3dc42f71	0.09579361
60	0x3d0b9a4d	0.0340827
61	0x3d3237fa	0.043510415
62	0xbd92305a	-0.071381286
63	0x3dd80b06	0.105489776
64	0xbdfd9577	-0.12382024
65	0xbdeb284e	-0.11482297
66	0x3e820ab6	0.25398797
67	0x3e25c8f1	0.16189934
68	0x3d21d05b	0.039505344
69	0x3e5bb191	0.21454455
70	0x3e6a69c1	0.22891904
71	0xbe48428b	-0.19556634
72	0x3d11ac87	0.035564926
73	0xbdf4fdb4	-0.119624525
74	0x3b99b443	0.0046906783
75	0x3df07183	0.11740401
76	0x3caee720	0.021350443
77	0xbe513eaf	-0.20434068
78	0xbe5646dc	-0.20925468
79	0xbca5c37e	-0.02023482
80	0x3d725970	0.059167325
81	0xbe05150d	-0.12996311
82	0xbce46f03	-0.027884966
83	0xbdc7edfb	-0.09762188
84	0xbd74dce4	-0.05978097
85	0xbec7aa6f	-0.38997218
86	0xbd51380e	-0.05107885
87	0xbe340521	-0.17580082
88	0x3e093133	0.13397674
89	0x3c045822	0.008077653
90	0x3dc3d5b5	0.09562246
91	0x3d484cac	0.048901245
92	0x3dcf9495	0.10135762
93	0xbeb18b08	-0.34676385
94	0xbcbb67b9	-0.022876607
95	0x3e848404	0.2588197

hidden2out.bias f4 [3]
0	0x3db2f286	0.08737664
1	0xbccbd18a	-0.02488019
2	0x3dc7a174	0.097475916

std_layer.weight f4 [3, 32]
0	0x3e106007	0.14099132
1	0x3cea48c0	0.028599143
2	0xbcdac250	-0.026703984
3	0x3da6d47e	0.081459984
4	0xbd606730	-0.054785907
5	0x3db07dd2	0.08617748
6	0x3dd65f4a	0.10467394
7	0xbcb21560	-0.021738708
8	0xbd325560	-0.04353845
9	0xbdb40a26	-0.08790998
10	0xbe0dbe39	-0.13842095
11	0x3d88d55a	0.066813186
12	0x3db118ee	0.08647333
13	0xbd1b54cc	-0.037922665
14	0xbc34b330	-0.01102905
15	0xbcd9fdb8	-0.02661024
16	0xbc2e5c50	-0.010642126
17	0xbd04ee44	-0.03245379
18	0xbe26f56f	-0.16304563
19	0x3d21d0ec	0.039505884
20	0x3de5c986	0.11220078
21	0xbd50d70c	-0.050986335
22	0x3df11172	0.117709056
23	0xbdf23026	-0.1182559
24	0xbe08029b	-0.13282244
25	0x3d915f7e	0.07098292
26	0xbe3175e4	-0.17330128
27	0xbd074e18	-0.03303346
28	0x3a117d00	0.00055499375
29	0xbdf37242	-0.11887027
30	0xbdaccfaf	-0.0843805
31	0x3df84522	0.12122561
32	0xbda88b20	-0.08229661
33	0xbd364248	-0.044496804
34	0xbe015661	-0.12630607
35	0xbda53df2	-0.08068456
36	0xbe2acfe0	-0.1668086
37	0xbe05bf15	-0.13061173
38	0x3d899e0c	0.06719598
39	0x3b060f00	0.0020455718
40	0x3da263da	0.079292014
41	0xbe06290b	-0.13101594
42	0x3def00c6	0.116700694
43	0x3dc1d57e	0.094645485
44	0xbd3afab0	-0.04564923
45	0xbd682996	-0.056680284
46	0x3e11f659	0.1425413
47	0x3d3f9ae4	0.046778575
48	0x3cf3f380	0.029779196
49	0xbb903a20	-0.0044014603
50	0xbc6d8610	-0.014497295
51	0xbd4480b0	-0.04797429
52	0x3c938dc8	0.018011943
53	0x3e34ca85	0.1765538
54	0x3de1b176	0.11020176
55	0x3e3058d1	0.17221381
56	0xbde0b345	-0.10971693
57	0xbdf4e3d8	-0.1195752
58	0x3e07c0d9	0.1325716
59	0xbd15f154	-0.0366071
60	0xbd45cc14	-0.048290327
61	0xbd68295c	-0.05668007
62	0xbdbb97b0	-0.091597915
63	0xbd137410	-0.035999358
64	0x3c80cf40	0.015723825
65	0x3cb33408	0.021875396
66	0xbd514054	-0.05108674
67	0x3df09ad2	0.1174828
68	0x3dddc992	0.10829462
69	0xbd2ef758	-0.042716354
70	0x3cd637a8	0.026149586
71	0x3d7f0c90	0.06226784
72	0x3acf1680	0.0015799552
73	0xbdde00d0	-0.10839999
74	0xbc710fb0	-0.014713213
75	0x3d6ad40c	0.05733113
76	0xbd7b27c2	-0.061317213
77	0xbdade709	-0.08491332
78	0xbdc84d6b	-0.09780391
79	0xbe0defc9	-0.13861002
80	0xbda5a9db	-0.08089038
81	0xbddad1af	-0.10684525
82	0xbd52ab04	-0.051432624
83	0x3d2b3fb0	0.041808784
84	0x3cced3e0	0.025247514
85	0x3b74a700	0.0037330985
86	0x3e1144e5	0.14186437
87	0xbe218c7a	-0.15776244
88	0xbd7952dc	-0.060870036
89	0x3e1346d9	0.14382495
90	0x3d076ed8	0.033064693
91	0x3e0a438d	0.13502331
92	0xbabe8900	-0.0014536679
93	0x3e2031eb	0.15644042
94	0xbc8208b8	-0.015873298
95	0x3d821e54	0.06353441

std_layer.bias f4 [3]
0	0xbd6fa2dc	-0.058504924
1	0xbe09c00b	-0.13452165
2	0xbe090ee2	-0.13384584

exp_avg f4 [128, 12]
0	0x399d995e	0.0003005964
1	0x3a4bd37c	0.0007775349
2	0xb8f08b32	-0.00011470019
3	0xba12cc13	-0.00055998674
4	0x3a8f829c	0.0010948959
5	0x3b1600cc	0.0022888659
6	0x3a976322	0.001154993
7	0x396cb380	0.00022573583
8	0x39d63541	0.00040856938
9	0x3b334c41	0.0027358683
10	0x3b709ad8	0.0036713388
11	0x3ad21bcf	0.0016030016
12	0x3b508d57	0.0031822526
13	0x3b48ed89	0.003065916
14	0xb9cf2f00	-0.00039517134
15	0x3a5bf469	0.0008390607
16	0x3bfa1fe9	0.0076331985
17	0x3c45e475	0.012078394
18	0x3a87dad2	0.0010364896
19	0xba98b8e3	-0.001165178
20	0x3b03f146	0.0020132824
21	0x3c883eb1	0.016631456
22	0x3c82d371	0.015969964
23	0x3c30d65b	0.010793294
24	0xb98f1c80	-0.0002729632
25	0xba0d8bf4	-0.0005399578
26	0x38369184	4.3527703e-05
27	0x395180ab	0.00019979726
28	0xba3819f8	-0.00070229126
29	0xbaf51aad	-0.0018699967
30	0xba1cb6b2	-0.00059781515
31	0xb925881b	-0.0001578633
32	0xb98c67e4	-0.00026780285
33	0xbb02a231	-0.00199331
34	0xbb2d114a	-0.002640801
35	0xbab882d7	-0.0014077079
36	0x38e69fac	0.00010996996
37	0x388d37e9	6.733818e-05
38	0xb9afb605	-0.00033514216
39	0x3a05fa53	0.00051108486
40	0x39f40086	0.00046539697
41	0xba84fb54	-0.0010145702
42	0xb944a0b3	-0.00018751882
43	0xb9cb3cc5	-0.00038764454
44	0xb9441c8d	-0.00018702653
45	0xb9c043e0	-0.00036671665
46	0xba5a3b72	-0.0008324898
47	0xba3a75d7	-0.00071128964
48	0xb94f7694	-0.00019785232
49	0xb983a4f1	-0.00025109158
50	0xb8e04c50	-0.00010695367
51	0x3a0049ce	0.000489381
52	0xb90dd0ba	-0.00013524565
53	0xbae48be0	-0.0017436706
54	0xba19f731	-0.0005873321
55	0xb908fcf5	-0.00013064205
56	0xb9824c24	-0.0002485226
57	0xbacf8715	-0.0015833104
58	0xbb080a9d	-0.002075828
59	0xbaa02ac8	-0.0012219781
60	0x3a15b478	0.0005710791
61	0x3aff21ff	0.0019465088
62	0xb7383c6b	-1.0981322e-05
63	0xbac6932c	-0.0015150062
64	0x3ae34370	0.0017338824
65	0x3bd5f40f	0.006529338
66	0x3b16a64b	0.0022987302
67	0x3a6f2969	0.0009123297
68	0x3a81d638	0.0009905761
69	0x3bdb0181	0.006683529
70	0x3c1de4dd	0.009637085
71	0x3b938def	0.004503004
72	0x3801ee3f	3.097788e-05
73	0x383939e8	4.4161367e-05
74	0xb8963da7	-7.164041e-05
75	0x38ce2497	9.829661e-05
76	0x3922c2f1	0.00015522145
77	0xb97ab501	-0.00023909287
78	0xb6d97061	-6.4801866e-06
79	0x37248999	9.807199e-06
80	0xb8084925	-3.2493048e-05
81	0xb779ed8a	-1.4896863e-05
82	0xb8a82522	-8.017781e-05
83	0xb901a41d	-0.00012363536
84	0xb7d08e62	-2.4861834e-05
85	0xb7d2a52b	-2.5110863e-05
86	0x3810ec32	3.455225e-05
87	0xb6f709ef	-7.36233e-06
88	0xb7595f7e	-1.2956441e-05
89	0x3783dccf	1.5719239e-05
90	0x355f993f	8.3296976e-07
91	0x3702601a	7.770979e-06
92	0x37ebbfef	2.8103559e-05
93	0xb61de093	-2.3525542e-06
94	0x36a28bef	4.8442666e-06
95	0x3724e402	9.828249e-06
96	0x38ff45c7	0.000121723446
97	0x39e18b17	0.00043018974
98	0xb8fb0149	-0.00011968852
99	0xb98b7407	-0.00026598593
100	0x39889602	0.00026051706
101	0x3a3235d2	0.0006798181
102	0x3a144683	0.0005656259
103	0x399be704	0.00029736024
104	0x38d80d16	0.0001030212
105	0x3a789ffe	0.000948429
106	0x3abb9c7d	0.0014313605
107	0x3a0291a2	0.00049808074
108	0xb6963d84	-4.4775097e-06
109	0xb6c51141	-5.873066e-06
110	0x37f56979	2.925539e-05
111	0xb84c3674	-4.8688104e-05
112	0xb857205d	-5.1290135e-05
113	0x38d32498	0.0001006808
114	0x371c60e0	9.32088e-06
115	0x38140b7f	3.5296656e-05
116	0x37060c89	7.989941e-06
117	0x3809d3e1	3.2860673e-05
118	0x38aa0bf6	8.1084596e-05
119	0x38924415	6.974504e-05
120	0x37abc8aa	2.047823e-05
121	0x3886d211	6.428746e-05
122	0xb8260813	-3.9585004e-05
123	0xb8bd0938	-9.0139394e-05
124	0xb8519b41	-4.9974074e-05
125	0x39f885dd	0.00047401982
126	0x375bd7be	1.3103649e-05
127	0xb8a02349	-7.635967e-05
128	0xb8441054	-4.674525e-05
129	0x39849a69	0.00025292046
130	0x39f9a86f	0.00047618474
131	0x394f9d9e	0.00019799775
132	0xb7971fda	-1.8015435e-05
133	0x37a22307	1.9328216e-05
134	0x38a23515	7.734649e-05
135	0xb97f329c	-0.00024337549
136	0xb95549a8	-0.00020340702
137	0x39eaa7e3	0.00044757043
138	0x38218464	3.850869e-05
139	0x390df43f	0.00013537797
140	0xb71acd6d	-9.226945e-06
141	0x39181f61	0.00014507539
142	0x39dccbf0	0.00042113615
143	0x397f303d	0.00024336665
144	0x3a68682c	0.00088656205
145	0x3ad9f750	0.0016629491
146	0x3a11e00f	0.00055646984
147	0xbb11b986	-0.0022235825
148	0x3a792eb6	0.00095055567
149	0x3c0ec601	0.0087142
150	0x3b1c3d8d	0.0023840398
151	0x3a64b9a5	0.0008725173
152	0x3a9a86d4	0.001178945
153	0x3c042a56	0.008066734
154	0x3c350ea2	0.011050852
155	0x3bc8009f	0.0061035897
156	0x3a9a6357	0.0011778873
157	0x3ac81aaf	0.0015266741
158	0xb8ca8f3d	-9.658791e-05
159	0x38cb3090	9.68884e-05
160	0x3b363fbf	0.0027808992
161	0x3bdd3ea4	0.006751852
162	0x39b33abf	0.0003418531
163	0x39b931a5	0.00035322938
164	0x3a4df5d5	0.0007856761
165	0x3bf615e0	0.007509932
166	0x3c0b6864	0.008508775
167	0x3badaca7	0.005300123
168	0xba96b401	-0.0011497737
169	0xbabbbfd3	-0.0014324136
170	0x397fe4cc	0.00024403929
171	0xb9f58e65	-0.00046836134
172	0xbb2ec1c3	-0.0026665784
173	0xbba16144	-0.004924925
174	0xba26d3b6	-0.0006363945
175	0xb8d40c78	-0.0001011127
176	0xba43f5aa	-0.00074752665
177	0xbbc53dc6	-0.006019327
178	0xbbd6ad8c	-0.00655145
179	0xbb94daf9	-0.004542705
180	0xb82dc85d	-4.1433017e-05
181	0xb809b516	-3.2831995e-05
182	0x38017851	3.086805e-05
183	0x38680557	5.5318083e-05
184	0x386cad13	5.6427973e-05
185	0xb8f296c6	-0.00011567543
186	0xb601b883	-1.9329898e-06
187	0xb8030b5c	-3.1243413e-05
188	0x386ed837	5.6944988e-05
189	0xb8457149	-4.7073965e-05
190	0xb8fd89d4	-0.000120896526
191	0xb898adc1	-7.280289e-05
192	0x36363095	2.7148392e-06
193	0x35c2a863	1.4503133e-06
194	0x37b58405	2.1638358e-05
195	0xb8404e1b	-4.584911e-05
196	0xb83f6432	-4.5631263e-05
197	0x38d4ed89	0.00010153192
198	0x373f9f1f	1.1421535e-05
199	0x380c4084	3.3438686e-05
200	0x35e3f5be	1.6984338e-06
201	0x37f16d63	2.8780376e-05
202	0x38c25308	9.266107e-05
203	0x387af2b1	5.983067e-05
204	0xb9ba6303	-0.00035550454
205	0xb9b4a86e	-0.00034457765
206	0x39933638	0.0002807842
207	0xba14eb0b	-0.0005680776
208	0xba929c81	-0.0011185558
209	0xba08940e	-0.000521005
210	0x3921fa09	0.00015447302
211	0x39d297ab	0.00040167323
212	0xb88654f6	-6.405443e-05
213	0xbabb07af	-0.0014269258
214	0xba924c2c	-0.0011161617
215	0xba035ac2	-0.00050107774
216	0x397289c6	0.00023130243
217	0x39efeb03	0.0004576073
218	0xb5e217c7	-1.6845232e-06
219	0xb933f877	-0.0001716333
220	0x3a59246f	0.0008283322
221	0x3ad0656e	0.0015899369
222	0x39829082	0.000249032
223	0x3825fd78	3.9575127e-05
224	0x396bf728	0.0002250342
225	0x3af2cfdf	0.0018525085
226	0x3b147609	0.0022653362
227	0x3a9d3a21	0.0011995473
228	0x371d1105	9.361892e-06
229	0x37300a74	1.0492851e-05
230	0x3727c0fb	9.998907e-06
231	0xb827711c	-3.9921244e-05
232	0xb80f98a6	-3.423602e-05
233	0x38b79edb	8.755709e-05
234	0x370cdbf4	8.395862e-06
235	0x3815cbb2	3.5714074e-05
236	0xb7119637	-8.677648e-06
237	0x381aed98	3.6937738e-05
238	0x38a84822	8.0243e-05
239	0x3885085d	6.343492e-05
240	0x3afc7048	0.0019259537
241	0x3b015de3	0.0019739799
242	0xb9800831	-0.00024420166
243	0x3a90ed15	0.0011056984
244	0x3b939d50	0.004504837
245	0x3bfdb469	0.007742454
246	0x39459e2c	0.00018846308
247	0xb90aa214	-0.00013221084
248	0x3aa3f0bd	0.0012507659
249	0x3c238dee	0.009982569
250	0x3c2105d6	0.009828052
251	0x3bedbd3e	0.0072552254
252	0x382fc84f	4.1909803e-05
253	0x38a011c1	7.6327015e-05
254	0xb885024d	-6.342363e-05
255	0x381505dc	3.5529825e-05

exp_avg_sq f4 [128, 12]
0	0x35939eb6	1.0998544e-06
1	0x364835de	2.9833677e-06
2	0x35636f66	8.4726196e-07
3	0x36f7b94e	7.382746e-06
4	0x369579c5	4.454722e-06
5	0x38baaabe	8.900974e-05
6	0x36e66936	6.8667823e-06
7	0x363f34ef	2.849203e-06
8	0x35b48803	1.345063e-06
9	0x387ca818	6.023803e-05
10	0x390879b3	0.00013015307
11	0x38246a5f	3.9199713e-05
12	0x38444b6d	4.6800287e-05
13	0x3803cb86	3.142238e-05
14	0x37b7b17f	2.1897953e-05
15	0x38bb095d	8.918599e-05
16	0x395f16ad	0.00021275385
17	0x3aabb730	0.0013100859
18	0x382e923a	4.1621017e-05
19	0x385f3460	5.321612e-05
20	0x3803c7bd	3.1418855e-05
21	0x3aaf22a0	0.001336176
22	0x3ae0ea18	0.0017159609
23	0x3a5c3ae2	0.0008401108
24	0x33aca23b	8.038884e-08
25	0x34e49609	4.2577474e-07
26	0x3404b7be	1.2360303e-07
27	0x35610210	8.3822033e-07
28	0x3505340d	4.9622105e-07
29	0x37305ef3	1.0512525e-05
30	0x355ef054	8.305117e-07
31	0x34c6d16e	3.7032754e-07
32	0x344113bd	1.7981706e-07
33	0x36f81220	7.393086e-06
34	0x37870e58	1.6099933e-05
35	0x36a54b2c	4.9261344e-06
36	0x33944309	6.903981e-08
37	0x3390a449	6.735406e-08
38	0x3529cab4	6.325238e-07
39	0x35b2c644	1.3319736e-06
40	0x35af62d6	1.3067281e-06
41	0x36c724f2	5.934963e-06
42	0x33fac8f8	1.1678088e-07
43	0x353d3e73	7.049886e-07
44	0x34448248	1.8301319e-07
45	0x35392683	6.897391e-07
46	0x36723c42	3.6095885e-06
47	0x363de174	2.8294426e-06
48	0x34214d6b	1.5022458e-07
49	0x3444f336	1.8342402e-07
50	0x33229e36	3.7862456e-08
51	0x349e5158	2.948898e-07
52	0x3423c69e	1.5252814e-07
53	0x36e35f88	6.7762485e-06
54	0x352f1a34	6.523071e-07
55	0x336c09cf	5.4956953e-08
56	0x34234405	1.5205303e-07
57	0x36e87612	6.927884e-06
58	0x3736bbb1	1.0891746e-05
59	0x36719d6b	3.6003428e-06
60	0x362d5bae	2.5832373e-06
61	0x3744a081	1.1719881e-05
62	0x36cbd301	6.0744355e-06
63	0x381fb77c	3.8079437e-05
64	0x3794eaaa	1.7752249e-05
65	0x39cfd918	0.00039643864
66	0x37e1d1ec	2.6919843e-05
67	0x3797a72c	1.8078448e-05
68	0x36a1a52a	4.8174015e-06
69	0x395b33a9	0.00020904712
70	0x3a0a7b7e	0.0005282684
71	0x3929f58b	0.00016208568
72	0x340ca542	1.3098636e-07
73	0x341d22c3	1.463441e-07
74	0x358f1558	1.0660542e-06
75	0x361545c3	2.2243337e-06
76	0x36124bef	2.1799895e-06
77	0x371e7374	9.444415e-06
78	0x345c0a42	2.0492828e-07
79	0x359a86ac	1.1513089e-06
80	0x34b628a2	3.3929706e-07
81	0x3592385a	1.0894248e-06
82	0x36c2b752	5.802992e-06
83	0x369ad79e	4.614659e-06
84	0x32a0cad7	1.8718692e-08
85	0x32c54de5	2.296924e-08
86	0x334ce566	4.7706088e-08
87	0x3302ee2f	3.048461e-08
88	0x33260cca	3.866152e-08
89	0x3388f071	6.3767295e-08
90	0x32725414	1.4105371e-08
91	0x327dea84	1.4779861e-08
92	0x332f31ad	4.0790542e-08
93	0x32c13086	2.2490223e-08
94	0x32951233	1.7354159e-08
95	0x33848f45	6.1727896e-08
96	0x3527beac	6.248981e-07
97	0x361c4d02	2.3290636e-06
98	0x369d7207	4.692239e-06
99	0x3795a91b	1.784093e-05
100	0x37552705	1.2704874e-05
101	0x39069002	0.00012832883
102	0x3686088a	3.9945053e-06
103	0x37158c2b	8.9137275e-06
104	0x35d2a40d	1.5693964e-06
105	0x37ef1599	2.8501077e-05
106	0x3904488b	0.00012615525
107	0x384699e2	4.7350193e-05
108	0x2fe49c6e	4.1584108e-10
109	0x302d1a45	6.2974365e-10
110	0x315036db	3.0299165e-09
111	0x324218e9	1.129795e-08
112	0x322c3068	1.0022724e-08
113	0x331bab44	3.6244515e-08
114	0x304fe805	7.563588e-10
115	0x3180b4e6	3.745856e-09
116	0x304f94f0	7.5517814e-10
117	0x3196718a	4.3784825e-09
118	0x32babd80	2.1739424e-08
119	0x329ed754	1.849154e-08
120	0x33860021	6.239885e-08
121	0x33b2f3e9	8.333138e-08
122	0x358fd069	1.0714986e-06
123	0x3683aa7b	3.9239508e-06
124	0x36725673	3.611113e-06
125	0x37b6b26f	2.177918e-05
126	0x34f16dd8	4.496967e-07
127	0x3604546c	1.9718673e-06
128	0x3487bc41	2.5282682e-07
129	0x364ca1fc	3.0492656e-06
130	0x378aab19	1.6530556e-05
131	0x37154f59	8.899567e-06
132	0x331e49f6	3.685451e-08
133	0x33218acb	3.7611965e-08
134	0x34395504	1.7260396e-07
135	0x34a308fd	3.0367656e-07
136	0x34999207	2.860472e-07
137	0x35cda2c1	1.5321058e-06
138	0x332d4259	4.0340044e-08
139	0x3433c2c0	1.6741524e-07
140	0x33967efc	7.0080176e-08
141	0x35009f4b	4.791552e-07
142	0x35a35702	1.2169769e-06
143	0x35670599	8.606235e-07
144	0x378787fe	1.615658e-05
145	0x3797766d	1.8055749e-05
146	0x362113b9	2.400235e-06
147	0x380121e3	3.0787556e-05
148	0x37b9d130	2.2151129e-05
149	0x3a39b883	0.00070846843
150	0x389176f4	6.9362955e-05
151	0x36b26f85	5.317796e-06
152	0x377701fc	1.4722809e-05
153	0x3a35497d	0.00069155527
154	0x3a88533a	0.001040078
155	0x39b851cb	0.00035156155
156	0x374ac820	1.20867335e-05
157	0x378be382	1.6676033e-05
158	0x3704f4b0	7.924784e-06
159	0x38369a99	4.353616e-05
160	0x385a70ba	5.2080235e-05
161	0x3a3daa7a	0.0007235181
162	0x37e1cf65	2.6918666e-05
163	0x37bbfcd9	2.2409879e-05
164	0x3742242c	1.1571723e-05
165	0x3a13ed6f	0.00056429853
166	0x3a802c3b	0.0009778807
167	0x39cc3ce0	0.00038955268
168	0x3641e654	2.889331e-06
169	0x368a7094	4.1258263e-06
170	0x354a2759	7.530812e-07
171	0x3694fa03	4.439849e-06
172	0x378be106	1.6674876e-05
173	0x38bb242b	8.923592e-05
174	0x360aca30	2.068129e-06
175	0x360da803	2.1108433e-06
176	0x36116d80	2.167042e-06
177	0x38d895a2	0.00010327554
178	0x390d60c3	0.00013482854
179	0x389a929d	7.370601e-05
180	0x334ead3d	4.8120672e-08
181	0x335187f4	4.8785253e-08
182	0x3428e249	1.5728541e-07
183	0x3437bc17	1.711163e-07
184	0x343e8af6	1.7745683e-07
185	0x35034712	4.8904724e-07
186	0x32f01905	2.7951055e-08
187	0x33afe2ba	8.190314e-08
188	0x33d219f0	9.783605e-08
189	0x33354939	4.2208942e-08
190	0x3435f7ce	1.694709e-07
191	0x34ad21e2	3.2248414e-07
192	0x3265f456	1.338511e-08
193	0x3238496d	1.0726905e-08
194	0x330f16b9	3.3315448e-08
195	0x3406809b	1.2526509e-07
196	0x3408774b	1.2709386e-07
197	0x35235282	6.0842297e-07
198	0x31a607d5	4.8321263e-09
199	0x335b1abc	5.1014226e-08
200	0x32bd2177	2.2017714e-08
201	0x3384e87b	6.189017e-08
202	0x34d13b6a	3.8972513e-07
203	0x348d223c	2.6288205e-07
204	0x358043e3	9.556501e-07
205	0x359fd0b1	1.190716e-06
206	0x358ed1ee	1.0640922e-06
207	0x369d3d4f	4.686102e-06
208	0x36c61235	5.9029794e-06
209	0x38561bd4	5.1047493e-05
210	0x35ce12f2	1.535371e-06
211	0x360a5bdb	2.061707e-06
212	0x3579ce3c	9.305984e-07
213	0x381181ee	3.46917e-05
214	0x387d4a89	6.0389317e-05
215	0x37d34bfa	2.518854e-05
216	0x35638919	8.4763593e-07
217	0x3524803f	6.1281384e-07
218	0x344e64ce	1.9221918e-07
219	0x35d0cda1	1.5557054e-06
220	0x3639fe18	2.771505e-06
221	0x3766fd14	1.3767993e-05
222	0x35d23a7e	1.5663243e-06
223	0x359a1f14	1.1482939e-06
224	0x34c0417e	3.581044e-07
225	0x378af0b2	1.6562964e-05
226	0x37c2457f	2.3158964e-05
227	0x37124e57	8.720518e-06
228	0x32c0d216	2.2447278e-08
229	0x32c9a66e	2.3475163e-08
230	0x3382a39b	6.0833564e-08
231	0x3341fbe4	4.5165407e-08
232	0x334294d2	4.5304496e-08
233	0x341224e9	1.3610737e-07
234	0x31cad1c0	5.9028196e-09
235	0x32cb3113	2.3654627e-08
236	0x33383fe7	4.2898957e-08
237	0x325f5473	1.299951e-08
238	0x337640cc	5.733527e-08
239	0x33b9ff53	8.661177e-08
240	0x37840929	1.5739892e-05
241	0x37893801	1.6357752e-05
242	0x36d1cc49	6.2524673e-06
243	0x37e95858	2.7816903e-05
244	0x389590c4	7.131838e-05
245	0x3a13cf40	0.00056384876
246	0x376b0cab	1.4010041e-05
247	0x3780707f	1.5311174e-05
248	0x375c5a30	1.313402e-05
249	0x3a18057b	0.00057991565
250	0x3a4b08ef	0.00077451667
251	0x39cb1ba3	0.00038739768
252	0x3230ee41	1.0298721e-08
253	0x326d62f5	1.3817716e-08
254	0x3303f1b8	3.0720656e-08
255	0x333573fb	4.224783e-08

exp_avg f4 [128, 32]
0	0xb91baf8e	-0.00014847351
1	0x392fe380	0.00016774051
2	0x37a304bf	1.9433324e-05
3	0x388204d0	6.1997795e-05
4	0x38d1e758	0.00010008988
5	0xb78f8cfa	-1.7112576e-05
6	0xb7d84e77	-2.5785745e-05
7	0xb6ff0792	-7.6004735e-06
8	0xb8db2a44	-0.00010450606
9	0xb7970ebb	-1.8007462e-05
10	0xb981d3f3	-0.00024762712
11	0x38899e72	6.562182e-05
12	0xb8b53b22	-8.641767e-05
13	0x386c8712	5.639258e-05
14	0xb8239fed	-3.901117e-05
15	0x3800ccd6	3.0708346e-05
16	0x382ddca4	4.14519e-05
17	0xb90b5235	-0.00013286698
18	0x384669f2	4.7305548e-05
19	0x36b776e4	5.4676657e-06
20	0xb85e132d	-5.2946783e-05
21	0x37cb9205	2.4267481e-05
22	0xb9113ff0	-0.00013852096
23	0x3802130e	3.101216e-05
24	0x39761594	0.00023468427
25	0xb7d932de	-2.5892103e-05
26	0xb955c155	-0.00020385285
27	0x385c6c69	5.2553052e-05
28	0xb86afa80	-5.6023244e-05
29	0xb9773005	-0.00023573644
30	0xb8f57e1a	-0.000117059986
31	0x3661dd65	3.3656481e-06
32	0x3a864908	0.0010245154
33	0x39a02482	0.0003054478
34	0x38d80521	0.00010300638
35	0x390ad926	0.000132416
36	0x39e5c82b	0.0004382742
37	0xb8a25c14	-7.741913e-05
38	0xb8b7e167	-8.7681045e-05
39	0x38189fda	3.6388497e-05
40	0xb9312266	-0.0001689285
41	0xb94a1fd9	-0.00019276085
42	0xb9be57c6	-0.0003630502
43	0x3832d54b	4.263715e-05
44	0xb9cb0053	-0.0003871942
45	0x39f128c4	0.00045997475
46	0xb7a81281	-2.0035777e-05
47	0x3931f728	0.00016972108
48	0x39c75a8e	0.00038023706
49	0x3a3c7644	0.0007189254
50	0xb851ec45	-5.0049526e-05
51	0x39ff79c9	0.00048728127
52	0x388eabd2	6.803092e-05
53	0x38d3b2c2	0.0001009456
54	0xba3bf6ac	-0.0007170241
55	0xb8adda14	-8.289903e-05
56	0x3a38447c	0.0007029248
57	0xb82dff48	-4.1484163e-05
58	0x3abdd1b8	0.0014482057
59	0x3a9c15ae	0.0011908317
60	0xb85f2707	-5.320369e-05
61	0xb9095454	-0.00013096753
62	0x3894131f	7.0607515e-05
63	0xb75b7bb5	-1.308222e-05
64	0x379c604f	1.8641496e-05
65	0xb8dc8212	-0.00010514645
66	0xb7a8a98d	-2.0106114e-05
67	0xb842dbd5	-4.645794e-05
68	0xb86bdbb7	-5.623299e-05
69	0xb72174d0	-9.623545e-06
70	0xb5aea53b	-1.3012099e-06
71	0x364fbb3e	3.0954393e-06
72	0x383f0071	4.553836e-05
73	0x379a951f	1.842767e-05
74	0x392b7989	0.00016353106
75	0xb810045f	-3.4336346e-05
76	0x3885632e	6.360408e-05
77	0x370c10d1	8.348566e-06
78	0x37c84f66	2.387883e-05
79	0xb84fc946	-4.9540096e-05
80	0xb8a0161d	-7.6335135e-05
81	0x3781fb78	1.5495098e-05
82	0xb813890d	-3.517517e-05
83	0xb851fb4a	-5.0063514e-05
84	0x388a7440	6.602006e-05
85	0xb724a982	-9.814628e-06
86	0x3913ead1	0.00014106488
87	0x372e4a14	1.0388456e-05
88	0xb8c6a4ac	-9.472048e-05
89	0x37998267	1.8299745e-05
90	0x37ebc0dc	2.810399e-05
91	0xb89052bb	-6.881865e-05
92	0x36f1846c	7.1977756e-06
93	0x38ad8a82	8.275082e-05
94	0x38861112	6.3927975e-05
95	0xb58cc3c9	-1.0487794e-06
96	0x3776aca8	1.4702942e-05
97	0xb8e05254	-0.00010696487
98	0x3865ff04	5.4835356e-05
99	0x384c1fb7	4.8666927e-05
100	0x3905a9dd	0.00012747147
101	0xb8532bc4	-5.034708e-05
102	0xb7fdea53	-3.0269066e-05
103	0xb69f24d1	-4.7428553e-06
104	0xb885f470	-6.387464e-05
105	0xb80769c2	-3.2285003e-05
106	0xb924f961	-0.0001573316
107	0x37b2f3ef	2.1332844e-05
108	0x360244dd	1.9411593e-06
109	0x392258bd	0.00015482582
110	0xb89d7fc9	-7.510145e-05
111	0xb91425c0	-0.00014128443
112	0xb6344b86	-2.686605e-06
113	0xb8c52634	-9.400808e-05
114	0xb7c20ade	-2.3131663e-05
115	0xb9114da0	-0.00013857195
116	0x392dadb1	0.00016563271
117	0x379f0c7c	1.896009e-05
118	0x396f61ad	0.00022829203
119	0x389c89e0	7.464341e-05
120	0x395b762f	0.00020929494
121	0xb7b43e29	-2.1486618e-05
122	0x3918acb1	0.00014560182
123	0x38a265c0	7.7437144e-05
124	0xb85197bf	-4.9970808e-05
125	0xb888684a	-6.504411e-05
126	0x38c480f1	9.3700255e-05
127	0x35b7a127	1.3681464e-06
128	0x38b1a172	8.470089e-05
129	0xb8cf035b	-9.871154e-05
130	0x378add22	1.6553855e-05
131	0xb58e6326	-1.060868e-06
132	0xb6e4eb68	-6.8223344e-06
133	0xb7fad55b	-2.9901674e-05
134	0xb782e7cd	-1.5605148e-05
135	0x35bd5a8b	1.4107949e-06
136	0xb6a251b6	-4.8374886e-06
137	0x36eb6a0f	7.0158926e-06
138	0x3629f98d	2.532822e-06
139	0xb7ba1405	-2.218225e-05
140	0x38802b2b	6.111556e-05
141	0x38a93b68	8.069613e-05
142	0xb73cb841	-1.1248573e-05
143	0xb8b6eb82	-8.722303e-05
144	0xb87e7a09	-6.0671973e-05
145	0xb7b6e971	-2.1804795e-05
146	0xb816de6a	-3.5969926e-05
147	0xb8b5c5ba	-8.667582e-05
148	0x3902eeb7	0.00012486694
149	0x373eabe9	1.13649085e-05
150	0x396bdca5	0.00022493543
151	0x381e8556	3.7794314e-05
152	0x37b7e5dc	2.1922337e-05
153	0x357d6f41	9.441174e-07
154	0x386a3de9	5.5847606e-05
155	0xb869778a	-5.566286e-05
156	0xb7e23c62	-2.6969417e-05
157	0x38c75890	9.5055555e-05
158	0x38ab508d	8.168919e-05
159	0xb44f09e2	-1.9281973e-07
160	0xb901a592	-0.00012364078
161	0x39f23ad6	0.00046201673
162	0x37ec39ec	2.8160364e-05
163	0x3920b91f	0.00015327752
164	0x390c5e7b	0.00013386637
165	0x37b30177	2.1339145e-05
166	0xb6660276	-3.4274103e-06
167	0xb6e83992	-6.920841e-06
168	0xb948cc43	-0.0001914958
169	0xb7c37478	-2.3300046e-05
170	0xba19b21c	-0.0005863027
171	0x3927d718	0.0001600649
172	0xb91b398b	-0.00014803388
173	0xb8542ac8	-5.0584582e-05
174	0xb872870c	-5.782307e-05
175	0x398597c4	0.0002548081
176	0x393ba79e	0.00017896152
177	0xb8c6f6e5	-9.4873634e-05
178	0x392a6239	0.00016249054
179	0x39450b28	0.0001879154
180	0xb99d552c	-0.00030008832
181	0x38647251	5.44659e-05
182	0xba13e656	-0.0005641928
183	0xb82c8d73	-4.113973e-05
184	0x3990f971	0.0002765167
185	0xb87bcbea	-6.0032973e-05
186	0xb96cbb07	-0.00022576387
187	0x38904d51	6.8808564e-05
188	0xb8430de1	-4.650455e-05
189	0xb9ad6b0a	-0.00033076882
190	0xb9ad5c41	-0.00033065866
191	0x36a6988e	4.964945e-06
192	0x367429d7	3.6383187e-06
193	0xb70a5241	-8.244592e-06
194	0x377b1a08	1.4966827e-05
195	0x37598daf	1.2967196e-05
196	0x37f6d62c	2.9425217e-05
197	0xb6c9e50d	-6.016932e-06
198	0xb6b7cf21	-5.477938e-06
199	0xb7106b89	-8.608106e-06
200	0xb7e00cf9	-2.6708922e-05
201	0xb61f6b62	-2.3755351e-06
202	0xb8732408	-5.796927e-05
203	0x371bcd90	9.286581e-06
204	0x37a5857c	1.9731691e-05
205	0x384d88e0	4.9003283e-05
206	0xb748d577	-1.197063e-05
207	0xb75c81d1	-1.3143247e-05
208	0xb7637ce3	-1.3559332e-05
209	0xb8076b05	-3.2286178e-05
210	0x36207972	2.3912548e-06
211	0xb80fb9ca	-3.4266886e-05
212	0x37b96ba0	2.2103835e-05
213	0x36df9e77	6.6643656e-06
214	0x38351100	4.3169595e-05
215	0x37848efb	1.5802207e-05
216	0x3862bd14	5.405869e-05
217	0xb6d07cf4	-6.2134295e-06
218	0x37e4dd7c	2.7282855e-05
219	0x3787da71	1.6194974e-05
220	0xb77513e4	-1.4607769e-05
221	0xb81ac8c7	-3.690345e-05
222	0x3690c5b4	4.31455e-06
223	0x3664ea4c	3.4111026e-06
224	0xb4d53ae2	-3.9717185e-07
225	0x36ae6879	5.1977663e-06
226	0xb5c84a77	-1.4922833e-06
227	0xb6b78ce8	-5.4702286e-06
228	0xb6e612ff	-6.8567456e-06
229	0xb599845a	-1.1437908e-06
230	0x34d79da1	4.016156e-07
231	0x35e6fdf7	1.7210249e-06
232	0x36432617	2.9079436e-06
233	0x3606f693	2.011108e-06
234	0x3759e212	1.2986844e-05
235	0xb3a0f8fa	-7.495869e-08
236	0xb51cf936	-5.847718e-07
237	0xb6a5146c	-4.9197606e-06
238	0x369c7a9f	4.6634373e-06
239	0x360d4b38	2.105442e-06
240	0xb5b0dcb3	-1.3177254e-06
241	0x3702109f	7.752474e-06
242	0xb549991f	-7.5101156e-07
243	0x36c92013	5.9940007e-06
244	0xb62ba876	-2.5579043e-06
245	0x36415c3c	2.8812929e-06
246	0xb612b683	-2.1861931e-06
247	0xb6115e50	-2.166158e-06
248	0xb743533b	-1.1642284e-05
249	0x3624f200	2.4578767e-06
250	0xb70bd410	-8.33442e-06
251	0xb6b6127c	-5.4261745e-06
252	0x336806d5	5.4022923e-08
253	0x36bd84ba	5.6480903e-06
254	0x36119566	2.1693645e-06
255	0xb5f5c7e2	-1.8312096e-06
