models/drone/policy_ego_rotor_best_iter52.pth (torch, 80830 bytes, 20 tensors)

lstm.weight_ih_l0 f4 [128, 12]
00000000: a783 6bbb 7c15 b8be 4634 733d 2841 533d
00000010: 14ea 89be c8ad 073d 62e1 b0bd 0552 f13d
00000020: c3aa 863d c9bd 77be d6f2 1fbe 058b 43bd
00000030: dc01 3cbc d3ff f03d 4fa4 493e 7565 21bd
00000040: 770a a3bd 6262 543c da73 573e 2f21 ac3d
00000050: f4e4 b3bc 1ecf cdbd 3bf0 60bd e292 28bd
00000060: d504 d43d 819f fcbc ee35 89bd cbae 143e
00000070: 2f8e 62be fe2c ab3d 0161 803d aad1 6b3e
00000080: 5ceb 293e 2775 dfbd 36c3 22be 5f79 3abd
00000090: 6451 86bd 6956 0f3e 80ac 723e e396 37be
000000a0: b66b 823e 27f7 27be 1eb5 873d 35a3 cb3d
000000b0: 7976 953d 7dac ab3d 9065 0abd ad57 8c3d
000000c0: 1c71 d0bd a868 623d f36f c0be b766 893c
000000d0: ceb8 253e e745 27be c3d8 843e 12ea 9f3e
000000e0: 7b0b 6cbd 07f7 b1bd c143 b13d 6434 7b3c
000000f0: 38ff 91be d7e1 393e afc5 eabd 8e13 fd3d
00000100: 8656 b7bc ca01 efbd b7ba 3fbd 316b 173d
00000110: f510 48be 2fab 01be 63a5 2e3e 075d b7bd
00000120: 5249 bc3d c29d 21bc 0b38 01be a3ce be3d
00000130: c734 9e3d 41b1 babd 3559 99be de30 54bc
00000140: 42e4 5ebe 55e9 6bbe 954a 72bd 6758 30be
00000150: f31f b5bd 1a4f f1bd 3125 ccbe 9c64 9f3c
00000160: 7e79 2cbd 2c88 853d 1880 8cbd c9a5 19be
00000170: 132e 703d aead 473d bce8 ddbc 8aad 8ebd
00000180: 52c4 13be 6a9b fc3d a392 b6bd 80b7 4ebe
00000190: 9eed 093e 3b19 dcbd ff87 033e d34b 953c
000001a0: ef64 06be 15c6 42be 951f d73d 228f 083b
000001b0: 9b16 5b3e bec0 91bc 5fce 5cbd 7699 3b3e
000001c0: 7ae5 2a3e ba6e 3dbe 260e aabd fc29 cebc
000001d0: a7db 8f3d 399e 5f3d acd7 27be 69a8 02be
000001e0: d2f9 9ebe fe75 0b3e 3ac7 d83d f6d2 80be
000001f0: 0dd9 373e e00c 2dbe 0ef3 2abe 8674 d3bc
00000200: ccd4 0d3e 49c2 1d3e 8249 d5bd 4f17 c03c
00000210: b950 a23e dacd f4bb 8bdc 61be c0cd b33e
00000220: a318 ad3d daa1 6dbd 8342 c0bd 32f6 38be
00000230: 16fd 24be 1c26 9ebc d34f 8abd e6d6 7fbc
00000240: 4eb9 a63d f216 4fbe f627 82be bef1 113d
00000250: 81fc 6e3d 1f84 a83d 2c22 1fbe f1d1 233e
00000260: dccc 8cbd 4883 5f3c 3784 ddbd bb17 e4bd
00000270: 6a6c 163e 018b 44be 4fc4 d13d 3c24 0dbc
00000280: 6924 6fbe 4d18 c13d eacf bfbd 2241 3dbd
00000290: 3ef8 09be 3a90 85bc 62db 07be bdbf fdbc
000002a0: e3c6 1bbe 61e6 35be 545c d8be bcd1 e23d
000002b0: 3768 3c3c 93a6 7ebd 59ba df3c 4620 3d3e
000002c0: c800 4bbc 35b4 56bd a879 dbbd 042a 843d
000002d0: d595 c43d 0026 1a3c c56e 96be 0850 6d3e
000002e0: a68e f83b cc4b 153d 6e2b 00be 6c8b 64be
000002f0: 3deb 89bd 7017 54bd 714b 613e 7f7f 62be
00000300: fc0d 0f3d b3c8 04bc 5592 e8bd 93c3 bbba
00000310: 95bc 193d bd0e 8b3d 9e6b e53d 443b 74be
00000320: 5a5e d2bd 7cc4 15be fdb8 d33d 99d7 efbd
00000330: 4942 a63e b110 d93e 67f6 74bd cd9f 843c
00000340: 5d9e 163e e22c f73d be4c 7e3c e278 dabd
00000350: 8461 8bbe b952 103e beb7 e23d 89e7 113e
00000360: 3d86 d13e 1dbb a8be a0d5 92be 0d5f a23e
00000370: c687 2fbe 8cce c03d 0e1c 09be fcb1 0dbe
00000380: 810a febb 3f21 acbd a115 1abd 4d93 4e3d
00000390: d825 ed3d 94e5 653c 1801 6dbe 81b4 b3bd
000003a0: 6c7a 873e a186 00be 2d9c 6abe d0ca 933b
000003b0: afdb 7dbe 291a be3c 0a8c 9b3d ad0b 6fbe
000003c0: f4ac d7bd 95e4 bc3d c4eb ca3d d065 3e3d
000003d0: 2e2f 34be d34f 6bbd 72ca 8ebd a79c ea3b
000003e0: 796b 02be 10c2 aa3e d698 863e 4549 c7bd
000003f0: 1e72 e2bd 1edc 85ba 6ff7 5cbe 3492 573c
-0.0035936625 -0.3595389 0.059376024 0.05157581 -0.269364 0.033124715 -0.08636738 0.11783222
0.06575539 -0.24193491 -0.15619978 -0.04774 -0.011475053 0.117675446 0.19691585 -0.039403398
-0.079609804 0.012962909 0.21040288 0.08404767 -0.02195976 -0.1004927 -0.0549166 -0.041155703
0.10352484 -0.030837776 -0.066997394 0.14519803 -0.22124551 0.08358191 0.06268502 0.23029199
0.16593689 -0.10911017 -0.1589478 -0.045525905 -0.06558493 0.13997807 0.23698616 -0.17928652
0.25472802 -0.16402875 0.06626342 0.09943239 0.072979875 0.08382509 -0.033788264 0.0685266
-0.10177824 0.05527559 -0.3758541 0.016772611 0.16183779 -0.1633526 0.25946626 0.3123327
-0.057628136 -0.08689695 0.08655501 0.015332315 -0.2851503 0.18152557 -0.114634864 0.123572454
-0.022380125 -0.11670263 -0.046808925 0.03696746 -0.19537719 -0.12662958 0.17055278 -0.089532904
0.09193672 -0.009864273 -0.12619035 0.093167566 0.0772491 -0.0911584 -0.29950872 -0.012951104
-0.21766761 -0.23038228 -0.05915316 -0.17221223 -0.088439845 -0.117826656 -0.39872125 0.019457154
-0.04210805 0.06520113 -0.068603694 -0.15004648 0.05863769 0.04874962 -0.027088515 -0.06966694
-0.14430359 0.123343304 -0.089146875 -0.20187187 0.1346955 -0.10747 0.12844847 0.018224632
-0.1312444 -0.19020875 0.10504071 0.0020837267 0.21395342 -0.017792102 -0.05390775 0.1832026
0.16689101 -0.1849927 -0.0830348 -0.025166504 0.07024317 0.054594252 -0.16390866 -0.12759556
-0.31049973 0.13619229 0.105848745 -0.2516095 0.17953892 -0.16899443 -0.1669428 -0.025812399
0.13850707 0.15406145 -0.10414411 0.023448614 0.31702211 -0.0074708285 -0.22056787 0.35117912
0.08451965 -0.05801568 -0.09387686 -0.18062666 -0.1611217 -0.019305281 -0.067535065 -0.015615201
0.08140813 -0.20223597 -0.25421113 0.035630934 0.058346275 0.08228325 -0.1554038 0.15998055
-0.06875011 0.01364214 -0.108162336 -0.11137339 0.14689794 -0.19193651 0.10242521 -0.008614596
-0.23353733 0.09428463 -0.09365828 -0.046204694 -0.13473603 -0.016304124 -0.13267282 -0.030975217
-0.15212588 -0.17763664 -0.4225794 0.1107516 0.011499456 -0.062170576 0.027310537 0.18469343
-0.012390323 -0.052417953 -0.107165635 0.06453326 0.09598891 0.009408474 -0.29381385 0.23175061
0.0075853644 0.03644924 -0.12516567 -0.2231881 -0.06734321 -0.051780164 0.22001435 -0.22118948
0.034925446 -0.008104491 -0.113560356 -0.0014325253 0.03753336 0.067899205 0.11202167 -0.23850733
-0.102719024 -0.14625734 0.10338018 -0.11711044 0.32472447 0.42395547 -0.0598053 0.01618948
0.14708848 0.120691076 0.015521226 -0.10667588 -0.27222836 0.14094056 0.11070202 0.1424848
0.40922728 -0.32955256 -0.28678608 0.31713143 -0.17141637 0.09414396 -0.13389608 -0.13837427
-0.007752717 -0.08404779 -0.037618283 0.050433446 0.11579484 0.0140317865 -0.23144948 -0.08774663
0.26460588 -0.12551357 -0.22911139 0.004510261 -0.24790834 0.023205834 0.0759507 -0.23344298
-0.10531035 0.09223286 0.0990825 0.046483815 -0.17596123 -0.057449173 -0.06972207 0.0071597877
-0.1273631 0.33351183 0.2628848 -0.09730772 -0.110569224 -0.0010212695 -0.21578763 0.013157416

lstm.weight_hh_l0 f4 [128, 32]
00000000: a80c 803d bf0d 653e 123f 3d3e ef7e 593e
00000010: 1b79 343e 917b d2bd 5470 95be ca6e 31be
00000020: ac31 93be fab8 b4bd 004b b0bd 55e0 0abe
00000030: ffd1 963e d43f 9a3d 00b1 bfbd 4fd5 edbb
00000040: 61a9 f6bd c3b4 d73d 1728 47be b668 c3bd
00000050: 4144 4abe 71df 143e e5ba 523e 3a56 40bd
00000060: e24a 65be 367b dcbd 0a74 2fbb 863f af3e
00000070: caf0 56bd d8b9 df3c 9a1c 9e3d 566c 43be
00000080: 65b7 083e 9630 54be aae8 f7bc 36c1 45bd
00000090: b45b aebc be04 51be 7c6d db3d 9894 1a3e
000000a0: c585 c3bc a726 383e d385 613e 8fda 423c
000000b0: 2998 7b3e 4d81 913d 593c fa3d b938 60be
000000c0: 10ff db3b a616 583e 63d0 a83c 6a07 25be
000000d0: feed 913d 177e e03d 49bc a33d 720e f1bc
000000e0: f136 8bbd d7e2 fdbb e736 cb3d b1f7 48be
000000f0: e05a 273e 32ae 873d b70a 7d3e 8fb5 edbd
00000100: a574 27bd 27a2 c3bd 204c 23be 1f21 833e
00000110: 5765 bcbc 6fe2 9abd a35e 823e 1fba 5b3e
00000120: 7df2 78be b7a3 9c3d 9015 373e e974 e6bd
00000130: e1c3 b3bd d2b6 b3bd 54ad d9bb 0851 9bbd
00000140: ca53 75bd f282 093e 2647 69bd 0aa4 b5bd
00000150: d6d3 a83d 0a32 47bd 8372 303e 57f5 013e
00000160: 1b10 42bc 0277 bbbd 59e7 10bc 9655 d13c
00000170: dc1e 2cbd 305b ad3d c2c7 c23d 13c4 a0bd
00000180: 54af 573e 2d15 013d a59d 37be 0dbf 3c3d
00000190: 74f0 063e 13ee 30bd 24a5 62be 7b3d 713e
000001a0: 8163 67bd 31b4 39be 9bee 183e 6f4b 7a3d
000001b0: 2720 36be fdaa 7ebe c100 d3bd 421d 383e
000001c0: 1caa f0bb bfa4 123d e098 f23c 27e4 d4bb
000001d0: 3c43 e33d b4e6 4abe 8df1 3cbc 5d6c 143e
000001e0: 1e81 873d 9cd1 3bbe 73ce b3bd 04fb fd3d
000001f0: 5706 00be 7607 973d d32b 5b3e 76f3 f5bd
00000200: 9445 a4bc 5768 713d 578e 0fbe 7cd7 e03c
00000210: 93d7 68bc 10af 653e cdca f7bd 279d c53d
00000220: 578a aebe 7c1c a8be ea98 44bd c575 863d
00000230: 387b 793d 6066 9d3d 600a 46be c968 253d
00000240: 6502 57be e771 cdbc 0f79 083e 6202 ce3d
00000250: d8db 80be 7b4f 9d3d c7b1 0dbe bdbf f6bd
00000260: 953a 5e3e c1b0 cabb 8082 b5bd 774a 133e
00000270: d4d9 fdbd 045b 48be c547 aabc b176 83bd
00000280: 5005 87bc 858f 84bd f0e7 9cbe 83ef 323e
00000290: d947 86be ebd8 8d3d 9d57 343e 4544 d0bb
000002a0: c650 dfbc c162 b73d f890 473d ca7b f53d
000002b0: 4536 07be 067d 8a3d 0bbb 0dbd 0465 8d3c
000002c0: 83c0 c23d 4c6a 7c3d 855a 9dbd 4876 16bd
000002d0: 3bd0 143e a584 803d 990a 873c 19be 003e
000002e0: d44a 5f3e 7939 a33d 7e0e b63e b579 ffbd
000002f0: 4e64 d6bd 0085 3ebc c47e 953d 56ca bcbc
00000300: d758 c4bd 9771 32be a7ca 3abe c69e 853e
00000310: 05ab 81be 26ee 4f3d d1f6 c03d 8966 8f3d
00000320: fa76 d93c c4a9 1cbe e21a 50bd 4b51 c73d
00000330: 379b e8bd ac92 64be b452 dfbd 37a2 34bc
00000340: 77ea 6abe 84d7 8bbd 2fc7 af3d 79ea 823e
00000350: 1429 053e 8cd3 5bbd 6a63 543d 8e42 2fbe
00000360: 4446 943e 03eb e53c 8105 bf3e 5115 32be
00000370: 8630 93be 9422 c0bd a77b 6a3d 634a 943e
00000380: 1912 983d a879 2e3c 939b 29be a146 463e
00000390: ab68 36be 0d97 03be 5f59 71bd a4a2 793d
000003a0: 8796 993d 1802 b53d faac f23d 316c 253e
000003b0: 0a9e f4bc 2b32 553e 61dd cfbd 536c 6f3d
000003c0: a446 ca3d 0d72 0fbd 53e0 a93d e357 913d
000003d0: d167 553d 20d6 adbd b509 05be dbab b73d
000003e0: 7fab 3f3e 2908 4cbe ae8c 133e 16dc 913d
000003f0: d5e8 cc3c 6c88 68bc 6be9 15bd 1c09 1a3e
0.06252414 0.22368525 0.1848109 0.21239828 0.17624323 -0.10277475 -0.29187262 -0.17327419
-0.28748834 -0.08824344 -0.08608055 -0.13562138 0.2945709 0.075317055 -0.09359932 -0.0072580944
-0.12044025 0.105325244 -0.19448887 -0.095414564 -0.197526 0.14538361 0.20579107 -0.046957232
-0.22391847 -0.10765688 -0.0026772046 0.34228152 -0.052475728 0.027310297 0.07720299 -0.19084296
0.1335121 -0.20721659 -0.03026231 -0.048279963 -0.021283962 -0.20411965 0.10714242 0.15095747
-0.023867497 0.17983495 0.22023706 0.011892929 0.24569763 0.0710474 0.12218542 -0.21896638
0.0067137554 0.2110239 0.020607179 -0.1611611 0.071254715 0.1096155 0.07994897 -0.029425833
-0.067975886 -0.0077479887 0.09922581 -0.19625737 0.1634326 0.06625022 0.24711119 -0.11606895
-0.040882725 -0.095524125 -0.15947008 0.25611207 -0.022997541 -0.0756272 0.25462827 0.21457718
-0.24311252 0.07648414 0.17879319 -0.112527676 -0.08777595 -0.087751046 -0.006642977 -0.07583815
-0.05989436 0.13428858 -0.056952618 -0.088691786 0.082435295 -0.048631705 0.17231183 0.12691246
-0.01184466 -0.09153558 -0.00884422 0.025553506 -0.042021617 0.08464658 0.09510757 -0.07849898
0.21062976 0.031514335 -0.1793123 0.046080638 0.13177663 -0.043195795 -0.22133309 0.23558609
-0.05649138 -0.18135144 0.14934771 0.061107095 -0.17785703 -0.24869914 -0.10302878 0.17979911
-0.0073444974 0.035801645 0.029613912 -0.0064969244 0.11096808 -0.19814569 -0.0115322 0.14494462
0.06616424 -0.18341678 -0.087796114 0.12401393 -0.12502418 0.0737447 0.21403436 -0.12009327
-0.020052709 0.058937397 -0.14019142 0.027446501 -0.014211553 0.22430062 -0.12099228 0.09649115
-0.3408992 -0.32834232 -0.047997393 0.065654315 0.060908526 0.07685542 -0.19339895 0.040383134
-0.20997007 -0.025078727 0.1332743 0.10059048 -0.25167727 0.07681175 -0.13837348 -0.1204829
0.21702035 -0.0061856215 -0.088627815 0.14383875 -0.12395063 -0.1956597 -0.020786176 -0.06419123
-0.016482025 -0.06472687 -0.30645704 0.17474179 -0.2622669 0.069261394 0.17611547 -0.0063557946
-0.027260195 0.08954383 0.048722237 0.119865015 -0.13204296 0.067621276 -0.034602206 0.017260082
0.09509375 0.06162481 -0.07683281 -0.036733896 0.14532559 0.062753 0.016484546 0.12572517
0.21805888 0.079699464 0.35557932 -0.12474386 -0.1046835 -0.011628389 0.07299569 -0.0230457
-0.09587257 -0.17426144 -0.18241368 0.26097697 -0.2532579 0.050764225 0.094220765 0.07001979
0.02654599 -0.15299135 -0.050806887 0.09732302 -0.1135773 -0.22321576 -0.10904446 -0.011025003
-0.22941004 -0.06828216 0.08582913 0.25569513 0.13003951 -0.053668544 0.05185262 -0.17115232
0.28959858 0.028066164 0.37308887 -0.17390944 -0.28747958 -0.09381595 0.05724683 0.28963003
0.07425327 0.010649122 -0.16563253 0.1936288 -0.17813365 -0.1285059 -0.05892312 0.06094612
0.07499414 0.0883829 0.11849399 0.16154553 -0.029860515 0.20819919 -0.101496466 0.058452915
0.09876755 -0.035020877 0.082947396 0.07096841 0.05210096 -0.08488107 -0.12991984 0.08968326
0.18717764 -0.19924988 0.14409134 0.07122056 0.025013367 -0.014192682 -0.036599558 0.15042537

lstm.bias_ih_l0 f4 [128]
00000000: 85ae 1b3e 6f5f 9ebd ccb5 213d d39d a4bd
00000010: 6d1b 1abe ed37 933d 1195 96be 0680 eb3c
00000020: 5101 8abe ac4a 853c e9c3 cd3d 45a5 79be
00000030: 0f43 46be 0684 6bbe a018 c2bd 66df c2be
00000040: c9ce 8ebc d8a3 eb3d 4bb3 f7bd df6a d7bd
00000050: 8d66 2fbe ea41 e2bd 1681 dbbd 157a e5bd
00000060: 4023 173e 9f80 14be 81cd ffbd 9871 c1bd
00000070: a3de e53d 8acc 473e 31c2 54bd 909e 6e3e
00000080: 3ba9 ee3d d3a6 e5bd c444 a53b 5c40 e93d
00000090: b6f5 6bbd 9cfc 46be 9f6b e7bd 9ece 51be
000000a0: 8919 83bd 6601 05be f811 243e 0afd 98be
000000b0: 63fa 16be a0e3 ef3c 2d7e 94be 2920 0fbd
000000c0: 819b 1cbe ff09 223e 98dc 37be e3f4 4ebe
000000d0: f311 523d dace 9fbd 6532 6fbe 9c8e 38be
000000e0: 01f6 7d3d a8bc fbbc 61f0 c7be f687 513b
000000f0: 2f1a 213e 6214 03be d45b 22bd 52f8 2c3e
00000100: 2137 9c3d df0c efbd e106 113e 0408 fabd
00000110: e932 d73d ce2d 42bd 4a40 263d 32ce af3d
00000120: 8a6e 4b3c 9987 ef3d 0875 d83c deba 77bd
00000130: 8001 ee3d f89c 14bd 286b b8bd e7ea 60bd
00000140: 2a59 c03b 66d6 0c3c 3dba 44be 845a 52bc
00000150: 070a 2ebd 09c8 cebc f5cc f2bd 001c c73d
00000160: 20c4 2ebc 65ed 4f3d 2d31 7b3c 09a0 363d
00000170: fbdb bf3d 09d6 8bbd 60dd 07be 6629 5cbe
00000180: b142 f13d 4389 013e 3ea2 29bc 91f8 37be
00000190: 59ca af3d 5281 86bd 8448 adbe dc58 f53d
000001a0: 4e2a 423d 0256 6f3d 13d1 2dbe 6157 05be
000001b0: 7869 38bd 9145 0dbe 9292 18be 072f 7abe
000001c0: 21fc debd b435 3fbe c473 d6bd d468 2bbd
000001d0: b287 bd3d 6cd1 6bbc b58c 5bbe 88e0 a0be
000001e0: 391f 133e aa0d 4c3c ebc5 0fbe 66c0 18be
000001f0: 16a7 18be e45c 48be afb7 f43c f3d5 a6bc
0.15203293 -0.07733046 0.039480016 -0.08037915 -0.15049525 0.07188401 -0.29410604 0.02874757
-0.2695413 0.016270958 0.100471325 -0.24379452 -0.19361518 -0.22999582 -0.09477353 -0.38061064
-0.017432587 0.1150586 -0.12094744 -0.10518431 -0.17128964 -0.11047728 -0.107179806 -0.11204926
0.1475954 -0.1450219 -0.12490369 -0.094454944 0.11224105 0.19511619 -0.051943008 0.23302674
0.11653372 -0.1121346 0.005043598 0.11389229 -0.057607375 -0.194323 -0.11299824 -0.20488974
-0.06401355 -0.12988815 0.1602248 -0.29880553 -0.14743952 0.029283345 -0.29002514 -0.03494278
-0.15293695 0.15824126 -0.17955244 -0.20210604 0.05128665 -0.07803126 -0.23359068 -0.18023151
0.062002186 -0.030729607 -0.39050582 0.0031971908 0.15732644 -0.12800744 -0.039638355 0.16891602
0.076277025 -0.11672377 0.1416278 -0.1220856 0.10507757 -0.047406964 0.040588655 0.085842505
0.012416491 0.11695785 0.026422992 -0.060480945 0.1162138 -0.03628251 -0.090048134 -0.05491152
0.005870004 0.008596038 -0.1921167 -0.012838963 -0.04249003 -0.025241869 -0.11855499 0.097221375
-0.010666877 0.050763506 0.015331549 0.044586215 0.0936813 -0.06827933 -0.13268042 -0.21500167
0.117802985 0.12650017 -0.010353623 -0.17965914 0.08583517 -0.06567635 -0.33844388 0.11979839
0.047403626 0.058431633 -0.16974287 -0.13021614 -0.045022458 -0.13796069 -0.14899662 -0.24432002
-0.108879335 -0.1867283 -0.10471299 -0.04184802 0.092543975 -0.014393192 -0.21440394 -0.31421304
0.14367379 0.01245443 -0.14040343 -0.14917144 -0.14907488 -0.19566685 0.029872743 -0.02036569

lstm.bias_hh_l0 f4 [128]
00000000: 1e56 7d3c 2611 3e3d ac38 8c3c 8c09 853c
00000010: 8d3e a13d 0af0 48be 7551 46be 9f66 0b3e
00000020: 6c07 eebd a824 95bd 494b bd3d 6bc5 75bd
00000030: 8374 b9bd 8aff 0e3d 87b9 9cbd 9239 c8be
00000040: 511a a4bc 44fc b0bd f92c 8dbd 19bc 38be
00000050: f089 b03d 83b6 a3be c324 4bbc 1db7 f7bd
00000060: 8073 22be 5b40 13bd 04e9 bcbb 502a 233d
00000070: 9ad8 203e 8834 373e 56f3 013e 130f 7f3e
00000080: 7d1c 293e f94b e9bd bad5 04be 7c88 26be
00000090: 5af2 debd 4494 973b 69b4 8ebd 65b7 09bd
000000a0: e648 0d3d 3a13 143e a034 e63d 2e14 22be
000000b0: 3522 96bd 31b3 50be 9306 95bd 597c 91be
000000c0: 442e 3dbe 9390 4f3e 099c cf3d 7369 5cbe
000000d0: b290 c33d bf73 c3bc 5d99 a9be ec97 b8be
000000e0: 8030 3b3d d56f 093e 494f b3be ae60 52be
000000f0: 9781 1e3e 98a6 d63d e4d4 fdbd 8428 443e
00000100: fa86 2dbd e923 01be 5d42 133e 6abf ec3d
00000110: eda2 1fbd 914b 03be 8732 0d3e 7b5b a3bb
00000120: 1836 df3d c9d6 24be fe2e 36bd 3161 2a3e
00000130: ea4f cfbc c03a f2bc 22e8 e5bd 5b2f c13b
00000140: 5ee3 bc3b c03c 0abe d95c 41bc ea80 c93d
00000150: f7f9 a2bd c3dd a73d 191b e43d 0899 093d
00000160: 898e 13be b7b7 173e 99e8 33be 7da6 5ebd
00000170: 01c2 d63d a05d 24be 6363 13bc 924f de3a
00000180: 4da8 873d 7982 bb3d ecc6 07be 840e 90bd
00000190: d967 ae3d 01c1 febd d0d8 90be 10e4 f0bd
000001a0: 0847 29bd 7c94 ebbd 2ac4 40bd 3b7b 67bc
000001b0: 4886 66be d623 dabd ec91 9fbe 61ff 4ebe
000001c0: 95d2 e8bd 4716 23bd b6ef 8cbd caec 10be
000001d0: c688 fd3b 61a7 63bc 8f4a 3dbe c9f0 68bd
000001e0: 96f4 8ebd c280 a03d cc50 283d b7cd b23c
000001f0: 22bf 40be 7267 8dbd 5709 57be 76a3 25be
0.0154624265 0.046403073 0.017116867 0.016239904 0.07873259 -0.19622818 -0.19367011 0.13613366
-0.11622509 -0.07282382 0.09242875 -0.060002726 -0.09055426 0.03491167 -0.07652574 -0.39106423
-0.02003208 -0.08641866 -0.068933435 -0.18040504 0.086200595 -0.31975183 -0.012398901 -0.12095473
-0.15864372 -0.035950046 -0.0057650823 0.039835274 0.15707627 0.17891133 0.12690482 0.24908094
0.16514774 -0.11391444 -0.12972155 -0.16263002 -0.10886069 0.004625829 -0.06968004 -0.033622164
0.03449335 0.1446046 0.11240506 -0.1582801 -0.07330743 -0.20380856 -0.072766446 -0.28415182
-0.1847468 0.20269994 0.10137183 -0.215246 0.09549083 -0.023858903 -0.3312482 -0.36053407
0.04570055 0.13421567 -0.35021427 -0.20544693 0.15479122 0.10480994 -0.12394121 0.1915608
-0.04236505 -0.12611355 0.14380784 0.11559947 -0.038973738 -0.12821795 0.13788806 -0.0049852706
0.108989894 -0.16097559 -0.04447841 0.16638638 -0.02530666 -0.02956903 -0.112259164 0.005895538
0.005764409 -0.13499737 -0.011801922 0.098390415 -0.07957833 0.081965946 0.11137981 0.033593208
-0.14409842 0.14816175 -0.17569198 -0.054357994 0.10486222 -0.1605134 -0.008995864 0.001696097
0.06623898 0.09155745 -0.13259476 -0.07034019 0.08515901 -0.12439156 -0.28290415 -0.117622495
-0.041327506 -0.115029305 -0.047062077 -0.0141285015 -0.22512162 -0.106513664 -0.31166017 -0.20214607
-0.1136829 -0.039816167 -0.06881659 -0.14152828 0.007737252 -0.013894887 -0.18485473 -0.056870256
-0.06980245 0.078370586 0.04109268 0.021826608 -0.18822911 -0.06904496 -0.20999657 -0.16175637

hidden2out.weight f4 [3, 32]
00000000: e9ad 0ebd 665a 3d3e ff9b acbd e213 71bd
00000010: cff9 9bba 7df8 73bd d2ce babc e192 2ebe
00000020: 2ac4 3d3d e781 0d3e 39c5 223e a96b 1bbe
00000030: 8ef1 9f3d 519b bbbd d1b1 743d 73a0 6dbd
00000040: 5d7f 51bc 414a a4bd cb92 f83d e4b7 80bc
00000050: 6acc fb3d 246c 0b3e 5bdd f2bd ab90 923c
00000060: bf4a 143e 5b19 21be ff4e eebc ac86 d33d
00000070: 1349 a1bd 076c 3b3e 81a3 01be 86f6 ebbc
00000080: 5079 01be f94e 1e3d 056c a2bd b33a e2bd
00000090: db3f 163e 4009 d2bc a122 a9bb 93ca e5bc
000000a0: 6356 713d aaa6 143d bb7a 063e f458 96bd
000000b0: b2ec cabd baba 12be 9b8d fabb 81ec c53d
000000c0: c863 3cbd fd30 a83d 9eef 023e 92b9 393c
000000d0: f549 00bd 019b 07bb 4952 b33c 1c22 cf3c
000000e0: f75d e3bd 37aa 873c 374e 20be 5c46 383e
000000f0: 6742 fd3d 79ad db3c 3ccf f8bd ff89 eabd
00000100: 4193 873d 7e3c 873d ce52 c73d 5a74 a8bb
00000110: cb43 083e 47ed 73bd 0c64 a4bc 9d7a f7bd
00000120: bcef 3ebb 164b f9bd a9d7 723d 0b6f 3c3e
00000130: ae69 e33d 9258 46bd 6a0f a4b9 21c4 af3d
00000140: e45d 833d c545 bdbd 4d08 e9bd cafe 883d
00000150: 7da0 9bbd a414 f6bc 0573 9b3e 99db cabd
00000160: 2fe8 8ebd 2da8 02bc d4f8 d13d 9491 acbd
00000170: 449c 003e 8679 f9bd 341f f43d a94a 36be
-0.034833822 0.18491516 -0.084281914 -0.058856852 -0.001190001 -0.05956315 -0.022803698 -0.17048217
0.046329655 0.13819085 0.15895547 -0.15177788 0.07809745 -0.09160484 0.05973989 -0.058014344
-0.012786713 -0.08021975 0.121373735 -0.015712686 0.12294848 0.13615471 -0.118586265 0.017891249
0.14481638 -0.15732329 -0.029090403 0.10328421 -0.07875266 0.18302928 -0.12660028 -0.028804075
-0.12643933 0.038649533 -0.07930759 -0.11046352 0.14672796 -0.025639176 -0.005161599 -0.028050696
0.058920275 0.036291756 0.13132755 -0.07341185 -0.09908427 -0.14329043 -0.007646275 0.0966425
-0.045993596 0.08212469 0.12786719 0.011335747 -0.03132053 -0.0020691755 0.021889823 0.02528482
-0.11101907 0.016560657 -0.15654837 0.1799559 0.12366181 0.026816117 -0.12148902 -0.11452102
0.06619883 0.06603335 0.097325906 -0.0051408233 0.13307111 -0.059552457 -0.020067237 -0.120839335
-0.0029134592 -0.12172525 0.0592877 0.18401735 0.11104141 -0.04842431 -0.00031292002 0.085823305
0.064143926 -0.09241823 -0.113785364 0.06689222 -0.0759897 -0.03003914 0.3036119 -0.09905166
-0.06977879 -0.007974667 0.10252538 -0.08426204 0.1255961 -0.12181382 0.11920014 -0.17801918

hidden2out.bias f4 [3]
00000000: cac4 093d f708 cabd 7429 fbbd
0.03363494 -0.09864991 -0.12263766

std_layer.weight f4 [3, 32]
00000000: 7f0b 323e e284 963d 250d 18be e1e4 1ebe
00000010: 609d 1abc 42df e83d 3e54 c93d 20fe fe3b
00000020: 98df bb3c a7ea 05be d6c1 dc3d 8074 9bbc
00000030: 7dc5 11be cc33 05be 3829 15bd 2c0a e4bd
00000040: 7264 69bd e9a0 303e 4008 f93b f27e c4bd
00000050: 8f20 0d3e 8d06 283e e0b7 8c3c 803b 91bb
00000060: 80a6 ab3c a8f0 11bd f06c 063d a0a3 613d
00000070: bba1 083e 8263 aa3d 3845 0e3d d018 5abc
00000080: 533d 0a3e 8ce0 923d d07c 653d 8af6 f73d
00000090: bc7f 153d a455 4abd 34eb 383d deec b3bd
000000a0: e6ec dd3d daea 66bd 0c19 253d e8f2 4a3d
000000b0: a688 07be ef22 17be 46d4 f83d 81b2 32be
000000c0: e871 7dbd 1abc ce3d f0f7 333d 1970 2d3e
000000d0: 5296 31be b099 7b3d 796c 89bd 361a 973d
000000e0: 7d8b 043e 6233 f53d f173 33be 5722 80bd
000000f0: ee73 fd3d a27f 873d 8426 13be aa9f de3d
00000100: eeb0 fb3d 48bb afbd 3c10 58bd a369 02be
00000110: 420a 09be 0149 a7bd ac5d 29bd c079 8b3b
00000120: c60b dc3d 2746 223e 1079 9e3c 7eb3 d63d
00000130: 42d0 d73d 40b5 0d3d bb6f abbd 426f 913d
00000140: 08de e13c 8aa7 0fbe f6ce 63bd acec 8dbd
00000150: 28a5 7d3d f589 a7bd 2ae1 973d 10ac 20bc
00000160: 605e f7bc 78b6 8b3d 122b dd3d 8cbf 5e3d
00000170: c068 f73c e0bd 31bc 044e 01bd 32e0 b03d
0.17387198 0.07349564 -0.14848764 -0.15516998 -0.009436935 0.11370708 0.09830521 0.007781759
0.022933766 -0.13077794 0.10779159 -0.01897645 -0.14235492 -0.1300804 -0.036416262 -0.11134753
-0.056980558 0.17248882 0.0075998604 -0.095945254 0.13781951 0.16408749 0.017177522 -0.004432142
0.020953417 -0.0356299 0.032818735 0.055087686 0.13342945 0.08319761 0.03473398 -0.01331158
0.13499956 0.07171735 0.056027234 0.121075705 0.03649877 -0.04939808 0.045146182 -0.08785413
0.108362004 -0.056376316 0.04030709 0.04954806 -0.13235721 -0.1475942 0.12149863 -0.17450906
-0.061876208 0.10094471 0.043937624 0.16937293 -0.17342499 0.061425865 -0.06710143 0.07378046
0.12943836 0.11972691 -0.17524697 -0.0625655 0.123756275 0.06616141 -0.14370161 0.10870297
0.12289606 -0.08580643 -0.052749857 -0.1273561 -0.1338282 -0.08168221 -0.041349098 0.004256457
0.10744433 0.15847073 0.019344836 0.10483454 0.10537769 0.03459668 -0.0837092 0.07101299
0.027571693 -0.14028755 -0.055617295 -0.06929907 0.061925083 -0.0818061 0.074159935 -0.009806648
-0.030196369 0.068219125 0.10799231 0.054381892 0.030201316 -0.010848492 -0.031568542 0.08636512

std_layer.bias f4 [3]
00000000: 44db 13bd 0936 093e 92a3 e43d
-0.03609778 0.13399519 0.11164011

exp_avg f4 [128, 12]
00000000: 501f 78b8 83e2 0939 1c55 8839 5a91 28ba
00000010: 7edb 35ba 0f61 d03a 474e ed39 eec1 863a
00000020: 511c 1f3a fc61 ce3a a6e2 4d3b 9208 fb3a
00000030: adef b238 d7e4 a9b7 d83c d7b9 6226 3d3a
00000040: 70cd 5c3a b113 dcba f85d b039 3840 5ab9
00000050: b8c7 12ba b8df 56ba 972f 1eba 9e4c 17bb
00000060: b0ac 83b9 14dd 4eba e0dc 8ab9 3124 3639
00000070: 050e 3cba 499b 61bb d359 ffb9 8a48 7538
00000080: ffb9 feb9 431f 0cbb 7a56 2abb 55ae 84bb
00000090: 5898 723a d8dc 083a 041d bfb8 bf57 8c3a
000000a0: 3804 e53a 94c4 273b 421c f4b9 6376 81ba
000000b0: 5558 b338 49f3 1e3b 520d 8f39 143a 963a
000000c0: 255c 8539 13b9 6e39 0511 69b8 b35f 6439
000000d0: 206f c939 fadc 913a b3ba 8538 c19c 34b9
000000e0: 7422 c638 9b20 1d3a 2bcd 113a be35 0e39
000000f0: 06cb a138 65b4 1c39 1b25 f135 d3ad 4cb8
00000100: f41f e238 a8c4 0c3a 233e cfb7 84c6 42b9
00000110: 0bee 9538 8bc6 75b8 18a7 bc38 5be3 393a
00000120: 3885 b335 f2a5 9a36 5e00 e336 0f1e 8eb7
00000130: 75b5 07b7 a5f9 4838 557d b9b6 5e62 16b7
00000140: 3e39 0db3 b3b6 71b7 e14b 74b7 d88b cc37
00000150: 0d7a 8939 976b 6f39 0767 d3b9 cadd 783a
00000160: b195 983a 54af a3ba 1bfd 48b9 7619 07ba
00000170: b50b df39 a1c5 9c39 0e62 07ba 963f 0d3b
00000180: af53 0539 7de4 e438 cd2a 03b9 97bc b539
00000190: 2a8b b039 0e42 23b8 fc66 d1b8 5826 45b9
000001a0: bcf0 aab8 c884 f538 0b8b 19b9 4477 f737
000001b0: aa9a 6938 59ef 8c39 48c2 0839 19d6 1eba
000001c0: 3579 30b8 2454 d43a 4e55 84b9 c9e2 15ba
000001d0: 013c 3fb9 c2fa a5ba 5f0b 87ba 48e2 bb39
000001e0: e3b6 c339 0fba 283a 3f8d 1cb9 61f5 2b3a
000001f0: 0396 503a 3b6a cd3a b5d9 bcb9 4aa4 81ba
00000200: ae61 013a 95cc 923a 4504 8b3a 64ce 543b
00000210: 7003 4aba f9b0 4bba a559 2fb9 4516 a8b9
00000220: 45c6 b7ba 70e4 82bb d6df 01ba 583e 81b9
00000230: 4b41 31ba 5ca1 82bb 9c51 75bb 90f6 a7bb
00000240: 9b7e 2838 28e2 fdb8 1dd3 9bb9 62bb 393a
00000250: 7c88 f639 c105 06bb a2ac 8339 b89d 073a
00000260: 9abb eb39 5b3b d23a 088c 943a ad37 bd3a
00000270: a114 96ba 9a09 b1ba 9d64 35b9 8624 d5b7
00000280: 258f e7ba 11e6 d4bb 443c d7b9 c00e 813a
00000290: 2b55 06ba 5855 4bbb 585f 58bb 2947 7fbb
000002a0: da03 32b7 6ff1 77b7 778f f3b6 f403 3538
000002b0: 3f1b 1bb7 d2cc feb8 a20c 39b7 fa6b f737
000002c0: 9abf 9737 e2a8 fe38 ab8b 0a39 ec64 2937
000002d0: d4f8 7239 479f 6839 5c65 5a38 eb6e 0139
000002e0: c1f5 ea39 8538 9f3a 5cf9 c638 b4cf 0039
000002f0: 95c6 9439 f4d0 e03a ac83 e13a 70b0 b23a
00000300: ae7a d1b7 05da ceb7 cf03 b6b7 0afa 4538
00000310: 7c1f 9eb6 bc48 75b9 7ff6 94b7 829b c337
00000320: 1fbb c3b6 1d98 d5b7 03a0 6134 c18e e5b8
00000330: 1ace a338 827b d238 007e 5ab9 4a0f a839
00000340: a266 b039 d7e9 12ba b34b 0239 8714 bbb7
00000350: 5884 1eb9 ac77 adb9 e948 95b8 eb12 d9b9
00000360: d99d c9ba 4e63 eeba 4c71 a8b9 7939 44ba
00000370: 28ba 48bb 320a 0fbc dee3 c1ba f503 2239
00000380: 1383 9bba f544 febb da07 04bc c70f febb
00000390: 6fa1 af34 55c0 4835 7d2b 3fb5 854c f4b5
000003a0: 2f3a 44b6 6c7c 9135 f5ee 88b5 dbe8 5d36
000003b0: 702e 2db6 974c 9cb6 f6cc 2136 667b b2b5
000003c0: 6184 22b7 7e06 ecb7 f5d9 5037 0c08 a7b5
000003d0: cf69 0db9 cb39 c8b7 8d82 8d36 aa56 1e39
000003e0: 480b 5039 6cda be38 6067 c239 725c 9039
000003f0: 41fd 21b9 75b9 ddb8 1651 6eb8 0f79 c539
-5.915697e-05 0.0001314972 0.00026003353 -0.00064303505 -0.0006937309 0.0015898066 0.00045262484 0.0010281184
0.0006069588 0.0015745754 0.003141561 0.0019152334 8.5323445e-05 -2.0252932e-05 -0.00041053328 0.00072154973
0.00084229466 -0.0016790536 0.00033639348 -0.00020814023 -0.00055992184 -0.0008196789 -0.0006034313 -0.002308644
-0.0002511493 -0.00078912196 -0.00026485976 0.00017370355 -0.000717372 -0.0034424833 -0.00048704314 5.848011e-05
-0.00048585233 -0.0021380938 -0.0025991485 -0.0040491023 0.00092542684 0.00052208966 -9.112994e-05 0.0010707303
0.0017472571 0.0025599347 -0.0004656036 -0.0009877201 8.551838e-05 0.0024253896 0.0002728501 0.00114614
0.0002543639 0.00022766394 -5.556738e-05 0.00021779425 0.00038420502 0.0011128478 6.37671e-05 -0.00017224533
9.447793e-05 0.00059939333 0.00055618834 0.00013562196 7.714894e-05 0.00014944522 1.7966698e-06 -4.8799277e-05
0.000107824715 0.000536988 -2.4705258e-05 -0.00018575235 7.1492126e-05 -5.859746e-05 8.995662e-05 0.00070910685
1.3375311e-06 4.608876e-06 6.76517e-06 -1.6941716e-05 -8.088876e-06 4.7916215e-05 -5.52802e-06 -8.9636e-06
-3.2881182e-08 -1.4407257e-05 -1.45612e-05 2.4383815e-05 0.0002622161 0.00022832897 -0.00040321818 0.00094934984
0.0011641291 -0.0012488165 -0.00019167775 -0.0005153635 0.00042542597 0.00029901884 -0.00051644526 0.0021552793
0.00012715043 0.000109144465 -0.00012509078 0.0003466352 0.0003367302 -3.8923747e-05 -9.985079e-05 -0.00018801668
-8.151072e-05 0.00011707243 -0.00014643015 2.9500232e-05 5.569557e-05 0.0002688121 0.00013042346 -0.0006059125
-4.2074553e-05 0.0016199392 -0.0002524056 -0.00057176925 -0.00018237533 -0.0012663233 -0.0010303071 0.00035836012
0.0003732956 0.00064364163 -0.00014929938 0.00065596966 0.0007956924 0.0015671918 -0.0003602036 -0.0009890881
0.0004935515 0.0011199886 0.0010606131 0.0032471651 -0.00077062007 -0.00077702064 -0.00016722696 -0.0003206005
-0.0014020881 -0.003994517 -0.00049543136 -0.00024651247 -0.00067617436 -0.0039865207 -0.0037432676 -0.005125828
4.0172232e-05 -0.00012106105 -0.00029721195 0.0007085112 0.00047022465 -0.0020450207 0.0002511489 0.0005173343
0.00044962467 0.0016039418 0.0011333236 0.0014436148 -0.001145024 -0.001350689 -0.00017298986 -2.5408586e-05
-0.0017666562 -0.0064971526 -0.00041052897 0.0009846315 -0.00051243854 -0.003102621 -0.0033015814 -0.0038952327
-1.06105235e-05 -1.477856e-05 -7.258666e-06 4.3157444e-05 -9.245064e-06 -0.000121498146 -1.1029801e-05 2.9494975e-05
1.8089824e-05 0.00012143121 0.00013212736 1.0096683e-05 0.00023171614 0.0002218458 5.206965e-05 0.00012343719
0.0004481506 0.0012147581 9.4878225e-05 0.00012284407 0.00028376715 0.0017152117 0.0017205379 0.0013632905
-2.4971869e-05 -2.4658637e-05 -2.1697864e-05 4.7201327e-05 -4.712432e-06 -0.00023392116 -1.7757759e-05 2.3318225e-05
-5.8332366e-06 -2.5462412e-05 2.101297e-07 -0.00010946161 7.810835e-05 0.000100365854 -0.00020837039 0.00032054848
0.00033645803 -0.0005604303 0.00012425966 -2.2301696e-05 -0.00015117356 -0.00033086294 -7.118454e-05 -0.0004140356
-0.0015382125 -0.0018187554 -0.0003212787 -0.0007485371 -0.0030628536 -0.008730458 -0.0014792641 0.00015450998
-0.0011864625 -0.007759685 -0.008058513 -0.0077533456 3.2713749e-07 7.4785686e-07 -7.121633e-07 -1.8201687e-06
-2.9240143e-06 1.0839553e-06 -1.0202335e-06 3.3067106e-06 -2.580604e-06 -4.6580785e-06 2.4110172e-06 -1.3297947e-06
-9.686774e-06 -2.8136415e-05 1.2448513e-05 -1.2444812e-06 -0.00013486225 -2.386877e-05 4.2173256e-06 0.00015100339
0.00019840628 9.10059e-05 0.00037079584 0.00027534697 -0.00015448501 -0.00010572645 -5.681914e-05 0.00037664964

exp_avg_sq f4 [128, 12]
00000000: bd55 9034 d2db 1935 29df 4136 41ac 0f37
00000010: f048 0237 ae01 3138 171e 8635 61e6 8936
00000020: bb26 ec35 b7cb af36 9619 0d38 1dfc d237
00000030: 4ef4 4835 fa92 2c36 653a ba35 421e 3f37
00000040: 0fca 8836 af50 d438 97eb db36 1d61 9636
00000050: 5dca 2336 b313 4338 c33c 0239 242f 9238
00000060: cb0c 9736 9962 bb36 9056 6f36 c78f 8537
00000070: 79ef a237 91dc 0839 d9af 4437 3975 ee36
00000080: ef41 7a36 4d6a b638 d778 1a39 ee57 ed38
00000090: 68eb 4f36 60f0 e935 259e 1636 f816 6f37
000000a0: 125e 6837 93cc a138 ae8f 8036 c113 d936
000000b0: 8f45 3336 7936 4738 14a7 b138 6120 1538
000000c0: 3003 0f36 6afc 5e36 d778 d535 0d7c ab36
000000d0: 2c0d ee36 2b2c 5b38 bf50 3b36 93bf 1836
000000e0: b804 f935 00d1 1738 3a2e 8638 ee60 9538
000000f0: 1fa9 7f33 850f e233 6557 fe33 ebce a434
00000100: d3cc 7e34 169b 4736 9d51 2734 34f6 0934
00000110: 7f04 2234 2d1c c135 0549 4a36 c0d7 7936
00000120: 7430 b72c 33a1 842d 7379 872d aeaa cc2e
00000130: d8a7 502e 0765 6730 106a 362d 76d2 292e
00000140: ba93 0c2d 6a27 e12e ed1c a52f abaa 4c2f
00000150: c465 bb35 915c d236 fce5 b036 8ca2 1138
00000160: 1d24 1437 d88f b739 fb15 8c37 e12b 5237
00000170: eaa0 1137 fe3f 1339 9b2a c039 c63e ab39
00000180: c5fc 7e33 a067 5834 67a0 bb33 52c3 8435
00000190: f267 a534 f8c7 b436 e843 ac35 7c69 e434
000001a0: 6ceb 4534 26f4 8936 9fa1 ef36 a4a2 4636
000001b0: 709c 1233 3656 b133 27c5 fd32 7759 9934
000001c0: 22ae f933 ca7c 2136 5114 ac33 a4cd 5f34
000001d0: bae3 0733 cf59 c835 af39 a235 3cee 0b35
000001e0: 5e1f c036 6752 0837 dcc9 8636 34cf 7837
000001f0: 2c65 6337 4b4b 6739 7b30 9b37 6392 ca36
00000200: 438f dd36 5760 2d39 51c1 8d39 08a5 3e39
00000210: a702 dd36 3330 ef36 1f98 a734 af5a 1136
00000220: b6f6 9c37 f8a3 2e39 15b7 d636 70ae fc35
00000230: 0734 f136 70b3 4639 847d 2e39 0bc0 b539
00000240: d4ce ab35 afda 7636 2b78 0236 87e0 6237
00000250: 45ff 3336 8a0c 2e39 1d36 ae36 ff01 3436
00000260: 0a96 3237 b43d fb38 4622 cf38 34c6 9339
00000270: 8398 c336 aa16 c136 fb62 1a36 6328 6b37
00000280: 6e1d 3c37 8ed9 6939 a8c8 7837 d97e 8e36
00000290: 6ecf f636 023b 3f39 d9ef 8439 623e 7d39
000002a0: 3557 7230 d2a1 8a30 507e b130 49eb 2a31
000002b0: 6df4 0b31 511e f132 166e e12f 579e dd30
000002c0: 3826 0431 1426 4f32 36be 8f32 cf9e 9132
000002d0: 0f4c f334 c3fe f634 1015 1733 f52d 0c33
000002e0: 9851 bc35 6f0e 5737 cfbf e934 7ca7 8e32
000002f0: 4d0d 8e34 451d 8d37 bd29 9c37 056a ac36
00000300: ff51 3e32 674e ba32 b0ae 4532 7e2f c133
00000310: e59f c332 59e9 8935 45ba ab33 3355 2b33
00000320: 68e5 2332 26da 1235 49d8 c135 9ecd ac34
00000330: be46 a835 72aa a835 0f50 0137 c598 4137
00000340: 742b 4837 6e1e 2a38 1b17 2835 8bfe f336
00000350: 254a 0d37 689b 4d36 0c32 b337 01da 1e38
00000360: 7cb9 ab37 e4fa 7637 90c9 3137 1196 2338
00000370: 5a9a 5538 36b6 293a 24c6 3838 11e7 8037
00000380: 2306 ba37 4ed1 0a3a ffb1 463a c205 363a
00000390: fed7 982e 3373 e02e ced7 9a2f 8fd1 5e30
000003a0: 2876 6f30 47b3 8031 85f8 e52e ce41 cf2f
000003b0: d1b4 f32e d42f 3730 af6d 4e31 9c22 f130
000003c0: b638 8a34 3265 b634 edc8 bb35 63fb 1d36
000003d0: a05e 2236 2e41 1737 b00c 8634 5528 ac35
000003e0: 6789 a735 db4d 2a35 8f35 7b36 3c78 df36
000003f0: 28bf 7833 11c4 7834 9a4b 2934 0527 a235
2.6884473e-07 5.731682e-07 2.8889137e-06 8.56357e-06 7.765586e-06 4.2201653e-05 9.992535e-07 4.109738e-06
1.7594642e-06 5.239122e-06 3.364085e-05 2.515135e-05 7.4861316e-07 2.571555e-06 1.3875075e-06 1.1391532e-05
4.0766386e-06 0.00010123976 6.554135e-06 4.481654e-06 2.4406684e-06 4.650997e-05 0.00012420402 6.970603e-05
4.50164e-06 5.5845126e-06 3.5664161e-06 1.5921787e-05 1.9423418e-05 0.00013052138 1.1723453e-05 7.1065992e-06
3.7291281e-06 8.698236e-05 0.00014731601 0.00011317419 3.0982428e-06 1.7429811e-06 2.2443794e-06 1.4250858e-05
1.385018e-05 7.715183e-05 3.831424e-06 6.4694036e-06 2.6713567e-06 4.749603e-05 8.4711384e-05 3.5554523e-05
2.1310516e-06 3.3227502e-06 1.5904906e-06 5.1106385e-06 7.094486e-06 5.2254803e-05 2.7912172e-06 2.2761276e-06
1.8553319e-06 3.6195852e-05 6.398228e-05 7.122928e-05 5.952563e-08 1.0526768e-07 1.1843694e-07 3.0697933e-07
2.3730108e-07 2.9743583e-06 1.5582778e-07 1.2848687e-07 1.5089061e-07 1.4387821e-06 3.0142849e-06 3.7229474e-06
5.206552e-12 1.507825e-11 1.5401657e-11 9.307165e-11 4.74428e-11 8.418088e-10 1.0369053e-11 3.8613078e-11
7.9908805e-12 1.0238817e-10 3.0033878e-10 1.8614325e-10 1.3962203e-06 6.269264e-06 5.2719824e-06 3.4722078e-05
8.829896e-06 0.00035011652 1.6699536e-05 1.2527192e-05 8.680139e-06 0.00014042851 0.00036652837 0.00032662431
5.9368876e-08 2.0154266e-07 8.737043e-08 9.891612e-07 3.0809275e-07 5.3876975e-06 1.2834762e-06 4.254506e-07
1.84327e-07 4.111341e-06 7.14157e-06 2.9598968e-06 3.4135553e-08 8.2578865e-08 2.9542731e-08 2.8563565e-07
1.16266406e-07 2.4063506e-06 8.01307e-08 2.0843305e-07 3.1639253e-08 1.4927299e-06 1.2086729e-06 5.212821e-07
5.7256975e-06 8.1254175e-06 4.0170107e-06 1.4830195e-05 1.355381e-05 0.00022057926 1.8500015e-05 6.037111e-06
6.602991e-06 0.00016534455 0.00027037648 0.00018181291 6.586622e-06 7.128366e-06 3.1216857e-07 2.1659469e-06
1.8711533e-05 0.00016655016 6.3990105e-06 1.8826231e-06 7.1884165e-06 0.00018949597 0.00016640691 0.00034666093
1.2800688e-06 3.6784147e-06 1.9441457e-06 1.3522927e-05 2.6821665e-06 0.00016598604 5.1919037e-06 2.6823252e-06
1.06445605e-05 0.00011980106 9.876913e-05 0.00028185698 5.8292076e-06 5.7544867e-06 2.3005402e-06 1.4016495e-05
1.1212525e-05 0.00022301657 1.4828671e-05 4.246697e-06 7.3555193e-06 0.00018237162 0.00025355702 0.000241512
8.8163016e-10 1.0086814e-09 1.2914345e-09 2.4872e-09 2.0366102e-09 2.8069879e-08 4.1005482e-10 1.6124869e-09
1.9230253e-09 1.2057644e-08 1.6733889e-08 1.695244e-08 4.5317617e-07 4.6006434e-07 3.5176583e-08 3.2638088e-08
1.4030838e-06 1.2818359e-05 4.353919e-07 1.6607139e-08 2.645924e-07 1.682214e-05 1.8616085e-05 5.1383417e-06
1.1078099e-08 2.1688903e-08 1.15066285e-08 8.9959016e-08 2.27737e-08 1.0275209e-06 7.99669e-08 3.989153e-08
9.54001e-09 5.4706686e-07 1.4442568e-06 3.2187103e-07 1.2537564e-06 1.2566582e-06 7.707639e-06 1.1539266e-05
1.1931046e-05 4.05595e-05 6.26185e-07 7.271597e-06 8.421518e-06 3.0637839e-06 2.1361768e-05 3.7873167e-05
2.0471161e-05 1.4721158e-05 1.0596952e-05 3.900199e-05 5.092691e-05 0.000647399 4.405355e-05 1.5366388e-05
2.2175785e-05 0.0005295471 0.0007579624 0.0006943607 6.950528e-11 1.0206804e-10 2.8165775e-10 8.106093e-10
8.7115604e-10 3.7456718e-09 1.045786e-10 3.7699838e-10 1.108248e-10 6.664298e-10 3.0039293e-09 1.7544894e-09
2.5745766e-07 3.397377e-07 1.3991063e-06 2.354115e-06 2.419496e-06 9.015477e-06 2.4968676e-07 1.2826737e-06
1.2482459e-06 6.344323e-07 3.743309e-06 6.659915e-06 5.7915855e-08 2.3168128e-07 1.5766855e-07 1.2081297e-06

exp_avg f4 [128, 32]
00000000: 624a 8cb8 785b 7137 2737 c438 9609 cc37
00000010: dbbb 6f37 a8ff 24b7 9147 6135 7dda 03b8
00000020: 68f2 3e37 6810 c037 ec74 0c38 741d ab35
00000030: 8913 7cb6 c61e 19b8 86f3 62b5 b630 51b3
00000040: 2095 8135 b65f d638 e3f1 15b8 c095 ceb4
00000050: 69e1 31b8 afcb 05b8 a16d 8435 0100 dcb7
00000060: dee5 85b7 6902 87b7 7fe7 1636 9540 49b8
00000070: 194e c935 730a 1138 a4ec 8738 d6f2 b9b7
00000080: 03cd d0b7 0952 8bb8 f711 c6b8 22bc bdb6
00000090: 4dd2 09b7 8368 2b37 d837 2cb5 f5ef 7337
000000a0: afc5 5bb7 c856 94b5 71ae 8fb8 1337 bbb6
000000b0: 182b f6b7 5734 69b8 fa24 bbb5 fdfb 73b4
000000c0: 5466 bf36 7310 e6b8 58c6 6638 7b1e 0634
000000d0: 051b 6138 df93 16b7 5af0 a1b6 bf65 8037
000000e0: 291e 7938 3e00 83b7 bd63 38b5 c02f 2eb8
000000f0: e36c 19b8 ad9e 4db8 80e1 9fb8 da5a 4638
00000100: a702 82b6 2c83 8838 af97 68b8 dcf0 9d38
00000110: 3fcf 93b7 c0bb 9537 2c5a 6035 7794 4438
00000120: fbd8 d5b5 7922 5737 5813 7eb8 0bf7 18b8
00000130: a6d7 bbb7 3287 9cb8 8172 6fb5 f6a8 0cb7
00000140: 984f 13b6 7be3 2eb9 9978 9238 f108 1cb5
00000150: e6bd 9037 577b 80b7 8419 4fb7 2b7e 47b7
00000160: 8c99 2838 fccc 1bb8 8ace 0236 2474 6638
00000170: 7699 28b8 83cb d4b8 79f4 1fb8 e3f8 dd38
00000180: e1d3 2738 9910 5338 3364 cbb7 9a66 03b9
00000190: 31e7 06b6 a839 dc36 b809 62b5 70bd b836
000001a0: 0474 82b7 0a7b 91b8 4df6 87b6 5173 9138
000001b0: 710a 3f38 06ad 1d39 6ca4 d036 092b a537
000001c0: 4a52 03b6 2125 a138 13d8 c4b8 bebd a634
000001d0: 68db 0a36 ec0e 6d38 25bd 1e38 3a1c 0c38
000001e0: b8d5 ab37 7096 bd38 94ed 13b4 c10e e837
000001f0: 37b6 8338 5f55 eeb7 b4a1 9db8 9304 9db8
00000200: d287 ddb7 028c 8235 00a3 7737 2547 86b7
00000210: 10ee f6b5 ba94 9634 e79a 71b5 f8de 5bb7
00000220: 8750 52b7 198b 00b8 c981 99b7 9bc0 c437
00000230: bd6a 9637 6a40 2738 2601 8f36 20bd 1637
00000240: b8c3 3b36 cfdf a438 68f1 c5b7 599c ea34
00000250: 4644 ab35 0e35 8a36 2dd1 8b37 29c1 0e38
00000260: 096a ee37 c4c0 9037 19e5 4935 d31b 3eb7
00000270: e8e7 f337 bdf9 d736 f1fc 6837 ca60 97b7
00000280: b020 4ab5 e8b2 efb5 9cdc 6036 9647 80b6
00000290: 92cb 2835 a243 43b6 6c39 d5b4 cdc2 ebb6
000002a0: 490f 08b5 664a 77b6 ee94 8436 d7a7 8836
000002b0: 6327 0437 8f18 ea37 a02b 6e35 abec 5f35
000002c0: 5dfc 2435 6ae1 1d38 ea24 f0b6 54e6 e5b2
000002d0: 5492 a936 72dd 8836 829c 8335 15ae e036
000002e0: 5ebd 23b6 abfc bcb6 4436 07b4 ff3e 3db6
000002f0: c239 1637 cbc0 8737 54a9 c735 7299 32b7
00000300: c093 4b35 2129 1a35 1bad b535 c327 e0b4
00000310: 7f64 dc33 256f 9fb4 4411 b6b2 3129 69b5
00000320: 5335 7234 85e2 8eb5 ab6b 8635 27a5 9f33
00000330: de3e a435 f9c3 3e36 d85b 0834 a3fe 3ab2
00000340: 0bbd 0333 b51c 6936 2fa1 72b5 a162 8fb0
00000350: 8e57 37b5 ff17 8935 48a3 6033 61a8 6b35
00000360: 3d3f 5bb5 d612 60b3 1fc6 6cb1 201b 0435
00000370: 3fd2 0036 2c29 1736 e823 40b5 597b b3b5
00000380: 02dc 7c37 fbdb 5436 5819 c5b8 74a0 e6b6
00000390: fb6b 9bb6 b654 2837 d2a1 c934 a072 7e38
000003a0: bd4a 85b6 1576 c837 90ef fdb7 6740 4937
000003b0: 369f 9bb7 2185 4db8 1000 33b6 e95b 6835
000003c0: bcc8 b9b6 6408 e2b8 83f9 bd37 6627 3734
000003d0: fb84 9138 15fc 00b8 1420 b234 aeab 2fb8
000003e0: 7b66 2a38 74eb 88b5 23de 9ab5 3ecc feb6
000003f0: 20b0 a3b8 4bc3 a6b8 afd7 12b8 7c94 ef37
-6.689575e-05 1.4386016e-05 9.356281e-05 2.4323159e-05 1.4289249e-05 -9.834686e-06 8.3923175e-07 -3.1436317e-05
1.1381322e-05 2.2895823e-05 3.3487493e-05 1.2749065e-06 -3.7562297e-06 -3.6506703e-05 -8.4545934e-07 -4.8705907e-08
9.65465e-07 0.00010222143 -3.5749643e-05 -3.8479448e-07 -4.2410018e-05 -3.1899366e-05 9.866673e-07 -2.6226046e-05
-1.5961876e-05 -1.6094376e-05 2.248649e-06 -4.798228e-05 1.4998396e-06 3.4580426e-05 6.4813794e-05 -2.2166798e-05
-2.4890998e-05 -6.643317e-05 -9.444722e-05 -5.6545405e-06 -8.214801e-06 1.0216728e-05 -6.4156256e-07 1.4539798e-05
-1.3099444e-05 -1.1052116e-06 -6.8512636e-05 -5.5794458e-06 -2.9345552e-05 -5.5600274e-05 -1.3943347e-06 -2.2722811e-07
5.704156e-06 -0.000109703185 5.5020995e-05 1.2490811e-07 5.3669344e-05 -8.975126e-06 -4.8261545e-06 1.5306168e-05
5.9394315e-05 -1.561653e-05 -6.869048e-07 -4.1529303e-05 -3.657945e-05 -4.9023587e-05 -7.6237135e-05 4.729149e-05
-3.8746107e-06 6.509418e-05 -5.5454377e-05 7.531207e-05 -1.7620272e-05 1.7849612e-05 8.357772e-07 4.686831e-05
-1.5932886e-06 1.2823025e-05 -6.0576334e-05 -3.64697e-05 -2.2392556e-05 -7.463842e-05 -8.9201063e-07 -8.38399e-06
-2.1951037e-06 -0.00016678676 6.9842856e-05 -5.812754e-07 1.7254566e-05 -1.5316224e-05 -1.2344102e-05 -1.18907e-05
4.0197323e-05 -3.7145786e-05 1.949173e-06 5.4944438e-05 -4.0197243e-05 -0.00010146855 -3.8136237e-05 0.0001058446
4.001323e-05 5.0321778e-05 -2.4246145e-05 -0.00012531356 -2.0102127e-06 6.563223e-06 -8.4205703e-07 5.5056807e-06
-1.5551232e-05 -6.9370566e-05 -4.0519867e-06 6.935618e-05 4.5547673e-05 0.00015037143 6.2180243e-06 1.9689573e-05
-1.956842e-06 7.683994e-05 -9.386255e-05 3.1057965e-07 2.0691314e-06 5.65191e-05 3.784629e-05 3.340489e-05
2.0484309e-05 9.0402435e-05 -1.3776872e-07 2.7663425e-05 6.280507e-05 -2.8411565e-05 -7.516463e-05 -7.4871954e-05
-2.64085e-05 9.726502e-07 1.4760299e-05 -1.6007174e-05 -1.8397714e-06 2.804789e-07 -9.000491e-07 -1.3105331e-05
-1.2535725e-05 -3.0647123e-05 -1.8299457e-05 2.345471e-05 1.7931097e-05 3.9875893e-05 4.261866e-06 8.984731e-06
2.7979095e-06 7.861817e-05 -2.3596644e-05 4.3699654e-07 1.2760363e-06 4.118897e-06 1.6667496e-05 3.4035333e-05
2.8421187e-05 1.7255901e-05 7.5211716e-07 -1.1331361e-05 2.9075847e-05 6.4365727e-06 1.388717e-05 -1.8045674e-05
-7.529843e-07 -1.7858956e-06 3.3507013e-06 -3.823031e-06 6.288111e-07 -2.9096632e-06 -3.9716122e-07 -7.0262236e-06
-5.068619e-07 -3.6849174e-06 3.9512443e-06 4.072655e-06 7.876984e-06 2.790641e-05 8.872539e-07 8.341837e-07
6.1462e-07 3.764165e-05 -7.1568547e-06 -2.676385e-08 5.0536273e-06 4.0788955e-06 9.80581e-07 6.695986e-06
-2.439912e-06 -5.632251e-06 -1.2592596e-07 -2.8199863e-06 8.9541445e-06 1.618303e-05 1.4875936e-06 -1.06453535e-05
7.58384e-07 5.742932e-07 1.3535931e-06 -4.1752182e-07 1.02628285e-07 -2.9696926e-07 -2.119544e-08 -8.6859205e-07
2.2557406e-07 -1.064575e-06 1.0015114e-06 7.4340555e-08 1.2237249e-06 2.8426277e-06 1.26994e-07 -1.0884523e-08
3.0672748e-08 3.4736415e-06 -9.038658e-07 -1.0432651e-09 -6.830022e-07 1.0214279e-06 5.2302568e-08 8.7789346e-07
-8.167588e-07 -5.2171195e-08 -3.4455139e-09 4.9213304e-07 1.9195866e-06 2.2524719e-06 -7.1577824e-07 -1.3372438e-06
1.5071595e-05 3.1718507e-06 -9.398413e-05 -6.8732134e-06 -4.6319306e-06 1.0033304e-05 3.7556907e-07 6.0665072e-05
-3.9724096e-06 2.3896844e-05 -3.0271505e-05 1.1995528e-05 -1.8551578e-05 -4.8999795e-05 -2.6673115e-06 8.656048e-07
-5.536798e-06 -0.00010778083 2.2646744e-05 1.7057536e-07 6.938908e-05 -3.0752348e-05 3.3178424e-07 -4.188314e-05
4.06266e-05 -1.0201315e-06 -1.1538544e-06 -7.593567e-06 -7.8052515e-05 -7.951873e-05 -3.5009984e-05 2.8560164e-05
