models/car/kinematic_opp_unseen3.pth (torch, 77516 bytes, 20 tensors)

lstm.weight_ih_l0 f4 [128, 10]
000000 80 7a 47 3e 0f d5 ac bd f3 b0 22 bc 57 42 89 3e
       0.19480324 -0.08439075 -0.009929883 0.26808426
000010 fa 0d db 3d 38 4d ad 3d 5d b2 c7 3d f4 77 cc 3b
       0.10696025 0.08461994 0.09750817 0.0062398855
000020 4e 02 80 3c 87 61 34 3d 39 2f a4 bd 2d f6 9a be
       0.015626099 0.04403832 -0.080168195 -0.30265942
000030 a8 01 3e 3e 57 1b 9e 3d 1b 45 93 3e 42 c3 3a 3d
       0.1855532 0.077200584 0.2876366 0.04559637
000040 5e 39 8c bc f3 93 20 bd 6f 5a 3e 3e 12 2e ab 3e
       -0.017117199 -0.039203595 0.18589185 0.33433586
000050 ab ce 25 be 3a 40 17 bd 71 dd 83 3d 44 e8 02 bc
       -0.16192119 -0.036926486 0.06438721 -0.007989947
000060 a0 f2 c5 be ce f9 09 3e 94 c2 0c 3e a3 37 1e 3e
       -0.3866167 0.13474199 0.137461 0.15450911
000070 ce 8b 05 3e 4c b6 98 bd 30 a2 3b be 96 f9 89 be
       0.13041613 -0.07456645 -0.18323588 -0.2694823
000080 dd 80 67 bd ce ff a9 3c 85 1c 0f 3e 4d 96 bf bd
       -0.056519378 0.02075186 0.13975723 -0.093548395
000090 77 9b 06 bd 86 3f 92 3e 79 a0 72 3e 90 ed 8f 3e
       -0.032863107 0.2856409 0.23694028 0.28110933
0000a0 a5 d1 f2 bd 22 0c 02 be 89 86 cb 3d 35 c6 91 bd
       -0.11856393 -0.12699941 0.0993777 -0.07117883
0000b0 66 de d9 3d 9f 29 04 3e 54 cf 2a 3e 42 ec 7d bc
       0.10638122 0.12906502 0.16680652 -0.015498223
0000c0 ff 50 68 3d 38 56 4b 3e 8b df 0c be 8c 4c 73 bd
       0.05671787 0.19857109 -0.1375715 -0.059399173
0000d0 31 c4 fb 3d d5 63 40 3e 93 02 51 bd 99 4a 9c bd
       0.1229328 0.18788083 -0.051027846 -0.07631416
0000e0 44 5e bc 3d df 69 c2 3d aa 35 85 bc 88 34 3e 3e
       0.09197667 0.094928496 -0.01626094 0.18574727
0000f0 03 ec c6 bb 22 8c b7 bd a3 2b 69 3d b4 a0 fb 3d
       -0.0060706153 -0.08962275 0.05692638 0.12286511
000100 62 27 33 bd d2 75 12 be 9c ca f9 3d 51 69 14 3c
       -0.04373873 -0.14302757 0.12196848 0.0090583125
000110 ba c7 cb bb 76 bc 1a be 56 3a 70 bd dd d9 50 3e
       -0.0062188776 -0.15110955 -0.058649383 0.20395608
000120 d1 b8 f3 3c c2 21 76 3d 45 6c 17 3e a9 fb 4f 3e
       0.029751213 0.060090788 0.14787395 0.20310844
000130 7e a1 e3 3d bf 75 49 be 38 d7 3b 3e 89 b0 5f 3e
       0.111147866 -0.19673823 0.18343818 0.21844687
000140 05 78 e0 bd d5 d7 e3 3d 33 f2 6d 3d ce 20 71 3d
       -0.10960392 0.11125151 0.058092307 0.058869176
000150 7b 96 13 be 77 d6 51 3d d9 cc 2e be 62 81 95 bd
       -0.14412872 0.05122992 -0.1707033 -0.073000684
000160 65 46 cd bb 98 01 6b bc 13 fa 48 bd 08 6e 85 bc
       -0.006264495 -0.014343642 -0.049066614 -0.016287819
000170 b8 57 c7 3d c6 08 56 3e 8a 39 07 3e 48 3b 49 be
       0.09733528 0.20901784 0.13205543 -0.1965152
000180 44 e3 d4 3c 9f 63 20 3d e2 e6 6b be 7f 9b 4d be
       0.025987275 0.039157506 -0.23037294 -0.20078848
000190 d6 f1 05 3d a1 3c 70 bd 81 ee 9f 3c fe da 05 3e
       0.032701336 -0.05865157 0.019522907 0.1307182
0001a0 4c ad 3a bc bf 09 15 be 67 0a 67 be d9 aa 9f 3d
       -0.011393856 -0.14554499 -0.22562562 0.077962585
0001b0 b8 ba 78 bd 3f 5d fd bc 71 67 fb 3b 88 41 e8 3c
       -0.060724944 -0.030928252 0.0076722433 0.02835156
0001c0 3f 4c 18 3d e1 80 85 3d 27 54 90 3d b8 8d cd 3d
       0.03718209 0.06518722 0.07047301 0.10036796
0001d0 51 38 a9 bd eb 35 cd 3d 38 c7 8b 3d 66 cb 75 bd
       -0.082626946 0.1002005 0.06825107 -0.06000843
0001e0 17 cc 2a be 97 e8 cd bd 2e 45 d8 bd 41 c3 8c bd
       -0.16679417 -0.100541286 -0.1056007 -0.06873179
0001f0 fc d1 1a 3e 5f 44 ac 3d a0 51 bc bd 63 a0 c8 3c
       0.15119165 0.08411478 -0.09195256 0.02449054
000200 3f db 2f bd 0b 53 35 bd ab 21 ce bd e6 23 11 be
       -0.0429337 -0.04426865 -0.100650154 -0.1417385
000210 9a 51 15 bd df bc 15 3d 21 8c 6a 3e d2 79 53 be
       -0.036454774 0.036557075 0.22905017 -0.2065194
000220 22 7d a7 3d 11 1c 02 be e9 b2 c4 bc f1 c1 21 be
       0.08178164 -0.12706019 -0.024011092 -0.15796639
000230 62 28 33 be 05 2a 47 be 10 a9 1d 3e b2 86 11 be
       -0.17495874 -0.19449623 0.15396523 -0.14211538
000240 0d af 35 3e da 94 c2 3d 9a 2a 31 be 48 65 ac 3d
       0.17742558 0.095010474 -0.17301407 0.08417755
000250 98 19 45 3e ca 54 11 be 6e 3b 54 be 31 99 b1 3d
       0.19248044 -0.141925 -0.20725796 0.08671797
000260 c8 69 31 bb 8a 73 6b 3e d9 59 55 3d 08 22 6f bc
       -0.0027071107 0.22993293 0.05208764 -0.014595516
000270 76 94 28 be dc 9c d7 3d e0 da 28 be ca 49 29 bd
       -0.16462883 0.105279654 -0.16489744 -0.041330136
000280 bb a4 1f bd 14 0a c3 bd b4 95 23 3c d5 32 aa bd
       -0.03897546 -0.095234066 0.0099844225 -0.08310477
000290 c0 f6 99 3d cc 2b ce 3d fe c1 a7 3c 6d 56 ea bd
       0.07517767 0.10066947 0.020478245 -0.11442266
0002a0 64 fa 04 be d3 ac 0b be d1 fc 74 bd 91 26 96 bd
       -0.12986141 -0.13640146 -0.059811417 -0.07331575
0002b0 e4 0e 78 3d 42 aa 98 3d 77 23 7a 3d 05 aa 57 3d
       0.060561076 0.07454349 0.06106898 0.052652378
0002c0 e7 ae 92 bc 0a 1a f7 bc 79 7c 0f 3e 50 b7 79 3d
       -0.017905666 -0.030163784 0.14012326 0.060965836
0002d0 f0 fc 2e be 44 78 59 bd 04 79 1b be e4 1e d1 3d
       -0.17088675 -0.05309321 -0.15182883 0.1021097
0002e0 2c 52 6f 3e 72 ac 83 bc 33 f1 1a be d0 a8 3a bd
       0.2337119 -0.01607344 -0.15131073 -0.04557115
0002f0 c0 21 1f 3c 88 5a 49 3e 2f de 47 3d 2f 1c 74 bd
       0.0097126365 0.19663441 0.048795875 -0.05959719
000300 48 da 3e 3e e2 c7 8d 3d eb 66 af 3d c5 fd 57 be
       0.18637955 0.0692289 0.08564552 -0.21092899
000310 be 4f 3f be 67 2a 27 3e 26 fb 22 be 31 85 cb 3d
       -0.18682763 0.16324769 -0.15916118 0.099375136
000320 d8 69 a6 3d 11 d4 28 be 70 c0 06 3e 8f e9 ae 3b
       0.08125657 -0.16487147 0.13159347 0.005337901
000330 9e 48 56 3e 46 9b 2e be 40 0f be bd 86 d2 08 3e
       0.20926139 -0.1705142 -0.092802525 0.13361558
000340 0e e9 f1 bd ef 51 34 bd a7 9f 2e 3e 4f 52 94 bd
       -0.1181203 -0.04402345 0.1705309 -0.072422616
000350 f4 e6 82 bd 1a 7a 39 3d f4 11 8b 3e 7c e0 28 bd
       -0.06391707 0.04528246 0.27162135 -0.04122971
000360 50 b2 20 3e 8d b2 63 be d6 4e 5d 3e 44 99 40 bc
       0.15693021 -0.2223608 0.21612105 -0.011755291
000370 55 6b 0b 3c ea 87 d8 bd b2 c5 df bd 7e 8e 64 3e
       0.008509477 -0.105727986 -0.10926379 0.22319981
000380 8f 84 15 3e 86 02 2a be 79 bc 20 be 93 d5 b9 3b
       0.14601348 -0.16602525 -0.15696897 0.005671212
000390 a0 96 6d 3d 22 00 cc 3d 60 45 88 bc 99 3d 62 3c
       0.058004975 0.09960963 -0.016634643 0.013808631
0003a0 f4 11 22 be df 0f a3 3d ea 8a 67 3a 3b a4 2c be
       -0.15827161 0.079620115 0.00088326505 -0.16859524
0003b0 ed 9b 0b be 3e 8e 1b bd 9e 3e 55 be 63 17 89 bd
       -0.136337 -0.03797745 -0.20824668 -0.06693914
0003c0 c6 5e 25 3e a7 73 ab bb d4 6d c2 bd 1e 22 20 3e
       0.16149434 -0.0052322927 -0.09493604 0.15638015
0003d0 1e d2 91 3e d8 02 22 bd 1c bf a4 bc 9c 9c fb 3c
       0.2848062 -0.039553493 -0.02011066 0.030714326
0003e0 b7 f9 03 be df cf 8d bd fb e1 a8 3c 4a 06 80 3d
       -0.12888227 -0.06924414 0.020615568 0.062511995
0003f0 49 b4 80 3e 14 1c 53 3e e5 c7 3a 3e fa f3 8a 3e
       0.25137547 0.2061618 0.18240316 0.27139264

lstm.weight_hh_l0 f4 [128, 32]
000000 38 92 92 3e f6 d2 73 3d b2 c6 72 3b af b3 2a 3d
       0.2862718 0.05952736 0.0037044701 0.041675266
000010 69 cc 60 bd c1 17 d1 3c 51 cb dc 3d ea 2b e4 3d
       -0.05488244 0.025524022 0.10780967 0.111411884
000020 c3 d9 b2 bd 97 32 17 3e 22 f7 c1 bd 4f b4 2c 3e
       -0.08732941 0.14765392 -0.09470965 0.16865657
000030 09 5c 2e 3e 19 e7 8b bc 7b ae 5f bd 5b fe b0 3c
       0.17027296 -0.01707797 -0.054609757 0.021605661
000040 86 52 ce bc e2 97 47 3e 17 b4 f8 bd b7 1e 8f bd
       -0.025185835 0.19491532 -0.121437244 -0.0698828
000050 d2 1d 13 be 31 5e a4 3d 06 49 17 3e 7e d4 14 3e
       -0.14366844 0.08025778 0.1477395 0.14534184
000060 33 88 a1 bd 3b 2f c2 bd d1 20 ed 3c 03 a9 f6 bd
       -0.07887306 -0.09481665 0.028946312 -0.12043955
000070 db 2d 1a be 68 1a cd bb db bf e1 3d 3a 6d 91 3e
       -0.15056555 -0.0062592514 0.11022922 0.28403646
000080 1c 64 4e 3e 87 93 e3 3d f8 4c 4c 3e 50 6d f2 bd
       0.20155376 0.11112123 0.19951236 -0.11837256
000090 7b b4 35 bd 5a 18 be bc 94 85 c1 bc 13 ac 02 3e
       -0.044361573 -0.023204971 -0.023623265 0.12760954
0000a0 21 a4 7a 3e f5 07 15 3c 7e 63 d7 bd 6a b1 84 bd
       0.24476673 0.009096135 -0.105170235 -0.064791515
0000b0 97 11 7d 3e a5 49 10 be 0a d4 4c bd 7f af c3 3d
       0.24713741 -0.14090593 -0.050006904 0.095549576
0000c0 02 9e 36 be 7d 55 74 3d e6 dd 37 be c8 f8 0d 3e
       -0.17833713 0.05965184 -0.17955741 0.13864434
0000d0 e6 21 78 3e 46 d5 37 3b 45 28 1b 3b 4a 68 dd 3b
       0.24231681 0.0028050705 0.0023675126 0.006756817
0000e0 ff 15 3c bd dc 2d d6 3c 12 83 e2 bd 59 93 70 be
       -0.045919415 0.026144914 -0.11060156 -0.23493709
0000f0 c4 83 c8 bd 65 2e bd bd a9 85 31 be 38 d8 ea 3d
       -0.09790757 -0.09237365 -0.17336144 0.11467022
000100 7b dc 9f bc f5 c2 d8 3d 1c b6 65 3c 75 62 6d 3d
       -0.019514313 0.1058406 0.014020469 0.057955224
000110 e6 d4 37 be a0 f7 e7 bc d8 1f 14 3e 90 13 ce bd
       -0.17952308 -0.028316319 0.14465272 -0.10062325
000120 95 36 25 3d d6 2e 3f 3d 21 cc 82 bd 6c 43 ea 3d
       0.040335257 0.046675526 -0.06386591 0.11438641
000130 d9 ff e7 3d 6c 5b 2d 3e b9 35 13 3e a3 af 7c bd
       0.11328096 0.16929406 0.14375962 -0.061690938
000140 21 85 5a 3e 55 73 d8 bc ba 1b ed bd 09 cb 8a bd
       0.21339847 -0.026422182 -0.11577554 -0.06777007
000150 53 cc 88 bd c3 1e 02 bd ad 98 27 be fd 62 95 bd
       -0.06679597 -0.031767618 -0.16366835 -0.07294271
000160 86 29 27 be 53 a7 10 3e e5 9d 3f be 8c ce 88 3d
       -0.16324434 0.14126329 -0.18712576 0.06680021
000170 59 32 d4 bd 94 d2 96 bc 1b e6 ef 3d 81 f8 23 be
       -0.103611656 -0.018410958 0.11713811 -0.16012765
000180 be 57 37 be bc 73 16 3d bf f6 20 3d bc 8d 13 be
       -0.17904565 0.036731467 0.039297815 -0.14409536
000190 28 31 d0 bd f5 25 23 be 0f 10 8c 3e ca 95 b7 bc
       -0.10165626 -0.15932448 0.27356002 -0.022410292
0001a0 c7 a1 8a 3d bb 13 a3 3e 64 a1 40 bd 64 7a 9a 3e
       0.06769138 0.3185099 -0.047028914 0.30171502
0001b0 ee 1f b2 3e 5a e4 64 be ce 95 37 3e 96 ce 74 3d
       0.34789985 -0.22352734 0.1792824 0.05976733
0001c0 66 09 6c 3e 70 da 4d 3d 5c 56 9d be 74 34 8c 3e
       0.2305046 0.050257146 -0.3072995 0.2738377
0001d0 3e 3d 8d 3e 46 e7 26 bd 14 fb 02 bd 17 fa 7d bd
       0.27585787 -0.040747903 -0.031977728 -0.062006082
0001e0 6f 68 a9 be 32 ac 6e 3d 98 98 0b 3d 07 cc 09 be
       -0.3308749 0.058269687 0.03408107 -0.13456737
0001f0 bb 24 a8 3c a0 da 9a bd fe 97 52 3e 6c 90 01 be
       0.020525327 -0.07561231 0.20565793 -0.12652749
000200 59 0d 54 3d 64 f2 ee 3d 56 a9 d5 3d b3 d0 ad 3d
       0.05177054 0.11667326 0.10432689 0.08487072
000210 15 c2 f7 3d 7f 48 38 3d c3 cb e3 bd 18 95 20 3d
       0.12097565 0.044991013 -0.11122849 0.039204687
000220 84 86 2f bd bb c1 bf bd 5a 85 75 3d 6f be 54 3b
       -0.042852893 -0.09363123 0.059941627 0.003246214
000230 89 fe 62 bb 17 40 9c 3d 7b ad 16 be a3 9c e5 3d
       -0.0034636578 0.07629412 -0.14714615 0.11211517
000240 70 59 63 bd b1 e0 ff 3c b1 f4 1a 3e 10 1d 29 3d
       -0.055505216 0.03123507 0.15132405 0.04128748
000250 51 ea ee bd 7e f8 62 bc 9a ab c9 bd 6e 53 9b 3d
       -0.11665786 -0.0138531905 -0.098471835 0.07584272
000260 12 af c3 3d 01 91 5b bb 9d fc d3 bd 88 be 1f bd
       0.095548764 -0.0033503177 -0.103509165 -0.039000064
000270 4d f5 fa bd 6a f8 fd 3d 67 a1 d8 3d d1 8a d4 3d
       -0.12253819 0.12400897 0.1057766 0.1037804
000280 89 8c fe 3d f8 ed 2f 3d 40 09 33 bd 9c cc 8f 3d
       0.12429149 0.042951554 -0.043709993 0.07021448
000290 05 8f 2f be 92 b3 97 bd bb 29 39 3e 32 53 41 be
       -0.17144401 -0.07407297 0.18082325 -0.18879393
0002a0 32 33 20 3e e6 db da bd 67 d0 26 3d ae 38 0f be
       0.1564453 -0.106864735 0.04072609 -0.13986465
0002b0 c4 1c 2c 3e 1b 04 0d 3e 82 90 db bd 3f 7e 20 be
       0.16807848 0.13771097 -0.10720922 -0.15673159
0002c0 58 8b 4b 3d 39 e6 ab bd d3 15 b9 3d 0c a7 85 3d
       0.049693435 -0.08393521 0.09037366 0.06526002
0002d0 fb e1 ba 3d 95 73 d9 3c c9 60 96 bd 71 5a c2 bb
       0.091251336 0.026544372 -0.07342679 -0.0059311916
0002e0 34 2a e2 3d c4 95 60 bd 68 7b 22 be 9b 61 51 be
       0.11043206 -0.054830328 -0.15867388 -0.2044739
0002f0 66 b3 84 3d ed b4 c6 3d 00 4f 95 3e 34 ca 34 be
       0.0647953 0.097024776 0.29161835 -0.1765526
000300 ba a5 7e bc 84 b3 7a bd e4 d9 50 3c a7 99 d2 3d
       -0.015542442 -0.061206356 0.012747262 0.10283213
000310 24 42 ee bd 25 0d 1e bc 93 a6 56 bc 50 77 ad 3d
       -0.11633709 -0.009646689 -0.013101238 0.08470023
000320 76 c4 13 bd 9a 9f cb bd bb 6f dc 3d 8e 9e b5 bd
       -0.03607603 -0.09942551 0.107634984 -0.088681325
000330 36 af e6 bd a4 94 ec bc c6 2e 9e 3d 9b 51 c3 bd
       -0.112638876 -0.028879471 0.07723765 -0.095370494
000340 5d 08 39 3e 84 7a cb bd d2 41 b5 3d 71 09 05 3e
       0.18069597 -0.099354774 0.08850445 0.12991883
000350 cf 9b 2d be 74 d5 21 3e 5b 9b 00 bd 4c 14 f0 3d
       -0.16953968 0.15804082 -0.03139816 0.11722621
000360 7f f7 7f 3d 38 ad 12 bd 75 31 49 bd b7 36 9d 3d
       0.06249189 -0.035809726 -0.04911943 0.07676452
000370 f4 0e e8 3c 71 60 fe 3d 11 aa 4a 3e ca dc f0 3d
       0.028327443 0.124207385 0.19791438 0.11760862
000380 50 3f 91 bc 7b 4f 37 3e 45 1b c7 bc 32 6c 7a bd
       -0.017730385 0.17901413 -0.024304995 -0.06113834
000390 b9 10 f4 bd b1 63 69 3e 37 e6 10 be 43 34 09 bd
       -0.11917252 0.22791936 -0.1415032 -0.033497106
0003a0 04 e2 09 be 9c 41 55 be 81 3e de 3c 94 20 1b be
       -0.13465124 -0.20825809 0.027129414 -0.15149146
0003b0 e0 6e 8d bb 45 d3 68 3e 75 62 c7 3d b3 4c 19 3e
       -0.004316196 0.22736843 0.09735576 0.14970665
0003c0 b6 7c c6 bd 36 d2 27 be 3e 7c 49 bd ea 2a 3c 3d
       -0.096917555 -0.16388783 -0.049190752 0.045939364
0003d0 19 52 73 3e 78 bd ec bd c9 6a 35 be d6 62 46 3d
       0.23761787 -0.11559576 -0.17716517 0.0484341
0003e0 5c 24 f8 bd 90 ad 7e be d1 d6 0f bd d0 e0 04 3e
       -0.1211631 -0.24870896 -0.035116974 0.12976384
0003f0 47 6c 0e be 60 f3 ef bc 12 70 86 3e 88 98 de 3e
       -0.13908492 -0.029290855 0.26257378 0.43475747

lstm.bias_ih_l0 f4 [128]
000000 63 ca 34 3e 4f 82 89 3c d4 fd 31 3e 0f 10 97 3e
       0.1765533 0.016785769 0.17381984 0.2950444
000010 1a bf 12 be 92 19 9b bd 0e 80 8a 3d 68 4e 9d b9
       -0.14330712 -0.075732365 0.06762706 -0.0003000379
000020 8f b6 3b 3e 5b e1 c4 ba 4a 01 96 bd fa f2 ab 3b
       0.1833136 -0.0015020774 -0.073244646 0.005247471
000030 3a b9 9b bc 5e d1 41 bd 4f 56 1e bd 31 66 33 3e
       -0.019009221 -0.04731881 -0.03865653 0.17519452
000040 88 bb be 3d c4 92 28 3e ad 41 a4 bd 6d ce 1d 3d
       0.093131125 0.16462237 -0.08020339 0.03852694
000050 58 8f d5 3d af d5 37 be 1b e0 27 3e 33 38 1f be
       0.10427731 -0.17952608 0.16394083 -0.15548782
000060 bf 61 ba bd 71 56 5b 3d 0f 7a 4a 3e 4b 65 24 3d
       -0.09100675 0.053549234 0.19773124 0.040135663
000070 ae 83 3d 3e 19 ae 6c 3d ee 6e 7a 3e 83 cb 99 3d
       0.18507263 0.05778322 0.24456379 0.0750952
000080 e1 75 26 3e 4c 7e d4 3d 43 84 e4 bd d5 70 8a 3e
       0.16255905 0.10375652 -0.111580394 0.2703921
000090 c1 a5 81 bd 24 82 97 3d 35 7c 88 bd 16 62 10 be
       -0.06330443 0.07397869 -0.066643156 -0.14099917
0000a0 ff 93 07 be 79 23 87 3d df 44 14 3e 27 f9 09 be
       -0.1324005 0.06598563 0.14479397 -0.1347395
0000b0 6d 71 d0 bd 34 35 c7 bb 2a 37 c7 3c c2 30 b7 bd
       -0.10177884 -0.0060793404 0.024318296 -0.08944847
0000c0 ab 24 93 3d 2a 78 62 3e 15 b8 55 3e 7e 60 a8 3d
       0.07184728 0.22116151 0.20871003 0.082215294
0000d0 85 0b 54 3e 9c a6 a7 bd cc 12 13 be f3 70 10 3d
       0.2070752 -0.08186075 -0.14362639 0.035263967
0000e0 a4 e7 ce 3d b5 a3 c7 3d 7f b7 d0 bd c2 e1 13 bd
       0.10102776 0.097480215 -0.10191249 -0.03610397
0000f0 7f 69 a4 3e 8f 33 ee 3d 49 df 91 3c d6 54 94 3d
       0.32111737 0.11630928 0.017806666 0.07242744
000100 b8 b8 15 be 14 16 fb bc f4 10 f1 3d 4e 45 3a be
       -0.14621246 -0.030650176 0.11770812 -0.181905
000110 b6 dc 7a 3c 34 5c 27 be 5a 12 32 3e a5 2d 0e bc
       0.015311411 -0.16343766 0.17389813 -0.008677875
000120 3f ef 73 3d 0d a7 1a be 50 f8 08 3e 89 f0 2b 3e
       0.059554335 -0.15102787 0.13375974 0.16790976
000130 f9 ba fa bd c9 8e 0d be e3 89 b8 bd 61 ee 4f bc
       -0.122426935 -0.13824 -0.09010675 -0.012691111
000140 3e b7 ec bd 1b 19 e1 3d bf 04 09 3e 65 9e a8 3d
       -0.11558388 0.109911166 0.13380717 0.08233336
000150 f5 4a f4 3d 48 44 d2 3c ae a7 df 3d ba 3e 33 be
       0.119283594 0.025667325 0.10920654 -0.17504397
000160 a4 90 57 3d 6f f8 5f 3d 81 30 62 3d bf 81 ac 3d
       0.052628174 0.054680284 0.05522204 0.084231846
000170 43 a9 90 bd 50 b2 10 be 2a 69 b5 3c 53 7a f5 3d
       -0.07063534 -0.14130521 0.022144873 0.11986222
000180 4c 03 b6 3c 5c 63 aa 3e 97 cd df bd 56 ab 31 bd
       0.022218369 0.3327893 -0.10927885 -0.04337629
000190 f7 45 52 bd b1 1e 3c 3e 9d 96 fc 3c 60 0d 09 be
       -0.051336255 0.18371083 0.030833537 -0.13384008
0001a0 c6 a5 e9 bb 2c 23 14 3e 3e 2f a4 3d 6c 4f 08 bd
       -0.0071303574 0.14466542 0.08016823 -0.033278868
0001b0 b6 92 2e 3e 3a 39 28 3e a1 88 04 be d1 3e 8b bd
       0.17048153 0.1642808 -0.12942745 -0.06799091
0001c0 59 6e e6 3d 8f 50 9b bd 63 36 4a 3e 40 29 4a 3e
       0.11251516 -0.07583725 0.1974731 0.19742298
0001d0 6c e2 c9 bd 31 67 da 3d 26 e3 8a 3d b3 a9 1d be
       -0.0985764 0.106642134 0.067816064 -0.15396766
0001e0 da 99 4d 3e 42 bc ee 3b 73 28 d6 3d f2 a3 70 3d
       0.20078221 0.0072856257 0.10456934 0.0587501
0001f0 01 f9 9a bc d4 53 39 3d 02 d3 24 bb fb 35 8b bd
       -0.018917562 0.04524596 -0.0025150185 -0.06797405

lstm.bias_hh_l0 f4 [128]
000000 5a b9 e7 3d f7 85 37 3e 90 36 25 be c9 85 ac 3d
       0.1131465 0.17922197 -0.16134095 0.08423955
000010 05 b7 b7 bd b2 10 04 3e 46 7b e6 bd d0 d5 ab 3d
       -0.08970455 0.12896994 -0.11253981 0.08390391
000020 c9 71 99 bd f5 81 7e 3e ee 0c c3 bc 57 e9 99 bd
       -0.07492406 0.24854262 -0.023809876 -0.07515209
000030 21 78 82 3e 1d 1b c9 bd f8 5a 58 3e e2 84 eb bc
       0.25482276 -0.098196246 0.21128452 -0.028749887
000040 38 2b a0 bb ab a0 6c bd fb 28 9a bd 5c 8f 92 3e
       -0.0048879646 -0.057770412 -0.07527348 0.28625
000050 af 19 dd bd 4d 84 4e bc 93 2f ba 3d 33 76 1c be
       -0.107959144 -0.012604785 0.09091105 -0.15279464
000060 86 15 0e 3e 02 74 24 3d 9e 77 eb 3d 0f 29 43 3e
       0.13875398 0.040149696 0.114974245 0.19058631
000070 15 0b 36 bc 25 92 de 3d 06 76 1c 3e 06 02 a6 bc
       -0.011111041 0.108677186 0.15279397 -0.020264637
000080 10 c2 cc 3d c1 74 50 3e 23 3b 32 3e 2f 6a 42 3e
       0.09997952 0.20357038 0.17405371 0.18985818
000090 13 97 59 3d d0 9d ba bd 62 96 1b 3e 93 35 c0 bd
       0.05312259 -0.091121316 0.15194085 -0.093852185
0000a0 f9 75 09 bd f9 3f a7 3d 14 fe 22 3e e1 df 3b 3e
       -0.033559773 0.08166499 0.15917236 0.18347122
0000b0 9e 0a 0a be ec 23 8d 3d 14 39 36 bd 6f f2 73 bd
       -0.13480613 0.06891617 -0.044488028 -0.059557375
0000c0 8d 8d 2f 3d 96 92 a6 3d 97 56 e1 3c a1 35 b5 3d
       0.042859603 0.08133428 0.02750711 0.088481195
0000d0 ec 81 3f bd ed 88 d3 3c ea 3d 2c 3d cb 5e af bd
       -0.046754763 0.025822127 0.042051233 -0.08563002
0000e0 14 bf 25 3e 1b 3a ae 3e 67 d0 0a 3e 38 e1 1f bd
       0.16186172 0.34028706 0.13556062 -0.039033145
0000f0 48 d2 02 3e df 1d f4 bb 39 33 45 3e e2 54 dc bd
       0.12775528 -0.00744985 0.19257821 -0.107583776
000100 c8 68 35 3e a2 cf d6 bd 19 d0 2c be cd bf 17 be
       0.17715752 -0.104888216 -0.16876258 -0.1481926
000110 0e d3 96 bd d7 42 b8 3d 08 0d 0e 3e e1 2a b7 bc
       -0.07364474 0.08997124 0.13872159 -0.022359313
000120 d7 e9 72 3d ad 2e 00 bd dd a0 be bd e9 27 2c 3e
       0.05930504 -0.031294513 -0.09308026 0.168121
000130 13 86 55 3e ff 1a a2 3d d9 21 20 3e f2 d7 a9 bd
       0.20851927 0.07915305 0.15637912 -0.082931414
000140 b7 bb 31 3d a2 f7 e4 3d 29 32 3e be 39 ee cf 3d
       0.04339191 0.11180045 -0.18573822 0.10152859
000150 79 0d 07 be 6d b8 e5 3d 24 24 36 3d f3 36 07 3e
       -0.13188733 0.11216817 0.04446806 0.13204555
000160 3a 6a 19 bb 74 48 0c be 41 be 50 bd b2 de 62 be
       -0.0023409263 -0.13699514 -0.05096269 -0.22155264
000170 bc fc 04 be ad d0 32 bc 3c 34 ea 3c aa a5 2e 3d
       -0.12987036 -0.01091401 0.02858936 0.04263846
000180 7d b5 1c 3e 7a e4 ba 3d 7d 29 b4 bd ff 6f 0f 3e
       0.15303607 0.0912561 -0.08796976 0.14007567
000190 d9 7a 1b 3d 70 44 2f 3d 79 7e 01 be a2 25 63 be
       0.037958954 0.042789876 -0.12645902 -0.22182325
0001a0 6d f5 b1 bd 98 33 4d 3e bb 71 ad 3d 8a 57 44 3e
       -0.086893894 0.20039213 0.08468958 0.19174019
0001b0 e0 93 90 3c 4d 01 a8 bd 06 3c 88 3c da f9 6a 3e
       0.017648637 -0.08203373 0.016630184 0.22946873
0001c0 01 99 d1 bd 34 2e 20 3e f1 8f b9 bc 55 32 8b 3e
       -0.10234261 0.15642625 -0.022651644 0.27186838
0001d0 cc e0 2f 3e 92 47 d6 3c 46 6d 2c 3d 71 8b a0 bd
       0.17175597 0.026157174 0.0420964 -0.07839096
0001e0 e7 5a d0 bd 13 2e 52 3e 8f 21 1e bd c6 af a1 bd
       -0.10173588 0.20525388 -0.038606223 -0.07894854
0001f0 0e 9c 2b 3d 25 6d b7 3c f8 84 51 3e f9 38 d9 3d
       0.041896872 0.022390911 0.2046088 0.1060657

hidden2out.weight f4 [2, 32]
000000 5e 2c d7 bd b0 86 ad bb 1d c9 12 bc be 99 88 be
       -0.10506509 -0.005295597 -0.008959082 -0.26679796
000010 a3 69 5f bd 42 98 39 bc dd a9 1f 3d 87 8b 84 3d
       -0.054544102 -0.011327805 0.038980354 0.06471925
000020 1a d4 81 3e 01 04 07 3c 43 63 b1 bd 59 7b 4d 3e
       0.25357133 0.008240701 -0.08661511 0.20066585
000030 dd 17 79 3c ae 9c 3c 3d 88 44 2b 3d 01 31 85 3c
       0.015203443 0.04604786 0.041813403 0.016258718
000040 82 15 b3 bd f3 f7 37 3e 01 39 1b be ee e3 7e 3e
       -0.08744337 0.17965679 -0.15158464 0.24891636
000050 71 56 78 bd 18 82 d6 3c 4a 69 2f 3e 76 96 95 3d
       -0.060629312 0.02618508 0.17130008 0.07304089
000060 67 cf 85 bd cf dd 67 3e 01 b2 16 3c 84 55 5b be
       -0.065336995 0.22643207 0.009197713 -0.2141934
000070 4e 47 46 3c 4f fb 81 bc 44 39 40 3d d3 87 8c 3c
       0.012101961 -0.015866904 0.046929613 0.01715461
000080 f9 e8 33 3e 1d 47 ed 3d 1c eb 16 3e 8a 6e 33 3d
       0.17569341 0.115858294 0.14738125 0.04380659
000090 cf 58 eb bd 72 5d c4 bc 1c 0e 03 3e 39 c1 f2 bd
       -0.11491548 -0.02397034 0.12798351 -0.118532605
0000a0 eb ed 2e 3d 1a 8d 30 3e be 94 43 be fe b8 3d 3e
       0.042707365 0.17241326 -0.1909971 0.185276
0000b0 05 97 32 3e a8 56 11 be 1f c6 96 3d 37 1b 88 3d
       0.17440422 -0.14193213 0.07362007 0.06645816
0000c0 ad ad 12 3e 4c 64 7f 3d 25 e8 cc bd 80 21 39 bd
       0.14324065 0.06235151 -0.100052156 -0.045197964
0000d0 43 45 79 3d 3b e1 e2 bd aa 3e ea 3c 9e c0 29 be
       0.06085707 -0.110781156 0.028594334 -0.16577384
0000e0 7d 51 44 be ac 2c f8 bd 61 60 0e be 30 33 b5 bc
       -0.1917171 -0.121178955 -0.13903953 -0.022119135
0000f0 dd 6f 33 3d 7a 36 b8 3a 66 9d 9b 3d 66 33 da 3d
       0.043807853 0.0014054321 0.07598381 0.10654335

hidden2out.bias f4 [2]
000000 d9 d7 35 3e 23 a9 1c be
       0.1775812 -0.15298896

std_layer.weight f4 [2, 32]
000000 b3 38 0c 3e 60 be 02 3e 2b d9 0b 3d 7f 0f cb bd
       0.13693504 0.12767935 0.034142654 -0.09915065
000010 c3 a7 70 bd cc 95 80 bd 84 77 97 bd 76 9f d3 3d
       -0.05875374 -0.062785715 -0.07395843 0.10333149
000020 16 cf 31 be ce d3 41 bc d5 f9 18 3e c4 2f dc 3d
       -0.17364153 -0.011830283 0.14939053 0.10751298
000030 61 74 09 be a4 4b a8 3d d9 a6 1e be d5 df 1c be
       -0.13423301 0.08217552 -0.15493335 -0.1531976
000040 86 2c 34 3e 2d 05 b8 bc 27 09 30 be 03 3c 15 be
       0.1759511 -0.022463406 -0.17190991 -0.14573674
000050 ab 8d ac 3a ba d7 8c 3b d1 74 f6 3d 9d f2 5d bd
       0.0013164779 0.0042981775 0.12034 -0.054186452
000060 65 37 ab 3d 85 a6 4f 3d 99 7d c0 3d 4e e8 31 be
       0.08360175 0.050695915 0.09398956 -0.17373773
000070 b4 29 b4 bd eb 09 0f be 45 79 20 3d 86 96 01 be
       -0.08797017 -0.13968627 0.03917815 -0.12655076
000080 72 16 e2 bd 11 7f 16 3d d9 ec 8d 3d 6e 4a 77 3d
       -0.11039437 0.036742274 0.06929941 0.060373716
000090 0f 27 00 3e 0e 86 33 be 55 85 f4 bc 77 32 29 3e
       0.125149 -0.17531607 -0.029848734 0.16523157
0000a0 f7 72 2e 3d 64 54 78 3d 45 3f 29 3e 32 b8 e2 3d
       0.042590108 0.060627356 0.16528042 0.11070289
0000b0 e7 6d 25 be 26 1c 9c bd 46 6c 0b bc 14 d6 82 bd
       -0.16155206 -0.076225564 -0.008509701 -0.063884884
0000c0 88 d0 24 3e ac a7 e3 bd 17 88 0c 3c 41 92 05 3e
       0.16095173 -0.11115965 0.008577368 0.13044073
0000d0 3c e6 31 be 7d 7d ea bd 1b ce 26 3e 99 03 2a be
       -0.17372984 -0.11449716 0.1628956 -0.16602935
0000e0 45 ed 14 3e e8 7c 88 3d 42 07 25 be 47 f5 31 3e
       0.14543636 0.06664449 -0.1611605 0.17378722
0000f0 4f d2 c4 bb 8d 12 8d 3c 86 53 1b 3e 96 7e c3 3c
       -0.006006516 0.01722076 0.1516858 0.023864072

std_layer.bias f4 [2]
000000 bf c3 61 3d 8b 94 01 bd
       0.05511832 -0.031635802

exp_avg f4 [128, 10]
000000 55 d0 4e ba 4d 11 be b9 20 4b 1a b8 33 29 f6 b8
       -0.000788932 -0.00036252514 -3.6786427e-05 -0.00011737868
000010 e0 90 f1 b7 60 ed b5 b9 61 b3 34 b9 80 19 b5 39
       -2.8796901e-05 -0.00034699868 -0.00017232962 0.0003454201
000020 b8 7f 79 b9 4e 9c 2f b8 2d 4a 0c b9 b8 fd 5a b8
       -0.0002379407 -4.186882e-05 -0.00013379073 -5.2211544e-05
000030 4b 72 d5 b8 b7 0e a2 b8 31 52 b5 b5 df 1d 9f b8
       -0.0001017792 -7.727503e-05 -1.3509472e-06 -7.587275e-05
000040 7b 14 d4 b7 9e 3d b6 38 7f 17 01 b9 89 88 08 b7
       -2.5281906e-05 8.6899134e-05 -0.00012311152 -8.138021e-06
000050 76 1d 0c 39 f3 4d 9b 38 ba 1a 58 b8 4d 9e 01 b7
       0.00013362415 7.405495e-05 -5.1523304e-05 -7.725856e-06
000060 b3 c3 24 37 6f cf 4d 38 c9 3a 0f 38 09 28 76 b8
       9.8207265e-06 4.9068996e-05 3.4148605e-05 -5.8688256e-05
000070 be 80 91 b7 6d db d4 36 19 ca ce b7 f9 f3 89 b6
       -1.7345297e-05 6.343637e-06 -2.4651223e-05 -4.1113203e-06
000080 bb 37 a1 b8 d2 fb 21 b8 d0 d3 aa b5 65 b2 0f b5
       -7.687459e-05 -3.8619917e-05 -1.2727633e-06 -5.353125e-07
000090 c3 94 08 b6 5f 5d 06 b7 34 4f 11 b6 03 ea e4 34
       -2.035217e-06 -8.008762e-06 -2.1652786e-06 4.2638575e-07
0000a0 e0 da 95 35 de c7 b5 b7 7a 2e d0 38 f0 2c 94 38
       1.1165066e-06 -2.1669952e-05 9.92687e-05 7.06556e-05
0000b0 d6 e5 c1 37 70 5d 4d b8 bc b1 74 b7 ca 07 81 38
       2.3114419e-05 -4.896283e-05 -1.4584915e-05 6.15265e-05
0000c0 fc e2 6a b8 af 17 cd b5 d3 97 81 39 73 c5 02 39
       -5.6001343e-05 -1.5280583e-06 0.00024717915 0.00012471322
0000d0 c2 e7 86 b8 ef e6 88 b7 a8 45 c9 36 02 00 7d 38
       -6.432786e-05 -1.632e-05 5.998376e-06 6.0319908e-05
0000e0 b8 bc 80 38 02 62 b9 b7 7f c4 a9 37 69 56 68 35
       6.138667e-05 -2.2099357e-05 2.023787e-05 8.655248e-07
0000f0 66 7f 1e ba 92 20 d7 b9 41 93 2a 3a 87 2a a4 39
       -0.00060462055 -0.00041032262 0.0006506928 0.00031312203
000100 92 79 b3 37 ed 00 ad b9 12 d2 54 b9 be 1d c6 39
       2.1395073e-05 -0.0003299782 -0.00020296153 0.00037787663
000110 d8 36 f7 b7 f4 58 c6 b7 48 4a 04 b8 e3 d5 d0 b6
       -2.9470233e-05 -2.3644861e-05 -3.1540432e-05 -6.2237827e-06
000120 e8 5f 2d b8 66 49 f5 b7 7f df c5 b6 bd ec 2c b4
       -4.1335734e-05 -2.9240455e-05 -5.897076e-06 -1.6104873e-07
000130 f4 a0 2d b6 50 69 64 b7 b9 22 86 b6 87 b3 db b5
       -2.5872696e-06 -1.3614379e-05 -3.9975534e-06 -1.6369021e-06
000140 c2 a3 08 b9 a1 aa bb b8 f7 04 1b 39 04 82 89 38
       -0.00013030975 -8.948637e-05 0.00014783801 6.5568864e-05
000150 32 08 07 37 52 37 d4 b8 e9 1f 3a b8 d0 0d 1e 39
       8.048535e-06 -0.00010119252 -4.4375574e-05 0.000150732
000160 75 b3 39 b8 85 db 1c b7 2f 2c 00 39 c2 e1 42 38
       -4.427457e-05 -9.3494355e-06 0.00012223491 4.6463458e-05
000170 e4 d2 77 37 1e 32 99 37 86 aa 64 37 93 31 b0 37
       1.4771449e-05 1.8262359e-05 1.3629562e-05 2.100392e-05
000180 f2 6d b0 37 b6 08 9a 36 d6 53 75 38 a5 bc 48 36
       2.1032032e-05 4.5905717e-06 5.849063e-05 2.9912128e-06
000190 4b a0 a6 b9 c5 ea 54 b9 e6 93 8e 39 7b 8c e8 38
       -0.00031781415 -0.00020305354 0.00027194544 0.000110887886
0001a0 67 e5 56 b7 7b 56 14 b9 e4 50 cc b8 2c 09 2c 39
       -1.2808806e-05 -0.00014146596 -9.742545e-05 0.00016406615
0001b0 29 6a cb b8 ae 52 64 b7 73 c8 f1 39 13 7f 6e 39
       -9.699568e-05 -1.3609109e-05 0.00046116448 0.00022744788
0001c0 38 ee e7 b7 b6 7b 11 b6 10 26 e3 36 42 8f 0f 39
       -2.7648275e-05 -2.1678693e-06 6.7695582e-06 0.0001369091
0001d0 19 d6 ea 38 60 19 7d b8 2f 3b a9 38 14 68 c5 36
       0.00011197868 -6.0343533e-05 8.069572e-05 5.883174e-06
0001e0 25 0d 33 39 92 bb ad 38 6a e1 95 b7 de 99 af b7
       0.00017075667 8.2842205e-05 -1.786715e-05 -2.0933276e-05
0001f0 8d fc 5f b7 2b f6 6f 38 9d 82 3a 38 5b 40 13 b8
       -1.3350637e-05 5.7211302e-05 4.44675e-05 -3.5107467e-05
000200 af 29 92 38 fd fd 62 b6 56 1f 9a 38 aa e5 93 b7
       6.969587e-05 -3.3824465e-06 7.349129e-05 -1.7630711e-05
000210 a9 53 93 39 56 c8 24 39 cf 76 40 37 0d 41 25 b8
       0.00028100357 0.0001571489 1.1471754e-05 -3.939965e-05
000220 37 72 17 b7 a3 5d c5 38 0d 24 71 36 3b ab ba b6
       -9.026894e-06 9.411133e-05 3.5932783e-06 -5.563166e-06
000230 d4 5c 12 38 3e b4 98 37 97 25 83 b8 39 e6 ad b7
       3.4895565e-05 1.8203744e-05 -6.2535684e-05 -2.0730413e-05
000240 1f 41 8c 36 21 86 7c 37 f3 bc 06 37 fd 6b 68 b7
       4.179906e-06 1.50516e-05 8.031016e-06 -1.3853421e-05
000250 7c 62 a1 36 9a 1b 4a 36 29 bd 0c ba e8 a4 ac b9
       4.809639e-06 3.0116412e-06 -0.0005368763 -0.0003292926
000260 a6 63 e6 39 97 99 5c 39 2e c8 30 37 f3 3b 4e b9
       0.00043943262 0.00021038052 1.0537025e-05 -0.00019668024
000270 b0 31 2d b9 ef 54 59 39 c5 d9 b8 b8 64 00 5b b6
       -0.00016517076 0.00020726373 -8.8143664e-05 -3.263377e-06
000280 d9 fc 93 39 ae d5 43 39 6d 5e bd b9 a0 1b 27 b9
       0.0002822641 0.00018676251 -0.00036119242 -0.00015936652
000290 75 ce 92 36 6d b4 11 39 3d de bb 38 d4 5e 51 b9
       4.375174e-06 0.00013895491 8.95825e-05 -0.0001996712
0002a0 48 65 88 b7 ed a7 68 37 ca a0 a6 38 10 8a ad 38
       -1.6259626e-05 1.3867376e-05 7.945446e-05 8.274999e-05
0002b0 f5 22 c5 b9 ff d9 40 b9 99 b7 01 b7 5c 5b 58 38
       -0.00037600813 -0.00018391757 -7.731746e-06 5.1583498e-05
0002c0 b8 7d 2e 38 61 0b e0 b8 8f 50 da b6 48 20 0e 36
       4.1601917e-05 -0.00010683272 -6.5062845e-06 2.117844e-06
0002d0 13 c0 72 38 33 cc 1d 38 71 fd ed b7 1a 0a 15 b7
       5.787618e-05 3.7621892e-05 -2.837062e-05 -8.883444e-06
0002e0 8a 9d 07 37 c4 7c 02 38 80 46 8a 37 86 2e a7 b7
       8.083307e-06 3.1110612e-05 1.6483711e-05 -1.9929616e-05
0002f0 17 7a a1 37 f7 18 c7 36 d5 73 c4 39 6f 30 42 39
       1.9249548e-05 5.9335684e-06 0.00037470335 0.00018519325
000300 06 ea 14 b8 41 71 bc b6 7b 1d 4d 34 ad f0 cd 38
       -3.55039e-05 -5.616021e-06 1.9102838e-07 9.819991e-05
000310 59 d0 c1 38 38 9a 15 b8 f2 00 31 37 19 9a 75 35
       9.241765e-05 -3.5667996e-05 1.0550242e-05 9.1493854e-07
000320 f8 7b 1a b8 ad b7 8c b7 43 ec b0 37 88 34 79 b7
       -3.6831916e-05 -1.6774831e-05 2.1090853e-05 -1.4853787e-05
000330 2f 7c 68 b7 79 63 8c 37 f2 ca bb b6 1d 0e 95 b7
       -1.3857191e-05 1.6735621e-05 -5.5966602e-06 -1.7768756e-05
000340 0a 54 94 38 6c 6f d0 b5 6c c3 c6 37 17 b3 ed 37
       7.0728434e-05 -1.5529636e-06 2.369444e-05 2.8335997e-05
000350 ac 3e e3 b8 93 87 72 b8 11 08 cc b6 f2 fc d4 37
       -0.00010835877 -5.782356e-05 -6.080613e-06 2.5390156e-05
000360 17 88 72 37 b4 8c 2b b8 0a 76 ec b6 0f 74 ec 34
       1.445601e-05 -4.0900617e-05 -7.0470896e-06 4.404287e-07
000370 42 70 c2 b9 f7 3a 61 b9 fb 95 62 39 64 b7 d4 38
       -0.00037086202 -0.00021479638 0.00021608912 0.00010143107
000380 95 95 00 37 65 3b 04 b9 f8 e8 e2 b8 91 ae 05 39
       7.664222e-06 -0.00012610627 -0.000108199136 0.000127489
000390 09 1c 71 b8 83 78 66 b5 34 bb fe b7 4f 42 04 b8
       -5.7484987e-05 -8.5857044e-07 -3.0366333e-05 -3.1533007e-05
0003a0 43 79 a6 38 05 ea 17 38 ee f3 42 b5 2b b1 e7 b7
       7.9380836e-05 3.6219153e-05 -7.2625596e-07 -2.7619846e-05
0003b0 31 80 75 b7 b5 c7 23 38 fa fb 80 37 f0 4f 80 b6
       -1.4632985e-05 3.904822e-05 1.5376125e-05 -3.824003e-06
0003c0 29 0f 68 b9 87 af 2a b9 c8 ff 8d 39 9d 62 18 39
       -0.00022130892 -0.00016277852 0.00027084188 0.00014532586
0003d0 23 e8 21 38 a7 1a 29 b9 da 55 b5 b8 64 e1 6e 39
       3.8601585e-05 -0.00016127025 -8.646744e-05 0.00022781413
0003e0 11 31 b9 b7 a5 c0 a8 b6 4b b7 6b 39 3b 61 83 38
       -2.2076567e-05 -5.029217e-06 0.00022479628 6.264677e-05
0003f0 51 8d 86 38 e4 55 8c 38 db 05 09 37 0b 3c 5b 38
       6.41594e-05 6.6917186e-05 8.1672e-06 5.226959e-05

exp_avg_sq f4 [128, 10]
000000 54 3c bd 35 30 94 18 35 7b 5e 75 35 09 a7 e8 34
       1.4099155e-06 5.6840054e-07 9.14071e-07 4.3334902e-07
000010 74 6a 24 33 c8 44 d8 34 39 e7 26 34 58 2b 7a 35
       3.8281044e-08 4.028318e-07 1.5544073e-07 9.319533e-07
000020 4a 82 7a 33 c2 bd 5f 31 66 98 c1 34 27 81 00 34
       5.8326158e-08 3.2558636e-09 3.6059936e-07 1.1967914e-07
000030 b3 b2 c8 33 88 64 0a 33 ce 23 aa 31 01 aa 91 33
       9.345731e-08 3.222206e-08 4.9517217e-09 6.783012e-08
000040 75 42 00 33 36 b4 ba 33 ce 3c 8a 33 20 d4 cb 31
       2.9862765e-08 8.69408e-08 6.437186e-08 5.9321934e-09
000050 77 76 d8 32 64 62 74 32 90 5e 80 33 1c 1c 2c 33
       2.5199581e-08 1.4225041e-08 5.977665e-08 4.0072436e-08
000060 89 e0 46 32 b5 f8 22 32 9f d5 a5 31 ce b0 80 33
       1.157617e-08 9.4861905e-09 4.826418e-09 5.992625e-08
000070 50 a3 b5 32 0d 32 20 31 cf 41 93 34 40 0e 9b 33
       2.114544e-08 2.3311515e-09 2.7428766e-07 7.220342e-08
000080 e5 c2 29 32 ca a4 1f 31 9e 30 d0 2d 39 51 d1 32
       9.881409e-09 2.3231217e-09 2.3668453e-11 2.4367738e-08
000090 43 92 9a 32 f2 ab 4b 32 13 c6 0d 31 e5 14 8a 2d
       1.7994472e-08 1.1855251e-08 2.0630793e-09 1.5698063e-11
0000a0 f0 3e 18 33 21 d5 12 33 4d 35 3a 34 a8 2e f0 33
       3.54475e-08 3.4187114e-08 1.734199e-07 1.11843576e-07
0000b0 f9 25 9d 32 cc 6c ce 32 0d ea 77 32 68 38 3b 34
       1.8294473e-08 2.4031031e-08 1.4430509e-08 1.7436253e-07
0000c0 84 36 92 33 7e 7a 2e 30 1b e4 a8 34 86 e1 e8 33
       6.808571e-08 6.3474903e-10 3.1458407e-07 1.0844364e-07
0000d0 3d 14 97 33 b7 74 cc 32 d7 e9 f2 2f 34 a4 65 33
       7.035167e-08 2.3801801e-08 4.4185697e-10 5.346756e-08
0000e0 dc 0a e9 32 7e fc 97 33 67 77 78 31 d3 1a 77 30
       2.7129708e-08 7.0774135e-08 3.6156622e-09 8.9896196e-10
0000f0 87 63 8a 36 47 92 00 36 ae fc 99 36 7b a8 38 36
       4.124307e-06 1.915863e-06 4.589171e-06 2.7516205e-06
000100 16 69 f7 34 4c a7 9c 35 50 61 16 35 fa 7f 9b 36
       4.6083795e-07 1.1671596e-06 5.602096e-07 4.6342584e-06
000110 35 9d 0d 35 fd 4d ac 32 04 b1 e9 32 b4 ea 02 32
       5.275536e-07 2.00589e-08 2.7205267e-08 7.620361e-09
000120 80 6e 09 33 af 69 f2 32 43 72 1c 32 bd 89 32 31
       3.1998297e-08 2.8220567e-08 9.106375e-09 2.5980704e-09
000130 8e 94 34 31 3e d0 0b 33 fc 78 a5 32 42 5d 5f 30
       2.627789e-09 3.2552855e-08 1.9263545e-08 8.1259455e-10
000140 54 91 51 33 a4 ef d3 32 23 de ec 33 8c b6 78 33
       4.879378e-08 2.4672609e-08 1.1030013e-07 5.7908025e-08
000150 fc ef 2a 32 2b 68 38 33 6c 73 de 31 03 89 ec 33
       9.9498685e-09 4.293558e-08 6.4741723e-09 1.1014529e-07
000160 a2 89 af 32 7b b0 a5 30 ab 9d d6 31 fc 6d 11 31
       2.043527e-08 1.2055489e-09 6.2461445e-09 2.1162796e-09
000170 f3 e5 92 31 8d 57 fe 30 49 19 5b 2f af 49 3b 31
       4.2753014e-09 1.8505816e-09 1.9926917e-10 2.7253966e-09
000180 b6 93 29 30 c6 05 9e 31 87 ba dc 30 56 05 94 2f
       6.169175e-10 4.5990616e-09 1.6060121e-09 2.6924835e-10
000190 cd 43 00 35 cf d4 97 34 3a a3 26 35 54 9f 8a 34
       4.778238e-07 2.828078e-07 6.2077345e-07 2.582043e-07
0001a0 b2 3d b8 32 e0 68 9b 34 38 23 a2 33 8e 2a 2a 35
       2.1448475e-08 2.8947306e-07 7.550119e-08 6.339186e-07
0001b0 12 40 4b 33 2c e5 0b 31 c2 93 4a 35 39 5f 9e 34
       4.7322892e-08 2.0357431e-09 7.546588e-07 2.9499077e-07
0001c0 61 0d 1f 34 57 15 1a 33 f5 9f 35 32 3f 79 3a 34
       1.4812896e-07 3.5875328e-08 1.0571957e-08 1.7366709e-07
0001d0 e6 f4 94 33 30 16 22 34 1c 68 a5 33 34 41 54 32
       6.936334e-08 1.5095497e-07 7.7023486e-08 1.235485e-08
0001e0 bf 54 ba 32 9a 1f 3d 32 45 97 f5 32 a5 19 c9 32
       2.1691788e-08 1.1008433e-08 2.8590543e-08 2.3411141e-08
0001f0 f2 f5 79 32 9e ad 52 32 42 07 50 31 b8 40 fb 32
       1.4549629e-08 1.2263085e-08 3.027211e-09 2.9249676e-08
000200 8c c9 0a 33 34 8a f9 31 42 a8 47 35 3e 38 5a 34
       3.2313935e-08 7.2625657e-09 7.4378124e-07 2.0323293e-07
000210 a1 d5 dd 34 27 4a 96 34 47 68 8b 33 74 d3 16 34
       4.1319893e-07 2.799363e-07 6.49166e-08 1.4046765e-07
000220 d4 6a 61 33 17 47 eb 34 ba de ef 33 3f 43 d3 31
       5.2484054e-08 4.3823886e-07 1.11698185e-07 6.1485532e-09
000230 f8 b6 d7 33 7c dd 04 33 81 00 9c 32 74 e6 c1 31
       1.00449995e-07 3.0935084e-08 1.816102e-08 5.6432388e-09
000240 e5 83 a2 2f 75 4a 98 32 13 2a 02 32 0d a1 a2 32
       2.9561345e-10 1.7728988e-08 7.5765625e-09 1.893252e-08
000250 f3 7e 0a 31 83 08 3a 2f 70 76 ee 35 7a b7 39 35
       2.0153805e-09 1.6919625e-10 1.7766852e-06 6.9184864e-07
000260 a7 e8 4f 35 21 6b 99 34 49 68 5d 32 4c 64 f7 34
       7.7452063e-07 2.8576417e-07 1.2887605e-08 4.608031e-07
000270 6f 5b 3d 34 35 a4 58 35 2e 6d c0 33 5f 2d fe 30
       1.763526e-07 8.0705223e-07 8.9605564e-08 1.8493828e-09
000280 3a 61 63 35 82 f5 93 34 0c d1 ac 34 f9 a5 4c 34
       8.4705573e-07 2.7559514e-07 3.2189598e-07 1.9059361e-07
000290 d3 1e 67 33 17 fc 28 34 8e 60 98 33 07 98 ad 34
       5.3811913e-08 1.5737929e-07 7.095615e-08 3.2334376e-07
0002a0 0e c6 e3 33 44 6c 1f 32 74 33 0f 36 66 1f 25 35
       1.0606537e-07 9.279635e-09 2.133861e-06 6.151298e-07
0002b0 23 a9 a2 34 b1 f0 c2 33 49 45 7b 31 08 09 a4 34
       3.0297915e-07 9.0776105e-08 3.6564691e-09 3.0553952e-07
0002c0 07 cf 23 34 47 f5 b7 34 b5 ce 76 33 5b 8c 6e 30
       1.5255874e-07 3.426487e-07 5.7464337e-08 8.678335e-10
0002d0 0f bf 1c 33 f3 8e c4 32 3c a8 bc 32 47 64 00 32
       3.6495347e-08 2.2882409e-08 2.1962585e-08 7.473381e-09
0002e0 64 c0 b8 31 da 75 c4 32 43 2f c0 31 9a 7e bc 32
       5.376977e-09 2.2870996e-08 5.5933085e-09 2.1943652e-08
0002f0 f8 0c 6f 32 3c 57 d1 31 f4 5d 5c 34 ba ab 54 33
       1.391458e-08 6.092618e-09 2.0523277e-07 4.951628e-08
000300 d5 0c 9b 31 ff c7 03 31 5d 2b 0f 2f fe 01 31 32
       4.5125526e-09 1.9176694e-09 1.302118e-10 1.0303209e-08
000310 da 54 56 32 53 e1 ab 31 a6 a2 37 30 1c 67 0d 2e
       1.24757324e-08 5.0023714e-09 6.680615e-10 3.2151268e-11
000320 a7 d4 2c 34 52 e8 9a 33 97 e3 9a 33 6e e8 cd 32
       1.6096111e-07 7.2134426e-08 7.212582e-08 2.3970838e-08
000330 2b 65 2e 31 7a e7 41 33 11 cb a4 32 4e fa 9d 33
       2.537784e-09 4.514684e-08 1.9184457e-08 7.3564124e-08
000340 fc a4 6d 32 9d 1c a1 31 ba 95 74 34 e3 0f 92 33
       1.3832729e-08 4.6889697e-09 2.2778741e-07 6.8015446e-08
000350 c0 a2 bf 32 00 12 26 32 a5 84 be 31 75 1e 16 33
       2.2309337e-08 9.666564e-09 5.5448077e-09 3.4952297e-08
000360 c3 52 8f 32 d9 2e d7 32 18 51 c9 32 b3 9b 3b 31
       1.6685027e-08 2.5050598e-08 2.3436357e-08 2.7300586e-09
000370 85 99 2e 35 8c 6d 93 34 2f 99 c1 34 33 07 1d 34
       6.504345e-07 2.746059e-07 3.6060507e-07 1.4624383e-07
000380 98 81 04 32 3d 07 30 34 a2 e2 98 33 3e a3 c4 34
       7.7128774e-09 1.639391e-07 7.119276e-08 3.662662e-07
000390 47 0d 07 33 3e 52 f1 2f 3a c5 50 33 53 b4 05 33
       3.1444213e-08 4.389608e-10 4.860815e-08 3.113048e-08
0003a0 f0 9b 12 34 68 2a ba 33 68 69 88 32 a3 fd d1 32
       1.365404e-07 8.6690136e-08 1.5880417e-08 2.4446143e-08
0003b0 99 2a 2e 32 3f 9f 14 34 ed 35 a1 32 2d 27 6b 30
       1.0137819e-08 1.3841507e-07 1.876739e-08 8.5548174e-10
0003c0 14 cc 56 34 13 83 e1 33 9a 58 4a 34 7f 7a 95 33
       2.0004546e-07 1.0501221e-07 1.8844949e-07 6.960635e-08
0003d0 0d 87 83 31 26 d0 19 34 83 4f f1 32 1c 71 50 34
       3.8279553e-09 1.432496e-07 2.809225e-08 1.9412659e-07
0003e0 ea 8b 25 33 1f 80 fb 31 e1 52 82 35 0b dc b5 34
       3.8544307e-08 7.319627e-09 9.709876e-07 3.387398e-07
0003f0 f3 8b ca 34 2c 5d 24 34 d3 72 de 31 d7 89 51 34
       3.7727258e-07 1.5307586e-07 6.4741044e-09 1.9514788e-07

exp_avg f4 [128, 32]
000000 2f 52 e6 38 40 bd 9b 39 1b e3 6c 37 07 04 b0 b9
       0.000109825625 0.00029704906 1.4119573e-05 -0.00033572337
000010 48 f7 bb b8 37 c2 23 38 25 75 26 39 b6 a1 e7 36
       -8.9629146e-05 3.9043105e-05 0.00015874633 6.903162e-06
000020 5a f4 e5 38 b2 91 d6 37 db 04 55 b9 06 b6 34 39
       0.00010965085 2.5578633e-05 -0.00020315072 0.00017233947
000030 6f 3b b2 38 ee 04 68 b9 bb 04 3c 38 68 40 5b 39
       8.498772e-05 -0.0002212708 4.48271e-05 0.0002090946
000040 f0 f7 af 37 56 fa 09 39 a0 b9 0f b9 84 df 3b 39
       2.097708e-05 0.00013158596 -0.00013706693 0.00017916976
000050 7c e7 8b 38 bd 5e 96 38 a2 fe 3d 39 af 38 07 b8
       6.671154e-05 7.170204e-05 0.00018119303 -3.22393e-05
000060 3f d1 09 b9 0b 1e 8f b9 4f 8b 27 39 43 85 60 b9
       -0.00013143288 -0.0002729747 0.00015978258 -0.00021411949
000070 67 6a e8 b9 a8 41 c6 b8 15 51 99 38 3e 4b 30 39
       -0.00044329764 -9.453605e-05 7.310711e-05 0.00016812698
000080 6d 1d b7 37 c9 89 1f 39 74 f0 8a 37 1d 61 54 b7
       2.1829002e-05 0.0001521475 1.6562852e-05 -1.2658796e-05
000090 1c 30 18 b8 e9 60 b0 38 99 ff d6 37 ef 83 b4 37
       -3.628443e-05 8.410385e-05 2.562981e-05 2.1519108e-05
0000a0 79 b2 11 36 ac df a3 b8 bd 5a ec b7 96 e3 62 b6
       2.1710568e-06 -7.814108e-05 -2.8175646e-05 -3.3809097e-06
0000b0 b5 9a 51 b8 a4 aa 8f b8 27 56 a3 b8 a5 6b 37 37
       -4.9973565e-05 -6.850556e-05 -7.788493e-05 1.0932713e-05
0000c0 b1 09 33 38 17 8e d2 b8 e1 3a 0c 38 2a 01 a0 37
       4.268595e-05 -0.000100400466 3.3433436e-05 1.9074028e-05
0000d0 08 40 4d b8 90 a2 99 37 a1 e6 4b 37 56 1d 44 b7
       -4.8935442e-05 1.831472e-05 1.215344e-05 -1.1689341e-05
0000e0 da 11 9c b6 81 eb d8 b8 01 c5 22 39 7e 69 78 b6
       -4.6512405e-06 -0.00010343549 0.00015522914 -3.7016284e-06
0000f0 05 47 84 b9 4a cd e3 b5 43 19 44 37 1e 2e e0 37
       -0.00025229916 -1.6972565e-06 1.1688392e-05 2.6724356e-05
000100 19 0b d9 b6 12 5b 08 37 30 37 e1 36 6d 13 be 38
       -6.468396e-06 8.127436e-06 6.711947e-06 9.063524e-05
000110 c5 0e 6f 36 a8 d0 36 38 2e 9f 11 b8 b8 83 e1 36
       3.5622372e-06 4.3586508e-05 -3.471894e-05 6.7208566e-06
000120 9c a8 02 b8 4c 53 42 b8 e2 de 7b 38 ac bf 64 b8
       -3.1151445e-05 -4.633078e-05 6.005064e-05 -5.4537944e-05
000130 81 43 63 b8 74 42 d6 37 54 1b 78 b8 b2 24 81 b8
       -5.4183885e-05 2.5541733e-05 -5.915326e-05 -6.1580344e-05
000140 16 91 95 37 ca da 9d b8 74 c3 4c 38 a7 26 8c b8
       1.7829745e-05 -7.527096e-05 4.881942e-05 -6.68292e-05
000150 35 59 3f b8 3d da 5c b7 33 c3 58 b8 2f 8c 8b 36
       -4.562103e-05 -1.3163834e-05 -5.1680207e-05 4.1588423e-06
000160 5a ec e0 37 c0 96 82 38 a7 e5 15 38 70 ef 8e 38
       2.681294e-05 6.2269624e-05 3.573825e-05 6.815686e-05
000170 95 c5 b9 b7 69 c8 04 38 04 93 5f b8 b8 c6 2f b8
       -2.2145725e-05 3.16579e-05 -5.3304262e-05 -4.1908323e-05
000180 da cc 85 b7 25 d1 b9 b7 d4 44 26 36 d5 3f 40 37
       -1.5950227e-05 -2.2151109e-05 2.477599e-06 1.1458954e-05
000190 f6 9c fd 35 d4 25 81 36 7a 70 b0 b6 2e 98 25 b5
       1.889565e-06 3.8489034e-06 -5.2583027e-06 -6.168874e-07
0001a0 e1 88 25 b7 ca 8d 81 b6 4d 30 91 37 ce 4e 29 b7
       -9.866636e-06 -3.861006e-06 1.7307839e-05 -1.0091533e-05
0001b0 0c 81 9a b6 e1 1f 13 37 9c 74 86 36 9a 17 61 b7
       -4.6045807e-06 8.769305e-06 4.0070863e-06 -1.341654e-05
0001c0 ee cd c5 b4 c0 b3 e3 36 df b8 a5 36 8a f8 8d b7
       -3.6843943e-07 6.786053e-06 4.938905e-06 -1.6924245e-05
0001d0 19 8d 89 b5 07 31 94 b6 a1 16 6f b7 b3 09 14 36
       -1.024836e-06 -4.4164512e-06 -1.4250779e-05 2.2059364e-06
0001e0 21 e3 de 36 43 ba c0 37 85 2d 5f b7 47 50 97 37
       6.642557e-06 2.2974918e-05 -1.3302434e-05 1.8037985e-05
0001f0 bf 36 ba 37 48 30 df 36 56 ff 86 b7 88 fd 2c b7
       2.2198421e-05 6.6515386e-06 -1.6092945e-05 -1.0311029e-05
000200 82 c2 6e 38 0a bf ac 38 9d 01 71 b6 8f ac 0d b8
       5.692477e-05 8.237183e-05 -3.5912738e-06 -3.3777727e-05
000210 1d 1e 6e b7 8d 37 b9 37 78 fd 8f 37 15 12 52 37
       -1.4192917e-05 2.2079586e-05 1.7164959e-05 1.2521185e-05
000220 b4 cb 18 37 98 a2 36 b8 67 32 15 b8 ae b3 0b 36
       9.107334e-06 -4.354361e-05 -3.557131e-05 2.0817201e-06
000230 a7 00 7f b7 18 a9 12 b8 1b 34 ee b7 c4 eb 16 38
       -1.5199336e-05 -3.4966593e-05 -2.8396074e-05 3.598236e-05
000240 7c f7 de b5 6b dc e0 b7 99 12 7e 37 84 f9 45 38
       -1.6612316e-06 -2.6805521e-05 1.514391e-05 4.720084e-05
000250 2e 93 9d b6 54 22 87 37 9e d9 ec 37 c1 a4 c6 b6
       -4.6960986e-06 1.610924e-05 2.8234728e-05 -5.9200397e-06
000260 50 b2 44 b7 4f d5 8d b8 ee ff ec 38 87 89 13 b8
       -1.1724027e-05 -6.763136e-05 0.000113010276 -3.5175613e-05
000270 d7 20 18 b9 11 03 61 b7 6f 18 0c 38 94 18 44 38
       -0.00014508083 -1.3411759e-05 3.3401357e-05 4.675293e-05
000280 f6 89 55 b6 be ef b2 b7 3b 9e 4b b7 ac 46 df 38
       -3.1819777e-06 -2.1330892e-05 -1.2136584e-05 0.00010646632
000290 75 f1 36 37 83 29 90 37 8d 2d 3e b8 4b 26 cb b6
       1.0904264e-05 1.7185468e-05 -4.5341953e-05 -6.0543293e-06
0002a0 b4 5a 11 b8 af a1 26 b7 44 26 39 37 39 5a 13 b8
       -3.4655168e-05 -9.932016e-06 1.1035769e-05 -3.5131558e-05
0002b0 2c 55 b7 b7 44 21 1a 38 cb 00 13 b8 10 fd ac b7
       -2.1854961e-05 3.6747442e-05 -3.504827e-05 -2.062184e-05
0002c0 51 6b 6a 37 11 9f 84 b8 73 d7 00 38 0d 0d 07 b8
       1.3972473e-05 -6.323879e-05 3.071823e-05 -3.2198663e-05
0002d0 a1 fd 19 b6 e1 79 b2 b7 a8 33 03 b8 c3 f9 c0 36
       -2.2946408e-06 -2.1276008e-05 -3.1280942e-05 5.751122e-06
0002e0 31 aa 80 37 3e da 39 b7 39 91 0a 37 01 02 7b 38
       1.533804e-05 -1.1077673e-05 8.259253e-06 5.984493e-05
0002f0 74 82 27 38 13 2a b3 37 4b fb 17 37 e9 de 23 b7
       3.9937397e-05 2.1358055e-05 9.05881e-06 -9.767457e-06
000300 e5 2e 43 39 c1 02 d2 38 cc d0 4f b8 5a f3 f0 b9
       0.00018614119 0.00010014093 -4.9547103e-05 -0.00045957678
000310 e8 9f 14 b8 ae af 2e b9 47 df 44 39 02 c3 16 b7
       -3.5434874e-05 -0.00016659379 0.00018775194 -8.9861005e-06
000320 f4 9e 35 39 56 6a e5 38 bd a2 b4 b9 d3 37 80 39
       0.0001732072 0.000109393775 -0.00034453525 0.00024455655
000330 5d 30 4e 39 50 38 35 b9 5b 4a 50 39 de 93 b4 39
       0.00019663708 -0.00017282483 0.00019864125 0.00034442445
000340 57 10 d9 b8 55 a6 8e 39 04 10 41 b9 b5 d5 be 39
       -0.0001035041 0.00027208278 -0.0001841188 0.00036398848
000350 cf 68 33 39 43 14 c7 38 9c 84 9d 39 a6 2c e9 b7
       0.00017109815 9.4928335e-05 0.00030044175 -2.7796556e-05
000360 a2 b6 12 b9 a8 57 c9 b9 71 f4 ca 38 84 b4 cb b9
       -0.00013991681 -0.00038403017 9.677641e-05 -0.00038853672
000370 50 16 4e b9 b1 25 2c b9 e0 85 90 39 cd d3 99 39
       -0.00019654003 -0.0001641724 0.00027565565 0.00029340238
000380 bb 20 da b6 1b 04 d4 36 6d c7 b8 36 1a d6 c5 b6
       -6.5007166e-06 6.3185703e-06 5.5068435e-06 -5.895982e-06
000390 be d4 51 b6 b0 f5 50 36 dd e9 17 36 72 d1 9f b5
       -3.126726e-06 3.1137424e-06 2.263688e-06 -1.190738e-06
0003a0 cd 00 cf 35 73 91 c6 36 ff 61 41 37 65 f6 88 36
       1.5422935e-06 5.9177924e-06 1.1526513e-05 4.0818e-06
0003b0 32 f4 12 36 96 dc 2d b6 4c 59 86 36 77 16 16 b7
       2.1897836e-06 -2.5907407e-06 4.0039067e-06 -8.945927e-06
0003c0 e7 d9 57 36 75 c3 08 37 dc 0e 16 b7 76 e6 e0 b6
       3.2164332e-06 8.15174e-06 -8.944156e-06 -6.7025494e-06
0003d0 ec ac 73 b5 3f 47 0a b5 8a 70 aa b6 36 0b 30 b4
       -9.077619e-07 -5.151268e-07 -5.079496e-06 -1.6395356e-07
0003e0 73 e0 4b b6 2c b0 a1 37 1a 34 a1 b7 c3 c9 9a 36
       -3.0380004e-06 1.9274732e-05 -1.9216957e-05 4.613046e-06
0003f0 07 22 2b 37 2a c0 89 34 61 c7 6d b7 e2 88 5b b7
       1.0200317e-05 2.5658056e-07 -1.4172722e-05 -1.3085288e-05
