models/car/policy_opp_kinematic_model_best_iter17.pth (torch, 77546 bytes, 20 tensors)

lstm.weight_ih_l0 f4 [128, 10]
00000000: a6c1 943d 7dc6 bcbe a857 193e 3739 633e
00000010: 6486 6c3d 06d5 30be eaae d03e 1656 353e
00000020: ca08 6ebe 3553 9ebe 6fb7 79be ded8 a8be
00000030: a227 e53b 8fa2 d9be 65ff 9dbe 7ffa 353d
00000040: e1f9 80be 226e 0ebd 3d06 153e a13d 913e
00000050: 098f debd 71b2 47be 8aaf 243e 2b81 8e3e
00000060: 3276 fb3e 1ca2 eabd 868f d73e a769 ac3e
00000070: 242a 463e 1988 76be b0f1 3bbe 52cb 53be
00000080: 9882 923d 5670 453d c8c5 c43d ab70 123c
00000090: be89 ab3d c1b5 a83e b7de 6d3e 79ee 543d
000000a0: a086 01bf cc3f 24bf be74 ff3d cbe5 37bd
000000b0: 1e08 003e 4db5 91bb 380c 073f fb83 003e
000000c0: 8c9d a23d 5b79 c9bd 2fbd 6cbe 00a2 8fbd
000000d0: cffd fc3d 7bfa f2bc df20 03be e2ad 6e3b
000000e0: 6bc9 f83d 7fbf 2d3e 4f59 763c 9d23 f33d
000000f0: 3756 1cbe 71ba 9dbe 8658 febb 9f34 2d3e
00000100: d825 4a3d f1d9 d2be d069 b43e 006e b63d
00000110: 43ba ea3d 4c00 bdbe 0e8f aabe 8be9 2cbe
00000120: 0eef 293e e3e6 cbbd c0b9 99be f717 d93e
00000130: b6db aebe 473c 32be b62f 663e b312 c53e
00000140: 7a6d c7be 5efb 25bd a905 5a3d 5b4c aebd
00000150: 962b 85be db9f 313d 2d7b 893d 2e4b 32bc
00000160: 13fc 65bd e6ca 83be 62b2 d2be 3f92 1cbf
00000170: 996b 8e3e a563 383e 8da4 343d 8646 a4bc
00000180: 20b5 8e3e e6c4 9e3e 29a4 19be b447 ecbd
00000190: ba30 00bd b02d 8fbe a8dd 15bb 7f9f 883d
000001a0: 54d6 2fbe f5b1 1abe 1c07 1cbd 6d3e 283d
000001b0: dc94 4dbe ce78 cbbd d8a5 aebe ef29 11bf
000001c0: 3404 913d 0d49 f03d 0622 b33c 55ba 1f3d
000001d0: cbae 463e ed6c 493e ce9b 3a3e 4230 10be
000001e0: 7675 45be bd84 96be 2bcd 1ebe d224 89bd
000001f0: e995 373e cda4 d3bd 0f29 503e 46a3 0c3e
00000200: 1aea 25bd 5441 8dbe 69c5 0abf b6cb 2ebf
00000210: 4fea 00be 34ac 303c d4ef 8dbd 2abd 96be
00000220: 1869 643e b19d 05be ed10 a43d 5bef 8abe
00000230: 3289 7ebe bd93 acbe c4de 8b3e b6f7 aebd
00000240: 60cf 383e e0b9 f13d 5f11 c13d 300e 8b3e
00000250: 04d0 823d e850 52be 17a1 71be 3502 a53d
00000260: a2ae 79bd 12c9 31bb 6a48 2abe 7908 ba3d
00000270: 8446 38bd 4240 deb9 bc0b 30bd 69c2 abbc
00000280: 595b c4bd 4a5f 94bd 995e 803d 8a2d 82bd
00000290: 7528 653e 13a1 103e fc6f 1c3d 6c96 2cbd
000002a0: 3df1 dbbd 69ff 1cbe b95a 90be ea5a 0dbf
000002b0: c25b c73c efeb e43d 5623 383e 2d65 573d
000002c0: a8a2 013e 6c4a 26bc f2c2 7fbe 45c5 05be
000002d0: 42f5 72be accd 56be 5428 a5bd 9795 9b3e
000002e0: 68dd 9a3e c305 29bd 2f72 ffbd 8de3 b63c
000002f0: 08d2 d83e da8d 533e 44fa 2d3e 7ea9 003d
00000300: b006 733d 61ae 2abd a536 65bd 8d53 98bd
00000310: 7468 23be 347c a33d aeb7 903d b479 4e3e
00000320: c93b 5c3d 98b0 24be c140 bc3d 85a3 d0bb
00000330: 7769 7d3e 75c0 6abe af41 fdbd b400 043e
00000340: 1a50 863e 737c 19bd 056d 2f3e 85b6 97bd
00000350: a153 4d39 5270 1e3e 0227 8f3e 8d99 de3c
00000360: 5624 5c3d fe22 dfbd 2889 ba3e 4aee 803d
00000370: 4ec6 883d af2f 02be 0da1 b5bd 3669 8e3e
00000380: f635 483e 95a1 45be 7636 89bd af56 4e3d
00000390: c4d1 973e 0bae 993d ac4f d33c ee20 a3bd
000003a0: 5cd1 c2bd b824 ad3e 384b 643e 7185 e7be
000003b0: 230e 473e 0421 dc3d 1ab7 7dbe 5e07 e2be
000003c0: 9e28 323e 0caa 3dbe 934d cf3e 94d8 1f3f
000003d0: 1bec d63e bf64 52be ca7c 013f f54a c53e
000003e0: 93ec a6be f481 9cbe a244 88bd f924 253d
000003f0: cb9d 8a3e f3ef 09be 5ab4 fcbd 743e 543e
0.07263498 -0.36870185 0.14974844 0.22189794 0.057745352 -0.17268762 0.4075845 0.1770862
-0.2324554 -0.30922857 -0.2438638 -0.32977957 0.00699325 -0.42506835 -0.30858913 0.044428345
-0.25190642 -0.034773 0.14553161 0.28367332 -0.108671255 -0.19501664 0.16082588 0.27832922
0.49113613 -0.11456701 0.42101687 0.33674356 0.19352013 -0.24075355 -0.18353915 -0.2068303
0.07153815 0.048202835 0.09608036 0.008937995 0.083758816 0.32951167 0.2322949 0.051985238
-0.50596046 -0.64159846 0.12473439 -0.044896882 0.12503096 -0.0044466616 0.5275302 0.12550347
0.07940206 -0.098376 -0.23119043 -0.07013321 0.12353098 -0.029660454 -0.12805508 0.003641956
0.121477924 0.16967581 0.015035941 0.11872027 -0.15267263 -0.30806306 -0.0077620177 0.16914605
0.049352497 -0.411819 0.3523698 0.089076996 0.11461308 -0.3691429 -0.33312267 -0.16885965
0.16595098 -0.099561475 -0.30024529 0.42401096 -0.34152 -0.17405806 0.22479138 0.3849083
-0.3895071 -0.040522926 0.053228054 -0.085106574 -0.26009816 0.04336534 0.06712947 -0.010882182
-0.0561486 -0.25740737 -0.4115172 -0.61160654 0.27816465 0.18006761 0.04410224 -0.02005316
0.27872562 0.31009597 -0.15004028 -0.11537114 -0.03129647 -0.27964544 -0.0022867713 0.066710465
-0.17171603 -0.15106948 -0.038092718 0.04107516 -0.20076317 -0.09935151 -0.34110904 -0.5670461
0.0708088 0.11732683 0.02186681 0.03899606 0.19402616 0.19670458 0.18223497 -0.14080909
-0.19283089 -0.29398146 -0.15507953 -0.06696476 0.1792828 -0.10334168 0.20328163 0.13734159
-0.04050646 -0.27588904 -0.54207474 -0.6827959 -0.12589382 0.010783244 -0.06930509 -0.29441196
0.22305715 -0.13048436 0.08011041 -0.2713574 -0.24857023 -0.33706465 0.27318394 -0.08543341
0.18047857 0.11803031 0.094271414 0.27159262 0.06387332 -0.20538676 -0.23596607 0.080570616
-0.06095756 -0.0027127904 -0.16629186 0.09083647 -0.044989124 -0.00042391015 -0.04297994 -0.020966725
-0.09587736 -0.072447374 0.06268043 -0.06356342 0.22378714 0.14123945 0.038192734 -0.04213564
-0.10739372 -0.15331806 -0.28194216 -0.5521685 0.024335746 0.11177813 0.1798223 0.052586723
0.12659705 -0.0101495795 -0.2497671 -0.13063534 -0.23726371 -0.20976895 -0.080643326 0.30387565
0.30247045 -0.04126526 -0.12472951 0.022325302 0.4234774 0.20659581 0.1699 0.03141164
0.05933255 -0.041670207 -0.055960316 -0.07437811 -0.15957814 0.07982674 0.07066284 0.20163614
0.053767953 -0.1608299 0.09192038 -0.0063671493 0.24747263 -0.22924979 -0.12366044 0.12890893
0.26232988 -0.0374722 0.17131431 -0.0740786 0.00019581478 0.15472534 0.27959448 0.027172828
0.05374559 -0.10895346 0.36432767 0.0629545 0.066784486 -0.12713502 -0.088686086 0.27814645
0.19551834 -0.1929992 -0.06699841 0.050375637 0.29652226 0.07503899 0.025794826 -0.07965265
-0.095125884 0.33817077 0.22294319 -0.45218995 0.19438986 0.10748485 -0.24776879 -0.44146246
0.17398307 -0.18521899 0.40488872 0.62439847 0.4197701 -0.20546244 0.5058104 0.3853375
-0.32602367 -0.30567896 -0.06653716 0.040318463 0.2707351 -0.1347044 -0.12339087 0.20726949

lstm.weight_hh_l0 f4 [128, 32]
00000000: 2bc2 4b3e 6fd5 1e3d e09a 433e 3bd1 b43d
00000010: 49b7 2bbe 359c f03c 2ce4 7c3e 99c1 4d3e
00000020: fd1c 0b3d cf0f ce3e 3f60 99bc d350 a63e
00000030: cb55 aa3e a6c5 05bf 794a 063e 3473 0cbe
00000040: d243 e8bd 9b86 113e b8bd 44be 11c7 03be
00000050: 0c33 0bbe 63e3 1b3e 0aa5 12bd eafb 8abd
00000060: 1c9b a5bd 31fa 433e 7a6e ae3d 93d8 51bd
00000070: 85b5 2fbe c048 0bbe 0a79 bdbe 633b 903d
00000080: 0eaa 3bbc cb41 853e a6ab 8a3e fc3c 3d3e
00000090: 3535 24be 09cd c53d ef1b be3d 4c90 653e
000000a0: 9732 693e 7b30 e23d 0e7c f83d 4fd0 a33b
000000b0: a819 ce3e 5ba2 78be 515a 0ebe 1639 3ebe
000000c0: 93e6 073e a98d 933d 8a59 dabe 4d73 d4be
000000d0: 851e 133f d267 e13d 032f 7ebe c607 1ebd
000000e0: b5aa a73e 2d84 483e a1e8 0cbe e8f1 cabd
000000f0: 2d9e c0bc 7f9c 9dbd 9bba 9cbe ad86 adbe
00000100: 3ca1 8b3e 1e15 b93e 9a11 32bd 468d 043c
00000110: af02 82be 017f 113c 1b0f 1b3e cb68 8bbe
00000120: 9a50 533e bdfc 8d3d 2053 04bf ad1b 7a3e
00000130: 56b7 c53d 1cad ed3b cd9e 293e 3a80 273e
00000140: f501 643e de15 a73e 8cb7 a5bd 77c6 23bd
00000150: 4658 f5bd d2d8 223d ff92 083d 8788 77bd
00000160: af26 afbe a595 94be 3312 03be cfc7 c3be
00000170: ba23 b8bd f218 f6ba 504a c53d 0641 c13e
00000180: 22f3 42be 08c1 d73d b1a8 fcbd 9ba5 a33d
00000190: 1038 42be d584 abbd a173 183e 5be4 94bd
000001a0: f6e8 a93d 0313 e63d a157 6d3e c0a1 a13e
000001b0: 30f2 483e 6e95 8fbe 85d9 dabc d0bd 063e
000001c0: 2c5e 923e bb55 28bd 65c4 13be 4061 0e3e
000001d0: 2a4b ea3d 21c0 aebd b792 5cbc 99cc 683e
000001e0: 7905 853d f5c4 353d bb53 9f3d 9068 043e
000001f0: 830f 2dbd c1e9 973c 329a d53c 8aca b4bd
00000200: c306 7f3c 4dab afbd 3f8d e03d e561 993d
00000210: 62e0 a3b9 bd4d 0abe 0ebc 23bc 4a3a d23d
00000220: bbb5 713e b193 8b3d 696b 883d 511b a03e
00000230: d839 ec3d a5e4 e8be 3f26 dbbd b4ad 93bd
00000240: 8493 09bd f31f 993e 6ce2 423e 963f a3bd
00000250: 271d 5bbe 89f9 363d e2a7 54bd 7840 86bd
00000260: 480a 453e 67c9 2e3e bba0 52be d953 19be
00000270: 3bca bfbd 1607 7dbd 8e6a a9bd c360 973d
00000280: 308d 0d3c 77a3 093d 4078 96bd 8c7c 2dbb
00000290: b310 8cbe 8f2c e9bc d1eb 5a3e 6dd8 26be
000002a0: 7cad 573e 7ee5 0fbd 8d7b 0d3e 8802 4abd
000002b0: daff 6c3e 6c66 2a3d d705 acbd 53f7 50be
000002c0: afaf 253e 3387 733c 4bba d13c d8e2 8ebd
000002d0: b02d 023e 7c35 303e 4696 9a3d f4a2 8cbb
000002e0: 19b5 703e 268e c73d af8d 23be 7a3c 47be
000002f0: 247c 1cbc c3d5 4e3e 5bcc 773c 4eed 81be
00000300: 0b7f d83d d2e9 413e ab56 82bd ce9c 9b3d
00000310: 9492 96be 28d5 ec3c 388b f8bc 9274 05be
00000320: 4b00 973d 6973 2abd 48a2 4ebd e3ef b13c
00000330: 1b7e a0bd 7a9b 83be b7ed 093e 7c8d 393d
00000340: a93b a93e b46f fb3d b3a7 043e 36fa 483e
00000350: 32c2 66be 9624 323e b331 2b3e 6d06 3c3e
00000360: e7ab bf3b 930c 74be f750 14be a7ef 3bbe
00000370: 79c4 ab3d 90d5 e83d 8957 293e 84f2 c33e
00000380: aa23 8bbe 3e2b d6bc 5b05 683e 1108 4bbe
00000390: 078e 39be 7206 b23b 9718 b83d ad41 e33d
000003a0: 92bb 58bc d7c1 e2bd 7be7 8d3e 6bf5 7e3d
000003b0: 44c8 613e 505f 89bd 9826 6a3e 1c6d 1ebe
000003c0: fea3 aebe abb3 4abe 76be a2be 61de a8bd
000003d0: ec07 133f 8464 1b3e 474d fcbe 9381 53be
000003e0: a92b a4bc cfc0 403e 0d1a 28be df2d 603e
000003f0: 4398 c5bc 85d1 1dbd 8eea d43d 7d70 f1bd
0.19898288 0.038777765 0.19102049 0.0882897 -0.16769136 0.02937136 0.24696416 0.20093383
0.033963192 0.40246436 -0.018722652 0.3248354 0.3326858 -0.5225471 0.13114347 -0.13715822
-0.11341061 0.14211504 -0.19212997 -0.12868907 -0.13593692 0.1522346 -0.035801925 -0.0678633
-0.080862254 0.19138409 0.085171655 -0.051231932 -0.17159088 -0.1360197 -0.37006408 0.07042577
-0.011454118 0.2602676 0.27084082 0.18480295 -0.16035922 0.09658248 0.09282672 0.22418326
0.22773205 0.11044403 0.121330366 0.0049991976 0.4025395 -0.24280684 -0.1390164 -0.18576464
0.13271551 0.07204754 -0.42646438 -0.41494218 0.57468444 0.1100613 -0.24822621 -0.038581632
0.32747427 0.19581671 -0.13760616 -0.09909421 -0.023512924 -0.07695865 -0.3061112 -0.33891812
0.2727145 0.36148924 -0.043473817 0.008090323 -0.25392672 0.008880378 0.15142481 -0.27228388
0.20636216 0.069329716 -0.5168934 0.2442462 0.09654109 0.0072533023 0.16564484 0.16357508
0.22266372 0.3263387 -0.080916494 -0.039984193 -0.119797274 0.039757557 0.03334331 -0.060432937
-0.342092 -0.2902042 -0.12799911 -0.3823838 -0.08991189 -0.0018775745 0.096333146 0.3774492
-0.1903806 0.10534865 -0.12336863 0.07990571 -0.18966699 -0.08374945 0.14887859 -0.07270118
0.08296387 0.11234095 0.23177959 0.31568718 0.19623637 -0.28043693 -0.02671505 0.13158345
0.28587472 -0.041097384 -0.14430387 0.13904285 0.11440118 -0.085327394 -0.013462714 0.22734298
0.064951845 0.044377286 0.07779642 0.12930512 -0.04225112 0.01854408 0.026074503 -0.08827694
0.015565577 -0.08577595 0.109644406 0.07489375 -0.0003125696 -0.13506217 -0.009993566 0.10265024
0.23604481 0.06815279 0.06661112 0.3127084 0.1153447 -0.45486942 -0.10700654 -0.072108656
-0.033587947 0.29907188 0.19031686 -0.079711124 -0.2139784 0.04467157 -0.051917918 -0.06555265
0.19242203 0.17069016 -0.20569126 -0.14973392 -0.09364744 -0.061774336 -0.08272277 0.07391503
0.008639619 0.033603158 -0.073471546 -0.002647194 -0.2735649 -0.02846363 0.2137902 -0.16293497
0.21062273 -0.03513097 0.13816662 -0.04931882 0.23144475 0.041601583 -0.08399551 -0.20406847
0.16180299 0.014863777 0.025601527 -0.06976861 0.12712741 0.17207903 0.07548194 -0.0042918865
0.23506583 0.097439095 -0.15972017 -0.19456664 -0.009551082 0.20198731 0.015124406 -0.25376362
0.105711065 0.18936852 -0.06364187 0.075982675 -0.29408705 0.028910235 -0.030339822 -0.1303275
0.07373103 -0.04161397 -0.050447732 0.021720832 -0.07836553 -0.25704557 0.13469587 0.045300946
0.3305333 0.12277165 0.12954597 0.19626698 -0.22535017 0.17396769 0.16718177 0.18361826
0.00584935 -0.23832922 -0.1448401 -0.18353139 0.083870836 0.11368859 0.16537298 0.38270962
-0.27175647 -0.026143666 0.22658293 -0.19827296 -0.18120585 0.0054328972 0.08989065 0.11096511
-0.013228314 -0.11072128 0.27715668 0.062245768 0.22049052 -0.067076325 0.22866285 -0.1547131
-0.3410949 -0.197951 -0.31785935 -0.082455404 0.5743396 0.15175062 -0.49277708 -0.20654897
-0.02004035 0.1882355 -0.16416188 0.21892498 -0.024120456 -0.03852989 0.103963 -0.117890336

lstm.bias_ih_l0 f4 [128]
00000000: 65f4 f13e 854f 443c fcb2 b53e 1173 953e
00000010: 96a7 283e 3b0c 93bd 0eba 983e 1877 b73e
00000020: b3fe a43e 1b7b 0b3f 50ec c23d 2cee ef3e
00000030: b5ea 0e3e 4679 dc3e e7da c13d 9665 173e
00000040: 32fc d63d 7887 1a3f 3c7d cd3d 2f8b 68bd
00000050: c789 0f3e 18ba 22be 7d26 483e 4e66 3abd
00000060: 1caa dd3d 8b2e ad3c a598 853e 28b6 573d
00000070: 3597 7e3e ebee 233e 29b8 4b3e 19db 073e
00000080: 8f53 473e 8ad3 f13d 9dbc b43c a0e8 963e
00000090: 45f9 033d 5afa a53d 40a1 483d 8735 68bd
000000a0: 8dc0 e9bd 870f 123e 32c8 093e 3ecf 2abd
000000b0: 42f3 d7bd 6c6e 5e3e 7837 633c 8d5e e3bd
000000c0: f334 1f3e e430 673e effa 693e 6e44 053d
000000d0: d6fc 3e3e 7d00 07bd 238a 62bd 1149 a63d
000000e0: 115e 4f3e 68b3 e0ba eff6 16be cd44 5dbd
000000f0: 6e8a 7a3e d06f 3e3e 966b aabd fcc4 b43d
00000100: 182b 91bd 1d40 133c 6db5 353e 30de 56bd
00000110: c922 a8bd 5dc4 14be d671 733e 7bb0 a2bd
00000120: 6f05 0c3e f2b8 cc3b 87a9 ab3d 7f22 6a3e
00000130: 400c 38bd 0f94 04bf ff92 f9bb 2eba 62bd
00000140: 853d 12be 04e7 0e3e 962b 763d 5403 e23c
00000150: be0b 503e 64e1 8e3c c45b d63c 5475 4dbe
00000160: 88bc 1bbb 9b48 b23c a00c 393d 7713 1b3e
00000170: fc00 ee3b 45e8 20be a153 36bd 681e d33d
00000180: f018 cf3e 5676 a83e 468f fe3d bb96 043d
00000190: 2955 3e3e 1ddb 453e 0370 873e 6b3a 583d
000001a0: 0333 e03d bc42 f53e e243 5e3e 434d 993e
000001b0: c3a3 a33e d67a 2e3f 2caa aa3d 700c d8bd
000001c0: c2da 3a3e 64c2 963e 72a3 6c3e 170d fd3d
000001d0: 3e9c c7bd a14f 1b3e 6abe 133e c05f cdbc
000001e0: d081 df3e 859e 21bd 2b3d 1f3e a1da 503d
000001f0: f757 603d 7431 0f3e e857 1fbd 1c27 24bd
0.4725677 0.01198185 0.35488117 0.2918935 0.16470179 -0.07180067 0.29829448 0.3583305
0.3222557 0.5448472 0.09517729 0.46861398 0.13956721 0.43061274 0.094655804 0.14784846
0.10497321 0.6036296 0.10033652 -0.05677336 0.14017402 -0.15891302 0.19545932 -0.04550772
0.108234614 0.021140357 0.2609302 0.052663952 0.24862368 0.16009109 0.1989447 0.13267173
0.19465469 0.11807926 0.022062594 0.29474354 0.032220144 0.081043914 0.048981905 -0.056691673
-0.11413679 0.14263736 0.13455275 -0.041701548 -0.105444446 0.2172181 0.013868205 -0.111020185
0.15547542 0.22577244 0.2284963 0.032535963 0.18651137 -0.03295945 -0.05530752 0.08119405
0.20250727 -0.0017143311 -0.14742635 -0.05402069 0.24466869 0.1859734 -0.08321302 0.08826634
-0.070882976 0.008987454 0.1774499 -0.05245799 -0.0820976 -0.14528032 0.23773894 -0.07943817
0.13673948 0.006247633 0.08381944 0.22864722 -0.044933558 -0.5178842 -0.0076164003 -0.055353336
-0.1428128 0.13955313 0.06010016 0.027589478 0.2031698 0.017441459 0.026166804 -0.20064288
-0.0023763496 0.021763137 0.045178056 0.15144144 0.007263301 -0.15713604 -0.04451335 0.10308534
0.40448713 0.32902783 0.12429671 0.03237031 0.18587174 0.19321866 0.26452646 0.052790087
0.1094723 0.47902477 0.21705583 0.2994176 0.31960878 0.6815618 0.08333239 -0.10549247
0.18247512 0.29445183 0.23109224 0.12356012 -0.09746598 0.15167095 0.14428106 -0.025070071
0.43653727 -0.039457817 0.15550677 0.05098975 0.05477139 0.13983709 -0.038902193 -0.04007636

lstm.bias_hh_l0 f4 [128]
00000000: 7c7d d13e ad9a 323e 228c a13c 6c11 a63d
00000010: 1d8b 5f3e 5d17 083e dfec f13d d493 e23e
00000020: cb1b 833d 057e 4b3f 3115 143e 12c4 c63e
00000030: 29a9 d33e 9e6c c23e f76e b03e dec4 65bd
00000040: 5fe2 e33b 8931 c33e e195 d73d 6788 433e
00000050: 5195 93bd 4137 033c 18bc fa3d 4a5e 2fbd
00000060: cb0d ad3e 3ca7 fd3b fc72 363e 6cfd 4f3e
00000070: 24cb 563d 6f0c 583e c67e db3d 48d4 183d
00000080: a53e 073e 491f 5f3e 698a 9d3e ac59 5b3e
00000090: e136 183e 7525 acbd 64fe 883e 0c60 1cbc
000000a0: 2f9e 7abc c91d 223e 6a81 183e 8f92 8d3e
000000b0: 7ccb 0dbe 159d 953e 8b06 61bd 0f27 a6bd
000000c0: 0786 013e 3504 b03d 23b7 413d baee 1e3d
000000d0: a3de 89bd 9208 993d d17f 053e 8e9c 22bd
000000e0: aed4 863e 0de1 763e 496a b83d 4744 69bd
000000f0: 2226 523d 95d4 7e3d 1e83 bb3d c4e4 bbbd
00000100: e445 813e 3ba2 85bd 7346 dfbd 4f90 99bc
00000110: a328 2fbe a472 dd3d 846c 4f3e 76b5 bebd
00000120: 15c4 0b3e 2f01 013e f173 12be df59 6a3e
00000130: 4b70 923e 49da 99be 4e9a 743e bf9b 00be
00000140: b467 843c 44d6 103e f5d5 84be 3ba1 3f3d
00000150: 019d 44bd f9df d43d 2efd 1dbd dc00 da3d
00000160: f8e2 6abd 96fd 2dbe e8e1 79bd 110c 1ebe
00000170: 01e1 54bd 3618 dbbc 29ee 1bbd 46db d33c
00000180: ce09 093f 2d30 b33d ba19 153e 9a00 5d3e
00000190: bce2 8c3e 4c36 563d 699d db3d 3526 10bd
000001a0: 9a5f f33c 79e5 083f 1ee5 623e 7e41 063f
000001b0: 54c7 2a3e a8d8 de3e 4fe5 6a3e fc92 443e
000001c0: cea3 04bd ccd6 063f 4ab0 333c fac1 4a3e
000001d0: dd03 313e 08ca 913d 7ed0 f23d 28e0 4e3d
000001e0: 443c 093e b850 223e a507 4a3c 8794 b1bd
000001f0: 22b8 ec3d 4594 ef3d 5642 2c3e b22d 093e
0.4091605 0.17441817 0.01972014 0.08108792 0.21830411 0.13290162 0.11812758 0.4425341
0.064017855 0.79489166 0.14461209 0.38821465 0.41339996 0.37973493 0.3445966 -0.05609595
0.006954476 0.3812373 0.10526634 0.19095002 -0.07206214 0.008008779 0.12242907 -0.04281453
0.33799586 0.007740883 0.178173 0.20311517 0.052439824 0.21098493 0.107175395 0.037311822
0.1320749 0.21789278 0.3076966 0.21420926 0.14864685 -0.08405582 0.26756585 -0.009544384
-0.015296503 0.15831675 0.14893118 0.27650878 -0.13847154 0.29221407 -0.05493788 -0.081129186
0.12648784 0.085945524 0.047293793 0.038801886 -0.06731918 0.07472338 0.1303704 -0.039700083
0.26334137 0.24109288 0.09004647 -0.05694988 0.051305898 0.062214453 0.09155868 -0.09174493
0.25248635 -0.06525084 -0.10902109 -0.01874557 -0.17105345 0.108128816 0.20256239 -0.09311955
0.13649018 0.12598108 -0.1430204 0.22885846 0.28601298 -0.3004935 0.23886988 -0.12559412
0.01616273 0.14144236 -0.25944486 0.04678462 -0.048001293 0.10394282 -0.03857153 0.10644695
-0.05734536 -0.16991267 -0.061006457 -0.1543429 -0.051972393 -0.026744943 -0.038068924 0.025861394
0.53530586 0.08749423 0.14560595 0.2158226 0.27516735 0.052297875 0.10723383 -0.035192687
0.029708672 0.5347515 0.22157714 0.52443683 0.166776 0.4352467 0.22939037 0.19196695
-0.03238278 0.52671504 0.010967324 0.19800559 0.1728663 0.071186125 0.11856173 0.05050674
0.13401896 0.15851104 0.012330924 -0.086709075 0.11558558 0.11698202 0.1682218 0.13396338

hidden2out.weight f4 [2, 32]
00000000: da09 c73d e801 6c3c 1d84 583c b522 25be
00000010: 09f4 c5bd 2ea7 3bbd 76c6 923d 961a 253e
00000020: 72cd b13e 1710 1cbe 91d8 bbbd c75b 4e3e
00000030: 526b 823d 94b9 5fbd a5ee 9abd 7bf8 33bd
00000040: 5b93 85be 4466 613e 03be 1fbe a05c 2b3e
00000050: 7e69 51be 49cb 3c3d 8f05 163e a4d0 e83c
00000060: c40e 103e 5f82 a23e 3c9b cf3d 4f4c 81be
00000070: 0af8 2bbd 837c cebd 8584 203d 46d8 b3bd
00000080: a5b8 cf3e 047b 413e 62a5 973e 5e9f d43d
00000090: 39bf acbe 6794 2a3c 284a f63e 50f4 c9be
000000a0: 1d4b 103e 3ae6 2a3f eff3 a3be 5f2e 303f
000000b0: 93ec c93e 1080 e3be fcb5 d03e 53c6 a53d
000000c0: bec0 7bbd d461 1a3f 9c47 d2be 0c9e 7ebd
000000d0: bf1c f83d 7ed0 f2bd f81f f0bd 5ca8 aabe
000000e0: ee2b a1be e0b4 0bbe 2ca1 babe 1bcb 23be
000000f0: 7562 bb3e 8083 b8bd 77fa dfbd 5d14 233e
0.09718676 0.014404751 0.013215092 -0.16126521 -0.09665687 -0.04581373 0.0716676 0.16123423
0.34727055 -0.15240513 -0.09172166 0.20152198 0.06368126 -0.05462034 -0.07565049 -0.04393814
-0.26088986 0.22011667 -0.15599827 0.16734552 -0.20450398 0.046092305 0.14650558 0.0284198
0.14068133 0.3174009 0.101370305 -0.2525353 -0.041984595 -0.100823425 0.03918888 -0.08781485
0.4057056 0.18894583 0.29618365 0.103819594 -0.3373964 0.010411358 0.48103452 -0.39444208
0.14091153 0.6675755 -0.32022044 0.68820757 0.39438304 -0.4443364 0.40763843 0.08094468
-0.06146311 0.60305524 -0.4107026 -0.062162444 0.12114858 -0.11856173 -0.117248476 -0.33331573
-0.31478828 -0.13643217 -0.3645109 -0.15995447 0.36598554 -0.09009457 -0.10936444 0.15925737

hidden2out.bias f4 [2]
00000000: 36c2 993e 3a38 ddbb
0.30030984 -0.0067510875

std_layer.weight f4 [2, 32]
00000000: b338 0c3e 60be 023e 2bd9 0b3d 7f0f cbbd
00000010: c3a7 70bd cc95 80bd 8477 97bd 769f d33d
00000020: 16cf 31be ced3 41bc d5f9 183e c42f dc3d
00000030: 6174 09be a44b a83d d9a6 1ebe d5df 1cbe
00000040: 862c 343e 2d05 b8bc 2709 30be 033c 15be
00000050: ab8d ac3a bad7 8c3b d174 f63d 9df2 5dbd
00000060: 6537 ab3d 85a6 4f3d 997d c03d 4ee8 31be
00000070: b429 b4bd eb09 0fbe 4579 203d 8696 01be
00000080: 7216 e2bd 117f 163d d9ec 8d3d 6e4a 773d
00000090: 0f27 003e 0e86 33be 5585 f4bc 7732 293e
000000a0: f772 2e3d 6454 783d 453f 293e 32b8 e23d
000000b0: e76d 25be 261c 9cbd 466c 0bbc 14d6 82bd
000000c0: 88d0 243e aca7 e3bd 1788 0c3c 4192 053e
000000d0: 3ce6 31be 7d7d eabd 1bce 263e 9903 2abe
000000e0: 45ed 143e e87c 883d 4207 25be 47f5 313e
000000f0: 4fd2 c4bb 8d12 8d3c 8653 1b3e 967e c33c
0.13693504 0.12767935 0.034142654 -0.09915065 -0.05875374 -0.062785715 -0.07395843 0.10333149
-0.17364153 -0.011830283 0.14939053 0.10751298 -0.13423301 0.08217552 -0.15493335 -0.1531976
0.1759511 -0.022463406 -0.17190991 -0.14573674 0.0013164779 0.0042981775 0.12034 -0.054186452
0.08360175 0.050695915 0.09398956 -0.17373773 -0.08797017 -0.13968627 0.03917815 -0.12655076
-0.11039437 0.036742274 0.06929941 0.060373716 0.125149 -0.17531607 -0.029848734 0.16523157
0.042590108 0.060627356 0.16528042 0.11070289 -0.16155206 -0.076225564 -0.008509701 -0.063884884
0.16095173 -0.11115965 0.008577368 0.13044073 -0.17372984 -0.11449716 0.1628956 -0.16602935
0.14543636 0.06664449 -0.1611605 0.17378722 -0.006006516 0.01722076 0.1516858 0.023864072

std_layer.bias f4 [2]
00000000: bfc3 613d 8b94 01bd
0.05511832 -0.031635802

exp_avg f4 [128, 10]
00000000: a576 4fb9 467f 3cb9 2bfb eb37 f1a6 31b9
00000010: 8215 81b8 d52f b939 c06b be36 2199 ee37
00000020: 0639 09b9 8913 1a38 8363 57b9 c6a5 e7b9
00000030: bd58 6239 3989 2b38 da67 2337 e4dc 9639
00000040: 39e7 bd37 20e8 6139 1a0d 6bb8 a0d9 3cb7
00000050: 70a6 ce39 4eaa 2a3a 57bb a9b9 cea3 a238
00000060: 527a 0137 bccb 5cb9 f69f b3b6 db02 aab9
00000070: 3920 ad3a 9922 2938 2e1f 68b9 8cb0 38ba
00000080: 18a3 f039 7ebf 4c39 2e7d df38 eced 4139
00000090: 01c1 cb37 bae3 ef39 c3ab 8dba f202 91b8
000000a0: 4039 2c39 ec59 5238 3842 b938 20dc 1839
000000b0: 2190 af38 bbb6 de38 51ff e3b6 e592 b838
000000c0: 2384 a338 bbfe a437 76b7 91b9 c2d0 08ba
000000d0: b07e 8f39 d205 b9b7 f761 0d37 abf8 d538
000000e0: 0a49 c937 9184 8f39 04ad 37ba 3732 60b8
000000f0: c626 c0b8 e0d7 bfb9 9d84 3739 af27 4c39
00000100: 23cb 5438 bf09 9d38 8e4e 8237 b44e 3739
00000110: 2c63 7c38 c243 d2b7 602f 1439 2045 0439
00000120: ff82 ffb7 1477 1039 9e21 d337 9d3c df37
00000130: 2694 03b7 b532 00b8 e0bd 3439 4641 9837
00000140: 08b0 11b8 dd77 bbb8 668a f238 06fe dc37
00000150: 2f28 9536 7a20 5738 b960 9b36 c116 f238
00000160: 6743 c5b9 2427 8ab7 c6e1 6d39 4241 2f39
00000170: 1b62 b338 6972 8e39 b9ce 4039 c4da be37
00000180: 25fc 80b6 3b55 b338 fd3d a4b8 3371 fe35
00000190: aa44 deb8 7b64 9c39 5637 96b9 e635 efb9
000001a0: 025a 06b9 8432 5e39 bf2c 83b7 9152 96b9
000001b0: ff61 9739 145c 9d38 63fb 8f39 bf42 3c39
000001c0: 15aa b838 78ed b439 f90c 6e39 7928 2939
000001d0: 22e1 9735 9374 b838 20db 0439 ded3 b937
000001e0: a8c1 0639 242e 4cb9 ee2a 8f39 011f d939
000001f0: bebf 2a39 a4a2 1539 dfb9 6a37 4c20 8f39
00000200: c005 1ab9 7472 90b7 095b ee38 a96c 5a39
00000210: d907 b0b8 bd10 63b7 0322 31b7 7887 aeb8
00000220: 5b03 f5b6 41a8 b0b8 0f2e 6139 2dfd f236
00000230: 6cbe 9239 3b65 73b7 f37b 7039 9f21 0a3a
00000240: 197c 4939 c977 b2b5 772e a3b5 56e4 7039
00000250: 0c12 8eb8 6b5a 78b7 935d 5eb9 2009 eab9
00000260: 08f4 5539 b36e c837 199e 0c37 41c6 7d39
00000270: 2da9 c637 ed2a 5639 8096 75b8 b125 73b7
00000280: 1b91 00ba 8af0 14ba b40c 3239 9112 84b9
00000290: 0085 9db8 e217 4539 91ef f4b6 597d 3239
000002a0: 43bc b7ba d61a 84b7 063e 3839 36ca cd39
000002b0: 93ff 88b9 ed5a 01b9 e138 62b5 e228 4f39
000002c0: 8518 43b8 7613 89b9 7660 1c39 84c9 da38
000002d0: b00b d738 7007 1c39 26bd 93b8 e811 ad37
000002e0: ede3 b736 8c78 2b38 787d 0f36 169f 93b8
000002f0: bcab 063a d57d bb37 eaa1 6eb9 3ebc bbb9
00000300: f55b 4539 0db6 acb5 a2b4 d136 b9ac 6539
00000310: ca34 a2b5 6163 4439 cd8e 85ba 6ec3 f2b6
00000320: 4c81 23b8 6c7c b6b8 a012 7938 4183 6d37
00000330: fbc1 ce36 011e 3a38 71f4 8d36 9fb4 7a38
00000340: 507b 0db9 c462 deb6 8de0 7138 8365 1739
00000350: 6937 4eb9 794c b2b7 eda5 aab7 7400 f138
00000360: 96a2 acb7 0111 4cb9 dd09 6e3a 73a2 7038
00000370: 2c55 e438 5a41 aa39 2c8b b6b8 b88d 58b7
00000380: f32b 16b8 0f7a 3fb9 dd47 8537 18f8 b6b8
00000390: 8bff 5cb8 e033 0db8 1ed6 4d39 9265 793a
000003a0: 67bd 1aba 7f18 eab9 f65a 38b9 3d8d 33ba
000003b0: ce5b a936 40a1 1aba 1746 bc3a b76e f0b7
000003c0: a9f7 3238 90cf 6938 cc01 34b8 6d3c d8b8
000003d0: a5db 0037 bcd4 6c39 300f 51b7 46bb 2eb8
000003e0: 9f73 8639 3873 5438 11d8 88b9 9c08 f9b9
000003f0: 8892 6a39 5dcb 06b6 7ae4 ed34 2f21 9339
-0.00019785257 -0.0001797649 2.8131142e-05 -0.00016942226 -6.1552055e-05 0.00035321587 5.674985e-06 2.8443117e-05
-0.00013086581 3.6734655e-05 -0.00020541069 -0.00044183264 0.00021586097 4.0897376e-05 9.739737e-06 0.00028774806
2.2638227e-05 0.00021544145 -5.6040568e-05 -1.1256343e-05 0.00039415387 0.0006510363 -0.0003237377 7.755273e-05
7.717479e-06 -0.00021056732 -5.3532376e-06 -0.00032427054 0.0013208456 4.032496e-05 -0.0002213686 -0.00070453505
0.00045897882 0.00019526292 0.00010656785 0.00018494547 2.428936e-05 0.00045755302 -0.0010808635 -6.9146874e-05
0.00016424526 5.0151648e-05 8.8338216e-05 0.00014577853 8.3714964e-05 0.00010619821 -6.79485e-06 8.801165e-05
7.797058e-05 1.9668942e-05 -0.00027793244 -0.00052190956 0.00027369475 -2.2056429e-05 8.427064e-06 0.000102029495
2.3995079e-05 0.00027373855 -0.00070066773 -5.3452528e-05 -9.1624956e-05 -0.00036591198 0.00017501642 0.0001946974
5.0733925e-05 7.488159e-05 1.5533788e-05 0.00017481559 6.0173843e-05 -2.5065503e-05 0.00014132028 0.00012614252
-3.0459369e-05 0.0001377727 2.5168814e-05 2.6611897e-05 -7.842702e-06 -3.0564803e-05 0.00017236872 1.8150207e-05
-3.4734636e-05 -8.939181e-05 0.00011565238 2.6344333e-05 4.445224e-06 5.129024e-05 4.63062e-06 0.000115436975
-0.00037624987 -1.6469108e-05 0.00022686188 0.00016713611 8.553659e-05 0.00027169593 0.00018387557 2.2751636e-05
-3.8440508e-06 8.5512605e-05 -7.8316756e-05 1.895742e-06 -0.000105985746 0.00029829502 -0.00028651458 -0.0004562579
-0.00012812766 0.00021190388 -1.5637253e-05 -0.00028671746 0.00028873977 7.503494e-05 0.00027462383 0.00017953942
8.805484e-05 0.00034509203 0.00022702281 0.00016132173 1.1315899e-06 8.795517e-05 0.00012670131 2.2152377e-05
0.00012851378 -0.00019472145 0.0002730707 0.00041412565 0.00016283893 0.00014270336 1.3990763e-05 0.00027299148
-0.00014688727 -1.7219434e-05 0.00011365681 0.00020830579 -8.393796e-05 -1.3534152e-05 -1.0557941e-05 -8.3221996e-05
-7.3019596e-06 -8.423674e-05 0.0002147483 7.2416356e-06 0.00027989165 -1.4507498e-05 0.00022934358 0.0005269292
0.00019215084 -1.3296896e-06 -1.2157969e-06 0.00022973245 -6.774449e-05 -1.4803004e-05 -0.00021206429 -0.00044638757
0.00020404172 2.3893406e-05 8.38146e-06 0.00024201816 2.3682218e-05 0.00020424621 -5.8552716e-05 -1.4492704e-05
-0.0004904435 -0.0005681595 0.00016980135 -0.00025190835 -7.5111166e-05 0.00018796281 -7.299656e-06 0.00017022098
-0.0014017898 -1.5748123e-05 0.00017570713 0.00039251306 -0.0002613036 -0.00012336271 -8.427433e-07 0.00019756288
-4.651446e-05 -0.00026145176 0.00014913254 0.00010432585 0.00010254176 0.0001488009 -7.044738e-05 2.0631545e-05
5.480359e-06 4.0881845e-05 2.1381693e-06 -7.039138e-05 0.0005137285 2.2350732e-05 -0.00022757766 -0.0003580767
0.0001882164 -1.2867982e-06 6.249714e-06 0.00021903486 -1.2085304e-06 0.00018729038 -0.0010189653 -7.234913e-06
-3.8982645e-05 -8.701612e-05 5.9383572e-05 1.4156861e-05 6.1618607e-06 4.43738e-05 4.230584e-06 5.977286e-05
-0.00013492745 -6.6276134e-06 5.7668007e-05 0.00014438298 -0.00019666333 -2.1254864e-05 -2.0342844e-05 0.0001149186
-2.0579708e-05 -0.0001946129 0.0009080449 5.737175e-05 0.00010887752 0.00032473617 -8.704359e-05 -1.29076e-05
-3.5803718e-05 -0.0001826065 1.58883e-05 -8.724647e-05 -5.269008e-05 -3.3665332e-05 0.00019630088 0.00095137313
-0.0005902857 -0.0004465021 -0.00017581493 -0.0006849354 5.04728e-06 -0.0005898662 0.001436415 -2.8661785e-05
4.266916e-05 5.5744837e-05 -4.2917018e-05 -0.00010310938 7.6805345e-06 0.00022585964 -1.2460907e-05 -4.1659245e-05
0.00025644616 5.0652045e-05 -0.00026100923 -0.00047499395 0.00022370566 -2.008593e-06 4.431093e-07 0.0002806275

exp_avg_sq f4 [128, 10]
00000000: 84e5 ba34 492b 8235 4920 5134 ba31 7434
00000010: d3ad 2533 2472 cf35 d7af d530 5629 5134
00000020: 0620 ef34 f9fb 2532 c1a3 6235 eb8b 5136
00000030: 2e2d d734 505f d032 239b e72f 43be 0d36
00000040: 8c34 a131 1a30 d734 a0c9 2d36 a206 b731
00000050: af4a 5335 10ef b536 db4b 5036 2dde 5f36
00000060: 7405 a634 25ee 5b35 ff8b 1a32 f551 5036
00000070: 309d bd37 69ef a133 9577 f535 5b11 4636
00000080: adf1 c534 85bb 6635 27a6 fb33 5447 2635
00000090: ef53 a130 e8ec c534 ac51 8136 9c85 fe31
000000a0: fb13 8434 7a0f db33 7912 8734 a659 c935
000000b0: 6aa4 8634 b69b 1f34 509d d930 050f 8734
000000c0: 3e13 8735 ecf3 4732 877a ef35 a393 7636
000000d0: fa9d 0435 9fc7 8a34 069d 1233 9bd0 5535
000000e0: d0bc 2031 37b1 0435 e3e3 a636 b9f4 da31
000000f0: 0e9b 9f35 dad8 9436 64fe 3633 2f32 5034
00000100: c9e1 fe32 042c 6a34 fda2 3c31 1b16 3733
00000110: c9f4 c136 7362 8232 0eb8 e133 03d7 0e35
00000120: a5e3 6d34 92b9 2534 04ed 8031 a2a9 0333
00000130: b85e 6931 b9ee 6d34 ca61 0735 5a61 c932
00000140: 8318 0133 f6de 3533 4f20 a433 2c11 4c32
00000150: 56ef 8831 ed37 9632 9a31 952f d824 a433
00000160: e130 6735 132e 0b31 4ac8 b033 8f10 bc33
00000170: 8708 0d34 d08c 1335 303c ff33 987d 8732
00000180: 52ce ca30 8a09 0d34 f521 b731 bf9d d331
00000190: fef6 a534 99ea fa33 56dd e734 e793 0336
000001a0: 14dd 7b34 850a 5035 09e8 0832 e2e5 e734
000001b0: 9bbc 0d36 1ee5 8933 2da2 1934 60eb 0233
000001c0: 02e7 f433 c2e1 0035 434c 0034 ec26 d934
000001d0: c620 5730 40ee f433 9edb ae34 ba7b f632
000001e0: d1bd 6634 5340 cb33 55f2 3a34 b240 3f35
000001f0: 4425 0e34 ba4a bf32 8410 0131 4ef3 3a34
00000200: 4f28 f435 b6a9 0932 bc8e 4a33 b750 da34
00000210: e679 4c34 3469 2334 7685 eb32 cb3f 1f34
00000220: 06b5 1031 7381 4c34 c0e2 6835 fefb 9931
00000230: 7417 0534 7c91 1835 83d1 4035 55d7 0936
00000240: 5f7c ae34 3f7d 1d34 31ad 4b32 e8db 4035
00000250: 93bb 1b34 e9ff 8233 594c 6a35 28df 4736
00000260: 3644 f434 c08e 1832 9cda f430 09fb d935
00000270: 70cc 8331 405b f434 13a0 a134 4a08 d430
00000280: 0e8d e235 ea5d bb36 01b3 6f35 a0ba 5435
00000290: 81ca 9233 98c5 7834 12d5 6a31 35c3 6f35
000002a0: 0dc9 9f36 7eb6 ca32 1258 be33 fd83 9434
000002b0: eb15 9534 fe3e 2734 a2fa 0633 5761 ac33
000002c0: e352 db31 872f 9534 7f40 cd34 d04f 1c33
000002d0: a57f 1d33 e182 c133 7322 8333 760f dd31
000002e0: a415 4930 775d 6532 fa27 9a2e 7a26 8333
000002f0: 6be6 2b36 c9c0 a231 272f b134 8571 ea35
00000300: 8f04 a034 9d8a 4334 eb37 c132 a497 6e33
00000310: 2384 bf30 5ded 9f34 667a b135 288c 9032
00000320: 9c22 fa32 8443 a433 8962 5e32 c0b1 2931
00000330: 36ac dd2f 9686 9a32 ee6b 6f2f e49d 5e32
00000340: 9565 fd32 05a1 1830 e81a 2235 2588 3936
00000350: 6685 f234 dade d334 617e e231 5cf7 1235
00000360: a586 2432 babe f234 806d 7537 e734 5533
00000370: 5b67 0e36 8c18 ce36 eea2 bf34 a4fb 6635
00000380: e324 d433 eb3b 9834 b47a b030 aca5 bf34
00000390: 5609 e735 4765 0532 a546 4c36 0e92 e936
000003a0: a1bd 7135 f9b4 2735 5169 e033 5c37 8c36
000003b0: b464 3630 4ec6 7135 c6f3 6037 7640 ac32
000003c0: b4f7 e134 4440 bd35 8913 ae33 51b0 2c33
000003d0: 5af8 af30 c514 7d35 dbb0 2d30 c965 ae33
000003e0: 2c2a 1f36 9de9 e031 a2bc a435 efb1 9436
000003f0: 3e3f 7735 c349 cb33 41d6 f031 0591 2a36
3.4812194e-07 9.698352e-07 1.9476387e-07 2.2742361e-07 3.857515e-08 1.5455921e-06 1.5547766e-09 1.947968e-07
4.454052e-07 9.661556e-09 8.4429854e-07 3.122487e-06 4.0079743e-07 2.425773e-08 4.2128886e-10 2.1121384e-06
4.6916906e-09 4.008187e-07 2.589637e-06 5.326755e-09 7.8712304e-07 5.422051e-06 3.103857e-06 3.3358913e-06
3.0923877e-07 8.1930403e-07 8.995811e-09 3.104212e-06 2.2603752e-05 7.540695e-08 1.8288725e-06 2.9514401e-06
3.6869952e-07 8.5954554e-07 1.1718321e-07 6.1943615e-07 1.1738147e-09 3.6866481e-07 3.8540074e-06 7.4075626e-09
2.4601454e-07 1.02007974e-07 2.515915e-07 1.5001758e-06 2.5079072e-07 1.4864676e-07 1.5833539e-09 2.5156638e-07
1.0063884e-06 1.1638786e-08 1.7842548e-06 3.6742792e-06 4.940372e-07 2.5849747e-07 3.4136086e-08 7.9652244e-07
2.3390392e-09 4.9431713e-07 4.973715e-06 6.372457e-09 1.189155e-06 4.4359886e-06 4.2606544e-08 1.9389766e-07
2.9672167e-08 2.1808961e-07 2.7450249e-09 4.2628113e-08 5.780345e-06 1.5178761e-08 1.0510858e-07 5.3212005e-07
2.2155162e-07 1.5434333e-07 3.752236e-09 3.0655094e-08 3.3959804e-09 2.2159192e-07 5.043372e-07 2.344375e-08
3.0057446e-08 4.234513e-08 7.642722e-08 1.1878267e-08 3.9853303e-09 1.748773e-08 2.7138186e-10 7.643547e-08
8.6125334e-07 2.0253352e-09 8.232071e-08 8.757444e-08 1.313475e-07 5.4966677e-07 1.1885311e-07 1.5773182e-08
1.4756074e-09 1.3135119e-07 5.3298614e-09 6.158842e-09 3.0913355e-07 1.1684205e-07 4.3188146e-07 1.9606612e-06
2.3456624e-07 7.7501346e-07 7.969001e-09 4.3194365e-07 2.112042e-06 6.421236e-08 1.4308235e-07 3.0482056e-08
1.14041555e-07 4.8012237e-07 1.1948673e-07 4.044772e-07 7.826312e-10 1.1405473e-07 3.2569818e-07 2.8694433e-08
2.1489474e-07 9.4646246e-08 1.741076e-07 7.124719e-07 1.3238338e-07 2.2269308e-08 1.8781359e-09 1.7411114e-07
1.8191148e-06 8.013037e-09 4.7161606e-08 4.0664392e-07 1.9043327e-07 1.521883e-07 2.7418292e-08 1.4831237e-07
2.1057658e-09 1.9046074e-07 8.67567e-07 4.4815343e-09 1.2395122e-07 5.683612e-07 7.1830453e-07 2.053993e-06
3.2500517e-07 1.4667329e-07 1.1855534e-08 7.184558e-07 1.4503739e-07 6.1001465e-08 8.7282893e-07 2.9783205e-06
4.5498172e-07 8.880022e-09 1.7815469e-09 1.6240821e-06 3.8358436e-09 4.5514935e-07 3.0105056e-07 1.5427386e-09
1.6879364e-06 5.5839673e-06 8.9294923e-07 7.924773e-07 6.83549e-08 2.3168684e-07 3.4172598e-09 8.93185e-07
4.7619747e-06 2.3598883e-08 8.8635844e-08 2.7663182e-07 2.776936e-07 1.5576003e-07 3.1427255e-08 8.02708e-08
6.383162e-09 2.7787993e-07 3.8231153e-07 3.639417e-08 3.6670503e-08 9.0110696e-08 6.106429e-08 6.4337042e-09
7.3154127e-10 1.3350806e-08 7.0102105e-11 6.107162e-08 2.5615107e-06 4.7367377e-09 3.3003127e-07 1.7467397e-06
2.980564e-07 1.8211217e-07 2.2493586e-08 5.555161e-08 1.3934635e-09 2.9788762e-07 1.322315e-06 1.6827542e-08
2.9119569e-08 7.649126e-08 1.2944505e-08 2.4693776e-09 4.032203e-10 1.7989162e-08 2.1775268e-10 1.2958001e-08
2.949927e-08 5.55261e-10 6.0388857e-07 2.7646395e-06 4.5173073e-07 3.9463959e-07 6.5918333e-09 5.4749194e-07
9.576671e-09 4.5214784e-07 1.4628633e-05 4.964104e-08 2.121981e-06 6.142136e-06 3.569507e-07 8.604786e-07
9.878729e-08 2.8355802e-07 1.284056e-09 3.5697065e-07 1.7213558e-06 7.764647e-09 3.043949e-06 6.960944e-06
9.005544e-07 6.24757e-07 1.044997e-07 4.17877e-06 6.635432e-10 9.006807e-07 1.3408198e-05 2.0052749e-08
4.2089744e-07 1.4100301e-06 8.10606e-08 4.020723e-08 1.2803512e-09 9.428007e-07 6.318836e-10 8.121021e-08
2.3717394e-06 6.5458168e-09 1.2273852e-06 4.431458e-06 9.21067e-07 9.466341e-08 7.009277e-09 2.5416387e-06

exp_avg f4 [128, 32]
00000000: 6dd1 a0b9 e892 a1b9 dccb b238 0f23 eab8
00000010: 9d0b 8b39 c549 60b9 6bb6 5f38 5b28 8f39
00000020: ba49 82b8 bf10 b8b9 1b86 8e39 50b2 9eb9
00000030: 0418 2a38 125f d638 1e8c a0b9 a9d8 71b9
00000040: b5e3 ffb6 f72a afb9 fb96 4ab8 212c aa38
00000050: e47e 8d38 bb0a 3e39 0763 2037 86a7 8637
00000060: 3fcc a039 1ff1 4339 bdbe 8c39 0171 1639
00000070: b076 b4b9 0e76 0039 1755 0e37 cd4e 84b9
00000080: 373c 02b9 c8c2 4eb9 4e1a a2b8 4dfb 46b8
00000090: f0ad ac38 dd91 17b9 24e8 67b8 10fb 9139
000000a0: 023e b638 e205 51b9 4057 8239 4d3f 6bb9
000000b0: 1ce5 79b7 5f3d 2db9 6f65 7cb9 00ed 48b9
000000c0: aebf 3f38 d5f5 60b9 1245 4038 8b68 a638
000000d0: 43f3 5ab8 21a8 8439 01d2 9038 b38a 7437
000000e0: aa0b 1339 0467 4239 0581 6539 8302 af38
000000f0: a547 9db9 e205 2e38 b0c9 6ab7 8986 7bb9
00000100: 6617 14b9 bc5f 85b9 eba8 bdb7 159e 5cb9
00000110: 68a2 da39 a5c7 fab8 bad1 d7b8 c2cb b9b9
00000120: 793c 87b9 0435 1139 1283 b7b9 ab28 8739
00000130: 3b29 80b9 82b7 be39 dfa0 d239 ac36 a0b4
00000140: 9bea 00b7 617a 9839 4a15 3438 450f b539
00000150: 8abe 06b8 e4ae cd37 8cc1 9836 aa4c 3039
00000160: 471d 8737 180b 54b9 7c0f 82b9 226d 16b9
00000170: 3d29 ce39 c625 bc39 1ed7 db39 aea1 7a39
00000180: 09a3 7439 e701 7e39 de37 0db8 464c 6f39
00000190: f320 a9b9 4826 3739 9fbc 64b8 947e 8d39
000001a0: 610c b139 42ad 01b8 f6dd 2339 7c45 30b9
000001b0: 4fdd 6239 ea98 e8b9 2d25 56b9 79d0 a1b7
000001c0: f62d 51b6 ac2f b3b8 d915 ccb7 6a0d 82b9
000001d0: da4e 6cb8 7b35 5438 1b24 c6b8 5d89 9ab9
000001e0: 516e 82b9 71d3 b238 b06e 8239 8fec 5c37
000001f0: a6f2 7bb9 99f5 c9b9 05a8 cab9 7cd8 13b9
00000200: 538b 3838 fdf3 8137 2f28 6fb8 c7bb d9b7
00000210: c575 0b38 cdf1 8936 3397 4bb8 bf6b 9338
00000220: 5842 8637 afcd 68b8 8fcc eb37 12ec cbb8
00000230: c927 ffb6 6b86 c4b7 d023 28b8 d57f f9b7
00000240: 9efd a1b8 55bf 84b8 43cf e437 be9b 0c38
00000250: ef6b 41b8 199f a138 a6a2 e3b8 2daa b0b8
00000260: d166 d5b8 1fe0 d237 285c c338 3ea7 2836
00000270: ac03 c537 fdab f137 12f2 58b7 41f2 e2b7
00000280: a465 4b39 b215 2839 9190 5538 719d 4639
00000290: 656a 81b9 6485 0739 5cca 8fb7 0678 1639
000002a0: 2589 8d39 16fa be38 3f0f 7238 4a1d 69b8
000002b0: f94c 6639 1b36 aeb9 e3f2 83b8 19f0 2cb6
000002c0: 5b99 8338 fae7 d937 67d6 97b8 f9b4 19b9
000002d0: 5b31 8036 5a9e 6838 40cc 77b8 1d68 4cb9
000002e0: 320f 5cb9 3535 e737 46a9 0d39 0d7a 8cb7
000002f0: 1351 3ab9 435c 83b9 6363 96b9 29f4 a1b8
00000300: 421e 2b39 e455 d3b6 c1f5 3db8 f7b3 22b8
00000310: 250e c8b8 11f5 6bb8 467d c837 7460 a3b7
00000320: f56f 3039 1509 2239 d662 98b7 d3eb cf38
00000330: c09f 9338 73df 9ab9 9466 9538 4dba 1ab8
00000340: 1750 82b7 4fa9 2639 95c9 24b8 bf8a f937
00000350: a1ec 04b8 7a99 ff38 b1b7 fd37 4d67 84b8
00000360: 000a e2b7 1c48 1e37 0fb0 e8b6 4170 6eb8
00000370: 3e8b e4b7 4bd9 3ab7 da3d 29b8 35b6 7eb8
00000380: 2026 21b8 ca2c 96b8 36bc 0ab8 f991 8ab8
00000390: 6503 8f38 c1ef 67b8 4259 a9b6 5919 16b7
000003a0: c333 6db8 14c7 7eb8 4036 22b6 e522 04b7
000003b0: 2443 50b8 a3a0 ac38 d62f 60b6 184d 98b7
000003c0: 88d8 2fb9 113b 2eb8 3068 81b6 5378 5838
000003d0: 51a8 efb6 2ffc 28b6 a9f7 84b8 62dc 5936
000003e0: 5e4c 1038 fbfd 22b6 5f74 6235 6717 5c37
000003f0: 60ca f537 6bb1 9438 5b7e 9338 56b9 57b5
-0.00030673612 -0.00030817767 8.525673e-05 -0.0001116452 0.000265208 -0.00021389786 5.3337233e-05 0.00027305153
-6.212616e-05 -0.00035107692 0.00027184267 -0.00030268962 4.0553525e-05 0.000102220234 -0.00030621974 -0.00023064263
-7.626101e-06 -0.00033410612 -4.8301164e-05 8.114451e-05 6.747039e-05 0.0001812381 9.5598e-06 1.6052054e-05
0.00030669753 0.00018686474 0.00026844992 0.00014347212 -0.00034420704 0.0001225101 8.483671e-06 -0.00025235713
-0.00012420198 -0.00019718253 -7.7296616e-05 -4.744092e-05 8.2339975e-05 -0.0001445482 -5.529089e-05 0.0002784361
8.689986e-05 -0.00019933985 0.00024860539 -0.00022434928 -1.48949e-05 -0.00016521428 -0.0002407038 -0.00019161776
4.5716464e-05 -0.00021453884 4.5840694e-05 7.9349695e-05 -5.2201805e-05 0.00025302268 6.905571e-05 1.4575827e-05
0.00014023358 0.00018539658 0.00021887205 8.345118e-05 -0.00029998753 4.149031e-05 -1.3994446e-05 -0.00023987344
-0.00014123096 -0.00025439064 -2.2609214e-05 -0.00021039725 0.00041701202 -0.00011958116 -0.000102910635 -0.0003543776
-0.00025794262 0.00013848027 -0.00035002135 0.00025779507 -0.00024444782 0.00036376348 0.0004017418 -2.98421e-07
-7.684018e-06 0.0002908288 4.293517e-05 0.00034534387 -3.2125543e-05 2.4519344e-05 4.552485e-06 0.00016813228
1.6106887e-05 -0.00020222028 -0.0002480707 -0.0001434577 0.00039322107 0.00035886298 0.0004193121 0.00023902088
0.00023330389 0.00024224036 -3.366905e-05 0.0002282123 -0.0003225874 0.00017466501 -5.4535103e-05 0.00026987924
0.00033769294 -3.0917356e-05 0.00015627578 -0.00016810553 0.00021635483 -0.00044364418 -0.0002042248 -1.9289773e-05
-3.117018e-06 -8.544265e-05 -2.4328869e-05 -0.00024805526 -5.634022e-05 5.0594546e-05 -9.448101e-05 -0.00029475513
-0.00024877724 8.5270854e-05 0.00024878 1.31681e-05 -0.00024027619 -0.00038520692 -0.00038653627 -0.00014099659
4.3998774e-05 1.5491614e-05 -5.7019464e-05 -2.5955856e-05 3.3249864e-05 4.1110675e-06 -4.8539787e-05 7.0295755e-05
1.6004939e-05 -5.5504668e-05 2.8109438e-05 -9.723766e-05 -7.604224e-06 -2.3427614e-05 -4.0087674e-05 -2.974264e-05
-7.724318e-05 -6.329889e-05 2.7276232e-05 3.3523647e-05 -4.6115307e-05 7.7067125e-05 -0.00010854499 -8.424032e-05
-0.000101757825 2.5138315e-05 9.31549e-05 2.5131299e-06 2.348594e-05 2.8809527e-05 -1.2930965e-05 -2.7054108e-05
0.00019397453 0.0001602981 5.0917795e-05 0.00018941403 -0.00024684067 0.00012924295 -1.714116e-05 0.00014349827
0.00026995796 9.106488e-05 5.7711495e-05 -5.5578806e-05 0.00021963184 -0.00033228178 -6.291808e-05 -2.5769752e-06
6.2751315e-05 2.5976438e-05 -7.240177e-05 -0.00014658635 3.820443e-06 5.5460587e-05 -5.907961e-05 -0.00019493741
-0.00020986496 2.7562122e-05 0.00013509867 -1.6746135e-05 -0.00017768545 -0.00025055007 -0.00028684278 -7.7225566e-05
0.00016319103 -6.298289e-06 -4.5289988e-05 -3.8791415e-05 -9.539378e-05 -5.6256602e-05 2.3900193e-05 -1.9476029e-05
0.00016826375 0.00015452907 -1.8165836e-05 9.914455e-05 7.039262e-05 -0.00029539652 7.12398e-05 -3.6889967e-05
-1.5534502e-05 0.00015894066 -3.9288385e-05 2.9747722e-05 -3.169163e-05 0.00012187935 3.0245488e-05 -6.313492e-05
-2.6945956e-05 9.434323e-06 -6.9346347e-06 -5.6848166e-05 -2.7244558e-05 -1.1137056e-05 -4.0350344e-05 -6.0728013e-05
-3.8420898e-05 -7.1609e-05 -3.307705e-05 -6.607542e-05 6.819404e-05 -5.529798e-05 -5.0469835e-06 -8.946598e-06
-5.655341e-05 -6.0743725e-05 -2.4171459e-06 -7.875938e-06 -4.9653594e-05 8.23152e-05 -3.3406445e-06 -1.8155712e-05
-0.00016769965 -4.1539843e-05 -3.8566286e-06 5.1610474e-05 -7.1423497e-06 -2.518074e-06 -6.340381e-05 3.24638e-06
3.4403398e-05 -2.4287717e-06 8.4360903e-07 1.3118471e-05 2.9300514e-05 7.0902366e-05 7.033042e-05 -8.036344e-07

exp_avg_sq f4 [128, 32]
00000000: 9c23 3f35 c3e6 9735 19b6 2132 5c32 5334
00000010: 36e7 5135 e3b7 1735 0db3 5333 0b94 6f35
00000020: f55d bb32 d3c8 bd35 c7b8 5235 0434 8a35
00000030: b302 ab32 bb63 b633 9c62 a035 2c8d 2935
00000040: 7980 7932 77f2 a535 8cd6 0332 4f26 e233
00000050: 0405 7332 a60e 1e35 32c5 b732 fb88 5632
00000060: 756c 5b35 3e24 e534 0e0b 8e35 5b0d 4b34
00000070: 8d3d 8435 fb77 5434 943c 9c31 1860 5735
00000080: 11e9 2535 ed34 e335 057d d233 a706 2835
00000090: a4b9 4235 98dc 9a35 b574 e233 edbb 9535
000000a0: f1df ed33 e735 6135 2d01 9935 d798 8235
000000b0: 09a6 4633 459a 1c35 ac41 4f35 92c9 6235
000000c0: 6334 1b33 5af8 3b35 ed82 8e33 b4f3 0d35
000000d0: dfda ee32 a225 0836 9ccc e133 7c4d c632
000000e0: 9663 7835 44a2 6635 2005 2035 5e1a 0134
000000f0: 00d2 ba35 0b22 1835 048b db32 55ad bd35
00000100: f17b 6f34 658d 0635 e1f8 3334 deb6 6b34
00000110: eb7b bd35 c323 5b33 bf31 3c34 2491 eb35
00000120: 34b8 3635 f7e3 1136 dfa5 9d35 92ef b435
00000130: 644c 0535 45a4 d035 4ecb 9236 20a6 0a33
00000140: 611c a234 01eb e335 0265 a533 9aec 6e35
00000150: 6caa e733 2594 d633 4932 4934 27c7 b935
00000160: adc7 0e35 0cf2 2035 ee1a 0136 a8c7 0634
00000170: b099 b635 7a05 bb35 6c23 bd35 bec3 0435
00000180: 376f 0634 5ddd 5b34 7e33 b634 3e6e 0235
00000190: 63b8 5335 f19c 3034 b9d8 bf34 b2b1 f534
000001a0: 0a70 3635 58c3 6f33 9d44 b434 1600 4034
000001b0: c252 9435 0699 ac35 14c7 6033 c802 d032
000001c0: 3c98 e133 cc6e 5f33 44ad 8034 b8fc 0c35
000001d0: 00e4 4334 5c3a bb33 7d56 2533 f1ad 9634
000001e0: 3103 4334 2251 3a34 9cdb f933 3e0f 5632
000001f0: d567 ac35 1c91 7135 c654 be35 bc43 5434
00000200: 2b76 bb33 03d0 9c33 8104 a534 c084 e133
00000210: 9078 8d33 c61c 7e33 7a32 5134 16a1 3f33
00000220: fcb4 0b32 f308 0933 bd04 5533 b486 5333
00000230: 97c6 5734 6e8d 8f32 eb97 7333 9cf6 0033
00000240: 8d41 7133 c1a1 3332 0976 ca33 0825 d833
00000250: 9ec4 3a34 ff4a 2b34 ca5e bf32 1cbd a832
00000260: 9e36 7733 b991 3733 bcb3 3132 fe74 8b31
00000270: 141d 8a34 47e5 8033 9753 8f33 a446 5d33
00000280: 52c9 8d33 e780 0634 29a7 9d34 7a54 ab34
00000290: 6710 0435 ffa9 a933 bd96 1334 486b 1835
000002a0: d56c 1d35 7471 b232 a157 a734 3ec9 8c34
000002b0: 6129 5335 ae78 8735 734b 4e34 cf4b 9333
000002c0: 5b6e 7033 ccd3 7f33 db19 0734 ba54 ba34
000002d0: 2757 cd33 b75b f733 aae5 4a33 fedc 6934
000002e0: 1a70 be33 7ff2 2334 cca0 c734 313b 8f32
000002f0: d64d a435 6221 1335 d7fa 9635 74a9 7f34
00000300: e360 d835 abee 9332 0b22 5a33 64e5 b333
00000310: 602b 1335 2223 b933 f207 e334 f308 aa35
00000320: ae00 4135 4a46 8436 fe9f 5335 7b1c 2d36
00000330: f20c a434 313f 3036 2799 2736 2753 7a33
00000340: 7168 1d32 c3b0 6f36 75ad 8a34 aa02 7034
00000350: ab85 1033 bef4 3d34 cece 4f33 9b74 9f31
00000360: 8a65 a934 b3ed 1f34 9a28 8235 4b36 9834
00000370: 0598 0535 311a d433 b17b 8333 7f88 9e33
00000380: 3c81 8234 5f53 0d34 9c7f c132 942f 0834
00000390: 1e20 8934 ca3e c533 d20e a633 13ca ab31
000003a0: 215a 5c34 ae2f 6334 0931 3533 b8d1 9433
000003b0: 9d1e a132 f6cb be34 3679 4633 a3b0 cd32
000003c0: 48d2 7633 f73f 2634 8410 1932 7498 db32
000003d0: 450b 0133 2c12 7331 43d6 8532 ec34 9032
000003e0: 23dc 9634 09dd c632 2018 2930 20b0 2733
000003f0: 4f3c 0031 593f 4334 ce9f b133 4211 d532
7.1204863e-07 1.1317537e-06 9.412838e-09 1.9669227e-07 7.8195023e-07 5.6519474e-07 4.929011e-08 8.924987e-07
2.1812392e-08 1.4140045e-06 7.849998e-07 1.029694e-06 1.9908247e-08 8.493176e-08 1.1949628e-06 6.316284e-07
1.4522919e-08 1.2364025e-06 7.673986e-09 1.05309134e-07 1.4145602e-08 5.8880903e-07 2.1393678e-08 1.2487585e-08
8.1741683e-07 4.2680944e-07 1.0583042e-06 1.8910707e-07 9.85268e-07 1.9787687e-07 4.5470845e-09 8.0233576e-07
6.1806446e-07 1.6928221e-06 9.801628e-08 6.259456e-07 7.2540774e-07 1.1538095e-06 1.0545174e-07 1.1156059e-06
1.1076907e-07 8.389747e-07 1.139973e-06 9.730237e-07 4.6251476e-08 5.833902e-07 7.7209074e-07 8.4484884e-07
3.6136395e-08 7.002433e-07 6.6362055e-08 5.288123e-07 2.7806378e-08 2.0287484e-06 1.0514597e-07 2.308547e-08
9.2532116e-07 8.5917804e-07 5.96121e-07 1.2023654e-07 1.3919198e-06 5.667395e-07 2.5558172e-08 1.4132044e-06
2.2303699e-07 5.0124646e-07 1.6761216e-07 2.1952607e-07 1.4117662e-06 5.1022436e-08 1.7526962e-07 1.7551106e-06
6.8068334e-07 2.1739377e-06 1.1745686e-06 1.3480769e-06 4.9657524e-07 1.5545016e-06 4.374807e-06 3.228172e-08
3.01955e-07 1.6981213e-06 7.7017845e-08 8.900621e-07 1.0787775e-07 9.992099e-08 1.8737877e-07 1.3841535e-06
5.318969e-07 5.995687e-07 1.9238173e-06 1.2552357e-07 1.3604786e-06 1.393418e-06 1.4091906e-06 4.9458674e-07
1.2520182e-07 2.0476496e-07 3.3937607e-07 4.85892e-07 7.8871943e-07 1.6448372e-07 3.573421e-07 4.5764097e-07
6.796332e-07 5.5824188e-08 3.3577535e-07 1.7881425e-07 1.1050945e-06 1.2859534e-06 5.2335125e-08 2.4215652e-08
1.050507e-07 5.2022003e-08 2.3967925e-07 5.252182e-07 1.8243736e-07 8.7184816e-08 3.8495717e-08 2.8066236e-07
1.8161951e-07 1.7352116e-07 1.1634913e-07 1.2459905e-08 1.2845218e-06 8.999066e-07 1.4180775e-06 1.976868e-07
8.729361e-08 7.302153e-08 3.0736922e-07 1.0501526e-07 6.587754e-08 5.9165153e-08 1.9483005e-07 4.461716e-08
8.132016e-09 3.1905937e-08 4.9597237e-08 4.9249778e-08 2.0095682e-07 1.6711706e-08 5.6716015e-08 3.0026612e-08
5.6171803e-08 1.045595e-08 9.4278285e-08 1.006502e-07 1.7394129e-07 1.59529e-07 2.2278432e-08 1.9643771e-08
5.7558843e-08 4.274054e-08 1.0343623e-08 4.058733e-09 2.572566e-07 6.00217e-08 6.674161e-08 5.151982e-08
6.602444e-08 1.2526617e-07 2.9365154e-07 3.1912697e-07 4.91977e-07 7.900598e-08 1.374528e-07 5.678053e-07
5.864543e-07 2.077352e-08 3.1169932e-07 2.6223455e-07 7.866384e-07 1.0093406e-06 1.9212693e-07 6.8590104e-08
5.5979722e-08 5.9564442e-08 1.2582261e-07 3.4706846e-07 9.561909e-08 1.15185166e-07 4.724067e-08 2.1780212e-07
8.8679556e-08 1.5268778e-07 3.7183634e-07 1.6674308e-08 1.2241605e-06 5.4810346e-07 1.1248875e-06 2.3810372e-07
1.6121452e-06 1.7221586e-08 5.0788042e-08 8.377063e-08 5.4824886e-07 8.6211244e-08 4.2287826e-07 1.2668592e-06
7.189909e-07 3.9420893e-06 7.8836445e-07 2.5795587e-06 3.05568e-07 2.6262826e-06 2.4974086e-06 5.8283288e-08
9.16235e-09 3.5716664e-06 2.583071e-07 2.2352711e-07 3.3649183e-08 1.7691033e-07 4.838403e-08 4.6407655e-09
3.1552582e-07 1.4894503e-07 9.697571e-07 2.835171e-07 4.976758e-07 9.8767835e-08 6.122662e-08 7.382277e-08
2.4308417e-07 1.3161979e-07 2.2526187e-08 1.2683296e-07 2.5541607e-07 9.1849486e-08 7.732673e-08 4.999728e-09
2.0521885e-07 2.1158368e-07 4.2186944e-08 6.929935e-08 1.8756788e-08 3.553866e-07 4.6210708e-08 2.3945466e-08
5.7467588e-08 1.5483225e-07 8.909527e-09 2.5564283e-08 3.0045403e-08 3.5371484e-09 1.5580673e-08 1.6787872e-08
2.8099848e-07 2.3150749e-08 6.1516126e-10 3.9042902e-08 1.8660733e-09 1.8183836e-07 8.271273e-08 2.4804311e-08
