models/car/policy_opp_kinematic_model_best_iter11.pth (torch, 77546 bytes, 20 tensors)

lstm.weight_ih_l0 f4 [128, 10]
0	0x3dcb1b9f	0.09917378
1	0xbe95c832	-0.292543
2	0x3dcf2a99	0.10115547
3	0x3e4129b8	0.1886357
4	0x3c9a346a	0.018823821
5	0xbe4b0fdb	-0.19830267
6	0x3eab7232	0.33485562
7	0x3e068ca3	0.13139586
8	0xbea04cad	-0.313085
9	0xbea1f49f	-0.31631944
10	0xbe627a87	-0.22117053
11	0xbe9e43ce	-0.30911106
12	0xbbbd5609	-0.0057780785
13	0xbf0014e7	-0.50031894
14	0xbe9654e7	-0.2936165
15	0x3d09d06c	0.033646032
16	0xbe89f36b	-0.26943526
17	0xbd4345f5	-0.047674138
18	0x3e000da6	0.12505206
19	0x3e8c7bcb	0.27438197
20	0xbdb8ef98	-0.09030074
21	0xbe1d60b5	-0.15368922
22	0x3e2846ba	0.1643323
23	0x3e1a70bc	0.15082067
24	0x3eb17f0d	0.34667245
25	0xbde40dc8	-0.11135441
26	0x3ed8e0ab	0.42358908
27	0x3ead38e9	0.33832482
28	0x3e46b5da	0.19405308
29	0xbe761578	-0.24031627
30	0xbdec0497	-0.11524313
31	0xbe4d8f7b	-0.20074265
32	0x3d93194c	0.07182559
33	0x3dad3c70	0.08458793
34	0x3e1780c2	0.14795211
35	0xbc541eba	-0.012946779
36	0x3d949f60	0.07256961
37	0x3ea892e3	0.32924566
38	0x3e6977c4	0.22799593
39	0x3d34fab8	0.044184417
40	0xbec6ec46	-0.38852137
41	0xbeda18df	-0.425971
42	0x3df68965	0.12037925
43	0xbd39ce52	-0.045362778
44	0x3e18726f	0.14887403
45	0xbcc977ba	-0.024593223
46	0x3f022fef	0.5085439
47	0x3df6cdfa	0.12051006
48	0x3d4a9a6a	0.049463667
49	0xbdc0ab90	-0.09407723
50	0xbe3bb0eb	-0.18329208
51	0xbd41625f	-0.047212955
52	0x3dc76a54	0.09737077
53	0x3b87c559	0.0041433987
54	0xbdbf7c7a	-0.09349914
55	0xbc0acb05	-0.008471255
56	0x3dd160bb	0.10223528
57	0x3e158a08	0.14603436
58	0x3c0df6c7	0.008664793
59	0x3e0d3a6e	0.1379182
60	0xbdeee4f3	-0.11664762
61	0xbe84aedc	-0.25914657
62	0x3cb445ea	0.022005994
63	0x3e38a665	0.18032224
64	0x3d240f59	0.0400537
65	0xbebdfb99	-0.37106016
66	0x3ebed224	0.372697
67	0x3ded0cd2	0.11574711
68	0x3dcd87ae	0.100356445
69	0xbeb925a9	-0.36161545
70	0xbe920f44	-0.28527272
71	0xbcdb75df	-0.026789604
72	0x3e141120	0.14459658
73	0xbdfb631d	-0.12274764
74	0xbeb172de	-0.3465795
75	0x3ec47dc8	0.38377213
76	0xbeb54128	-0.35401273
77	0xbe482222	-0.1954427
78	0x3e42eb8e	0.1903517
79	0x3ec94bf5	0.39315763
80	0xbe6ab21c	-0.22919506
81	0x3d9c81d6	0.07641952
82	0x3d200adc	0.039072856
83	0xba0cba08	-0.0005368297
84	0xbe523119	-0.20526542
85	0xbd392103	-0.045197498
86	0x3d875b60	0.06609225
87	0xbca3a723	-0.019977158
88	0xbd3b4971	-0.045724336
89	0xbe8989b6	-0.26862878
90	0xbe855fd6	-0.2604968
91	0xbe963f0a	-0.2934497
92	0x3e9e7504	0.3094865
93	0x3e635d91	0.22203662
94	0x3df7e5a8	0.1210435
95	0xbe5d0bdb	-0.21586554
96	0x3eaf2576	0.34208268
97	0x3eaf142e	0.34195083
98	0xbeadfce4	-0.33982003
99	0xbe57f4b5	-0.21089442
100	0xbd02cc5b	-0.03193317
101	0xbe0e9c00	-0.13926697
102	0x3b46798a	0.0030284845
103	0x3d42e451	0.04758102
104	0xbe3c79ca	-0.18405834
105	0xbe31ebc3	-0.17375092
106	0xbcbe9fed	-0.023269618
107	0x3d3c6560	0.045995116
108	0xbe611deb	-0.21984069
109	0xbdfa0c6d	-0.12209401
110	0xbe2ebcfa	-0.17064276
111	0xbe7cf0b1	-0.24701191
112	0x3daf7c1f	0.08568596
113	0x3e021022	0.12701467
114	0x3d99db44	0.07512525
115	0xbb5a59b9	-0.003331764
116	0x3e6cc09f	0.23120354
117	0x3e5780c9	0.21045221
118	0x3decd931	0.115648635
119	0xbe4586ed	-0.19289751
120	0xbe09f1d4	-0.13471156
121	0xbe07325b	-0.13202803
122	0xbe23a4e8	-0.15980875
123	0xbd92786c	-0.07151875
124	0x3e3969e4	0.181068
125	0xbd6c794e	-0.057732873
126	0x3e3216c1	0.17391492
127	0x3e07af79	0.13250531
128	0xbd448475	-0.047977883
129	0xbe82a1ab	-0.25513968
130	0xbeabaae0	-0.33528805
131	0xbee850eb	-0.45374236
132	0xbe09f8cf	-0.13473819
133	0x3d4eac78	0.050457448
134	0x3d5d90b6	0.054093085
135	0xbea99399	-0.3312042
136	0x3e84afa6	0.2591526
137	0xbe12bb38	-0.14329231
138	0x3dbcd173	0.09219637
139	0xbe9ecc43	-0.31015214
140	0xbdfdb047	-0.12387138
141	0xbe84b514	-0.25919402
142	0x3e942d78	0.2894094
143	0xbd943208	-0.07236105
144	0x3e57e9cc	0.2108528
145	0x3d4daad2	0.050211735
146	0x3ddee137	0.108828
147	0x3e93a661	0.28837875
148	0x3d384059	0.04498324
149	0xbe6d06ee	-0.23147175
150	0xbe638c44	-0.22221476
151	0x3db8e0b5	0.090272345
152	0xbda93d82	-0.08263685
153	0xbc9a8e32	-0.018866632
154	0xbe63cb95	-0.22245629
155	0x3da05f69	0.07830698
156	0xbda4de21	-0.0805018
157	0xbc929396	-0.01789264
158	0xbdbc4ad4	-0.0919396
159	0xbc8af637	-0.016963108
160	0xbdce92cf	-0.10086595
161	0xbd8469e0	-0.064655066
162	0x3d4476fb	0.04796503
163	0xbd4b2f76	-0.04960581
164	0x3e52583c	0.20541471
165	0x3dac806b	0.08422931
166	0x3d569095	0.052383978
167	0xbd5f8594	-0.05457075
168	0xbd8b1785	-0.06791595
169	0xbe25f9d4	-0.16208583
170	0xbe709ee1	-0.23498107
171	0xbedd9151	-0.4327493
172	0x3ced4168	0.028961852
173	0x3dd1b51e	0.102396235
174	0x3e363e0c	0.17797107
175	0x3c80d06d	0.015724385
176	0x3e1d0c13	0.15336637
177	0xbbb7a795	-0.005604694
178	0xbe983458	-0.29727435
179	0xbe285fa7	-0.16442738
180	0xbe1d1c18	-0.15342748
181	0xbd4d9a06	-0.050195716
182	0xbdd896b4	-0.10575619
183	0x3e338ad0	0.17533422
184	0x3e5ac028	0.21362364
185	0x3c822b58	0.015889809
186	0xbe39786e	-0.18112347
187	0x3a29d190	0.00064780656
188	0x3ed0c521	0.40775397
189	0x3e7592d6	0.23981795
190	0x3e2eafdf	0.17059277
191	0x3cecbf4d	0.028899813
192	0x3d7a9866	0.061180495
193	0xbce6aa93	-0.028157508
194	0xbd0575f5	-0.032583196
195	0xbdc0ae7a	-0.09408279
196	0xbe1e41aa	-0.15454736
197	0x3da604b7	0.08106368
198	0x3d51f408	0.051258117
199	0x3e46c6e9	0.19411816
200	0x3de0a89d	0.109696604
201	0xbddc2edc	-0.10751125
202	0x3d8c0ce8	0.06838399
203	0x3ce45de9	0.027876811
204	0x3e78b02e	0.24285957
205	0xbe21fc3f	-0.1581888
206	0xbe119f5e	-0.1422095
207	0x3de571c8	0.11203343
208	0x3e883638	0.26603866
209	0xbbc194c8	-0.0059076287
210	0x3e1bb21e	0.15204665
211	0xbd92f3b4	-0.07175389
212	0xbd013b21	-0.03155053
213	0x3dcfe4fa	0.10151096
214	0x3e311064	0.17291409
215	0x3bec6e87	0.0072153243
216	0x3d4b4cba	0.04963372
217	0xbe08eca6	-0.13371524
218	0x3eb69434	0.35659945
219	0x3d7f0db9	0.062268946
220	0x3d787a70	0.06066364
221	0xbe07cc85	-0.13261612
222	0xbdcf80ce	-0.101319894
223	0x3e86a604	0.26298535
224	0x3e42183c	0.18954557
225	0xbe45f262	-0.19330743
226	0xbdae06ee	-0.084974155
227	0x3d1befad	0.03807037
228	0x3e96d742	0.29461104
229	0x3e01d110	0.12677407
230	0x3cb33df1	0.021880122
231	0xbd8d1344	-0.0688844
232	0xbdb8be47	-0.090206675
233	0x3e9f4a76	0.31111497
234	0x3e607cdc	0.2192263
235	0xbedfa4cb	-0.43680415
236	0x3e47eb36	0.1952332
237	0x3dea4c0c	0.11440286
238	0xbe80be78	-0.25145316
239	0xbecf8493	-0.40530834
240	0x3e404f02	0.18780139
241	0xbe3038c0	-0.17209148
242	0x3ebdc0af	0.37061068
243	0x3eebf07b	0.4608191
244	0x3ece7057	0.40320083
245	0xbe5f8cb4	-0.21831018
246	0x3ef7f8e6	0.48432082
247	0x3eb67959	0.35639456
248	0xbeaae104	-0.33374798
249	0xbe9ad834	-0.30243075
250	0xbd50f7f8	-0.05101773
251	0x3d56829f	0.052370664
252	0x3e81c464	0.25345147
253	0xbde222c8	-0.1104179
254	0xbdd3ee1e	-0.103481516
255	0x3e47f188	0.1952573

lstm.weight_hh_l0 f4 [128, 32]
0	0x3e517111	0.20453288
1	0x3d6ddfa0	0.058074594
2	0x3e4c3467	0.19941865
3	0x3e05e016	0.13073763
4	0xbe32b642	-0.17452338
5	0x3d675258	0.056475013
6	0x3e529a21	0.20566608
7	0x3e3c5cb4	0.18394738
8	0xbd29ad1d	-0.04142486
9	0x3ed06fb1	0.40710214
10	0xbd173d75	-0.036923844
11	0x3ea71a0c	0.3263706
12	0x3ea1b6c5	0.31584755
13	0xbe865cd6	-0.26242703
14	0x3e09dbe7	0.13462792
15	0xbde91b56	-0.11382167
16	0xbd746054	-0.05966218
17	0x3e1174a7	0.14204656
18	0xbe28e4d8	-0.16493547
19	0xbe61156a	-0.21980825
20	0xbe11a0e9	-0.14221539
21	0x3ddd6b39	0.10811467
22	0xbd55f89e	-0.052239053
23	0xbd86fbca	-0.06590994
24	0xbdc2a0fd	-0.09503362
25	0x3e2b1c4a	0.1671001
26	0x3dacb97c	0.08433816
27	0xbd621cb1	-0.055203144
28	0xbe1c686c	-0.15274209
29	0xbe234b6c	-0.1594674
30	0xbec3c09b	-0.38232884
31	0x3dc029fa	0.093830064
32	0xbbf2f161	-0.0074140285
33	0x3e891129	0.26770905
34	0x3ea39178	0.3194692
35	0x3e4dc856	0.20095953
36	0xbe27dfa7	-0.1639391
37	0x3ddf76fe	0.10911368
38	0x3d81bb2f	0.063345306
39	0x3e659dd3	0.22423486
40	0x3e61dc23	0.22056632
41	0x3de6583f	0.112473
42	0x3de6cad7	0.112691574
43	0x3bbd81a2	0.0057832757
44	0x3ec85b04	0.3913194
45	0xbe6d2b03	-0.23160939
46	0xbe0d3163	-0.13788371
47	0xbe3a7963	-0.18210368
48	0x3e33b355	0.17548878
49	0x3d8d8edf	0.06912016
50	0xbed39730	-0.41326284
51	0xbed10f78	-0.40832114
52	0x3f0e3185	0.5554431
53	0x3dd2dd55	0.10296122
54	0xbe85b6bc	-0.26115978
55	0xbd4f363f	-0.050588842
56	0x3e9e1f5c	0.308833
57	0x3e416c67	0.18889008
58	0xbe0b35e8	-0.13594782
59	0xbdc48b39	-0.09596867
60	0xbc8130b5	-0.015770296
61	0xbda0652e	-0.078317985
62	0xbe98d8ab	-0.29852805
63	0xbea6fa25	-0.3261272
64	0x3e9160a0	0.28394032
65	0x3eb63e6b	0.35594496
66	0xbd8dfd9c	-0.06933138
67	0xba1c202a	-0.00059557206
68	0xbe7c0618	-0.246117
69	0x3d22f8c3	0.03978802
70	0x3de18886	0.11012368
71	0xbe86bcbb	-0.26315865
72	0x3e49bf4d	0.19701882
73	0x3d82bd91	0.06383813
74	0xbf025e65	-0.50925285
75	0x3e656a2f	0.22403787
76	0x3d95b363	0.07309606
77	0x3cc54ba1	0.024083914
78	0x3e268baf	0.16264223
79	0x3e46c52c	0.19411153
80	0x3e8d6d17	0.2762229
81	0x3e9e7887	0.3095133
82	0xbcb2fdcb	-0.021849534
83	0xbd127189	-0.035752807
84	0xbe26adf1	-0.16277291
85	0x3d384441	0.044986967
86	0x3ca70734	0.020389177
87	0xbd610b33	-0.05494232
88	0xbeb52b97	-0.3538482
89	0xbe8bacc0	-0.27280235
90	0xbdfbe2e1	-0.12299133
91	0xbea36b51	-0.31917813
92	0xbda70048	-0.081543505
93	0x39efbb74	0.00045725296
94	0x3dc7ff11	0.09765447
95	0x3eb3f02a	0.35144168
96	0xbe2ef1df	-0.17084454
97	0x3e0c7ff6	0.13720688
98	0xbe003892	-0.1252158
99	0x3d955f2b	0.072935425
100	0xbe3806a8	-0.17971289
101	0xbd9254fb	-0.07145115
102	0x3e1381a0	0.14404917
103	0xbdadf5d3	-0.08494153
104	0x3d976bb0	0.07393587
105	0x3e0a09a8	0.13480246
106	0x3e46f713	0.19430189
107	0x3ea3a304	0.3196031
108	0x3e4e372a	0.20138231
109	0xbe8bec05	-0.27328506
110	0xbcb64105	-0.0222478
111	0x3e147d75	0.14500983
112	0x3e7aa716	0.244778
113	0xbce2829a	-0.027650166
114	0xbe13865d	-0.14406724
115	0x3e125665	0.1429077
116	0x3dc7cae8	0.09755498
117	0xbdb944a7	-0.090462975
118	0xbd86e958	-0.065874755
119	0x3e3e1374	0.18562108
120	0xbd1cf8bb	-0.038323145
121	0x3cc7763e	0.024348374
122	0x3d8e9547	0.06962066
123	0x3d3a5d95	0.045499403
124	0xbcfe08c2	-0.031010035
125	0x3c4114d4	0.011784751
126	0x3cb2f8ce	0.021847155
127	0xbd330e45	-0.04371478
128	0xbbc0ec82	-0.005887569
129	0xbd84fb10	-0.06493199
130	0x3dc791c6	0.09744601
131	0x3d9f0ec1	0.07766486
132	0x3c6f5534	0.014607716
133	0xbde1a319	-0.110174365
134	0xbd2d4592	-0.042302676
135	0x3de562d5	0.11200491
136	0x3dcd6152	0.10028328
137	0x3c84557e	0.016154047
138	0x3d7cd616	0.061727606
139	0x3e67fe4d	0.22655602
140	0x3dad79b4	0.08470479
141	0xbe7bd916	-0.2459453
142	0xbe142fd3	-0.14471368
143	0xbd405e98	-0.04696521
144	0xbc1b8885	-0.009492998
145	0x3e521058	0.20514047
146	0x3e5c0fe6	0.2149044
147	0xbd9ad559	-0.07560224
148	0xbe6c47dc	-0.23074287
149	0x3d0f9405	0.03505327
150	0xbd6b5171	-0.057450715
151	0xbd5575d9	-0.05211434
152	0x3e1d9443	0.15388589
153	0x3e1a574f	0.15072368
154	0xbe160ec0	-0.14654064
155	0xbe1fc849	-0.15603746
156	0xbda5da4d	-0.08098278
157	0xbd53fa04	-0.051752105
158	0xbd7b08ba	-0.06128762
159	0x3ddf6d20	0.10909486
160	0xbd0e208a	-0.034699
161	0xbcb550af	-0.0221332
162	0xbda19dd4	-0.078914315
163	0xbcaf2f30	-0.021384805
164	0xbe6a6078	-0.22888362
165	0xbd47b13c	-0.04875301
166	0x3e38d84e	0.18051264
167	0xbe12180c	-0.14266986
168	0x3e2f830b	0.17139833
169	0xbdd2627c	-0.10272691
170	0x3e1d7ff5	0.15380843
171	0xbda22133	-0.079164885
172	0x3e4e9ec3	0.2017775
173	0x3d99aaa1	0.07503248
174	0xbe05b72e	-0.13058159
175	0xbe5e86cf	-0.21731113
176	0x3e0a8b62	0.13529733
177	0xbcd7b6cc	-0.026332282
178	0x3d833841	0.06407214
179	0xbd49ef38	-0.049300402
180	0x3dc18f91	0.09451211
181	0x3e2314b5	0.15925868
182	0x3d74d4c7	0.059773233
183	0x3b92089c	0.0044565927
184	0x3e8151e5	0.25257793
185	0x3dcc99d5	0.09990279
186	0xbe0f1d73	-0.13976078
187	0xbe2fc3dc	-0.17164558
188	0xbc2861ba	-0.010277206
189	0x3e644250	0.22290921
190	0x3d25aa7b	0.040445786
191	0xbe7bf0de	-0.24603602
192	0x3da5f9fa	0.0810432
193	0x3e1b7586	0.1518155
194	0xbda3cfea	-0.07998641
195	0x3da95a4b	0.08269175
196	0xbe8ebd74	-0.27878916
197	0x3d128d86	0.0357795
198	0xbd2aa74d	-0.041663457
199	0xbdcea193	-0.100894116
200	0x3d6b3dca	0.057431974
201	0xbd8669b3	-0.06563129
202	0xbc4e8736	-0.012605479
203	0xbc179022	-0.0092506725
204	0xbdae84ad	-0.085214
205	0xbe716360	-0.23573065
206	0x3de1bcae	0.11022316
207	0x3cb9397a	0.022610415
208	0x3e89d4f2	0.26920277
209	0x3dc8c5c2	0.09803344
210	0x3e0fd0b3	0.14044456
211	0x3e36d9ba	0.17856494
212	0xbe6a701b	-0.22894327
213	0x3e3aa8d8	0.18228471
214	0x3e01dd5a	0.12682095
215	0x3e11838d	0.14210339
216	0x3c417315	0.011807223
217	0xbe4e9217	-0.20172916
218	0xbe00a47d	-0.12562747
219	0xbe05bc44	-0.13060099
220	0x3d5c67a0	0.053809762
221	0x3dd2ab0b	0.1028653
222	0x3e0aa16d	0.13538142
223	0x3eba48fc	0.36383808
224	0xbe94d84e	-0.29071277
225	0x3bd0e9ec	0.006375542
226	0x3e2d21c5	0.16907413
227	0xbe1dd78c	-0.15414256
228	0xbe273221	-0.16327716
229	0x3daad668	0.08341676
230	0x3d2895ed	0.041158605
231	0x3de5190f	0.1118642
232	0xbd1f1eae	-0.038847618
233	0xbe1d763f	-0.15377139
234	0x3e91eba2	0.28500086
235	0x3cb164be	0.021654483
236	0x3e25c55b	0.16188566
237	0x3cabe813	0.020984685
238	0x3e4bb5ef	0.19893621
239	0xbdaefe73	-0.08544626
240	0xbe7016d6	-0.23446211
241	0xbe7eb782	-0.2487469
242	0xbe935a76	-0.28779954
243	0xbdce3bfa	-0.10070033
244	0x3f0c0011	0.546876
245	0x3d54a8c1	0.05191875
246	0xbecf42e3	-0.40480718
247	0xbdf7dc81	-0.12102605
248	0xbcadf009	-0.021232622
249	0x3dfa2c0c	0.122154325
250	0xbded4808	-0.115860045
251	0x3e815748	0.25261903
252	0xbcc22557	-0.023699446
253	0xbd170342	-0.03686834
254	0x3df80de7	0.12112027
255	0xbd993dfd	-0.074825265

lstm.bias_ih_l0 f4 [128]
0	0x3ebf8b00	0.37410736
1	0xbc0f8258	-0.008759104
2	0x3ea1245d	0.31473055
3	0x3e96fc1e	0.29489225
4	0x3d6e8d4e	0.058240227
5	0xbdbcd630	-0.092205405
6	0x3e7e4b3d	0.24833389
7	0x3e5bef53	0.21478014
8	0x3e5019df	0.20322369
9	0x3ec237e6	0.37933272
10	0xbc3fa6c2	-0.011697473
11	0x3e8634e2	0.2621222
12	0x3b7e2334	0.0038778307
13	0x3e7a8f32	0.24468687
14	0x3d805b49	0.06267411
15	0x3e0c916f	0.13727354
16	0x3dbe50cf	0.09292757
17	0x3efcdd9b	0.49387822
18	0xbd86650e	-0.065622434
19	0xbd5756cf	-0.05257302
20	0x3dac1535	0.084024824
21	0xbe273cd2	-0.16331795
22	0x3e49abf2	0.19694498
23	0xbd663a0d	-0.056207705
24	0x3dc2d741	0.09513713
25	0x3c0ed51e	0.008717803
26	0x3e766bc4	0.24064547
27	0x3cef5e91	0.029219897
28	0x3e4c2469	0.19935764
29	0x3e142e55	0.144708
30	0x3e46cf48	0.19415009
31	0x3e00d10a	0.12579742
32	0x3e339a38	0.17539299
33	0x3df561af	0.11981522
34	0x3b9bcd19	0.004754674
35	0x3e93ed35	0.28891912
36	0x3c3499a7	0.011022962
37	0x3d909031	0.07058752
38	0x3cea9513	0.028635537
39	0xbd469a17	-0.048486795
40	0xbe06fb1f	-0.13181733
41	0x3e13f42a	0.1444861
42	0x3e030fa1	0.1279893
43	0xbd4e75eb	-0.050405424
44	0xbdda04fc	-0.10645482
45	0x3e2d7627	0.16939603
46	0x3d1114b1	0.035420123
47	0xbdf0ab30	-0.117514014
48	0x3e017163	0.1264091
49	0x3e60eb5a	0.2196478
50	0x3e503667	0.20333253
51	0x3d087663	0.033316027
52	0x3e4301cd	0.19043656
53	0xbcfb59ec	-0.030682527
54	0xbdabd015	-0.08389298
55	0x3dc4264e	0.095776185
56	0x3e4ba06a	0.19885412
57	0x3c3767ad	0.011194152
58	0xbdc343b6	-0.09534399
59	0xbd5189dd	-0.051156867
60	0x3e7105e1	0.23537399
61	0x3e27368b	0.163294
62	0xbd6f5a65	-0.058435816
63	0x3d9e837f	0.07739925
64	0xbddede9f	-0.10882305
65	0xbc300acd	-0.010744763
66	0x3e2b8e44	0.16753489
67	0xbd89bc6f	-0.06725394
68	0xbd7fbab8	-0.06243393
69	0xbe1747c7	-0.14773475
70	0x3e5746bf	0.21023081
71	0xbd52fc6e	-0.051510267
72	0x3d9e8f18	0.07742137
73	0xbd1a1634	-0.03761883
74	0x3de5887d	0.11207674
75	0x3e54a944	0.20767695
76	0xbda416f8	-0.080121934
77	0xbecb672a	-0.39727145
78	0xbd67286d	-0.056435037
79	0xbd8cb3ba	-0.068702176
80	0xbe086b2e	-0.13322136
81	0x3deefd2c	0.116693825
82	0x3dacf9a8	0.08446056
83	0x3d1d7dd2	0.03845007
84	0x3e267a77	0.16257654
85	0x3cbe3f15	0.02322344
86	0x3cfc42be	0.030793544
87	0xbe46d138	-0.19415748
88	0x3c2bb4b5	0.010480096
89	0x3d494b56	0.04914411
90	0x3d2e54dc	0.042561397
91	0x3e28bc57	0.16478096
92	0xbb90912c	-0.004411837
93	0xbe153a8d	-0.14573117
94	0xbc90c7e1	-0.017673435
95	0x3dccf245	0.10007147
96	0x3e2d427c	0.16919893
97	0x3e9f1236	0.3106858
98	0x3cc1be07	0.023650182
99	0x3c893a35	0.016751388
100	0x3dfcc08e	0.123414144
101	0x3e2a083e	0.16604707
102	0x3e2f4179	0.1711482
103	0xbca6e4d1	-0.02037278
104	0x3c6793cb	0.014134358
105	0x3ee27794	0.44231856
106	0x3e0f54bd	0.13997169
107	0x3e593dfd	0.21215053
108	0x3e3f0923	0.18655829
109	0x3f06eca9	0.52704865
110	0x3c1ced32	0.009578036
111	0xbdebc6d7	-0.11512535
112	0x3e09eb9d	0.13468786
113	0x3e66b403	0.22529607
114	0x3e500600	0.20314789
115	0x3dfe5bea	0.12419875
116	0xbe02d52b	-0.1277663
117	0x3e117a11	0.14206721
118	0x3dfe3594	0.12412563
119	0xbd33670a	-0.043799438
120	0x3ed583d9	0.41702154
121	0xbd52777f	-0.05138349
122	0x3e01ac0f	0.12663291
123	0x3d2ab8dd	0.041680206
124	0xbb10aa5f	-0.0022074205
125	0x3dfad7c0	0.12248182
126	0xbd2aa3ae	-0.041660003
127	0xbd3e81b0	-0.0465104

lstm.bias_hh_l0 f4 [128]
0	0x3e9f1417	0.31070015
1	0x3e1d5d8b	0.15367715
2	0xbca75d70	-0.020430297
3	0x3dac359c	0.08408663
4	0x3de50dbf	0.111842625
5	0x3de664d3	0.112496994
6	0x3d8b9b2b	0.06816705
7	0x3e991463	0.29898366
8	0xbd615654	-0.05501397
9	0x3f211edd	0.6293772
10	0x3d1a9276	0.037737332
11	0x3e3a158b	0.1817228
12	0x3e8e3001	0.27771
13	0x3e4675e6	0.19380912
14	0x3ea00f03	0.31261453
15	0xbd888abf	-0.06667089
16	0xbba6d3ff	-0.00509119
17	0x3e8b0028	0.27148557
18	0xbd7898cc	-0.060692593
19	0x3e47d572	0.19515017
20	0xbe0349e1	-0.12821151
21	0x3b6c2f31	0.003603887
22	0x3dfdc726	0.123915
23	0xbd5b3209	-0.053514514
24	0x3ea65908	0.324898
25	0xbb996893	-0.0046816557
26	0x3e21ad91	0.15788867
27	0x3e37fba1	0.17967083
28	0x3b4ffe5a	0.0031737299
29	0x3e484bd8	0.19560182
30	0x3dd1ad0f	0.102380864
31	0x3cf9582b	0.03043755
32	0x3de70a95	0.11281315
33	0x3e60e669	0.21962894
34	0x3e94adc1	0.29038814
35	0x3e5562f9	0.20838536
36	0x3e02823d	0.12744994
37	0xbdc18f9e	-0.09451221
38	0x3e7d2722	0.24721959
39	0xbaaf9173	-0.0013394788
40	0xbd0712db	-0.032976966
41	0x3e24026c	0.16016549
42	0x3e11c8d8	0.14236772
43	0x3e891dbc	0.26780498
44	0xbe0ed465	-0.1394821
45	0x3e7a41c7	0.24439155
46	0xbd08bfb4	-0.033385947
47	0xbdb373b2	-0.087623015
48	0x3dc784ec	0.0974215
49	0x3da3790b	0.079820715
50	0x3cb54981	0.022129776
51	0x3d2220b1	0.03958196
52	0xbd81d4a5	-0.06339387
53	0x3d9db25e	0.077000365
54	0x3dd07497	0.10178488
55	0xbccdc3ce	-0.025117781
56	0x3e84f5d9	0.25968817
57	0x3e820c80	0.25400162
58	0x3e118a36	0.1421288
59	0xbd5d8957	-0.054086056
60	0x3d2c13fa	0.04201124
61	0x3d21ef70	0.039534986
62	0x3dee4178	0.11633581
63	0xbdd22641	-0.102612026
64	0x3e5bb226	0.21454677
65	0xbdae0b97	-0.08498304
66	0xbdf394aa	-0.1189359
67	0xbd0962cf	-0.033541497
68	0xbe1b05fc	-0.15139002
69	0x3dd86bb3	0.10567417
70	0x3e33416d	0.17505427
71	0xbd85833c	-0.065191716
72	0x3d9e0c63	0.07717206
73	0x3da82baa	0.08211453
74	0xbdeb08d7	-0.114762954
75	0x3e54e0a4	0.20788819
76	0x3e806c16	0.25082463
77	0xbe38322d	-0.1798789
78	0x3e429cc9	0.19005121
79	0xbe0e46f9	-0.13894261
80	0x3cd2faf9	0.025754439
81	0x3df2dbb2	0.1185831
82	0xbe70b9fa	-0.23508444
83	0x3d6c1d69	0.057645235
84	0xbdb57126	-0.08859472
85	0x3de0b755	0.10972468
86	0xbd0b09bb	-0.033944827
87	0x3de748ff	0.1129322
88	0xbd363a03	-0.044488918
89	0xbe11f3d5	-0.14253171
90	0xbd824cd1	-0.06362308
91	0xbe106331	-0.14100339
92	0xbd8259a6	-0.06364755
93	0xbc7b5469	-0.015339949
94	0xbc37f9d9	-0.011229002
95	0x3cbb2ac8	0.022847548
96	0x3e999bd1	0.3000169
97	0x3d8d9fcc	0.069152445
98	0x3d38274b	0.044959348
99	0x3e4d022a	0.20020357
100	0x3e59d087	0.21270953
101	0x3ccdd550	0.02512613
102	0x3c6301e2	0.013855429
103	0xbddde989	-0.10835559
104	0xbd866896	-0.06562917
105	0x3efeffd1	0.49804547
106	0x3e13f5f9	0.144493
107	0x3edfd4a7	0.43716928
108	0x3d0a23be	0.033725493
109	0x3e8fbc5c	0.28073394
110	0x3e1f5f0f	0.15563606
111	0x3e3ab5c7	0.18233405
112	0xbda4303a	-0.08017011
113	0x3eea4536	0.4575593
114	0xbc8b134f	-0.01697698
115	0x3e4b695f	0.19864415
116	0x3e11fcc8	0.14256585
117	0x3d7c3dbe	0.06158232
118	0x3dc98918	0.09840602
119	0x3d022904	0.031777397
120	0x3dea80d0	0.1145035
121	0x3e161a6e	0.1465852
122	0xbc8784c5	-0.016542802
123	0xbdc4a559	-0.0960185
124	0x3d700d95	0.058606703
125	0x3dcc0922	0.099626794
126	0x3e296f62	0.16546395
127	0x3e029707	0.12752925

hidden2out.weight f4 [2, 32]
0	0x3dcb6d67	0.09932976
1	0x3bb80de8	0.005616892
2	0x3cd52ace	0.026021387
3	0xbe504e3a	-0.20342341
4	0xbd9d5f32	-0.07684173
5	0xbd639459	-0.055561397
6	0x3d9f6227	0.07782393
7	0x3e157c82	0.14598277
8	0x3ea0fc76	0.31442612
9	0xbe18d225	-0.14923914
10	0xbdccaae0	-0.09993529
11	0x3e506cbc	0.20353979
12	0x3d6d4304	0.05792524
13	0xbbf5ac6b	-0.0074973605
14	0xbd82b929	-0.06382973
15	0xbd14f279	-0.036364052
16	0xbe8b4243	-0.2719899
17	0x3e653d74	0.22386724
18	0xbe298d78	-0.16557872
19	0x3e425eff	0.1898155
20	0xbe4d8539	-0.20070352
21	0x3d8453c6	0.06461291
22	0x3e19caf5	0.15018828
23	0x3d31022c	0.043214962
24	0x3df499bc	0.11943385
25	0x3e9f6d14	0.31137908
26	0x3dabb738	0.083845556
27	0xbe859560	-0.26090527
28	0xbcdd1d81	-0.026991608
29	0xbda4c9aa	-0.08046277
30	0x3d486428	0.04892364
31	0xbd99c061	-0.075073965
32	0x3e7407bc	0.23831075
33	0x3e46d6c5	0.19417866
34	0x3e7612d8	0.24030626
35	0x3df4b07b	0.119477235
36	0xbe813c18	-0.2524116
37	0x3cb7b9b1	0.022427412
38	0x3e827dc7	0.25486585
39	0xbe8ee928	-0.2791226
40	0x3db7afb2	0.08969058
41	0x3f05fc40	0.5233803
42	0xbe8ad39f	-0.2711458
43	0x3ee1aa8c	0.4407543
44	0x3e98e4c3	0.2986203
45	0xbebedc83	-0.37277612
46	0x3e9eb4a5	0.30997196
47	0x3d842193	0.06451716
48	0x3c1781a7	0.00924722
49	0x3eb806ec	0.3594278
50	0xbe379b8b	-0.17930429
51	0xbd8d905b	-0.06912299
52	0x3da13035	0.07870523
53	0xbdd326f6	-0.103101656
54	0xbdabc2ce	-0.083867654
55	0xbe946317	-0.2898185
56	0xbe8f79aa	-0.2802251
57	0xbe00a978	-0.12564647
58	0xbe76ea71	-0.2411287
59	0xbe0908aa	-0.13382211
60	0x3e984f91	0.29748204
61	0xbdbcf7b2	-0.09226932
62	0xbdc4750d	-0.09592638
63	0x3e1dde04	0.15416723

hidden2out.bias f4 [2]
0	0x3e84906e	0.2589144
1	0xbd0c480e	-0.034248404

std_layer.weight f4 [2, 32]
0	0x3e0c38b3	0.13693504
1	0x3e02be60	0.12767935
2	0x3d0bd92b	0.034142654
3	0xbdcb0f7f	-0.09915065
4	0xbd70a7c3	-0.05875374
5	0xbd8095cc	-0.062785715
6	0xbd977784	-0.07395843
7	0x3dd39f76	0.10333149
8	0xbe31cf16	-0.17364153
9	0xbc41d3ce	-0.011830283
10	0x3e18f9d5	0.14939053
11	0x3ddc2fc4	0.10751298
12	0xbe097461	-0.13423301
13	0x3da84ba4	0.08217552
14	0xbe1ea6d9	-0.15493335
15	0xbe1cdfd5	-0.1531976
16	0x3e342c86	0.1759511
17	0xbcb8052d	-0.022463406
18	0xbe300927	-0.17190991
19	0xbe153c03	-0.14573674
20	0x3aac8dab	0.0013164779
21	0x3b8cd7ba	0.0042981775
22	0x3df674d1	0.12034
23	0xbd5df29d	-0.054186452
24	0x3dab3765	0.08360175
25	0x3d4fa685	0.050695915
26	0x3dc07d99	0.09398956
27	0xbe31e84e	-0.17373773
28	0xbdb429b4	-0.08797017
29	0xbe0f09eb	-0.13968627
30	0x3d207945	0.03917815
31	0xbe019686	-0.12655076
32	0xbde21672	-0.11039437
33	0x3d167f11	0.036742274
34	0x3d8decd9	0.06929941
35	0x3d774a6e	0.060373716
36	0x3e00270f	0.125149
37	0xbe33860e	-0.17531607
38	0xbcf48555	-0.029848734
39	0x3e293277	0.16523157
40	0x3d2e72f7	0.042590108
41	0x3d785464	0.060627356
42	0x3e293f45	0.16528042
43	0x3de2b832	0.11070289
44	0xbe256de7	-0.16155206
45	0xbd9c1c26	-0.076225564
46	0xbc0b6c46	-0.008509701
47	0xbd82d614	-0.063884884
48	0x3e24d088	0.16095173
49	0xbde3a7ac	-0.11115965
50	0x3c0c8817	0.008577368
51	0x3e059241	0.13044073
52	0xbe31e63c	-0.17372984
53	0xbdea7d7d	-0.11449716
54	0x3e26ce1b	0.1628956
55	0xbe2a0399	-0.16602935
56	0x3e14ed45	0.14543636
57	0x3d887ce8	0.06664449
58	0xbe250742	-0.1611605
59	0x3e31f547	0.17378722
60	0xbbc4d24f	-0.006006516
61	0x3c8d128d	0.01722076
62	0x3e1b5386	0.1516858
63	0x3cc37e96	0.023864072

std_layer.bias f4 [2]
0	0x3d61c3bf	0.05511832
1	0xbd01948b	-0.031635802

exp_avg f4 [128, 10]
0	0x38b95ed6	8.839152e-05
1	0x397e8719	0.00024273655
2	0xb900cb9a	-0.00012282879
3	0xb8f17fd6	-0.00011515587
4	0xb8b82411	-8.7805216e-05
5	0xb8a0040b	-7.6301476e-05
6	0xb66a596f	-3.4920774e-06
7	0xb8f31da6	-0.000115926654
8	0x385db620	5.2860123e-05
9	0x3631c656	2.6490502e-06
10	0x388e8961	6.7966765e-05
11	0x38eb327d	0.000112150774
12	0xb825421c	-3.9400635e-05
13	0x3810b8de	3.4504446e-05
14	0x33e17287	1.04982114e-07
15	0xb90d9cb2	-0.00013505181
16	0xb40d2410	-1.3144768e-07
17	0xb81b7ec3	-3.7072936e-05
18	0xb8e0a05f	-0.00010711024
19	0xb78b3db5	-1.6598826e-05
20	0x365ef934	3.3225633e-06
21	0x37bcfa04	2.2527769e-05
22	0x38e7a7fa	0.000110462264
23	0x387da5e8	6.0474413e-05
24	0xb599b3f4	-1.1451762e-06
25	0x381a1c34	3.6742727e-05
26	0x35626351	8.4336085e-07
27	0x38da45d5	0.00010408057
28	0xb9af40e5	-0.0003342695
29	0xb7366520	-1.087159e-05
30	0x38bdbcc6	9.047384e-05
31	0xb6baf4e6	-5.571742e-06
32	0x38407511	4.5885394e-05
33	0x390e0858	0.00013545284
34	0x38979e02	7.229672e-05
35	0xb8a79f8d	-7.992899e-05
36	0x359cd4ec	1.1684874e-06
37	0x3855aa71	5.0941893e-05
38	0xb7f14646	-2.8762162e-05
39	0xb6f06d1a	-7.1652585e-06
40	0x3962e56f	0.0002163851
41	0x39cfce05	0.00039635613
42	0x3783af08	1.5697922e-05
43	0x38aba5ca	8.184796e-05
44	0x38deb995	0.00010620352
45	0xb8b44bd3	-8.597192e-05
46	0x35be00a1	1.4156286e-06
47	0x3770e3da	1.4358166e-05
48	0xb8f504c8	-0.00011683401
49	0xb78ee188	-1.703274e-05
50	0x389efcf2	7.581142e-05
51	0x39175817	0.00014433298
52	0xb8db9d9b	-0.0001047209
53	0xb807821a	-3.2307675e-05
54	0x37701ed3	1.4312292e-05
55	0xb85909b4	-5.174587e-05
56	0xb6a44f5f	-4.896821e-06
57	0xb8c07cef	-9.178544e-05
58	0x386c9ca3	5.6412664e-05
59	0x3702e03e	7.800814e-06
60	0x38735b4c	5.802074e-05
61	0x395c399c	0.00021002296
62	0x3881af75	6.183881e-05
63	0xb8455aaf	-4.7052916e-05
64	0xb6f411dd	-7.273846e-06
65	0x388fe33c	6.861097e-05
66	0xb6ba5610	-5.553251e-06
67	0x38617e6d	5.3761923e-05
68	0xb9cbaf9b	-0.00038850014
69	0x37143868	8.8346205e-06
70	0x3880ef0b	6.148041e-05
71	0x38eae420	0.00011200481
72	0x36843acb	3.940751e-06
73	0x3743311e	1.1634342e-05
74	0xb6195af7	-2.2851725e-06
75	0xb80dc382	-3.37991e-05
76	0x3601a7a0	1.9320069e-06
77	0x36ba62eb	5.5547475e-06
78	0x3733635e	1.0692367e-05
79	0xb6b937db	-5.519932e-06
80	0x384d8893	4.9003003e-05
81	0x391b41aa	0.00014806414
82	0xb82af3ff	-4.0758398e-05
83	0xb886d72b	-6.429696e-05
84	0xb6fd77d2	-7.5539365e-06
85	0x36e71cb6	6.887679e-06
86	0xb617026d	-2.2502165e-06
87	0xb82ae55d	-4.074477e-05
88	0x38396a35	4.420635e-05
89	0x37114ebe	8.661007e-06
90	0x38bd0b41	9.0143185e-05
91	0x39731dde	0.00023185412
92	0xb6d969ea	-6.479434e-06
93	0xb720d410	-9.586118e-06
94	0x37b98b56	2.2118602e-05
95	0xb7e8d0a1	-2.7753706e-05
96	0x35c120db	1.4389183e-06
97	0xb6b603e8	-5.4244774e-06
98	0xb883b092	-6.2794556e-05
99	0xb728ceb1	-1.0061704e-05
100	0xb71b5edb	-9.260805e-06
101	0x38c10abf	9.204959e-05
102	0xb8c50491	-9.3945426e-05
103	0xb9101e43	-0.00013744184
104	0xb913119c	-0.00014025572
105	0xb892ae01	-6.994233e-05
106	0xb5929597	-1.0921384e-06
107	0xb8b6da41	-8.719089e-05
108	0x38443615	4.678041e-05
109	0xb6a036b4	-4.77474e-06
110	0x394aef50	0.00019353372
111	0x39b89daa	0.00035212684
112	0x37f5d0ed	2.9303565e-05
113	0x38a62913	7.9231475e-05
114	0x3888c25d	6.521188e-05
115	0xb8e63ebd	-0.000109789406
116	0x36492715	2.9974083e-06
117	0x37de2349	2.6480893e-05
118	0xb8cd23d8	-9.781838e-05
119	0xb7f72e72	-2.9466322e-05
120	0x3932b8b8	0.00017044216
121	0x39a54b65	0.00031527426
122	0x389918a5	7.300199e-05
123	0x38cddcea	9.81631e-05
124	0x3930069f	0.00016787135
125	0xb810c2bf	-3.4513647e-05
126	0xb57ff0e3	-9.534544e-07
127	0x3890b272	6.899693e-05
128	0xb9a4e310	-0.00031449692
129	0xb73211ca	-1.0613769e-05
130	0x38d584cc	0.00010181367
131	0x394b5b48	0.00019393594
132	0x381d0788	3.743873e-05
133	0x380ab6a2	3.3071854e-05
134	0x3764b20e	1.3631316e-05
135	0xb61a3822	-2.2980462e-06
136	0x36124fdf	2.1802186e-06
137	0x3806eba7	3.2167558e-05
138	0xb85370d5	-5.0411403e-05
139	0xb6edf2af	-7.0914025e-06
140	0x38ab5a9a	8.170791e-05
141	0x39707b68	0.00022934156
142	0x36a7e367	5.003461e-06
143	0x37bfda92	2.2870754e-05
144	0x38aa4819	8.119661e-05
145	0xb88b9c73	-6.6571774e-05
146	0x35cfd174	1.5483661e-06
147	0x36c47f6a	5.856088e-06
148	0xb901fbe9	-0.00012396243
149	0xb7937ca8	-1.7581813e-05
150	0x38d6acb7	0.00010236486
151	0x394deb13	0.00019637895
152	0xb8e3e53a	-0.000108669
153	0xb73c6d74	-1.1231157e-05
154	0xb6844326	-3.9417237e-06
155	0xb8c6a354	-9.471798e-05
156	0xb6964ebb	-4.479514e-06
157	0xb8c7e452	-9.5315874e-05
158	0xb8318008	-4.2319327e-05
159	0xb54d82ed	-7.6558973e-07
160	0xb9b5cc6d	-0.0003467532
161	0xba16e618	-0.00057563325
162	0x39897ecd	0.0002622515
163	0x394b3bf5	0.00019381924
164	0xb8cfb766	-9.90469e-05
165	0xb8de5788	-0.00010602089
166	0x37e61f38	2.7432674e-05
167	0x398c39f5	0.00026746062
168	0xba111241	-0.0005534031
169	0xb8bfde00	-9.1489404e-05
170	0x38f2813e	0.000115635325
171	0x3901895e	0.00012353572
172	0x37fc662e	3.0088322e-05
173	0x3899ec4f	7.3396244e-05
174	0xb81b7323	-3.706211e-05
175	0xb82afc0c	-4.0765895e-05
176	0x361d014c	2.3395578e-06
177	0x3801ac07	3.091621e-05
178	0x3767d61d	1.3818525e-05
179	0xb764d52a	-1.363949e-05
180	0x38ba88df	8.8946654e-05
181	0x391d3d73	0.00014995578
182	0xb718cce4	-9.107611e-06
183	0x38091422	3.2682095e-05
184	0x373e8778	1.1356424e-05
185	0xb81cd563	-3.739203e-05
186	0x3576968e	9.186123e-07
187	0xb69b2d7b	-4.6246546e-06
188	0xb8a3dba5	-7.813358e-05
189	0xb6e6a185	-6.8733375e-06
190	0xb81ed625	-3.7869573e-05
191	0xb8dc3cc4	-0.00010501736
192	0x38ad89b8	8.274935e-05
193	0x3851bb0e	5.000369e-05
194	0x388dd8c1	6.7637775e-05
195	0xb7d3f6aa	-2.5268022e-05
196	0x35f6e573	1.8395207e-06
197	0x38ae717f	8.318107e-05
198	0xb90fe8c3	-0.00013724253
199	0xb70bc998	-8.331983e-06
200	0x381d0ec4	3.744547e-05
201	0x390696db	0.00012835434
202	0xb8600021	-5.340588e-05
203	0xb89637cb	-7.1629496e-05
204	0xb6128790	-2.1834603e-06
205	0x37be5870	2.2690947e-05
206	0xb6b12e54	-5.2804044e-06
207	0xb84f7755	-4.9463782e-05
208	0xb824fc49	-3.9335606e-05
209	0x3777f7d9	1.4780054e-05
210	0x3821be25	3.8562477e-05
211	0x37333219	1.0680896e-05
212	0xb7bc0a04	-2.241601e-05
213	0x388b0061	6.628107e-05
214	0xb7eea986	-2.8450751e-05
215	0xb8e5abaf	-0.000109515495
216	0x35c83cbd	1.4918838e-06
217	0xb7035e50	-7.830167e-06
218	0xb955d4ad	-0.00020392491
219	0xb76a4d9a	-1.3965555e-05
220	0xb938ed54	-0.00017636019
221	0xb9389920	-0.00017604651
222	0x37b1156e	2.1110023e-05
223	0xb8cf84c3	-9.895258e-05
224	0xb88edfb4	-6.8127556e-05
225	0x3796764d	1.7936482e-05
226	0x349c9ef0	2.9172907e-07
227	0x37bc822d	2.2471964e-05
228	0xb9021c3d	-0.00012408286
229	0xb6ad9054	-5.172604e-06
230	0xb940fc13	-0.00018404452
231	0xb94d8292	-0.00019598965
232	0x38dac94a	0.00010432543
233	0xb722f0c6	-9.712012e-06
234	0xb86c8a97	-5.6395857e-05
235	0x383c57db	4.4904515e-05
236	0x36fffa11	7.6287038e-06
237	0x38d468ce	0.00010128469
238	0xb862cd8d	-5.4074033e-05
239	0xb73fd086	-1.1433038e-05
240	0xb7eaa141	-2.7970063e-05
241	0xb7d4c014	-2.5361813e-05
242	0xb7e9c5e1	-2.7867909e-05
243	0xb7cc8b00	-2.4383422e-05
244	0xb7dde6ab	-2.6452666e-05
245	0xb8ae6011	-8.31486e-05
246	0x3659fd74	3.248305e-06
247	0xb78acab8	-1.654528e-05
248	0xb80a1053	-3.2916967e-05
249	0xb7968f73	-1.7948192e-05
250	0x38a55863	7.8842764e-05
251	0x39150299	0.00014210715
252	0xb8f29121	-0.000115664916
253	0xb7928c51	-1.7469896e-05
254	0xb715aa53	-8.920749e-06
255	0xb8c01a05	-9.16012e-05

exp_avg_sq f4 [128, 10]
0	0x34ee72ad	4.4414392e-07
1	0x345b3fbb	2.041915e-07
2	0x3327fd63	3.911317e-08
3	0x35496269	7.502154e-07
4	0x33eecf3e	1.1120436e-07
5	0x348d6860	2.633924e-07
6	0x2d966865	1.7099386e-11
7	0x3327ddd2	3.9084462e-08
8	0x3287a843	1.5792585e-08
9	0x314853c9	2.9151457e-09
10	0x35b4f302	1.348177e-06
11	0x36a1c871	4.8215084e-06
12	0x34b63d9b	3.3944966e-07
13	0x32335904	1.0439411e-08
14	0x2e2b23ec	3.8912804e-11
15	0x34a8652b	3.1366048e-07
16	0x2f2fb650	1.5980928e-10
17	0x34b74a36	3.4140402e-07
18	0x34bf7d8f	3.5667878e-07
19	0x30ffe511	1.8618797e-09
20	0x34f14c9b	4.4945486e-07
21	0x35d256ef	1.567152e-06
22	0x34949656	2.7676532e-07
23	0x334ab6a3	4.7197897e-08
24	0x2e633238	5.1658428e-11
25	0x325dc309	1.2908239e-08
26	0x2df461ac	2.7782963e-11
27	0x3494be57	2.770564e-07
28	0x35ce96a7	1.5392042e-06
29	0x31235b8a	2.3771656e-09
30	0x3595c509	1.115871e-06
31	0x36e86a94	6.926546e-06
32	0x358c1d14	1.0439276e-06
33	0x3537d2ad	6.8479386e-07
34	0x3378f725	5.7966776e-08
35	0x32dc8379	2.5671158e-08
36	0x3013e478	5.380296e-10
37	0x358c31ae	1.0445272e-06
38	0x350c86fe	5.2350504e-07
39	0x31ce637b	6.0066987e-09
40	0x344dd505	1.9169609e-07
41	0x33dd0a4a	1.0292986e-07
42	0x3507c313	5.057529e-07
43	0x359dfdf6	1.1771324e-06
44	0x34424d43	1.8095766e-07
45	0x32f5b3e0	2.8603552e-08
46	0x2ff8ec3c	4.5278792e-10
47	0x3507ccbe	5.058936e-07
48	0x33d0e4d2	9.727377e-08
49	0x30a648f1	1.2098821e-09
50	0x3519b9ab	5.7267124e-07
51	0x368cffe7	4.202116e-06
52	0x35026b23	4.858468e-07
53	0x34d0db74	3.8902692e-07
54	0x3345404b	4.592611e-08
55	0x3352784a	4.9003837e-08
56	0x2ff668e1	4.482166e-10
57	0x3502ce14	4.8728657e-07
58	0x3530eece	6.5912616e-07
59	0x309b2846	1.1289181e-09
60	0x33f3984c	1.1343272e-07
61	0x34bce6b6	3.5185593e-07
62	0x33c36f91	9.100689e-08
63	0x3380a740	5.990887e-08
64	0x30820511	9.460185e-10
65	0x3201fed1	7.566727e-09
66	0x2e04b20f	3.0171473e-11
67	0x33c3a4a1	9.110341e-08
68	0x3604958c	1.975658e-06
69	0x3033c323	6.5397127e-10
70	0x3254ce5e	1.2386947e-08
71	0x324cb135	1.1914655e-08
72	0x339686e8	7.0094586e-08
73	0x33c1022c	8.987658e-08
74	0x310e6973	2.072366e-09
75	0x322d2a0a	1.0079484e-08
76	0x2ff28a26	4.4117704e-10
77	0x33968c69	7.01046e-08
78	0x31d0baae	6.0748198e-09
79	0x315cd2b7	3.213399e-09
80	0x33048594	3.0855134e-08
81	0x33af84a7	8.173202e-08
82	0x337d6cd9	5.900515e-08
83	0x3371c3f8	5.6290418e-08
84	0x30369fe1	6.6438416e-10
85	0x3228cb5b	9.825125e-09
86	0x2f2826bd	1.5293274e-10
87	0x337d38e2	5.8957887e-08
88	0x34b22787	3.3183844e-07
89	0x3140c932	2.8054044e-09
90	0x33c46766	9.145769e-08
91	0x32cd9c2c	2.393616e-08
92	0x33a8b1a5	7.855423e-08
93	0x34a080f5	2.989615e-07
94	0x332dbcd8	4.0451454e-08
95	0x3173e249	3.5489782e-09
96	0x2eded3b0	1.01329944e-10
97	0x33a8aaf7	7.854208e-08
98	0x32831594	1.526022e-08
99	0x30317e7e	6.457198e-10
100	0x35c246b0	1.4474699e-06
101	0x344c71a6	1.9040326e-07
102	0x3552c801	7.852214e-07
103	0x36a75f8d	4.9881114e-06
104	0x3501b5ba	4.832069e-07
105	0x35538534	7.879746e-07
106	0x310e4112	2.0700708e-09
107	0x3552667c	7.838023e-07
108	0x353cd1e7	7.0340906e-07
109	0x331df589	3.6777724e-08
110	0x33712702	5.6147663e-08
111	0x350cd527	5.246424e-07
112	0x342bb90f	1.599294e-07
113	0x34a971fc	3.1561638e-07
114	0x33a86f8d	7.8434006e-08
115	0x33bfdc8f	8.93425e-08
116	0x2e8b9dbb	6.349007e-11
117	0x342bdb18	1.6005322e-07
118	0x32eecb2b	2.7799237e-08
119	0x31332430	2.6068498e-09
120	0x34ef15d9	4.4533115e-07
121	0x3473cdf2	2.2706061e-07
122	0x3595d0f0	1.1162174e-06
123	0x3659f651	3.2478895e-06
124	0x34e63994	4.2882732e-07
125	0x334f95bb	4.8332122e-08
126	0x308240cb	9.47716e-10
127	0x3595bfb5	1.1157159e-06
128	0x35982651	1.1336034e-06
129	0x3242d223	1.1340066e-08
130	0x332fb902	4.0913626e-08
131	0x33a79e85	7.805378e-08
132	0x334b2145	4.729488e-08
133	0x323099de	1.0279534e-08
134	0x3098daa0	1.1121593e-09
135	0x32c30a04	2.2705542e-08
136	0x2d4cea9a	1.16481495e-11
137	0x334c429b	4.755803e-08
138	0x34dddb9f	4.1324253e-07
139	0x2f96fae0	2.7463098e-10
140	0x3297e835	1.768431e-08
141	0x34a5d799	3.0890513e-07
142	0x34fc8ed3	4.7042576e-07
143	0x358fa7c5	1.0703158e-06
144	0x340a45d7	1.2877659e-07
145	0x33f6eceb	1.1498363e-07
146	0x311e4c20	2.3035298e-09
147	0x34fc9825	4.7049357e-07
148	0x3452d1cd	1.9634099e-07
149	0x32b5d73f	2.1169056e-08
150	0x350bcf9a	5.2083635e-07
151	0x35ec51c3	1.7607166e-06
152	0x33cebc7d	9.626908e-08
153	0x32817367	1.5070055e-08
154	0x2e9a3805	7.01306e-11
155	0x347e11b8	2.366204e-07
156	0x2e07a5a5	3.0842568e-11
157	0x33d1b1b3	9.764644e-08
158	0x34a1d712	3.014507e-07
159	0x3113d3c9	2.1511701e-09
160	0x34c93476	3.7477338e-07
161	0x35b08663	1.3152134e-06
162	0x359925c1	1.1410376e-06
163	0x366aaad3	3.496815e-06
164	0x349aad5c	2.881087e-07
165	0x330558ba	3.1047172e-08
166	0x309155d4	1.0574532e-09
167	0x3599215c	1.1409097e-06
168	0x34900a5a	2.6829622e-07
169	0x3241c508	1.1278878e-08
170	0x33b4ed52	8.4250715e-08
171	0x34619d1d	2.1011915e-07
172	0x32875e4d	1.5758951e-08
173	0x32bb414c	2.1799359e-08
174	0x31715ac6	3.5121714e-09
175	0x331597a8	3.4829696e-08
176	0x2f834d41	2.3883653e-10
177	0x32875b6f	1.5757648e-08
178	0x3265b985	1.3371737e-08
179	0x31b28a8e	5.1962337e-09
180	0x33164761	3.4989515e-08
181	0x3423b42a	1.5246101e-07
182	0x32ab6885	1.995455e-08
183	0x332338af	3.800295e-08
184	0x31d98578	6.330705e-09
185	0x330c2094	3.262592e-08
186	0x2df401f1	2.774045e-11
187	0x32ac5c97	2.006554e-08
188	0x34fde87b	4.7294074e-07
189	0x30c917c3	1.4631428e-09
190	0x358299ad	9.73048e-07
191	0x36919e39	4.3397563e-06
192	0x352b7dff	6.388581e-07
193	0x3460f7a7	2.0951721e-07
194	0x3281b234	1.5098614e-08
195	0x32962035	1.7476944e-08
196	0x2f94da89	2.7076322e-10
197	0x352b77cc	6.387679e-07
198	0x35a96dfd	1.2623492e-06
199	0x31dc9fd4	6.421013e-09
200	0x3250eb41	1.2160684e-08
201	0x33b99119	8.641127e-08
202	0x331c4b0b	3.638983e-08
203	0x33ade8bc	8.0982744e-08
204	0x31b4c27a	5.260799e-09
205	0x31b504f8	5.268358e-09
206	0x2ea44685	7.470383e-11
207	0x331c7cf7	3.6435235e-08
208	0x33064507	3.1262086e-08
209	0x30643472	8.3020446e-10
210	0x359b4d3e	1.157088e-06
211	0x36a23b81	4.8349034e-06
212	0x34126fd6	1.3637995e-07
213	0x32569e6f	1.2492463e-08
214	0x2fec331d	4.2964468e-10
215	0x3434390a	1.6784557e-07
216	0x2e7e3a81	5.7804875e-11
217	0x34138db6	1.3741996e-07
218	0x36081b1d	2.0281361e-06
219	0x305b6012	7.980826e-10
220	0x346d1db5	2.2083152e-07
221	0x33c59af3	9.2017125e-08
222	0x32dd4a77	2.5761649e-08
223	0x349451ce	2.762667e-07
224	0x33693519	5.4297832e-08
225	0x3294dcd5	1.732989e-08
226	0x2fb91a67	3.3670064e-10
227	0x32dd7056	2.577887e-08
228	0x3444c7da	1.8326628e-07
229	0x31728c9e	3.5295566e-09
230	0x3484a5b8	2.4707492e-07
231	0x359216b9	1.0884461e-06
232	0x35013630	4.81351e-07
233	0x35606a1a	8.36009e-07
234	0x34364d36	1.697816e-07
235	0x347eefde	2.3742857e-07
236	0x30080e39	4.9496723e-10
237	0x35016fb6	4.8218806e-07
238	0x362bc217	2.559396e-06
239	0x32076893	7.881812e-09
240	0x35385f93	6.868442e-07
241	0x3680c6da	3.8378466e-06
242	0x344a3226	1.883096e-07
243	0x336fcd56	5.5833276e-08
244	0x32212eb5	9.382053e-09
245	0x3455a663	1.9897702e-07
246	0x2ed41fbc	9.646281e-11
247	0x344b5ee2	1.8940366e-07
248	0x36137431	2.197234e-06
249	0x3164a0af	3.3269705e-09
250	0x35d2a531	1.5694296e-06
251	0x36bbd217	5.597492e-06
252	0x34c5e689	3.6861846e-07
253	0x3282b2af	1.5215248e-08
254	0x30fbd13b	1.832212e-09
255	0x3402b48b	1.2172875e-07

exp_avg f4 [128, 32]
0	0x381eef0b	3.789276e-05
1	0x38ed51f1	0.000113163034
2	0x37a53d82	1.9698175e-05
3	0x38890808	6.534165e-05
4	0xb8588b47	-5.1628125e-05
5	0x38d5daae	0.00010197364
6	0xb7a817c9	-2.0038236e-05
7	0xb8b56df2	-8.6512315e-05
8	0xb7526361	-1.2540114e-05
9	0x38fabee4	0.00011956485
10	0xb8a9cc6b	-8.096624e-05
11	0x3860b9de	5.3578864e-05
12	0x372ff6ee	1.0488306e-05
13	0x3894572f	7.073429e-05
14	0x39057106	0.00012725973
15	0x3899871b	7.320774e-05
16	0x365c55fb	3.2832602e-06
17	0x38ac26d1	8.208829e-05
18	0x36aad341	5.090988e-06
19	0xb81366b8	-3.5143195e-05
20	0x37c25c18	2.3169487e-05
21	0xb8ae2e55	-8.3055966e-05
22	0x37a93750	2.0172127e-05
23	0x38072188	3.2217737e-05
24	0xb8bc9909	-8.9930436e-05
25	0xb8c1de3d	-9.244352e-05
26	0xb8a07f3c	-7.653094e-05
27	0xb7eea0d4	-2.8446702e-05
28	0x38d3c535	0.00010097997
29	0xb7c34d39	-2.3281771e-05
30	0xb7ff22d0	-3.041458e-05
31	0x38cf4b1e	9.884521e-05
32	0x38ef8b69	0.00011422375
33	0x392fe276	0.00016773664
34	0x368ac2d4	4.1354015e-06
35	0x38d3a623	0.000100922094
36	0xb918b9d9	-0.00014565083
37	0x390087c0	0.00012257602
38	0xb7911a36	-1.7297552e-05
39	0xb8ca76fd	-9.654274e-05
40	0x38091d76	3.2690783e-05
41	0x3924a332	0.00015701054
42	0xb8f293b7	-0.00011566973
43	0x38cb41aa	9.692025e-05
44	0x3786ac65	1.6054322e-05
45	0xb7b6c921	-2.1789749e-05
46	0x38c97f6f	9.608163e-05
47	0x38be4c10	9.074074e-05
48	0x380bf450	3.3367716e-05
49	0x390d0965	0.00013450308
50	0x36aa662f	5.0782905e-06
51	0xb82aae39	-4.0693416e-05
52	0xb6f56fb0	-7.314571e-06
53	0xb8b911b4	-8.824785e-05
54	0x36b60efa	5.425766e-06
55	0xb7184b5d	-9.077453e-06
56	0xb91fa7b4	-0.00015225896
57	0xb8d62dc9	-0.00010212843
58	0xb81b7024	-3.705932e-05
59	0xb861d078	-5.3838332e-05
60	0x38f9f84c	0.00011919494
61	0xb8bfc022	-9.143377e-05
62	0xb82870ed	-4.015949e-05
63	0x3907d40e	0.000129536
64	0xb7c315d5	-2.3255978e-05
65	0x382569bb	3.9437535e-05
66	0x3715d449	8.930519e-06
67	0x388e869c	6.7961606e-05
68	0xb7f2ba35	-2.8935357e-05
69	0x37c93c68	2.3989196e-05
70	0x36298fe5	2.526672e-06
71	0x38f97a2c	0.000118960015
72	0x368c10bb	4.174273e-06
73	0xb93d570a	-0.00018056869
74	0x3850a241	4.9742175e-05
75	0xb8dced09	-0.00010534569
76	0x380f93d9	3.423155e-05
77	0x37405756	1.1464426e-05
78	0xb92d9a40	-0.00016556028
79	0x373de68c	1.1318956e-05
80	0x355b250e	8.163778e-07
81	0xb8f329a7	-0.00011594901
82	0x371a8195	9.209286e-06
83	0xb8e6adea	-0.00010999649
84	0x3653caf8	3.1559593e-06
85	0xb7f9d4ba	-2.9782172e-05
86	0xb7288c38	-1.00462275e-05
87	0xb88269f9	-6.218622e-05
88	0x376c26f0	1.4075762e-05
89	0x38942ff7	7.066124e-05
90	0x3901d458	0.00012381503
91	0xb721bba2	-9.6400345e-06
92	0xb90a7315	-0.00013203577
93	0xb8ee847d	-0.00011373402
94	0xb8e979c5	-0.00011132987
95	0x37ae5774	2.078314e-05
96	0x37ff511f	3.0436144e-05
97	0x37d797a9	2.570062e-05
98	0xb8b21f2f	-8.49351e-05
99	0xb800ae85	-3.0680112e-05
100	0x37193b97	9.133385e-06
101	0x3487c9e7	2.5292613e-07
102	0xb89278b5	-6.984306e-05
103	0xb808738e	-3.2532545e-05
104	0x365b6d33	3.2697105e-06
105	0xb7dc973e	-2.6296471e-05
106	0xb8279cc3	-3.99619e-05
107	0xb6f28ba5	-7.228419e-06
108	0xb863d412	-5.4318523e-05
109	0x3806d709	3.2148357e-05
110	0xb85efefb	-5.3166394e-05
111	0x3799c5b8	1.8331091e-05
112	0x37ce7d9c	2.4615605e-05
113	0xb63b0a1a	-2.7871051e-06
114	0x384c410d	4.8697973e-05
115	0x386670bf	5.4941276e-05
116	0xb8912d86	-6.922618e-05
117	0x37f3b3ef	2.9051645e-05
118	0xb6d93f2c	-6.474458e-06
119	0xb76ce890	-1.4120844e-05
120	0xb800af6d	-3.0680956e-05
121	0xb83c3eca	-4.488117e-05
122	0x388b64ae	6.6467896e-05
123	0xb5e11506	-1.6769925e-06
124	0x389dde9a	7.527806e-05
125	0x3756b4e7	1.2797514e-05
126	0x386eb14c	5.6908742e-05
127	0x380478b7	3.1583677e-05
128	0xb755aba7	-1.2735755e-05
129	0x380ccc89	3.356909e-05
130	0xb8ab560c	-8.169943e-05
131	0x37b59d40	2.1650107e-05
132	0x37c48ee3	2.3431558e-05
133	0x381c3c19	3.724927e-05
134	0xb8b2eaac	-8.5314125e-05
135	0xb80cbb4c	-3.3553035e-05
136	0xb77312fc	-1.4488349e-05
137	0xb896368d	-7.162718e-05
138	0xb7d0cf5a	-2.4892088e-05
139	0xb88ae50b	-6.623015e-05
140	0xb88ea2a3	-6.801381e-05
141	0x390890f1	0.00013023966
142	0xb89d9294	-7.513646e-05
143	0x382d360e	4.1296757e-05
144	0x388a16b7	6.584584e-05
145	0xb81869df	-3.6338224e-05
146	0x3826474a	3.9643877e-05
147	0x380fc886	3.428061e-05
148	0xb86a2dc8	-5.5832585e-05
149	0xb7f35a30	-2.9009854e-05
150	0x36dd997a	6.6041803e-06
151	0x372597e9	9.870136e-06
152	0xb737e95a	-1.0961981e-05
153	0xb84830eb	-4.7729274e-05
154	0x381c87a9	3.731964e-05
155	0xb733e62c	-1.07228225e-05
156	0x38715992	5.7542296e-05
157	0xb6c5c849	-5.8943738e-06
158	0x3875a324	5.856449e-05
159	0x38411ca9	4.6041478e-05
160	0xb851c3ee	-5.0011957e-05
161	0x37d78c78	2.5695408e-05
162	0xb88edf22	-6.8126494e-05
163	0xb801c229	-3.0936822e-05
164	0x385d182d	5.271302e-05
165	0x3742dc8a	1.1614649e-05
166	0xb86aadf6	-5.595196e-05
167	0xb85d18f0	-5.271373e-05
168	0xb8492786	-4.7958943e-05
169	0xb7e95c50	-2.781875e-05
170	0xb796c0b1	-1.7971122e-05
171	0xb8000b63	-3.0528183e-05
172	0xb8ab33b5	-8.1635466e-05
173	0x38eb2c85	0.000112139656
174	0xb7a4e775	-1.9658104e-05
175	0x37df36bd	2.6609161e-05
176	0x38984185	7.260129e-05
177	0xb7c12f8d	-2.3029535e-05
178	0x382a693a	4.062916e-05
179	0x388fc075	6.854619e-05
180	0xb81a0fe5	-3.6731264e-05
181	0xb781e0c2	-1.548266e-05
182	0x384fce0c	4.9544542e-05
183	0x38a2f58a	7.770497e-05
184	0x3860aa28	5.3564232e-05
185	0xb8472ef7	-4.7489037e-05
186	0xb6d39ea3	-6.3067578e-06
187	0x36ca8020	6.034985e-06
188	0x38b0b3c0	8.425815e-05
189	0x3872eda9	5.7918634e-05
190	0x38e5ed43	0.00010963764
191	0x3805edac	3.193102e-05
192	0xb9362379	-0.00017370087
193	0xb82f1d41	-4.1750496e-05
194	0xb79803eb	-1.8121636e-05
195	0x38196969	3.6576213e-05
196	0x38c59c12	9.4227624e-05
197	0xb6c1884f	-5.7677166e-06
198	0xb7345af7	-1.07500155e-05
199	0x393f8965	0.00018266363
200	0xb892fddb	-7.009107e-05
201	0xb9be6586	-0.00036315265
202	0x3917ab1c	0.00014464225
203	0xb9864336	-0.00025608548
204	0xb7372b80	-1.0917778e-05
205	0x3931d7c8	0.0001696042
206	0xb99669b7	-0.00028688993
207	0xb79e83b6	-1.88964e-05
208	0x37825032	1.5534551e-05
209	0xb99bb420	-0.00029698107
210	0x381896f6	3.6380217e-05
211	0xb8e8ab55	-0.00011094535
212	0xb67f4774	-3.8039552e-06
213	0xb7e65e05	-2.7461918e-05
214	0xb78efd93	-1.7045799e-05
215	0xb82c27a5	-4.1044917e-05
216	0x38fe94e0	0.00012139394
217	0x390bef7a	0.00013345285
218	0x3944c115	0.00018763945
219	0x386e010b	5.6744593e-05
220	0xb94b2478	-0.00019373174
221	0xb8ae6da6	-8.31739e-05
222	0xb8bbf64d	-8.962732e-05
223	0xb7372aa4	-1.0917578e-05
224	0xb6659d3b	-3.421518e-06
225	0x37c6ff20	2.3722241e-05
226	0xb8888ef2	-6.511611e-05
227	0x37b35c26	2.1381373e-05
228	0x37378c45	1.0940309e-05
229	0x37c21a7f	2.313894e-05
230	0xb8925cb6	-6.979091e-05
231	0xb4db4030	-4.083863e-07
232	0x372c1376	1.025653e-05
233	0xb7bc2d71	-2.2432507e-05
234	0xb6a521d5	-4.9213218e-06
235	0xb77e8a8e	-1.517184e-05
236	0xb7f7183d	-2.9455981e-05
237	0x38739a6d	5.8079535e-05
238	0xb60555ce	-1.986849e-06
239	0x3792a9cc	1.7483624e-05
240	0x387c559b	6.016121e-05
241	0xb7dc1ae8	-2.6238573e-05
242	0x37f1a74c	2.8807342e-05
243	0x37127aeb	8.730897e-06
244	0xb7f059e5	-2.865209e-05
245	0xb71e2747	-9.426679e-06
246	0x3837b766	4.3801403e-05
247	0x3823f0af	3.9086382e-05
248	0xb7a7a061	-1.9982634e-05
249	0xb81a163f	-3.673718e-05
250	0x36f74f5e	7.370413e-06
251	0x36092084	2.0433517e-06
252	0x36f03ed9	7.159874e-06
253	0x3743ef2a	1.167859e-05
254	0x375e27e5	1.324152e-05
255	0x3780a836	1.5337118e-05
