models/car/policy_ego_kinematic_model_best_iter12.pth (torch, 77546 bytes, 20 tensors)

lstm.weight_ih_l0 f4 [128, 10]
000000 7f 8e 1b 3e 10 fe d2 bd 0b 16 91 3d 64 7e cb 3d
       0.15191077 -0.10302365 0.070842825 0.099362165
000010 96 ab d3 be 84 a7 af 3d 16 be 41 3d 60 1e 9f 3d
       -0.41341847 0.08576873 0.04730042 0.077694654
000020 b1 76 1a bb fe 7b 74 be 1f 78 a6 3d 10 af cc bc
       -0.002356928 -0.23875424 0.0812838 -0.02498582
000030 df 96 0c 3e 77 69 2f be f3 06 d8 be 98 42 f7 3c
       0.13729428 -0.17130075 -0.42192802 0.030183122
000040 69 cf 73 be 92 2f 23 bd e4 10 7e 3e 4e 6f 3f 3d
       -0.2380959 -0.03984029 0.24811131 0.046737008
000050 61 fe 9c bd 8f d9 cd bd 11 48 65 3d 15 1d 6f 3c
       -0.076657064 -0.10051262 0.05597693 0.014594336
000060 ea 21 33 3e 28 4b b0 bd f1 cb d0 3e 47 fc 2a 3e
       0.17493406 -0.08608085 0.40780595 0.16697799
000070 13 2f 76 be e8 69 1d ba a4 0c 23 3e 02 a2 57 3e
       -0.24041395 -0.0006004856 0.15922791 0.21057895
000080 71 97 70 3e 75 0a 85 3e 25 a6 e4 3e 5b 52 77 bd
       0.2349527 0.2598454 0.44658008 -0.060381275
000090 35 27 d5 3e 61 2c f6 bc e1 63 22 3e c0 a3 b2 be
       0.41631475 -0.030050458 0.15858413 -0.34890556
0000a0 8a 49 39 3e 70 19 a5 bd 2a d1 68 3e d8 64 26 3d
       0.18094459 -0.080614924 0.2273604 0.040623516
0000b0 ff b4 bf bd c3 3a 76 3d 5b 47 97 bc b7 1b 4f 3d
       -0.09360694 0.060114633 -0.018466642 0.05056354
0000c0 c7 11 b1 bd ad 34 5a be ec 22 2e be 20 e0 e6 bd
       -0.08645969 -0.21309157 -0.17005509 -0.11273217
0000d0 59 82 59 3e 99 eb 6a bd 47 25 2c bd cb 74 01 3e
       0.2124113 -0.05735359 -0.042027738 0.12642209
0000e0 ef f3 f0 3d 0a 21 1d be 00 4c ef 3d a7 03 34 be
       0.11765277 -0.15344635 0.11684418 -0.17579518
0000f0 3b 76 a4 bd 74 83 03 3e 12 46 38 3e c4 5a f9 3d
       -0.08030363 0.12843114 0.1799548 0.12175515
000100 7d e3 d8 be f4 fd 85 bd 9b 63 c7 ba 57 0e b4 3c
       -0.4236106 -0.06542578 -0.001521218 0.021979494
000110 61 1e 3a be 16 ef 9a be df 4c 8a 3e c1 0d 54 bd
       -0.18175651 -0.30260533 0.27011773 -0.05177093
000120 30 83 0b 3e f2 1b 1d 3e 80 24 93 3e fa fa 02 3e
       0.13624263 0.15342692 0.28738785 0.12791052
000130 39 ac b2 3d 79 07 03 3e dd 3d 30 bd 14 76 1e 3d
       0.08724255 0.1279582 -0.043027747 0.038686827
000140 b8 25 14 be 05 56 25 be fc 1c f4 3d eb ce 4e bc
       -0.14467514 -0.16146095 0.11919591 -0.012622575
000150 72 79 dd 3e f6 9c 18 be c4 1f 23 3e de 6e fe 3d
       0.43256718 -0.14903626 0.15930086 0.1242349
000160 71 ce ae bd e6 e1 29 be 86 a1 2e 3e 5b 21 20 be
       -0.08535469 -0.1659008 0.17053804 -0.15637724
000170 ca f7 39 3e 50 e7 65 3e 26 61 c9 3e 01 32 20 bd
       0.1816093 0.2245152 0.3933193 -0.039110187
000180 38 c2 41 3e a1 b5 d4 3d ef fb 02 be ec c5 b0 be
       0.18921745 0.103862055 -0.12791418 -0.34526002
000190 bf 1b 4b 3e ad 9e 06 bd 6d 68 66 3e a7 ab 71 3e
       0.19834803 -0.03286617 0.22500773 0.23600636
0001a0 90 23 0e 3f d8 b6 30 be f1 20 9c 3e 88 5b 08 3d
       0.55523014 -0.1725725 0.30493882 0.033290416
0001b0 cd 27 99 3d 61 3e 48 be ea ca 8c 3d e9 7d f5 3d
       0.074782945 -0.19555046 0.0687464 0.11986906
0001c0 02 54 8c 3e fd 00 53 bd 15 07 8f 3e 01 9b f2 3d
       0.27407843 -0.051514614 0.2793509 0.11845971
0001d0 69 b0 ec 3d 20 e2 ce 3d 1e ba 2a be c1 9a a9 be
       0.11557085 0.10101724 -0.1667256 -0.3312588
0001e0 8b a2 98 bd 24 b8 19 bc f0 19 49 3e 9f 7b da bc
       -0.074528776 -0.009382281 0.196388 -0.026670275
0001f0 bf 79 5a 3d dc 12 8c bc c9 aa 83 be 31 5c 15 be
       0.053338762 -0.017098837 -0.25716236 -0.1458595
000200 a2 5f b1 3e 94 72 78 3d a0 b9 66 bd 3f 9b 7a 3d
       0.34643275 0.060656145 -0.05632937 0.06118321
000210 83 0b 63 3e e9 e5 26 3e 71 39 83 3d 3d 19 d1 3d
       0.2217236 0.16298641 0.064074405 0.10209892
000220 44 f5 0b 3e 4b 28 3b 3d 9d 40 03 be e8 e4 9c be
       0.1366778 0.045692723 -0.12817617 -0.30643392
000230 4f 84 2e bd 7f 3a a8 bc 4d 51 0e bd 41 14 56 3d
       -0.042606648 -0.020535706 -0.034745503 0.05226541
000240 d5 0e 60 be af 52 7e bd be 43 5b 3d 71 64 3b 3d
       -0.21880658 -0.062090572 0.0535314 0.045750085
000250 b2 11 ea 3d 55 63 95 bc 54 dc 03 be 11 cd ae 3d
       0.11429156 -0.018235842 -0.12877017 0.08535207
000260 6b 20 a7 3d 3d 81 a0 bd 74 a2 6b bd c3 f0 df bd
       0.0816048 -0.0783715 -0.057527974 -0.109345935
000270 90 07 fd 3d 9b 22 b4 bb 11 68 ce 3d b4 8f 2c be
       0.12354958 -0.0054972894 0.10078443 -0.16851693
000280 75 0f 33 bd 5b 62 39 3d 0a 98 01 3e 6e 6d 64 3d
       -0.043715913 0.045259815 0.12655655 0.055768423
000290 4c b1 23 bf d3 33 a2 3d 4c 87 92 bd 35 86 a2 bd
       -0.6394241 0.07920041 -0.07154712 -0.07935754
0002a0 2e 7d 09 bd 5e 49 5e be ae 7d 6b bd f6 20 2d 3d
       -0.033566646 -0.21707675 -0.057492904 0.042267762
0002b0 47 ef 08 3e 3f 0f 10 3e 51 db 39 3f 2c de 1f 3e
       0.13372527 0.14068316 0.72600275 0.15612096
0002c0 6a 6f 4f 3e 3e 25 fd 3c 0c b4 1e be 4a cb 23 bd
       0.20257345 0.030901548 -0.1549837 -0.039988793
0002d0 ba 1b 19 3e 4f 3c ae 3c e6 01 46 3c 0f f5 52 3e
       0.14951983 0.021268992 0.012085414 0.20601295
0002e0 b0 dc 06 3f 1d 51 29 3e 4d d4 5d ba 0b ed 87 bd
       0.5268049 0.16534849 -0.0008462116 -0.06637009
0002f0 de 4f 5a 3a 8d c6 c6 be 37 d7 fc 3d 74 4f 98 bc
       0.0008327941 -0.38823357 0.123457365 -0.018592574
000300 e5 ef 62 bd 24 1c da bc a3 1a 23 3e 7c c3 00 be
       -0.055404563 -0.026624747 0.1592813 -0.12574571
000310 45 5d 56 be 63 76 22 3e 19 05 12 3c 32 e4 61 bd
       -0.20934017 0.15865473 0.008912348 -0.055149265
000320 9b c6 30 3e 8b 1f 05 3d 5a ce 46 3e c2 92 c8 bb
       0.17263262 0.032500785 0.19414654 -0.0061210105
000330 4d b5 a9 3e f6 69 b0 3d 69 7b b9 bd 53 6e 68 bd
       0.33146134 0.086139604 -0.09056742 -0.05674584
000340 61 0a 89 bb 9c 92 f7 bd e7 ad 35 3d 5a 9b 46 3d
       -0.0041821455 -0.120885104 0.0443553 0.048488
000350 b6 30 80 bd 51 22 1f 3e 34 49 dc 3e 78 ad de 3d
       -0.06259291 0.15540434 0.430246 0.1087293
000360 e5 c6 92 3e 14 59 0a be c9 5c fb bd 6f 63 a6 bd
       0.2866737 -0.13510543 -0.12273557 -0.08124434
000370 75 ac 42 be cd fa 0a 3e 53 2a 3b be 7d 79 80 be
       -0.190111 0.13572235 -0.18277864 -0.25092688
000380 5c 11 78 be f6 87 14 be 03 a4 e5 bd f0 da 1a 3e
       -0.24225372 -0.1450499 -0.112129234 0.1512258
000390 ae d4 1a 3e 23 0d 55 3e 09 32 84 3b fb a0 08 be
       0.15120193 0.20805793 0.004034285 -0.13342659
0003a0 cd 24 8e 3e 94 ed 27 3d 68 e3 64 3e ab c5 4e 3d
       0.27762452 0.040998057 0.22352374 0.05048148
0003b0 ab 16 f8 bd 27 90 03 3e 9b a1 8b 3d 00 1a a7 be
       -0.121136986 0.12847959 0.06817933 -0.32637024
0003c0 99 7b 29 be 78 30 2d bd 80 28 e9 3d 7e 12 80 bd
       -0.16551055 -0.04228255 0.11384678 -0.06253527
0003d0 d6 4e b8 be 4a 95 38 3d 6f d1 ca be 24 f8 34 be
       -0.35997647 0.04506425 -0.3961291 -0.17672783
0003e0 c3 66 91 bd 3f d2 00 3e 84 67 2c 3e cb 3e 97 bd
       -0.07099678 0.12580203 0.16836363 -0.07385024
0003f0 b1 e8 fa 3d 33 79 1a 3e e0 a8 14 3f d5 61 f0 bd
       0.122514136 0.15085296 0.5807018 -0.1173741

lstm.weight_hh_l0 f4 [128, 32]
000000 65 27 a7 3d 39 2d 97 bd 8d 03 b8 bc 4b f5 9a 3c
       0.08161811 -0.073816724 -0.02246263 0.018915793
000010 28 b6 54 3d 3f 05 3f be e9 21 2c 3e c2 80 b5 bc
       0.05193153 -0.18654345 0.1680981 -0.022156123
000020 6c 68 0d bd 97 12 da bc dd 63 25 3e 46 eb 02 bc
       -0.034523413 -0.026620192 0.16151376 -0.007990664
000030 1f 88 12 3d b9 e4 69 3c c0 1c 6b bd d2 a8 e9 3d
       0.035774346 0.014275723 -0.057400465 0.11409153
000040 3e d3 cd bd 2a b6 f2 3d 43 c5 e0 3d b3 97 dd bd
       -0.10050057 0.11851151 0.10975125 -0.1081995
000050 2e dc 06 bd 47 6c f9 3c 27 c0 64 3c 6b 1a e1 3d
       -0.032924823 0.030447138 0.013961828 0.10991367
000060 74 8a a6 3d a8 f4 18 3d 8f 68 8c be 5e e3 12 3e
       0.081318766 0.037342697 -0.27423522 0.14344546
000070 e6 d1 55 bd 58 03 fc 3d f3 0a c4 bd 1e 36 d1 bd
       -0.052202128 0.12305325 -0.09572401 -0.102154
000080 df 17 88 3d ef 69 3a 3d a9 a0 96 bc 3c 0b 86 3d
       0.06645178 0.045511182 -0.018387156 0.065451115
000090 aa c2 f6 bc 51 f8 27 3b d8 f3 47 3d 16 03 26 be
       -0.03012212 0.0025630186 0.048816532 -0.16212115
0000a0 4f ea 14 be 5e 10 a6 bd 13 46 58 3d 46 3c 0c 3e
       -0.14542507 -0.081085905 0.052801203 0.13694867
0000b0 33 93 ea 3a 71 f8 1b 3e 7c 74 40 be dc 95 3c be
       0.0017896652 0.15231492 -0.18794435 -0.18416542
0000c0 56 26 51 3c e0 77 4a bd 6c c1 0a be 64 db 27 3c
       0.012765488 -0.049430728 -0.13550347 0.010245178
0000d0 5e 86 ce bd d7 b7 1c 3e 6c f9 2c be 93 70 3a 3e
       -0.10084222 0.15304504 -0.16892022 0.18207006
0000e0 c8 c5 ae 3d e5 ab 91 bd 6c c8 98 be 68 f7 65 3d
       0.085338175 -0.071128644 -0.2984041 0.056144148
0000f0 72 5d c7 bd 3b 59 1a 3e 90 1e 53 be 29 9a 01 bc
       -0.0973462 0.15073101 -0.20617127 -0.00791029
000100 4e 3e 11 bd dd ca 2f be f1 9b 02 be 03 c6 fd bc
       -0.03545981 -0.1716723 -0.127548 -0.030978208
000110 bc 38 9a bc 3d 6e 60 bd 76 0f f3 3d 57 2d da bd
       -0.018825881 -0.05479263 0.11868183 -0.10653179
000120 68 ed 11 be 01 86 84 bd 97 05 44 3e 9a 48 57 bd
       -0.1425072 -0.06470872 0.19142757 -0.052559473
000130 0a 32 8a be 49 71 27 3e 9d 66 83 ba 13 25 af bb
       -0.26991302 0.16351809 -0.0010025088 -0.0053449958
000140 c5 2c ca 3d 71 1f 5d 3e c9 23 db bd 87 ed 07 3e
       0.0987182 0.21594025 -0.10700185 0.13274203
000150 13 f0 99 3d a1 1f 76 bc 44 70 9b bc bb 2a 0c 3e
       0.07516494 -0.015022189 -0.01897443 0.13688175
000160 24 1d 4c 3e 48 29 54 bd 73 88 7f be e1 89 89 3c
       0.19932991 -0.05179718 -0.24954395 0.016789379
000170 05 69 eb bd af 7e b8 3a cc 20 17 3e fb de 54 3e
       -0.1149464 0.0014075841 0.14758605 0.20788185
000180 71 fd 28 3e 5e b9 ec bc b4 a1 b4 bd 25 53 8e 3c
       0.1650293 -0.028896984 -0.08819905 0.01737363
000190 86 b1 b4 3d cc 35 39 be 46 ef 55 bd d6 00 9a bd
       0.088229224 -0.18086928 -0.052230142 -0.07519691
0001a0 13 64 a2 bc ed 38 84 bc e6 e2 22 be 65 93 26 3e
       -0.01982311 -0.016140426 -0.15906867 0.16267164
0001b0 42 d3 00 bc 08 27 76 bd 9d 16 8e bd 97 ce b5 bd
       -0.007862868 -0.060095817 -0.06937907 -0.088772945
0001c0 69 60 89 3d df 82 9d 3d 4b a9 36 bd 79 90 02 3e
       0.06707842 0.07690977 -0.044595044 0.12750424
0001d0 ce ae c3 be 47 d9 a0 bd 7a b0 9e bd 43 a0 be bc
       -0.38219303 -0.07853942 -0.07748504 -0.023269778
0001e0 aa 7c 50 bc f8 b9 20 bd 9e 46 80 be a6 a8 22 3d
       -0.012725035 -0.039239854 -0.25053877 0.039711617
0001f0 67 c8 07 be c0 ad 22 be da fd 81 3e d2 68 a0 bd
       -0.13260041 -0.15886593 0.25388986 -0.07832493
000200 a9 7d a9 bd b3 56 92 3d f1 88 fe 3c e4 0b f1 3d
       -0.08275921 0.07145443 0.031071158 0.11769846
000210 95 17 4d be 84 85 8b be 0e 49 c8 bd 82 7d 00 be
       -0.20028527 -0.27250302 -0.09779559 -0.12547877
000220 0f fe b0 bc df 7b 6e 3d b4 88 ff 3d 3b 4e 2f be
       -0.02160552 0.0582236 0.12477246 -0.17119686
000230 20 33 ff 3c ae eb a9 bd 14 37 16 bb ad 4e 3d 3d
       0.031152308 -0.082969055 -0.0022921013 0.04621761
000240 57 47 a4 3d 87 a3 e4 3d 28 71 03 bd c6 26 e5 3d
       0.080214195 0.11164003 -0.032090336 0.11189036
000250 a8 e0 77 bb bb d1 38 3e ad db 99 3b 0d ba 87 bd
       -0.0037823115 0.18048756 0.004695377 -0.06627283
000260 0f 8d 0e 3e 60 68 01 bb 85 39 b6 3c df 31 45 3d
       0.13920997 -0.001974605 0.022244224 0.048143264
000270 b3 e7 37 3e 93 6e c4 bd 0b 07 84 3d 9d af cd bd
       0.1795948 -0.09591403 0.06446656 -0.10043261
000280 86 89 73 3e b7 76 96 bd 0a 2f 55 3d 91 a3 c1 bd
       0.2378293 -0.07346862 0.052046813 -0.09455026
000290 4d 9a 87 be 72 16 5b bc 25 ee 85 bc 9e 2e d4 bb
       -0.2648491 -0.013372051 -0.016348908 -0.0064752838
0002a0 bf 77 32 be fa 89 01 be 58 b4 a6 3d a8 8f c5 3c
       -0.17428492 -0.1265029 0.081398666 0.024116352
0002b0 4a b8 67 3d 50 74 50 3d d0 67 11 be 6b 07 95 bd
       0.056572236 0.050892174 -0.14199758 -0.072768055
0002c0 a5 ad 46 3e 15 63 87 bd e6 88 07 be 62 b0 42 be
       0.19402178 -0.06610695 -0.13235816 -0.19012597
0002d0 d9 46 4e 3d 24 b5 7a 3d c6 bd 88 bd c7 fd 65 3e
       0.050360534 0.061207905 -0.066768214 0.2246009
0002e0 d2 56 8b bd 4f 40 13 be 75 64 dd bd 41 64 9c 3d
       -0.06803669 -0.1438 -0.10810176 0.076363094
0002f0 08 d8 1f bd 16 ae df bd 5d d3 15 be 07 04 ba 3d
       -0.039024383 -0.10921876 -0.1463141 0.090827994
000300 e2 f3 29 3e 66 fc 90 bd 7b 57 e9 3d cc a0 16 be
       0.1659694 -0.07079391 0.11393639 -0.14709777
000310 94 b2 5d 3b e2 e3 24 be 41 53 20 be c0 ac 3a 3d
       0.0033828365 -0.16102555 -0.15656759 0.045574903
000320 3d 74 ac bd aa 90 0b 3e 75 33 19 3e d5 09 39 be
       -0.08420608 0.13629404 0.14961036 -0.18070157
000330 f4 d9 eb bc 0f 22 14 bd 32 a4 ea bd 78 1b 22 be
       -0.028790452 -0.036165293 -0.11457099 -0.15830791
000340 3a 3a 8f bd cc fa 16 3e c7 7c ea 3c c3 82 f2 3d
       -0.06993528 0.14744109 0.028623952 0.11841347
000350 0d 14 b4 bc f1 bc c7 3d 16 1c bc 3c 52 c6 d7 bc
       -0.021982217 0.097528346 0.022962611 -0.026339684
000360 78 03 70 bb e3 3b 25 be 0a 4c 1b be e8 9d aa bd
       -0.0036623161 -0.16136126 -0.15165725 -0.083308995
000370 f1 7d 9e bd 09 f2 8e bd 79 1c 55 bd c1 0a ef bd
       -0.07738865 -0.06979758 -0.052029107 -0.11671973
000380 03 ff ab 3d 86 47 99 bd 2c 30 ec bd a1 7b 31 3e
       0.08398249 -0.07484345 -0.115326256 0.17332317
000390 07 9f a9 3d fd 81 c1 bd 92 be 37 bd f0 e5 c2 bd
       0.08282285 -0.094486214 -0.044859476 -0.09516513
0003a0 56 00 19 be 89 80 85 3d 4f de 42 3e e1 e7 4e bd
       -0.14941534 0.06518657 0.19030116 -0.050514106
0003b0 1f 90 a5 bc bc ee 4d 3e 66 18 8b bd 64 92 aa bd
       -0.020210324 0.20110601 -0.06791763 -0.08328703
0003c0 f7 e7 da 3d 11 33 d7 3d 2d 4f 43 be 8d 0b d3 bc
       0.10688775 0.10507787 -0.19073172 -0.025762344
0003d0 35 c4 04 be dc 4e 15 3e ee 80 ff bd 9b 57 07 3e
       -0.12965472 0.14580864 -0.12475763 0.13217013
0003e0 de 14 48 3e 73 d2 9c bd 26 8b 20 be 93 2f be 3d
       0.1953921 -0.076573275 -0.15678081 0.09286418
0003f0 91 8b ec bc 70 7a 26 be 53 5a 90 bc 9c 69 bc 3d
       -0.028875144 -0.16257644 -0.017621195 0.09199831

lstm.bias_ih_l0 f4 [128]
000000 69 81 9d 3d b0 d6 30 3e 14 b6 d9 3b 5e d6 02 bd
       0.07690699 0.17269397 0.00664402 -0.031942718
000010 8c 66 21 3e 05 59 01 3d e9 35 3f bd 3e ed 35 3e
       0.15761775 0.031579036 -0.046682272 0.17766282
000020 85 2c d4 3d c0 ea 1e bc 64 85 0f 3e 87 6d 23 3e
       0.10360054 -0.009699523 0.14015728 0.1595975
000030 14 3a 2c 3e 1d 34 dd bd 02 e9 96 bd d8 2b 35 3e
       0.1681903 -0.108009554 -0.073686615 0.17692506
000040 8e 04 10 3e 18 9f dc bd 05 04 42 3e 91 00 34 3d
       0.14064237 -0.10772532 0.18946846 0.043945853
000050 d9 5c e4 3c f9 25 34 bd 28 33 ae bc 28 63 ef 3d
       0.027876304 -0.043981526 -0.021264628 0.116888344
000060 89 7f cf 3c 13 d7 1f 3e 41 ec eb 3c ad 33 5e bd
       0.025329368 0.15609388 0.028799178 -0.0542485
000070 69 f1 42 bd ab 0b 33 3e e1 15 8a 3d a0 7e f6 3d
       -0.047593508 0.1748492 0.06742454 0.120358706
000080 fe 36 4e bd d2 24 dd 3b 57 31 b9 3d 86 d9 86 bd
       -0.050345413 0.006748774 0.09042614 -0.06584458
000090 22 3f 1a 3e 76 d2 29 3e d8 3b e7 3d bd 03 12 3e
       0.15063146 0.1658419 0.11290711 0.14259239
0000a0 18 4e 1a 3e 45 6f c2 bd d9 52 a5 bc e1 55 2a 3e
       0.15068853 -0.09493879 -0.020181106 0.16634323
0000b0 48 6a 5c bd e0 f3 aa 3c 39 ab 36 bd d9 f6 9e 3d
       -0.053812295 0.020868242 -0.044596884 0.07761926
0000c0 70 ad 29 bc 5e 43 69 ba 1d e2 82 3d eb 31 0a 3e
       -0.010356292 -0.0008898283 0.06390784 0.13495605
0000d0 f4 1d e6 3c 71 41 c2 bc f4 d5 09 3e 9e 0d 60 bd
       0.028090455 -0.023712846 0.13460523 -0.054700486
0000e0 07 f5 73 3d c3 3b 16 3d d3 d8 6a 3e 9f 8d 11 3e
       0.05955985 0.036678087 0.22934274 0.1421418
0000f0 35 f0 38 3d 95 aa cc 3d c6 19 cf 3d 82 ec 75 3d
       0.045150954 0.099934734 0.10112338 0.060040005
000100 25 6e d1 bc ce 4d e1 3c 80 52 a9 bd c5 40 13 b9
       -0.025565216 0.02750292 -0.08267689 -0.00014043141
000110 1b 0f e2 bd 5c 92 b6 3d 7a 52 22 3e 0e 16 32 bd
       -0.110380374 0.089146346 0.15851775 -0.043478064
000120 d5 06 40 be 94 e0 4e 3e c6 91 ca bd f2 12 d0 3d
       -0.18752606 0.20202857 -0.09891085 0.101598635
000130 ff c7 c1 3d 3f 6f 9d bd d4 d6 c3 3c 63 45 29 be
       0.09461974 -0.07687234 0.023906149 -0.16530375
000140 83 cc 11 3e c0 b8 d8 bd 8c fa 82 3d 6f 16 66 bd
       0.14238171 -0.10582113 0.06395444 -0.056173738
000150 a8 ad a4 3d 88 b1 c6 3d d7 1b fd 3d 38 32 d4 bd
       0.08040935 0.0970183 0.12358826 -0.10361141
000160 7d 61 78 3d 96 ee 28 be 5b 3b d0 3d f9 ab ba bd
       0.060639847 -0.16497263 0.10167571 -0.091148324
000170 b9 59 7b 3d f2 d8 27 3e 30 f8 ef bd ca 38 dd 3d
       0.061364863 0.16391352 -0.1171726 0.10801847
000180 7b 25 2f bd ff ba c7 3d 69 0e 7e bd bc a8 4c 3a
       -0.042760354 0.097524635 -0.06202546 0.0007807126
000190 17 d9 1d 3d 1b 7f 41 3e 37 77 3f 3d d4 be 90 3c
       0.03853711 0.18896143 0.04674455 0.017669119
0001a0 c9 1e f3 ba 73 12 82 bd 1a 5b 38 bd ef 2f 1d bd
       -0.0018548603 -0.06351175 -0.045008756 -0.03837579
0001b0 5a 6b c4 3d 8f 81 16 bd 2b f7 7d 3d 61 ea 5b 3d
       0.09590788 -0.03674465 0.062003296 0.053690318
0001c0 43 3f 31 be be 09 dd 3d 01 f8 00 3e 49 f0 6b 3d
       -0.17309289 0.10792874 0.12594606 0.0576022
0001d0 21 4f 1f 3e b3 85 24 be 48 5b 5f 3d 23 5e 2a 3e
       0.15557529 -0.16066627 0.054530412 0.16637473
0001e0 95 8c 9e bd b8 dc ef 3d b0 8d 58 3e 84 20 36 3d
       -0.07741658 0.11712021 0.211478 0.044464603
0001f0 cc f3 47 be 91 07 27 3e aa e3 2f 3e e9 b0 a5 3b
       -0.19526595 0.1631148 0.1717669 0.0050564897

lstm.bias_hh_l0 f4 [128]
000000 cf 57 c2 3d d8 86 1d 3e 9f 15 0b be 4f 9b 37 be
       0.094894044 0.1538347 -0.13582467 -0.1793034
000010 47 5b 9a 3d e7 0e b1 3c 7e 46 c8 bd 94 4a 1a be
       0.07536941 0.021613551 -0.0977907 -0.15067512
000020 0f c6 a4 bd 0f c8 19 3e 7d a5 ba bc 4d 32 0f be
       -0.08045589 0.15017723 -0.02278399 -0.13984032
000030 cb 84 10 3c 0d 79 08 bd d0 05 30 be 50 9a 2d 3e
       0.008820723 -0.033318568 -0.17189717 0.16953397
000040 7a ec 3d 3e d5 b2 26 3e 7e 0b ef bd b2 94 1c be
       0.1854724 0.16279157 -0.11672114 -0.15291098
000050 56 21 27 be 88 e4 1f 3e 8c ca a7 bd da 2f 10 3e
       -0.1632131 0.15614522 -0.081929296 0.14080754
000060 79 e9 9d bd 93 d9 ae 3d 62 be 86 3e 4d e0 9f bd
       -0.07710547 0.08537593 0.26317126 -0.07806454
000070 36 f4 4e 3d 3b 5b 42 3e 37 1b 3e 3d 1a cd 24 bd
       0.050525866 0.18980114 0.046412673 -0.040234663
000080 99 18 b5 bd 96 a0 99 3d 39 ab 0d be 04 79 3c bd
       -0.08842582 0.075013325 -0.13834848 -0.046013847
000090 38 90 58 3d 3e e5 19 3e 23 9c 19 3e fc c2 cc bd
       0.052871913 0.15028855 0.15000968 -0.09998128
0000a0 95 8e 0c bd 6f 64 1f 3d 39 72 f8 3c 23 c2 0b bc
       -0.034315664 0.03891414 0.030327903 -0.0085301725
0000b0 94 82 bd bd e1 e6 07 bd 4c 55 ae bc f8 0f b9 bc
       -0.092534214 -0.033179168 -0.021280907 -0.022590622
0000c0 18 57 9e 3d b7 b0 9d bd 08 b1 f3 bd af fd 97 3b
       0.077314556 -0.07699721 -0.118990004 0.0046383957
0000d0 97 97 80 bd ba 14 3b 3e b4 b6 00 be f0 4c c1 bd
       -0.062789135 0.18269625 -0.12569696 -0.09438503
0000e0 bc e4 36 3e 19 81 86 3d 5a 81 b1 3e 09 64 47 3e
       0.17860693 0.06567592 0.34669 0.19471754
0000f0 f2 f4 31 3e 3a 24 7e 3e 15 a2 04 3e e6 20 94 bd
       0.17378595 0.24818507 0.12952454 -0.072328374
000100 60 7b 38 bd fc a3 ed bc c8 97 df 3b e5 4f fa 3d
       -0.045039535 -0.029008858 0.0068235137 0.1222227
000110 60 10 45 3d f6 53 1e be 47 7f 01 3d e3 65 c6 3c
       0.04811132 -0.15461716 0.03161552 0.024218505
000120 ae 52 4f 3d 23 93 9c bc e1 ee 0f 3e 3f b3 0f be
       0.05061596 -0.019113129 0.14055969 -0.1403322
000130 4b 04 e2 3d 52 9d 13 3e aa 03 fe bd 7f e7 56 be
       0.11035975 0.14415482 -0.124030426 -0.20986746
000140 cf e5 e2 3d 88 7b f4 bd e0 5b 08 3d ad f9 6d bd
       0.11078989 -0.11937624 0.033290744 -0.058099438
000150 fa 2c 0b 3d d9 14 37 3e 77 7a eb 3d 61 17 05 3e
       0.03397844 0.17879046 0.11497968 0.129972
000160 43 d5 c7 3d 48 aa 29 be 1f 7c 36 3d ec 6c 04 3e
       0.09757473 -0.16568863 0.044551965 0.12932175
000170 17 d1 d0 3d 49 46 05 bd e9 b4 8e 3d 5b 00 45 3d
       0.10196131 -0.032537732 0.069680996 0.048096042
000180 0b 52 a5 bd d6 a3 00 be b5 27 cf bd 61 05 14 be
       -0.08072289 -0.12562498 -0.101149954 -0.14455177
000190 7f 03 1d bd c1 18 5a 3d a9 b4 be bd 6b 08 77 bd
       -0.038333412 0.053246263 -0.09311802 -0.060310762
0001a0 fc a6 ec bc 56 06 45 3e 12 23 da bd ea bd 42 3e
       -0.028888218 0.19240698 -0.106512204 0.19017759
0001b0 08 39 4f 3e e5 0f 02 3e 16 46 11 3e a2 4f 00 3e
       0.202366 0.12701376 0.14186892 0.12530378
0001c0 a9 67 b1 bd 0e 8e 56 3e 79 d0 0e be 1f dc 51 be
       -0.0866235 0.20952627 -0.13946714 -0.20494126
0001d0 37 69 1d 3e 95 d7 68 bd 83 c3 f3 3d 4a b8 9a bd
       0.15372168 -0.05684622 0.11902525 -0.075546816
0001e0 af 75 db bd 30 0c dc bd 4a 2d eb 3d 9d 6c 8c 3b
       -0.10715806 -0.10744512 0.114832476 0.0042854086
0001f0 18 19 bb bd 25 81 ee 3d 44 22 f0 3d da 30 53 bd
       -0.09135646 0.11645726 0.11725286 -0.05156026

hidden2out.weight f4 [2, 32]
000000 f3 25 2f 3e ad 9a ff bd 89 de c7 bc ae 48 99 bd
       0.1710432 -0.12480674 -0.024398105 -0.07484566
000010 fc de 34 be 6f 12 f1 3d 89 03 54 bd 47 0c ad bc
       -0.17663187 0.11771094 -0.051761184 -0.021124018
000020 c5 45 81 be 0f 92 db 3d 0d b0 d6 3d c5 50 26 be
       -0.25248542 0.10721218 0.10482798 -0.16241749
000030 cc 0f be bd 26 37 d4 bd ed 35 8b bc c2 39 87 be
       -0.09280357 -0.10362081 -0.016993487 -0.26411253
000040 92 65 10 3e ea 6b ae 3d dc 7c cd bb 25 4b 92 3d
       0.14101246 0.08516677 -0.006270988 0.07143239
000050 ce 2a 1d be 1a 18 bf 3d 69 e3 c3 bc 03 c1 bb 3d
       -0.1534836 0.09330769 -0.023912149 0.091676734
000060 89 ea 7e 3e 63 47 f6 bd 69 c8 62 3c 7c 2a 12 bd
       0.24894156 -0.12025335 0.013841727 -0.035685048
000070 41 eb 17 3e 66 95 25 3e 0b 6a 17 bc 8e 40 2d 3e
       0.14835836 0.16170272 -0.009241591 0.16919157
000080 82 14 05 3e 15 65 3a bd a4 e6 07 3e d4 23 87 3e
       0.12996104 -0.045506556 0.13271576 0.26394522
000090 fd 9b a0 3c 6b a0 50 be 2d a0 3f 3d 9d 26 1b be
       0.019605631 -0.20373695 0.046783615 -0.15151449
0000a0 d7 33 2e 3d 27 ab b4 be 7c ec 77 3e 23 ab e2 bd
       0.042529907 -0.3528683 0.24211305 -0.11067798
0000b0 29 81 98 bd ac e5 ca 3d 5a da 01 be 41 09 39 3e
       -0.0744651 0.09907088 -0.12680951 0.18069936
0000c0 4e f4 28 3d 2e 80 4a 3e c6 90 64 be 6b 67 0b 3d
       0.041248612 0.19775459 -0.22320852 0.034034174
0000d0 c8 17 40 3e 9e 6c bd 3d 70 2c 44 bd 0d 7b 40 3e
       0.18759072 0.09249233 -0.04789394 0.1879694
0000e0 1e f1 96 3d bb cd 83 bd b7 da 92 be 9c 2c 0a 3e
       0.07370208 -0.06435724 -0.2868249 0.1349358
0000f0 f6 fa d9 3d e8 0b 10 be 15 5f 30 bd 15 64 ca 3d
       0.1064357 -0.14067042 -0.043059427 0.098823704

hidden2out.bias f4 [2]
000000 a1 e3 69 3e 89 2d bc bd
       0.2284074 -0.09188373

std_layer.weight f4 [2, 32]
000000 df a1 a0 3d 87 2a ce bd 79 f6 74 3c 13 74 18 bd
       0.078433745 -0.10066705 0.014951342 -0.037220072
000010 81 8b 12 3d 21 f9 cb 3d 46 fb 92 bb c0 29 0a 3e
       0.035777573 0.09959627 -0.0044855205 0.13492489
000020 e5 22 8c bd 77 25 ce bd 83 23 15 3e 69 f7 91 3b
       -0.06842593 -0.100657396 0.14564328 0.0044545424
000030 1f f6 49 bd d0 fc 35 3d c1 5d 2d 3d 10 38 e3 bc
       -0.049306985 0.044430554 0.04232574 -0.027736694
000040 6e 76 bb bd 97 d1 b7 bd aa 1c 06 bd b7 ed a5 3c
       -0.09153448 -0.08975523 -0.03274218 0.020254953
000050 e2 d6 26 be 68 48 0c 3e bb 86 41 b9 28 02 00 b9
       -0.16292909 0.13699496 -0.00018456105 -0.00012207835
000060 86 d7 26 3d 31 dc e0 3c 3e 4c 2f 3d f6 a1 00 ba
       0.040732883 0.027448745 0.04279732 -0.00049069466
000070 b2 e8 a6 bc e6 1a f1 bd 4f a5 aa 3d 49 a9 26 3e
       -0.02037463 -0.117727086 0.08332311 0.16275515
000080 56 d2 eb 3d c8 6a 29 be fc 56 f4 3d 8e 47 6f 3d
       0.11514728 -0.1654464 0.119306535 0.05841785
000090 81 c4 23 be ca 70 28 3e 48 eb 12 3e 9a 04 21 3e
       -0.15992929 0.16449276 0.14347565 0.15724412
0000a0 db 42 1f be 3b 6a 55 bd a2 a4 5d 3c a2 73 c4 bd
       -0.15552847 -0.052103262 0.013528021 -0.09592368
0000b0 a3 2c d2 bb 4f d5 0a bd 2f d5 65 3d 5e dd ee bd
       -0.0064140125 -0.033894833 0.05611151 -0.11663316
0000c0 21 80 91 bc 9a 79 17 3e 33 bc ee 3d 4c d4 26 3d
       -0.017761292 0.14792481 0.1165699 0.040729806
0000d0 98 6c c0 bd bd d1 d4 bd 76 10 20 3e 4b 54 a1 3c
       -0.093957126 -0.10391567 0.1563128 0.019693514
0000e0 8c 1b 50 bc b2 24 16 be 03 00 72 bd 0a bb 2d be
       -0.01270188 -0.14662436 -0.059082042 -0.16965881
0000f0 8f 0d a4 3d 69 81 9e 3c cf e6 0e bd 69 71 6a 3d
       0.080103986 0.019348817 -0.034888085 0.057237063

std_layer.bias f4 [2]
000000 6d fc f6 3c 63 4e 1e 3d
       0.030149663 0.038648974

exp_avg f4 [128, 10]
000000 72 ec c5 3b 9c 60 0a 3c 18 8e 27 bb df 6c 68 3b
       0.0060401494 0.008445885 -0.0025566872 0.0035465283
000010 c7 e2 75 3a 67 6d a7 ba 94 7b 20 b7 f7 68 0a bb
       0.0009379801 -0.0012773693 -9.565516e-06 -0.0021119693
000020 26 c7 df 3a 1a 49 a3 b8 52 e4 09 39 19 1b 89 37
       0.0017072901 -7.786062e-05 0.00013150394 1.6344291e-05
000030 50 c5 41 39 3c bd 07 3a 63 3a 34 39 fa f3 2e b9
       0.00018479419 0.00051780394 0.00017187888 -0.00016684821
000040 1b b0 2c 37 46 e0 6b 39 8d 45 91 38 2d d1 1d b8
       1.0293002e-05 0.00022494895 6.927094e-05 -3.7626527e-05
000050 4b be a4 39 89 a6 dd 39 8a 34 20 b9 c6 b0 92 39
       0.00031422297 0.00042276483 -0.00015278361 0.00027978997
000060 62 ec d9 35 5e 8f 1f b9 30 94 41 35 75 d6 03 b9
       1.6236556e-06 -0.0001521683 7.2113744e-07 -0.00012573025
000070 7b 22 29 38 07 06 8f b7 9d a6 e4 3a 81 d0 68 3b
       4.0324852e-05 -1.7049735e-05 0.0017444674 0.0035524669
000080 61 81 cc ba 63 9f 74 ba 24 20 03 ba d8 28 aa b9
       -0.0015602523 -0.0009331612 -0.0005002043 -0.00032455358
000090 f4 9a fa b7 3e e7 a6 ba 32 26 64 ba 33 35 ea 37
       -2.9874478e-05 -0.001273371 -0.00087032013 2.7919747e-05
0000a0 05 b5 dc 3a 24 06 33 3b 10 23 2f ba 8e 37 49 3a
       0.0016838616 0.0027316893 -0.0006680945 0.000767582
0000b0 57 53 43 37 f1 fc 25 ba c6 cf 99 b5 27 c2 12 ba
       1.164231e-05 -0.00063319417 -1.1459858e-06 -0.0005598389
0000c0 90 c9 b2 35 e4 44 57 b8 a6 9c 0c 38 37 a7 2a bb
       1.3320696e-06 -5.1324154e-05 3.352449e-05 -0.002603961
0000d0 42 db 3f ba 05 ef f7 3a e5 23 94 3a 62 1f f6 b9
       -0.0007318744 0.0018915838 0.0011302201 -0.00046944158
0000e0 df 9c db b6 bf b7 06 ba 5b 75 97 3b 7d 6b b5 b7
       -6.544971e-06 -0.00051390746 0.004622144 -2.1626935e-05
0000f0 d9 4c 18 3c 3b eb 82 3c 92 2c 77 bb 6b 8e 16 3b
       0.009295666 0.015981307 -0.0037715775 0.0022973071
000100 45 9e 36 39 9a 69 de ba a9 ef e4 b7 7f a3 4a bb
       0.00017415833 -0.0016968728 -2.7291318e-05 -0.0030920205
000110 ab 12 20 bb c0 a1 8d b8 a6 ef d4 ba f1 c2 26 bb
       -0.002442519 -6.753532e-05 -0.0016245737 -0.0025445784
000120 9c 92 53 3a 14 e0 28 ba 4b 42 48 b8 ef 56 0e 3a
       0.0008070858 -0.00064420816 -4.7745456e-05 0.0005429824
000130 13 ca 9b 34 54 a8 3e 3a 44 8a 9c b8 22 46 f2 37
       2.9018028e-07 0.00072730076 -7.464414e-05 2.8881306e-05
000140 0f 1c 68 3b 46 60 d2 3b 43 e3 ab ba 26 aa 49 3a
       0.0035417115 0.006420168 -0.0013113994 0.00076928956
000150 b2 0a 3a b8 23 8c 00 ba 52 6d d3 b6 cb d7 89 ba
       -4.4355816e-05 -0.00049036945 -6.3010166e-06 -0.0010516582
000160 f4 48 73 ba 9b 56 ef b7 0b aa b2 ba b5 36 4c bb
       -0.0009280585 -2.8531349e-05 -0.0013630999 -0.0031160538
000170 67 fc c5 3a c2 56 c8 3a ac 19 bf b7 7c 71 49 39
       0.0015105129 0.0015284645 -2.2780929e-05 0.0001921113
000180 e7 f5 04 38 ce 8f ad 3a c7 b8 9c 3a e0 81 44 b8
       3.1700267e-05 0.001324171 0.0011956923 -4.6850997e-05
000190 c9 e6 b9 3b 42 82 13 3c 52 d3 d8 ba 92 ae 4f 3b
       0.0056732637 0.009003224 -0.001654247 0.0031689745
0001a0 6f 2c d1 b7 07 09 da ba 29 21 bb 36 23 95 b5 ba
       -2.4935433e-05 -0.001663477 5.5768946e-06 -0.001385365
0001b0 47 47 8b 39 ad 25 10 b9 d3 69 19 3c 43 f8 7e 3c
       0.00026565252 -0.00013746945 0.009363609 0.01556212
0001c0 ea d4 5f bb 22 3b 62 3b 1f 7d b2 b9 7b d1 e8 ba
       -0.0034154006 0.003452011 -0.00034044028 -0.0017762625
0001d0 3c 92 6f b7 d8 59 36 bb 63 d0 c1 ba 1f 81 c6 b8
       -1.4279558e-05 -0.0027824547 -0.0014786836 -9.4654264e-05
0001e0 5c 85 87 bb 67 5a 00 bc 27 00 b7 b8 c8 4e 1b bb
       -0.0041357707 -0.007834054 -8.7261484e-05 -0.002369808
0001f0 2c 2e 69 ba bc 1e aa 3a b1 d6 38 b8 cf 24 ea b7
       -0.0008895125 0.001297913 -4.4068966e-05 -2.7912114e-05
000200 89 5d c4 3a 7e 84 67 39 ec 21 9a 39 35 a9 6a 39
       0.0014981489 0.00022079234 0.00029398443 0.00022379014
000210 14 3a 54 39 c0 87 36 3a d0 3f e6 38 7e 6a 9b b7
       0.00020239531 0.00069629773 0.00010979141 -1.852703e-05
000220 85 ee 2c 37 43 c7 85 39 61 60 14 3a 43 c1 b5 b7
       1.0307534e-05 0.00025516198 0.00056601135 -2.1666876e-05
000230 57 ea 0b 3b 56 4f 0d 3b ee f7 05 ba 47 72 0f 3b
       0.0021349394 0.002156218 -0.0005110492 0.0021888183
000240 0b a1 bb 39 ed 88 20 ba 51 bf 1c b6 77 8b eb b9
       0.00035787406 -0.0006123919 -2.3357172e-06 -0.00044926602
000250 ce cd ac 3a b8 b6 f5 b7 56 fe 6e 3a cb 4b e1 3a
       0.0013183893 -2.9291361e-05 0.00091168785 0.0017188726
000260 08 23 99 b9 dd 60 4f 39 ff 6d e8 b6 ad eb a2 b7
       -0.00029208534 0.00019777143 -6.926944e-06 -1.942165e-05
000270 3b a8 d6 b2 66 dc 52 b9 66 52 98 b9 42 eb 3c b5
       -2.4989381e-08 -0.00020109265 -0.0002905309 -7.03778e-07
000280 4c c2 e0 38 a3 c8 b6 39 a1 37 92 b9 65 f0 b9 b9
       0.00010717343 0.0003486323 -0.00027888737 -0.00035465058
000290 eb 2f ce 36 9f 2a 11 37 0a 26 8f b6 8d c7 45 b9
       6.144857e-06 8.652597e-06 -4.2661604e-06 -0.00018861722
0002a0 57 2a db b8 d8 e4 24 37 08 01 a8 3b ac af 10 3c
       -0.0001045062 9.828444e-06 0.005127076 0.008830946
0002b0 8b 9f 3b bb 92 ea 30 3b ee 04 45 ba 5c 7f 3f bb
       -0.002862903 0.0026995284 -0.0007515688 -0.00292202
0002c0 27 95 1b 38 84 30 1b bb 5f 84 99 b9 d7 fd b6 b9
       3.709379e-05 -0.002368004 -0.00029281058 -0.0003490287
0002d0 38 db 8f 3a 24 dc 87 3a 39 00 29 b9 6c 43 c0 3a
       0.0010975366 0.001036529 -0.00016117179 0.0014668531
0002e0 b7 6a 2d b9 67 3d fa b9 a2 44 4d 36 f7 b5 87 b8
       -0.0001653832 -0.00047729464 3.058733e-06 -6.471195e-05
0002f0 ed c9 fe 39 75 41 3b b8 67 5b a1 ba 17 7e 83 ba
       0.00048597102 -4.4645236e-05 -0.0012310565 -0.0010032085
000300 f9 aa f4 38 fc 13 97 ba 0b 68 17 ba 9f f8 88 b7
       0.00011666673 -0.0011526342 -0.00057756965 -1.6328237e-05
000310 3b 10 2d 37 02 bc ec 38 e9 13 a8 b9 03 6e 5a b8
       1.03153825e-05 0.00011288376 -0.0003205829 -5.2077707e-05
000320 87 52 87 ba d8 98 c6 3a 51 d8 2b bb 70 ff b3 bb
       -0.0010324278 0.0015151752 -0.0026221464 -0.005493097
000330 b1 5c de ba 79 9e b9 39 8d 29 30 b8 75 c8 18 bb
       -0.001696488 0.0003540402 -4.2000367e-05 -0.002331284
000340 24 9b 6d ba e4 bb 94 38 28 89 d5 3b 1d b9 32 3c
       -0.000906395 7.092187e-05 0.0065165944 0.010908392
000350 cf f2 31 bb a3 a5 ee 3a 63 cf b2 b8 88 43 7f ba
       -0.0027152782 0.0018207323 -8.52633e-05 -0.0009737541
000360 4e 59 87 b7 47 fb 0e bb 9d 0c 14 ba dd bb 13 b8
       -1.613484e-05 -0.0021817253 -0.00056476315 -3.5222492e-05
000370 ea 9b 92 bb b0 f6 3e bc 23 09 cf 3b a4 db f8 3b
       -0.004474153 -0.011655495 0.006318228 0.0075945426
000380 47 36 c9 3a e1 d9 0b ba 15 ea 35 39 a8 fe bc 3b
       0.0015351259 -0.00053348957 0.00017348707 0.005767662
000390 ca 0c 68 3b 2f 90 cc b9 5e ba f9 3a 9d f7 e7 3a
       0.0035408014 -0.00039017337 0.0019052734 0.0017697696
0003a0 35 60 81 39 a7 87 54 3b f2 4e 5a b9 70 b5 8d ba
       0.00024676477 0.0032429488 -0.0002081951 -0.0010811519
0003b0 e2 8b dd 37 d4 fc 98 39 6e 76 8c 3a 0c 07 10 b9
       2.6410391e-05 0.0002918007 0.0010716447 -0.00013735535
0003c0 ba 90 d5 3a f0 e2 45 39 8f fe 0e 3b ab 4d b0 3b
       0.0016293742 0.00018871925 0.002181921 0.0053803525
0003d0 35 2d c0 3a 96 5f 6b ba d6 6a 8e 38 d5 6a 0c 3b
       0.001466191 -0.0008978782 6.7909874e-05 0.0021425982
0003e0 4e e4 a5 39 d1 28 48 b9 7a 7c 96 3b fa 6e 03 3c
       0.00031641353 -0.00019088692 0.0045924755 0.008022064
0003f0 e5 d1 9d ba b3 a2 f0 3a fe 29 7e b8 a1 d9 7f ba
       -0.0012040703 0.0018359035 -6.0597427e-05 -0.0009759907

exp_avg_sq f4 [128, 10]
000000 98 56 8b 39 cc 3c 45 3a c3 e2 9b 38 b7 36 be 37
       0.00026576663 0.0007524013 7.4332136e-05 2.2675244e-05
000010 bf d6 2f 35 fc 73 9d 36 e3 bb 56 31 29 de 98 38
       6.5505077e-07 4.692467e-06 3.12479e-09 7.289305e-05
000020 f4 f4 57 37 de f3 a1 33 9e be b3 35 09 71 85 36
       1.2872031e-05 7.541506e-08 1.3392016e-06 3.976868e-06
000030 1a 98 86 35 20 76 2e 35 75 05 65 33 47 37 0b 34
       1.0028045e-06 6.4991946e-07 5.332318e-08 1.2965494e-07
000040 78 d5 26 30 fc 0c 85 35 03 41 38 34 db f2 17 32
       6.0693806e-10 9.913051e-07 1.7159986e-07 8.844576e-09
000050 22 d3 d8 36 11 22 9d 37 32 32 1e 36 8d e9 be 34
       6.4618807e-06 1.8731722e-05 2.3573052e-06 3.5560188e-07
000060 3a 46 db 30 05 80 76 34 f2 c8 9f 2f ca b3 1c 36
       1.5954307e-09 2.2957109e-07 2.9064712e-10 2.3350462e-06
000070 b4 e9 2f 35 18 93 e3 31 bd 13 8e 37 c5 2f 91 38
       6.5532663e-07 6.623292e-09 1.693691e-05 6.9230366e-05
000080 62 26 0f 37 f1 46 20 36 2e 4f d2 34 0e c9 bc 34
       8.532401e-06 2.3883151e-06 3.917316e-07 3.5164015e-07
000090 07 9a 7f 31 88 93 0a 37 a3 56 25 35 cb c8 01 33
       3.7194938e-09 8.259791e-06 6.1593363e-07 3.0217773e-08
0000a0 a6 03 ee 37 96 f9 ba 38 45 bc d2 36 3a 3c df 35
       2.837351e-05 8.91566e-05 6.280405e-06 1.6632323e-06
0000b0 d6 51 f7 31 5e d0 7a 35 d3 ab 5a 30 6b d1 cf 36
       7.19795e-09 9.343547e-07 7.9552115e-10 6.19346e-06
0000c0 f0 b5 8c 35 a8 9c a7 32 3f ff ba 37 87 22 76 38
       1.0483764e-06 1.9512598e-08 2.2291786e-05 5.8683127e-05
0000d0 5b 6b e2 37 0a 0e 7c 36 71 af 19 35 92 54 bc 35
       2.699129e-05 3.7559098e-06 5.725224e-07 1.4031705e-06
0000e0 e3 aa 55 31 1f e7 df 37 ff 03 31 38 aa 89 a7 33
       3.1092717e-09 2.6691296e-05 4.220381e-05 7.8015844e-08
0000f0 be 2e d9 39 59 d3 b4 3a 27 9d 73 38 c1 61 52 37
       0.0004142429 0.0013795897 5.8082074e-05 1.25397355e-05
000100 9c 96 cb 33 8e 1e 9f 36 c0 0a 8c 30 44 c6 6b 38
       9.48032e-08 4.7421263e-06 1.0189396e-09 5.6213015e-05
000110 f2 80 3e 37 bc d8 83 32 f6 b0 d6 36 ae 02 9c 37
       1.1354905e-05 1.5348967e-08 6.398298e-06 1.8597897e-05
000120 04 e7 cf 35 21 06 43 35 b8 c0 61 31 4e 0c f2 34
       1.5489936e-06 7.265208e-07 3.2851357e-09 4.5084965e-07
000130 5e ae 85 2f cb fa ca 35 70 8a 42 34 af a7 b8 31
       2.4316454e-10 1.5123163e-06 1.8118021e-07 5.374168e-09
000140 a0 21 b5 38 73 e3 9f 39 3f 0b 20 37 b8 ce 0c 36
       8.637016e-05 0.00030496306 9.539362e-06 2.0981952e-06
000150 88 53 35 31 38 b0 3f 35 80 bd 94 2e d2 f0 1a 37
       2.6386449e-09 7.1409477e-07 6.763923e-11 9.235186e-06
000160 1e e0 20 36 34 76 44 31 6e 06 c4 36 31 03 0a 38
       2.3972311e-06 2.8588945e-09 5.8420037e-06 3.2904736e-05
000170 b1 79 4e 37 95 94 63 37 66 88 1c 34 d1 51 07 36
       1.230689e-05 1.3564849e-05 1.4578254e-07 2.016419e-06
000180 6a 71 4f 32 1c 08 4c 37 f9 11 4c 36 32 af 3a 34
       1.2074773e-08 1.2161236e-05 3.040883e-06 1.7386336e-07
000190 9d bb 4c 39 83 0f 1f 3a 68 38 0c 38 f7 cb b4 37
       0.00019524847 0.000606768 3.3431133e-05 2.155265e-05
0001a0 9c ad 70 33 33 36 c0 36 1d 1a 0c 32 38 0e 0a 38
       5.603725e-08 5.7283555e-06 8.15501e-09 3.2915006e-05
0001b0 29 62 5b 36 56 97 2d 34 af 7b fe 39 18 5b cb 3a
       3.269068e-06 1.6166936e-07 0.00048538807 0.0015514819
0001c0 c8 67 97 38 75 ea 07 38 41 29 34 34 57 aa d5 36
       7.219572e-05 3.2404863e-05 1.6778814e-07 6.367725e-06
0001d0 c3 fd a4 31 7a 81 93 38 76 22 02 37 fc d9 bc 33
       4.8018776e-09 7.033623e-05 7.756627e-06 8.794083e-08
0001e0 c1 16 3e 38 f3 8e 35 39 af bb 02 35 8b bc cd 36
       4.532072e-05 0.00017314758 4.870189e-07 6.1314254e-06
0001f0 da d2 91 34 c8 46 18 36 4f 06 54 31 af e7 01 35
       2.716177e-07 2.2690965e-06 3.0853646e-09 4.839339e-07
000200 ba c0 d9 36 c7 11 b6 33 fc b7 3b 37 97 6a 0c 38
       6.4895403e-06 8.478269e-08 1.1188906e-05 3.347787e-05
000210 ed fe 57 36 b4 a3 08 36 3c 46 5b 33 e4 4b 8a 34
       3.2185883e-06 2.0360867e-06 5.105379e-08 2.575972e-07
000220 e5 e0 a5 30 c1 82 55 36 64 7a 6a 35 94 19 a5 32
       1.2069249e-09 3.1815582e-06 8.7349895e-07 1.922016e-08
000230 9d a4 32 38 24 0e d9 38 f1 68 6f 37 2c 8e 5f 37
       4.2591815e-05 0.0001035 1.4269944e-05 1.3324938e-05
000240 b6 1a 0c 35 3a a8 fb 35 76 5d 88 31 10 ad 6d 37
       5.2192934e-07 1.8749918e-06 3.968746e-09 1.4166595e-05
000250 24 a4 cc 36 3f 7f 91 33 f8 b5 94 37 af b1 89 38
       6.0987823e-06 6.7752346e-08 1.772771e-05 6.565765e-05
000260 d5 45 b2 35 26 7f a0 34 49 55 52 2f 8b a2 c5 33
       1.3282357e-06 2.9894835e-07 1.9129688e-10 9.203094e-08
000270 20 74 f8 2c f7 ad ac 35 62 e5 2d 35 53 69 b9 2f
       7.0614764e-12 1.2865629e-06 6.478132e-07 3.372614e-10
000280 39 ca 1c 35 87 be c9 35 cd 36 13 35 9f e7 20 34
       5.84088e-07 1.5031118e-06 5.4841513e-07 1.4985424e-07
000290 06 6b 2a 32 b8 26 a6 33 fe bd a2 2f 9e a7 0e 35
       9.919637e-09 7.73702e-08 2.9602626e-10 5.314304e-07
0002a0 76 af 2f 34 05 39 ea 31 a5 76 71 39 c5 c4 3d 3a
       1.6361977e-07 6.8167787e-09 0.0002302775 0.0007239099
0002b0 0a a7 ca 38 cc 67 84 37 dd 2a 81 35 18 c0 85 37
       9.663224e-05 1.578396e-05 9.623724e-07 1.5944286e-05
0002c0 e2 5f 00 33 12 78 c7 38 a5 b8 1f 37 32 b8 2b 35
       2.9889527e-08 9.511424e-05 9.520129e-06 6.3970504e-07
0002d0 6b 06 53 37 fb 47 08 38 cb a5 0c 37 70 15 3c 37
       1.2578074e-05 3.2491964e-05 8.383252e-06 1.12106645e-05
0002e0 e8 0d bc 33 13 07 05 36 1e 76 06 32 75 62 0b 37
       8.756962e-08 1.9822662e-06 7.826683e-09 8.307969e-06
0002f0 cf 57 21 36 3c 3a 0d 34 99 e3 f8 35 41 e2 e2 35
       2.404198e-06 1.3152834e-07 1.854368e-06 1.6904161e-06
000300 11 a5 e3 33 8f 13 b2 35 e4 a6 87 34 0e fb 1b 33
       1.06005366e-07 1.3267726e-06 2.5267138e-07 3.6317083e-08
000310 f6 47 0e 2f 0d fc de 33 09 e1 fe 34 57 e7 cf 31
       1.294039e-10 1.0383528e-07 4.747492e-07 6.050793e-09
000320 f9 2c 91 36 5c 66 08 37 37 a7 82 37 de 48 91 38
       4.3265723e-06 8.130064e-06 1.5575073e-05 6.9277114e-05
000330 24 f3 af 36 65 7c 14 36 52 de 32 32 51 40 80 37
       5.2437117e-06 2.2126126e-06 1.0411513e-08 1.5288739e-05
000340 3a f5 3c 36 96 25 c2 33 83 bc 8d 39 2c 28 68 3a
       2.8156924e-06 9.040666e-08 0.00027034068 0.0008856084
000350 f4 15 31 38 7d 19 0f 37 7a 73 8b 32 ec 32 1a 36
       4.2220534e-05 8.529399e-06 1.6234242e-08 2.2977429e-06
000360 a6 8e 52 30 67 a4 2b 38 cc 12 56 36 be f8 80 32
       7.660027e-10 4.092269e-05 3.1899426e-06 1.5014276e-08
000370 9c eb 33 38 a0 73 b9 39 85 94 d6 38 92 6e 27 39
       4.2896354e-05 0.00035372097 0.00010231979 0.00015967552
000380 b9 33 c2 36 75 5b 6f 37 07 28 da 33 d0 2c d3 38
       5.787672e-06 1.4266804e-05 1.0158697e-07 0.00010069611
000390 d7 a2 90 37 75 fa 9a 35 b7 df 3a 38 cb 26 f9 38
       1.7241966e-05 1.1546787e-06 4.4554206e-05 0.00011880471
0003a0 b3 b6 8e 37 c9 2f 04 38 d4 3c c6 34 4d 71 8b 36
       1.7012795e-05 3.1515756e-05 3.6924632e-07 4.1557128e-06
0003b0 ed 87 4d 32 0f fe 8d 37 7e b7 4e 36 95 df 56 34
       1.1963476e-08 1.6926815e-05 3.0803199e-06 2.0011642e-07
0003c0 7f 91 04 38 68 89 8d 38 28 e1 c2 37 92 cd 9a 38
       3.1606756e-05 6.748998e-05 2.3231449e-05 7.381583e-05
0003d0 40 20 99 36 a2 8e a6 36 e6 42 c8 32 6c b6 c1 37
       4.5635097e-06 4.96379e-06 2.3313486e-08 2.309234e-05
0003e0 5e 94 e8 35 85 c1 95 34 43 a6 07 39 a7 8c e8 39
       1.7328528e-06 2.7894217e-07 0.0001293654 0.00044355282
0003f0 f5 3f 5d 37 91 04 db 36 e5 96 46 32 42 0f f1 35
       1.3187518e-05 6.52724e-06 1.1559426e-08 1.796034e-06

exp_avg f4 [128, 32]
000000 7c ea 4d ba 84 1e 69 b8 98 20 94 39 91 eb a4 b9
       -0.000785507 -5.557995e-05 0.00028253044 -0.00031456028
000010 78 bf 8b 3a af 0c 39 b9 ff 96 15 bb b5 64 17 bb
       0.001066192 -0.000176477 -0.0022825596 -0.0023100798
000020 bd 33 ed 3a 92 93 63 ba 7c bb a0 ba 75 1f e1 3a
       0.0018097084 -0.00086813525 -0.0012262906 0.0017175513
000030 ad 1a a5 ba 34 16 e5 b8 0b 0d b9 39 39 f7 a1 3b
       -0.0012596451 -0.000109237066 0.00035295667 0.0049428013
000040 45 d2 d5 39 c7 9c 9e ba 29 63 92 39 75 4f 0f 3a
       0.0004078319 -0.0012101167 0.0002792117 0.0005466857
000050 7d 7a 05 38 c9 b3 ef ba 58 52 15 ba 37 fe 8f ba
       3.1823747e-05 -0.0018287833 -0.0005696169 -0.0010985796
000060 af 9f 3c ba d1 d2 16 3b ab 2f 0c b9 d5 29 51 3a
       -0.00071954256 0.002301384 -0.00013369198 0.0007978951
000070 5b 12 cf b8 ed 62 b4 bb 89 39 06 3b cf 3d c5 ba
       -9.873948e-05 -0.005504957 0.002048107 -0.0015048328
000080 49 84 41 39 f9 30 14 b9 68 b3 6e b9 8d ed fc 36
       0.00018455194 -0.00014132624 -0.00022764283 7.53784e-06
000090 05 0a 02 b9 02 84 85 b9 a7 a9 bd 38 c2 c0 5c b9
       -0.00012401499 -0.0002546609 9.0438225e-05 -0.00021052643
0000a0 61 d1 ef b8 69 cb 22 b9 18 cb 1d 38 5e 1d 8f b8
       -0.00011435408 -0.000155253 3.7620863e-05 -6.8242414e-05
0000b0 e3 2d 62 b9 85 eb 0c 39 a5 28 2e b9 70 10 5c b8
       -0.00021570134 0.00013439178 -0.00016609074 -5.2467396e-05
0000c0 b7 7c 3d 39 4f 1e 86 38 95 6f 90 b8 37 00 b4 b7
       0.00018070904 6.395263e-05 -6.887239e-05 -2.1457772e-05
0000d0 f4 78 b7 b8 78 0d 1c 39 4f b8 82 b8 05 91 0a 38
       -8.748649e-05 0.00014882337 -6.233213e-05 3.3036824e-05
0000e0 45 3f 22 39 20 07 c9 b6 ab 0f 88 b9 03 f6 52 39
       0.00015473094 -5.9910963e-06 -0.00025951615 0.00020118807
0000f0 83 92 04 39 f4 08 84 b9 bb fd 1e b8 b2 a6 11 39
       0.00012643081 -0.00025183673 -3.790644e-05 0.00013890376
000100 cd ec 3c 38 c2 ad 9a b8 9c d2 7f b8 77 1b 74 37
       4.504323e-05 -7.375657e-05 -6.0992883e-05 1.4549928e-05
000110 0b 5f 5a 37 af 15 07 b9 1a 74 a5 b8 55 79 29 b9
       1.30159415e-05 -0.00012882681 -7.889439e-05 -0.00016162296
000120 97 98 83 38 bd da 27 b9 7c a4 f1 b6 73 23 3d 38
       6.274989e-05 -0.00016007847 -7.201508e-06 4.5094126e-05
000130 99 62 26 b9 54 98 a0 38 c1 6f 83 b8 7c 5f 9a 39
       -0.00015867724 7.657768e-05 -6.2673826e-05 0.0002944431
000140 50 09 97 38 49 fd 70 37 72 5b 5d b8 03 3f 1b 38
       7.201976e-05 1.4364087e-05 -5.277567e-05 3.7013564e-05
000150 5c 87 f2 36 04 55 95 b7 72 4b a5 b8 e9 6a 47 b6
       7.22792e-06 -1.7801773e-05 -7.881866e-05 -2.971554e-06
000160 5b c0 de 37 80 0d b0 38 0e 9e 18 b9 b8 07 f7 38
       2.6554035e-05 8.3948486e-05 -0.0001455473 0.000117793155
000170 68 76 24 38 a6 96 b6 b9 ad 70 e0 37 33 00 27 36
       3.921092e-05 -0.00034825987 2.675535e-05 2.4885055e-06
000180 ed f6 28 ba 97 e1 c7 39 76 b8 45 3a bd fc 80 b9
       -0.0006445486 0.00038124315 0.00075424404 -0.00024602367
000190 2f 88 4d 3a 17 09 06 3a 7e 2f 7f ba 14 7f 2c b8
       0.00078404223 0.0005113049 -0.0009734555 -4.1126346e-05
0001a0 28 08 82 3a 55 cd 2f 39 9c a7 16 ba bf 08 4f 3a
       0.0009920644 0.00016765793 -0.00057470216 0.00078977266
0001b0 27 da 36 39 45 29 b8 b9 7d 8e 06 3a 19 9e f7 3a
       0.0001743814 -0.00035125963 0.0005132927 0.0018891721
0001c0 37 8b de b9 a8 83 a0 b9 e6 51 c3 39 fc 3d 77 39
       -0.00042446863 -0.0003061567 0.00037254317 0.00023578847
0001d0 f8 0a 91 39 ac 1c 87 ba de a9 25 b9 1f f5 d1 b9
       0.00027664728 -0.0010308228 -0.00015798907 -0.00040046216
0001e0 3b 90 40 ba 30 a4 53 3a a4 d6 0a 3a 7b 4f 91 b9
       -0.0007345711 0.0008073477 0.0005296266 -0.00027715773
0001f0 f8 28 be b9 3a c7 88 ba 04 95 f5 39 37 6d 6b ba
       -0.00036270148 -0.0010435351 0.00046841067 -0.0008980813
000200 57 43 6e b8 21 a8 b5 b8 ad 86 3b 38 ed fe 0d b8
       -5.6806337e-05 -8.662069e-05 4.47097e-05 -3.3854438e-05
000210 9f 28 93 39 d1 c1 86 b9 ca 22 0b ba c2 0a 1a ba
       0.0002806829 -0.00025702876 -0.0005307613 -0.0005876237
000220 2c 4d fc 39 0e 2f d5 b9 e7 33 67 b9 36 7e c6 39
       0.00048122683 -0.00040661584 -0.00022049212 0.00037859537
000230 99 67 f9 b9 0f 32 a9 38 67 de ec b7 74 a9 b8 3a
       -0.00047570167 8.067872e-05 -2.8236956e-05 0.0014088587
000240 e9 8d 1f 39 0c 53 04 b9 c2 30 1f b8 1b f3 33 39
       0.00015216287 -0.00012619438 -3.7953963e-05 0.00017161334
000250 22 07 3e 38 ce 5c c1 b9 c9 5d 91 b9 30 53 2a b9
       4.5306173e-05 -0.00036880973 -0.0002772643 -0.00016243453
000260 c2 7d 14 b9 91 87 17 3a fe d0 92 b9 48 bc 93 39
       -0.00014161228 0.0005780394 -0.00028003 0.00028178305
000270 73 f6 7c 37 5c 09 c6 ba a4 13 b6 39 af 4f 91 b9
       1.5077751e-05 -0.001510899 0.00034728379 -0.00027715924
000280 28 44 2c ba dd 3f cb 38 69 ac 71 b9 96 f5 e2 b8
       -0.00065714354 9.69169e-05 -0.00023047779 -0.00010822264
000290 67 4a f4 b8 60 02 70 3a 1a 34 cd b9 90 18 1d ba
       -0.00011648685 0.00091556273 -0.00039139466 -0.0005992735
0002a0 e4 1a 59 b9 87 d5 68 39 d3 ae b3 b9 22 95 68 39
       -0.0002070475 0.0002220479 -0.00034271795 0.000221808
0002b0 14 64 cc 39 10 c1 a7 b8 d5 64 d5 39 dd 09 78 b8
       0.00038984476 -7.999141e-05 0.00040701652 -5.9136994e-05
0002c0 00 55 9a 37 82 cb 81 ba d5 85 8f 39 e6 50 d6 36
       1.8397812e-05 -0.0009902569 0.00027374798 6.387115e-06
0002d0 c1 77 5b b7 1d a2 a1 b9 18 27 12 3a 2f 51 24 ba
       -1.30813e-05 -0.00030829097 0.00055752834 -0.0006268201
0002e0 5b 4f 59 39 9d 27 48 b8 fe d6 a1 3a 6d c9 e4 b8
       0.00020724295 -4.772061e-05 0.0012347398 -0.00010909406
0002f0 61 81 81 39 b4 3e 14 b8 28 72 40 3a 51 03 92 b9
       0.00024701192 -3.5344347e-05 0.00073412294 -0.0002784976
000300 5a 4d 91 ba 7e d5 a8 39 4e cd 9a 3a 26 38 29 ba
       -0.0011085675 0.0003220252 0.0011810453 -0.0006455205
000310 34 ac 09 3b 98 ea b8 b9 a3 8a 5d bb c2 85 14 bb
       0.0021007182 -0.0003527 -0.0033804558 -0.0022662734
000320 c4 d8 4d 3b f5 1b 5c ba 06 47 f7 ba 31 46 2e 3b
       0.003140972 -0.00083965 -0.0018865771 0.002659213
000330 a0 a7 cc ba 2f e5 e8 b9 bb e2 2a 3a 1c 0e f8 3b
       -0.0015613921 -0.00044421243 0.0006518771 0.0075700413
000340 b9 5d b4 38 a8 4c aa ba 97 87 39 3a 0f e8 54 3a
       8.600526e-05 -0.0012992816 0.00070773944 0.00081217376
000350 16 af 37 39 ca bf 3d bb 00 20 9d ba 52 80 a9 ba
       0.00017517465 -0.0028953427 -0.0011987686 -0.0012931919
000360 5d bb e2 ba c7 7d 72 3b 0c c3 ca b9 7f 82 33 3a
       -0.001729827 0.0037001239 -0.00038673764 0.00068477535
000370 1e 35 30 ba 00 c8 f0 bb fc 05 2e 3b d0 b0 21 bb
       -0.0006721782 -0.0073480606 0.002655386 -0.002467204
000380 48 83 88 39 ac 1f 2d b8 7f bc 76 b9 4c b9 b1 38
       0.00026037754 -4.127591e-05 -0.00023530608 8.474532e-05
000390 6a 58 cf b9 4e 4c 9a 37 ac 7f 36 3a 92 4e 1b 3a
       -0.0003954799 1.8393763e-05 0.00069617736 0.00059244887
0003a0 8d 90 1f ba 96 2f 80 39 0d 75 b3 39 5d f3 06 ba
       -0.00060869084 0.00024449517 0.0003422875 -0.0005147958
0003b0 59 1d a9 39 3d 8e 8f 38 fb 2f 0e b9 b7 d0 c6 ba
       0.00032256058 6.845265e-05 -0.0001356005 -0.0015168403
0003c0 68 11 97 b8 08 a9 a9 39 e5 81 95 b8 c0 19 45 b9
       -7.203483e-05 0.0003236013 -7.1290684e-05 -0.00018796977
0003d0 71 1d ab b8 2f c0 12 3a a5 32 41 39 11 f0 9a 39
       -8.159399e-05 0.00055980956 0.00018424781 0.00029552032
0003e0 37 d9 91 39 f7 ba 2d ba 8a cb b0 b8 31 0f 29 b9
       0.00027818393 -0.0006627286 -8.430246e-05 -0.00016122755
0003f0 02 98 a2 38 73 44 cc 3a c6 b7 0b ba ab 5a fc 39
       7.7530756e-05 0.0015584364 -0.00053298136 0.00048132738
