models/car/policy_opp_kinematic_model_best_iter45.pth (torch, 77546 bytes, 20 tensors)

lstm.weight_ih_l0 f4 [128, 10]
0	0x3d499b4b	0.049220365
1	0xbefd8565	-0.49515834
2	0x3d9cfc3b	0.07665297
3	0x3e844cc4	0.25839818
4	0x3d7fa8cb	0.062416833
5	0xbe1b19b5	-0.15146525
6	0x3ea01712	0.312676
7	0x3deb0325	0.11475209
8	0xbdbb0a89	-0.09132869
9	0xbea1718f	-0.3153195
10	0xbe9664e4	-0.29373848
11	0xbea166d2	-0.31523758
12	0xbc393679	-0.011304491
13	0xbec00b83	-0.37508783
14	0xbf257424	-0.6463034
15	0xbbc8862e	-0.006119511
16	0xbe7c757e	-0.24654195
17	0xbd5abf9b	-0.053405385
18	0x3e9f99fa	0.31172162
19	0x3e8f19f8	0.279495
20	0xbe4f9335	-0.20270999
21	0xbeb4471b	-0.352105
22	0x3e54fbe7	0.20799218
23	0x3f177f9c	0.5917909
24	0x3f60de75	0.8783944
25	0xbdeb4cf2	-0.114892855
26	0x3ef2c6db	0.4741734
27	0x3ec269f5	0.37971464
28	0x3e30fe44	0.17284495
29	0xbe7de891	-0.24795748
30	0xbe3faacb	-0.18717496
31	0xbe011711	-0.12606455
32	0x3d175250	0.036943734
33	0x3c084080	0.008316159
34	0x3e1225e4	0.14272267
35	0xbd8a312b	-0.06747659
36	0x3db16a6a	0.08662875
37	0x3e9af8e3	0.3026801
38	0x3e97ecfa	0.29672986
39	0x3dadaecf	0.08480608
40	0xbf1a35cd	-0.60238343
41	0xbf327fdc	-0.6972635
42	0x3e452606	0.19252786
43	0xbc853d58	-0.016264603
44	0x3e94f5c0	0.29093742
45	0xbe20d6d3	-0.15706949
46	0x3f3acee7	0.7297196
47	0x3e57efa8	0.21087515
48	0x3e1614a0	0.14656305
49	0xbdcf4ae4	-0.10121706
50	0xbe82e132	-0.25562435
51	0xbd763b22	-0.060114987
52	0x3df94d0d	0.121728994
53	0xbda86d27	-0.08223944
54	0xbdefe4e5	-0.1171358
55	0x3b833b0a	0.0040048407
56	0x3db0e45d	0.08637307
57	0x3e29a7e1	0.16567947
58	0xbca99af2	-0.020703766
59	0x3e149737	0.14510809
60	0xbeb4f8fb	-0.35346207
61	0xbefeb171	-0.49744752
62	0x3d3be992	0.045877047
63	0x3c3c93e6	0.011509871
64	0xbded8e8c	-0.11599454
65	0xbedda433	-0.43289337
66	0x3ea975da	0.33097726
67	0x3e246bdd	0.16056772
68	0x3d8844f7	0.06653779
69	0xbef96146	-0.48707026
70	0xbef4a949	-0.47785404
71	0xbe9d974a	-0.30779487
72	0x3dd5bc99	0.10436363
73	0xbe8a45b7	-0.27006313
74	0xbeed279b	-0.4631928
75	0x3edd9bae	0.43282837
76	0xbeabf029	-0.33581665
77	0xbe6bf4b2	-0.23042563
78	0x3e72dd85	0.23717315
79	0x3eca1151	0.39466336
80	0xbf171244	-0.59012246
81	0xbe066812	-0.13125637
82	0x3d86bf77	0.06579488
83	0xbe9b82ab	-0.3037313
84	0xbf0d0a4f	-0.55093855
85	0x3d8d8fcf	0.06912195
86	0x3da63b62	0.08116795
87	0x3a825ed2	0.0009946472
88	0xbc6afbd7	-0.01434227
89	0xbe5fa794	-0.2184127
90	0xbf376673	-0.716407
91	0xbf73c9ac	-0.952296
92	0x3e9eebb7	0.3103921
93	0x3df9382a	0.121689156
94	0x3da9f8a6	0.08299379
95	0xbe28296c	-0.16422051
96	0x3eb22d27	0.34800074
97	0x3ec173e7	0.3778374
98	0x3ca47223	0.020073956
99	0xbe1512e2	-0.14557984
100	0xbcc5643b	-0.024095645
101	0xbef365eb	-0.47538695
102	0xbd035432	-0.032062717
103	0x3deb4513	0.11487784
104	0xbe810c99	-0.25204924
105	0xbe4e541e	-0.20149276
106	0x3c2dade8	0.0106005445
107	0x3c974492	0.018465314
108	0xbe308650	-0.17238736
109	0xbe118fe2	-0.14215043
110	0xbf253b14	-0.6454327
111	0xbf955b7e	-1.1668546
112	0x3e134a2c	0.14383763
113	0x3dc252cb	0.09488448
114	0x3e03ffa5	0.1289049
115	0xbe08fa42	-0.13376716
116	0x3ea29d10	0.31760454
117	0x3e9d566f	0.30730006
118	0x3dfe4413	0.12415328
119	0xbea2086f	-0.3164706
120	0xbeefbc06	-0.46823138
121	0xbf144683	-0.5792009
122	0xbe208b6f	-0.1567819
123	0xbe8b58fd	-0.2721633
124	0x3d3a202a	0.04544083
125	0xbdb7c500	-0.08973122
126	0x3e7b14c7	0.24519645
127	0x3e33e9ff	0.17569731
128	0xbcf5a8a8	-0.029987648
129	0xbe9bb514	-0.3041159
130	0xbf4920ee	-0.7856587
131	0xbf81716e	-1.0112741
132	0x3e4e5327	0.20148908
133	0x3e3a07a1	0.18166973
134	0x3e3c0d97	0.18364559
135	0xbe8f1d7a	-0.27952176
136	0x3f0b73ab	0.5447337
137	0x3e6834d9	0.2267641
138	0xbdae8c56	-0.08522861
139	0xbeb2e9f5	-0.3494412
140	0xbf2ea071	-0.68213564
141	0xbf2281f1	-0.63479525
142	0x3ec6bb0a	0.38814574
143	0xbdd5c6e7	-0.10438328
144	0x3e4867a5	0.19570787
145	0xbd0957d8	-0.03353104
146	0x3e960bb4	0.29305804
147	0x3ed5521c	0.41664207
148	0x3daf1ef4	0.08550826
149	0xbea89656	-0.32927197
150	0xbe6699a4	-0.22519547
151	0x3dac3d22	0.08410098
152	0xbd45cda3	-0.048291814
153	0x3d3a3b17	0.04546651
154	0x3cf6ae16	0.030112308
155	0x3e0e51fa	0.13898459
156	0xbdafef3b	-0.085905515
157	0x3c0559af	0.008139058
158	0x3d119518	0.035542578
159	0x3c9463b0	0.018113941
160	0xbe37238d	-0.17884655
161	0xbd7b770e	-0.061392836
162	0x3c400357	0.011719546
163	0xbe07b2dd	-0.13251825
164	0x3c8135a9	0.015772657
165	0x3e5a22fc	0.21302408
166	0x3aa0cc4e	0.0012267919
167	0xbdc0e862	-0.094193235
168	0xbdadaaf2	-0.08479871
169	0xbdfbaabf	-0.122884266
170	0xbe74f62f	-0.23922037
171	0xbf26041a	-0.6485001
172	0x3d0eab3b	0.034831267
173	0x3e62644d	0.22108574
174	0x3eeda11c	0.4641198
175	0x3c868a50	0.016423374
176	0x3e3236a9	0.17403664
177	0x3ac08e3e	0.0014690829
178	0xbe81752e	-0.25284714
179	0xbe074672	-0.13210467
180	0xbf08b70c	-0.5340431
181	0xbf2c18aa	-0.67225134
182	0xbe01e02a	-0.12683168
183	0x3dd3ad3f	0.103357784
184	0x3e91272a	0.28350192
185	0x3c8d357c	0.017237417
186	0xbe28c4a1	-0.16481258
187	0xbcd112af	-0.025521604
188	0x3f02dd71	0.5111914
189	0x3ea6a722	0.32549387
190	0x3dc662bf	0.09686803
191	0x3d9fea81	0.078084
192	0x3cd75e7c	0.02629017
193	0xbe8b2c82	-0.27182394
194	0xbd8941bb	-0.0670199
195	0xbd9b2988	-0.07576281
196	0xbe289981	-0.16464807
197	0x3d4d6c27	0.05015197
198	0x3dcb80a2	0.09936644
199	0x3e6b8939	0.23001565
200	0xbde9db72	-0.11418809
201	0xbe71b1a0	-0.23602915
202	0x3d46d3dd	0.048541892
203	0xbdc0f08f	-0.09420883
204	0x3e7b4904	0.24539572
205	0xbc4b299f	-0.01240006
206	0xbe8f6684	-0.280079
207	0x3da42735	0.08015291
208	0x3ea97fb4	0.33105242
209	0x3ded66dd	0.11591885
210	0x3e84a323	0.25905713
211	0xbcd4dbf8	-0.025983796
212	0xbcf661c5	-0.030075917
213	0x3e438ac4	0.19095904
214	0x3ebd907c	0.37024295
215	0xbc91be58	-0.017790958
216	0xbb05d9a5	-0.0020423916
217	0xbe14a66c	-0.1451661
218	0x3ec7f39a	0.3905304
219	0x3d9316ee	0.07182108
220	0xbc7caa8d	-0.015421522
221	0xbe5d1aa5	-0.21592195
222	0xbd8149b7	-0.06312888
223	0x3e7467bb	0.23867695
224	0xbbedd7e9	-0.0072584045
225	0xbd8e0eb7	-0.069364004
226	0xbdc74640	-0.09730196
227	0x3d94f9c1	0.07274199
228	0x3e775117	0.24152027
229	0xbd94a23c	-0.07257506
230	0x3d84b125	0.064791
231	0xbe19096f	-0.14945005
232	0xb9dc8119	-0.00042057855
233	0x3f071c09	0.52777153
234	0x3ee3e854	0.4451319
235	0xbed788ae	-0.42096466
236	0x3e6b4e08	0.22978985
237	0x3e4ccdc8	0.20000374
238	0xbe3fa136	-0.18713841
239	0xbeeb45f9	-0.45951822
240	0x3e1169e8	0.14200556
241	0xbe84173c	-0.25798976
242	0x3f0635b8	0.5242572
243	0x3f65c8e3	0.89759654
244	0x3f2b8457	0.6699881
245	0xbe4c8b64	-0.19975048
246	0x3f266f51	0.65013605
247	0x3efd72ec	0.4950174
248	0xbe878d5e	-0.26475042
249	0xbee14d57	-0.44004318
250	0xbdc98057	-0.09838932
251	0x3cde8e9d	0.027167613
252	0x3e939fb3	0.28832778
253	0xbe6b7894	-0.22995216
254	0xbdaa09a7	-0.08302622
255	0x3e5a5768	0.21322405

lstm.weight_hh_l0 f4 [128, 32]
0	0x3e587978	0.21140087
1	0xbda4ac8f	-0.080407254
2	0x3e38c151	0.18042494
3	0x3c98caf5	0.018651465
4	0xbe353b9e	-0.17698523
5	0xbda787cf	-0.081802
6	0x3ed732dc	0.4203099
7	0x3e499633	0.19686203
8	0x3d98f7c3	0.07469132
9	0x3ed14122	0.40870005
10	0x3acb4a4f	0.0015509817
11	0x3eb01581	0.34391406
12	0x3ef833c8	0.48477006
13	0xbf205dee	-0.62643325
14	0x3e04a42b	0.1295325
15	0xbe517e7b	-0.20458405
16	0xbe2eeca4	-0.17082459
17	0x3e35dd4c	0.177602
18	0xbe50cbd6	-0.20390257
19	0xbd35cea3	-0.044386517
20	0xbe21fde5	-0.1581951
21	0x3e85ea13	0.26155147
22	0x3cb64a52	0.022252236
23	0xbe345f84	-0.17614561
24	0xbd9cad31	-0.07650221
25	0x3e84cd49	0.2593787
26	0x3dc68a2e	0.096943244
27	0xbcb852c3	-0.022500401
28	0xbe2c7731	-0.16842343
29	0xbd98c6c4	-0.074597865
30	0xbeefa280	-0.46803665
31	0x3d46d077	0.04853865
32	0xbc254284	-0.010086659
33	0x3e830dbd	0.2559642
34	0x3e6d504d	0.23175164
35	0x3dc4bd52	0.096064225
36	0xbe2765ba	-0.163474
37	0x3d63abd6	0.055583797
38	0x3e0e1cc3	0.13878159
39	0x3dc07d73	0.093989275
40	0x3e5418d2	0.20712593
41	0x3e14c1f4	0.14527112
42	0x3d3123dc	0.04324709
43	0x3de88a76	0.11354534
44	0x3eb80738	0.35943007
45	0xbe77be53	-0.24193697
46	0xbd0871e4	-0.03331174
47	0xbe47f8fd	-0.19528575
48	0x3e2e2871	0.17007615
49	0x3e1cc1f7	0.15308367
50	0xbed6b868	-0.41937566
51	0xbed08ca6	-0.40732306
52	0x3f0e8a2b	0.5567958
53	0x3dd5a1e1	0.104312666
54	0xbe5747a8	-0.21023428
55	0x3d64435b	0.055728298
56	0x3e93b092	0.2884565
57	0x3e33803a	0.17529383
58	0xbe8b1678	-0.2716558
59	0xbe0d020c	-0.13770312
60	0x3d8fb09c	0.070161074
61	0xbd0de927	-0.03464618
62	0xbe99d134	-0.30042422
63	0xbe93ebab	-0.28890738
64	0x3e9d94ef	0.3077769
65	0x3ec69889	0.3878825
66	0xbe13e5ab	-0.1444308
67	0xbd0a7570	-0.033803403
68	0xbea208a3	-0.31647214
69	0x3d41b2b0	0.04728955
70	0x3dbc53cd	0.09195671
71	0xbeb30b7b	-0.34969696
72	0x3e6de382	0.23231319
73	0x3e48bbce	0.19602892
74	0xbf0c837c	-0.5488813
75	0x3e7a01e2	0.2441478
76	0x3d1dfb9d	0.038570035
77	0xbc8fafd8	-0.017539904
78	0x3e4692dd	0.19391961
79	0x3e6efc19	0.23338355
80	0x3e60d8f4	0.21957761
81	0x3ec70e0b	0.388779
82	0xbdb26ce2	-0.08712174
83	0xbce69a6b	-0.028149804
84	0xbe591bfb	-0.2120208
85	0x3e32aab7	0.17447935
86	0x3e042753	0.12905626
87	0xbdcd3b10	-0.10021031
88	0xbec73731	-0.38909295
89	0xbec03234	-0.37538302
90	0xbe484361	-0.19556953
91	0xbefb76e9	-0.4911416
92	0xbd88d0c6	-0.066804454
93	0xbc77e738	-0.01513081
94	0x3e66c8d1	0.22537543
95	0x3ec328fc	0.38117206
96	0xbe82b075	-0.2552525
97	0xbc9efdcc	-0.01940813
98	0xbe894d60	-0.26816845
99	0x3d378b41	0.044810537
100	0xbde33817	-0.11094683
101	0xbe172fab	-0.14764278
102	0x3de7d13c	0.11319205
103	0xbddb2782	-0.10700895
104	0x3c6949d4	0.014238793
105	0x3d257069	0.040390406
106	0x3e28e1ab	0.16492335
107	0x3ecd842f	0.4013991
108	0x3dc5ef3e	0.096647725
109	0xbe578046	-0.21045026
110	0x3c9948fd	0.018711561
111	0x3c4b79c6	0.01241917
112	0x3ebcbba2	0.36861902
113	0xbc6f0de0	-0.01459071
114	0x3c991f49	0.018691676
115	0x3e42d4ca	0.19026485
116	0xbc4f55fe	-0.0126547795
117	0xbd80836e	-0.06275068
118	0x3db31e03	0.08745959
119	0x3ea0751a	0.3133934
120	0x3da54ea3	0.080716394
121	0x3dc6ea11	0.097126134
122	0x3d89711b	0.06711026
123	0x3e4dc1df	0.20093487
124	0x3d0d98a4	0.034569398
125	0x3d9d7067	0.07687455
126	0x3d3b15af	0.045674976
127	0xbce31f67	-0.027724935
128	0x3d2f742e	0.042835407
129	0xbe004884	-0.12527663
130	0x3c609cfb	0.013709302
131	0x3c8fd287	0.017556442
132	0x3a2de862	0.0006634054
133	0xbe392b02	-0.18082812
134	0xbdd6b0ce	-0.104829416
135	0xbd91785e	-0.07103036
136	0x3e8ce9d8	0.2752216
137	0x3e307aa1	0.17234279
138	0xbdf36a42	-0.118855014
139	0x3ee8f855	0.45501962
140	0x3d1c0bee	0.038097315
141	0xbee01dce	-0.4377274
142	0xbd18910b	-0.0372477
143	0xbd84de57	-0.064877205
144	0xbd7f0052	-0.062256165
145	0x3eebac35	0.4602982
146	0x3e709439	0.23494042
147	0xbc6f0567	-0.01458869
148	0xbe833047	-0.2562277
149	0x3dc7ff00	0.09765434
150	0xbce84f56	-0.028358143
151	0xb94ab322	-0.00019330953
152	0x3e205db0	0.15660739
153	0x3dde69ff	0.10860061
154	0xbe928d86	-0.286236
155	0xbe58be7a	-0.21166411
156	0x3daaa197	0.08331602
157	0xbd73a65e	-0.059484832
158	0xbe0ef4d9	-0.1396059
159	0x3e80c85c	0.25152862
160	0x3d5cc5fa	0.053899743
161	0x3e47fb1c	0.19529384
162	0xbca62b7a	-0.020284403
163	0x3d55a627	0.05216041
164	0xbe9af903	-0.30268106
165	0x3d1a50b0	0.037674606
166	0x3e85ca7a	0.2613104
167	0xbe8d8b41	-0.27645305
168	0x3e8a7e5b	0.27049527
169	0x3c95d524	0.01829011
170	0x3dc442bc	0.09583041
171	0xbd840208	-0.064457
172	0x3e96f9c9	0.29487446
173	0x3d0cd39c	0.034381494
174	0xbd61276e	-0.054969244
175	0xbc95e514	-0.01829771
176	0x3e70f72c	0.23531789
177	0x3daae70f	0.08344852
178	0xbd9d2d0f	-0.0767461
179	0xbe58c40c	-0.21168536
180	0x3e1c734d	0.15278359
181	0x3dc45488	0.095864356
182	0x3d8feebe	0.07027958
183	0x3d945c76	0.07244198
184	0x3e24db6d	0.1609933
185	0x3d4821a1	0.048860196
186	0xbe709682	-0.23494914
187	0xbe8a41ef	-0.27003428
188	0x3c152537	0.009103111
189	0x3def4f45	0.11685041
190	0xbdd1614e	-0.102236375
191	0xbe795bc2	-0.24351409
192	0x3e75a210	0.23987603
193	0x3e8878d8	0.26654696
194	0x3cc72b88	0.02431275
195	0x3e48b37e	0.19599721
196	0xbedcee19	-0.43150404
197	0x3e097125	0.13422067
198	0xbd57a17a	-0.05264423
199	0xbe3cf75b	-0.18453734
200	0x3e3c3481	0.18379404
201	0x3db9d4ec	0.09073815
202	0xbd70580c	-0.058677718
203	0xbd1be06d	-0.038055826
204	0x3d7dc6af	0.061957058
205	0xbebe7f30	-0.3720641
206	0x3deed1a5	0.1166108
207	0x3e273b09	0.16331114
208	0x3ea6c837	0.32574627
209	0x3e2f0a11	0.17093684
210	0xbca51dbb	-0.020155778
211	0x3de580cc	0.11206207
212	0xbde574bf	-0.11203908
213	0x3df9e1c8	0.122012675
214	0x3e8e180a	0.27752715
215	0x3e3bde37	0.18346487
216	0xbdc167d4	-0.09443632
217	0xbeb93c78	-0.36178946
218	0xbe5a0ef2	-0.21294764
219	0xbe844ee0	-0.25841427
220	0x3cccfd71	0.025023194
221	0x3c5685a9	0.0130933905
222	0x3e4691c0	0.19391537
223	0x3ea16f5d	0.31530276
224	0xbe81afe5	-0.2532951
225	0xbd8f0a86	-0.06984429
226	0x3ead6bb5	0.33871236
227	0xbe0ac543	-0.13551812
228	0xbe2c6c4d	-0.16838188
229	0xbd2fd7d9	-0.042930458
230	0x3e83a904	0.25714886
231	0x3d06f1ed	0.032945562
232	0x3d6b981b	0.057518106
233	0xbdc0d59a	-0.09415741
234	0x3ea26b41	0.31722453
235	0x3dd10e13	0.102077626
236	0x3edeeb16	0.4353873
237	0xbdb44aaf	-0.08803307
238	0x3e98cf62	0.2984572
239	0xbe3e33be	-0.18574426
240	0xbe980c95	-0.296971
241	0xbe2c2120	-0.16809511
242	0xbee6f894	-0.45111525
243	0xbde50db9	-0.11184258
244	0x3f2341a1	0.63772017
245	0x3e15a94c	0.14615363
246	0xbf15a388	-0.58452654
247	0xbe429b77	-0.19004618
248	0xbda42f96	-0.08016889
249	0x3e7cec8b	0.24699609
250	0xbee42fa5	-0.445676
251	0x3e921830	0.2853408
252	0xbe0ab26c	-0.13544625
253	0xbe0aacb7	-0.13542448
254	0x3cbd0594	0.023073949
255	0xbe01e1d6	-0.12683806

lstm.bias_ih_l0 f4 [128]
0	0x3f1718cf	0.5902223
1	0xbb04c576	-0.0020259297
2	0x3f03f316	0.51542795
3	0x3e5f79de	0.21823832
4	0x3ea0916b	0.31360945
5	0xbd89e9f9	-0.0673408
6	0x3ef8965b	0.48552212
7	0x3ef573b0	0.47939825
8	0x3ed17023	0.40905866
9	0x3f38c37a	0.72173274
10	0x3e709a3d	0.23496337
11	0x3f6db118	0.9284835
12	0x3eeb526e	0.45961326
13	0x3f6982b3	0.91215056
14	0x3eb65372	0.3561054
15	0x3e2015ea	0.1563336
16	0x3da80ba4	0.08205345
17	0x3f3d5e21	0.73971754
18	0x3f10d7c0	0.5657921
19	0xbdc9403d	-0.098267056
20	0x3e76661d	0.2406239
21	0xbe5159fc	-0.20444483
22	0x3e782be4	0.24235493
23	0x3d3c870d	0.046027232
24	0x3e3bbda6	0.18334064
25	0x3d16b131	0.036790077
26	0x3eea120c	0.45716894
27	0x3ccb6285	0.024827251
28	0x3e9d0d1f	0.30674073
29	0x3e281cfb	0.16417305
30	0x3eb1f15a	0.3475445
31	0x3e47f541	0.1952715
32	0x3e180a2d	0.14847632
33	0x3dbe37e8	0.09288007
34	0x3dadb8c0	0.08482504
35	0x3e5dcf4f	0.21661113
36	0x3d26fffc	0.04077147
37	0x3dac8f74	0.08425799
38	0x3e01a164	0.12659222
39	0xbd38bb0d	-0.04510026
40	0xbde90077	-0.11377042
41	0x3e039247	0.12848769
42	0x3e4297a9	0.19003166
43	0x3d05a1b5	0.03262492
44	0xbdd2b1ca	-0.10287817
45	0x3e7fbf24	0.24975258
46	0x3d297ee0	0.041380763
47	0xbdf29ab9	-0.11845917
48	0x3e5012f0	0.20319724
49	0x3e8dea57	0.2771785
50	0x3e895f54	0.26830542
51	0xbc7c12ef	-0.0153853735
52	0x3dd81a8a	0.10551937
53	0xbd6db317	-0.05803212
54	0x3cc899c6	0.024487387
55	0x3dbb27d1	0.09138454
56	0x3e26a22e	0.16272804
57	0xbd2e654e	-0.04257708
58	0xbe50f336	-0.20405278
59	0xbd980d4f	-0.074244134
60	0x3e95555e	0.29166692
61	0x3e08b933	0.13351898
62	0xbcfb94d2	-0.030710611
63	0x3e113bcc	0.14182967
64	0x3d06d1d7	0.032914963
65	0x3c84b840	0.016201138
66	0x3e5200f8	0.20508182
67	0xbd5d32f4	-0.05400367
68	0xbe102b72	-0.14079073
69	0xbe255808	-0.16146863
70	0x3e94c047	0.29052946
71	0xbe8d298f	-0.2757077
72	0x3e3f4464	0.18678433
73	0x3da86f60	0.08224368
74	0x3cc63404	0.024194725
75	0x3e8d2668	0.27568364
76	0x3d40c299	0.047060583
77	0xbf14c1d6	-0.5810827
78	0x3cf60561	0.030031862
79	0xbc9b26ba	-0.018939365
80	0xbe146e88	-0.1449529
81	0x3e76c319	0.24097861
82	0xbce14853	-0.027500307
83	0x3ce4dc67	0.027937127
84	0x3e820f32	0.25402218
85	0x3b93a916	0.0045062406
86	0x3ced514f	0.028969435
87	0xbe649940	-0.22324085
88	0x3b147e71	0.0022658373
89	0xbd988547	-0.07447296
90	0xbdae4edf	-0.08511137
91	0x3e0e2bd5	0.13883908
92	0x3dd565ed	0.104198314
93	0xbe22de3e	-0.15905091
94	0xbd7b0ac6	-0.06128957
95	0x3e0d1e72	0.13781145
96	0x3eec123e	0.46107668
97	0x3e9d941f	0.3077707
98	0x3e871f9f	0.26391312
99	0xbceda823	-0.029010838
100	0x3e691d08	0.22764981
101	0x3e2d045e	0.16896197
102	0x3edc4a8e	0.4302563
103	0x3e09a15b	0.13440458
104	0x3e24ff21	0.16112949
105	0x3f0be4a8	0.54645777
106	0x3e81027d	0.2519721
107	0x3ed8fb15	0.4237906
108	0x3f0be724	0.5464957
109	0x3f5f2354	0.8716328
110	0x3e539b30	0.20664668
111	0xbdc69568	-0.09696466
112	0x3e26d74b	0.16293065
113	0x3eb72737	0.35772106
114	0x3e971c48	0.29513764
115	0x3da98b6f	0.08278548
116	0xbdd3453c	-0.1031594
117	0x3e102e82	0.14080241
118	0x3e4d41b0	0.20044589
119	0x3d460179	0.04834125
120	0x3edc2b6f	0.43001887
121	0xbce22a2b	-0.027607998
122	0x3e6d2ada	0.23160878
123	0x3c555f2a	0.013023177
124	0x3d7b9670	0.061422765
125	0x3e054513	0.13014631
126	0x3c53e2d8	0.012932502
127	0xb987be92	-0.00025891192

lstm.bias_hh_l0 f4 [128]
0	0x3f06dd61	0.5268155
1	0x3e244287	0.16041003
2	0x3e3897ed	0.18026705
3	0x3bf392d5	0.007433275
4	0x3ebc0329	0.3672116
5	0x3e0ca854	0.13736087
6	0x3e9c577b	0.30535492
7	0x3f10483d	0.56360227
8	0x3e1a70a8	0.15082037
9	0x3f78c664	0.9717772
10	0x3e919cae	0.2843985
11	0x3f591c14	0.8480847
12	0x3f3bc315	0.73344547
13	0x3f5c7c61	0.8612729
14	0x3f1b25d9	0.60604626
15	0xbd4303b6	-0.04761096
16	0xbc82c9d2	-0.015965376
17	0x3f046f89	0.5173269
18	0x3f121acc	0.5707214
19	0x3e190b04	0.14945608
20	0x3ce88d57	0.028387709
21	0xbd19b218	-0.03752336
22	0x3e2d638e	0.16932508
23	0x3d478f1d	0.048720468
24	0x3ed38249	0.41310337
25	0x3cbf9dd9	0.023390697
26	0x3ebfb2d5	0.37441126
27	0x3e337c26	0.17527828
28	0x3de26b67	0.110556416
29	0x3e5c3a7f	0.2150669
30	0x3e82f4cd	0.25577393
31	0x3dcc9e63	0.09991147
32	0x3dafeac7	0.08589702
33	0x3e45516d	0.19269343
34	0x3ebdacc6	0.37045878
35	0x3e0b577b	0.1360759
36	0x3e20f895	0.15719827
37	0xbda59056	-0.080841705
38	0x3eb0badd	0.34517565
39	0x3b062aca	0.0020472282
40	0xbc749db7	-0.01493018
41	0x3e13a089	0.14416708
42	0x3e5150e1	0.20441009
43	0x3eb3a0d1	0.3508363
44	0xbe0b2ac6	-0.13590536
45	0x3ea6456a	0.32474834
46	0xbce0aad1	-0.027425202
47	0xbdb5634b	-0.08856829
48	0x3e3263ea	0.17420927
49	0x3e0ca5e4	0.13735157
50	0x3db26327	0.08710318
51	0xbc15699b	-0.009119417
52	0xbe17deec	-0.14831132
53	0x3d4b5e7f	0.049650665
54	0x3e57358b	0.21016519
55	0xbcf1be9c	-0.029509835
56	0x3e64ed76	0.22356209
57	0x3e4d0936	0.20023045
58	0x3d08e382	0.033420093
59	0xbd9e0d0b	-0.077173315
60	0x3dc9535e	0.09830354
61	0x3c1fe93c	0.009760197
62	0x3e1384c3	0.14406113
63	0xbd1c643f	-0.03818154
64	0x3eb66adf	0.3562841
65	0xbd6db85c	-0.058037147
66	0xbda6af42	-0.081388965
67	0xbca639c4	-0.020291217
68	0xbe6b42b4	-0.22974664
69	0x3dbc4b4d	0.0919405
70	0x3e82bda9	0.25535324
71	0xbe942ad5	-0.28938928
72	0x3e3f030a	0.18653503
73	0x3e4ed32c	0.20197743
74	0xbe4f822f	-0.20264505
75	0x3e8d4219	0.2758949
76	0x3ec18a02	0.37800604
77	0xbeba35ec	-0.36369264
78	0x3e8d93e6	0.276519
79	0xbdb6a42b	-0.08918031
80	0x3c65bd77	0.014022223
81	0x3e78b259	0.24286784
82	0xbeb1afcf	-0.34704444
83	0x3d410e0c	0.047132537
84	0x3b3ad451	0.0028507898
85	0x3dba6237	0.09100764
86	0xbd128240	-0.035768747
87	0x3dabb907	0.083849005
88	0xbd57df9b	-0.05270348
89	0xbe88449c	-0.26614845
90	0xbe43e2f6	-0.19129547
91	0xbe2af3b3	-0.16694526
92	0x3d382ac0	0.044962645
93	0xbceac866	-0.02866001
94	0xbd60a523	-0.054844987
95	0x3d7829f2	0.060586877
96	0x3f178669	0.5918947
97	0x3d87a6d7	0.06623619
98	0x3e9208a9	0.28522232
99	0x3e1e25ec	0.15444154
100	0x3ea24689	0.3169444
101	0x3ce5b701	0.028041365
102	0x3e8bc1e2	0.27296358
103	0x3d3e251c	0.04642211
104	0x3da6a313	0.08136573
105	0x3f1a28b4	0.6021836
106	0x3e835335	0.2564942
107	0x3f261854	0.6488087
108	0x3ec98e21	0.39366248
109	0x3f2014d5	0.6253179
110	0x3eb495ae	0.35270447
111	0x3e4d4e64	0.20049435
112	0xbd54b218	-0.051927656
113	0x3f17091f	0.5899829
114	0x3d999f73	0.07501116
115	0x3e21013d	0.15723129
116	0x3e2b2f47	0.16717254
117	0x3d770fb1	0.0603177
118	0x3e32eb80	0.17472649
119	0x3dfdc8ae	0.12391792
120	0x3e028f99	0.1275009
121	0x3e2e7336	0.17036137
122	0x3db51c15	0.08843247
123	0xbdff55da	-0.12467547
124	0x3dfa572c	0.12223658
125	0x3ddbbb92	0.107291356
126	0x3e615681	0.22005655
127	0x3e31f397	0.17378078

hidden2out.weight f4 [2, 32]
0	0x3e1e7332	0.15473631
1	0xbe6065fd	-0.21913905
2	0x3dd86b7e	0.105673775
3	0xbd61acd8	-0.055096477
4	0xbebacf6a	-0.3648637
5	0xbc4e9250	-0.012608126
6	0x3e1ae248	0.15125382
7	0x3e85c57e	0.26127237
8	0x3e8b9f2f	0.27269885
9	0xbd5ae78d	-0.05344348
10	0x3da86cf5	0.08223907
11	0x3e6dd0bd	0.23224159
12	0x3e1b5b97	0.15171658
13	0xbe95c3fd	-0.2925109
14	0x3d518855	0.051155407
15	0xbe4078ed	-0.1879613
16	0xbe0824a1	-0.13295223
17	0x3eba1bfa	0.3634947
18	0xbe521164	-0.20514446
19	0xbd95701c	-0.07296774
20	0xbdddc0d6	-0.10827796
21	0xbd3e056a	-0.046391882
22	0xbc50c7e7	-0.012742973
23	0xbced5743	-0.028972274
24	0x3dd9f027	0.106415085
25	0x3ea859e7	0.3288109
26	0x3d7a9872	0.06118054
27	0xbc75e269	-0.015007594
28	0xbe929def	-0.2863612
29	0xbdbdf975	-0.09276096
30	0xbe103222	-0.14081624
31	0xbea19997	-0.31562492
32	0x3f01f99e	0.5077151
33	0x3e1aa7fd	0.15103145
34	0x3eaf9e4d	0.3430046
35	0x3e1ce750	0.15322614
36	0xbece968b	-0.4034923
37	0xbd04b10b	-0.032395404
38	0x3f14b30a	0.5808569
39	0xbf194742	-0.59874356
40	0x3eae9231	0.3409591
41	0x3f3da7e7	0.74084324
42	0xbeae1877	-0.3400304
43	0x3f5780b4	0.8418076
44	0x3f061bf9	0.5238643
45	0xbf13a7e1	-0.5767804
46	0x3f02df8a	0.51122344
47	0x3da0417c	0.0782499
48	0x3bac541e	0.005259051
49	0x3f31d127	0.69459766
50	0xbf0ccd61	-0.55000883
51	0xbdc92163	-0.09820821
52	0x3e39d756	0.1814855
53	0xbde8601b	-0.11346456
54	0xbdd9ca85	-0.10634331
55	0xbedcf139	-0.43152788
56	0xbea66cb2	-0.32504803
57	0xbe0829ad	-0.13297148
58	0xbf0f6b95	-0.5602353
59	0xbd2e9f36	-0.042632304
60	0x3e9ffb9a	0.31246644
61	0xbdce68b1	-0.10078562
62	0xbe8a2780	-0.2698326
63	0x3dd53cab	0.10411962

hidden2out.bias f4 [2]
0	0x3e84ece7	0.25961992
1	0x3e064da7	0.1311556

std_layer.weight f4 [2, 32]
0	0x3e0c38b3	0.13693504
1	0x3e02be60	0.12767935
2	0x3d0bd92b	0.034142654
3	0xbdcb0f7f	-0.09915065
4	0xbd70a7c3	-0.05875374
5	0xbd8095cc	-0.062785715
6	0xbd977784	-0.07395843
7	0x3dd39f76	0.10333149
8	0xbe31cf16	-0.17364153
9	0xbc41d3ce	-0.011830283
10	0x3e18f9d5	0.14939053
11	0x3ddc2fc4	0.10751298
12	0xbe097461	-0.13423301
13	0x3da84ba4	0.08217552
14	0xbe1ea6d9	-0.15493335
15	0xbe1cdfd5	-0.1531976
16	0x3e342c86	0.1759511
17	0xbcb8052d	-0.022463406
18	0xbe300927	-0.17190991
19	0xbe153c03	-0.14573674
20	0x3aac8dab	0.0013164779
21	0x3b8cd7ba	0.0042981775
22	0x3df674d1	0.12034
23	0xbd5df29d	-0.054186452
24	0x3dab3765	0.08360175
25	0x3d4fa685	0.050695915
26	0x3dc07d99	0.09398956
27	0xbe31e84e	-0.17373773
28	0xbdb429b4	-0.08797017
29	0xbe0f09eb	-0.13968627
30	0x3d207945	0.03917815
31	0xbe019686	-0.12655076
32	0xbde21672	-0.11039437
33	0x3d167f11	0.036742274
34	0x3d8decd9	0.06929941
35	0x3d774a6e	0.060373716
36	0x3e00270f	0.125149
37	0xbe33860e	-0.17531607
38	0xbcf48555	-0.029848734
39	0x3e293277	0.16523157
40	0x3d2e72f7	0.042590108
41	0x3d785464	0.060627356
42	0x3e293f45	0.16528042
43	0x3de2b832	0.11070289
44	0xbe256de7	-0.16155206
45	0xbd9c1c26	-0.076225564
46	0xbc0b6c46	-0.008509701
47	0xbd82d614	-0.063884884
48	0x3e24d088	0.16095173
49	0xbde3a7ac	-0.11115965
50	0x3c0c8817	0.008577368
51	0x3e059241	0.13044073
52	0xbe31e63c	-0.17372984
53	0xbdea7d7d	-0.11449716
54	0x3e26ce1b	0.1628956
55	0xbe2a0399	-0.16602935
56	0x3e14ed45	0.14543636
57	0x3d887ce8	0.06664449
58	0xbe250742	-0.1611605
59	0x3e31f547	0.17378722
60	0xbbc4d24f	-0.006006516
61	0x3c8d128d	0.01722076
62	0x3e1b5386	0.1516858
63	0x3cc37e96	0.023864072

std_layer.bias f4 [2]
0	0x3d61c3bf	0.05511832
1	0xbd01948b	-0.031635802

exp_avg f4 [128, 10]
0	0x382ce5e9	4.1222116e-05
1	0x3770c32a	1.4350555e-05
2	0x3848fcaa	4.7919028e-05
3	0x38af79e5	8.367355e-05
4	0x38069505	3.2086875e-05
5	0x36aea345	5.204611e-06
6	0x36179a21	2.2590468e-06
7	0x380264c7	3.108827e-05
8	0xb885ba05	-6.376583e-05
9	0xb6cd336a	-6.1154615e-06
10	0x38b0b927	8.426821e-05
11	0x38fede18	0.00012153032
12	0xb84e1fef	-4.9143968e-05
13	0xb7229d47	-9.692571e-06
14	0x3693ee3f	4.408677e-06
15	0xb8420dde	-4.626612e-05
16	0xb6393f1e	-2.7603887e-06
17	0xb84f38c1	-4.9405502e-05
18	0x37119784	8.677951e-06
19	0x36d16f6f	6.241658e-06
20	0x36aab709	5.087703e-06
21	0xb8a466a5	-7.8392484e-05
22	0x37d5fdd7	2.5509782e-05
23	0x38765281	5.872781e-05
24	0x37b27a1c	2.1276115e-05
25	0x379ce3f3	1.8702796e-05
26	0x33900ee6	6.7082325e-08
27	0x378a0c8f	1.645673e-05
28	0xb6a0e6e7	-4.795252e-06
29	0x3619c102	2.2911122e-06
30	0xb896c3cb	-7.189027e-05
31	0xb7815068	-1.541544e-05
32	0xb7e5d28c	-2.739697e-05
33	0xb8e94489	-0.000111230715
34	0xb88e02fe	-6.771645e-05
35	0xb8120679	-3.481514e-05
36	0x36809f91	3.8332732e-06
37	0x3655096f	3.1744964e-06
38	0xb81ff0cf	-3.8132825e-05
39	0xb72806a1	-1.0015124e-05
40	0xb932d71e	-0.0001705554
41	0xb82d546a	-4.132503e-05
42	0xb911b210	-0.00013894611
43	0xb9aea3e3	-0.0003330997
44	0xb956dc89	-0.00020490786
45	0xb828225c	-4.008632e-05
46	0xb5cbefc6	-1.5194462e-06
47	0xb888f71b	-6.531012e-05
48	0x38da5bfb	0.00010412183
49	0xb52b521b	-6.3821943e-07
50	0x37f36a6c	2.9017414e-05
51	0x38c4de5c	9.387426e-05
52	0xb8a4387e	-7.830652e-05
53	0xb8bfea29	-9.1512054e-05
54	0xb7ef3364	-2.851495e-05
55	0xb68c2204	-4.176285e-06
56	0xb6e41bd7	-6.7981705e-06
57	0xb898ba93	-7.282677e-05
58	0x36c89a38	5.978418e-06
59	0x3788fdd8	1.6330669e-05
60	0x3894ec06	7.101153e-05
61	0xb76ee04b	-1.4238128e-05
62	0x3862c473	5.4065556e-05
63	0x3912363c	0.00013943849
64	0x38a352ba	7.787855e-05
65	0x380cd52d	3.3577136e-05
66	0x346b3148	2.1904009e-07
67	0x37c3e992	2.3354576e-05
68	0x37ab3d5a	2.0413358e-05
69	0x36b83382	5.4896236e-06
70	0xb889f635	-6.578529e-05
71	0x376016b8	1.335673e-05
72	0xb804e857	-3.1687636e-05
73	0xb8c6d560	-9.48112e-05
74	0xb856e2f9	-5.123296e-05
75	0xb834dc14	-4.3120308e-05
76	0x360d40cf	2.104836e-06
77	0xb71ff811	-9.534896e-06
78	0xb75bd04d	-1.3101916e-05
79	0xb706fd33	-8.045975e-06
80	0x38a33175	7.781658e-05
81	0x388f315a	6.827964e-05
82	0x3772660f	1.4448086e-05
83	0x388e0352	6.771706e-05
84	0x379f65fe	1.900177e-05
85	0xb7e5ecef	-2.7409258e-05
86	0x364dd0ca	3.0668912e-06
87	0x376d72bd	1.4153015e-05
88	0x38900148	6.866694e-05
89	0xb6d39cf3	-6.3065613e-06
90	0xb8e47105	-0.00010892939
91	0xb86512c1	-5.461532e-05
92	0xb8989602	-7.275866e-05
93	0xb95b3038	-0.0002090343
94	0xb905606d	-0.0001271979
95	0xb7941db5	-1.7656808e-05
96	0x35a01cba	1.192929e-06
97	0xb7b3592a	-2.1379983e-05
98	0x37cb1a67	2.421178e-05
99	0x363b6fe8	2.793031e-06
100	0x3904fa47	0.00012681737
101	0x384a66be	4.825624e-05
102	0x38b95e41	8.8390436e-05
103	0x39577b48	0.00020549924
104	0x39069561	0.00012834884
105	0x380d649d	3.3710723e-05
106	0x33c680ff	9.243558e-08
107	0x37da6d29	2.6038457e-05
108	0xb8d1fe16	-0.00010013224
109	0x368d5dfa	4.2130678e-06
110	0x38f505b2	0.00011683571
111	0x37c2de1a	2.3230026e-05
112	0x388fe075	6.86058e-05
113	0x392745ad	0.00015952317
114	0x38b10231	8.440426e-05
115	0x380e1987	3.3879212e-05
116	0x3646cc43	2.9623195e-06
117	0x38312465	4.2233984e-05
118	0xb6971832	-4.5029674e-06
119	0x371e0142	9.417827e-06
120	0xb820fc89	-3.8382164e-05
121	0x37f69735	2.9395896e-05
122	0xb83c8494	-4.4946166e-05
123	0xb8bcea76	-9.00821e-05
124	0xb81ebe71	-3.7847498e-05
125	0xb7000fb7	-7.633053e-06
126	0xb51eb212	-5.9118713e-07
127	0xb8007691	-3.0628e-05
128	0xb7bd5ddf	-2.2574268e-05
129	0x362d61af	2.5835868e-06
130	0x35727212	9.031802e-07
131	0xb71237f7	-8.7153085e-06
132	0xb6373217	-2.729828e-06
133	0xb7a9767b	-2.0201542e-05
134	0xb78051bf	-1.5296855e-05
135	0x36b91bae	5.516652e-06
136	0x350c2f7e	5.2223174e-07
137	0x363d459b	2.820371e-06
138	0x36a097c7	4.786041e-06
139	0x35eb3eb7	1.7527117e-06
140	0xb8ca9b22	-9.661006e-05
141	0xb7e32ac5	-2.7080425e-05
142	0xb89ebeae	-7.569544e-05
143	0xb952839a	-0.00020076186
144	0xb8f9a9cb	-0.00011904872
145	0xb7b0a18b	-2.105606e-05
146	0xb2f6f1cf	-2.8748131e-08
147	0xb8037b3e	-3.1347612e-05
148	0x376fe847	1.4299591e-05
149	0x3587dc91	1.0122477e-06
150	0x38c2920a	9.277843e-05
151	0x38a89fb4	8.040611e-05
152	0xb7832d22	-1.5637434e-05
153	0x383362c6	4.2768916e-05
154	0x37bf150a	2.2778771e-05
155	0xb5f4f3ea	-1.8250405e-06
156	0xb64af8b5	-3.0245112e-06
157	0xb7b0e2b4	-2.1086402e-05
158	0x37ec8d86	2.8199294e-05
159	0x37167aec	8.969317e-06
160	0x38a1ffea	7.724746e-05
161	0xb945de04	-0.00018870091
162	0x391d17ec	0.00014981598
163	0x39a55a47	0.00031538514
164	0x38632304	5.415363e-05
165	0xb8b589fc	-8.656454e-05
166	0x37a8ccfb	2.0122612e-05
167	0x3921ec56	0.00015442198
168	0xb785ce13	-1.5950796e-05
169	0xb8627f5f	-5.4001222e-05
170	0xb8bc14fd	-8.968448e-05
171	0xb8a713c8	-7.966865e-05
172	0x37e4b77b	2.7265158e-05
173	0xb818bd36	-3.641584e-05
174	0xb812df68	-3.5017176e-05
175	0xb7f1a6d2	-2.880712e-05
176	0x36d598e6	6.3656944e-06
177	0x38182fc8	3.6284124e-05
178	0xb7e16504	-2.686913e-05
179	0xb79658b6	-1.7922703e-05
180	0x3804bf01	3.164914e-05
181	0x385cb678	5.2622025e-05
182	0xb8157a49	-3.5638255e-05
183	0xb7947ced	-1.7701148e-05
184	0xb65e4cb5	-3.3125227e-06
185	0xb7292385	-1.0081455e-05
186	0xb629575b	-2.523381e-06
187	0xb80d51f9	-3.3693363e-05
188	0x382ea4e5	4.1638403e-05
189	0x36e1947d	6.722809e-06
190	0xb81e7f1d	-3.778852e-05
191	0xb8aa6087	-8.124211e-05
192	0x38b21ef0	8.493464e-05
193	0x38719103	5.759393e-05
194	0xb7c00adb	-2.2893239e-05
195	0xb8773d86	-5.8946687e-05
196	0x3754ebc9	1.2691083e-05
197	0x38cecfb6	9.8615346e-05
198	0xb8fd9332	-0.000120913974
199	0xb80c272a	-3.3415075e-05
200	0x3905fc65	0.00012777893
201	0x3859b857	5.190851e-05
202	0x3724a58f	9.813709e-06
203	0x38f5419e	0.000116947325
204	0x382c19ec	4.1032137e-05
205	0x37851faf	1.586959e-05
206	0xb62f22f9	-2.6097389e-06
207	0xb658d998	-3.2313164e-06
208	0x37e4aed4	2.7261129e-05
209	0x37339ab2	1.0705249e-05
210	0x38c59a86	9.422474e-05
211	0x39162260	0.0001431792
212	0xb82a62a4	-4.0623025e-05
213	0x37a58868	1.9733052e-05
214	0x379d3e18	1.8744773e-05
215	0xb790147f	-1.7175682e-05
216	0xb6aa96e1	-5.0839594e-06
217	0xb84d4b69	-4.894604e-05
218	0xb8bd2829	-9.019703e-05
219	0x37391a21	1.1032943e-05
220	0x394475ae	0.00018735856
221	0x37d3fe4f	2.5271582e-05
222	0x38db4697	0.00010455882
223	0x39830717	0.0002499155
224	0x38c589a0	9.419327e-05
225	0x382062df	3.8239054e-05
226	0xb4c85943	-3.731785e-07
227	0x389879b2	7.270592e-05
228	0xb6574568	-3.2077896e-06
229	0x36a310e3	4.8597444e-06
230	0x38d63b58	0.00010215369
231	0x393863e3	0.00017584818
232	0xb8846c7f	-6.3144595e-05
233	0xb78b4e8b	-1.6606666e-05
234	0x36dc497b	6.565065e-06
235	0x361ff412	2.3834914e-06
236	0xb70f203f	-8.530972e-06
237	0xb88f2fc0	-6.8276655e-05
238	0xb949bba5	-0.00019238757
239	0x37a0cc5a	1.9168645e-05
240	0x38614999	5.3712723e-05
241	0x38f241e3	0.000115517316
242	0xb7ccc928	-2.4412366e-05
243	0xb6448f29	-2.9289606e-06
244	0xb50b3c1b	-5.1869e-07
245	0xb82ec0bd	-4.1664334e-05
246	0xb53da87b	-7.065316e-07
247	0xb7c4d271	-2.3463015e-05
248	0xb8d8a3c5	-0.00010330187
249	0xb5800be4	-9.540204e-07
250	0x38926ce6	6.9821064e-05
251	0x39020530	0.00012399699
252	0xb8542652	-5.0580427e-05
253	0xb79bfce5	-1.8595203e-05
254	0x36bbd11f	5.597379e-06
255	0xb5fd4a0d	-1.887152e-06

exp_avg_sq f4 [128, 10]
0	0x32ab08d4	1.9911035e-08
1	0x33973852	7.04173e-08
2	0x333eb756	4.4404565e-08
3	0x335d6529	5.1547577e-08
4	0x32817043	1.5068627e-08
5	0x32918206	1.693935e-08
6	0x30370582	6.658284e-10
7	0x3332f324	4.166499e-08
8	0x33ba2e85	8.669762e-08
9	0x3134b6cd	2.6297358e-09
10	0x342d4336	1.6136332e-07
11	0x35148535	5.532814e-07
12	0x34603825	2.0882051e-07
13	0x337f5e9d	5.9457864e-08
14	0x2fce46b9	3.7521433e-10
15	0x336a7414	5.4587943e-08
16	0x310983b9	2.0011e-09
17	0x346031c2	2.0879727e-07
18	0x349e4fd9	2.948789e-07
19	0x32654f9b	1.33476545e-08
20	0x33859611	6.220592e-08
21	0x345659cc	1.9962971e-07
22	0x32b952bc	2.1574458e-08
23	0x31e59839	6.682083e-09
24	0x30790fa6	9.060791e-10
25	0x3301ad90	3.0193007e-08
26	0x2cc3ad2a	5.5614584e-12
27	0x32b3340e	2.0862014e-08
28	0x33a07472	7.471762e-08
29	0x2e0b384a	3.1654936e-11
30	0x337c7f1f	5.8788938e-08
31	0x34155630	1.3908061e-07
32	0x332e6fa5	4.0614072e-08
33	0x3330d6fa	4.1173713e-08
34	0x3294cd76	1.73229e-08
35	0x32e6cb07	2.686785e-08
36	0x300553cf	4.850422e-10
37	0x33253038	3.846091e-08
38	0x345f5fe9	2.0803385e-07
39	0x316b7de9	3.4268572e-09
40	0x33eece6a	1.1120285e-07
41	0x33a6c4d5	7.765781e-08
42	0x32d518a0	2.4807662e-08
43	0x34968bac	2.8041302e-07
44	0x33debc1b	1.0371897e-07
45	0x32ec22d9	2.7489863e-08
46	0x2d891b40	1.5587198e-11
47	0x322e8935	1.015933e-08
48	0x33ca9f0f	9.4352906e-08
49	0x2f3baeb7	1.7069622e-10
50	0x33f2ee79	1.1312381e-07
51	0x35093142	5.1108157e-07
52	0x348e52c5	2.6509784e-07
53	0x348cd344	2.6230748e-07
54	0x327ae70c	1.4604449e-08
55	0x3330424c	4.103849e-08
56	0x31848c4d	3.857656e-09
57	0x348ef964	2.6631017e-07
58	0x348d0d01	2.6272758e-07
59	0x32e508e1	2.6663146e-08
60	0x3374106f	5.6825623e-08
61	0x34233525	1.5199892e-07
62	0x321d7db0	9.167181e-09
63	0x330c9b69	3.2737635e-08
64	0x32356d27	1.0560405e-08
65	0x329107fe	1.6883856e-08
66	0x2c31ebf6	2.5284197e-12
67	0x3191ced5	4.2435695e-09
68	0x33975ef0	7.0487545e-08
69	0x2ee0c740	1.02217346e-10
70	0x32d318db	2.4574936e-08
71	0x33a6186b	7.734419e-08
72	0x32d9a5c7	2.5337512e-08
73	0x33540b80	4.9370556e-08
74	0x320eec13	8.319165e-09
75	0x31e19c6e	6.566146e-09
76	0x2f9acb1c	2.8156755e-10
77	0x32a5887a	1.927059e-08
78	0x33ab83e9	7.986802e-08
79	0x3072f6d7	8.838987e-10
80	0x339efccf	7.403434e-08
81	0x34807deb	2.3933475e-07
82	0x33cc692a	9.5186195e-08
83	0x33728570	5.6466376e-08
84	0x31613160	3.2769876e-09
85	0x32a136f3	1.8767855e-08
86	0x302c45a5	6.2672206e-10
87	0x33cc4aba	9.513083e-08
88	0x340fabb6	1.3380381e-07
89	0x31867c66	3.9140557e-09
90	0x33366ea0	4.247579e-08
91	0x3274f786	1.425895e-08
92	0x3305631a	3.1056608e-08
93	0x343aed36	1.7408897e-07
94	0x33d768a1	1.00307496e-07
95	0x31b4442d	5.24644e-09
96	0x2e781eba	5.6415962e-11
97	0x326b04c9	1.3679888e-08
98	0x30978949	1.1025715e-09
99	0x30142af5	5.390313e-10
100	0x3434cc19	1.6838057e-07
101	0x345b7bcc	2.0441001e-07
102	0x3411f89e	1.3594624e-07
103	0x34eec57d	4.4474646e-07
104	0x33d14ef5	9.746683e-08
105	0x3300bbba	2.997306e-08
106	0x31241099	2.3874576e-09
107	0x3406125f	1.2486406e-07
108	0x32c1c521	2.2557801e-08
109	0x327e42fb	1.47999755e-08
110	0x32977faf	1.7636777e-08
111	0x324ba7e8	1.1854333e-08
112	0x326e3525	1.3865507e-08
113	0x3394a6e7	6.9221464e-08
114	0x334d2915	4.7767646e-08
115	0x30ef60bf	1.7417036e-09
116	0x2e6538d3	5.211904e-11
117	0x31e4984a	6.6529866e-09
118	0x30f3f2d0	1.7749588e-09
119	0x2fa78b5e	3.047615e-10
120	0x32b950ee	2.1573637e-08
121	0x32bb869e	2.1830882e-08
122	0x31a89f99	4.9075877e-09
123	0x3300e30a	3.0008813e-08
124	0x3217d06d	8.836747e-09
125	0x320ba1d5	8.127661e-09
126	0x2dd0351e	2.3670451e-11
127	0x31775a27	3.5994476e-09
128	0x322c5567	1.0031136e-08
129	0x2eb5cd64	8.267412e-11
130	0x31496aa9	2.9309979e-09
131	0x31d5321e	6.2048136e-09
132	0x30b912d1	1.346587e-09
133	0x31f5ea7f	7.1570976e-09
134	0x31d43eee	6.1771663e-09
135	0x3159d208	3.1697045e-09
136	0x2c2e1a99	2.4741652e-12
137	0x3039f136	6.764539e-10
138	0x2f6abf4c	2.1350138e-10
139	0x2dec0d1e	2.6835919e-11
140	0x32d22147	2.446235e-08
141	0x323e7548	1.1086122e-08
142	0x32833673	1.5275168e-08
143	0x33b38afb	8.3606174e-08
144	0x3345519b	4.5941857e-08
145	0x31da1d79	6.3479857e-09
146	0x2ee5d169	1.0450913e-10
147	0x31e07260	6.532261e-09
148	0x30ed9584	1.7286514e-09
149	0x30a93952	1.231266e-09
150	0x33453893	4.591909e-08
151	0x34202e6a	1.4918047e-07
152	0x33c18901	9.012184e-08
153	0x3363558b	5.2930357e-08
154	0x3184cc24	3.8649137e-09
155	0x320bc6f8	8.136105e-09
156	0x30b4ebdb	1.3163758e-09
157	0x33c0385e	8.95095e-08
158	0x33bc9525	8.7815614e-08
159	0x320b4f56	8.108904e-09
160	0x35b41d44	1.3419562e-06
161	0x35e6262c	1.7147445e-06
162	0x35950c62	1.1104969e-06
163	0x3685619c	3.975072e-06
164	0x34d07ceb	3.883391e-07
165	0x35094e7a	5.1150676e-07
166	0x3241dbb2	1.12840315e-08
167	0x3594aaa3	1.1076521e-06
168	0x36361d26	2.713708e-06
169	0x337881f6	5.78602e-08
170	0x32c08b8a	2.2415197e-08
171	0x341e19c7	1.4724274e-07
172	0x340778d0	1.2616806e-07
173	0x33ef7ae6	1.115166e-07
174	0x31d66695	6.239882e-09
175	0x328b3e11	1.6209954e-08
176	0x312cb040	2.512948e-09
177	0x340506bc	1.238904e-07
178	0x330a0388	3.213384e-08
179	0x325b0d2b	1.2750472e-08
180	0x33089577	3.1800905e-08
181	0x33c8684d	9.332198e-08
182	0x32e37b2c	2.648229e-08
183	0x314bdb79	2.9665144e-09
184	0x2e9e9c9a	7.212826e-11
185	0x32444a54	1.1425602e-08
186	0x2f043259	1.2023217e-10
187	0x32e385ac	2.6487065e-08
188	0x3383375b	6.110232e-08
189	0x307b9be7	9.153482e-10
190	0x3477e0b8	2.308542e-07
191	0x356bca7f	8.783899e-07
192	0x348b557e	2.595297e-07
193	0x346b24f5	2.1899525e-07
194	0x32d6e5c2	2.501736e-08
195	0x33b9eb95	8.657586e-08
196	0x3101de30	1.889827e-09
197	0x34899c60	2.5632016e-07
198	0x35560cd2	7.973987e-07
199	0x32516ce2	1.2190158e-08
200	0x33a455f0	7.652477e-08
201	0x33e6f149	1.0754099e-07
202	0x33b57226	8.449233e-08
203	0x349b4f5f	2.892875e-07
204	0x337d57cb	5.8986e-08
205	0x32e24583	2.6341473e-08
206	0x303e1280	6.914789e-10
207	0x33b1ee8d	8.285597e-08
208	0x341c9b64	1.4585163e-07
209	0x3185f21a	3.898333e-09
210	0x341225ab	1.3611013e-07
211	0x34e1a061	4.2026207e-07
212	0x33821035	6.056545e-08
213	0x332730d3	3.8927123e-08
214	0x31080ac5	1.9796726e-09
215	0x3427173e	1.5561542e-07
216	0x301cac1b	5.6997046e-10
217	0x33821264	6.056942e-08
218	0x34fe0d4f	4.732087e-07
219	0x31a91cf9	4.921841e-09
220	0x34220183	1.5087976e-07
221	0x3494adbe	2.7693562e-07
222	0x330a334e	3.217729e-08
223	0x341c0c0d	1.4533016e-07
224	0x331dc1f0	3.6730796e-08
225	0x3391cf40	6.789787e-08
226	0x2e2248c6	3.689917e-11
227	0x32da9d72	2.5450138e-08
228	0x33c8e113	9.3541665e-08
229	0x2f352b6c	1.647728e-10
230	0x34196a7b	1.4287973e-07
231	0x349dde47	2.9405257e-07
232	0x33018249	3.0153647e-08
233	0x33aed843	8.141844e-08
234	0x316bce12	3.4314138e-09
235	0x33bad72d	8.70044e-08
236	0x3035785d	6.6018463e-10
237	0x32ffbc9e	2.977168e-08
238	0x350af167	5.176029e-07
239	0x319d2831	4.5738706e-09
240	0x3364c266	5.326219e-08
241	0x34401927	1.7890544e-07
242	0x328c738a	1.6350686e-08
243	0x304326ca	7.099571e-10
244	0x2d788a1a	1.4127833e-11
245	0x3327668f	3.8975994e-08
246	0x2e0b7d4c	3.1716227e-11
247	0x328c561e	1.6337307e-08
248	0x3452e279	1.9640164e-07
249	0x2e96324e	6.830146e-11
250	0x33ed8199	1.1059746e-07
251	0x34cd8751	3.828268e-07
252	0x3418f1ad	1.4244024e-07
253	0x3373a982	5.6732013e-08
254	0x30cb00d5	1.477043e-09
255	0x3331bc60	4.138235e-08

exp_avg f4 [128, 32]
0	0x38563a6d	5.107599e-05
1	0x37bb06ee	2.2295364e-05
2	0x361d2e1d	2.3421665e-06
3	0x379b193a	1.8489187e-05
4	0xb7711daf	-1.4371631e-05
5	0x37d5bb41	2.5478776e-05
6	0xb817f8aa	-3.6232792e-05
7	0x36b88e38	5.5001838e-06
8	0x37d362c3	2.519915e-05
9	0x36b1f72e	5.3037866e-06
10	0xb73aa85c	-1.1125663e-05
11	0x37b96284	2.2099593e-05
12	0xb7a155a4	-1.9232575e-05
13	0xb79dc13f	-1.8805846e-05
14	0xb6a9c4cb	-5.059502e-06
15	0x36bfaa1f	5.7120483e-06
16	0x37b3bc05	2.1426016e-05
17	0xb7a47476	-1.9604555e-05
18	0x374bb50b	1.2141895e-05
19	0xb766a255	-1.3746864e-05
20	0x37020e18	7.751885e-06
21	0xb74db39e	-1.2260773e-05
22	0x35b6ba8c	1.3614349e-06
23	0xb704f15e	-7.924011e-06
24	0x36f57e4a	7.316271e-06
25	0xb76401c7	-1.3590273e-05
26	0x36267a01	2.4806943e-06
27	0xb700bde0	-7.673603e-06
28	0x378b05c3	1.6572774e-05
29	0xb80ce9f2	-3.359648e-05
30	0x3797a5f3	1.8077879e-05
31	0x3708cebd	8.154367e-06
32	0xb7cbc411	-2.4290786e-05
33	0x37a1cb14	1.9287261e-05
34	0x3892477f	6.97514e-05
35	0xb6c77a8d	-5.944929e-06
36	0x382c3626	4.1058425e-05
37	0x3581fda6	9.68507e-07
38	0x37a8fa66	2.0143762e-05
39	0xb7896414	-1.6378275e-05
40	0xb83bb00b	-4.4748227e-05
41	0xb7c2dabd	-2.322846e-05
42	0xb8103892	-3.438496e-05
43	0x381e3a13	3.772422e-05
44	0x38228146	3.8744205e-05
45	0x38b74f71	8.740917e-05
46	0x3832f428	4.2665895e-05
47	0xb6e5f00b	-6.8526765e-06
48	0xb83cc145	-4.500269e-05
49	0xb753493e	-1.2593633e-05
50	0xb80c0306	-3.3381417e-05
51	0x379ce3c6	1.8702714e-05
52	0x37c624b8	2.3620538e-05
53	0xb8262fbc	-3.962194e-05
54	0xb89328d6	-7.0171125e-05
55	0xb7b91899	-2.2065173e-05
56	0xb7fcdd53	-3.0143803e-05
57	0xb762d5c2	-1.3520419e-05
58	0xb70b8cd3	-8.317834e-06
59	0xb732a46d	-1.064791e-05
60	0x38296816	4.0389677e-05
61	0x36020d7e	1.9379363e-06
62	0xb6cbae59	-6.070168e-06
63	0x3841963c	4.6154702e-05
64	0xb61bab11	-2.3196374e-06
65	0xb68bb8fa	-4.164057e-06
66	0xb73be18d	-1.1198584e-05
67	0xb72fdf3d	-1.048279e-05
68	0x38154ff9	3.559885e-05
69	0x3517a747	5.6495304e-07
70	0xb7995d95	-1.8282599e-05
71	0x378f9525	1.711638e-05
72	0xb7091dc8	-8.17277e-06
73	0xb82b46f9	-4.0835675e-05
74	0xb5dc7b26	-1.6427118e-06
75	0xb552bf9a	-7.8509913e-07
76	0xb7ac8c25	-2.0569258e-05
77	0xb6b41659	-5.3670196e-06
78	0xb825daaf	-3.954273e-05
79	0xb7157d41	-8.910255e-06
80	0xb73d0aaa	-1.1267761e-05
81	0xb81f2157	-3.7939604e-05
82	0x37ab1388	2.0393883e-05
83	0x36fe6d89	7.5825415e-06
84	0x371b5cd9	9.260338e-06
85	0x37a55613	1.9709614e-05
86	0xb791f50f	-1.7399461e-05
87	0xb7b2873c	-2.1282227e-05
88	0x37ff5f45	3.0442732e-05
89	0x36b8cf67	5.507772e-06
90	0x38049310	3.1608215e-05
91	0x35d869d4	1.6124054e-06
92	0x378b9244	1.6638201e-05
93	0x37489b5a	1.19571e-05
94	0x360b50ea	2.0759712e-06
95	0xb6054058	-1.9855997e-06
96	0xb7a7e4ee	-2.0014555e-05
97	0x36e8c1bd	6.936693e-06
98	0xb852b6b5	-5.023806e-05
99	0x37c3c05f	2.3335391e-05
100	0xb86285ed	-5.4007327e-05
101	0x37bf792b	2.2825398e-05
102	0xb891429f	-6.926548e-05
103	0x369bc85c	4.642685e-06
104	0xb71c43bc	-9.314095e-06
105	0x3849722f	4.8028476e-05
106	0x378cb230	1.6772276e-05
107	0xb7c6659b	-2.3650753e-05
108	0xb7993fc0	-1.8268707e-05
109	0xb7123458	-8.714465e-06
110	0x37ab28a0	2.0403706e-05
111	0x368b851f	4.15802e-06
112	0x368913f2	4.08524e-06
113	0x380e584c	3.393767e-05
114	0x35d17244	1.5604969e-06
115	0xb7bab5fd	-2.2257673e-05
116	0xb764b034	-1.36308845e-05
117	0xb78ea257	-1.7003314e-05
118	0x3721344a	9.608522e-06
119	0x37a72501	1.9925183e-05
120	0xb890ba9e	-6.901215e-05
121	0xb73afd4a	-1.1145437e-05
122	0xb7a72fbd	-1.9930181e-05
123	0x37445fbe	1.1704802e-05
124	0xb82a8d63	-4.0662835e-05
125	0xb786b4c7	-1.6058226e-05
126	0xb79f38fb	-1.898081e-05
127	0x3627fdbd	2.5032634e-06
128	0xb8b5a70e	-8.661869e-05
129	0xb621c397	-2.4104718e-06
130	0xb8ac6d82	-8.2219965e-05
131	0x38246d99	3.9202718e-05
132	0xb8689ea6	-5.5460863e-05
133	0xb6596ce9	-3.2398914e-06
134	0x378922a2	1.63478e-05
135	0xb79c9242	-1.8664756e-05
136	0xb793101f	-1.7531273e-05
137	0x388a9bb2	6.609353e-05
138	0x37f47e9f	2.914603e-05
139	0xb73989f6	-1.1058981e-05
140	0x3734fa58	1.0787124e-05
141	0xb75c0c40	-1.3115874e-05
142	0x38998fe4	7.32241e-05
143	0xb7ca0d7f	-2.4086561e-05
144	0x37c379b1	2.3302478e-05
145	0x38b54baf	8.64485e-05
146	0xb7c7f49c	-2.3836554e-05
147	0xb8115856	-3.4652963e-05
148	0xb7ad0fa0	-2.0630483e-05
149	0x3697342d	4.5062247e-06
150	0x387b22b8	5.9875398e-05
151	0x38e74ca7	0.00011029216
152	0xb8d56de7	-0.000101771024
153	0x362b53f8	2.5529862e-06
154	0xb873817a	-5.80563e-05
155	0x383e97cb	4.54409e-05
156	0xb8a37e22	-7.79594e-05
157	0x373d706b	1.1291452e-05
158	0xb8c6e523	-9.484056e-05
159	0xb81f927d	-3.8044982e-05
160	0xb830898b	-4.2089767e-05
161	0xb6a8b8ca	-5.0283024e-06
162	0x389e7362	7.555519e-05
163	0x3778d883	1.48323625e-05
164	0x389b687f	7.41044e-05
165	0xb4e04fe9	-4.1781394e-07
166	0x386a50a5	5.5865054e-05
167	0xb665a5b2	-3.4220106e-06
168	0xb8073109	-3.2232176e-05
169	0xb846db16	-4.741092e-05
170	0x363d8c9d	2.8245042e-06
171	0xb7a9644c	-2.0193074e-05
172	0x38876738	6.4565276e-05
173	0x38bc33ff	8.9742236e-05
174	0x386ee2f2	5.695498e-05
175	0xb70a5158	-8.24438e-06
176	0xb872cda4	-5.7888814e-05
177	0xb814abf2	-3.5446086e-05
178	0xb85787df	-5.1386534e-05
179	0x37204d02	9.554673e-06
180	0x37d19949	2.498612e-05
181	0xb8356355	-4.3246273e-05
182	0xb8bc5c51	-8.981734e-05
183	0xb7d81d53	-2.5762862e-05
184	0xb5922484	-1.0888475e-06
185	0xb5bd8a19	-1.4121789e-06
186	0xb8052abc	-3.174947e-05
187	0xb554f226	-7.9328527e-07
188	0xb6e3525d	-6.7747155e-06
189	0x373df398	1.1321994e-05
190	0xb7040cba	-7.870776e-06
191	0x3718f90c	9.117892e-06
192	0x37bdf72b	2.2645652e-05
193	0xb6cb351d	-6.0560546e-06
194	0x37f55fe0	2.9250921e-05
195	0xb7d71472	-2.5639518e-05
196	0x3826595e	3.9660714e-05
197	0xb70bf22d	-8.341432e-06
198	0x37844d2a	1.5771559e-05
199	0x36bb25a4	5.5774162e-06
200	0x36c9a229	6.0091447e-06
201	0xb8462d44	-4.7249036e-05
202	0xb792a202	-1.7479997e-05
203	0x37b22d16	2.1240248e-05
204	0xb7118b4d	-8.675107e-06
205	0x37309e1a	1.0527228e-05
206	0xb8097b17	-3.277798e-05
207	0xb630723a	-2.6292532e-06
208	0xb6ac955d	-5.1433876e-06
209	0xb8129b9f	-3.4954046e-05
210	0x3799b9e9	1.8325592e-05
211	0x3792b3bd	1.7488253e-05
212	0x37151db6	8.88801e-06
213	0x37d96b2b	2.591832e-05
214	0xb7c5945a	-2.3553312e-05
215	0xb82fde16	-4.1930085e-05
216	0x385d374a	5.2741998e-05
217	0x36bea23d	5.6813283e-06
218	0x37f04802	2.864376e-05
219	0xb6f1feb2	-7.21201e-06
220	0x3829ae8d	4.0455303e-05
221	0x37a28984	1.937594e-05
222	0x36d42c7f	6.3232724e-06
223	0x3601e518	1.9355848e-06
224	0xb7a20730	-1.9315252e-05
225	0x37b3f11e	2.1450742e-05
226	0xb81ef32d	-3.789661e-05
227	0x380776fc	3.229732e-05
228	0xb8346228	-4.300676e-05
229	0x379ed9af	1.8936435e-05
230	0xb7d10c99	-2.4920608e-05
231	0xb7314556	-1.0566166e-05
232	0xb6d772a2	-6.4208443e-06
233	0x38370830	4.3638225e-05
234	0xb69db407	-4.6999226e-06
235	0x3749e617	1.2034106e-05
236	0xb7a9db8f	-2.024861e-05
237	0xb66c48e4	-3.5209168e-06
238	0x3810b8a7	3.4504246e-05
239	0xb750cd2c	-1.2445536e-05
240	0x381e6d73	3.7772068e-05
241	0x38550e2e	5.0796363e-05
242	0x370292ba	7.782766e-06
243	0xb7f82248	-2.9579867e-05
244	0xb6855548	-3.973637e-06
245	0xb7a395d5	-1.9500885e-05
246	0x3832c28d	4.2619697e-05
247	0x3828567c	4.0134866e-05
248	0xb83d2e80	-4.5104418e-05
249	0xb70239c6	-7.762055e-06
250	0xb70dfbaa	-8.46285e-06
251	0x3728a754	1.0052539e-05
252	0xb74fbeb9	-1.2382568e-05
253	0xb7e553d3	-2.7337961e-05
254	0xb79a46ba	-1.8391165e-05
255	0x37965a29	1.7923378e-05
