models/car/policy_ego_kinematic_model_best_iter19.pth (torch, 77546 bytes, 20 tensors)

lstm.weight_ih_l0 f4 [128, 10]
0	0x3e168757	0.14700066
1	0xbdc6c366	-0.09705238
2	0x3da1ac97	0.07894247
3	0x3d50a166	0.05093517
4	0xbf1f2985	-0.6217273
5	0x3d55cacb	0.05219535
6	0x3da47bfd	0.080314614
7	0x3d95bb24	0.07311085
8	0xbc9e6c77	-0.01933883
9	0xbe68ecc1	-0.22746564
10	0x3de47614	0.11155334
11	0x3b5789b2	0.003288847
12	0x3dedf3b9	0.11618752
13	0xbe53944a	-0.20662037
14	0xbef781ac	-0.4834112
15	0x3cf01983	0.02930904
16	0xbe75894b	-0.23978154
17	0xbd7c42b3	-0.061587047
18	0x3eaf8aaf	0.34285495
19	0x3d925abb	0.07146212
20	0xbd62dc1b	-0.05538569
21	0xbd9abbec	-0.075553745
22	0x3d6e171b	0.058127504
23	0x3d53d300	0.051714897
24	0x3e8a70a6	0.2703907
25	0xbddc2ba7	-0.107505135
26	0x3ef0b8fd	0.47016135
27	0x3e31e4b8	0.17372406
28	0xbe7701a1	-0.24121715
29	0xbcbab8db	-0.022793224
30	0x3e4086f7	0.18801485
31	0x3e717305	0.23579033
32	0x3e6c926c	0.2310273
33	0x3e8fab7f	0.2806053
34	0x3f30f6eb	0.69126767
35	0xbcbf814d	-0.023377085
36	0x3eed9128	0.46399808
37	0xbd4a9927	-0.049462464
38	0x3e14ac06	0.14518747
39	0xbea83950	-0.32856226
40	0x3e3e40ed	0.18579455
41	0xbd8acbe5	-0.06777171
42	0x3e7ce609	0.24697126
43	0x3d17ef91	0.037093703
44	0xbd15c452	-0.03656418
45	0x3d802b22	0.06258227
46	0x3dc5568c	0.09635648
47	0x3d806f2c	0.06271204
48	0xbdca7a37	-0.09886592
49	0xbe6788ca	-0.22610775
50	0xbe3b3c08	-0.18284619
51	0xbdd2f0da	-0.10299845
52	0x3e56a4d5	0.20961316
53	0xbe07b0ee	-0.13251087
54	0xbe8bf621	-0.2733622
55	0x3dc5fe7d	0.096676804
56	0x3e07a4f3	0.13246517
57	0xbe2bdd8d	-0.16783734
58	0x3dfac95c	0.122454375
59	0xbe037592	-0.12837818
60	0xbda84378	-0.08215994
61	0x3e061e3b	0.1309747
62	0x3e52d483	0.2058888
63	0x3ddd4f21	0.10806108
64	0xbd4b25c4	-0.049596563
65	0xbd8087a8	-0.062758744
66	0x3db99d07	0.09063154
67	0x3d008552	0.031377144
68	0xbe3fc71a	-0.18728295
69	0xbe9ae4fe	-0.30252832
70	0x3e9d3a74	0.3070866
71	0xbd06f671	-0.03294987
72	0x3dd0d329	0.101965256
73	0x3eac9f66	0.3371536
74	0x3ee310cb	0.4434875
75	0x3d9f55f4	0.07780066
76	0xbd583a34	-0.05278988
77	0x3dd690b8	0.10476822
78	0xbdc1b5b9	-0.09458489
79	0x3d908184	0.07055953
80	0xbe10ce64	-0.14141232
81	0xbe1f0bb8	-0.15531814
82	0x3e09b961	0.13449623
83	0xbd10b948	-0.035332948
84	0x3f079c40	0.52972794
85	0xbe3e1431	-0.1856239
86	0x3e70a863	0.23501734
87	0x3df83766	0.121199414
88	0xbdeeb5e1	-0.116557844
89	0xbe417b96	-0.188948
90	0x3e471865	0.194429
91	0xbe13b4f9	-0.14424504
92	0x3e4de00e	0.20105001
93	0x3e920ce1	0.2852545
94	0x3f157b58	0.5839133
95	0xbdfaf219	-0.12253208
96	0x3e7ad651	0.24495818
97	0x3e067e5a	0.13134137
98	0xbdf01c94	-0.11724201
99	0xbec1d464	-0.37857354
100	0x3e4deeca	0.20110622
101	0xbccc2df3	-0.024924254
102	0x3e7ab9f2	0.24484995
103	0x3e77195e	0.2413077
104	0x3f3837ad	0.71959955
105	0xbe302353	-0.17200975
106	0x3ecb309d	0.39685526
107	0x3d316565	0.043309588
108	0x3d47debc	0.0487964
109	0xbe4ee7fb	-0.20205681
110	0x3d8daa32	0.06917228
111	0x3dfdcf3b	0.12393042
112	0x3e996c60	0.29965496
113	0xbd448b3d	-0.04798435
114	0x3f1c121e	0.60965145
115	0x3dcca5bc	0.09992549
116	0x3e6236af	0.22091173
117	0x3de5615a	0.11200209
118	0xbe3f580e	-0.18685934
119	0xbeb8926c	-0.3604921
120	0xbc5de526	-0.013543403
121	0x3cffed75	0.031241158
122	0x3e49c320	0.1970334
123	0x3d8e5df1	0.06951512
124	0x3ec6fe9e	0.38866132
125	0xbd9af7f2	-0.07566823
126	0xbe51c112	-0.20483807
127	0xbe240231	-0.16016461
128	0x3ea59ac3	0.32344636
129	0x3c4b09bc	0.012392458
130	0xbc1495f5	-0.009068956
131	0x3dd9fc8e	0.10643874
132	0x3e7a3a01	0.24436189
133	0x3e6fba5a	0.23410931
134	0x3ec4cc3f	0.38437077
135	0xbd8e1180	-0.069369316
136	0x3e674ea6	0.22588596
137	0x3d84f033	0.06491127
138	0xbe2cd4e5	-0.16878088
139	0xbed878b9	-0.42279604
140	0xbd06a080	-0.03286791
141	0xba898d34	-0.0010494352
142	0xbc551272	-0.013004886
143	0x3d9e8ade	0.077413306
144	0xbd51f5c1	-0.05125976
145	0xbd9783a0	-0.07398152
146	0x3e0f9244	0.1402064
147	0x3d8039ee	0.06261049
148	0x3df7a83f	0.12092637
149	0xbcc865a5	-0.02446253
150	0xbdf01352	-0.11722435
151	0x3dc7b1e2	0.09750725
152	0x3db8e5ad	0.09028182
153	0xbdc17671	-0.09446419
154	0x3d05d426	0.032673024
155	0xbe28c454	-0.16481143
156	0x3dc57831	0.09642065
157	0xbc530b38	-0.012881093
158	0x3d8ba165	0.06817893
159	0xbe6450b5	-0.22296412
160	0x3cd88e4e	0.026435044
161	0x3db61493	0.08890643
162	0x3dee1b3c	0.11626288
163	0x3de17578	0.110087335
164	0xbf0ddd3a	-0.5541569
165	0x3d89f988	0.067370474
166	0xbd92b8dd	-0.07164166
167	0xbdcce565	-0.10004691
168	0x3c47ddb0	0.0121988505
169	0xbe575f3b	-0.21032421
170	0xbd74ea03	-0.059793483
171	0x3d3c4b78	0.04597041
172	0x3e230c7c	0.15922731
173	0x3e0a52d8	0.13508165
174	0x3f5ecc14	0.8703015
175	0x3e1d37b9	0.15353288
176	0x3e905d2d	0.28196087
177	0x3d423cdc	0.04742132
178	0xbdc4eb29	-0.09615166
179	0xbd4c8db5	-0.04993983
180	0x3e22bb29	0.15891708
181	0x3d07b8eb	0.033135336
182	0x3d3b04f6	0.045659028
183	0x3e6f9b60	0.23399115
184	0x3f39258c	0.72322917
185	0x3e21c2c7	0.15796958
186	0x3da70dc9	0.08156926
187	0xbd306a09	-0.043069873
188	0x3ca4ea0d	0.020131135
189	0xbed274c8	-0.41104722
190	0x3e1e1e05	0.15441139
191	0x3c272c95	0.0102035
192	0xbd978c8d	-0.07399855
193	0x3bb2ccf8	0.005456563
194	0x3e7a3e08	0.24437726
195	0xbe2d332a	-0.16914049
196	0xbe810008	-0.25195336
197	0x3e131c4f	0.14366268
198	0x3cd5e7e3	0.026111549
199	0xbdabe313	-0.0839292
200	0x3e4afabd	0.19822212
201	0x3dbaceb9	0.091214605
202	0x3e2f51e9	0.1712109
203	0xbb4159ba	-0.0029502944
204	0x3ebcbf62	0.36864763
205	0x3d810a3c	0.0630078
206	0xbe0f96c8	-0.14022362
207	0xbdbbc3ab	-0.0916818
208	0x3d12f334	0.035876468
209	0xbdf54029	-0.11975128
210	0x3d3bb554	0.045827225
211	0x3d5ec154	0.05438359
212	0xbd1052e8	-0.035235316
213	0x3e23d872	0.16000536
214	0x3f454078	0.77051497
215	0x3d95a1fe	0.07306288
216	0x3ebe78cf	0.37201545
217	0xbdfa0481	-0.1220789
218	0xbe1fd134	-0.15607148
219	0xbde90b25	-0.11379079
220	0xbe4b35ca	-0.19844738
221	0x3e0379fa	0.12839499
222	0xbe328b4c	-0.1743595
223	0xbe79a083	-0.24377637
224	0xbe85f9da	-0.26167184
225	0xbe439cc8	-0.19102776
226	0xbdcedcac	-0.101006836
227	0x3e2dfc3c	0.16990751
228	0x3e24e148	0.16101563
229	0x3e4b5530	0.19856715
230	0x3c812629	0.015765266
231	0xbdf462bf	-0.11932897
232	0x3e9e10bd	0.30872145
233	0x3d86dd8e	0.06585227
234	0x3ed38c89	0.41318157
235	0x3d1245b1	0.035710994
236	0xbd1841cd	-0.037172128
237	0x3e1ea541	0.15492727
238	0x3d528a9c	0.05140172
239	0xbeb2322a	-0.34803897
240	0xbe1cc918	-0.15311086
241	0xbd0176ae	-0.031607322
242	0x3deac936	0.11464159
243	0xbd8727db	-0.06599399
244	0xbec5dfcf	-0.38647315
245	0x3cacf090	0.021110803
246	0xbec0d8ae	-0.37665313
247	0xbe309b79	-0.17246808
248	0xbd086b55	-0.033305485
249	0x3e013535	0.12617953
250	0x3e2fa8b6	0.17154202
251	0xbd8b52b5	-0.068028845
252	0x3e15529f	0.14582299
253	0x3e175063	0.14776759
254	0x3f586dc4	0.8454249
255	0xbdfe5d91	-0.1242019

lstm.weight_hh_l0 f4 [128, 32]
0	0x3da6a3ff	0.081367485
1	0xbd834879	-0.064103074
2	0x3b3c645d	0.0028746345
3	0x3cd86679	0.02641605
4	0x3d7e8ef3	0.062148046
5	0xbe4e6939	-0.20157327
6	0x3e28073b	0.16409008
7	0xbc999e8d	-0.01875236
8	0xbcc1fc14	-0.02367977
9	0xbd0efd93	-0.034909796
10	0x3e266f1a	0.1625332
11	0xbb9aef56	-0.004728238
12	0x3cdaa38a	0.02668931
13	0x3b101972	0.0021987823
14	0xbd5e4422	-0.054264195
15	0x3df920d6	0.12164466
16	0xbddeeddb	-0.10885211
17	0x3e01f28f	0.12690185
18	0x3dbf4317	0.09338968
19	0xbdc5984c	-0.09648189
20	0x3b3c472a	0.002872894
21	0x3ced8492	0.028993879
22	0xbcdd7c08	-0.027036682
23	0x3def58ce	0.1168686
24	0x3d8a60ef	0.0675677
25	0x3d2bf77e	0.041984074
26	0xbe8a2e94	-0.2698866
27	0x3ded57eb	0.11589035
28	0xbd811809	-0.063034125
29	0x3df53287	0.11972528
30	0xbdc77cea	-0.09740622
31	0xbdd8e36e	-0.10590254
32	0x3d11a0b7	0.03555366
33	0x3da47bc3	0.08031418
34	0x3c801c9b	0.01563864
35	0x3d607c74	0.054806188
36	0x3b8eed72	0.004361802
37	0x3cf96f19	0.030448483
38	0x3ca62fde	0.020286497
39	0xbe3fe43a	-0.18739405
40	0xbde61bbf	-0.11235761
41	0xbd741a1b	-0.05959521
42	0x3cf4d94c	0.029888771
43	0x3e262e0c	0.16228503
44	0x3c8d960a	0.017283458
45	0x3df0dc06	0.11760716
46	0xbe228aa5	-0.15873201
47	0xbe1a73ef	-0.15083288
48	0xbc0b6918	-0.008508943
49	0xbd99f957	-0.07518261
50	0xbdebed1d	-0.11519835
51	0x3d5ca534	0.053868487
52	0xbd47cf70	-0.048781812
53	0x3e007290	0.12543702
54	0xbe18c565	-0.1491905
55	0x3e1f698b	0.15567605
56	0x3d5a153c	0.053242907
57	0xbd2985b0	-0.04138726
58	0xbe8c0c20	-0.27353
59	0x3ce7f3fb	0.028314581
60	0xbdf9347c	-0.12168214
61	0x3df18f9f	0.11794972
62	0xbe38764f	-0.18013881
63	0xbd09aa40	-0.03360963
64	0xbd2716ec	-0.040793344
65	0xbe1e61cf	-0.15466999
66	0xbdf3acbe	-0.11898182
67	0xbd6de527	-0.058079865
68	0xbaacb1d8	-0.001317556
69	0xbd82c056	-0.063843414
70	0x3dda2793	0.106520794
71	0xbdeecd0b	-0.116602026
72	0xbe025ef7	-0.12731539
73	0xbdb9bbf7	-0.090690546
74	0x3e336aae	0.17521164
75	0xbd1f0500	-0.038823128
76	0xbea3dbe8	-0.32003713
77	0x3e1ed57c	0.15511125
78	0x39a60867	0.00031668248
79	0x3c649b00	0.0139529705
80	0x3e0f8472	0.14015368
81	0x3e55a3b1	0.20863225
82	0xbdc2256e	-0.094797954
83	0x3e1420d6	0.14465651
84	0x3d91883c	0.07106063
85	0xbcd27c1b	-0.025693944
86	0xbda3ad3e	-0.07992028
87	0x3dfe4a90	0.124165654
88	0x3e3d9546	0.18513975
89	0xbcf8f7a3	-0.03039152
90	0xbe7f4ca2	-0.24931577
91	0x3d81b463	0.06333234
92	0xbde20a13	-0.11037078
93	0xbc8b288c	-0.016987108
94	0x3e219c2a	0.15782228
95	0x3e49335e	0.19648501
96	0x3de17172	0.11007966
97	0x3d3f6879	0.046730492
98	0xbd810ef7	-0.063016824
99	0x3b27db2c	0.0025612814
100	0x3dee297f	0.116290085
101	0xbdf02ac7	-0.11726909
102	0xbdac8b82	-0.084250465
103	0xbdadeb06	-0.08492093
104	0x3b0eda9b	0.002179778
105	0x3d904ff2	0.07046498
106	0xbe47d11c	-0.19513363
107	0x3e47ecc8	0.19523919
108	0x3d85462d	0.065075256
109	0xbe0589a1	-0.13040783
110	0xbbdb8328	-0.0066989847
111	0xbd935909	-0.071947165
112	0x3d8b7dc2	0.06811096
113	0x3c94cf94	0.018165387
114	0x3c55ca05	0.0130486535
115	0x3de1783e	0.110092625
116	0xbeee11bc	-0.46497905
117	0xbdecc0f0	-0.115602374
118	0xbc3d3161	-0.011547417
119	0xbd8dff65	-0.06933478
120	0xbd4ccbaf	-0.049998935
121	0x3b470d9f	0.003037311
122	0xbe4a7b76	-0.19773659
123	0xbcd6c859	-0.02621858
124	0xbe306445	-0.1722575
125	0xbe35cdef	-0.17754339
126	0x3e9dc3b3	0.3081337
127	0xbdf7aac5	-0.120931186
128	0xbd9559e8	-0.07292539
129	0x3d7b690b	0.061379474
130	0x3cbda224	0.023148604
131	0x3dc39c9c	0.09551355
132	0xbe4a0643	-0.19728951
133	0xbe99a32c	-0.30007303
134	0xbdced6f6	-0.10099594
135	0xbdfeffc7	-0.124511294
136	0xbc6b2558	-0.014352165
137	0x3d41bda0	0.04729998
138	0x3df63046	0.12020926
139	0xbe2705dc	-0.16310829
140	0x3cc68cda	0.024237085
141	0xbdbc39c9	-0.09190709
142	0xbc30b8f0	-0.01078628
143	0x3d5067dc	0.050880298
144	0x3df23685	0.11826805
145	0x3df5dc2d	0.12004886
146	0xbcea0046	-0.028564584
147	0x3dd020b1	0.101624854
148	0xbd734ad8	-0.05939755
149	0x3e37a95f	0.17935704
150	0xbc96d957	-0.018414183
151	0xbd86fffb	-0.06591793
152	0x3e04a6f5	0.12954314
153	0x3c1a48ae	0.009416742
154	0x3c1c02aa	0.00952212
155	0x3d9778bb	0.073960744
156	0x3e2c1c91	0.16807772
157	0xbdd08649	-0.10181863
158	0x3d86b438	0.06577343
159	0xbdd2ab77	-0.102866106
160	0x3e6baccb	0.23015134
161	0xbd868991	-0.065692075
162	0x3db27e4c	0.087154955
163	0xbd65e064	-0.0561222
164	0xbe7ecee8	-0.24883616
165	0xbc887cce	-0.016661074
166	0xbce70c4a	-0.028204102
167	0xbc06bb4b	-0.008223365
168	0xbe1b80dc	-0.15185875
169	0xbe288909	-0.16458525
170	0x3dafdca4	0.08587006
171	0x3cf9db8d	0.030500198
172	0x3d492704	0.049109474
173	0x3d148a6e	0.03626483
174	0xbe0d5304	-0.13801199
175	0xbd50d2d3	-0.050982308
176	0x3e2f1338	0.17097175
177	0xbd71c09d	-0.05902158
178	0xbe2548f5	-0.16141112
179	0xbe1e4b30	-0.1545837
180	0x3dd52e98	0.10409278
181	0x3d6ec4aa	0.058293022
182	0xbdca1236	-0.09866755
183	0x3e6c043b	0.23048489
184	0xbdb7432e	-0.089483604
185	0xbe0eb8ae	-0.13937637
186	0xbdca3b42	-0.09874584
187	0x3d476ed4	0.04868968
188	0xbd73d4d8	-0.059529155
189	0xbdfa08e0	-0.12208724
190	0xbe183b9e	-0.14866492
191	0x3dacbe93	0.08434787
192	0x3e2c3ca4	0.16820008
193	0xbd487695	-0.048941214
194	0x3dc3885b	0.09547492
195	0xbe2c09b3	-0.16800575
196	0x3b59bac0	0.0033222884
197	0xbe474273	-0.19458942
198	0xbe1ca4c1	-0.15297224
199	0x3d688d87	0.056775596
200	0xbdaf5d45	-0.085627116
201	0x3e337b6c	0.1752755
202	0x3e12adc8	0.14324105
203	0xbe376a8a	-0.17911735
204	0xbc914f73	-0.01773808
205	0xbd840c91	-0.06447709
206	0xbdcfd877	-0.10148709
207	0xbe29a18d	-0.16565533
208	0xbd715f67	-0.058928873
209	0x3e13dda7	0.14440022
210	0x3d4d865d	0.050176967
211	0x3da992b9	0.08279938
212	0xbe1aaabb	-0.15104191
213	0x3dc11df9	0.09429545
214	0x3cd8c0c3	0.026459103
215	0xbd145746	-0.036216043
216	0xbc109412	-0.008824365
217	0xbe220e7f	-0.15825842
218	0xbe3ee492	-0.1864188
219	0xbdb346df	-0.08753752
220	0xbdb7d4a9	-0.089761086
221	0xbd84b793	-0.064803265
222	0xbd429fa8	-0.04751554
223	0xbdf43c1a	-0.11925526
224	0x3d92b956	0.07164256
225	0xbca60062	-0.020263854
226	0xbdc609d2	-0.09669842
227	0x3e213f79	0.15746869
228	0x3dda3339	0.10654301
229	0xbd484dd6	-0.048902355
230	0xbd7bf893	-0.061516356
231	0xbddd44c3	-0.10804131
232	0xbe148c4e	-0.14506647
233	0x3de2c7fd	0.11073301
234	0x3e2fcc0b	0.1716768
235	0xbd23375b	-0.039847713
236	0xbd8c6b7b	-0.06856438
237	0x3e451d8e	0.19249555
238	0xbd3c0b3a	-0.045909144
239	0xbd90c92e	-0.07069622
240	0x3df47dc9	0.11938054
241	0x3d994ae1	0.07484985
242	0xbdf8a242	-0.12140323
243	0xbbe1f764	-0.0068959463
244	0xbddc3b5e	-0.10753511
245	0x3e0b08ce	0.13577577
246	0xbdef6ef4	-0.116910845
247	0x3dedf6f7	0.116193704
248	0x3e3ac17a	0.18237868
249	0xbd80fcba	-0.06298204
250	0xbdefc14a	-0.11706789
251	0x3d7ee450	0.062229455
252	0xbc3b4370	-0.011429653
253	0xbe2fc05f	-0.17163227
254	0xbb672cd2	-0.0035274518
255	0x3d9f1def	0.07769381

lstm.bias_ih_l0 f4 [128]
0	0x3d8a1299	0.067418285
1	0x3e103cd9	0.14085712
2	0xbc918b76	-0.017766695
3	0xbd48503d	-0.048904646
4	0x3e153e21	0.14574482
5	0x3c0ffe8c	0.008788716
6	0xbd4296de	-0.04750716
7	0x3e2390ba	0.15973178
8	0x3dc83b54	0.09776941
9	0xbc49b453	-0.012311059
10	0x3e0978d6	0.13425002
11	0x3e21f717	0.15816914
12	0x3e1529f7	0.1456679
13	0xbe0d0fd7	-0.13775574
14	0xbdb0df07	-0.08636289
15	0x3e28d08a	0.16485801
16	0x3dd0fd56	0.1020457
17	0xbddece92	-0.10879244
18	0x3e3ca793	0.184233
19	0x3d15b4ee	0.0365495
20	0x3c2a80e2	0.010406705
21	0xbd4288de	-0.047493808
22	0xbc9a0b97	-0.018804355
23	0x3de4d81e	0.111740336
24	0x3c05f573	0.008176195
25	0x3e1b1e89	0.15148367
26	0x3cded59c	0.027201466
27	0xbd8507b2	-0.064956084
28	0xbdaca848	-0.084305346
29	0x3e2c634c	0.16834754
30	0x3d7ee449	0.06222943
31	0x3de964c4	0.11396173
32	0xbd523a47	-0.05132511
33	0xbcc72a37	-0.024312122
34	0x3da76380	0.08173275
35	0xbd97c9b5	-0.074115194
36	0x3e14f9e5	0.14548452
37	0x3e22dec9	0.15905298
38	0x3df47392	0.11936106
39	0x3e12752c	0.1430251
40	0x3e1e7f51	0.15478255
41	0xbdb09ffa	-0.08624263
42	0xbc8c6e34	-0.017142393
43	0x3e2f5c30	0.1712501
44	0xbd8ff25e	-0.0702865
45	0x3be657f6	0.0070295287
46	0xbd6f1ac0	-0.05837512
47	0x3da914ba	0.082559064
48	0xbd34d4de	-0.04414832
49	0x3c502237	0.01270347
50	0x3d938881	0.072037704
51	0x3e0b0670	0.13576674
52	0x3c9edfb8	0.019393787
53	0xbcaf39d9	-0.021389889
54	0x3e0e5a12	0.13901547
55	0xbd4f48ef	-0.050606664
56	0x3d306fb2	0.04307527
57	0x3d2a2ce9	0.041546736
58	0x3e6c0e23	0.23052268
59	0x3e0f29e7	0.13980828
60	0x3caa3e29	0.020781593
61	0x3e0d5639	0.13802423
62	0x3dd8ece1	0.10592056
63	0x3d6c63ca	0.057712354
64	0xbcdc5a76	-0.026898604
65	0x3d182a54	0.037149742
66	0xbd6e8a3e	-0.058237307
67	0xbbc90318	-0.006134402
68	0xbdc9e966	-0.0985897
69	0x3db44996	0.08803098
70	0x3e20ac9b	0.15690844
71	0xbd1a2e7d	-0.03764199
72	0xbe3d9eab	-0.18517558
73	0x3e57d5c9	0.21077646
74	0xbdda1aef	-0.106496684
75	0x3dd478b0	0.10374582
76	0x3dbe868b	0.09303006
77	0xbdb2df1b	-0.0873396
78	0x3d02a9d7	0.031900253
79	0xbe174807	-0.1477357
80	0x3e0d4793	0.13796835
81	0xbde0382b	-0.10948213
82	0x3d97a46a	0.07404406
83	0xbd50f3a8	-0.05101362
84	0x3da3de1a	0.08001347
85	0x3dc19d6c	0.09453854
86	0x3df94a08	0.121723235
87	0xbde8bda4	-0.11364296
88	0x3d19ee2c	0.037580654
89	0xbe274bb3	-0.1633747
90	0x3dd1f8d1	0.10252536
91	0xbdef1cb4	-0.116753966
92	0x3d5f41a2	0.05450595
93	0x3e2a12a5	0.16608675
94	0xbdebb9b4	-0.115100294
95	0x3dcbe7d1	0.09956325
96	0xbd2b851a	-0.041874982
97	0x3d74b37e	0.05974149
98	0xbd7317f9	-0.059349034
99	0xbc6d38db	-0.014478887
100	0x3d0fafe5	0.035079855
101	0x3e3af850	0.18258786
102	0x3d3e6515	0.046483118
103	0x3bd31634	0.006441856
104	0xbb932d05	-0.0044914507
105	0xbd7f6776	-0.062354527
106	0xbd43e1fc	-0.047822937
107	0xbd1c8688	-0.038214236
108	0x3d90e4ec	0.070749134
109	0xbd14c4ed	-0.036320616
110	0x3d6180db	0.055054527
111	0x3d7f818e	0.062379412
112	0xbe602ab7	-0.21891294
113	0x3ddf4a26	0.109028146
114	0x3debc799	0.115126796
115	0x3db05929	0.08610756
116	0x3e14154c	0.14461249
117	0xbe2586e2	-0.16164735
118	0x3d73c97a	0.059518315
119	0x3e331ca2	0.17491391
120	0xbdc5f28e	-0.09665404
121	0x3de83aaf	0.11339318
122	0x3e523c2b	0.20530765
123	0x3cc56f35	0.02410088
124	0xbe658730	-0.22414851
125	0x3e38f6ad	0.1806285
126	0x3e2d5c45	0.1692973
127	0x3c705b2c	0.014670175

lstm.bias_hh_l0 f4 [128]
0	0x3daee8ff	0.08540534
1	0x3df9d9fd	0.12199781
2	0xbe2414c2	-0.16023543
3	0xbe48f9c2	-0.19626525
4	0x3d820a99	0.063496776
5	0xba9a3e30	-0.0011767801
6	0xbdc9f6e2	-0.09861542
7	0xbe2ca718	-0.16860616
8	0xbdb0b740	-0.08628702
9	0x3e171b78	0.14756572
10	0xbceb0a0d	-0.028691316
11	0xbe10a8bd	-0.14126869
12	0xbc607d1b	-0.0137017025
13	0xbd81281f	-0.063064806
14	0xbe3d00cc	-0.18457335
15	0x3e213f02	0.15746692
16	0x3e16668b	0.14687555
17	0x3e259b08	0.16172421
18	0xbdf9c45c	-0.12195656
19	0xbe242783	-0.16030698
20	0xbe3904ee	-0.18068287
21	0x3e1c4bd1	0.15263297
22	0xbda2c0a6	-0.07946901
23	0x3e0aea52	0.13565949
24	0xbdc10aaa	-0.09425862
25	0x3da56891	0.08076585
26	0x3e85ecfa	0.2615736
27	0xbdb5ce20	-0.08877206
28	0x3c6254a5	0.013814126
29	0x3e3bb2dc	0.18329948
30	0x3d28d3d3	0.041217636
31	0xbd3f00cb	-0.046631616
32	0xbdb71a31	-0.089405425
33	0x3d34075f	0.043952342
34	0xbe16921a	-0.14704171
35	0xbd5e5959	-0.054284427
36	0x3d437b71	0.047725145
37	0x3e12f191	0.14349963
38	0x3e2037e2	0.15646318
39	0xbdcbe023	-0.0995486
40	0xbcf79368	-0.030221656
41	0x3d430301	0.047610287
42	0x3d08ab6b	0.033366602
43	0xbb6d774f	-0.0036234444
44	0xbddf3fd0	-0.10900843
45	0xbd4095cf	-0.04701787
46	0xbd0f9a2b	-0.035059135
47	0xbc9098ad	-0.017650926
48	0x3d3244af	0.043522533
49	0xbd81d9ee	-0.06340395
50	0xbde30aa3	-0.11086013
51	0x3bb28daa	0.0054490166
52	0xbd926714	-0.07148567
53	0x3e3d759a	0.18501893
54	0xbdf86540	-0.12128687
55	0xbdb8ea8b	-0.090291105
56	0x3e260368	0.16212237
57	0x3d9079af	0.07054459
58	0x3eb21c0a	0.34787017
59	0x3e450051	0.19238402
60	0x3e190097	0.14941631
61	0x3e929277	0.2862737
62	0x3e098bac	0.13432187
63	0xbd98e543	-0.07465603
64	0xbd3df18c	-0.046372935
65	0xbc9e9d27	-0.019362045
66	0x3d000db1	0.031263057
67	0x3dee0955	0.11622874
68	0x3d755bb2	0.0599019
69	0xbe1f786c	-0.15573281
70	0x3cf5cf5e	0.030006107
71	0x3cf63506	0.03005458
72	0x3d58f37c	0.05296658
73	0xbc29d2ee	-0.010365231
74	0x3e082a5f	0.13297413
75	0xbe0d806d	-0.13818522
76	0x3ddec2d7	0.108770065
77	0x3e08e55f	0.13368748
78	0xbdeda467	-0.11603623
79	0xbe44ea23	-0.19229941
80	0x3dd9dbea	0.106376484
81	0xbdfbfaf3	-0.12303724
82	0x3d31afde	0.04338061
83	0xbd58d6e6	-0.052939318
84	0x3d098df8	0.033582658
85	0x3e348acf	0.17631076
86	0x3de7a8a8	0.113114655
87	0x3df5a362	0.119940534
88	0x3d989b8b	0.074515425
89	0xbe280765	-0.16409071
90	0x3d39f70d	0.04540162
91	0x3dd4691c	0.103716105
92	0x3dc2c506	0.095102355
93	0xbcf8be65	-0.030364225
94	0x3d92f364	0.07175329
95	0x3d225e9a	0.039641
96	0xbda381de	-0.079837546
97	0xbe275489	-0.16340841
98	0xbdc9ac79	-0.0984735
99	0xbe23a5a7	-0.1598116
100	0xbd2b2cb1	-0.041790668
101	0x3d3ffdd0	0.046872914
102	0xbdbf3dba	-0.09337945
103	0xbd928284	-0.071538
104	0xbd012032	-0.031524844
105	0x3e4635a7	0.19356404
106	0xbddfe686	-0.10932641
107	0x3e42e834	0.19033891
108	0x3e3575da	0.17720738
109	0x3e027f09	0.12743773
110	0x3e0a289a	0.13492051
111	0x3e093587	0.13399325
112	0xbe079f4b	-0.13244359
113	0x3e57ae3c	0.21062559
114	0xbe19e4aa	-0.15028635
115	0xbe34aba5	-0.17643602
116	0x3e122f62	0.14275888
117	0xbd6cdc65	-0.057827372
118	0x3dfdfa93	0.12401309
119	0xbd893b64	-0.06700781
120	0xbe016dd5	-0.12639554
121	0xbde3ae39	-0.11117215
122	0x3dde8a2d	0.10866199
123	0xbc83b6bd	-0.016078347
124	0xbdf63fc4	-0.12023881
125	0x3e092fbc	0.13397115
126	0x3deb1375	0.114783205
127	0xbd2bd033	-0.0419466

hidden2out.weight f4 [2, 32]
0	0x3e30271f	0.17202424
1	0xbdff9223	-0.12479045
2	0xbd0cd249	-0.03438023
3	0xbdadd302	-0.08487512
4	0xbe3cb1a8	-0.18427145
5	0x3df0316e	0.11728178
6	0xbd61b864	-0.05510749
7	0xbcb62cc4	-0.022238143
8	0xbe864297	-0.2622268
9	0x3df01049	0.11721856
10	0x3dc2558e	0.094889745
11	0xbe1c4d48	-0.15263855
12	0xbdaa7bff	-0.08324432
13	0xbddc2f12	-0.107511654
14	0xbc7ec546	-0.015549963
15	0xbe8c4ff3	-0.27404746
16	0x3e103c0b	0.14085405
17	0x3d9a055b	0.07520553
18	0x3b756b6a	0.0037448057
19	0x3d7ba57b	0.06143711
20	0xbe276b65	-0.16349562
21	0x3dac2a71	0.084065326
22	0xbcc4e9e0	-0.024037302
23	0x3da79f3d	0.08184669
24	0x3e7dbd38	0.24779212
25	0xbde1dbef	-0.11028277
26	0x3c657e41	0.014007152
27	0xbcfdeb54	-0.030996002
28	0x3e1bb059	0.1520399
29	0x3e256846	0.16153058
30	0x3a4292f3	0.000742241
31	0x3e245371	0.16047455
32	0x3df629b1	0.12019671
33	0xbcc9ffd1	-0.024658116
34	0x3e558459	0.20851268
35	0x3ef035f3	0.4691616
36	0x3d4f4d79	0.050610993
37	0xbe46e5d4	-0.1942361
38	0x3d43d709	0.047812495
39	0xbe1e47df	-0.15457104
40	0x3db0c095	0.08630482
41	0xbeef73c5	-0.46768013
42	0x3e9b3e27	0.30320856
43	0xbe147880	-0.14499092
44	0xbe1e006d	-0.1542985
45	0x3dac3434	0.084083945
46	0xbdfb4a6d	-0.12270055
47	0x3e4cf5c4	0.20015627
48	0x3d3e6fb6	0.046493255
49	0x3e7fdc2d	0.24986334
50	0xbeb0a0d2	-0.34497696
51	0x3e794c7d	0.24345584
52	0x3ee2ae24	0.44273484
53	0x3deda145	0.11603025
54	0xbd006f43	-0.031356107
55	0x3e82888a	0.25494796
56	0x3d81715b	0.06320449
57	0xbdb9cd05	-0.090723075
58	0xbe8fd6b9	-0.28093508
59	0x3dc7b1d9	0.097507186
60	0x3d971380	0.07376766
61	0xbe138e04	-0.14409643
62	0xbd96dad9	-0.07365961
63	0x3df71d33	0.12066116

hidden2out.bias f4 [2]
0	0x3e742b2e	0.23844597
1	0xbdd68861	-0.10475231

std_layer.weight f4 [2, 32]
0	0x3da0a1df	0.078433745
1	0xbdce2a87	-0.10066705
2	0x3c74f679	0.014951342
3	0xbd187413	-0.037220072
4	0x3d128b81	0.035777573
5	0x3dcbf921	0.09959627
6	0xbb92fb46	-0.0044855205
7	0x3e0a29c0	0.13492489
8	0xbd8c22e5	-0.06842593
9	0xbdce2577	-0.100657396
10	0x3e152383	0.14564328
11	0x3b91f769	0.0044545424
12	0xbd49f61f	-0.049306985
13	0x3d35fcd0	0.044430554
14	0x3d2d5dc1	0.04232574
15	0xbce33810	-0.027736694
16	0xbdbb766e	-0.09153448
17	0xbdb7d197	-0.08975523
18	0xbd061caa	-0.03274218
19	0x3ca5edb7	0.020254953
20	0xbe26d6e2	-0.16292909
21	0x3e0c4868	0.13699496
22	0xb94186bb	-0.00018456105
23	0xb9000228	-0.00012207835
24	0x3d26d786	0.040732883
25	0x3ce0dc31	0.027448745
26	0x3d2f4c3e	0.04279732
27	0xba00a1f6	-0.00049069466
28	0xbca6e8b2	-0.02037463
29	0xbdf11ae6	-0.117727086
30	0x3daaa54f	0.08332311
31	0x3e26a949	0.16275515
32	0x3debd256	0.11514728
33	0xbe296ac8	-0.1654464
34	0x3df456fc	0.119306535
35	0x3d6f478e	0.05841785
36	0xbe23c481	-0.15992929
37	0x3e2870ca	0.16449276
38	0x3e12eb48	0.14347565
39	0x3e21049a	0.15724412
40	0xbe1f42db	-0.15552847
41	0xbd556a3b	-0.052103262
42	0x3c5da4a2	0.013528021
43	0xbdc473a2	-0.09592368
44	0xbbd22ca3	-0.0064140125
45	0xbd0ad54f	-0.033894833
46	0x3d65d52f	0.05611151
47	0xbdeedd5e	-0.11663316
48	0xbc918021	-0.017761292
49	0x3e17799a	0.14792481
50	0x3deebc33	0.1165699
51	0x3d26d44c	0.040729806
52	0xbdc06c98	-0.093957126
53	0xbdd4d1bd	-0.10391567
54	0x3e201076	0.1563128
55	0x3ca1544b	0.019693514
56	0xbc501b8c	-0.01270188
57	0xbe1624b2	-0.14662436
58	0xbd720003	-0.059082042
59	0xbe2dbb0a	-0.16965881
60	0x3da40d8f	0.080103986
61	0x3c9e8169	0.019348817
62	0xbd0ee6cf	-0.034888085
63	0x3d6a7169	0.057237063

std_layer.bias f4 [2]
0	0x3cf6fc6d	0.030149663
1	0x3d1e4e63	0.038648974

exp_avg f4 [128, 10]
0	0x3a3ed6cc	0.0007279932
1	0x3a601fa3	0.0008549636
2	0xb9e242d0	-0.00043155858
3	0x39f46c24	0.00046619878
4	0x3905bf1c	0.00012755062
5	0xbad46355	-0.001620392
6	0xb8571e0f	-5.128799e-05
7	0xb9b55724	-0.00034587935
8	0x3b0330d7	0.0020018124
9	0xb9493b93	-0.00019191047
10	0xb70d27e4	-8.413543e-06
11	0xb8fdea09	-0.000121075725
12	0x391febce	0.00015251266
13	0x396a7f47	0.00022363394
14	0x384d00f5	4.88767e-05
15	0xb8e92acf	-0.000111182795
16	0x37801e7c	1.5272984e-05
17	0x391da4dd	0.00015034103
18	0xb8acac09	-8.233643e-05
19	0xb8485c67	-4.7769772e-05
20	0xb971bc27	-0.00023053643
21	0xb9ad8176	-0.00033093587
22	0x393489c0	0.00017217454
23	0x37628b1d	1.350304e-05
24	0xb72021e5	-9.544635e-06
25	0xb8fe0bfe	-0.000121138975
26	0x3783feb8	1.573503e-05
27	0x391f3604	0.00015183544
28	0xb93a79c9	-0.00017783711
29	0xb8560082	-5.102205e-05
30	0x3abdb04b	0.0014472095
31	0x3b06280d	0.002047065
32	0xb973c94f	-0.00023249279
33	0x3a800826	0.0009768053
34	0x38a64f6c	7.93029e-05
35	0xba8e4c40	-0.0010856465
36	0xb882d8db	-6.2392755e-05
37	0xb93c6725	-0.00017967501
38	0xba64b20f	-0.00087240426
39	0xb81a6471	-3.6810005e-05
40	0x3a37ee41	0.00070163986
41	0x3a8aa1c2	0.0010576772
42	0xb9daed18	-0.0004175685
43	0x393e2a61	0.000181356
44	0x379e5fde	1.887971e-05
45	0xba84242c	-0.0010081581
46	0xb7f614fd	-2.9335259e-05
47	0xb9d1f83b	-0.00040048533
48	0x38d76bc9	0.000102720755
49	0xb8ac91a7	-8.228729e-05
50	0x394921ba	0.00019181418
51	0xba1e2560	-0.0006032791
52	0xba0a57a5	-0.0005277342
53	0x3a21863c	0.0006161665
54	0x395b4b65	0.00020913554
55	0xbb106fad	-0.002203922
56	0xb8a14141	-7.689233e-05
57	0xb9dac81a	-0.00041729287
58	0x3b87d9ed	0.004145852
59	0xb9851606	-0.00025384146
60	0x3b3e9b04	0.0029084096
61	0x3bae3926	0.005316871
62	0xba8e6000	-0.001086235
63	0x39febc3c	0.000485869
64	0xb91fd3cf	-0.00015242326
65	0xbb0f3dab	-0.0021856825
66	0xb88c5d28	-6.693072e-05
67	0xba816bb4	-0.0009874017
68	0xbb81e35e	-0.003963872
69	0xb905fcba	-0.00012778016
70	0xba6ecaa7	-0.0009109177
71	0xbaa81921	-0.0012824872
72	0x3a1535ab	0.0005691896
73	0xb99b7e5a	-0.00029658043
74	0xb81ccf49	-3.7386348e-05
75	0x3a49e516	0.0007701678
76	0x385d7b28	5.2805204e-05
77	0x3a08fa05	0.0005225244
78	0xba8df01d	-0.0010829006
79	0xb7873194	-1.611634e-05
80	0x39d7f936	0.00041193672
81	0x3a68f80b	0.0008887059
82	0x36db7989	6.540857e-06
83	0x383a8967	4.447382e-05
84	0xb6c16221	-5.763272e-06
85	0x370f9d88	8.560142e-06
86	0xb4714726	-2.2470758e-07
87	0x37ce87ca	2.4620345e-05
88	0xba9878ed	-0.0011632718
89	0xb6d45cde	-6.3289035e-06
90	0xb9419fbf	-0.00018465424
91	0xba3db64c	-0.0007236942
92	0x3948fabe	0.00019166895
93	0x39b8fdd0	0.0003528432
94	0x383802aa	4.38715e-05
95	0xb9b372c5	-0.0003422705
96	0xb7431dc8	-1.162984e-05
97	0x39050489	0.00012685558
98	0x3b06a3bc	0.002054437
99	0xb8117906	-3.4683406e-05
100	0x3b477553	0.003043492
101	0x3b9e80e2	0.0048371414
102	0xbab1eaff	-0.0013574063
103	0x3a6836cd	0.00088582636
104	0x3882b104	6.231855e-05
105	0xbb44e93e	-0.003004625
106	0xb8bfb55f	-9.141373e-05
107	0xbaa51ac4	-0.0012596478
108	0x39bc6a19	0.00035937203
109	0xb9507e99	-0.00019883587
110	0x3b6befed	0.0036001161
111	0x3bca80b0	0.0061798915
112	0xbaa7849c	-0.001278061
113	0x3a6fff1b	0.000915514
114	0x37da2b6a	2.6007841e-05
115	0xbb1b0267	-0.0023652555
116	0xb8a344be	-7.78525e-05
117	0xba94098b	-0.0011294348
118	0xbb2e2227	-0.002657065
119	0xb9144ddc	-0.00014143385
120	0xbaf1cd31	-0.0018447993
121	0xbb543a51	-0.0032383392
122	0x3a59490f	0.00082887796
123	0x38049d56	3.1617783e-05
124	0xb9254841	-0.00015762543
125	0x3a0236c3	0.00049672666
126	0x3584609f	9.862887e-07
127	0x3a5298d7	0.0008033639
128	0x3ab0426f	0.0013447533
129	0x37b4659a	2.1504984e-05
130	0x3912e7b4	0.00014009961
131	0x3935e6e1	0.00017347514
132	0xb91ee1e3	-0.00015152204
133	0xb830587f	-4.204409e-05
134	0xb754102f	-1.2639953e-05
135	0x3905ea5a	0.00012771171
136	0xb6cd5852	-6.119758e-06
137	0xb90f5c2c	-0.0001367188
138	0x39c0df51	0.00036787477
139	0x37eaafd1	2.7976845e-05
140	0x3a139395	0.00056295964
141	0x3a2966f6	0.0006462181
142	0xb9b03029	-0.00033605218
143	0x39bd2c1c	0.00036081753
144	0xb8d1611e	-9.983986e-05
145	0xbac4fa7c	-0.0015028263
146	0xb83c1099	-4.483815e-05
147	0xb9b2286b	-0.0003398092
148	0x3ad7052c	0.001640474
149	0xb90a7d28	-0.0001320733
150	0x386095a2	5.3545118e-05
151	0x397d2154	0.00024140376
152	0x39104dc9	0.00013761887
153	0xb806159e	-3.1968222e-05
154	0xb70192c4	-7.723171e-06
155	0x39c6cf05	0.00037919744
156	0x37369552	1.0882812e-05
157	0x39142f9c	0.00014132116
158	0xba66276e	-0.0008779679
159	0x37ca8cbc	2.4145811e-05
160	0xb947566b	-0.00019010312
161	0xb9ab4be0	-0.00032672193
162	0x398f2a98	0.0002730682
163	0x3963517f	0.00021678767
164	0x3713dd25	8.813372e-06
165	0xb8c27891	-9.273098e-05
166	0x37981013	1.8127297e-05
167	0x3988506b	0.00025999857
168	0xb8c6d7e3	-9.481588e-05
169	0xb852c857	-5.0254483e-05
170	0x3b37b032	0.0028028605
171	0x3b89247c	0.0041852575
172	0xba79e61a	-0.0009532884
173	0x3aee5af1	0.0018185062
174	0x384478ae	4.6842433e-05
175	0xbba836b1	-0.005133473
176	0xb8924722	-6.975072e-05
177	0xba6a0e2f	-0.0008928505
178	0xbb3a85f9	-0.0028461202
179	0xba121809	-0.00055730395
180	0x3aba5f81	0.0014219136
181	0x3ad7d5a8	0.0016466873
182	0xb98ae552	-0.00026492268
183	0x3aa3ba09	0.0012491356
184	0x391dedf2	0.00015061328
185	0xbad4d497	-0.0016237673
186	0xb89473df	-7.0787726e-05
187	0xb963911f	-0.00021702469
188	0x3a3d6b71	0.0007225788
189	0xb9000b1c	-0.0001221117
190	0xba54fbf5	-0.0008124703
191	0xba80a201	-0.0009813906
192	0x3958d207	0.00020677607
193	0xba1efcdf	-0.00060649024
194	0xb98629e0	-0.0002558967
195	0x3a1ca50b	0.0005975521
196	0x379dfb5d	1.8832909e-05
197	0x395efd68	0.00021265971
198	0xbad0c48d	-0.0015927717
199	0x37cf1bca	2.4689263e-05
200	0xba903a2c	-0.0011003665
201	0xba45096b	-0.0007516357
202	0xb8878462	-6.46196e-05
203	0xbac75388	-0.0015207389
204	0xba20aa1f	-0.00061288656
205	0x3a502777	0.0007940451
206	0xb68927ae	-4.0875375e-06
207	0xb841f229	-4.6240315e-05
208	0xbb09c706	-0.0021023168
209	0x38eeada0	0.000113810645
210	0x3aacc85c	0.001318227
211	0x3b196539	0.002340628
212	0xb9661613	-0.00021942733
213	0x39faeba1	0.00047859273
214	0xb7b1ecbf	-2.1210288e-05
215	0xba8bde63	-0.0010671135
216	0xb6f7de9c	-7.3870888e-06
217	0xb9237725	-0.00015589276
218	0xba6a058b	-0.00089272176
219	0xb9167590	-0.0001434891
220	0xbab6ed69	-0.0013956252
221	0xbb8450d0	-0.004037954
222	0x3af964f3	0.0019027278
223	0x3b0ede0b	0.0021799828
224	0x3a135ebc	0.00056217215
225	0xb7365aaa	-1.0869155e-05
226	0x3924a67d	0.0001570228
227	0x3aee5afa	0.0018185072
228	0x3b5f2fa5	0.0034055498
229	0xb9c726da	-0.00037985184
230	0x3ae697a7	0.0017592803
231	0x3b08a85a	0.0020852298
232	0xba3d988b	-0.00072325085
233	0x3a8a20b5	0.0010538312
234	0x3923456e	0.00015570756
235	0xbae41541	-0.0017401354
236	0xb8612e93	-5.3687556e-05
237	0xba2a9828	-0.00065076584
238	0x3b164060	0.0022926554
239	0xb910877e	-0.00013783385
240	0x3915739f	0.0001425282
241	0xba53900e	-0.0008070477
242	0x3a7621e3	0.0009389205
243	0x3ae5df05	0.0017537778
244	0x39dd1bef	0.00042173217
245	0xba203bb1	-0.00061124103
246	0x38a16f03	7.697756e-05
247	0x3a701e93	0.00091598294
248	0x39ab1155	0.00032628575
249	0xb98e15e2	-0.00027100655
250	0x3b0f42e1	0.0021859931
251	0x3b7ff34c	0.0039054928
252	0xba317c1f	-0.00067705096
253	0x39f9a362	0.0004761471
254	0x37821fea	1.5512069e-05
255	0xbab279f5	-0.0013616668

exp_avg_sq f4 [128, 10]
0	0x392ef4e1	0.00016685158
1	0x39d7f6ab	0.00041191778
2	0x387cb985	6.025426e-05
3	0x373f04ee	1.1385635e-05
4	0x348cbab0	2.6212865e-07
5	0x389bbbe9	7.425977e-05
6	0x3393e057	6.886028e-08
7	0x38760e3a	5.866422e-05
8	0x392d5b80	0.00016532652
9	0x348e40cb	2.6496704e-07
10	0x33d8dba9	1.009824e-07
11	0x351a0a14	5.7384136e-07
12	0x3509dddf	5.135934e-07
13	0x3583b8ec	9.81408e-07
14	0x33479f86	4.6478384e-08
15	0x33fae535	1.1683225e-07
16	0x31bb4186	5.4498654e-09
17	0x3507d33a	5.0598794e-07
18	0x3292e5b6	1.7101097e-08
19	0x32d3a367	2.463794e-08
20	0x352e8b84	6.5023073e-07
21	0x35d9dfbf	1.6232879e-06
22	0x35093a71	5.112152e-07
23	0x33d94272	1.0116936e-07
24	0x2f81a412	2.3581542e-10
25	0x34b10bb0	3.2977323e-07
26	0x318cfaa9	4.103033e-09
27	0x3506beb4	5.01964e-07
28	0x351b03ce	5.7747536e-07
29	0x32e39e2c	2.6498206e-08
30	0x387ec843	6.0744827e-05
31	0x393f5fbe	0.00018250846
32	0x37b0025c	2.0981934e-05
33	0x36f72eb4	7.3666106e-06
34	0x3456b7db	1.999719e-07
35	0x3729b228	1.0114665e-05
36	0x3420df6f	1.4982446e-07
37	0x37ad3d31	2.0651702e-05
38	0x37b87667	2.1989645e-05
39	0x34c80102	3.7253636e-07
40	0x37a4dc5e	1.965294e-05
41	0x3856c62b	5.1206134e-05
42	0x36c4e348	5.867714e-06
43	0x35d27960	1.5681544e-06
44	0x328c32b8	1.632121e-08
45	0x37991946	1.825079e-05
46	0x3232bb50	1.0403554e-08
47	0x36c36c45	5.824057e-06
48	0x369665c7	4.482197e-06
49	0x33c2b71e	9.067138e-08
50	0x38e82e31	0.00011071226
51	0x39603340	0.00021381397
52	0x389f665e	7.600778e-05
53	0x377c3078	1.50316555e-05
54	0x353f774d	7.132665e-07
55	0x38eb2644	0.00011212801
56	0x341b1a7c	1.4445135e-07
57	0x389bdcfd	7.432138e-05
58	0x3a1a0962	0.0005876032
59	0x35003e3e	4.777429e-07
60	0x39a9d8d0	0.0003239573
61	0x3a8f2969	0.0010922375
62	0x3829abd3	4.0452764e-05
63	0x372bbd84	1.0236519e-05
64	0x336cba94	5.5117724e-08
65	0x38c44a60	9.359862e-05
66	0x331305c4	3.423135e-08
67	0x38263135	3.962331e-05
68	0x3982727b	0.00024880827
69	0x34a7ff42	3.1291898e-07
70	0x3778b197	1.48233e-05
71	0x37f7f3da	2.9558247e-05
72	0x3754ca1e	1.2683244e-05
73	0x34e13af4	4.195241e-07
74	0x329696e1	1.753091e-08
75	0x368839e2	4.0598543e-06
76	0x33a5e386	7.7247975e-08
77	0x375244e6	1.2533017e-05
78	0x37e0f188	2.6815353e-05
79	0x34c23fab	3.618164e-07
80	0x37dbbd50	2.619499e-05
81	0x38d049f4	9.931988e-05
82	0x35aa6afb	1.2697122e-06
83	0x354546a4	7.3491015e-07
84	0x2f8c892a	2.5563313e-10
85	0x35eb0bc9	1.7512294e-06
86	0x2f26ca25	1.5169428e-10
87	0x35a3c8b2	1.2202856e-06
88	0x38079173	3.232197e-05
89	0x3275ee5c	1.4315074e-08
90	0x3749a620	1.2019213e-05
91	0x380662da	3.2040152e-05
92	0x3776e8ae	1.4716918e-05
93	0x36f3eb8d	7.269386e-06
94	0x348ed5a4	2.6605005e-07
95	0x36180f51	2.265868e-06
96	0x33fa3ae2	1.1652243e-07
97	0x3774961c	1.4578483e-05
98	0x3881e53a	6.193896e-05
99	0x3536e6a3	6.8135904e-07
100	0x39a78e8b	0.00031958925
101	0x3a682409	0.00088554673
102	0x38a5b1ee	7.900955e-05
103	0x37898a83	1.6396172e-05
104	0x346c01d2	2.1979875e-07
105	0x390e847e	0.00013591532
106	0x342cfecc	1.6111443e-07
107	0x38a382aa	7.796784e-05
108	0x37af34a0	2.0886131e-05
109	0x34bda10d	3.5321173e-07
110	0x3a0ca28a	0.00053647964
111	0x3ad9c77c	0.0016615237
112	0x38bbb073	8.949721e-05
113	0x37ac6152	2.0549316e-05
114	0x343f698d	1.782666e-07
115	0x38e95e9d	0.00011127929
116	0x33eb7490	1.0964243e-07
117	0x38b7e2d3	8.768369e-05
118	0x38d78448	0.00010276638
119	0x345ba92e	2.0457512e-07
120	0x37d08173	2.4855812e-05
121	0x38b1c7c5	8.477228e-05
122	0x36a58f1c	4.9340433e-06
123	0x371517a5	8.886597e-06
124	0x34a9c6a0	3.1623222e-07
125	0x374f30c4	1.2349516e-05
126	0x33d313dc	9.8290656e-08
127	0x36a105cf	4.79885e-06
128	0x3801b636	3.0925694e-05
129	0x3549edb8	7.522426e-07
130	0x34119fa8	1.356226e-07
131	0x34b6b60b	3.4032595e-07
132	0x33b4c428	8.417584e-08
133	0x34171d1f	1.4073565e-07
134	0x315ecf70	3.2423166e-09
135	0x344e389c	1.920584e-07
136	0x3044fa7a	7.1660333e-10
137	0x33b3fff5	8.3818954e-08
138	0x35bdc586	1.4139084e-06
139	0x31c90440	5.850353e-09
140	0x38683050	5.5358105e-05
141	0x38fdeaab	0.000121076904
142	0x37f1b41b	2.8813307e-05
143	0x36e1480c	6.71391e-06
144	0x3442887a	1.8117308e-07
145	0x37ee25c4	2.8389397e-05
146	0x33cfe8f4	9.6815626e-08
147	0x37ee1c0e	2.8384875e-05
148	0x38d0f957	9.964656e-05
149	0x349a209f	2.870847e-07
150	0x37aa2c5c	2.0286236e-05
151	0x38a66cac	7.9357385e-05
152	0x356610b6	8.5705994e-07
153	0x34c67cf1	3.697128e-07
154	0x2fc33221	3.5505912e-10
155	0x3606a936	2.006605e-06
156	0x309fa594	1.1615833e-09
157	0x355ebc73	8.2975674e-07
158	0x380178d0	3.0868512e-05
159	0x321522d5	8.680861e-09
160	0x34c88bf4	3.7354732e-07
161	0x35a0f6ba	1.1992736e-06
162	0x352fab27	6.544164e-07
163	0x34e83c2d	4.325715e-07
164	0x326b6a09	1.370291e-08
165	0x348fee09	2.680902e-07
166	0x325203b9	1.2224455e-08
167	0x352e2952	6.488018e-07
168	0x33492be8	4.6838892e-08
169	0x337e91b3	5.9271496e-08
170	0x3a05781b	0.00050914445
171	0x3aae392a	0.0013292183
172	0x394061cc	0.00018346979
173	0x388a6241	6.598654e-05
174	0x34a71279	3.1119615e-07
175	0x39bbb3d6	0.00035801408
176	0x35366f65	6.7962384e-07
177	0x393d6b42	0.00018064401
178	0x381e006f	3.767054e-05
179	0x3667c3d8	3.4535678e-06
180	0x38b976cd	8.843616e-05
181	0x39572b52	0.00020520136
182	0x383df3b7	4.528809e-05
183	0x37fa5c42	2.9845283e-05
184	0x3589f8fa	1.0279757e-06
185	0x37c0dd6d	2.2991293e-05
186	0x34bd2f57	3.5238438e-07
187	0x383b3fe1	4.4643766e-05
188	0x377ce312	1.5073239e-05
189	0x35ac3086	1.2829121e-06
190	0x3798a50f	1.8196673e-05
191	0x380db8dc	3.3789183e-05
192	0x36e01e83	6.6792722e-06
193	0x36eb6337	7.015096e-06
194	0x35a6c876	1.2426306e-06
195	0x364d33b2	3.057747e-06
196	0x32f3b4c1	2.837112e-08
197	0x36de79e8	6.6303073e-06
198	0x380fdc39	3.4298955e-05
199	0x3418b4a1	1.4221816e-07
200	0x37b42baf	2.1478014e-05
201	0x379a051d	1.8360612e-05
202	0x375a362a	1.3006424e-05
203	0x38939f18	7.03914e-05
204	0x37298037	1.0103037e-05
205	0x36a84027	5.0142585e-06
206	0x33f1c88a	1.1258915e-07
207	0x375964c5	1.295767e-05
208	0x381966ca	3.6573772e-05
209	0x350b705d	5.1945045e-07
210	0x39254757	0.00015762202
211	0x39ff48db	0.00048691672
212	0x37c2c322	2.3217468e-05
213	0x371445f8	8.837778e-06
214	0x338fae17	6.690623e-08
215	0x37ec68b6	2.8182152e-05
216	0x32fceb25	2.9443592e-08
217	0x37bd13f4	2.2539847e-05
218	0x3710a4b5	8.621418e-06
219	0x345b41a0	2.0419839e-07
220	0x37871293	1.6101903e-05
221	0x396949aa	0.00022248054
222	0x38b2e224	8.5298234e-05
223	0x392025f3	0.00015272926
224	0x370f4a47	8.540758e-06
225	0x37ad1ae9	2.0635738e-05
226	0x35794b44	9.2869254e-07
227	0x38b1e388	8.482399e-05
228	0x399983ea	0.00029280718
229	0x36844d6c	3.9429196e-06
230	0x38d6f6b6	0.00010250269
231	0x39687666	0.00022169351
232	0x38255cc4	3.942546e-05
233	0x3810b1ce	3.449787e-05
234	0x35df4161	1.6633822e-06
235	0x38303ce2	4.201837e-05
236	0x3431a3e8	1.6544038e-07
237	0x38235180	3.893813e-05
238	0x38c1be68	9.238423e-05
239	0x3512cee1	5.4690287e-07
240	0x36c4b483	5.8622695e-06
241	0x37d84297	2.5780215e-05
242	0x37ff530d	3.0437042e-05
243	0x38aea623	8.327912e-05
244	0x36b8c366	5.5063747e-06
245	0x36fdc370	7.5627395e-06
246	0x34c3cd97	3.6471167e-07
247	0x37fd7d92	3.0218423e-05
248	0x36c278f4	5.7957313e-06
249	0x35d8c465	1.6150412e-06
250	0x392617c7	0.00015839851
251	0x3a0b5445	0.00053149863
252	0x3778cb0f	1.482923e-05
253	0x36d46c06	6.330668e-06
254	0x331580d9	3.4808952e-08
255	0x381819d7	3.626369e-05

exp_avg f4 [128, 32]
0	0xb9380e9a	-0.00017553047
1	0x384649ff	4.7275793e-05
2	0xb8d1e113	-0.0001000782
3	0xb8372f6c	-4.3674765e-05
4	0x393dad2c	0.00018088956
5	0x3984acad	0.00025305655
6	0xb9a5c848	-0.00031620474
7	0xb9580c95	-0.00020604052
8	0x38ded16d	0.000106247935
9	0xb8c89ee4	-9.566339e-05
10	0xb91ae3f9	-0.00014771511
11	0x38f70e7a	0.00011780574
12	0xb80eab77	-3.4015127e-05
13	0x38d2efed	0.0001005827
14	0x38efd828	0.0001143667
15	0x3a054512	0.00050838396
16	0x37338832	1.0700942e-05
17	0xb92f9dbd	-0.00016748063
18	0x3892a247	6.992049e-05
19	0x3825404a	3.939894e-05
20	0x37daf7cc	2.6103015e-05
21	0xb94d1be6	-0.00019560716
22	0xb80f2ade	-3.413378e-05
23	0xb928f21f	-0.00016111926
24	0x388cd533	6.715432e-05
25	0x3996c5b9	0.00028757544
26	0x3939db12	0.00017724585
27	0xb75e25e1	-1.32410505e-05
28	0x38de534d	0.00010601301
29	0xba05977a	-0.0005096119
30	0x3936f308	0.00017447409
31	0xb85226ba	-5.010397e-05
32	0x39011fdc	0.00012314267
33	0xb7ef9de5	-2.8564546e-05
34	0xb8eafa43	-0.000112046044
35	0x3819e4a0	3.6690966e-05
36	0xb890eca0	-6.91053e-05
37	0xb92378ee	-0.00015589941
38	0x38ca5f1b	9.6498254e-05
39	0x37eb2d00	2.8035138e-05
40	0xb89df617	-7.532181e-05
41	0xb8ea4bbb	-0.000111720954
42	0x38ba04c5	8.8700595e-05
43	0xb8bc251d	-8.9714515e-05
44	0xb83eb0fd	-4.5464363e-05
45	0x38a9445b	8.07128e-05
46	0xb8d2f108	-0.00010058476
47	0xb8d24046	-0.00010025552
48	0x38270d3a	3.982822e-05
49	0x38ee95d2	0.000113766306
50	0xb8ae8408	-8.321559e-05
51	0xb72b1e7d	-1.0199493e-05
52	0xb7444940	-1.1699565e-05
53	0x38fc0fa5	0.000120192104
54	0xb812d950	-3.50115e-05
55	0x38996398	7.314159e-05
56	0x38944211	7.069496e-05
57	0xb89548cc	-7.118433e-05
58	0xb92293b0	-0.00015504542
59	0x3882b302	6.232226e-05
60	0x38296b18	4.039248e-05
61	0x385d1261	5.2707623e-05
62	0xb8f04558	-0.00011457008
63	0x38f8c591	0.00011862361
64	0x391ae4ec	0.00014771865
65	0xb79ffa65	-1.9070876e-05
66	0xb89ee7ae	-7.577181e-05
67	0x377379b2	1.4512263e-05
68	0xb8bbb3ec	-8.950368e-05
69	0xb933e0fb	-0.00017154582
70	0x392be1d0	0.00016391953
71	0x38dcdb61	0.0001053128
72	0xb905ad44	-0.00012748415
73	0xb85c357c	-5.25019e-05
74	0x38ca439d	9.6447046e-05
75	0xb8fd4569	-0.00012076909
76	0xb738521c	-1.0986372e-05
77	0x38bac758	8.906302e-05
78	0xb8bd9fe1	-9.042002e-05
79	0xb963f08a	-0.00021738015
80	0x36b42df2	5.3697668e-06
81	0x38ed46c1	0.000113142196
82	0xb85493c1	-5.0682345e-05
83	0xb7dd6595	-2.6392556e-05
84	0xb7589c90	-1.2911056e-05
85	0x39294eae	0.00016146406
86	0xb812122c	-3.4826036e-05
87	0x38c1bc7f	9.238067e-05
88	0x385e6e68	5.303175e-05
89	0xb8f536cb	-0.00011692716
90	0xb921b446	-0.00015421314
91	0xb683ad5a	-3.924285e-06
92	0x37b9fe17	2.2172038e-05
93	0x39732b77	0.00023190478
94	0xb91ef7f2	-0.00015160421
95	0x3915f075	0.00014299325
96	0x395a4855	0.00020817046
97	0xb8dd46d2	-0.000105512925
98	0xb96d8b24	-0.00022653915
99	0x36fcc30b	7.5328912e-06
100	0x3905e098	0.00012767536
101	0xb9bf56c4	-0.00036495004
102	0xb9b26d51	-0.00034032253
103	0xb9b901c0	-0.00035287254
104	0x3989d548	0.00026289583
105	0xb9ebdf93	-0.0004498927
106	0xb7692785	-1.3897084e-05
107	0x39290a1a	0.00016120859
108	0xb9a4ab07	-0.00031407943
109	0x39693039	0.00022238576
110	0xb989d51d	-0.00026289458
111	0x3a643200	0.00087049603
112	0x39393bf5	0.0001766531
113	0x391c009f	0.0001487755
114	0xb94e06e3	-0.00019648256
115	0x388fc3da	6.8552516e-05
116	0x3665a775	3.4221132e-06
117	0xb88820fe	-6.4911306e-05
118	0xb99eca9c	-0.00030287064
119	0x37d8a810	2.5827467e-05
120	0x38f54372	0.00011695073
121	0x39b198a3	0.00033873794
122	0xb987b25c	-0.00025882095
123	0x39edfee1	0.00045394062
124	0x38d6cafa	0.000102421225
125	0xbaa14ee1	-0.0012306833
126	0x37c3cb0d	2.3340364e-05
127	0x37951a3f	1.7774406e-05
128	0xb921f0d7	-0.00015443876
129	0x3820abd2	3.8306993e-05
130	0x3813b229	3.5213456e-05
131	0xb86caefa	-5.6429744e-05
132	0x39448faf	0.00018745543
133	0x393250d8	0.0001700552
134	0xb9aacc7f	-0.00032577288
135	0xb96e0e8d	-0.0002270287
136	0x3943fe05	0.00018691279
137	0xb76fa0ce	-1.428295e-05
138	0xb92029c4	-0.00015274348
139	0x3945d2f2	0.00018865967
140	0xb82a4bdc	-4.0601808e-05
141	0x379a17b1	1.8369263e-05
142	0x38cfdd81	9.9117875e-05
143	0x3a107ee8	0.00055120746
144	0x3775cd25	1.4650902e-05
145	0xb944d87c	-0.00018772663
146	0x38afdade	8.3854175e-05
147	0x381021fc	3.4363926e-05
148	0x3766f085	1.3765069e-05
149	0xb9518b80	-0.00019983761
150	0xb88241f4	-6.211168e-05
151	0xb9037a9c	-0.00012538809
152	0xb7d23d26	-2.5062425e-05
153	0x399a5384	0.00029435393
154	0x39836917	0.00025064565
155	0x38351dfe	4.3181695e-05
156	0x381e0cf9	3.7682217e-05
157	0xba135500	-0.0005620271
158	0x3969ce6c	0.0002229751
159	0xb9265851	-0.00015863894
160	0xb9b20721	-0.00033956117
161	0x38d10712	9.9672136e-05
162	0xb8f34377	-0.00011599709
163	0x376a3946	1.3960822e-05
164	0x3920425e	0.00015283513
165	0x3a13c9ec	0.00056376937
166	0xb994a681	-0.00028352815
167	0xb960ad8a	-0.00021426953
168	0xb86d49b9	-5.6573863e-05
169	0xb81d219a	-3.746301e-05
170	0xb8d5a2d5	-0.00010186961
171	0x3736349d	1.0860295e-05
172	0x38fb82b4	0.00011992958
173	0x38dd4433	0.00010550804
174	0x396a3564	0.00022335869
175	0x3997fe1d	0.00028990294
176	0x37aab46c	2.0349595e-05
177	0xb9a04cf1	-0.00030574904
178	0x388eadc2	6.8034526e-05
179	0x3839b1a5	4.427288e-05
180	0x388804a8	6.485853e-05
181	0xb8f57b23	-0.000117054464
182	0x3919a269	0.0001465172
183	0xb97aa1f4	-0.0002390219
184	0x393c82a5	0.00017977746
185	0x38c81720	9.5410505e-05
186	0x3a2bb78f	0.00065504847
187	0xb93e7fc9	-0.00018167416
188	0x3945a263	0.00018847878
189	0xb90ef7b3	-0.0001363445
190	0x3915e5be	0.00014295333
191	0x371d8495	9.388798e-06
192	0xb6b1b7e5	-5.296419e-06
193	0x37566ff7	1.2781463e-05
194	0x38d57847	0.00010179035
195	0xb95bd517	-0.0002096485
196	0x3a038cbe	0.00050182256
197	0xb97fcdd6	-0.00024395375
198	0xba751edb	-0.0009350606
199	0xba31d064	-0.0006783067
200	0x3a3e8272	0.00072673627
201	0xb996ab2d	-0.00028737765
202	0xb9d14130	-0.00039912155
203	0x3a2c27b9	0.00065671984
204	0xb9cc980a	-0.0003902319
205	0x3930cc36	0.00016860742
206	0xb847887c	-4.757241e-05
207	0x3b01a0c5	0.0019779664
208	0x38c65fca	9.459218e-05
209	0xb9811a45	-0.0002462437
210	0x3926e5c7	0.00015916592
211	0x38f3df66	0.00011628754
212	0xb7b9ea18	-2.2162727e-05
213	0xba079096	-0.00051713863
214	0xba0d4a45	-0.000538979
215	0xb8f1def7	-0.00011533306
216	0xb94979e8	-0.00019214267
217	0x3a8d2722	0.0010769109
218	0x38c2dbce	9.291583e-05
219	0x39f533c2	0.00046768604
220	0xb79eb35d	-1.891859e-05
221	0xbb0dea20	-0.0021654442
222	0x3a14a1e8	0.0005669878
223	0xb9f3ccf1	-0.00046501265
224	0x39814d02	0.00024662173
225	0xb684c7fc	-3.957188e-06
226	0xb7e3b0e4	-2.714288e-05
227	0x385a02b1	5.1977757e-05
228	0xb98aa937	-0.00026447486
229	0xb986c543	-0.00025705443
230	0x3a082034	0.0005192787
231	0x399e9ae1	0.00030251502
232	0xb9b1a3d8	-0.00033882144
233	0x384dd83f	4.9077204e-05
234	0x39883b09	0.00025983926
235	0xb9a1db9f	-0.00030871943
236	0x386b6e0f	5.6130866e-05
237	0x38337ccd	4.2793155e-05
238	0xb8ce8afc	-9.848733e-05
239	0xba5c01c9	-0.00083926
240	0xb7de5a21	-2.6506432e-05
241	0x3985ed85	0.00025544703
242	0xb887be1d	-6.472713e-05
243	0xb8c99099	-9.61136e-05
244	0xb83f11e0	-4.5554596e-05
245	0x39bc5f6c	0.0003592925
246	0x385fb5f9	5.333682e-05
247	0x39734d8d	0.00023203176
248	0x37f039b3	2.8637098e-05
249	0xb9d1f2d7	-0.00040044516
250	0xb9889150	-0.00026048208
251	0xb8e77303	-0.00011036361
252	0xb813d2d1	-3.524387e-05
253	0x3a4d6ab3	0.0007836029
254	0xb9bf0ead	-0.00036441293
255	0x39839a63	0.00025101294
