models/car/policy_ego_kinematic_model_best_iter28.pth (torch, 77546 bytes, 20 tensors)

lstm.weight_ih_l0 f4 [128, 10]
0.1397115 -0.09544041 0.08636199 0.015872693 -0.7208411 0.036037166 0.0936929 0.081889644
0.0024591559 -0.16984302 0.15184587 0.048951592 0.07703618 -0.24533822 -0.5299152 0.039433047
-0.30807143 -0.096506044 0.51674294 0.13950083 -0.00869653 -0.060083956 0.057867333 0.112909034
0.65643466 -0.118736 0.43943864 0.17635344 -0.26655108 -0.014352781 0.21825315 0.2600108
0.2266253 0.2982011 0.85445815 -0.0035891256 0.4592202 -0.053626634 0.10399397 -0.29200628
0.18577304 -0.059417896 0.2653498 0.042209428 -0.032918416 0.05534801 0.15623137 0.08028279
-0.09353126 -0.22461547 -0.19092502 -0.09778555 0.21650912 -0.16372794 -0.3606537 0.08284371
0.15348865 -0.16092399 0.14369598 -0.08003313 -0.07965938 0.13573453 0.2261222 0.11491517
0.23895854 -0.07142115 0.15801375 0.050538022 -0.19516473 -0.31230283 0.32947457 -0.040612523
0.10959965 0.46555012 0.63976556 0.012391239 -0.054139566 0.11432897 -0.09413341 0.048195183
-0.12875134 -0.1445986 0.11318665 -0.041446283 0.60084695 -0.2687831 0.20932761 0.10126267
-0.12431012 -0.21884027 0.19655065 -0.13636124 0.21549076 0.29803115 0.6499182 -0.13310644
0.2600247 0.14812832 -0.11743286 -0.3761173 0.20271847 -0.017380465 0.25732225 0.23017696
0.77825886 -0.1735919 0.42988023 0.055291906 0.028060557 -0.16509579 0.07143185 0.12988923
0.31131658 -0.06225198 0.705844 0.0886137 0.24661775 0.1227487 -0.19910397 -0.3266462
0.03582915 0.05838172 0.18991797 0.13562489 0.6287125 -0.09547603 -0.19695018 -0.16054597
0.30966118 0.0057833674 -0.021458242 0.08560218 0.29008415 0.3356332 0.69761145 -0.10397977
0.28155217 0.09816689 -0.16870765 -0.5121029 -0.027577559 0.011243077 0.008402942 0.12507892
0.3777537 -0.08738947 0.18883853 0.08629398 0.1300648 -0.041655924 -0.101379424 0.10859807
0.052381482 -0.07011082 0.11837945 -0.25222304 0.050883297 -0.048015293 0.054991696 -0.28630862
0.18142459 0.1320093 0.12589003 0.15957944 -0.4751482 0.081445865 -0.06572738 -0.090555966
-0.018271038 -0.2127381 -0.063550934 0.04651981 0.17983177 0.13162914 0.96691465 0.15176448
0.3130381 0.06911816 -0.057982847 -0.024817577 0.17088062 0.046659563 0.05672233 0.23529679
0.78621984 0.1693297 0.09540423 -0.031155117 0.013832042 -0.39688712 0.17659307 0.03090337
-0.09791451 0.043237116 0.30080235 -0.23759525 -0.29005027 0.11937077 0.05786175 -0.07997253
0.22665475 0.16029532 0.14679791 0.009840396 0.39831612 0.022687433 -0.16808495 -0.11798728
0.083870165 -0.12469016 0.04837521 0.05934694 -0.013127243 0.17253424 0.91130507 0.04575223
0.3826952 -0.09958884 -0.14014478 -0.102719404 -0.20286362 0.13060999 -0.16954914 -0.243967
-0.26924357 -0.21151066 -0.11207355 0.17756127 0.16745344 0.21130951 0.021386981 -0.1092919
0.32402414 0.072356336 0.46940163 0.029453488 -0.014215137 0.16985773 0.046317063 -0.33893308
-0.123697 -0.030485282 0.1175052 -0.066273876 -0.38504848 0.0044783773 -0.38828972 -0.16722572
0.0056250505 0.14541003 0.17823142 -0.059132777 0.15506287 0.1422382 0.90048915 -0.13795651
00000000: 8810 0f3e 4376 c3bd 8ede b03d 7307 823c
00000010: 0b89 38bf b59b 133d 10e2 bf3d c2b5 a73d
00000020: ca29 213b 54eb 2dbe 7c7d 1b3e 7781 483d
00000030: 25c5 9d3d f139 7bbe 86a8 07bf 8c84 213d
00000040: 8abb 9dbe f6a4 c5bd 4449 043f 4ed9 0e3e
00000050: e47b 0ebc 981a 76bd 4c06 6d3d da3c e73d
00000060: 1a0c 283f dc2b f3bd 1afe e03e ff95 343e
00000070: 6279 88be ed27 6bbc c17d 5f3e 2320 853e
00000080: 7610 683e d1ad 983e c5bd 5a3f 8937 6bbb
00000090: e91e eb3e 9aa7 5bbd cafa d43d d981 95be
000000a0: 4a3b 3e3e 2e60 73bd eedb 873e cbe3 2c3d
000000b0: 76d5 06bd 98b4 623d 1efb 1f3e 4e6b a43d
000000c0: 518d bfbd 9901 66be d981 43be ca43 c8bd
000000d0: 91b4 5d3e 4ca8 27be 9aa7 b8be f7a9 a93d
000000e0: 212c 1d3e 42c9 24be 0a25 133e 69e8 a3bd
000000f0: 7524 a3bd fefd 0a3e 948c 673e a558 eb3d
00000100: 8cb1 743e 4045 92bd 5bce 213e f500 4f3d
00000110: 43d9 47be 28e6 9fbe e4b0 a83e 5159 26bd
00000120: c875 e03d 965c ee3e adc7 233f a004 4b3c
00000130: 73c1 5dbd 4f25 ea3d 04c9 c0bd 5068 453d
00000140: 64d7 03be a811 14be 67ce e73d 94c3 29bd
00000150: 1bd1 193f f09d 89be fa59 563e cd62 cf3d
00000160: 4e96 febd aa17 60be 9344 493e 48a2 0bbe
00000170: 9ca9 5c3e 8a97 983e 0a61 263f 0e4d 08be
00000180: f521 853e f3ae 173e a480 f0bd 7292 c0be
00000190: 6e95 4f3e 7a61 8ebc bebf 833e 82b3 6b3e
000001a0: f93b 473f 13c2 31be 4319 dc3e c479 623d
000001b0: 41df e53c df0e 29be dd4a 923d af01 053e
000001c0: e364 9f3e effb 7ebd 31b2 343f 197b b53d
000001d0: 5d89 7c3e ac63 fb3d e9e1 4bbe 2c3e a7be
000001e0: 96c1 123d ac21 6f3d db79 423e 40e1 0a3e
000001f0: 4df3 203f f088 c3bd 4fad 49be 2a66 24be
00000200: e98b 9e3e 6782 bd3b 32c9 afbc 3250 af3d
00000210: e985 943e 1dd8 ab3e aa96 323f 58f3 d4bd
00000220: 9b27 903e b90b c93d b3c1 2cbe 2d19 03bf
00000230: 55ea e1bc e234 383c 7eac 093c b014 003e
00000240: ef68 c13e 40f9 b2bd e35e 413e e6ba b03d
00000250: b52f 053e 679f 2abd 04a0 cfbd aa68 de3d
00000260: f78d 563d 4396 8fbd ed70 f23d 6123 81be
00000270: 016b 503d afab 44bd f93e 613d 0b97 92be
00000280: 5ec7 393e 722d 073e 51e9 003e cb68 233e
00000290: a046 f3be 17cd a63d 149c 86bd 6875 b9bd
000002a0: 25ad 95bc 04d8 59be fe26 82bd 8e8b 3e3d
000002b0: d225 383e cac9 063e b887 773f 2668 1b3e
000002c0: 8846 a03e d28d 8d3d 6c7f 6dbd 3b4e cbbc
000002d0: 54fb 2e3e 191e 3f3d ad55 683d a4f1 703e
000002e0: b445 493f c464 2d3e 4b63 c33d 0439 ffbc
000002f0: ca9f 623c ca34 cbbe d0d4 343e 1029 fd3c
00000300: 6787 c8bd 6719 313d c402 9a3e 2b4c 73be
00000310: 7881 94be aa78 f43d 7100 6d3d a3c8 a3bd
00000320: 2f18 683e 7524 243e 3152 163e 9d39 213c
00000330: 17f0 cb3e ffda b93c 761e 2cbe 51a3 f1bd
00000340: 1fc4 ab3d 8e5d ffbd 1625 463d c715 733d
00000350: a613 57bc d1ac 303e 4a4b 693f b166 3b3d
00000360: a0f0 c33e 3cf5 cbbd 1d82 0fbe 8d5e d2bd
00000370: 7bbb 4fbe a0be 053e 4a9e 2dbe 7cd2 79be
00000380: 4bda 89be 4096 58be d186 e5bd 9fd2 353e
00000390: ea78 2b3e 8561 583e c033 af3c 6fd4 dfbd
000003a0: 7ee6 a53e 8f2f 943d 6955 f03e 7148 f13c
000003b0: 9be6 68bc 2fef 2d3e f6b6 3d3d a388 adbe
000003c0: da54 fdbd 45bc f9bc 91a6 f03d 99ba 87bd
000003d0: 1325 c5be 5abf 923b e9cd c6be 383d 2bbe
000003e0: 5852 b83b 5ee6 143e 4c82 363e 3635 72bd
000003f0: cdc8 1e3e e4a6 113e 7586 663f 7944 0dbe

lstm.weight_hh_l0 f4 [128, 32]
0.07886176 -0.05884893 0.0038787108 0.02042361 0.07006281 -0.20445226 0.16330375 -0.01382956
-0.020632947 -0.034151513 0.15990673 -0.0036594346 0.013435072 0.009041916 -0.05145317 0.12377756
-0.13741215 0.13385698 0.0858169 -0.08931631 0.024673542 0.028316397 -0.10251371 0.11417941
0.067770146 0.045045897 -0.27033836 0.10444846 -0.05554035 0.11849154 -0.09961571 -0.103694715
-0.0048828195 0.12618314 0.050499205 0.00556364 0.053759582 0.06908496 -0.024014274 -0.21347484
-0.0681729 -0.018979808 -0.017496351 0.20445193 0.05026371 0.076574005 -0.11982486 -0.10525989
-0.05929606 -0.11621916 -0.06947611 0.09775777 -0.0003577681 0.08152464 -0.114912845 0.108734004
0.004871171 0.0096568 -0.23898207 -0.015890265 -0.16153392 0.08464511 -0.13822274 -0.072704695
-0.037310902 -0.1490418 -0.1443562 -0.029060692 0.0031188412 -0.068001054 0.10599511 -0.11745652
-0.12040538 -0.1145706 0.1835454 -0.043019846 -0.3480113 0.15862037 -0.009101925 0.020651689
0.21760608 0.21669087 -0.109254286 0.15179648 0.0667053 -0.02460662 -0.07446534 0.12978914
0.19647223 -0.029880239 -0.2585846 0.13062389 -0.045166116 -0.024621965 0.15368274 0.20157805
0.07451691 0.103450894 -0.045516744 0.0400571 0.14307995 -0.08470579 -0.110264145 -0.14190076
0.023810374 0.10058603 -0.21262185 0.22093478 0.055786554 -0.16915405 0.030105002 -0.050434336
0.15635239 -0.009169551 0.024586031 0.090904206 -0.6198552 -0.14358954 0.05026045 -0.09743422
-0.07262205 0.03628539 -0.16693038 -0.029316766 -0.15324502 -0.22285688 0.33875617 -0.15534842
-0.05839334 0.011866093 -0.024756009 0.085096456 -0.20193711 -0.3282968 -0.09951751 -0.11498414
-0.013769414 -0.027932959 0.122652605 -0.16275322 -0.0027376113 -0.04449599 -0.03402949 0.051329076
0.15377331 0.14164712 -0.048029236 0.08919953 -0.14953034 0.18362458 -0.081714295 -0.05932049
0.14580186 0.014649513 -0.023152547 0.10253848 0.17086032 -0.10343223 0.059431598 -0.09309817
0.22649147 -0.06743072 0.08014574 -0.0673848 -0.2419854 -0.019217905 -0.031053841 -0.0056926757
-0.14518936 -0.17980258 0.08233908 0.03435825 0.03679552 0.04448937 -0.1361996 -0.044533234
0.12946267 -0.051202476 -0.17311995 -0.14348826 0.12433992 0.056002278 -0.13560228 0.22737074
-0.08818645 -0.13348968 -0.10073982 0.047348805 -0.05335163 -0.12789053 -0.14982173 0.08597725
0.18495323 -0.05966741 -0.023045095 -0.17947538 0.0058255875 -0.23813468 -0.15410228 0.06153953
-0.08992393 0.21226153 0.1355373 -0.17575812 -0.015344464 -0.06052165 -0.10205026 -0.17234617
-0.011513076 0.13937104 0.067721896 -0.015318441 -0.24802066 0.09104404 0.02579054 -0.05107229
0.030101938 -0.15174529 -0.21029027 -0.084295206 -0.063735545 -0.062214572 -0.042747363 -0.12437126
0.09622124 -0.037476305 -0.16185354 0.23051053 0.08955117 -0.071606845 -0.046300903 -0.09466116
-0.16331498 0.07133282 0.1978861 -0.065365456 -0.122731715 0.2234669 -0.07865231 -0.081578024
0.25338233 0.09876345 -0.16297692 -0.006061127 -0.10426931 0.15938783 -0.13431273 0.13672677
0.23989303 -0.08409825 -0.14468955 0.1455452 0.12390281 -0.1613317 -0.026369166 0.10743542
00000000: 4682 a13d 930b 71bd f831 7e3b 6a4f a73c
00000010: 177d 8f3d ef5b 51be 1939 273e 6195 62bc
00000020: 6d06 a9bc 75e2 0bbd 97be 233e 20d3 6fbb
00000030: c71e 5c3c 8b24 143c 8fc0 52bd 177f fd3d
00000040: c5b5 0cbe ce11 093e c5c0 af3d 78eb b6bd
00000050: 2b20 ca3c caf7 e73c b5f2 d1bd e5d6 e93d
00000060: 13cb 8a3d 0c82 383d ca69 8abe 13e9 d53d
00000070: 477e 63bd b1ab f23d 5203 ccbd e55d d4bd
00000080: 0f00 a0bb 2736 013e 41d8 4e3d 324f b63b
00000090: 0233 5c3d 6a7c 8d3d 95b9 c4bc 2699 5abe
000000a0: 3c9e 8bbd 8b7b 9bbc 8254 8fbc d95b 513e
000000b0: 52e1 4d3d d5d2 9c3d bc66 f5bd 7f92 d7bd
000000c0: 6de0 72bd 5004 eebd 7e49 8ebd 3a35 c83d
000000d0: d292 bbb9 64f6 a63d 6d57 ebbd efaf de3d
000000e0: 589e 9f3b 8e37 1e3c b7b7 74be 4d2c 82bc
000000f0: 2669 25be 6a5a ad3d 438a 0dbe 33e6 94bd
00000100: 51d3 18bd 6a9e 18be 1dd2 13be b010 eebc
00000110: 7965 4c3b 2344 8bbd f713 d93d 0b8d f0bd
00000120: 1997 f6bd fea3 eabd 53f3 3b3e 9435 30bd
00000130: 8a2e b2be 616d 223e 3e20 15bc bb2d a93c
00000140: 21d4 5e3e 36e4 5d3e b6c0 dfbd 8970 1b3e
00000150: ca9c 883d d393 c9bc 4981 98bd 72e7 043e
00000160: 0430 493e 67c7 f4bc 3365 84be 45c2 053e
00000170: 1b00 39bd 01b4 c9bc 025f 1d3e 7a6a 4e3e
00000180: 529c 983d 10de d33d c46f 3abd ea12 243d
00000190: 8d83 123e 3b7a adbd 2bd2 e1bd 6f4e 11be
000001a0: f90d c33c 0c00 ce3d 8bb9 59be ba3c 623e
000001b0: 7180 643d b836 2dbe c49e f63c 3c94 4ebd
000001c0: d71a 203e e23b 16bc a568 c93c fc2b ba3d
000001d0: d5ae 1ebf 2309 13be e7dd 4d3d 988b c7bd
000001e0: dfba 94bd fd9f 143d ccef 2abe b729 f0bc
000001f0: 43ec 1cbe 9834 64be 7371 ad3e a813 1fbe
00000200: db2d 6fbd 006a 423c 1dcd cabc 0d47 ae3d
00000210: 9ac8 4ebe 8516 a8be d6cf cbbd ce7c ebbd
00000220: 1c99 61bc a9d3 e4bc 4a31 fb3d c8a8 26be
00000230: 7f69 33bb 6d41 36bd 8262 0bbd 703e 523d
00000240: c076 1d3e f10b 113e 4eba 44bd 3eae b63d
00000250: 7b1e 19be 1508 3c3e d359 a7bd 0bfa 72bd
00000260: 154d 153e 8304 703c 69aa bdbc b2ff d13d
00000270: 02f6 2e3e 47d4 d3bd 8c6e 733d 41aa bebd
00000280: 61ed 673e 1e19 8abd 7323 a43d 0b01 8abd
00000290: 05cb 77be de6e 9dbc a064 febc a089 babb
000002a0: 85ac 14be 2b1e 38be 64a1 a83d 3dbb 0c3d
000002b0: e6b6 163d 7c3a 363d e877 0bbe 7b68 36bd
000002c0: dd91 043e b0b9 51bd 5b46 31be 96ee 12be
000002d0: eea5 fe3d a562 653d 53db 0abe e0d3 683e
000002e0: 199b b4bd 85b1 08be ae50 cebd d2f0 413d
000002f0: 3d87 5abd bcf5 02be de6a 19be d714 b03d
00000300: 6164 3d3e d065 74bd 11c9 bcbc 65c8 37be
00000310: 92e4 be3b 94d9 73be fdcc 1dbe e010 7c3d
00000320: 0a2a b8bd 165b 593e 4aca 0a3e f0f9 33be
00000330: 5967 7bbc 8de5 77bd baff d0bd 847b 30be
00000340: 57a1 3cbc 48b7 0e3e c7b1 8a3d 33fa 7abc
00000350: 21f9 7dbe 4c75 ba3d af46 d33c 2d31 51bd
00000360: 5798 f63c 1e63 1bbe 5556 57be f7a2 acbd
00000370: c887 82bd b5d4 7ebd dc17 2fbd 5cb6 febd
00000380: a40f c53d c180 19bd efbc 25be f40a 6c3e
00000390: 9b66 b73d 9ca6 92bd 04a6 3dbd b6dd c1bd
000003a0: 0b3c 27be f116 923d a7a2 4a3e 53de 85bd
000003b0: c45a fbbd 82d4 643e 7614 a1bd 6112 a7bd
000003c0: 54bb 813e 7e44 ca3d 6ce3 26be 6b9c c6bb
000003d0: 268b d5bd 9036 233e 4789 09be 1a02 0c3e
000003e0: 85a6 753e b43b acbd 7f29 14be cd09 153e
000003f0: c2c0 fd3d 2334 25be 2604 d8bc 1a07 dc3d

lstm.bias_ih_l0 f4 [128]
0.06427283 0.091278486 -0.032998335 -0.06733045 0.13774987 0.0010849935 -0.05005012 0.16877845
0.087012865 -0.016766442 0.12781852 0.15322848 0.12639205 -0.10773723 -0.0903098 0.15374535
0.07646839 -0.1081033 0.17476277 0.023420371 -0.021763593 -0.051042385 -0.023150934 0.105500184
0.005224553 0.14309257 0.016438292 -0.06976477 -0.12022745 0.16399321 0.059634652 0.10706593
-0.04610462 -0.0652012 0.12012554 -0.0838894 0.14325315 0.16612792 0.123932734 0.16393596
0.15506274 -0.082455456 -0.016394205 0.17163333 -0.079827376 0.024380412 -0.055588838 0.078807145
-0.11089416 0.022594187 0.06764625 0.12300237 0.005784599 -0.015548002 0.13900186 -0.05135489
0.033874135 0.03906013 0.21763209 0.15079938 0.0016743031 0.17310339 0.10994255 0.062437974
-0.029296577 0.040863823 -0.047369532 -0.011258456 -0.0845118 0.08845346 0.15295357 -0.038816687
-0.17882645 0.21101351 -0.11241023 0.10604224 0.09367961 -0.101837896 0.039950293 -0.1318545
0.12559597 -0.11265146 0.078821816 -0.048233353 0.083519034 0.09228697 0.11902805 -0.12139446
0.0143005205 -0.16130458 0.10548937 -0.11913562 0.051600363 0.1666163 -0.11439542 0.09162348
-0.041355304 0.011734898 -0.039477687 -0.03227471 0.036388423 0.18525726 0.0445723 0.016144963
-0.027072681 -0.07532844 -0.05523921 -0.04398252 0.055464555 -0.02615083 0.056030814 0.07306269
-0.23244956 0.10940573 0.0989903 0.0745824 0.11788361 -0.16962771 0.05794103 0.17135446
-0.10648293 0.10437064 0.20331232 0.020285277 -0.23782982 0.23824479 0.16907683 0.013322071
00000000: 79a1 833d 37f0 ba3d 4329 07bd 8ce4 89bd
00000010: 4d0e 0d3e 5736 8e3a 5b01 4dbd 42d4 2c3e
00000020: cd33 b23d c759 89bc dce2 023e ede7 1c3e
00000030: eb6c 013e 56a5 dcbd 58f4 b8bd 6c6f 1d3e
00000040: 769b 9c3d 4365 ddbd 03f5 323e 14dc bf3c
00000050: 9049 b2bc d211 51bd 07a7 bdbc 7b10 d83d
00000060: ba32 ab3b dc86 123e 99a9 863c d5e0 8ebd
00000070: cf39 f6bd d6ed 273e 7743 743d 6245 db3d
00000080: 33d8 3cbd 3588 85bd 6104 f63d 35ce abbd
00000090: f4b0 123e 701d 2a3e 72d0 fd3d d4de 273e
000000a0: c4c8 1e3e 68de a8bd 244d 86bc a6c0 2f3e
000000b0: 897c a3bd 6eb9 c73c 1fb1 63bd a465 a13d
000000c0: 7a1c e3bd 7217 b93c 1e8a 8a3d abe8 fb3d
000000d0: bc8c bd3b 0cbd 7ebc 8156 0e3e 8159 52bd
000000e0: 9bbf 0a3d 84fd 1f3d f2da 5e3e 276b 1a3e
000000f0: 4a74 db3a 0442 313e 8f29 e13d f6be 7f3d
00000100: 60ff efbc d360 273d 8e06 42bd 6375 38bc
00000110: 8614 adbd 1627 b53d dc9f 1c3e 3ffe 1ebd
00000120: 481e 37be ed13 583e 5637 e6bd ad2c d93d
00000130: 18db bf3d 6390 d0bd eba2 233d de04 07be
00000140: 3b9c 003e cfb5 e6bd 556d a13d 5690 45bd
00000150: 070c ab3d f300 bd3d fac4 f33d a99d f8bd
00000160: bb4c 6a3c 072d 25be d00a d83d 60fd f3bd
00000170: e75a 533d 779d 2a3e 2548 eabd 17a5 bb3d
00000180: 2e64 29bd bb43 403c 5bb3 21bd 7c32 04bd
00000190: 070c 153d 14b4 3d3e 7291 363d 7142 843c
000001a0: 87c7 ddbc cc45 9abd 8342 62bd 0427 34bd
000001b0: cd2e 633d 443a d6bc 9180 653d e4a1 953d
000001c0: 4207 6ebe 1d10 e03d 6dbb ca3d a8be 983d
000001d0: f66c f13d e3b2 2dbe 9353 6d3d 8b77 2f3e
000001e0: b913 dabd 46c0 d53d 1b31 503e 4f2d a63c
000001f0: a989 73be 71f6 733e 7a22 2d3e d144 5a3c

lstm.bias_hh_l0 f4 [128]
0.082259886 0.07241923 -0.17546703 -0.21469091 0.05550165 -0.008880503 -0.101158366 -0.15955949
-0.09704357 0.14311026 -0.03512245 -0.14620934 -0.032976903 -0.033046205 -0.18852028 0.14635426
0.121298365 0.16241345 -0.13142683 -0.17343603 -0.21285339 0.14908446 -0.0838155 0.12941957
-0.09721023 0.07237481 0.2508102 -0.093580745 -0.022107923 0.17894515 0.03862286 -0.05352736
-0.08418497 0.0030633346 -0.10864896 -0.064058825 0.045493945 0.15057456 0.16103475 -0.078637764
-0.02994151 0.051397543 0.034114793 -0.0032402754 -0.11854931 -0.029667031 -0.03227285 -0.021402784
-0.023223313 -0.05351316 -0.115251586 -0.00731535 -0.08509478 0.19086038 -0.12130035 -0.091039404
0.15292129 0.06805782 0.33497953 0.20337512 0.13030891 0.32135263 0.13834438 -0.06993046
-0.048770856 -0.015648032 0.04213082 0.111104764 0.073979735 -0.15531072 0.026051536 0.028879922
0.059315633 -0.010128193 0.12706071 -0.1358888 0.109419614 0.11918942 -0.107986264 -0.17641822
0.09400425 -0.12620676 0.048158206 -0.050159052 0.037088253 0.17405964 0.11041947 0.11218903
0.051235363 -0.16202058 0.048365716 0.10133445 0.09219713 -0.02983491 0.07245817 0.031701084
-0.07931781 -0.2114149 -0.07860219 -0.17760766 -0.0404821 0.049542073 -0.095290326 -0.06183495
-0.054106046 0.18059029 -0.1167429 0.18457045 0.16192235 0.13760762 0.13589692 0.14467698
-0.14598021 0.21100324 -0.16642267 -0.18796118 0.11603001 -0.0658073 0.12243576 -0.07056723
-0.13622427 -0.12019469 0.106666684 -0.019893946 -0.13392004 0.19158746 0.11456259 -0.043294746
00000000: df77 a83d 8950 943d a1ad 33be efd7 5bbe
00000010: b355 633d 877f 11bc 1e2c cfbd 9063 23be
00000020: c7be c6bd 7f8b 123e 8fdc 0fbd e7b7 15be
00000030: ca12 07bd 755b 07bd 760b 41be e4dd 153e
00000040: 476b f83d b64f 263e c194 06be 3799 31be
00000050: 3df6 59be 99a9 183e 76a7 abbd 9086 043e
00000060: 2816 c7bd 3f39 943d 326a 803e 43a7 bfbd
00000070: ad1b b5bc 663d 373e 0133 1e3d 813f 5bbd
00000080: 2b69 acbd 3ac2 483b 5983 debd 4631 83bd
00000090: dc57 3a3d 3830 1a3e 4be6 243e d60c a1bd
000000a0: e647 f5bc 3b86 523d f4bb 0b3d cd5a 54bb
000000b0: fbc9 f2bd 4608 f3bc 8930 04bd e454 afbc
000000c0: d13e bebc 9e30 5bbd 0609 ecbd 9bb5 efbb
000000d0: 2c46 aebd e770 433e 516c f8bd de72 babd
000000e0: 6697 1c3e e661 8b3d 7082 ab3e 9141 503e
000000f0: b36f 053e 5588 a43e 26aa 0d3e b337 8fbd
00000100: f3c3 47bd 4d30 80bc 5e91 2c3d e58a e33d
00000110: b082 973d c609 1fbe 086a d53c 9695 ec3c
00000120: f3f4 723d b8f0 25bc 341c 023e 6f26 0bbe
00000130: 6417 e03d 9519 f43d e727 ddbd faa6 34be
00000140: 4d85 c03d 583c 01be 8a41 453d 9473 4dbd
00000150: dae9 173d b13c 323e 9a23 e23d 5dc3 e53d
00000160: 2cdc 513d b9e8 25be 211b 463d 7088 cf3d
00000170: d9d1 bc3d 5768 f4bc f364 943d ffd8 013d
00000180: 6071 a2bd 267d 58be 2ffa a0bd c8de 35be
00000190: 8fd0 25bd a1ec 4a3d 9327 c3bd a546 7dbd
000001a0: 4d9e 5dbd a9ec 383e e716 efbd 0900 3d3e
000001b0: f9ce 253e 03e9 0c3e 9028 0b3e 3426 143e
000001c0: d67b 15be 3c11 583e b46a 2abe e578 40be
000001d0: 24a1 ed3d fac5 86bd 9abf fa3d 8d85 90bd
000001e0: 607e 0bbe a228 f6bd 1074 da3d a1f8 a2bc
000001f0: 5622 09be 812f 443e cb9f ea3d d555 31bd

hidden2out.weight f4 [2, 32]
0.17202424 -0.12479045 -0.03438023 -0.08487512 -0.18427145 0.11728178 -0.05510749 -0.022238143
-0.2622268 0.11721856 0.094889745 -0.15263855 -0.08324432 -0.107511654 -0.015549963 -0.27404746
0.14085405 0.07520553 0.0037448057 0.06143711 -0.16349562 0.084065326 -0.024037302 0.08184669
0.24779212 -0.11028277 0.014007152 -0.030996002 0.1520399 0.16153058 0.000742241 0.16047455
0.111563936 -0.012561218 0.2803943 0.61592036 0.08447333 -0.19013381 0.055340756 -0.17537613
0.11897663 -0.51693755 0.33742547 -0.16452943 -0.27242756 0.08330478 -0.116080254 0.21493454
0.07675773 0.27490357 -0.41129902 0.4699478 0.6752088 0.13236097 -0.0040339227 0.29319134
0.0535747 -0.1004316 -0.27323157 0.08419062 0.067621715 -0.15449934 -0.08528466 0.13419113
00000000: 1f27 303e 2392 ffbd 49d2 0cbd 02d3 adbd
00000010: a8b1 3cbe 6e31 f03d 64b8 61bd c42c b6bc
00000020: 9742 86be 4910 f03d 8e55 c23d 484d 1cbe
00000030: ff7b aabd 122f dcbd 46c5 7ebc f34f 8cbe
00000040: 0b3c 103e 5b05 9a3d 6a6b 753b 7ba5 7b3d
00000050: 656b 27be 712a ac3d e0e9 c4bc 3d9f a73d
00000060: 38bd 7d3e efdb e1bd 417e 653c 54eb fdbc
00000070: 59b0 1b3e 4668 253e f392 423a 7153 243e
00000080: a27b e43d 91cd 4dbc d78f 8f3e f5ac 1d3f
00000090: 5a00 ad3d 70b2 42be fdac 623d cd95 33be
000000a0: 05aa f33d 0556 04bf 08c3 ac3e 677a 28be
000000b0: a07b 8bbe b29b aa3d 7cbb edbd cd17 5c3e
000000c0: 2833 9d3d 29c0 8c3e c995 d2be ff9c f03e
000000d0: 7cda 2c3f a289 073e ff2e 84bb 2d1d 963e
000000e0: 2571 5b3d 15af cdbd 02e5 8bbe 226c ac3d
000000f0: 417d 8a3d 1335 1ebe b9a9 aebd 6669 093e

hidden2out.bias f4 [2]
0.23844597 -0.11448115
00000000: 2e2b 743e 1875 eabd

std_layer.weight f4 [2, 32]
0.078433745 -0.10066705 0.014951342 -0.037220072 0.035777573 0.09959627 -0.0044855205 0.13492489
-0.06842593 -0.100657396 0.14564328 0.0044545424 -0.049306985 0.044430554 0.04232574 -0.027736694
-0.09153448 -0.08975523 -0.03274218 0.020254953 -0.16292909 0.13699496 -0.00018456105 -0.00012207835
0.040732883 0.027448745 0.04279732 -0.00049069466 -0.02037463 -0.117727086 0.08332311 0.16275515
0.11514728 -0.1654464 0.119306535 0.05841785 -0.15992929 0.16449276 0.14347565 0.15724412
-0.15552847 -0.052103262 0.013528021 -0.09592368 -0.0064140125 -0.033894833 0.05611151 -0.11663316
-0.017761292 0.14792481 0.1165699 0.040729806 -0.093957126 -0.10391567 0.1563128 0.019693514
-0.01270188 -0.14662436 -0.059082042 -0.16965881 0.080103986 0.019348817 -0.034888085 0.057237063
00000000: dfa1 a03d 872a cebd 79f6 743c 1374 18bd
00000010: 818b 123d 21f9 cb3d 46fb 92bb c029 0a3e
00000020: e522 8cbd 7725 cebd 8323 153e 69f7 913b
00000030: 1ff6 49bd d0fc 353d c15d 2d3d 1038 e3bc
00000040: 6e76 bbbd 97d1 b7bd aa1c 06bd b7ed a53c
00000050: e2d6 26be 6848 0c3e bb86 41b9 2802 00b9
00000060: 86d7 263d 31dc e03c 3e4c 2f3d f6a1 00ba
00000070: b2e8 a6bc e61a f1bd 4fa5 aa3d 49a9 263e
00000080: 56d2 eb3d c86a 29be fc56 f43d 8e47 6f3d
00000090: 81c4 23be ca70 283e 48eb 123e 9a04 213e
000000a0: db42 1fbe 3b6a 55bd a2a4 5d3c a273 c4bd
000000b0: a32c d2bb 4fd5 0abd 2fd5 653d 5edd eebd
000000c0: 2180 91bc 9a79 173e 33bc ee3d 4cd4 263d
000000d0: 986c c0bd bdd1 d4bd 7610 203e 4b54 a13c
000000e0: 8c1b 50bc b224 16be 0300 72bd 0abb 2dbe
000000f0: 8f0d a43d 6981 9e3c cfe6 0ebd 6971 6a3d

std_layer.bias f4 [2]
0.030149663 0.038648974
00000000: 6dfc f63c 634e 1e3d

exp_avg f4 [128, 10]
0.0010017257 0.0013359514 -0.00093605166 2.0962909e-05 2.014633e-05 -0.0015029333 -8.182677e-05 -0.00085784367
0.0034260661 -3.564357e-05 1.8318584e-05 6.448212e-05 -3.989933e-05 -3.9756833e-05 -1.1860691e-05 -5.6696726e-06
-2.5628478e-06 -3.7527225e-05 -5.1987277e-05 2.8333536e-06 -0.00012152696 -0.00019409317 0.00013792049 7.471679e-05
-6.064527e-07 -0.00017461984 3.5037316e-05 0.00013595956 0.0003214073 -6.1599e-05 0.00068896613 0.0018496754
-0.0011070349 -0.00087816553 -0.00031808708 -0.00037412668 -0.000114893395 -0.0010641029 -0.00024675223 0.00016141814
0.00037156715 0.00055654265 -0.00024928793 6.464894e-05 8.599101e-06 -0.00049074396 -1.66901e-05 -0.00024716705
0.00058342493 -1.8696548e-05 0.0011782389 0.0012772063 -0.001342408 9.416021e-05 4.740972e-05 -0.0025804478
-0.00012466377 -0.0012575422 0.0058438857 -8.836648e-05 0.0021713395 0.0038478745 -0.0008413905 0.00044130895
2.3091818e-05 -0.0018160553 -5.3227206e-05 -0.0007993591 -0.0028732112 -7.839702e-05 -0.00022881023 -0.0001373514
0.00040227582 0.0001248095 -2.468539e-05 -0.00015474245 6.222319e-05 0.00037898408 -0.0012078824 -0.00014787648
0.00029409333 0.00062007067 6.082995e-06 4.9278697e-05 -1.8142026e-06 -1.4571348e-05 3.0361518e-06 1.3324929e-05
-0.00063971506 -1.2581324e-05 0.0015354742 0.0025375986 -0.0014086731 -0.0003311788 -6.2391526e-05 -0.00080640905
-0.00013880401 -0.0013748031 0.0025071418 0.00019189656 0.002242849 0.003669509 -0.0015962627 3.403493e-05
-2.62241e-05 -0.0021492494 -0.00012691527 -0.0015438825 0.0018801981 3.3534347e-05 0.0026173308 0.0046082195
-0.0014991643 7.559495e-05 -5.5343746e-05 -0.0018648142 -0.000115715 -0.0014206612 -0.0008854612 4.6602923e-05
-0.00069910934 -0.00084926456 -0.00026203913 -0.0007758658 -0.00019545874 0.0008715778 -4.883101e-05 -0.00023757076
0.00094397314 0.00018017473 -9.5391224e-05 -0.00014975997 5.0581646e-05 -2.6365551e-05 -5.5936757e-06 9.4862386e-05
1.0832156e-06 4.7466605e-05 -3.3737695e-05 4.3107166e-06 0.0012032504 0.0018475173 -0.0010955206 -0.00017121936
-8.46837e-05 -0.00091696676 -0.0001077453 -0.0010569271 0.0022387633 0.00011719013 0.00057879824 0.0012680107
1.6927319e-05 7.916326e-05 -7.873036e-06 6.377903e-05 5.7599314e-06 2.4368952e-05 -0.001972598 -8.308582e-06
-2.902039e-05 5.4880948e-05 -6.0561197e-05 -0.000108637985 -3.2795804e-05 3.0369793e-05 -7.121112e-06 -6.20828e-05
-4.1697704e-06 1.9017089e-05 0.0036831703 0.006231247 -0.0028785146 -0.00013469454 -3.833625e-05 -0.0032581696
-0.00026213215 -0.0027860524 0.0004175098 0.0001722036 0.001157413 0.002412759 -0.001615415 -0.0009758585
-0.00025769076 -0.00029197615 -0.00018246504 -0.0015609049 0.0008646875 0.00029563994 -0.00026848316 -0.0005284393
0.0004606536 0.00032506997 8.654562e-05 3.0146006e-05 4.788115e-05 0.0004535507 -0.0011103057 -9.298428e-05
-4.5400702e-05 -0.00061899464 0.0005658383 0.0007994232 0.00029668218 -4.703804e-05 4.5640674e-05 0.0005638381
-0.00041866628 -6.597691e-05 0.0011619064 0.0020420772 -0.00071223173 -3.6681504e-05 -1.8021477e-05 -0.000833495
-6.276293e-05 -0.0006624199 0.0002740005 2.2956832e-05 -8.248345e-05 0.00065931363 -0.0013818108 -0.0017006329
-0.00038056175 0.0010484699 -0.00013990913 -0.0013530758 0.002907921 0.00037091793 0.0013019951 0.0023186915
-0.0015251637 -0.0006316397 -0.00018178344 -0.0009447596 -0.00014266121 -0.0014788436 0.0029674182 0.00018096872
-0.00013905132 0.00045730767 -0.00060365023 -0.00094299804 -0.0002903652 0.0003469306 -5.474999e-05 -0.0005975296
-0.00023262369 0.00011977381 0.0014382467 0.0026930766 -0.00061971834 0.00012283259 -2.4134088e-05 -0.0010624987
00000000: 564c 833a 171b af3a 5d61 75ba 81d9 af37
00000010: eaff a837 13fe c4ba 6a9a abb8 eae0 60ba
00000020: da87 603b fe7f 15b8 dcaa 9937 933a 8738
00000030: 9459 27b8 93c0 26b8 48fd 46b7 1e3e beb6
00000040: 64fd 2bb6 8d66 1db8 ea0c 5ab8 a524 3e36
00000050: 4adc feb8 7d85 4bb9 c09e 1039 45b1 9c38
00000060: 1dcb 22b5 281a 37b9 08f5 1238 5e90 0e39
00000070: 8f82 a839 b62e 81b8 bc9b 343a cf70 f23a
00000080: ed19 91ba b134 66ba edc4 a6b9 6f26 c4b9
00000090: ecf2 f0b8 5e79 8bba 865e 81b9 5a42 2939
000000a0: e6ce c239 f2e4 113a dcb2 82b9 2394 8738
000000b0: dc44 1037 45a5 00ba b801 8cb7 3396 81b9
000000c0: fcf0 183a 88d6 9cb7 236f 9a3a ef67 a73a
000000d0: bdf3 afba e177 c538 cdd9 4638 bb1c 29bb
000000e0: 2db8 02b9 1dd4 a4ba 117e bf3b 6551 b9b8
000000f0: 084d 0e3b 9f2c 7c3b c390 5cba 7c5f e739
00000100: 4db5 c137 b408 eeba 4740 5fb8 158c 51ba
00000110: 7c4c 3cbb 1469 a4b8 c7ec 6fb9 fc05 10b9
00000120: 8ce8 d239 4cdf 0239 7913 cfb7 5c42 22b9
00000130: d27d 8238 62b2 c639 cf51 9eba 4a0f 1bb9
00000140: 8a30 9a39 3d8c 223a 871c cc36 99b0 4e38
00000150: 877f f3b5 7777 74b7 b1c0 4b36 228e 5f37
00000160: 8db2 27ba 6014 53b7 f741 c93a d74d 263b
00000170: 3aa3 b8ba 11a2 adb9 32d8 82b8 3265 53ba
00000180: eb8b 11b9 bd32 b4ba dc4e 243b d737 4939
00000190: c3fc 123b 257c 703b b039 d1ba bac0 0e38
000001a0: d3fb dbb7 6cda 0cbb 8f14 05b9 1a5c caba
000001b0: fb70 f63a 3ba7 0c38 8687 2b3b 8c00 973b
000001c0: 9b7f c4ba bb88 9e38 e520 68b8 c86c f4ba
000001d0: 05ac f2b8 7b35 baba 4c1e 68ba 8277 4338
000001e0: 6f44 37ba 2ea1 5eba 4c62 89b9 7963 4bba
000001f0: 0ef4 4cb9 997a 643a e6cf 4cb8 6a1c 79b9
00000200: f774 773a 49ed 3c39 c60c c8b8 e308 1db9
00000210: a127 5438 972b ddb7 4fb1 bbb6 dbf0 c638
00000220: 0163 9135 e116 4738 9381 0db8 c6a4 9036
00000230: 62b6 9d3a 6528 f23a 9297 8fba 5989 33b9
00000240: 3798 b1b8 9960 70ba 51f5 e1b8 9788 8aba
00000250: 37b8 123b f9c3 f538 7eba 173a 6133 a63a
00000260: 24ff 8d37 7404 a638 6f16 04b7 1bc1 8538
00000270: 6f45 c136 ed6b cc37 b446 01bb 1765 0bb7
00000280: d070 f3b7 f82f 6638 1703 7eb8 93d4 e3b8
00000290: 3a8e 09b8 a2c2 fe37 e3f1 eeb6 7332 82b8
000002a0: 0eea 8bb6 e386 9f37 5861 713b 7d2f cc3b
000002b0: 76a5 3cbb ca3c 0db9 3ccb 20b8 0487 55bb
000002c0: c86e 89b9 3496 36bb 37e5 da39 8d91 3439
000002d0: 56b4 973a 611f 1e3b 55bc d3ba c1d0 7fba
000002e0: ab1a 87b9 6014 99b9 1654 3fb9 4797 ccba
000002f0: 32ac 623a 1f00 9b39 33c3 8cb9 f686 0aba
00000300: e183 f139 276e aa39 d37f b538 0ee2 fc37
00000310: fed3 4838 8bca ed39 ad87 91ba 8e00 c3b8
00000320: a26c 3eb8 0744 22ba c454 143a 6290 513a
00000330: 028c 9b39 b64a 45b8 4d6e 3f38 89ce 133a
00000340: 7080 dbb9 155d 8ab8 1c4b 983a 5fd4 053b
00000350: 10b5 3aba 77da 19b8 d42c 97b7 e77e 5aba
00000360: 979f 83b8 3fa6 2dba b9a7 8f39 6c93 c037
00000370: f7fa acb8 cad5 2c3a e01d b5ba c5e7 deba
00000380: 2286 c7b9 d06c 893a 92b4 12b9 b159 b1ba
00000390: d292 3e3b c377 c239 b5a7 aa3a 30f5 173b
000003a0: 00e8 c7ba 9f94 25ba 1f9d 3eb9 bea9 77ba
000003b0: 5497 15b9 c2d5 c1ba 0479 423b 6cc2 3d39
000003c0: 4ece 11b9 ccc2 ef39 483e 1eba 8733 77ba
000003d0: 283c 98b9 3de4 b539 5ba3 65b8 88a3 1cba
000003e0: 72ec 73b9 132f fb38 8d83 bc3a 547e 303b
000003f0: 9874 22ba 9fcc 0039 8f73 cab7 8a43 8bba

exp_avg_sq f4 [128, 10]
9.1578135e-05 0.00021034796 4.6382116e-05 4.3560667e-06 1.6538978e-07 8.2124134e-05 9.3610346e-08 4.552996e-05
0.00036042914 1.18012856e-07 1.2586481e-08 1.3131992e-07 1.3713007e-07 2.7759927e-07 1.7514159e-08 3.9009944e-08
1.2317979e-09 1.3510201e-07 6.5101804e-09 5.837888e-09 2.927274e-07 7.4060284e-07 5.1074466e-07 4.4755367e-07
5.8183575e-10 1.618837e-06 2.1912836e-08 5.070128e-07 1.3128677e-06 1.2426453e-07 7.1300215e-05 0.00023346258
4.6893707e-05 3.7565354e-05 1.9387849e-06 1.4991259e-05 3.952937e-07 4.6597605e-05 8.3911855e-06 1.3838776e-06
3.6637857e-06 8.646563e-06 1.4070179e-06 2.4161812e-07 2.695917e-09 5.352052e-06 1.4542754e-09 1.411008e-06
7.1957675e-06 1.5057227e-08 0.00010785176 0.0002041767 8.4650805e-05 7.819098e-06 3.580806e-07 0.00019667724
1.9877845e-07 8.3687504e-05 0.0011081934 3.201242e-07 0.00022269363 0.0007501645 2.7199998e-05 7.0049723e-06
2.179989e-07 9.897885e-05 2.9585388e-08 2.6902655e-05 0.00021789606 2.5078526e-07 8.314773e-06 1.4716386e-05
1.2923239e-05 2.7372475e-06 1.185396e-08 6.9975567e-06 1.593687e-07 1.28682605e-05 5.202222e-05 1.1022626e-06
5.8924334e-06 2.3151677e-05 1.5018422e-07 2.0571223e-07 3.4154307e-10 8.2296395e-07 1.8709909e-10 1.432923e-07
1.1526504e-05 1.2201091e-08 5.8713693e-05 0.00014594791 4.689399e-05 8.457396e-06 2.7265753e-07 1.0612817e-05
3.2370744e-07 4.6565932e-05 0.00015386914 1.3334189e-06 0.00025950774 0.00071894657 8.092534e-05 8.7453e-06
1.8297104e-07 0.000130977 2.205251e-07 8.05259e-05 5.9984246e-05 2.5139147e-07 0.00041850912 0.0012892456
8.928747e-05 1.097649e-05 1.9217435e-07 0.00012115124 2.0970963e-07 8.851926e-05 3.8886243e-05 2.1221635e-07
2.160582e-05 8.0939324e-05 9.396159e-06 1.6875989e-05 3.4503915e-07 2.1150281e-05 1.7048527e-07 9.252983e-06
3.0438156e-05 1.2034288e-06 4.1568507e-07 1.042817e-06 1.5912579e-07 1.0039016e-08 2.847652e-10 2.0861837e-07
1.3998483e-10 1.5230565e-07 2.3864845e-07 4.41094e-10 5.609704e-05 0.00013295593 3.379841e-05 2.2493928e-06
4.067974e-08 2.4009925e-05 1.5069702e-07 3.3476816e-05 0.0001314708 3.991861e-07 1.4568342e-05 5.7831687e-05
1.1724153e-06 4.3017633e-07 1.7168228e-09 5.2699884e-06 2.3141582e-09 1.1604199e-06 7.2653886e-05 1.9503446e-08
1.5736807e-08 1.5508634e-07 1.5697721e-07 3.6703855e-07 2.0054996e-08 5.0714405e-08 2.4199829e-09 1.5657987e-07
1.2400284e-07 1.1156004e-08 0.00050859846 0.0013671159 0.00021791566 3.3202035e-05 2.081525e-07 0.00033845982
8.938559e-07 0.00021649222 4.2053452e-05 2.461634e-06 9.121961e-05 0.0002638437 8.3522275e-05 5.0636827e-05
2.1209225e-06 1.8026803e-05 7.729131e-07 8.315889e-05 3.1776148e-05 3.136864e-06 8.618443e-06 2.0603879e-05
7.683742e-06 4.990024e-06 8.3466034e-07 4.4256345e-07 6.268158e-08 7.658026e-06 3.1329007e-05 3.6464715e-07
4.2625566e-06 5.558733e-06 8.490234e-06 4.1666954e-05 7.369058e-06 4.3299372e-07 5.4467296e-08 8.449732e-06
1.1664274e-05 2.1259538e-07 0.0001043776 0.00031614615 2.157487e-05 4.367387e-06 4.8079805e-08 3.6602898e-05
5.5137487e-08 2.1252366e-05 4.6968225e-06 1.6526734e-07 2.5896868e-06 9.753406e-05 6.9600275e-05 0.00011492328
7.343977e-06 1.4066576e-05 6.327545e-07 6.929534e-05 0.0002699862 3.1987677e-06 9.5762916e-05 0.00023286449
6.0680064e-05 2.669846e-05 1.6905562e-06 3.3456716e-05 2.9477522e-07 6.0564027e-05 0.00021280067 8.7122163e-07
9.927347e-07 8.811831e-06 1.403868e-05 3.941916e-05 3.334404e-06 2.3113112e-06 1.2392675e-07 1.3983944e-05
3.1945657e-07 5.3525514e-07 0.000115212795 0.00038645524 1.2659896e-05 4.523014e-06 7.061778e-08 4.0032366e-05
00000000: a30d c038 da90 5c39 6b8a 4238 542a 9236
00000010: ff95 3134 0f3a ac38 d506 c933 6cf7 3e38
00000020: fbf7 bc39 416e fd33 ee3b 5832 f200 0d34
00000030: 073e 1334 f408 9534 0b72 9632 e38b 2733
00000040: 094c a930 8f10 1134 27b0 df31 9b96 c831
00000050: 2628 9d34 d7cd 4635 1b1a 0935 4f47 f034
00000060: 0def 1f30 d146 d935 d63a bc32 a819 0835
00000070: ca35 b035 936d 0534 0387 9538 a2cd 7439
00000080: bcaf 4438 7e8f 1d38 121c 0236 f882 7b37
00000090: c138 d434 cc71 4338 dec7 0c37 acbd b935
000000a0: 5cdf 7536 b510 1137 c4d8 bc35 beb7 8134
000000b0: 1343 3931 c795 b336 c4df c730 de61 bd35
000000c0: 2c73 f136 3157 8132 792e e238 4418 5639
000000d0: 8e86 b138 c52e 0337 393e c034 253b 4e39
000000e0: ce6f 5534 6381 af38 cd40 913a 89dd ab34
000000f0: de82 6939 b0a6 443a 8d2b e437 410c eb36
00000100: 1513 6a34 de92 cf38 f522 fe32 03ad e137
00000110: 077b 6439 aaa3 8634 ae7f 0b37 66e6 7637
00000120: e4d0 5837 8eb1 3736 44a6 4b32 8ecc ea36
00000130: ef1e 2b34 c2e4 5737 6f32 5a38 74f1 9335
00000140: 9eb7 c536 d935 c237 5342 2134 bfe1 5c34
00000150: eac3 bb2f a7e9 5c35 b6b7 4d2f e3db 1934
00000160: f561 4137 f79c 5132 5943 7638 9809 1939
00000170: 0ab0 4438 3de4 0d37 c461 9234 b40d 3237
00000180: 03ca ad34 ca4f 4338 ef57 2139 edf7 b235
00000190: 8a0e 8839 b077 3c3a 76b6 a938 c7b8 1237
000001a0: b276 4434 df56 0939 7ac9 6c34 03e0 a838
000001b0: 9897 7b38 fbf6 8634 586b db39 e7fb a83a
000001c0: d83f bb38 aa27 3837 7c58 4e34 9412 fe38
000001d0: 8b2c 6134 6aa3 b938 c919 2338 96dd 6334
000001e0: 253e b537 f8bd a938 32a4 1d37 e990 8d37
000001f0: d23d b934 e26b b137 a20e 3734 423d 1b37
00000200: 7155 ff37 8085 a135 522b df34 ebf6 8b35
00000210: 2adc 2a34 0f78 2c32 248d 9c2f 9500 6034
00000220: 3aea 192f 7589 2334 981f 8034 767e f22f
00000230: bd49 6b38 166a 0b39 c4c2 0d38 46f4 1636
00000240: d9b7 2e33 ec68 c937 48cf 2134 7569 0c38
00000250: 6ddb 0939 b84f d634 8d6a 7437 4d90 7238
00000260: e25b 9d35 fcf2 e634 55f5 eb30 dbd4 b036
00000270: 1a07 1f31 b9bf 9b35 c25d 9838 8888 a732
00000280: 9b2d 8732 cf85 2634 918d 2834 650d c534
00000290: 6745 ac32 14d1 5933 ca4c 2631 5920 2834
000002a0: a425 0534 a0a8 3f32 7753 053a cc30 b33a
000002b0: 4a80 6439 6a42 0b38 8680 5f34 4f73 b139
000002c0: 4ff1 6f35 3002 6339 8d62 3038 8d32 2536
000002d0: 284d bf38 8154 8a39 ae28 af38 e162 5438
000002e0: 2c55 0e36 4438 9737 2f7a 4f35 9765 ae38
000002f0: 6147 0538 ea82 5236 ee97 1037 7ed6 ac37
00000300: 6ce9 0037 fb6f a736 6c0d 6035 7599 ed34
00000310: 909b 8633 f97a 0037 4467 0338 b9c4 c334
00000320: 1507 8f36 2785 ba36 4771 0e37 8dc3 2e38
00000330: ba43 f736 3476 e834 6def 6933 53c3 0d37
00000340: adb1 4337 c645 6434 4ce5 da38 6bc0 a539
00000350: aefb b437 928b 9236 4e80 4e33 1086 1938
00000360: 4fd0 6c33 1c47 b237 6699 9d36 5774 3134
00000370: 7bca 2d36 338b cc38 5df6 9138 f702 f138
00000380: 486c f636 7cff 6b37 8fda 2935 a752 9138
00000390: ef8c 8d39 69aa 5636 53d4 c838 162d 7439
000003a0: b982 7e38 82f6 df37 12e7 e235 e053 0c38
000003b0: 9941 9e34 2106 7e38 3f23 5f39 e5dd 6935
000003c0: 1b3e 8535 87d6 1337 ac87 6b37 0056 2538
000003d0: a0c4 5f36 061c 1b36 ba10 0534 959c 6a37
000003e0: c781 ab34 74ae 0f35 669e f138 259d ca39
000003f0: d765 5437 65c4 9736 89a6 9733 6de8 2738

exp_avg f4 [128, 32]
-0.00061655435 6.197688e-05 -0.00013798458 -8.424764e-05 0.0004325778 0.00081047893 -0.0006611655 -0.00044109244
0.00027012662 0.0003281496 -0.0003877046 0.00036154076 2.7745977e-05 -0.0002379021 0.0004220575 0.0006440828
-1.3549639e-05 -0.00048353447 0.00021454213 4.3252752e-05 2.82296e-05 -0.0005483014 0.00012901286 -0.000406297
1.7274031e-05 0.00046424157 0.0004981928 -8.61485e-05 7.8636964e-05 -0.0009565181 0.00059955294 -0.00036187944
-2.0935959e-05 2.5300415e-06 2.4350413e-05 -8.342353e-06 1.38726555e-05 2.6383243e-05 -2.4129042e-05 -1.6917493e-05
1.19931865e-05 2.0303574e-05 -1.8150973e-05 2.071982e-05 5.965951e-06 -1.0552295e-05 1.9170062e-05 2.6668324e-05
-3.6018314e-06 -2.6639844e-05 1.611238e-05 8.866078e-07 -8.2015924e-07 -2.3803108e-05 2.7344497e-06 -1.1595629e-05
-8.09079e-06 2.0310177e-05 3.3570355e-05 -8.17066e-06 -5.0553185e-06 -1.7144837e-05 2.8593962e-05 -2.6090149e-05
0.0001146263 -1.0887837e-05 -2.8188426e-05 9.479007e-06 -6.364138e-05 -0.00014672556 8.825078e-05 0.00013208449
-7.7285666e-05 -4.9842853e-05 5.139513e-05 -8.3420084e-05 -9.792397e-06 8.853227e-05 -8.227114e-05 -0.00014763327
-3.1147401e-06 9.879402e-05 -3.626953e-05 -5.3118983e-06 5.648286e-07 0.000105821586 -4.236255e-05 4.5084085e-05
1.4418824e-05 -7.443312e-05 -0.00015645292 -1.2887638e-05 3.0761364e-06 0.00017739975 -0.000110237146 0.00012494922
-0.00055557943 3.7622194e-05 0.00022371745 -0.0002538637 0.0004209888 0.00068833266 -0.00072988507 -0.00032264227
0.00040116857 0.0004574123 -0.0005430237 0.0005704132 0.000121262194 -0.0003213096 0.00042189832 0.0008814828
-0.00012145493 -0.00067081087 0.00037905376 3.8092807e-05 -3.1037825e-06 -0.00068370363 3.0200994e-05 -0.0003757977
-0.0001340453 0.000581825 0.00065210427 -0.00010124678 -9.447923e-05 -0.0007044971 0.00078051625 -0.00062864245
-0.00012883275 1.14158875e-05 -4.923715e-05 -2.4697003e-05 0.00010446314 0.00015170309 -0.00019554385 -0.0001451826
8.245781e-05 5.5928365e-05 -0.00010172131 0.00011099345 -1.2661232e-05 -2.6923552e-05 8.11368e-05 0.00023345785
4.823436e-06 -0.00011631685 4.6407815e-05 9.016477e-06 2.524809e-06 -0.00013796761 -1.7375232e-06 -9.08301e-05
1.2455959e-05 0.00015742159 9.3932664e-05 1.3548465e-05 2.12664e-05 -0.000366632 0.00016822592 -9.183806e-05
-0.0008964046 0.00011195848 -0.00021467799 -9.9361714e-05 0.0006077287 0.0012032698 -0.0008913835 -0.0005718508
0.0002780192 0.0004847465 -0.0005126581 0.00044190572 8.257463e-05 -0.00029445434 0.00062322826 0.00075384625
-2.2950093e-05 -0.000716319 0.00029558977 5.6826793e-05 5.0575767e-05 -0.0006941725 0.00023125036 -0.00058672205
6.1682345e-05 0.0005560036 0.00086231565 -0.00019697192 0.00013877702 -0.0011393483 0.0008000891 -0.00044570913
-6.262097e-05 2.6502183e-05 -2.1850976e-05 -0.000115763774 0.00025817574 -5.391468e-05 -0.0007246348 -0.0007435715
0.00035744725 -7.818481e-06 -0.00031406342 0.00049036276 -0.00022252533 0.00014293837 2.6617663e-05 0.0011231826
7.99251e-05 -0.00030975096 0.00012556209 2.7347864e-06 -7.13869e-05 -0.0003990792 -0.00028876905 -9.965545e-05
1.8396322e-05 0.0007935141 0.00013609962 0.00030973545 3.6663598e-05 -0.0018810725 0.0006007268 -0.0003633049
0.00036232275 -2.2004484e-05 0.00011730552 4.7067138e-06 -0.00023634781 -0.0004724869 0.00026006065 0.0002617576
-0.0001834358 -0.0001906753 0.0001779604 -0.00017958209 -3.6124904e-05 0.00029258212 -0.0002190763 -0.000354842
-4.9539617e-06 0.00025461332 -7.3634736e-05 -3.1066877e-05 -2.5268766e-05 0.0003074425 -0.00013434497 0.00021519803
4.557799e-06 -0.00014563018 -0.00025972255 1.4943917e-05 -3.8039438e-05 0.0003569164 -0.00028947814 0.00024442168
00000000: 43a0 21ba 96f9 8138 f4af 10b9 1bae b0b8
00000010: 9ccb e239 5276 543a 1152 2dba 6d42 e7b9
00000020: c89f 8d39 7e0b ac39 d544 cbb9 2e8d bd39
00000030: 08c0 e837 5c75 79b9 9947 dd39 aad7 283a
00000040: 4253 63b7 e682 fdb9 b7f6 6039 4a6a 3538
00000050: 9bce ec37 e2bb 0fba a047 0739 4304 d5b9
00000060: b3e7 9037 7365 f339 2799 023a a0aa b4b8
00000070: e6e9 a438 d8be 7aba 512b 1d3a a3ba bdb9
00000080: a19f afb7 c8c9 2936 1d44 cc37 22f6 0bb7
00000090: 9abe 6837 9551 dd37 b968 cab7 0aea 8db7
000000a0: 5836 4937 9851 aa37 eb42 98b7 7acf ad37
000000b0: 212f c836 c309 31b7 65cf a037 cab5 df37
000000c0: feb6 71b6 a178 dfb7 1329 8737 39ff 6d35
000000d0: ea28 5cb5 c9ac c7b7 7d81 3736 d98a 42b7
000000e0: aebd 07b7 c65f aa37 e5cd 0c38 b814 09b7
000000f0: dba0 a9b6 42d2 8fb7 11dd ef37 2bdc dab7
00000100: 8763 f038 e7aa 36b7 2f76 ecb7 0608 1f37
00000110: 3577 85b8 58da 19b9 4713 b938 2980 0a39
00000120: 6d14 a2b8 5b0e 51b8 1a91 5738 d1f1 aeb8
00000130: 064a 24b7 67aa b938 fb88 acb8 01ce 1ab9
00000140: d406 51b6 a32f cf38 1c20 18b8 dc3c b2b6
00000150: ba9e 1735 88ec dd38 71ae 31b8 ab18 3d38
00000160: 61e8 7137 fa18 9cb8 830d 24b9 fc37 58b7
00000170: 9f6f 4e36 6204 3a39 1e2f e7b8 cd04 0339
00000180: 4ea4 11ba 86cc 1d38 b295 6a39 0219 85b9
00000190: 29b8 dc39 3971 343a c255 3fba 5028 a9b9
000001a0: ef53 d239 d7d0 ef39 b459 0eba c887 153a
000001b0: 254e fe38 7275 a8b9 3c32 dd39 4f13 673a
000001c0: 9eb5 feb8 5bd9 2fba bcbb c639 d7c5 1f38
000001d0: 944a 50b6 933a 33ba 2458 fd37 b706 c5b9
000001e0: 838e 0cb9 9d85 183a faf1 2a3a 7354 d4b8
000001f0: 2623 c6b8 00ae 38ba 8f9b 4c3a 7bcb 24ba
00000200: 4717 07b9 dd86 3f37 fd83 4eb8 692c cfb7
00000210: 3913 db38 7d12 1f39 e70a 4db9 283c 18b9
00000220: 33ed ac38 a094 6a38 3653 d5b8 28c5 e838
00000230: 946b 54b7 e3d9 e1b7 fd27 aa38 5dcc 7439
00000240: 00d9 a136 22ef f3b8 03a6 4238 7945 1737
00000250: e36f 2936 66ab 10b9 d834 e9b5 0a7c beb8
00000260: f0f9 5037 8911 2539 b7fd c438 374e 6337
00000270: 3f65 b237 8438 c0b9 cd65 3039 2f99 c0b8
00000280: b2fc 6aba 40cb ea38 2f1b 61b9 6a60 d0b8
00000290: fc4f 1f3a 09b7 9d3a bcab 69ba 42e8 15ba
000002a0: 1bc3 9139 9325 fe39 e763 06ba 95af e739
000002b0: eb2b ad38 fe60 9ab9 2460 233a c49d 453a
000002c0: f384 c0b7 5bc7 3bba 63f9 9a39 4e59 6e38
000002d0: 5121 5438 21f9 35ba cc7b 7239 40ce 19ba
000002e0: 755b 8138 c5c0 113a 060d 623a 3f8a 4eb9
000002f0: ac84 1139 2f56 95ba 12bd 513a 11ae e9b9
00000300: 6153 83b8 0151 de37 9d4c b7b7 34c6 f2b8
00000310: c35b 8739 7222 62b8 6bf5 3dba 3dec 42ba
00000320: c267 bb39 1f2c 03b7 e1a8 a4b9 b08b 003a
00000330: b055 69b9 bae1 1539 ff48 df37 c137 933a
00000340: 769d a738 1266 a2b9 51a9 0339 4687 3736
00000350: 8db5 95b8 813b d1b9 ed65 97b9 1dfe d0b8
00000360: cd51 9a37 d403 503a f7b5 0e39 fd63 a239
00000370: 3dc7 1938 528e f6ba 187a 1d3a f579 beb9
00000380: 23f6 bd39 4596 b8b7 ec01 f638 5dee 9d36
00000390: 22d4 77b9 1eb8 f7b9 c058 8839 833c 8939
000003a0: ac58 40b9 03f0 47b9 e29a 3a39 334e 3cb9
000003b0: d284 17b8 b565 9939 d9b7 65b9 160a bab9
000003c0: 353a a6b6 9f7d 8539 596c 9ab8 ce4d 02b8
000003d0: 43f8 d3b7 3c30 a139 f4de 0cb9 c8a6 6139
000003e0: 32ef 9836 4eb4 18b9 5f2b 88b9 a3b7 7a37
000003f0: 898c 1fb8 8220 bb39 19c5 97b9 b925 8039

exp_avg_sq f4 [128, 32]
2.1048669e-05 6.9140484e-08 2.213249e-06 4.0053385e-07 7.2724206e-06 3.0437785e-05 3.3411772e-05 2.0501197e-05
9.200205e-06 1.8315889e-06 8.311345e-06 1.3144548e-05 4.054989e-08 2.2718534e-06 7.0366136e-06 6.301939e-05
5.2089064e-08 1.1231067e-05 1.5630878e-06 1.7146682e-07 4.0284867e-08 2.0436313e-05 2.482819e-07 7.929341e-06
2.0024179e-07 2.0350908e-05 1.0994221e-05 5.060643e-07 2.815047e-07 0.00011890885 2.607508e-05 1.0680246e-05
6.891906e-08 4.290283e-10 6.2461545e-08 6.998421e-09 2.2910829e-08 1.1452507e-07 4.4682004e-08 1.7136784e-08
1.5547355e-08 6.35737e-08 3.7125037e-08 3.696998e-08 7.3412063e-09 3.0095062e-08 5.1522438e-08 5.7203184e-08
2.8018239e-09 7.861199e-08 2.9563587e-08 1.7167946e-10 6.0373304e-11 6.392262e-08 5.0985838e-09 2.2430658e-08
9.471636e-09 2.824345e-08 1.14272325e-07 1.7012328e-08 2.304654e-09 1.3050728e-08 8.027682e-08 7.075087e-08
4.4388344e-07 3.4298278e-09 1.4534437e-07 1.9338282e-09 1.4244624e-07 7.774159e-07 2.1476771e-07 3.9161722e-07
1.0890494e-07 2.4486826e-07 1.03118374e-07 1.6521358e-07 1.2334034e-08 3.3191387e-07 2.547558e-07 4.0401093e-07
1.2395564e-10 3.8509972e-07 5.5204325e-08 1.1125265e-09 1.659412e-10 3.1668793e-07 8.58757e-08 1.0190456e-07
1.6124089e-08 1.08809076e-07 8.8486667e-07 8.533451e-09 1.1387772e-09 5.485595e-07 3.5759425e-07 4.4284081e-07
1.9563582e-05 9.255048e-08 8.388413e-06 1.3008469e-06 8.747972e-06 2.9052202e-05 2.5792018e-05 2.3043127e-05
9.292851e-06 1.2242336e-05 1.1549806e-05 1.585965e-05 1.2869116e-06 7.3118504e-06 1.1603212e-05 4.9491555e-05
5.1860434e-07 2.1213913e-05 5.8418536e-06 6.787086e-08 1.7434205e-08 2.3870047e-05 8.900147e-07 6.8674767e-06
1.4171525e-06 1.9629693e-05 2.423607e-05 2.7653741e-06 3.907458e-07 8.444353e-05 3.0840532e-05 2.2457325e-05
4.2372463e-07 1.6587373e-09 1.2350974e-07 1.6074928e-08 2.0791693e-07 5.453123e-07 1.0521287e-06 5.55669e-07
2.3186327e-07 2.3744796e-08 2.423197e-07 3.6789183e-07 6.227657e-09 1.8188995e-08 1.2656923e-07 1.916016e-06
1.3447663e-09 2.7550246e-07 3.694048e-08 2.6580664e-09 1.9691243e-10 5.032193e-07 4.0683106e-09 1.9505721e-07
1.0844962e-08 7.0961164e-07 1.6256423e-07 2.5363589e-08 1.0964408e-08 4.0923155e-06 7.310957e-07 2.1546754e-07
4.2268814e-05 2.2125398e-07 4.302636e-06 5.5914205e-07 1.2145869e-05 6.4712105e-05 5.4399312e-05 3.171126e-05
1.1841761e-05 3.6471044e-06 1.3074461e-05 1.9406372e-05 1.3509303e-07 3.545342e-06 1.4456457e-05 9.327419e-05
6.624649e-08 2.2216944e-05 2.626837e-06 2.8454036e-07 1.7055312e-07 3.098045e-05 1.2233739e-06 1.5227908e-05
6.909214e-07 2.7386523e-05 3.0741274e-05 4.5936488e-07 7.4574416e-07 0.00016753038 4.2487754e-05 1.6002927e-05
8.367345e-07 1.5907018e-08 4.3614054e-07 1.0676509e-06 2.7285255e-06 4.524172e-07 2.6119442e-05 1.91203e-05
8.371922e-06 1.1494604e-07 5.5370097e-06 1.2936362e-05 1.9028598e-06 6.551936e-07 1.3584274e-07 6.5207714e-05
2.0824906e-07 3.1852396e-06 8.6382477e-07 1.0344425e-08 2.5263196e-07 1.0114935e-05 3.7672212e-06 8.2434167e-07
8.674329e-09 3.0869433e-05 1.9807894e-07 4.878887e-06 4.021376e-08 0.00015994621 1.6750992e-05 6.6689067e-06
1.0811622e-05 3.411982e-08 5.1524734e-07 3.5383067e-08 3.5440862e-06 1.7967532e-05 7.4645254e-06 7.5462194e-06
3.2325506e-06 3.3523215e-06 2.9024116e-06 4.03268e-06 1.0709964e-07 5.731077e-06 4.5066954e-06 1.4326375e-05
4.4364508e-09 6.495534e-06 7.747984e-07 6.803438e-08 2.4104297e-08 8.413832e-06 1.2379211e-06 3.449717e-06
7.377141e-08 3.2539806e-06 9.414123e-06 9.995322e-08 3.347246e-08 1.8299255e-05 8.921909e-06 6.7449696e-06
00000000: ac91 b037 627a 9433 5487 1436 f408 d734
00000010: 9e05 f436 a554 ff37 9e23 0c38 fcf9 ab37
00000020: 945a 1a37 ead4 f535 f470 0b37 6787 5c37
00000030: 1329 2e33 2576 1836 0d1c ec36 4729 8438
00000040: 88b8 5f33 116d 3c37 4acb d135 711c 3834
00000050: ae05 2d33 a66e ab37 9b4b 8534 4308 0537
00000060: 0b02 5734 3eb7 aa37 d273 3837 79d8 0735
00000070: b621 9734 b45e f938 cfbb da37 4f2f 3337
00000080: a700 9433 5edc eb2f 9922 8633 c376 f031
00000090: 72cd c432 d3f0 f533 62e8 3f33 3034 9332
000000a0: ff8c 8532 0386 8833 6973 1f33 ecc8 1e33
000000b0: ef3d fc31 df41 0133 8549 5d33 91af 7533
000000c0: 358a 4031 66d1 a833 04f3 fd32 79c3 3c2f
000000d0: 26c3 842e d545 8933 9e2f af31 8aad c032
000000e0: b2b8 2232 019c f232 e065 f533 8122 9232
000000f0: e75f 1e31 b535 6032 a664 ac33 b4ef 9733
00000100: e04e ee34 2bb2 6b31 f50f 1c34 44e4 0431
00000110: 53f3 1834 9daf 5035 e69a 6634 763f d234
00000120: 20df e933 7076 8334 ed71 dd33 9065 3134
00000130: a8e5 5332 e531 b234 5fc5 8834 d7e6 d834
00000140: 694a 082f b4bf ce34 cc19 6d33 8ce7 9830
00000150: 4c74 362f 4205 aa34 aa6a b833 a0d6 da33
00000160: 3f81 8a32 6caa e933 9387 6d35 849a 1232
00000170: 2983 9c30 b940 1335 61fb bf34 94bf ed34
00000180: 791c a437 2ac0 c633 f6bb 0c37 c298 ae35
00000190: 41c4 1237 21b5 f337 f05b d837 bd4c c137
000001a0: 7ee8 1b37 6f64 4d37 0ac6 4137 570a 8537
000001b0: f2b9 ac35 5158 f536 6bab 4237 2795 4f38
000001c0: 3836 0b35 88f4 b137 2405 c436 66c0 9133
000001d0: 39c2 9532 893c c837 58e9 6e35 2d6f e636
000001e0: fd34 be35 72aa a437 904e cb37 c494 3936
000001f0: b2c7 d134 4617 b138 c55a 0138 bd62 bc37
00000200: 457c e334 a1f9 e330 199e 0434 2415 8a32
00000210: c53f 5f34 9361 1235 de36 8d35 4829 1535
00000220: 17f6 7834 5cf7 cb32 2a18 8234 ab82 c534
00000230: 0dfb d531 063e 9c32 16e7 0734 e794 0036
00000240: c2d2 b830 c5e8 9334 7da8 1e33 33a9 3631
00000250: ec81 582f f814 0735 3dc9 8b31 eb70 5134
00000260: a650 3a32 247c 3e35 518d 2e34 1fdf d932
00000270: fa5d 3c32 b950 8936 8440 4435 445b 6734
00000280: cb49 3138 d591 6d34 5d5f 9036 f317 1635
00000290: 1cc6 4b37 0cb6 8738 d12a 6438 b501 0538
000002a0: faab 4637 c7c0 7436 625a 5b37 deca a237
000002b0: 170e 1134 83ec 6d36 038a 7237 339c c338
000002c0: 6543 8e33 865e ba37 b748 3036 eec2 9834
000002d0: 4921 3734 01f1 0138 cf32 a435 5e7b 7f37
000002e0: c277 3935 1cbc e537 31f0 0038 a19e f634
000002f0: 262f 4835 18ab 2f39 e134 3238 063e 8637
00000300: f59b 6035 e7a3 8832 b326 ea34 354c 8f35
00000310: b61b 3736 bfe3 f234 131b db37 8864 a037
00000320: 2275 0c37 41d8 f633 8dca b936 4009 5937
00000330: c465 ff35 90e0 2f35 2bdc 1134 20c0 8838
00000340: 119b 5f34 00c2 5536 96e1 6735 43b7 3132
00000350: 79a1 8734 51b3 2937 5ed0 7c36 5448 5d35
00000360: 1a06 1532 cd79 0138 86af 5434 52b5 a336
00000370: 7fb7 2c33 3cb7 2739 7b84 8c37 79c5 df36
00000380: 9063 3537 248b 1233 874f 0a35 18f8 1733
00000390: f0d6 6d36 fbb8 9637 c977 fa36 8835 fd36
000003a0: ccee 5836 72f8 6036 0dc7 4236 7550 8736
000003b0: a6fe e533 944d c036 3838 9736 505b 7037
000003c0: 6f6f 9831 36f4 d936 befb 4f35 4c1a 9233
000003d0: e90d cf32 2229 0d37 a526 a635 b081 6736
000003e0: 436c 9e33 f65e 5a36 5af1 1d37 dda5 d633
000003f0: 5cc3 0f33 5a81 9937 4faf 1537 d952 e236
