models/car/policy_opp_kinematic_model_best_iter3.pth (torch, 77516 bytes, 20 tensors)

lstm.weight_ih_l0 f4 [128, 10]
0	0x3e0686c3	0.13137345
1	0xbdd50d0e	-0.104028806
2	0xbd31f6bf	-0.043448206
3	0x3e0b56b3	0.13607292
4	0x3c9ebe37	0.01937781
5	0xbdc00206	-0.09375386
6	0x3e59c879	0.2126788
7	0x3cb992a9	0.02265294
8	0xbdc68ae5	-0.09694461
9	0xbd19dc9a	-0.037563898
10	0xbc4baea6	-0.012431776
11	0xbe3e95a3	-0.1861177
12	0xbdbd06b2	-0.09229793
13	0xbe8c2dae	-0.273786
14	0xbdf2c503	-0.11853983
15	0xbdaa231b	-0.08307477
16	0xbd237428	-0.039905697
17	0xbdc96f92	-0.098357335
18	0x3de231ca	0.11044653
19	0x3da3dc7c	0.080010384
20	0xbdc87244	-0.097874194
21	0xbc229803	-0.009923938
22	0x3dde772b	0.10862573
23	0x3bcb9c1f	0.0062136794
24	0x3e423721	0.18966343
25	0xbc9454cc	-0.01810684
26	0x3e945a79	0.28975275
27	0x3e87aed8	0.26500583
28	0x3db19ebd	0.08672855
29	0xbe884d43	-0.26621446
30	0xbd539474	-0.051655248
31	0xbdf51f0f	-0.119688146
32	0xbda58d41	-0.08083583
33	0x3d3d17e8	0.046165377
34	0x3df463b7	0.119330816
35	0x3db05d5e	0.086115584
36	0xbc0d8760	-0.008638233
37	0x3e0a3f1f	0.13500641
38	0x3e460cb0	0.19340777
39	0x3df1d0a3	0.118073724
40	0xbc8d8408	-0.017274871
41	0xbe086fb5	-0.13323863
42	0x3db344e1	0.08753372
43	0xbdcb460b	-0.09925469
44	0x3dcd0e70	0.10012519
45	0xbac743f0	-0.0015202742
46	0x3ec320e8	0.38111043
47	0x3cf55fde	0.02995294
48	0x3ccf00a5	0.025268862
49	0xbd6572bd	-0.056017626
50	0xbdfc96da	-0.1233346
51	0xbd09c37b	-0.03363369
52	0x3d92158a	0.071330145
53	0x3e273c46	0.16331586
54	0xbd955712	-0.07291998
55	0xbe22f097	-0.1591209
56	0x3e623e90	0.22094178
57	0x3e34f834	0.17672807
58	0xbdd9af70	-0.10629165
59	0xbc1556d0	-0.009114936
60	0x3d02a237	0.03189298
61	0xbda1655b	-0.0788066
62	0x3d94a959	0.07258863
63	0x3db4de7f	0.088315
64	0xbd3f3a35	-0.04668637
65	0xbe904bab	-0.2818273
66	0x3e9904c1	0.2988644
67	0x3dbd15fa	0.09232707
68	0x3c7763f9	0.015099519
69	0xbeb3caa8	-0.35115552
70	0xbe0a5d71	-0.13512208
71	0x3e0f7790	0.14010453
72	0xbc10a332	-0.008827971
73	0x3c54dcf2	0.012992131
74	0xbe6ba70a	-0.23012939
75	0x3e6dc5e6	0.23220024
76	0xbe4ec4d4	-0.20192271
77	0xbe6f59ed	-0.23374148
78	0x3e2f8c1b	0.1714329
79	0x3e6ec48b	0.23317163
80	0xbde0a040	-0.10968065
81	0x3de24b9a	0.11049576
82	0x3d6bd859	0.057579372
83	0x3d103ad7	0.035212364
84	0xbe069f6c	-0.13146752
85	0xbba9c3e7	-0.005180824
86	0xbbc6b6ad	-0.006064257
87	0xbd133112	-0.03593547
88	0xbcc03159	-0.02346103
89	0xbe6332ac	-0.22187299
90	0x3e1bee96	0.15227732
91	0x3e529d67	0.20567857
92	0x3c84b4f8	0.016199574
93	0x3dd2b68d	0.10288725
94	0x3d5c8eed	0.053847242
95	0xbe2db1a8	-0.16962302
96	0x3e61aba7	0.22038136
97	0x3d16c629	0.036810074
98	0xbe1a3010	-0.15057397
99	0xbe7335e2	-0.23751023
100	0x3c4de72f	0.0125673255
101	0xbd1f74ea	-0.038929857
102	0xbd223aad	-0.03960674
103	0x3d0c5962	0.03426493
104	0xbe314ddc	-0.17314857
105	0xbe2f68d7	-0.17129837
106	0xbcd1d105	-0.025612364
107	0x3d025ec4	0.031828657
108	0xbd40a350	-0.047030747
109	0xbdc903dc	-0.09815189
110	0x3aefc422	0.0018292705
111	0x3d1bae30	0.038007915
112	0x3ccc1cce	0.024916079
113	0x3c135f4c	0.0089948885
114	0xbd520942	-0.05127836
115	0x3d33bee7	0.04388323
116	0x3ddc09dd	0.10744069
117	0x3dfbf9b6	0.12303488
118	0x3dbd7e46	0.092526
119	0xbdf6efb3	-0.12057438
120	0xbdb1b228	-0.08676559
121	0xbd7733ab	-0.06035201
122	0xbe0e29d7	-0.13883148
123	0xbdc2871f	-0.094984286
124	0x3e128d1d	0.14311643
125	0xbd90ccd0	-0.07070315
126	0x3e45e3c0	0.19325161
127	0x3dcee372	0.101019755
128	0xbe0ce819	-0.13760413
129	0xbec2cded	-0.38047734
130	0xbde465e5	-0.11152247
131	0xbe17a1f9	-0.14807881
132	0xbd179724	-0.037009373
133	0x3c383780	0.011243701
134	0x3e130abd	0.14359565
135	0xbe980070	-0.29687834
136	0x3e7c825f	0.24659108
137	0xbdde7c81	-0.10863591
138	0x3c15d81b	0.009145762
139	0xbe8e702b	-0.27819952
140	0x3c88d351	0.016702326
141	0xbd5c15e6	-0.05373182
142	0x3e1a91a8	0.15094626
143	0xbe04f290	-0.12983155
144	0x3e3d5f93	0.1849349
145	0x3dbea4aa	0.09308751
146	0x3d38b6ab	0.04509608
147	0x3e0fa22d	0.14026709
148	0x3e0de587	0.13857089
149	0xbe91b4e9	-0.28458336
150	0xbe12c7c3	-0.14334016
151	0x3dbe4a78	0.092915475
152	0xbdef9c13	-0.11699691
153	0x3e04017e	0.12891194
154	0xbdda64ba	-0.10663743
155	0xbce1839d	-0.027528578
156	0xbd1287a1	-0.035773877
157	0x3c5020d6	0.012703141
158	0xbe1c53b3	-0.15266304
159	0xbddef52e	-0.10886608
160	0xbd6962fc	-0.056979164
161	0xbcb3300a	-0.021873493
162	0x3a8738f6	0.0010316658
163	0xbdae2397	-0.08502882
164	0x3de2a921	0.11067415
165	0x3e47aa34	0.19498521
166	0x3b8cf1b7	0.0043012756
167	0xbe00a97c	-0.12564653
168	0xbde2305f	-0.11044382
169	0xbd77a5d8	-0.060460895
170	0xbd431e90	-0.04763657
171	0xbcd4cbd3	-0.025976097
172	0xbc850ba1	-0.016240897
173	0x3d280427	0.041019585
174	0x3e07949a	0.13240281
175	0x3c034002	0.008010866
176	0x3e0eefee	0.13958713
177	0xbd67c0e8	-0.056580454
178	0xbdb48815	-0.08815018
179	0xbe22ce84	-0.15899092
180	0xbde79377	-0.113074236
181	0x3c532dbd	0.012889323
182	0xbe2e7c56	-0.17039618
183	0x3e0401d8	0.12891328
184	0x3e19c522	0.15016606
185	0x3d1e1ffe	0.03860473
186	0xbe546404	-0.20741278
187	0xbd28fd3f	-0.04125714
188	0x3de02884	0.10945228
189	0x3e2d9279	0.16950406
190	0x3e1a0176	0.1503962
191	0xbc515666	-0.012776947
192	0x3db8b07b	0.09018036
193	0xbc5a8b9c	-0.0133389495
194	0xbd61ebaf	-0.055156406
195	0xbe1dd1a6	-0.15412006
196	0xbdf062d6	-0.117376015
197	0x3daf334a	0.085547045
198	0xbcdb8b73	-0.026799893
199	0x3d9ef1b3	0.07760944
200	0x3e548182	0.20752528
201	0xbd97b0a5	-0.07406739
202	0x3c769af7	0.015051595
203	0xbbac4c63	-0.0052581294
204	0x3e4028e3	0.18765597
205	0xbdfd55d6	-0.123698875
206	0xbe328a10	-0.17435479
207	0x3d89ea43	0.06734135
208	0x3d11df4a	0.035613336
209	0xbd4614ed	-0.0483598
210	0x3e257b27	0.1616026
211	0xbdc282df	-0.09497618
212	0xbe024aa7	-0.1272379
213	0x3cd7168f	0.026255874
214	0x3de200a1	0.11035276
215	0xbc6ee091	-0.014579908
216	0xbd1695b9	-0.03676388
217	0xbe556dd8	-0.20842683
218	0x3e5fc559	0.21852626
219	0xbbaaeebe	-0.0052164486
220	0x3d1770b0	0.0369727
221	0xbdb48a65	-0.08815459
222	0xbe34cea8	-0.17656958
223	0x3e3f9423	0.18708853
224	0x3db7ec97	0.08980673
225	0xbdc47f47	-0.09594589
226	0xbe327540	-0.1742754
227	0xbd2dfb34	-0.042475894
228	0x3e22fbb4	0.1591633
229	0x3e1e8bc9	0.15483011
230	0x3d151efd	0.036406506
231	0x3bf674d8	0.007521253
232	0xbde61daa	-0.11236127
233	0x3e30feb8	0.17284667
234	0x3e237510	0.15962625
235	0xbea7b7be	-0.32757372
236	0x3df5d51f	0.1200354
237	0x3d38c787	0.04511216
238	0xbe80541e	-0.25064176
239	0xbeb3e67a	-0.35136777
240	0x3e812f97	0.2523162
241	0x3d6fbbfc	0.058528885
242	0xbb8e1801	-0.0043363576
243	0x3dd4a253	0.103825234
244	0x3deb1f75	0.11480609
245	0x3d18b971	0.037286226
246	0x3db72fd3	0.089446686
247	0x3d3371d5	0.04380973
248	0xbd419c30	-0.047268093
249	0x3c90eebd	0.017691964
250	0x3d1905f0	0.037359178
251	0x3e00dbd3	0.12583856
252	0x3d643bc2	0.055721052
253	0x3cd3d961	0.02586049
254	0xbcf385ab	-0.029726824
255	0x3e5c2b51	0.21500899

lstm.weight_hh_l0 f4 [128, 32]
0	0x3e256044	0.16150004
1	0x3ded59d6	0.115894005
2	0x3c9d2dc0	0.019186854
3	0x3da25f25	0.07928304
4	0xbd828fd9	-0.06375093
5	0x3e0805ca	0.13283458
6	0x3dc58f61	0.09646488
7	0x3de8cab9	0.11366791
8	0xbdf50a21	-0.119648226
9	0x3dd50129	0.10400612
10	0xbce2cc8e	-0.02768543
11	0x3dfe6003	0.124206565
12	0x3e2d911d	0.16949888
13	0xbbea6972	-0.0071536833
14	0xbdd1ecd6	-0.10250251
15	0xbc96f5d6	-0.01842777
16	0x3daa0884	0.083024055
17	0x3de988a1	0.11403013
18	0xbda55e17	-0.08074587
19	0xbe3fd6f2	-0.18734339
20	0xbe386124	-0.18005806
21	0x3d90779b	0.07054063
22	0x3df456a4	0.11930588
23	0x3dff65af	0.124705665
24	0x3bc1d617	0.005915414
25	0x3d34081c	0.043953046
26	0x3d1ecab8	0.038767546
27	0xbd09fa75	-0.03368612
28	0xbe1f3d65	-0.15550764
29	0x3ca9feaf	0.020751325
30	0xbe51759c	-0.2045502
31	0x3e2109a5	0.15726335
32	0x3d948384	0.07251647
33	0x3e871363	0.26381978
34	0x3e29db89	0.16587652
35	0x3e5bc524	0.21461922
36	0xbd7d2c86	-0.06181004
37	0x3e4dd8d3	0.20102243
38	0xbde7bd29	-0.11315376
39	0x3da7b90a	0.0818959
40	0x3e0105ff	0.12599944
41	0x3dce08cd	0.10060272
42	0x3d52f7f4	0.051505998
43	0xbe07070c	-0.13186282
44	0x3e83539c	0.25649726
45	0xbda728ab	-0.08162054
46	0xbe0cfa67	-0.13767396
47	0xbd77b5d1	-0.060476128
48	0x3e186a59	0.14884318
49	0x3d035e84	0.03207256
50	0xbe3377ef	-0.1752622
51	0xbec64293	-0.38722667
52	0x3ea1752a	0.31534702
53	0xbdaf7b16	-0.08568399
54	0xbe20690b	-0.1566507
55	0x3d615c8f	0.05501991
56	0x3e2968a0	0.16543818
57	0x3caefe10	0.02136138
58	0xbe40978d	-0.18807812
59	0xbe00881e	-0.12551925
60	0x3d54a01b	0.0519105
61	0xbce5ed06	-0.028067123
62	0xbe965f6f	-0.29369685
63	0xbdee2a01	-0.11629105
64	0x3d83b4da	0.06430979
65	0x3da084e9	0.078378506
66	0xbcb40232	-0.021973703
67	0x3d0fe343	0.035128843
68	0xbe2ddb8d	-0.16978283
69	0xbc9d5b37	-0.019208534
70	0x3dd0d633	0.10197105
71	0xbdeb9110	-0.11502278
72	0x3d53b615	0.05168732
73	0xbca53b20	-0.020169795
74	0xbe2d700c	-0.16937274
75	0x3dddf6ec	0.10838112
76	0x3dad9bef	0.084770076
77	0x3e2c5c48	0.16832078
78	0x3df7cf17	0.12100046
79	0x3daa26e4	0.08308199
80	0x3e2762ca	0.16346279
81	0x3d9a8cf6	0.075464174
82	0xbd4a5696	-0.04939898
83	0xbd87783a	-0.06614728
84	0xbe23a882	-0.1598225
85	0xbbd1fb78	-0.0064081512
86	0xbdf2a1f4	-0.11847296
87	0xbd40bee9	-0.047057066
88	0xbe129671	-0.14315201
89	0x3d037851	0.032097165
90	0xbe04cffc	-0.12969965
91	0xbca0c5a3	-0.01962549
92	0xbe1cbf04	-0.15307242
93	0xbc6f4dc9	-0.014605948
94	0x3db32888	0.08747965
95	0x3ddc2d39	0.10750813
96	0xbe4b559c	-0.19856876
97	0x3df84c4c	0.121239275
98	0xbdeb82ec	-0.11499581
99	0x3da05d8f	0.07830345
100	0xbc744c6b	-0.014910798
101	0x3c9da986	0.019245874
102	0x3df2cc89	0.11855418
103	0xbdec3d62	-0.11535145
104	0xbdd659ec	-0.1046637
105	0x3e0c14b7	0.13679777
106	0x3e2844cc	0.16432494
107	0x3e04c7e9	0.12966885
108	0x3e169a5d	0.14707322
109	0xbdccec29	-0.100059815
110	0xbd5a53df	-0.053302642
111	0x3e536da8	0.206473
112	0x3e25e5cd	0.16200943
113	0xbdb346c0	-0.08753729
114	0xbe022c95	-0.12712319
115	0x3e03480b	0.12820451
116	0x3dc8c0b7	0.098023824
117	0xbe1a180d	-0.15048237
118	0xbe0c4301	-0.13697435
119	0x3e4742a7	0.1945902
120	0xbdfed0a0	-0.12442136
121	0xbcfdbec5	-0.030974755
122	0x3d9641e1	0.07336784
123	0x3cea5b7f	0.028608082
124	0x3d0847a7	0.033271458
125	0x3db298e5	0.087205686
126	0x3db2177b	0.08695885
127	0x3c7924fd	0.015206573
128	0xbd60fece	-0.0549305
129	0xbd0084cd	-0.03137665
130	0x3da8199f	0.08208012
131	0x3dbd5475	0.092446245
132	0x3dacd97d	0.0843992
133	0x3da9faf4	0.08299819
134	0xbddb7239	-0.107151456
135	0x3d9653ee	0.07340227
136	0xbcb8b5be	-0.022547599
137	0xbdd9a1d9	-0.10626573
138	0x3dc3c37c	0.0955877
139	0x3c988044	0.01861585
140	0x3cbdf6d6	0.02318899
141	0x3d4971a6	0.04918065
142	0xbe0cc254	-0.13746005
143	0x3e0c4ed5	0.13701947
144	0xbd8a4204	-0.06750873
145	0x3dda3b38	0.10655826
146	0x3e56c849	0.2097484
147	0xbdcec6ef	-0.10096537
148	0xbe5ca23f	-0.21546267
149	0xbb843234	-0.004034305
150	0xbdb58a11	-0.08864225
151	0x3d367a4f	0.044550236
152	0x3e1eab95	0.15495141
153	0x3cdfa6a5	0.027301142
154	0xbe1046f8	-0.14089572
155	0xbdd09ddf	-0.101863615
156	0xbd9b108c	-0.075715154
157	0x3dcd8990	0.100360036
158	0xbd4cafb1	-0.04997224
159	0x3e0743f3	0.13209514
160	0x3c6abe05	0.014327531
161	0x3d22c3f6	0.039737664
162	0xbd4b8274	-0.049684957
163	0x3e0ed672	0.13948992
164	0xbe380f0d	-0.17974491
165	0x3cc8260e	0.024432208
166	0x3e22cb76	0.15897927
167	0xbe258b75	-0.1616648
168	0x3e017862	0.12643579
169	0xbdc30313	-0.09522071
170	0x3dcae04c	0.099060625
171	0xbe0843bf	-0.13307093
172	0x3e463b58	0.19358575
173	0x3dec00df	0.11523604
174	0xbdeed26e	-0.1166123
175	0xbe1a4e21	-0.15068866
176	0x3dfe73d7	0.124244384
177	0xbcf1f696	-0.029536527
178	0x3db6d4b9	0.089272924
179	0xbe1425fa	-0.14467612
180	0x3d9f44b7	0.07776778
181	0x3d142ff8	0.03617856
182	0xbce5916b	-0.028023442
183	0xbc2b6f5c	-0.010463562
184	0x3dd57e9e	0.10424541
185	0x3d364982	0.044503696
186	0xbdb97bf5	-0.09056846
187	0xbe489e3a	-0.19591609
188	0xbc1da726	-0.009622371
189	0x3de884d5	0.11353461
190	0x3cbc9379	0.02301954
191	0xbdf81d1c	-0.12114927
192	0x3b0a37fa	0.0021090494
193	0xbd941c70	-0.072319865
194	0xbd02dbf6	-0.031948052
195	0x3dcaa192	0.09894098
196	0xbe0eb5a7	-0.13936482
197	0x3c21f97b	0.009886141
198	0xbcf753c2	-0.030191306
199	0x3d187899	0.037224386
200	0xbcab5701	-0.02091551
201	0xbe0408d2	-0.1289399
202	0x3dbac798	0.09120101
203	0xbda5e95f	-0.08101153
204	0xbdc95c21	-0.09832025
205	0xbd296554	-0.0413564
206	0x3d997e7f	0.0749483
207	0xbd0d2f26	-0.034468792
208	0x3e356d06	0.1771737
209	0xbbc3b600	-0.005972624
210	0x3e0ca2ac	0.1373393
211	0x3e0af10d	0.13568516
212	0xbe53da6b	-0.20688789
213	0x3e1322c0	0.14368725
214	0x3c1ba34d	0.009499383
215	0x3de857ac	0.11344847
216	0x3dc328ec	0.095292896
217	0xbd8e6af9	-0.06953997
218	0xbd906549	-0.070505686
219	0x3bbc7335	0.0057510384
220	0x3cd74b12	0.026280914
221	0x3de20cc7	0.11037593
222	0x3deb2ee4	0.11483553
223	0x3e471f05	0.19445427
224	0xbe453869	-0.192598
225	0x3e21be66	0.15795287
226	0x3d4f12cc	0.050555035
227	0xbd79b6e2	-0.060965426
228	0xbe0b3bc5	-0.13597019
229	0x3e2ef332	0.17084959
230	0xbd9bb3be	-0.076026425
231	0x3d2be6b6	0.04196807
232	0xbdd4bc50	-0.1038748
233	0xbdee2215	-0.116275944
234	0x3e0acab5	0.13553889
235	0xbe122bc9	-0.14274515
236	0x3c223229	0.009899654
237	0x3e4194c0	0.189044
238	0x3e058ae5	0.13041265
239	0x3ca69332	0.02033386
240	0xbdb3c7d2	-0.08778347
241	0xbe34ec32	-0.17668226
242	0xbe20c9d8	-0.15701997
243	0xbdab9395	-0.083777584
244	0x3e9b57b3	0.30340347
245	0xbd943e39	-0.072384305
246	0xbe742452	-0.2384198
247	0x3b899984	0.0041992087
248	0xbe5294e4	-0.2056461
249	0x3b4da1e4	0.0031377012
250	0xbe01d7d1	-0.12679984
251	0x3e234014	0.15942413
252	0x3c08bb87	0.008345491
253	0xbd7b95fe	-0.06142234
254	0x3e409a16	0.18808779
255	0x3d7edd93	0.06222303

lstm.bias_ih_l0 f4 [128]
0	0x3e28d262	0.16486505
1	0xbe04a464	-0.12953335
2	0x3e31cff3	0.17364483
3	0x3e1d8032	0.15380934
4	0xbe0cd9f7	-0.13755022
5	0xbdd6d6c0	-0.10490179
6	0x3d84abc9	0.06478078
7	0x3d49a0ad	0.049225498
8	0x3e30e423	0.17274527
9	0xbe234942	-0.15945914
10	0xbdef59e3	-0.116870664
11	0xbc3fe4a8	-0.011712231
12	0xbd5516a4	-0.052023545
13	0xbd37cb29	-0.044871483
14	0xbde1506e	-0.11001669
15	0x3e0ca16a	0.1373345
16	0x3d1a48fb	0.037667256
17	0x3dde9f60	0.10870242
18	0xbe06d5e5	-0.13167532
19	0xbc664a31	-0.014055775
20	0x3d1282a7	0.03576913
21	0xbe1a9136	-0.15094456
22	0x3e03e776	0.12881264
23	0xbe0647e8	-0.13113368
24	0xbe222b34	-0.15836793
25	0xbd7e23f5	-0.06204601
26	0x3e08808d	0.13330288
27	0x3c023c0a	0.007948885
28	0x3d222702	0.039587982
29	0x3d0bad7b	0.03410099
30	0x3e510413	0.2041171
31	0x3da202b0	0.07910669
32	0x3de4f8e9	0.11180288
33	0x3bfb410d	0.0076676668
34	0xbdd0bf71	-0.101927646
35	0x3e1f593f	0.15561388
36	0xbd49921d	-0.04921161
37	0x3d4be1dc	0.049775943
38	0xbd81f900	-0.06346321
39	0xbdb8dae3	-0.09026124
40	0xbe026a01	-0.1273575
41	0xbcac1e4f	-0.021010546
42	0x3de3e5a2	0.11127783
43	0xbe0d5b47	-0.13804351
44	0xbdcd4b85	-0.1002417
45	0x3acac4da	0.0015470043
46	0xbd1d9570	-0.038472593
47	0xbe0386f7	-0.12844454
48	0x3c63c2ff	0.013901471
49	0x3e2eb7fc	0.17062372
50	0x3e086e8d	0.13323422
51	0x3d6f0997	0.058358755
52	0x3e15a4fd	0.1461372
53	0xbd75b0de	-0.059983127
54	0xbe2f0919	-0.17093314
55	0x3d68decb	0.056853097
56	0x3d443cc9	0.04790953
57	0xbd88e8d5	-0.06685034
58	0xbe23afa6	-0.15984973
59	0xbd446425	-0.047947068
60	0x3e15ae33	0.14617233
61	0x3de7ad92	0.11312403
62	0xbcd91457	-0.026498957
63	0x3cf7a720	0.030231059
64	0xbe26cba9	-0.16288628
65	0xbcf40a2e	-0.02979001
66	0x3e02e4b8	0.12782562
67	0xbd844dba	-0.06460138
68	0x3c876339	0.016526805
69	0xbe08bbb9	-0.1335286
70	0x3e2cf75a	0.16891232
71	0x3cacc78c	0.021091245
72	0x3d2cb98f	0.04216915
73	0xbe238cdd	-0.15971704
74	0x3e13f55d	0.14449067
75	0x3e2f0720	0.17092562
76	0xbe163f21	-0.1467252
77	0xbe0ec737	-0.13943182
78	0xbe18df9c	-0.1492905
79	0xbd92b016	-0.07162492
80	0xbdd0bd7c	-0.10192391
81	0x3d15bff2	0.036560006
82	0x3e059534	0.13045198
83	0x3d37a1df	0.044832107
84	0x3dfec375	0.12439624
85	0x3d503874	0.050835088
86	0x3d9cc378	0.0765447
87	0xbe2e7f9f	-0.17040871
88	0x3d212556	0.039342247
89	0x3d83752f	0.06418835
90	0x3dc5855c	0.09644577
91	0x3e2764a9	0.16346993
92	0xbda77c0d	-0.08177958
93	0xbe1515cb	-0.14559095
94	0x3c7fa19d	0.015602496
95	0x3dc583c7	0.09644275
96	0xbbb65119	-0.005563867
97	0x3e34debe	0.17663094
98	0xbde26cb1	-0.110558875
99	0xbe25f6eb	-0.16207473
100	0xbd5b1eae	-0.053496055
101	0x3e1923ba	0.14955035
102	0x3d07a067	0.033111956
103	0xbdaf669c	-0.08564493
104	0xbca36663	-0.019946283
105	0xbce83138	-0.028343782
106	0x3d33bb59	0.04387984
107	0xbd53fb52	-0.05175335
108	0x3e107eb5	0.14110835
109	0x3e2c5669	0.16829838
110	0xbe55e936	-0.20889744
111	0xbdecdccb	-0.115655504
112	0x3d82e2d5	0.06390921
113	0xbe0a9e90	-0.1353705
114	0x3e2202b7	0.15821348
115	0x3e1c4523	0.15260749
116	0xbe2a2bbf	-0.1661825
117	0x3e09af80	0.13445854
118	0x3cc413e5	0.023935268
119	0xbe07b1e4	-0.13251454
120	0x3e04fbe8	0.1298672
121	0xbdfced9b	-0.12350007
122	0x3d259581	0.04042578
123	0x3cc6eac6	0.02428187
124	0xbe3dea42	-0.18546394
125	0x3ccab88b	0.0247462
126	0xbd353ec9	-0.04424933
127	0xbdc5129b	-0.09622689

lstm.bias_hh_l0 f4 [128]
0	0x3dcfc92f	0.101457946
1	0x3d06c53d	0.032902945
2	0xbe256471	-0.16151597
3	0xbd697491	-0.056995932
4	0xbdabecdc	-0.08394787
5	0x3dcc6443	0.09980061
6	0xbdec4f8a	-0.11538608
7	0x3e08a1b4	0.13342935
8	0xbdaf16bf	-0.0854926
9	0x3db984ca	0.09058531
10	0xbd8a1bd1	-0.06743587
11	0xbdbca51f	-0.09211182
12	0x3e6321c2	0.22180846
13	0xbdc41825	-0.09574918
14	0x3e0f484c	0.13992423
15	0xbd886abc	-0.06660983
16	0xbd77333b	-0.06035159
17	0xbde8d662	-0.11369015
18	0xbe01c98e	-0.12674543
19	0x3e6f467d	0.23366733
20	0xbe34b3cf	-0.17646717
21	0x3c82e236	0.015977006
22	0x3d647c68	0.055782706
23	0xbe0385e7	-0.12844048
24	0x3d923659	0.07139272
25	0xbd9a8328	-0.07544547
26	0x3d4f0944	0.050545946
27	0x3e223390	0.15839982
28	0xbe205a9b	-0.15659563
29	0x3dae11bf	0.084994785
30	0x3de6167f	0.112347595
31	0xbc852577	-0.016253216
32	0x3d499e3a	0.049223162
33	0x3ddc1f38	0.10748142
34	0x3e3c1d65	0.18370588
35	0x3d99c391	0.075080045
36	0x3d89a837	0.067215376
37	0xbdec2eea	-0.11532386
38	0x3e1ed80e	0.15512106
39	0xbd309851	-0.04311401
40	0xbce99ca6	-0.028517079
41	0xbbaeb165	-0.0053312057
42	0x3e00ac09	0.12565626
43	0x3e387dbd	0.18016715
44	0xbe0877c6	-0.1332694
45	0x3d9cc24a	0.07654245
46	0xbddbb4f2	-0.10727872
47	0xbdc9d662	-0.098553434
48	0xbc772c0c	-0.015086185
49	0x3cfc4964	0.030796714
50	0xbd447aa5	-0.047968525
51	0x3d8459ef	0.06462466
52	0xbddc8e24	-0.10769299
53	0x3d4360d0	0.04769975
54	0x3c719351	0.014744596
55	0xbd8327ee	-0.064041
56	0x3ddeb50d	0.108743764
57	0x3e342dfd	0.17595668
58	0x3d9ef8cf	0.077623
59	0xbd50639f	-0.050876256
60	0xbd414a91	-0.047190253
61	0xbc2e3dc5	-0.010634844
62	0x3e17d4c5	0.14827259
63	0xbe196002	-0.1497803
64	0x3e2455d7	0.1604837
65	0xbdd50cb8	-0.104028165
66	0xbe2273e4	-0.15864521
67	0xbcfd0af2	-0.030889008
68	0xbd9455d3	-0.07242932
69	0x3df583b7	0.11988013
70	0x3e08f208	0.13373578
71	0x3bf2cdbb	0.007409779
72	0x3d2bb427	0.041919854
73	0xbd23c5f2	-0.039983697
74	0xbda8a694	-0.08234897
75	0x3e2f3e80	0.17113686
76	0x3e3ca482	0.1842213
77	0x3d9faa10	0.07796109
78	0x3dc70e86	0.09719567
79	0xbe114524	-0.14186531
80	0x3d69af40	0.057051897
81	0x3d1d7d00	0.038449287
82	0xbe41a1a7	-0.18909322
83	0x3d8320bb	0.06402727
84	0xbe01d156	-0.12677512
85	0x3e0ca1dd	0.13733621
86	0x3c416f6b	0.011806349
87	0x3e0bf626	0.13668117
88	0xbc8003da	-0.015626837
89	0xbe028c0e	-0.12748739
90	0xbc1f8f86	-0.0097388085
91	0xbe11bae1	-0.14231445
92	0xbe106646	-0.14101514
93	0xbc79086e	-0.015199764
94	0x3cb49bcc	0.022046946
95	0x3c9d70d8	0.019218847
96	0x3e00429d	0.12525411
97	0xbd84eb75	-0.06490222
98	0xbdb6c897	-0.08924978
99	0x3caf1fb2	0.021377418
100	0x3d12a239	0.03579924
101	0x3c0d6319	0.008629584
102	0xbdfe5281	-0.1241808
103	0xbe31cb84	-0.17362791
104	0xbdcc349b	-0.09970971
105	0x3ce0521c	0.027382903
106	0x3d464051	0.04840118
107	0x3e316c97	0.1732658
108	0xbc4017ac	-0.011724394
109	0xbd9fc713	-0.07801642
110	0xbd80b206	-0.06283955
111	0x3e3a2ad0	0.18180394
112	0xbe1a9242	-0.15094855
113	0x3dc66f98	0.096892536
114	0xbd7d96e7	-0.06191149
115	0x3e688099	0.22705306
116	0x3dd54c78	0.10414976
117	0x3d5d135a	0.053973533
118	0xbae9e1fa	-0.0017843836
119	0xbd69376e	-0.056937627
120	0xbe30cb72	-0.17265108
121	0x3d9882e4	0.074468404
122	0xbdd26e75	-0.10274974
123	0xbde846ff	-0.113416664
124	0xbdff486d	-0.12464986
125	0x3af7e08d	0.0018911526
126	0x3e26c88c	0.1628744
127	0x3d9f5c51	0.0778128

hidden2out.weight f4 [2, 32]
0	0x3dae553d	0.08512352
1	0x3aa26b15	0.0012391532
2	0x3c1b9588	0.0094961
3	0xbe5e1a4d	-0.2168972
4	0xbda84583	-0.08216383
5	0xbbe3f295	-0.0069564083
6	0x3d6ce954	0.057839707
7	0x3dc3fc3e	0.09569596
8	0x3e88d146	0.26722163
9	0xbddc75ad	-0.107646324
10	0xbdb4df9e	-0.08831714
11	0x3e625e47	0.22106276
12	0x3ced3970	0.028958052
13	0x3caec078	0.02133201
14	0xbc82ed56	-0.015982311
15	0xbb9146e7	-0.004433501
16	0xbe811dc6	-0.25218028
17	0x3e534835	0.20633014
18	0xbe195f05	-0.14977653
19	0x3e3ecd11	0.18632914
20	0xbe4c4bf1	-0.19950844
21	0x3d503feb	0.050842207
22	0x3e23b890	0.15988374
23	0x3d7f4f42	0.062331446
24	0x3db1c7de	0.086807
25	0x3e8aa8b7	0.27081844
26	0x3ccf1768	0.025279716
27	0xbe7f1c87	-0.24913226
28	0x3b4b2349	0.0030996373
29	0xbd153224	-0.03642477
30	0x3d4da41e	0.050205342
31	0xbd11a333	-0.03555603
32	0x3e090a5d	0.1338286
33	0x3d2816e5	0.04103746
34	0x3e13ce07	0.14434062
35	0x3d835b78	0.06413931
36	0xbde64d59	-0.11245222
37	0x3c856c3c	0.016286962
38	0x3e0daed5	0.13836224
39	0xbe159687	-0.14608203
40	0x3d37fa15	0.04491623
41	0x3e0f96eb	0.14022414
42	0xbe1ea782	-0.15493587
43	0x3e3acf36	0.18243107
44	0x3e5c4dc3	0.21514039
45	0xbe0eedcc	-0.139579
46	0x3d97d0f3	0.07412901
47	0x3da84fc3	0.08218338
48	0x3dcae9cc	0.099078745
49	0x3dc42a44	0.09578374
50	0xbd94808a	-0.072510794
51	0xbdf9bd5e	-0.12194322
52	0x3d1e6bc2	0.038676985
53	0xbe052f3d	-0.13006301
54	0x3b8697b5	0.0041074404
55	0xbe530127	-0.20605908
56	0xbe046158	-0.12927759
57	0xbd8404c6	-0.06446223
58	0xbe23853b	-0.15968792
59	0xbd770674	-0.06030889
60	0x3da008cb	0.07814177
61	0x3b37016a	0.0027924427
62	0xbe06c93d	-0.13162704
63	0x3d9ff33e	0.07810067

hidden2out.bias f4 [2]
0	0x3e43d7d8	0.19125307
1	0xbe237839	-0.1596383

std_layer.weight f4 [2, 32]
0	0x3e0c38b3	0.13693504
1	0x3e02be60	0.12767935
2	0x3d0bd92b	0.034142654
3	0xbdcb0f7f	-0.09915065
4	0xbd70a7c3	-0.05875374
5	0xbd8095cc	-0.062785715
6	0xbd977784	-0.07395843
7	0x3dd39f76	0.10333149
8	0xbe31cf16	-0.17364153
9	0xbc41d3ce	-0.011830283
10	0x3e18f9d5	0.14939053
11	0x3ddc2fc4	0.10751298
12	0xbe097461	-0.13423301
13	0x3da84ba4	0.08217552
14	0xbe1ea6d9	-0.15493335
15	0xbe1cdfd5	-0.1531976
16	0x3e342c86	0.1759511
17	0xbcb8052d	-0.022463406
18	0xbe300927	-0.17190991
19	0xbe153c03	-0.14573674
20	0x3aac8dab	0.0013164779
21	0x3b8cd7ba	0.0042981775
22	0x3df674d1	0.12034
23	0xbd5df29d	-0.054186452
24	0x3dab3765	0.08360175
25	0x3d4fa685	0.050695915
26	0x3dc07d99	0.09398956
27	0xbe31e84e	-0.17373773
28	0xbdb429b4	-0.08797017
29	0xbe0f09eb	-0.13968627
30	0x3d207945	0.03917815
31	0xbe019686	-0.12655076
32	0xbde21672	-0.11039437
33	0x3d167f11	0.036742274
34	0x3d8decd9	0.06929941
35	0x3d774a6e	0.060373716
36	0x3e00270f	0.125149
37	0xbe33860e	-0.17531607
38	0xbcf48555	-0.029848734
39	0x3e293277	0.16523157
40	0x3d2e72f7	0.042590108
41	0x3d785464	0.060627356
42	0x3e293f45	0.16528042
43	0x3de2b832	0.11070289
44	0xbe256de7	-0.16155206
45	0xbd9c1c26	-0.076225564
46	0xbc0b6c46	-0.008509701
47	0xbd82d614	-0.063884884
48	0x3e24d088	0.16095173
49	0xbde3a7ac	-0.11115965
50	0x3c0c8817	0.008577368
51	0x3e059241	0.13044073
52	0xbe31e63c	-0.17372984
53	0xbdea7d7d	-0.11449716
54	0x3e26ce1b	0.1628956
55	0xbe2a0399	-0.16602935
56	0x3e14ed45	0.14543636
57	0x3d887ce8	0.06664449
58	0xbe250742	-0.1611605
59	0x3e31f547	0.17378722
60	0xbbc4d24f	-0.006006516
61	0x3c8d128d	0.01722076
62	0x3e1b5386	0.1516858
63	0x3cc37e96	0.023864072

std_layer.bias f4 [2]
0	0x3d61c3bf	0.05511832
1	0xbd01948b	-0.031635802

exp_avg f4 [128, 10]
0	0xb902f2cf	-0.0001248822
1	0xb7f80f9b	-2.957117e-05
2	0xb8d286a5	-0.0001003866
3	0xb8cdd358	-9.8145276e-05
4	0xb8052100	-3.1740405e-05
5	0x3809120b	3.268015e-05
6	0xb51b6d57	-5.790111e-07
7	0xb902875e	-0.00012448194
8	0xb737996d	-1.0943372e-05
9	0x36ed5cb3	7.073942e-06
10	0x3796a151	1.7956512e-05
11	0x37deadff	2.6545486e-05
12	0xb5c76263	-1.485529e-06
13	0x368cd3d0	4.1969834e-06
14	0x330b0503	3.2368018e-08
15	0x36132ca6	2.1930696e-06
16	0xb2f11431	-2.8065275e-08
17	0xb798be56	-1.8208444e-05
18	0xb57f4ca0	-9.5106407e-07
19	0x331b37ca	3.613949e-08
20	0xb91f51b1	-0.00015193854
21	0xb97aa6d7	-0.0002390401
22	0x368d18b6	4.205004e-06
23	0xb838e808	-4.4085114e-05
24	0xb809c5ab	-3.2847438e-05
25	0x37867676	1.6029207e-05
26	0xb4b6dd98	-3.4061372e-07
27	0xb814b6c9	-3.545618e-05
28	0xb7652ea9	-1.3660328e-05
29	0x368dccfd	4.2259912e-06
30	0x37dde067	2.6449748e-05
31	0x35be0a10	1.4159032e-06
32	0x37e4c3c5	2.727088e-05
33	0x37c3c9ec	2.3339839e-05
34	0x36a254ab	4.837833e-06
35	0xb699d519	-4.584563e-06
36	0x33b0723c	8.216418e-08
37	0x3792be4d	1.7493172e-05
38	0xb580ca1e	-9.595567e-07
39	0xb59684c3	-1.121451e-06
40	0xb90e2f40	-0.00013559777
41	0x37a0dbfd	1.9175926e-05
42	0xb94f6f2f	-0.00019782477
43	0xb927d19f	-0.00016004451
44	0xb8847f18	-6.3179235e-05
45	0x38927b2d	6.984766e-05
46	0xb58605f0	-9.985506e-07
47	0xb993fad0	-0.00028224895
48	0xb615e889	-2.2338083e-06
49	0x3760c6fd	1.3397771e-05
50	0x38d46df8	0.00010129431
51	0x398f547d	0.00027338034
52	0xb8d51755	-0.000101609774
53	0xb85380cc	-5.042627e-05
54	0xb792ee60	-1.7515558e-05
55	0x37aaeedd	2.0376809e-05
56	0xb488d98e	-2.5490266e-07
57	0xb8e674ee	-0.000109890345
58	0x371be8bc	9.292908e-06
59	0x365c13b3	3.279402e-06
60	0xb98994d5	-0.00026241565
61	0xb9a60a4d	-0.00031669662
62	0xb8e84443	-0.00011075337
63	0xb8e80e46	-0.00011065281
64	0xb83776a8	-4.3741107e-05
65	0x38844710	6.307487e-05
66	0xb562a44d	-8.443065e-07
67	0xb966d173	-0.00022012535
68	0xb77fbfb3	-1.5243818e-05
69	0x3743d29d	1.1671943e-05
70	0x38fe05eb	0.00012112766
71	0x3957c399	0.00020576864
72	0xb7f72d1c	-2.94657e-05
73	0x371c60e9	9.320888e-06
74	0x3703dca5	7.859581e-06
75	0xb64a5a07	-3.0152748e-06
76	0x340d4918	1.315824e-07
77	0xb7521619	-1.252212e-05
78	0x3746ba97	1.18451635e-05
79	0xb5c4e47d	-1.4669637e-06
80	0xb88e2d0a	-6.779477e-05
81	0xb6e1e06b	-6.731648e-06
82	0xb8a787a0	-7.988443e-05
83	0xb883d32a	-6.285899e-05
84	0xb7afa17a	-2.0936819e-05
85	0x37efc8b5	2.8584482e-05
86	0xb4eebc0c	-4.4467777e-07
87	0xb8f0cc8a	-0.0001148219
88	0xb6971e45	-4.5036745e-06
89	0x36af6d6f	5.228146e-06
90	0x3686d261	4.0180025e-06
91	0xb7805171	-1.5296713e-05
92	0x372d34ff	1.0323943e-05
93	0x36889c84	4.0713367e-06
94	0xb692fd6c	-4.3806413e-06
95	0xb5db3d20	-1.6334561e-06
96	0x32300d85	1.0247622e-08
97	0x370cadd7	8.3851255e-06
98	0xb4332e7c	-1.6687585e-07
99	0xb3cbcaa9	-9.489788e-08
100	0xb8c9bd47	-9.6196825e-05
101	0x3a222d8b	0.0006186596
102	0xba266a11	-0.00063482026
103	0xb9dea896	-0.00042468746
104	0xb8e1e1fc	-0.00010770929
105	0x392d1799	0.00016507356
106	0xb60d7878	-2.108076e-06
107	0xba38a334	-0.0007043362
108	0x37d9313a	2.5891339e-05
109	0x37fd7955	3.021645e-05
110	0xb9f61637	-0.00046937328
111	0xba2637c4	-0.0006340707
112	0x36ec166e	7.0359592e-06
113	0xb8fb7e89	-0.00011992182
114	0xb89a395d	-7.353977e-05
115	0x381baaf4	3.7114092e-05
116	0xb58fec7d	-1.0723157e-06
117	0xb8b460a6	-8.601071e-05
118	0xb862a921	-5.4040112e-05
119	0x373e928e	1.1359005e-05
120	0xb8502aca	-4.9630915e-05
121	0x390a5eab	0.00013195972
122	0xb945f8d5	-0.00018880081
123	0xb923e331	-0.00015629527
124	0xb8a3628f	-7.790804e-05
125	0x387659bb	5.873454e-05
126	0xb5762269	-9.1692215e-07
127	0xb984a632	-0.00025300827
128	0x36158e6a	2.2285626e-06
129	0x37423b31	1.1577083e-05
130	0xb91cd331	-0.00014955994
131	0xb92dc5b5	-0.00016572217
132	0xb7b0e68c	-2.1088192e-05
133	0xb85162a4	-4.992135e-05
134	0xb7e60f8e	-2.742538e-05
135	0x37b92eda	2.2075536e-05
136	0xb5048d96	-4.9379867e-07
137	0xb8a8d172	-8.0498765e-05
138	0xb7bc431e	-2.24426e-05
139	0x36a56e00	4.930189e-06
140	0xb6c2b89c	-5.803142e-06
141	0xb74b3a58	-1.2113327e-05
142	0xb57ed4b5	-9.4931903e-07
143	0xb7077d68	-8.0758255e-06
144	0xb7230d84	-9.718704e-06
145	0x3513ed15	5.5106767e-07
146	0xb34bc999	-4.7447973e-08
147	0xb5e5d520	-1.7123857e-06
148	0x33d35134	9.840224e-08
149	0x3509e8b4	5.1375105e-07
150	0x38fcf3b8	0.000120616925
151	0x39b94d2c	0.00035343447
152	0xb9112439	-0.00013841772
153	0xb888ce90	-6.5234606e-05
154	0xb78c45cf	-1.6721808e-05
155	0x37d6d5a5	2.5610274e-05
156	0xb4a596a2	-3.0843245e-07
157	0xb914ebe8	-0.00014202262
158	0x37501f79	1.2405094e-05
159	0x3686249d	3.9977735e-06
160	0x3827961f	3.9955714e-05
161	0x38195e25	3.656572e-05
162	0x373236d4	1.0622392e-05
163	0x3799037d	1.8240646e-05
164	0x36500cdd	3.1001903e-06
165	0xb5b505c2	-1.3487227e-06
166	0x334f0704	4.8202324e-08
167	0xb67c5804	-3.7602158e-06
168	0xb30d49c2	-3.2896203e-08
169	0xb543fb23	-7.3008613e-07
170	0xb7300969	-1.0492608e-05
171	0x3920c0e0	0.0001533064
172	0xb914d039	-0.00014191949
173	0xb8bb4a5e	-8.930707e-05
174	0xb7c10b5d	-2.3012684e-05
175	0x381ff589	3.8137227e-05
176	0xb506f527	-5.0275634e-07
177	0xb931edf7	-0.00016968684
178	0x36a510df	4.9193472e-06
179	0x36db09cc	6.527849e-06
180	0xb71ce0b7	-9.350645e-06
181	0xb8b0e72b	-8.4353924e-05
182	0x3856800a	5.114082e-05
183	0x3801916e	3.089144e-05
184	0x36c26e17	5.7944667e-06
185	0xb7116459	-8.6660375e-06
186	0x33e29361	1.0550753e-07
187	0x383f2355	4.5570854e-05
188	0xb66f0a16	-3.5619646e-06
189	0xb5c9a800	-1.5024561e-06
190	0x396758ca	0.00022062953
191	0x3a259c5e	0.0006317551
192	0xb99da257	-0.00030066326
193	0xb917a41b	-0.00014461616
194	0xb846b528	-4.7375594e-05
195	0x38b85fc2	8.79164e-05
196	0xb583e13c	-9.825812e-07
197	0xb9cce4cb	-0.00039080376
198	0x37e0a23b	2.6778425e-05
199	0x376d0625	1.4127731e-05
200	0x37229e79	9.69285e-06
201	0xb817ead7	-3.6219917e-05
202	0x38170a37	3.601072e-05
203	0x37c82d97	2.3863087e-05
204	0x3660518d	3.342607e-06
205	0xb6ec25bc	-7.037741e-06
206	0x33e43e54	1.0628415e-07
207	0x380b386e	3.3192737e-05
208	0xb60ae174	-2.0694833e-06
209	0xb5b8922d	-1.3751611e-06
210	0x395d20d0	0.00021088426
211	0x39294fb7	0.00016146792
212	0x38edb67a	0.000113350296
213	0x38eb9c23	0.00011234756
214	0x37f73c2c	2.9472714e-05
215	0xb82efdde	-4.1721265e-05
216	0x35313af4	6.6023426e-07
217	0x391946b1	0.00014617552
218	0x37518c5c	1.2490051e-05
219	0xb714d3b7	-8.870781e-06
220	0x366c6b7e	3.522931e-06
221	0x3784c6cf	1.5828204e-05
222	0xb7331bb0	-1.0675678e-05
223	0xb6c39676	-5.828969e-06
224	0xb60f0210	-2.130986e-06
225	0x36326d90	2.658784e-06
226	0xb31fbd5e	-3.71923e-08
227	0xb748c385	-1.1966452e-05
228	0x353f9f73	7.1385074e-07
229	0x34ed9cf8	4.42589e-07
230	0xb96c834b	-0.00022555624
231	0x3916d24a	0.00014383454
232	0xb9d9faa2	-0.000415762
233	0xb9b6861d	-0.00034813667
234	0xb90a55ac	-0.00013192621
235	0x39019fbd	0.00012361906
236	0xb5e63502	-1.7151763e-06
237	0xba0283fc	-0.00049787736
238	0x36d2c3c9	6.28128e-06
239	0x37cbe506	2.4306133e-05
240	0xb50e04b4	-5.2905966e-07
241	0x36e104e7	6.7060932e-06
242	0xb6c197a5	-5.769502e-06
243	0xb6ced28f	-6.1637907e-06
244	0xb651f582	-3.1286331e-06
245	0x35d87f4e	1.6130305e-06
246	0xb305dc40	-3.1166792e-08
247	0xb6baf712	-5.5719947e-06
248	0x3561ed7d	8.416462e-07
249	0x350d774b	5.270019e-07
250	0x382fb13d	4.1888317e-05
251	0x38cd92f0	9.802531e-05
252	0xb804a114	-3.1621268e-05
253	0xb7474184	-1.1876578e-05
254	0xb4ffbb75	-4.7633844e-07
255	0x36808893	3.8305966e-06

exp_avg_sq f4 [128, 10]
0	0x3418b043	1.4220227e-07
1	0x34f1bbef	4.5026488e-07
2	0x352f3b83	6.527918e-07
3	0x355c1ac4	8.1995336e-07
4	0x34103b15	1.3432539e-07
5	0x32f5deae	2.8623017e-08
6	0x2d26ebc2	9.488356e-12
7	0x352dfac9	6.481246e-07
8	0x31ce0250	5.995652e-09
9	0x30e86d6b	1.691132e-09
10	0x2efc4c8f	1.1473233e-10
11	0x305f151b	8.115692e-10
12	0x2fb3a293	3.2675426e-10
13	0x2f23b49c	1.4888929e-10
14	0x2da4da78	1.8741661e-11
15	0x2d45b6ce	1.1238744e-11
16	0x26e56713	1.5918005e-15
17	0x2fc0dfd1	3.5083628e-10
18	0x2c89fadb	3.9216247e-12
19	0x2acb1a07	3.6078104e-13
20	0x33a1b989	7.5308954e-08
21	0x33f52e0f	1.14170795e-07
22	0x331f69c7	3.7116276e-08
23	0x34843a32	2.462926e-07
24	0x3412dc4a	1.367745e-07
25	0x31049511	1.9293263e-09
26	0x2ca00766	4.548295e-12
27	0x3328637d	3.9206032e-08
28	0x30cd506d	1.4938571e-09
29	0x300ba717	5.0805354e-10
30	0x32b02e0b	2.0510035e-08
31	0x31a37bb9	4.75799e-09
32	0x32fcbbf7	2.9422138e-08
33	0x3371fe49	5.6343456e-08
34	0x32696181	1.3584555e-08
35	0x309bf337	1.134686e-09
36	0x2afdae58	4.5062803e-13
37	0x32fc7773	2.939098e-08
38	0x2f37f902	1.6732218e-10
39	0x2eb21842	8.098812e-11
40	0x33307cd1	4.1091713e-08
41	0x3598f921	1.1397389e-06
42	0x35498392	7.5069795e-07
43	0x34b7dbb9	3.4246276e-07
44	0x3249a760	1.17377965e-08
45	0x33003f28	2.9859763e-08
46	0x2c0b6eb5	1.9814543e-12
47	0x354965b6	7.5026344e-07
48	0x319717a3	4.3973656e-09
49	0x303aeec1	6.8005696e-10
50	0x328a033a	1.6066782e-08
51	0x3427bced	1.5621818e-07
52	0x333eeaa4	4.4451227e-08
53	0x328f4ee3	1.6683265e-08
54	0x30ecaf9c	1.7221171e-09
55	0x30d18eb3	1.5247309e-09
56	0x29fb4440	1.11584787e-13
57	0x333de9b0	4.421753e-08
58	0x2e88eb47	6.2263576e-11
59	0x2e25b1d8	3.7674613e-11
60	0x344cb63d	1.9065278e-07
61	0x35835c70	9.787163e-07
62	0x34935124	2.743992e-07
63	0x33f8cab5	1.1585272e-07
64	0x33b8cff3	8.6059934e-08
65	0x3270d95c	1.401926e-08
66	0x2c805ab9	3.648051e-12
67	0x3497b081	2.8254365e-07
68	0x3195f596	4.3643906e-09
69	0x300f83ce	5.22104e-10
70	0x33094128	3.1957057e-08
71	0x33a2b19e	7.576021e-08
72	0x32405435	1.1195017e-08
73	0x31d071ae	6.0665206e-09
74	0x2fd22793	3.8226897e-10
75	0x302f78d3	6.383633e-10
76	0x299cddc4	6.966262e-14
77	0x3244980f	1.1443276e-08
78	0x2f6c877b	2.1512207e-10
79	0x2d93c5c5	1.6799792e-11
80	0x32d58e50	2.486118e-08
81	0x34a25c08	3.0241813e-07
82	0x34918875	2.710764e-07
83	0x346165cd	2.0991793e-07
84	0x32b99c82	2.1608006e-08
85	0x323d6edb	1.10264535e-08
86	0x2c015097	1.837674e-12
87	0x3490bb67	2.6958443e-07
88	0x310047ab	1.866719e-09
89	0x2fe920e1	4.2405815e-10
90	0x3235adf2	1.0575137e-08
91	0x30179ec8	5.515912e-10
92	0x3207667a	7.881335e-09
93	0x32ebc0b6	2.7445235e-08
94	0x325602ca	1.2457074e-08
95	0x2fd1950b	3.812278e-10
96	0x2aee9a91	4.2384545e-13
97	0x3207099b	7.860218e-09
98	0x2f24b99a	1.4981652e-10
99	0x2e7ee441	5.7955644e-11
100	0x351c3947	5.819788e-07
101	0x36f69f74	7.349934e-06
102	0x36f8d39d	7.415611e-06
103	0x36f71108	7.3631563e-06
104	0x358bcd94	1.0416138e-06
105	0x34a6bf45	3.1059076e-07
106	0x2ea7d0e5	7.631388e-11
107	0x36f74411	7.3690976e-06
108	0x3361ec4a	5.26018e-08
109	0x327ef6b5	1.4840841e-08
110	0x3573afb9	9.0780264e-07
111	0x35cb4b21	1.5146544e-06
112	0x359c6db3	1.1654832e-06
113	0x35a35933	1.2170407e-06
114	0x33e5a9b8	1.0694515e-07
115	0x33698883	5.4373697e-08
116	0x2d4a6d9a	1.1506707e-11
117	0x359baa75	1.159801e-06
118	0x327251e2	1.4104872e-08
119	0x31253755	2.4042113e-09
120	0x33c2d7cf	9.073084e-08
121	0x34f24a39	4.5130017e-07
122	0x340e3289	1.3243165e-07
123	0x33f12556	1.12292284e-07
124	0x33ea3ce7	1.0907552e-07
125	0x31d403c6	6.170441e-09
126	0x2c83cd12	3.7460113e-12
127	0x34126399	1.3633543e-07
128	0x3067495d	8.4141566e-10
129	0x2fe513bc	4.166888e-10
130	0x340478e4	1.2337438e-07
131	0x34650b19	2.1331324e-07
132	0x3460b316	2.0926777e-07
133	0x3457d671	2.0101449e-07
134	0x32cee69a	2.4086422e-08
135	0x3223495b	9.504528e-09
136	0x2c26f275	2.372461e-12
137	0x34608bf4	2.091254e-07
138	0x310bede2	2.0362383e-09
139	0x2ff9ab0e	4.5414378e-10
140	0x30e6b094	1.6784889e-09
141	0x301d22ee	5.7165905e-10
142	0x30e6a4bd	1.6781524e-09
143	0x31d4157d	6.172455e-09
144	0x3187c0f0	3.9509516e-09
145	0x2ede207b	1.0101161e-10
146	0x2a6b0b4e	2.0876115e-13
147	0x30e6037c	1.6735693e-09
148	0x2e992e72	6.965885e-11
149	0x2dcfa8b9	2.3608103e-11
150	0x327b3622	1.4622431e-08
151	0x34a41414	3.056199e-07
152	0x343ae43e	1.7405634e-07
153	0x343bc209	1.7486322e-07
154	0x32fed4c9	2.9666255e-08
155	0x31d6c7f2	6.250951e-09
156	0x2bfb5c42	1.7860229e-12
157	0x3439a716	1.7290253e-07
158	0x30317a9b	6.456646e-10
159	0x2faaeea7	3.1092393e-10
160	0x32a1fa16	1.8856593e-08
161	0x31ee53ee	6.9362533e-09
162	0x32ee080f	2.7710511e-08
163	0x3354383e	4.941125e-08
164	0x3230fd53	1.0302148e-08
165	0x30a9f602	1.2366288e-09
166	0x2b0e6315	5.058604e-13
167	0x32ee42af	2.773717e-08
168	0x2f7a7919	2.278039e-10
169	0x2ec5e4e5	8.9991826e-11
170	0x332883c6	3.9235395e-08
171	0x35014374	4.81544e-07
172	0x35027ae3	4.86076e-07
173	0x34f9b552	4.6511792e-07
174	0x3394a639	6.922023e-08
175	0x32ac68b1	2.0071043e-08
176	0x2cb98cb9	5.2736396e-12
177	0x35019c23	4.8283454e-07
178	0x3162146c	3.2898937e-09
179	0x308729c0	9.834409e-10
180	0x32ea26be	2.7258803e-08
181	0x330fea7d	3.3508048e-08
182	0x33902fa0	6.7141855e-08
183	0x34098e9d	1.2811002e-07
184	0x3310e914	3.3739596e-08
185	0x31303c69	2.564571e-09
186	0x2bcae453	1.4416336e-12
187	0x338f934e	6.685751e-08
188	0x300b3532	5.06435e-10
189	0x2f72409b	2.2032724e-10
190	0x359a938b	1.1516835e-06
191	0x35c484d7	1.46418e-06
192	0x3507f7bd	5.0651926e-07
193	0x359b7f98	1.1585535e-06
194	0x34c8063f	3.7257448e-07
195	0x32f42182	2.8420576e-08
196	0x2d9118dc	1.6495631e-11
197	0x350a7e25	5.159257e-07
198	0x31f1094f	7.0150814e-09
199	0x312ac47f	2.484995e-09
200	0x332cd3bb	4.023944e-08
201	0x32148b64	8.646428e-09
202	0x33691abf	5.4273865e-08
203	0x3401343c	1.2033064e-07
204	0x33073639	3.1481452e-08
205	0x3122bbcc	2.3680853e-09
206	0x2bb753c9	1.3026187e-12
207	0x33686954	5.4112505e-08
208	0x2fd728ac	3.913717e-10
209	0x2f5ec9a9	2.0262426e-10
210	0x34d4e0cd	3.965164e-07
211	0x34e53075	4.268983e-07
212	0x357d73ad	9.4418175e-07
213	0x359c016e	1.1623322e-06
214	0x3439c0b2	1.729957e-07
215	0x332e75e9	4.061977e-08
216	0x2d2e52fe	9.909183e-12
217	0x357c4da6	9.399031e-07
218	0x31c96dc3	5.8623484e-09
219	0x310d7fc1	2.059082e-09
220	0x2fac94a6	3.139224e-10
221	0x32036783	7.648739e-09
222	0x316c5858	3.4392738e-09
223	0x30b28278	1.2988286e-09
224	0x2ee9edce	1.0637856e-10
225	0x2f034c77	1.1941546e-10
226	0x2822f025	9.0448795e-15
227	0x316add97	3.417744e-09
228	0x2cecdc95	6.732013e-12
229	0x2c6071bb	3.1895448e-12
230	0x34177e1f	1.4108853e-07
231	0x361a832a	2.3024136e-06
232	0x358a522b	1.0305715e-06
233	0x34728fb7	2.259029e-07
234	0x33fd4edf	1.1795577e-07
235	0x33470b7e	4.634375e-08
236	0x2cd615ba	6.084658e-12
237	0x358acc15	1.0341197e-06
238	0x3193da29	4.303065e-09
239	0x3097cbf1	1.104466e-09
240	0x30536e66	7.691824e-10
241	0x30a13b5c	1.1731163e-09
242	0x30b7174e	1.3321626e-09
243	0x31322a8d	2.5926596e-09
244	0x302d4f30	6.3049566e-10
245	0x2ecd5046	9.33658e-11
246	0x29b532ed	8.046849e-14
247	0x30b7acda	1.336413e-09
248	0x2d907896	1.6424456e-11
249	0x2d16e634	8.577628e-12
250	0x315bb1e2	3.196981e-09
251	0x32baa7ac	2.1729498e-08
252	0x30c3901c	1.4229076e-09
253	0x30fe8ebf	1.8521503e-09
254	0x3044622e	7.1443906e-10
255	0x2e3f9535	4.3560894e-11

exp_avg f4 [128, 32]
0	0xb81499dd	-3.5429246e-05
1	0xb61a67bb	-2.3008167e-06
2	0x37035962	7.8290195e-06
3	0x362527a3	2.4609988e-06
4	0x36aa5277	5.075995e-06
5	0xb7a9cb19	-2.0240945e-05
6	0x376f33f3	1.42576055e-05
7	0x373fae56	1.1425078e-05
8	0xb6fe6002	-7.5809667e-06
9	0xb2355fce	-1.055737e-08
10	0x380b941e	3.3278127e-05
11	0x35565ef4	7.985939e-07
12	0xb7024445	-7.764499e-06
13	0x3660785e	3.3448664e-06
14	0xb68e699a	-4.2442234e-06
15	0xb7b154fd	-2.113962e-05
16	0xb674047d	-3.6361446e-06
17	0xb7915071	-1.7322805e-05
18	0xb739ae6f	-1.1067473e-05
19	0x378bd96f	1.6671342e-05
20	0x36b29b03	5.322859e-06
21	0x3674a64b	3.6455629e-06
22	0xb717e578	-9.053729e-06
23	0x37478168	1.1891454e-05
24	0x3690d8b6	4.316763e-06
25	0x371d1e9c	9.365056e-06
26	0xb7000dad	-7.632579e-06
27	0x37b945ec	2.2086278e-05
28	0x373e1de6	1.1331844e-05
29	0x34927d33	2.7285714e-07
30	0x381df5d5	3.7660666e-05
31	0xb79d4393	-1.8747325e-05
32	0xb63f1cb7	-2.8477932e-06
33	0xb6218ca6	-2.4072738e-06
34	0xb65040aa	-3.1032055e-06
35	0xb5cacee0	-1.5110381e-06
36	0x369bfb34	4.648604e-06
37	0xb5bf6168	-1.4258958e-06
38	0xb69fc626	-4.761637e-06
39	0xb524c747	-6.138475e-07
40	0xb697439c	-4.5080214e-06
41	0xb51738c6	-5.63345e-07
42	0x366d5a32	3.5368253e-06
43	0xb6e09d7b	-6.6940534e-06
44	0xb650dd1c	-3.1123118e-06
45	0x36c43080	5.8469013e-06
46	0xb4fa5ec5	-4.6635083e-07
47	0xb5850e47	-9.913427e-07
48	0xb6072085	-2.0135496e-06
49	0xb6961834	-4.473166e-06
50	0x357d0db3	9.426978e-07
51	0x368eb319	4.2527795e-06
52	0xb5743805	-9.09786e-07
53	0xb5d7b75d	-1.6072114e-06
54	0xb5062916	-4.997868e-07
55	0x3625207d	2.4605827e-06
56	0x34217f16	1.5040527e-07
57	0xb3fff800	-1.1919474e-07
58	0xb50ca5d6	-5.239539e-07
59	0x3665f158	3.426414e-06
60	0x3504a0b2	4.9407674e-07
61	0x36a2048e	4.8285065e-06
62	0x368a32b6	4.118624e-06
63	0x31c294b3	5.6630483e-09
64	0xb714ee52	-8.876976e-06
65	0xb65f3a0c	-3.3263377e-06
66	0x37b1b5ca	2.1184696e-05
67	0xb66a6680	-3.492838e-06
68	0xb74b6b43	-1.2124717e-05
69	0xb7aee050	-2.084687e-05
70	0x380ee7fb	3.4071487e-05
71	0x379d892f	1.877974e-05
72	0x37862987	1.5993382e-05
73	0xb4b82bcc	-3.4304537e-07
74	0x371a2ceb	9.189574e-06
75	0x38298584	4.0417086e-05
76	0x35937b91	1.0988316e-06
77	0xb7796836	-1.486582e-05
78	0xb5698d7e	-8.700516e-07
79	0xb7c2de29	-2.3230054e-05
80	0xb705c2e0	-7.972791e-06
81	0xb686dad8	-4.018988e-06
82	0xb72f2ccd	-1.0441244e-05
83	0x37571704	1.2820357e-05
84	0x368035d5	3.820964e-06
85	0x37ce5530	2.4596782e-05
86	0xb6a15cbe	-4.8089705e-06
87	0xb71de43a	-9.411067e-06
88	0x3678f3d2	3.7096802e-06
89	0x37408aa9	1.1476376e-05
90	0x373f51ac	1.1403503e-05
91	0xb5c71728	-1.4833395e-06
92	0x36700f65	3.5771748e-06
93	0xb7861174	-1.5982172e-05
94	0x37c07b3e	2.2945573e-05
95	0xb7a70944	-1.9912266e-05
96	0x36dab823	6.5183426e-06
97	0xb5b75a6d	-1.366088e-06
98	0xb5ce17b5	-1.5355096e-06
99	0xb6081757	-2.0279165e-06
100	0xb40e150b	-1.3232436e-07
101	0x35aea1e1	1.3011123e-06
102	0xb62e6370	-2.59859e-06
103	0xb5377778	-6.834666e-07
104	0x35be9b55	1.4201311e-06
105	0xb53209b1	-6.632427e-07
106	0xb6a55951	-4.927781e-06
107	0x35b97eda	1.3820493e-06
108	0xb491a01a	-2.7124844e-07
109	0x3566eb36	8.6023954e-07
110	0x35451882	7.342388e-07
111	0x35cd0351	1.5274655e-06
112	0xb5d675e6	-1.5978555e-06
113	0x353f2ab9	7.1215214e-07
114	0x360edc14	2.1287751e-06
115	0x354fdcdc	7.74349e-07
116	0xb5cff196	-1.5493013e-06
117	0x35d3e6dd	1.5787915e-06
118	0x3598317a	1.1339282e-06
119	0xb60f98a5	-2.1397511e-06
120	0xb47e9a1c	-2.3711658e-07
121	0xb55a4cbf	-8.132301e-07
122	0x367012ba	3.5773687e-06
123	0xb6867755	-4.0074033e-06
124	0xb61323d2	-2.1925557e-06
125	0x353a1c9a	6.933202e-07
126	0xb6378b9b	-2.7350386e-06
127	0x35e89d98	1.7331213e-06
128	0xb89cbbbb	-7.473627e-05
129	0xb723bf51	-9.760101e-06
130	0x35a207e7	1.207224e-06
131	0xb688ec06	-4.0805926e-06
132	0x37d96a48	2.5917907e-05
133	0xb81dc239	-3.76126e-05
134	0x36f4871b	7.287495e-06
135	0x377f6789	1.5223291e-05
136	0xb8065ece	-3.2036383e-05
137	0xb5c7ba25	-1.4880831e-06
138	0x38910670	6.915338e-05
139	0xb7ece3ea	-2.8239523e-05
140	0xb7b4fcb9	-2.1575355e-05
141	0x37e79f6f	2.7611588e-05
142	0xb70fb045	-8.564505e-06
143	0xb8194e2e	-3.6550853e-05
144	0xb7582886	-1.2884038e-05
145	0xb831398a	-4.2253676e-05
146	0xb764ae5e	-1.3630457e-05
147	0x383dcd8c	4.5252542e-05
148	0x36b79ea3	5.4722927e-06
149	0xb53934f0	-6.8994905e-07
150	0xb77888ab	-1.4813772e-05
151	0x37bdf27b	2.264347e-05
152	0x36ea594c	6.984139e-06
153	0x375d8874	1.3204397e-05
154	0xb79150b9	-1.7322936e-05
155	0x38611f54	5.3673357e-05
156	0x37b00d0a	2.0986907e-05
157	0x37bfb007	2.2850943e-05
158	0x3892b9d6	6.996437e-05
159	0xb7ecb95f	-2.8219712e-05
160	0xb8013a87	-3.0810505e-05
161	0xb63a041f	-2.7718559e-06
162	0xb7abd847	-2.04855e-05
163	0x35be13a1	1.4161816e-06
164	0x37d287a0	2.5097106e-05
165	0x361a1538	2.296014e-06
166	0xb805b224	-3.1875577e-05
167	0xb7423e6c	-1.1577835e-05
168	0xb80ddf91	-3.3825232e-05
169	0xb375c2b7	-5.72206e-08
170	0x37e45120	2.7217495e-05
171	0xb86a194f	-5.5813518e-05
172	0xb7483799	-1.1933874e-05
173	0x38032b9c	3.127345e-05
174	0xb5a32015	-1.2153783e-06
175	0x368a9b3c	4.130792e-06
176	0x34e93a32	4.3441975e-07
177	0xb7b06122	-2.1026066e-05
178	0x36702760	3.5785706e-06
179	0x371ddd64	9.409476e-06
180	0x3608cf33	2.0386185e-06
181	0xb7e202bd	-2.6942575e-05
182	0xb685be26	-3.985845e-06
183	0x378d181a	1.6819733e-05
184	0x3502d228	4.873459e-07
185	0xb69eef00	-4.73659e-06
186	0xb7ab4c36	-2.0420277e-05
187	0x37fa0539	2.9804754e-05
188	0x3727531b	9.973325e-06
189	0x37fe61c4	3.0324685e-05
190	0x3745e08c	1.1794396e-05
191	0x3684e540	3.9605948e-06
192	0xb8623f80	-5.3941738e-05
193	0xb73dc063	-1.1310071e-05
194	0x37ab6dcf	2.0435922e-05
195	0xb75493b0	-1.2670571e-05
196	0x36b8f5a6	5.5122246e-06
197	0xb8649fcb	-5.4508255e-05
198	0x383011fb	4.1978416e-05
199	0x380d5ef2	3.3705444e-05
200	0xb5c8daaa	-1.4964801e-06
201	0xb69149aa	-4.3299124e-06
202	0x38625622	5.3962816e-05
203	0x37f64ec4	2.9362163e-05
204	0xb7906dad	-1.721721e-05
205	0x35b9eddf	1.3852804e-06
206	0xb73338f2	-1.068249e-05
207	0xb85b9f6a	-5.2362135e-05
208	0xb7b1672d	-2.114809e-05
209	0xb8001b97	-3.0543273e-05
210	0xb794f231	-1.7755754e-05
211	0x38763f77	5.8710077e-05
212	0xb593d24e	-1.101356e-06
213	0x3816a1d3	3.5913497e-05
214	0xb7536ea6	-1.2602342e-05
215	0x371acf43	9.227372e-06
216	0x371755c5	9.020271e-06
217	0x37b6d30c	2.1794367e-05
218	0x370b2136	8.292778e-06
219	0x38041fc6	3.1500844e-05
220	0x3734c48a	1.0774596e-05
221	0xb652f8c3	-3.1437237e-06
222	0x38ab6872	8.17337e-05
223	0xb824b3ee	-3.926822e-05
224	0xb692ef45	-4.3789937e-06
225	0x34b29664	3.3264507e-07
226	0xb79b860f	-1.8539866e-05
227	0x35a99310	1.2634282e-06
228	0x377b127f	1.4965072e-05
229	0x37557843	1.272379e-05
230	0xb7f7fa0d	-2.9561133e-05
231	0xb770a717	-1.4344018e-05
232	0xb7a756b8	-1.9948333e-05
233	0x33ac3943	8.01979e-08
234	0x361ee40e	2.367658e-06
235	0xb82b1c6f	-4.0796058e-05
236	0xb68af4b8	-4.1412095e-06
237	0x37a046d8	1.9106476e-05
238	0x351f78a9	5.94077e-07
239	0x377397f9	1.4519313e-05
240	0x367f57fb	3.8049172e-06
241	0xb6a12931	-4.802969e-06
242	0x370301cc	7.808627e-06
243	0xb685c8cf	-3.987086e-06
244	0xb5ad4a5e	-1.2911148e-06
245	0xb7b7b4c1	-2.189947e-05
246	0x36040e62	1.9677905e-06
247	0x3705ab28	7.967268e-06
248	0xb5f0aec6	-1.7932259e-06
249	0xb70ba091	-8.32243e-06
250	0xb746d3b8	-1.1851014e-05
251	0x3725e02f	9.886963e-06
252	0x3597afc3	1.130153e-06
253	0x37a75da2	1.9951553e-05
254	0xb73a0f7a	-1.1090067e-05
255	0x3757f0c1	1.28710535e-05
